results/testBall4/HitTheBall.onnx (onnx, 74062 bytes, 8 tensors)

action_model._continuous_distribution.log_sigma f4 [1, 2]
0.0 0.0
00000000: 0000 0000 0000 0000

action_model._continuous_distribution.mu.bias f4 [2]
0.0 0.0
00000000: 0000 0000 0000 0000

action_model._continuous_distribution.mu.weight f4 [2, 128]
0.012129983 0.018529547 0.00043277533 0.014336467 0.022389587 0.0020809618 0.017111069 -0.019097961
0.0037920498 0.012975931 0.021068305 0.010411963 0.0012474841 -0.015432241 0.011413351 0.02597619
0.010812046 -0.00051731785 0.0029014382 -0.015926218 0.038149726 -0.0034959689 0.007261292 0.00023928155
0.014035597 0.016568618 -0.01682109 0.013030608 -0.0072272136 -0.007993624 -0.00249965 0.0030317705
-0.0018607232 -0.009675678 0.027254393 0.011572137 -0.028289108 0.0018245227 0.0034993216 -0.0075345286
0.010915256 -0.019395001 -0.011937026 0.018143402 0.026669411 0.020760452 -0.031280246 0.051694334
0.039209537 0.011540973 0.024675202 0.0056970133 -0.011193841 0.007449755 -0.02787899 -0.021207964
-0.005287814 0.0021503617 0.018359559 -0.014866866 -0.002073353 0.007828991 -0.015812105 -0.004793558
-0.01700464 -0.027600506 0.016744047 -0.016909046 -0.0023166619 0.0028843696 0.0017809429 -0.011654115
0.0023743254 -0.015901564 0.017593458 0.009938004 -0.006860743 -0.013343784 0.0070271725 -0.012215715
-0.0017197563 0.016390765 -0.018595 -0.04173016 0.021729413 0.028758887 -0.017949214 0.0036877324
0.017103938 0.02110126 -0.035662834 -0.017215617 -0.024364483 -0.01444229 -0.0057740035 -0.044371095
-0.03548297 -0.0023977421 -0.010032859 -0.011582117 0.0026802279 0.011041351 -0.030740453 -0.0052692094
-0.005275248 -0.012205145 0.04611444 0.005786291 -0.016155314 0.023041723 -0.018239973 0.0071630264
-0.020816397 -0.027239576 -0.010052412 0.0049672415 -0.001197696 -0.0023013817 0.028755713 -0.0053451895
0.020311013 0.028369343 0.00096191524 0.038209114 0.005142483 0.008279717 -0.017340682 0.012362393
-0.026717646 0.035495516 0.0024506124 0.019064337 -0.025055915 0.021110984 -0.009294855 0.0086360825
0.005486273 0.039522346 -0.023627587 0.03854223 0.010437509 -0.020219905 -0.0115253 -0.0044737943
0.01496509 -0.017327009 0.015235046 0.021277219 0.018036151 0.0012663279 0.009393022 0.0015585192
0.017262809 0.0075454833 0.010285736 0.0167205 -0.0063373037 -0.0071217963 -0.002179035 -0.0044029774
-0.01943534 0.0051051956 -0.010510608 0.0067009837 0.021483926 0.002251703 -0.017067133 -0.0048788367
-0.015466069 -0.03899483 -0.022819808 -0.0068679377 -0.0009959767 0.0021754962 0.00969541 -0.013326778
-0.025023526 -0.0022203533 0.0005723908 0.020061916 0.028701713 -0.022193575 -0.027199298 -0.023839165
-0.0016718082 0.0105755245 -0.008948284 0.02096209 0.007884171 0.0037344557 -0.014163542 0.0041373405
-0.016772887 -0.0035111045 -0.03000379 -0.008581691 -0.022548584 0.0008381025 -0.0009861988 0.022862215
0.005416879 -0.00492769 -0.009168528 0.029358108 -0.0006841737 -0.022145892 -0.002696303 -0.010412494
-0.03620859 0.055245925 -0.020456525 -0.017741924 0.017402926 0.0028830965 3.525439e-05 0.020282347
0.0054642702 0.008643798 0.015939383 0.01467637 0.030102292 -0.019045036 -0.021184305 -0.037251588
0.017285435 -0.017182808 0.008730621 0.00041156774 -0.010683966 -0.019374961 -0.02399384 -0.00029890172
0.029152885 0.007707886 0.008845407 0.002704226 0.017854782 -0.00013510605 -0.02618903 0.00417491
0.009149969 0.0048942347 -0.0034800812 0.0067028846 -0.014388174 -0.017969454 0.012106182 0.020455496
-0.005992018 0.012704998 -0.0058447006 0.0027096292 -0.0019224348 0.005431443 0.018948307 -0.0046825237
00000000: d6bc 463c 47cb 973c 1fe6 e239 80e3 6a3c
00000010: 5e6a b73c bf60 083b 832c 8c3c 5473 9cbc
00000020: 0a84 783b 0099 543c 7097 ac3c f096 2a3c
00000030: 9f82 a33a 83d7 7cbc 10ff 3a3c 05cc d43c
00000040: 0225 313c 9d9c 07ba 0e26 3e3b b377 82bc
00000050: e342 1c3d a01c 65bb 22f0 ed3b a7e7 7a39
00000060: 90f5 653c e9ba 873c 62cc 89bc 557e 553c
00000070: 43d2 ecbb b0f7 02bc 2bd1 23bb abb0 463b
00000080: 83e3 f3ba bc86 1ebc 9b44 df3c 0f99 3d3c
00000090: 8fbe e7bc d324 ef3a e054 653b 35e4 f6bb
000000a0: e7d5 323c 44e2 9ebc 8493 43bc 79a1 943c
000000b0: cf79 da3c d311 aa3c b71f 00bd 70bd 533d
000000c0: 2e9a 203d 5916 3d3c a623 ca3c 03ae ba3b
000000d0: 5f66 37bc 131d f43b 7b62 e4bc 53bc adbc
000000e0: 6645 adbb 15ed 0c3b c966 963c 2894 73bc
000000f0: 17e1 07bb 2b45 003c 6388 81bc 4713 9dbb
00000100: 514d 8bbc 751a e2bc d02a 893c d784 8abc
00000110: 23d3 17bb b107 3d3b 876e e93a e7f0 3ebc
00000120: 929a 1b3b ff43 82bc 2820 903c 03d3 223c
00000130: 15d0 e0bb e39f 5abc 3244 e63b 6c24 48bc
00000140: 7269 e1ba ed45 863c 8b54 98bc 3fed 2abd
00000150: e201 b23c c297 eb3c 3b0a 93bc e2ad 713b
00000160: 8f1d 8c3c 8ddc ac3c 3113 12bd c407 8dbc
00000170: 0698 c7bc 5b9f 6cbc da33 bdbb 77be 35bd
00000180: 9756 11bd 7023 1dbb dc60 24bc ebc2 3dbc
00000190: c3a6 2f3b c8e6 343c 67d3 fbbc 55a9 acbb
000001a0: fddb acbb 17f8 47bc 7fe2 3c3d ed9a bd3b
000001b0: 2658 84bc ffc1 bc3c ff6b 95bc d2b7 ea3b
000001c0: 2687 aabc 8825 dfbc dfb2 24bc 3ec4 a23b
000001d0: 02fc 9cba c7d2 16bb 1a91 eb3c b326 afbb
000001e0: 4863 a63c d366 e83c 0a29 7c3a 2981 1c3d
000001f0: 4682 a83b a6a7 073c 0c0e 8ebc a28b 4a3c
00000200: f7de dabc bf63 113d 749a 203b d02c 9c3c
00000210: 1042 cdbc f1f0 ac3c 7349 18bc 5b7e 0d3c
00000220: 32c6 b33b 2fe2 213d a48e c1bc 75de 1d3d
00000230: 1602 2b3c 37a4 a5bc 9dd4 3cbc e898 92bb
00000240: 2330 753c 5ff1 8dbc 6a9c 793c 904d ae3c
00000250: 8dc0 933c eafa a53a 31e5 193c 3a47 cc3a
00000260: bc6a 8d3c 1a40 f73b 8185 283c 6ef9 883c
00000270: 28a9 cfbb f55d e9bb 24ce 0ebb da46 90bb
00000280: dd36 9fbc 7c49 a73b af34 2cbc ed93 db3b
00000290: 0fff af3c 4f91 133b 5fd0 8bbc a6de 9fbb
000002a0: 6565 7dbc 0bb9 1fbd 9bf0 babc 700c e1bb
000002b0: 6f8b 82ba c592 0e3b 7fd9 1e3c 8f58 5abc
000002c0: 23fe ccbc 5983 11bb 7f0c 163a e358 a43c
000002d0: db1f eb3c 4dcf b5bc 10d1 debc 5a4a c3bc
000002e0: 9320 dbba f744 2d3c d39b 12bc b0b8 ab3c
000002f0: 9c2c 013c c5bd 743b 330e 68bc 8792 873b
00000300: 4b67 89bc 8f1a 66bb 82ca f5bc 399a 0cbc
00000310: cfb7 b8bc 1bb4 5b3a 5743 81ba 8a49 bb3c
00000320: 1380 b13b 7678 a1bb 9837 16bc 6a80 f03c
00000330: 1f5a 33ba 4d6b b5bc 75b4 30bb 2a99 2abc
00000340: 754f 14bd 8d49 623d 7194 a7bc 8357 91bc
00000350: 9590 8e3c 55f2 3c3b 1dde 1338 2a27 a63c
00000360: 9f0d b33b b79e 0d3c 4f93 823c 2875 703c
00000370: 1599 f63c 5604 9cbc b58a adbc 1f95 18bd
00000380: 2f9a 8d3c f6c2 8cbc e10a 0f3c b0c7 d739
00000390: cd0b 2fbc 3db8 9ebc bb8e c4bc e9b5 9cb9
000003a0: 08d2 ee3c 6f92 fc3b 53ec 103c 6239 313b
000003b0: 3144 923c 41ab 0db9 608a d6bc afcd 883b
000003c0: c0e9 153c d15f a03b 1312 64bb dfa3 db3b
000003d0: 60bc 6bbc ad34 93bc 0259 463c 4992 a73c
000003e0: b158 c4bb a028 503c e784 bfbb 0994 313b
000003f0: 35fa fbba 3ffa b13b 7b39 9b3c db6f 99bb

action_model._discrete_distribution.branches.0.weight f4 [1, 128]
0.002840181 -0.008275443 0.0054605845 0.0021859747 0.021246985 0.0013348414 -0.009610592 0.011210085
0.007906794 -0.00015338304 -0.0063555674 0.0058070174 0.003418677 -0.009229954 -0.016614629 0.0025446338
0.0002377032 -0.009436349 -0.0005362429 -0.0138688935 -0.004969764 -0.012304793 0.011397603 0.0053642835
0.008355013 0.0018674402 -0.005779646 -0.0069865235 0.010936784 -0.009956539 -0.015093249 0.0038707342
-0.0050314944 -0.013246046 0.012338265 -0.016693518 0.010698662 -0.0046649333 0.008712214 -0.0067701596
-0.02050304 -0.0011000236 -0.0013556231 -0.006696603 -0.006220461 0.0002854984 -0.010381187 0.005913966
0.006968654 0.0051122042 -0.005140415 -0.005423476 0.0069339755 0.0032603398 0.005275037 0.0056015025
0.004080824 -0.0072615915 -0.0006984816 -0.007482245 0.017446449 0.0035139944 -0.004580453 -0.0037801482
0.0144337965 -0.004028471 -0.004704268 -0.0154867815 0.0008843592 -0.015642233 -0.018040307 -0.003976119
0.0030407791 0.015840156 0.016648619 0.010815857 -0.01217503 -0.002365072 -0.0010227589 -0.0048612477
0.0077428627 0.010519255 0.0035573312 -0.0014989945 0.016071841 0.0014282572 0.0016991124 -0.023938803
-0.0051904023 0.007883493 -0.009696463 0.008106847 -0.0068450305 -0.013490391 -0.007664263 0.00884161
0.012597724 0.0087149795 -0.0070328712 -0.012026 -0.0061945044 0.0046415976 0.004776669 -0.0032561657
-0.003210103 0.002291085 -0.004794556 0.014944771 0.0050468068 -0.010019901 0.008917135 -0.014010936
-0.0011013924 -0.008424225 0.014587245 0.008113013 0.0110208085 0.0026441235 0.009333256 0.0060532796
0.007071839 0.0012637445 0.00650061 -0.0027491066 0.0070574316 0.0052465606 0.0013646268 0.005599255
00000000: 5522 3a3b b995 07bc b4ee b23b 9242 0f3b
00000010: 280e ae3c d8f5 ae3a bf75 1dbc 81aa 373c
00000020: 7f8b 013c 72d5 20b9 5d42 d0bb cb48 be3b
00000030: e20b 603b 3c39 17bc 671b 88bc dfc3 263b
00000040: f83f 7939 eb9a 1abc a792 0cba 5b3a 63bc
00000050: 67d9 a2bb 0b9a 49bc 03bd 3a3c dfc6 af3b
00000060: 77e3 083c e5c4 f43a 2f63 bdbb 35ef e4bb
00000070: 3230 333c c020 23bc ad49 77bc 25ac 7d3b
00000080: 3cdf a4bb f205 59bc 6f26 4a3c d8c0 88bc
00000090: 7149 2f3c 4cdc 98bb adbd 0e3c 37d8 ddbb
000000a0: fef5 a7bc ab2e 90ba 2aaf b1ba 2d6f dbbb
000000b0: 02d5 cbbb f2ae 9539 db15 2abc f1c9 c13b
000000c0: 4f59 e43b 4784 a73b ed70 a8bb 6ab7 b1bb
000000d0: 6736 e33b 6dab 553b 38da ac3b cf8c b73b
000000e0: 6fb8 853b a5f2 edbb 4f1a 37ba 9f2d f5bb
000000f0: dbeb 8e3c 0b4b 663b a017 96bb 5dbc 77bb
00000100: bb7b 6c3c 4401 84bb 4326 9abb 45bc 7dbc
00000110: 57d4 673a 2424 80bc 44c9 93bc 1b4a 82bb
00000120: cf47 473b 37c3 813c af62 883c fe34 313c
00000130: c779 47bc 53ff 1abb 180e 86ba 1a4b 9fbb
00000140: d7b7 fd3b f458 2c3c 1d22 693b e979 c4ba
00000150: 18a9 833c 5c34 bb3a c0b4 de3a 4f1b c4bc
00000160: 4014 aabb c429 013c eadd 1ebc 95d2 043c
00000170: 474c e0bb cd06 5dbc 7f24 fbbb 66dc 103c
00000180: af66 4e3c 46c9 0e3c 0074 e6bb b308 45bc
00000190: 45fb cabb 8b18 983b 9b85 9c3b 6565 55bb
000001a0: 9760 52bb 0726 163b a71b 9dbb eada 743c
000001b0: af5f a53b 832a 24bc 2d19 123c 208e 65bc
000001c0: 995c 90ba c305 0abc 57ff 6e3c 71ec 043c
000001d0: 9f90 343c 0849 2d3b 83ea 183c 975a c63b
000001e0: e3ba e73b 3ba4 a53a 1203 d53b 5b2a 34bb
000001f0: 0742 e73b 57eb ab3b 47dd b23a f579 b73b

network_body.linear_encoder.seq_layers.0.bias f4 [128]
0.0 0.0 0.0 0.0 0.0 0.0 0.0 0.0
0.0 0.0 0.0 0.0 0.0 0.0 0.0 0.0
0.0 0.0 0.0 0.0 0.0 0.0 0.0 0.0
0.0 0.0 0.0 0.0 0.0 0.0 0.0 0.0
0.0 0.0 0.0 0.0 0.0 0.0 0.0 0.0
0.0 0.0 0.0 0.0 0.0 0.0 0.0 0.0
0.0 0.0 0.0 0.0 0.0 0.0 0.0 0.0
0.0 0.0 0.0 0.0 0.0 0.0 0.0 0.0
0.0 0.0 0.0 0.0 0.0 0.0 0.0 0.0
0.0 0.0 0.0 0.0 0.0 0.0 0.0 0.0
0.0 0.0 0.0 0.0 0.0 0.0 0.0 0.0
0.0 0.0 0.0 0.0 0.0 0.0 0.0 0.0
0.0 0.0 0.0 0.0 0.0 0.0 0.0 0.0
0.0 0.0 0.0 0.0 0.0 0.0 0.0 0.0
0.0 0.0 0.0 0.0 0.0 0.0 0.0 0.0
0.0 0.0 0.0 0.0 0.0 0.0 0.0 0.0
00000000: 0000 0000 0000 0000 0000 0000 0000 0000
00000010: 0000 0000 0000 0000 0000 0000 0000 0000
00000020: 0000 0000 0000 0000 0000 0000 0000 0000
00000030: 0000 0000 0000 0000 0000 0000 0000 0000
00000040: 0000 0000 0000 0000 0000 0000 0000 0000
00000050: 0000 0000 0000 0000 0000 0000 0000 0000
00000060: 0000 0000 0000 0000 0000 0000 0000 0000
00000070: 0000 0000 0000 0000 0000 0000 0000 0000
00000080: 0000 0000 0000 0000 0000 0000 0000 0000
00000090: 0000 0000 0000 0000 0000 0000 0000 0000
000000a0: 0000 0000 0000 0000 0000 0000 0000 0000
000000b0: 0000 0000 0000 0000 0000 0000 0000 0000
000000c0: 0000 0000 0000 0000 0000 0000 0000 0000
000000d0: 0000 0000 0000 0000 0000 0000 0000 0000
000000e0: 0000 0000 0000 0000 0000 0000 0000 0000
000000f0: 0000 0000 0000 0000 0000 0000 0000 0000
00000100: 0000 0000 0000 0000 0000 0000 0000 0000
00000110: 0000 0000 0000 0000 0000 0000 0000 0000
00000120: 0000 0000 0000 0000 0000 0000 0000 0000
00000130: 0000 0000 0000 0000 0000 0000 0000 0000
00000140: 0000 0000 0000 0000 0000 0000 0000 0000
00000150: 0000 0000 0000 0000 0000 0000 0000 0000
00000160: 0000 0000 0000 0000 0000 0000 0000 0000
00000170: 0000 0000 0000 0000 0000 0000 0000 0000
00000180: 0000 0000 0000 0000 0000 0000 0000 0000
00000190: 0000 0000 0000 0000 0000 0000 0000 0000
000001a0: 0000 0000 0000 0000 0000 0000 0000 0000
000001b0: 0000 0000 0000 0000 0000 0000 0000 0000
000001c0: 0000 0000 0000 0000 0000 0000 0000 0000
000001d0: 0000 0000 0000 0000 0000 0000 0000 0000
000001e0: 0000 0000 0000 0000 0000 0000 0000 0000
000001f0: 0000 0000 0000 0000 0000 0000 0000 0000

network_body.linear_encoder.seq_layers.0.weight f4 [128, 6]
0.27492028 -0.3175853 -0.569722 0.30496433 0.40213045 0.11007844 0.54758763 0.14921679
0.112828664 0.15260874 0.17528085 0.40860713 -0.3703437 0.28645143 0.70595163 -0.25633982
0.31154972 -0.22124006 0.04668029 -0.12174274 -0.1259966 0.6745084 -0.52248484 0.37034848
-0.24174249 -0.1605797 0.16205595 0.03395729 0.20023187 0.0978267 -0.57954246 0.49732068
-0.4597953 0.06462934 -0.19246152 0.47025508 0.26182336 0.55677956 -0.052227765 0.10690302
-0.67184526 0.057241365 0.42373157 0.7396824 0.26615357 -0.20744373 -0.5770891 -0.37847593
-0.42152393 0.18348192 -0.22662576 0.36297014 -0.14298056 0.13098904 0.26954156 -0.07441275
-0.5223636 -0.10886951 0.1714369 -0.72424084 0.7058929 -0.3579811 0.45568553 1.1485624
0.020416018 0.6718595 -0.15316987 -0.20732537 -0.10178018 -0.35132828 -0.15104364 0.01571551
-0.60358715 -0.100139186 0.17868994 -0.35989237 -0.07821323 -0.5376742 -0.22711782 -0.12546706
-0.32959893 -0.63798124 0.8610855 0.17552702 0.070265494 -0.138635 -0.056977805 -0.49074435
0.8821315 -0.31711987 0.23692918 0.4961689 -0.018244497 -0.7972375 1.3232266 0.43414965
0.3908607 0.06192389 0.07341747 0.016075721 0.2652548 -0.17134313 0.43896258 -0.79715985
0.40306535 -0.056447435 0.42978418 -0.34838292 0.035859507 -0.13218448 0.6568475 -0.21204384
-0.16378388 0.13857709 -0.10638449 -0.20601489 0.39808378 -0.012856123 -0.025733288 0.86257607
0.14618105 0.36045158 0.16076317 -0.25675982 -0.095930465 0.21698944 0.1185891 0.02614976
-0.14317894 -0.1866306 -0.78649527 -0.53521967 0.580153 -0.0054354994 0.083800286 0.20469409
-0.046730526 -0.60650074 0.18229884 0.82956105 -0.5295714 0.28575793 -0.35031644 0.5774656
0.47457212 -0.43933937 0.092209466 0.6830159 0.1550307 -0.8517562 -0.31151357 -0.5174242
0.31526694 0.11329526 -0.105284125 0.11793543 0.52778125 0.33452985 0.10524256 -0.9001213
-0.11624299 0.035326418 -0.5087856 -0.74514836 0.6795211 0.51830035 0.28730956 -0.014890599
-0.2207924 0.14098886 0.66671705 -0.3849825 1.0919614 -0.141818 -1.0359552 0.02284452
0.7668796 0.054752246 -0.644304 0.047899865 0.28967655 -0.02538994 -0.15656696 0.6342822
0.7381003 -0.3642475 0.76996374 -0.4755021 -0.60606086 0.2226318 -0.16330864 -0.52378017
-0.040825706 -0.8465199 0.2576174 0.10201903 0.19339211 -0.5056872 0.4737916 0.29694605
0.09742995 -0.70189 -0.06336042 0.3633549 0.26945156 -0.3232174 0.51643693 -0.16602167
-0.4935961 0.042021647 -0.9754879 0.30097783 0.3738846 0.6320784 -0.7795952 -0.43205586
-0.09292888 0.2712128 0.4308404 0.0065412847 0.37150344 0.18693492 -0.032695904 0.11134977
-0.14828773 0.07439757 0.034713637 0.5352184 0.7951505 -0.41756102 -0.45370346 -0.41278213
-0.42461622 0.33756262 -0.09061305 -0.05334536 -1.1467134 0.45414725 -0.072669 0.3937956
0.5281116 0.15037276 -0.30513778 0.18566877 -0.012185191 -0.4929768 -0.06994266 0.013552045
0.3349533 0.10133115 -0.12982167 0.08553803 0.32081756 0.40320653 -0.15251744 -0.24844295
00000000: 5ac2 8c3e 8a9a a2be 4dd9 11bf 4924 9c3e
00000010: 0be4 cd3e ce70 e13d b42e 0c3f 49cc 183e
00000020: b712 e73d 7745 1c3e d37c 333e f434 d13e
00000030: b09d bdbe c3a9 923e 3fb9 343f f93e 83be
00000040: 7283 9f3e c18c 62be d533 3f3d 4254 f9bd
00000050: 4105 01be 95ac 2c3f 91c1 05bf 519e bd3e
00000060: 588b 77be 016f 24be fff1 253e cd16 0b3d
00000070: 9509 4d3e 5d59 c83d e55c 14bf d1a0 fe3e
00000080: 4a6a ebbe 635c 843d a214 45be 46c5 f03e
00000090: b60d 863e 1b89 0e3f c8ec 55bd f8ef da3d
000000a0: 0dfe 2bbf ec75 6a3d 58f3 d83e d35b 3d3f
000000b0: 4845 883e 216c 54be 1cbc 13bf 99c7 c1be
000000c0: fcd1 d7be afe2 3b3e 9510 68be 39d7 b93e
000000d0: 7f69 12be fe21 063e 5a01 8a3e b665 98bd
000000e0: 9fb9 05bf faf6 debd 288d 2f3e d967 39bf
000000f0: 66b5 343f 4c49 b7be 9d4f e93e 1804 933f
00000100: 7e3f a73c fcfe 2b3f 90d8 1cbe 1a4d 54be
00000110: 2172 d0bd 4de1 b3be 2fab 1abe d0bd 803c
00000120: b084 1abf c615 cdbd 7ffa 363e d043 b8be
00000130: 422e a0bd 04a5 09bf 9391 68be 707a 00be
00000140: 31c1 a8be bd52 23bf 1970 5c3f 5bbd 333e
00000150: 5be7 8f3d 55f6 0dbe 8f61 69bd d842 fbbe
00000160: 5fd3 613f 895d a2be 909d 723e da09 fe3e
00000170: 7c75 95bc c217 4cbf 7d5f a93f dd48 de3e
00000180: e51e c83e e8a3 7d3d e65b 963d 3bb1 833c
00000190: 7acf 873e 9374 2fbe b4bf e03e ab12 4cbf
000001a0: 955e ce3e 6d35 67bd ac0c dc3e 3f5f b2be
000001b0: 6be1 123d 5e5b 07be 2827 283f 0522 59be
000001c0: f6b6 27be 27e7 0d3e 1de0 d9bd 91f5 52be
000001d0: a3d1 cb3e 7da2 52bc 9ece d2bc c9d1 5c3f
000001e0: 7cb0 153e 1c8d b83e 1a9f 243e 0676 83be
000001f0: 3177 c4bd 7b32 5e3e d8de f23d 0538 d63c
00000200: 809d 12be 181c 3fbe c157 49bf 2804 09bf
00000210: e884 143f 461c b2bb 7c9f ab3d 549b 513e
00000220: 8268 3fbd a243 1bbf 8cac 3a3e 1d5e 543f
00000230: fe91 07bf dd4e 923e ad5c b3be c9d4 133f
00000240: 1efb f23e 17f1 e0be 51d8 bc3d 21da 2e3f
00000250: 5ec0 1e3e b20c 5abf b57e 9fbe ea75 04bf
00000260: ab6a a13e 5807 e83d 349f d7bd 2188 f13d
00000270: ac1c 073f 7f47 ab3e 6989 d73d 596e 66bf
00000280: ce10 eebd 6fb2 103d c63f 02bf 0bc2 3ebf
00000290: 18f5 2d3f 55af 043f 3d1a 933e b3f7 73bc
000002a0: 6717 62be 625f 103e f8ad 2a3f 6d1c c5be
000002b0: 64c5 8b3f bd38 11be 2e9a 84bf 6e24 bb3c
000002c0: 3952 443f e443 603d 1bf1 24bf a632 443d
000002d0: 7c50 943e 90fe cfbc 1753 20be 5160 223f
000002e0: 24f4 3c3f a67e babe 581c 453f 0375 f3be
000002f0: ce26 1bbf 97f9 633e 613a 27be 7516 06bf
00000300: db38 27bd 87b5 58bf 6ee6 833e 5aef d03d
00000310: 9508 463e b774 01bf d094 f23e 5009 983e
00000320: 5b89 c73d 10af 33bf 1cc3 81bd a709 ba3e
00000330: 8ef5 893e c07c a5be 3635 043f 9601 2abe
00000340: a1b8 fcbe e41e 2c3d 93b9 79bf c419 9a3e
00000350: cd6d bf3e e4cf 213f 8d93 47bf 6d36 ddbe
00000360: 7f51 bebd 67dc 8a3e 1d97 dc3e 4658 d63b
00000370: b335 be3e de6b 3f3e 24ec 05bd 590b e43d
00000380: bdd8 17be c15d 983d e32f 0e3d 1304 093f
00000390: fc8e 4b3f 8fca d5be d24b e8be 2e58 d3be
000003a0: 4c67 d9be 02d5 ac3e 5693 b9bd aa80 5abd
000003b0: 81c7 92bf fd85 e83e 7cd3 94bd 949f c93e
000003c0: 5232 073f 51fb 193e 053b 9cbe f41f 3e3e
000003d0: 65a4 47bc 7567 fcbe 193e 8fbd 6609 5e3c
000003e0: 007f ab3e b586 cf3d f9ef 04be 902e af3d
000003f0: 3342 a43e 1671 ce3e 882d 1cbe d467 7ebe

network_body.linear_encoder.seq_layers.2.bias f4 [128]
0.0 0.0 0.0 0.0 0.0 0.0 0.0 0.0
0.0 0.0 0.0 0.0 0.0 0.0 0.0 0.0
0.0 0.0 0.0 0.0 0.0 0.0 0.0 0.0
0.0 0.0 0.0 0.0 0.0 0.0 0.0 0.0
0.0 0.0 0.0 0.0 0.0 0.0 0.0 0.0
0.0 0.0 0.0 0.0 0.0 0.0 0.0 0.0
0.0 0.0 0.0 0.0 0.0 0.0 0.0 0.0
0.0 0.0 0.0 0.0 0.0 0.0 0.0 0.0
0.0 0.0 0.0 0.0 0.0 0.0 0.0 0.0
0.0 0.0 0.0 0.0 0.0 0.0 0.0 0.0
0.0 0.0 0.0 0.0 0.0 0.0 0.0 0.0
0.0 0.0 0.0 0.0 0.0 0.0 0.0 0.0
0.0 0.0 0.0 0.0 0.0 0.0 0.0 0.0
0.0 0.0 0.0 0.0 0.0 0.0 0.0 0.0
0.0 0.0 0.0 0.0 0.0 0.0 0.0 0.0
0.0 0.0 0.0 0.0 0.0 0.0 0.0 0.0
00000000: 0000 0000 0000 0000 0000 0000 0000 0000
00000010: 0000 0000 0000 0000 0000 0000 0000 0000
00000020: 0000 0000 0000 0000 0000 0000 0000 0000
00000030: 0000 0000 0000 0000 0000 0000 0000 0000
00000040: 0000 0000 0000 0000 0000 0000 0000 0000
00000050: 0000 0000 0000 0000 0000 0000 0000 0000
00000060: 0000 0000 0000 0000 0000 0000 0000 0000
00000070: 0000 0000 0000 0000 0000 0000 0000 0000
00000080: 0000 0000 0000 0000 0000 0000 0000 0000
00000090: 0000 0000 0000 0000 0000 0000 0000 0000
000000a0: 0000 0000 0000 0000 0000 0000 0000 0000
000000b0: 0000 0000 0000 0000 0000 0000 0000 0000
000000c0: 0000 0000 0000 0000 0000 0000 0000 0000
000000d0: 0000 0000 0000 0000 0000 0000 0000 0000
000000e0: 0000 0000 0000 0000 0000 0000 0000 0000
000000f0: 0000 0000 0000 0000 0000 0000 0000 0000
00000100: 0000 0000 0000 0000 0000 0000 0000 0000
00000110: 0000 0000 0000 0000 0000 0000 0000 0000
00000120: 0000 0000 0000 0000 0000 0000 0000 0000
00000130: 0000 0000 0000 0000 0000 0000 0000 0000
00000140: 0000 0000 0000 0000 0000 0000 0000 0000
00000150: 0000 0000 0000 0000 0000 0000 0000 0000
00000160: 0000 0000 0000 0000 0000 0000 0000 0000
00000170: 0000 0000 0000 0000 0000 0000 0000 0000
00000180: 0000 0000 0000 0000 0000 0000 0000 0000
00000190: 0000 0000 0000 0000 0000 0000 0000 0000
000001a0: 0000 0000 0000 0000 0000 0000 0000 0000
000001b0: 0000 0000 0000 0000 0000 0000 0000 0000
000001c0: 0000 0000 0000 0000 0000 0000 0000 0000
000001d0: 0000 0000 0000 0000 0000 0000 0000 0000
000001e0: 0000 0000 0000 0000 0000 0000 0000 0000
000001f0: 0000 0000 0000 0000 0000 0000 0000 0000

network_body.linear_encoder.seq_layers.2.weight f4 [128, 128]
0.0370486 -0.0962224 0.09569152 0.039484903 0.04140268 -0.05518167 0.062650226 0.11068594
0.04673146 0.09556834 -0.10840615 -0.11942769 0.028764678 -0.05361468 0.05783981 0.0065791393
0.076582685 -0.012954305 0.040872905 -0.05824126 -0.072555095 -0.021909889 -0.093196355 -0.08064671
-0.0011855479 0.011377159 0.073541574 -0.09500099 0.018806431 -0.10484153 -0.043323208 0.1065239
-0.15980491 0.06061831 -0.2401463 -0.03575568 0.17903541 0.116741955 0.011820298 0.11183635
-0.075120464 0.15712075 -0.13730633 -0.031751424 0.082692884 -0.005427901 0.027819408 0.033486765
0.092675306 0.24763256 -0.019668426 -0.12844263 -0.0033275352 0.078662224 -0.043313827 -0.05224335
-0.037160162 -0.01464527 0.013609321 0.06187725 -0.071190715 -0.070249334 0.11664728 0.068060346
0.0008423941 0.016835969 -0.10100784 0.10971337 -0.0494788 0.0064136004 -0.029325552 -0.122201815
0.01725427 -0.12829243 -0.068616144 -0.10721389 -0.03454243 0.020055816 0.02262948 -0.17600258
0.0418441 -0.09865713 0.017720852 -0.033739604 -0.032808598 -0.05200015 0.13653696 0.033982027
0.072691746 0.17776543 0.020040777 0.0028495372 0.105463855 -0.012211582 -0.108162954 0.011655059
-0.023131829 -0.055260386 -0.06329188 -0.06399309 -0.043338735 0.009289145 0.046390794 0.06931575
-0.09779565 0.030538715 -0.028402073 0.013565267 -0.041795034 -0.01356218 0.09512325 -0.14470862
-0.15668558 0.065822184 0.17795059 0.07228207 0.021179399 0.027717762 0.05772875 -0.011051478
-0.08953465 -0.057579607 -0.025391374 -0.11661681 -0.022933025 0.053417567 -0.0051724757 -0.037556857
0.06674074 -0.09928885 0.16151993 0.047793183 0.014044231 0.23148488 0.009728174 0.07230991
-0.088365585 -0.042967416 -0.09369634 -0.001821052 -0.015445271 0.046599448 0.047077555 -0.017400442
0.09901009 0.007997205 -0.06274 0.038402364 -0.03275384 0.1813553 -0.04101799 0.031277858
0.024312975 0.050796628 0.108204655 0.13082683 0.06939892 0.043183234 0.11952145 -0.06658274
-0.009767657 0.022279782 -0.10581279 -0.01302878 -0.14047697 -0.080838956 0.02289703 -0.21685879
-0.066774376 0.0789158 -0.03005837 -0.1608418 0.015539984 -0.017213158 0.06698946 -0.12674253
0.04468638 -0.09977689 0.03466491 -0.18242203 -0.00513012 0.043908086 -0.020398146 -0.06798717
0.12775289 0.039076976 -0.04553691 -0.18899424 -0.08277341 0.002149154 0.2073573 0.02384463
0.06683751 0.024204291 -0.102752954 -0.054082926 0.1318251 0.036358707 -0.011451377 0.11359641
-0.11263604 0.19089498 -0.077651024 -0.027407547 0.14396289 0.1746735 0.13679107 0.027035857
0.023805019 -0.06368933 -0.029444195 -0.0361366 -0.06818701 0.048405334 -0.07516202 -0.06759145
-0.025115075 0.04641774 0.09330473 0.14162244 0.07985713 0.11975839 -0.10721004 0.001534911
-0.0010593774 -0.0805526 -0.16404535 -0.13116832 -0.094426304 -0.011936061 -0.042164303 0.13620828
-0.1297302 0.034749996 0.040091984 -0.032964464 0.041184105 0.011889436 -0.03774957 -0.08038094
0.02946582 0.06534386 -0.010318564 -0.098174974 0.06313962 0.0055368175 -0.044936668 0.0333635
-0.06690371 -0.022673845 0.14632945 -0.08620711 0.21162835 -0.012839229 -0.025241042 -0.009442942
00000000: 46c0 173d 4010 c5bd eaf9 c33d ecba 213d
00000010: db95 293d 2d06 62bd c34e 803d 4faf e23d
00000020: 7d69 3f3d 55b9 c33d 0b04 debd 8196 f4bd
00000030: e7a3 eb3c 119b 5bbd 70e9 6c3d d295 d73b
00000040: 62d7 9c3d 4b3e 54bc 596a 273d 638e 6ebd
00000050: c497 94bd 5e7c b3bc bbdd bebd 1a2a a5bd
00000060: 6364 9bba 4367 3a3c f79c 963d e18f c2bd
00000070: f20f 9a3c 28b7 d6bd ad73 31bd 3429 da3d
00000080: e6a3 23be e84a 783d e9e8 75be 8c74 12bd
00000090: 0f55 373e 6816 ef3d eca9 413c 750a e53d
000000a0: c2d8 99bd 43e4 203e 089a 0cbe c80d 02bd
000000b0: e35a a93d 89dc b1bb 87e5 e33c 6b29 093d
000000c0: 8dcc bd3d 6493 7d3e ae1f a1bc 7786 03be
000000d0: c712 5abb a919 a13d d769 31bd 1ffd 55bd
000000e0: 4135 18bd b7f2 6fbc a1f9 5e3c 0073 7d3d
000000f0: 70cc 91bd e2de 8fbd c5e4 ee3d 3963 8b3d
00000100: 1cd4 5c3a 96eb 893c 33dd cebd 67b1 e03d
00000110: 48aa 4abd 2e29 d23b 243c f0bc f244 fabd
00000120: d458 8d3c 175f 03be 9f86 8cbd f592 dbbd
00000130: 5d7c 0dbd 184c a43c 7661 b93c 053a 34be
00000140: b864 2b3d c00c cabd 522b 913c 8a32 0abd
00000150: 4f62 06bd 1cfe 54bd 58d0 0b3e bd30 0b3d
00000160: 69df 943d 2408 363e 8e2c a43c 4dbf 3a3b
00000170: 6ffd d73d 1613 48bc 8a84 ddbd dcf4 3e3c
00000180: f67e bdbc b758 62bd 2c9f 81bd cf0e 83bd
00000190: f583 31bd 7f31 183c 4604 3e3d 6af5 8d3d
000001a0: 1649 c8bd 542c fa3c 77ab e8bc db40 5e3c
000001b0: 4531 2bbd e833 5ebc facf c23d 7f2e 14be
000001c0: 2f72 20be c8cd 863d ae38 363e 9f08 943d
000001d0: 6b80 ad3c 5c10 e33c fb74 6c3d 4211 35bc
000001e0: f15d b7bd 98d8 6bbd 9201 d0bc cbd4 eebd
000001f0: 0ade bbbc 61cc 5a3d df7d a9bb 38d5 19bd
00000200: 5eaf 883d f457 cbbd 7b65 253e c9c2 433d
00000210: c619 663c 5f0a 6d3e eb62 1f3c 3817 943d
00000220: 04f9 b4bd 9afe 2fbd dee3 bfbd 5eb0 eeba
00000230: 290e 7dbc 10df 3e3d 65d4 403d 5f8b 8ebc
00000240: cdc5 ca3d b506 033c d47d 80bd cc4b 1d3d
00000250: e428 06bd 34b5 393e 7b02 28bd 361d 003d
00000260: 012c c73c 2010 503d 679a dd3d 78f7 053e
00000270: 0521 8e3d e7e0 303d a9c7 f43d 885c 88bd
00000280: 8608 20bc 1784 b63c 60b4 d8bd aa76 55bc
00000290: 32d9 0fbe e58e a5bd 8d92 bb3c 3b10 5ebe
000002a0: 01c1 88bd 9b9e a13d f93c f6bc b6b3 24be
000002b0: 6b9b 7e3c 9c02 8dbc c531 893d cbc8 01be
000002c0: 1109 373d d357 ccbd cbfc 0d3d d7cc 3abe
000002d0: 911a a8bb f7d8 333d 031a a7bc db3c 8bbd
000002e0: a7d1 023e 2e0f 203d e984 3abd b587 41be
000002f0: 1b85 a9bd d2d8 0c3b 7955 543e d055 c33c
00000300: 1be2 883d 1448 c63c 2470 d2bd 0f86 5dbd
00000310: 29fd 063e deec 143d 8e9e 3bbc 3ca5 e83d
00000320: b9ad e6bd f979 433e 8007 9fbd cb85 e0bc
00000330: 026b 133e 9cdd 323e f512 0c3e 4d7a dd3c
00000340: be02 c33c 8d6f 82bd f434 f1bc f903 14bd
00000350: a2a5 8bbd ac44 463d 8cee 99bd 636d 8abd
00000360: 21be cdbc 8720 3e3d 8d16 bf3d 7905 113e
00000370: 238c a33d e343 f53d f090 dbbd 112f c93a
00000380: cfda 8aba c3f8 a4bd 81fb 27be fd50 06be
00000390: 9462 c1bd 788f 43bc 7ab4 2cbd 2f7a 0b3e
000003a0: fed7 04be 0356 0e3d 7e37 243d bf05 07bd
000003b0: aab0 283d e9cb 423c 4b9f 1abd c39e a4bd
000003c0: 4e62 f13c 00d3 853d 320f 29bc f60f c9bd
000003d0: 584f 813d 316e b53b 830f 38bd 2aa8 083d
000003e0: d004 89bd 80be b9bc 63d7 153e 5a8d b0bd
000003f0: 1ab5 583e a15b 52bc 4dc6 cebc 92b6 1abc
