results/scoreGoal6/HitTheBall/checkpoint.pt (torch, 150559 bytes, 13 tensors)

network_body.linear_encoder.seq_layers.0.weight f4 [128, 6]
00000000: d443 f1be 6514 acbe bcc5 343f 2dda e03e
00000010: 285c 023f aa77 4bbf dd97 103d a95c 03bf
00000020: 20fb 5dbc 5b3f cc3e e3c2 97be 7ea2 0dbf
00000030: 12df cc3e 89ab dabe 22a7 b0be 6d4c a3be
00000040: fa0b a93e 52c4 4dbe be59 2dbf e3c8 6c3e
00000050: 3da0 363e 0fd1 a8be 0634 033f 97b4 223f
00000060: 1cf2 4dbe 7957 943e 07ec b83e c3b4 bf3e
00000070: 066e 883e bdb8 873f b0f1 1bbf 40fa 493f
00000080: 397b edbe 9e2c 10bf 152e 613e 2d78 0dbe
00000090: b41f 24bf e79d ce3e b0d8 fc3e 1f49 1cbf
000000a0: 8a74 823e 4cf3 86bc 259d 43bf 194e c6be
000000b0: 0dda bebe 3978 21bf 2451 1a3f d19e 10bf
000000c0: 8fef 84be 930f 733d 8a41 8d3e d6c3 aabe
000000d0: c5cb 0c3f 02e0 0c3e 7e79 17be da03 f73e
000000e0: dd72 3dbe 752b 073f 9f14 033f 04b3 0bbd
000000f0: 30be ef3d 1b2f 003e 8247 d0be b2ce 873e
00000100: 7d48 523f 9f78 c4be 9c70 463a 6bfd b9bc
00000110: 6dd0 e1be 4283 8d3d 4300 dbbd 261d 40bf
00000120: e992 ecbe 39a3 fd3e 0da2 02be 519c bfbc
00000130: 0c3b 613d eb05 fbbd 858d 6a3e 34b8 82be
00000140: 37d6 f03e 744d 543f cd73 54bd a99c ddbe
00000150: 43f4 fdbe 1447 c13b 4f01 28be a3fe a8be
00000160: 495e 03bf ef30 533d 6a34 f93e 4e67 d0be
00000170: d9c4 8a3e f33c 57be 346b 523e d734 f13e
00000180: a5bb 0f3f 5e3e cc3e c155 683e 57cc 3b3f
00000190: 5bf4 efbe c72a e13e 8376 013f c02d c8be
000001a0: efca 853e ce6f 6d3e 18f7 96bd db73 473d
000001b0: 6718 e7be b0c4 cebe e853 e73d 313e cebd
000001c0: 991f fe3d 62cf d2bd fb69 073c b2b6 723e
000001d0: 501b c43e 4751 703d 7325 eb3d 2b59 003e
000001e0: d157 4bbf 90d0 64be a971 0cbf 7fe9 273f
000001f0: 401e 1a3d 196f 7c3b 219c d03e 2a3b 8a3f
00000200: 2fc5 b6be 25fb ce3e 1d2e d93e 2584 c03e
00000210: fddf a9be 8abf 593e 0de7 db3e dee0 93bd
00000220: 04dc 06bd 2e41 883d 8d1b 603f 5ecc 333d
00000230: 8344 4ebd ff70 f13d 07a6 89bf d605 7e3f
00000240: 9454 08bf 44a7 073f 5764 853e dc31 e1be
00000250: 33c6 b7be 584e 52be 89fb c8be 1aad fc3e
00000260: 4d2e dfbe 1bcd f03e 6911 133f 5744 f13e
00000270: 1552 263e 1d44 193f e0f3 7ebe a543 1dbf
00000280: e332 3abe 10fa 323f 837f dabe d1e3 8ebf
00000290: 808f 8f3e 78ed ecbe 9e93 31be 982d 4bbf
000002a0: 05e7 4c3f b5a2 e2bd 5d81 b63e 6f1b 18be
000002b0: fe38 4a3f 27b2 fcbe e8c9 13be 075a 5a3e
000002c0: bf4e 0ebe 97f2 ba3e 1b4c 2cbf 6cfd c43e
000002d0: 5bd7 97bd f90d 3ebd 988b b03e c426 a73e
000002e0: 8407 19bf e47d b3bf 0dab 7dbe 3325 163f
000002f0: 10aa 9d3e ff7c 753e e703 5b3e 85d7 b03e
00000300: c14d 9e3e df2a 39bd 5ba8 0d3f 0edf 8cbe
00000310: 8af1 00bd 7c10 ad3e 966e a63e 4f9f edbe
00000320: c802 783c e938 73be 2ab5 af3e 6d3d a7be
00000330: b5ad 3ebe 3cb1 e03e 86e9 893e 1d3c 81be
00000340: c958 29be 97ea 17bf 3d1c 1ebf 7028 3abe
00000350: 3dda 213e e248 983e 8592 efbc 8bd8 75ba
00000360: 885e 2f3f e9ff 5a3f b87f a13d db2c 953d
00000370: 365f 5d3e b3fd d4bd 463f 21bf eb54 0abd
00000380: e86f 01bf 89b5 493f 4bf1 e03d 8ae3 2ebf
00000390: 87d3 793d e56e dcbb 7abd b8bd 4031 3dbe
000003a0: f712 c0bd 706f e33d 4abb db3e cb3d 7abe
000003b0: d5cd 89be 5fd5 a9be 6e08 573f 7374 2b3e
000003c0: c74f 84be efc1 10bf b6ff 3bbe bdb7 b5be
000003d0: b4bc 953e 1f39 933d 2aad 843e 439b 68be
000003e0: f4f7 403e dfe1 98be ad93 553e ffa2 073e
000003f0: 6596 17bf 84bb 16bc 8d6e 8dbe 472a febe
-0.4712206 -0.3360931 0.7061422 0.43916455 0.5092187 -0.7947947 0.035301078 -0.51313263
-0.013548642 0.39892086 -0.29640874 -0.5532607 0.4001394 -0.42708996 -0.34502512 -0.31894246
0.3301695 -0.20094422 -0.6771506 0.23123507 0.17834564 -0.32972 0.51251256 0.6355681
-0.20111889 0.28972986 0.36117575 0.37442598 0.2664644 1.0603253 -0.6091566 0.78897476
-0.46383074 -0.5631808 0.21990235 -0.13815375 -0.64110875 0.40354845 0.4938407 -0.61049074
0.25479537 -0.016473435 -0.7641166 -0.3873146 -0.37275735 -0.6307407 0.6028006 -0.56492335
-0.2596402 0.059341025 0.27589065 -0.33352536 0.5499843 0.13757327 -0.1479244 0.48245126
-0.18500848 0.52800685 0.5120334 -0.03410627 0.11706197 0.1251797 -0.40679556 0.26524884
0.8214186 -0.38373277 0.00075698807 -0.022703847 -0.4410433 0.06909801 -0.10693409 -0.75044477
-0.46205834 0.49538592 -0.1275713 -0.023389967 0.054987952 -0.12256988 0.22905548 -0.2553116
0.47038433 0.82930684 -0.05186825 -0.43283585 -0.4960042 0.0058983658 -0.16406749 -0.33006772
-0.5131574 0.05156034 0.486728 -0.40703815 0.27103308 -0.21019344 0.20548707 0.47110626
0.561457 0.39891332 0.22688963 0.7335867 -0.46866116 0.4397795 0.5057146 -0.39097404
0.2613139 0.23187181 -0.07371348 0.048694473 -0.45135805 -0.40384436 0.11295301 -0.10070456
0.124083705 -0.102934614 0.008265014 0.23702505 0.38302088 0.058671262 0.11481752 0.12534015
-0.7943087 -0.22345185 -0.5486093 0.6559066 0.037626505 0.0038518368 0.40744117 1.0799305
-0.35697314 0.40425983 0.42417994 0.37600818 -0.33178702 0.21264473 0.42949715 -0.072206244
-0.032924667 0.06653057 0.8754204 0.04389607 -0.050358307 0.117891304 -1.0753793 0.99227655
-0.53254056 0.529896 0.26053116 -0.43983352 -0.35893402 -0.20537698 -0.39254406 0.49350816
-0.43590012 0.47031483 0.5744844 0.47122452 0.1624225 0.5986956 -0.24897718 -0.6143134
-0.18183474 0.69912815 -0.4267541 -1.1163274 0.2803917 -0.46274924 -0.17341468 -0.79366446
0.8004001 -0.1106619 0.3564557 -0.14854215 0.78993213 -0.4935467 -0.1443249 0.21323405
-0.13897227 0.36513206 -0.6730363 0.38474596 -0.07414123 -0.046400044 0.34481502 0.32646763
-0.5977709 -1.4022794 -0.24772282 0.5865051 0.3079381 0.23973463 0.21388207 0.34539428
0.30918697 -0.0452069 0.55335015 -0.27513927 -0.03148035 0.3380164 0.32506245 -0.46410605
0.015137382 -0.23752178 0.34317905 -0.32664052 -0.18620951 0.4388522 0.26935977 -0.25241175
-0.16537775 -0.5934233 -0.6176184 -0.18179488 0.15805908 0.29743105 -0.02924467 -0.0009378276
0.6850362 0.8554674 0.078856885 0.07283946 0.21618351 -0.10399952 -0.6298717 -0.03377239
-0.5056138 0.78792626 0.10983523 -0.6831595 0.060992744 -0.006727087 -0.09020515 -0.18475819
-0.09378617 0.111052394 0.42916328 -0.24437635 -0.2691485 -0.33170602 0.8399724 0.1674364
-0.25842115 -0.5654592 -0.18359265 -0.35491744 0.29245532 0.07188629 0.25913364 -0.22715478
0.18844587 -0.29859826 0.20857115 0.13245772 -0.5921386 -0.009199981 -0.27623406 -0.4964163

network_body.linear_encoder.seq_layers.0.bias f4 [128]
00000000: 0000 0000 0000 0000 0000 0000 0000 0000
00000010: 0000 0000 0000 0000 0000 0000 0000 0000
00000020: 0000 0000 0000 0000 0000 0000 0000 0000
00000030: 0000 0000 0000 0000 0000 0000 0000 0000
00000040: 0000 0000 0000 0000 0000 0000 0000 0000
00000050: 0000 0000 0000 0000 0000 0000 0000 0000
00000060: 0000 0000 0000 0000 0000 0000 0000 0000
00000070: 0000 0000 0000 0000 0000 0000 0000 0000
00000080: 0000 0000 0000 0000 0000 0000 0000 0000
00000090: 0000 0000 0000 0000 0000 0000 0000 0000
000000a0: 0000 0000 0000 0000 0000 0000 0000 0000
000000b0: 0000 0000 0000 0000 0000 0000 0000 0000
000000c0: 0000 0000 0000 0000 0000 0000 0000 0000
000000d0: 0000 0000 0000 0000 0000 0000 0000 0000
000000e0: 0000 0000 0000 0000 0000 0000 0000 0000
000000f0: 0000 0000 0000 0000 0000 0000 0000 0000
00000100: 0000 0000 0000 0000 0000 0000 0000 0000
00000110: 0000 0000 0000 0000 0000 0000 0000 0000
00000120: 0000 0000 0000 0000 0000 0000 0000 0000
00000130: 0000 0000 0000 0000 0000 0000 0000 0000
00000140: 0000 0000 0000 0000 0000 0000 0000 0000
00000150: 0000 0000 0000 0000 0000 0000 0000 0000
00000160: 0000 0000 0000 0000 0000 0000 0000 0000
00000170: 0000 0000 0000 0000 0000 0000 0000 0000
00000180: 0000 0000 0000 0000 0000 0000 0000 0000
00000190: 0000 0000 0000 0000 0000 0000 0000 0000
000001a0: 0000 0000 0000 0000 0000 0000 0000 0000
000001b0: 0000 0000 0000 0000 0000 0000 0000 0000
000001c0: 0000 0000 0000 0000 0000 0000 0000 0000
000001d0: 0000 0000 0000 0000 0000 0000 0000 0000
000001e0: 0000 0000 0000 0000 0000 0000 0000 0000
000001f0: 0000 0000 0000 0000 0000 0000 0000 0000
0.0 0.0 0.0 0.0 0.0 0.0 0.0 0.0
0.0 0.0 0.0 0.0 0.0 0.0 0.0 0.0
0.0 0.0 0.0 0.0 0.0 0.0 0.0 0.0
0.0 0.0 0.0 0.0 0.0 0.0 0.0 0.0
0.0 0.0 0.0 0.0 0.0 0.0 0.0 0.0
0.0 0.0 0.0 0.0 0.0 0.0 0.0 0.0
0.0 0.0 0.0 0.0 0.0 0.0 0.0 0.0
0.0 0.0 0.0 0.0 0.0 0.0 0.0 0.0
0.0 0.0 0.0 0.0 0.0 0.0 0.0 0.0
0.0 0.0 0.0 0.0 0.0 0.0 0.0 0.0
0.0 0.0 0.0 0.0 0.0 0.0 0.0 0.0
0.0 0.0 0.0 0.0 0.0 0.0 0.0 0.0
0.0 0.0 0.0 0.0 0.0 0.0 0.0 0.0
0.0 0.0 0.0 0.0 0.0 0.0 0.0 0.0
0.0 0.0 0.0 0.0 0.0 0.0 0.0 0.0
0.0 0.0 0.0 0.0 0.0 0.0 0.0 0.0

network_body.linear_encoder.seq_layers.2.weight f4 [128, 128]
00000000: c46e 90bd db78 10b9 34ed 7cbe b22c da3d
00000010: 92f3 b23d 80fb 943c d3a1 aebc b870 393e
00000020: 8227 6cbc a2a9 c5bc bc0f 18bd 0f80 923d
00000030: 3d82 25bd 0c7d 26bd bce2 d5bc ce7c 1d3d
00000040: 968f 353d dadc 64bd 79ec 54ba c773 5b3d
00000050: 2f05 96bd 5b49 323e f71a 3abe baac 0b3e
00000060: db4e 2cbc af80 263d db72 babd 664d 1dbe
00000070: 337e 7ebe e673 233d 6af3 a2bd bca1 fcbd
00000080: db5e ec3d ef4c 31bd e6db 30be e878 cebc
00000090: 6915 543d 3e11 dfbc e5ad 82bd 03ee f139
000000a0: 7268 403c 6740 223d b65d 14be 3b98 26bb
000000b0: dd6f 3abd 4989 763c ca12 cc3c d5f0 6abd
000000c0: 66e1 1ebd 00ec 543e 7468 b43d 47dc 043e
000000d0: be7e efbd 8b04 403d 1857 c23b 8306 b03c
000000e0: a032 64bd e2b1 f73c ff0c 46be 6002 3a3d
000000f0: 70cb c83c ee28 dd3c 0bdf b43d fd2c 103c
00000100: db79 8ebb a27a e2bd 0c2a 89bc df48 16be
00000110: 70eb 4abd eb93 9dbd e360 1b3c c87d 4c3d
00000120: 022e ba3d bcbf 72bc 65f7 893d 11b3 683d
00000130: 9908 803d c3f2 0cbe e7f3 74bd 1f80 25bc
00000140: dc7d babd 29a6 1f3e dcba 173e b863 33bd
00000150: 5708 d2bd a167 16be 96ad 27be 17ff bbbd
00000160: 5af9 8abd 8829 0a3d 6ab8 bfbc 0d79 da3d
00000170: 968f 10bd 00c8 95bc f58e 073e 7802 b83d
00000180: a155 32bc 5cdd 433d e69f 6f3d 5973 7bbb
00000190: efae 2dbd 7d6d 093e a253 f9bd 5436 88bd
000001a0: 4d52 d1bc 8941 35bd 7290 7cbd b11c 82bc
000001b0: 4bb8 ff3b 1c43 20bc 9487 5f3b 9d7c 023e
000001c0: 9b88 653d 18e9 42bd ed4c d0bd 57df f43c
000001d0: d7a7 e1bc 470a 4e3d effa 903c a5d2 e8bd
000001e0: 0489 ab3b 6f86 a5bd 0f06 a8bc 2d3a 623b
000001f0: 86c1 9fbd 9b48 17ba 2dca c63d 23d4 c83d
00000200: 504a 633d 05c0 e7bc d28c 4d3c 6df1 2b3d
00000210: 1fc9 f73d 0a4a 3f3d 415d 7f3e f7d2 b1bd
00000220: 182f 0c3b c580 01be d98d 7a3d d8e4 f73b
00000230: d38d 1bbe f5fe 3b3a 5db6 a43d 3537 c83d
00000240: c802 333d 6e80 943d 63c9 8cbc 941b a83c
00000250: 44cf 51bd 2750 bbbd 6984 80bd 0cb5 95be
00000260: 4181 dabc a2a7 2cbd 0e93 033a e7e3 cb3d
00000270: eac3 0fbd a7d9 01bd 81ec 4b3d 0535 2abe
00000280: e54b 3abe 43ca ad3c 06b0 67bd f04d a6bd
00000290: fc98 ad3d 290d f6bc 96e4 c6bd 267f 653d
000002a0: 9def bfbd b304 4abe 7a90 dbbd 3222 ddbd
000002b0: 83c9 e73c 68b4 b83d fe67 8f3d 28d0 4dbd
000002c0: c760 2dbd c58d 0c3e 579c 173e 425f dcbd
000002d0: ab00 5abd 3468 b03d 2a5d 91bd 0c82 803d
000002e0: d73c d43d fa26 14be 649c 033d d12d cb3c
000002f0: c00f 283d 6796 6abd ce11 66bd 2c4b c8bd
00000300: b601 dcbd e8c1 6b3d ff7a 03bd f1f5 dcbd
00000310: 5709 85bc 8694 d43b bdda 26be 0875 dd3d
00000320: 55f0 fc3d d25d 623d f1b5 893d bee1 2bbd
00000330: aa16 15bd 347e cfbb e64b 5c3d 3a72 b6bb
00000340: 1cd7 79bc 8658 efbd ac3c 253c 371b 953c
00000350: 27f3 14be 2c20 683e 217d 8ebd 6f49 cd3d
00000360: e492 e63d 3105 41bd 7a30 4dbe b834 3d3d
00000370: 284a 013e cab8 41bd 806c 663e acb1 4bbd
00000380: e418 933b e540 5ebe 2b26 47bd 7cfb 783d
00000390: a2fb ed3c f87a 843e c302 ba3d 125b e93d
000003a0: 8a0f d83d fc4c d6bd f60c 823d b6b9 0d3e
000003b0: 0ad9 e03d 7b36 98bb 8592 45bd 39a2 53bb
000003c0: 3f26 0dbc ae8d 83bb 08f6 adbd aee9 54bd
000003d0: 0bb7 d53d bf64 873c b6fc 1d3c 2f9b 003e
000003e0: 8c7d cebb 8026 f9bd e4a4 9dbd 7d86 443a
000003f0: dff4 433d bf4f 9abe b145 913d a46d a1bd
-0.07052377 -0.00013777932 -0.24699861 0.10653056 0.087378636 0.01818633 -0.021317398 0.18109405
-0.014413716 -0.024128739 -0.03712438 0.071533315 -0.040407408 -0.040646598 -0.026109092 0.0384491
0.044326387 -0.055874683 -0.00081223954 0.05357721 -0.073252074 0.17410795 -0.18174349 0.13640109
-0.0105168475 0.040650066 -0.09103938 -0.15361556 -0.24852829 0.03990545 -0.07956584 -0.12335536
0.1154153 -0.04328626 -0.17271385 -0.025204137 0.05177823 -0.027229901 -0.06380824 0.00046144435
0.011743652 0.0396122 -0.14488873 -0.0025420326 -0.045516837 0.01504738 0.024911303 -0.05735858
-0.038789175 0.20793152 0.08808985 0.12974654 -0.11694096 0.046879333 0.0059307925 0.02148748
-0.055712342 0.030236188 -0.19340895 0.04541242 0.024511069 0.026997056 0.088316046 0.008799789
-0.0043480224 -0.110585466 -0.016743682 -0.14676236 -0.049540937 -0.07694229 0.009483549 0.04992464
0.090908065 -0.014816221 0.0673664 0.056811396 0.0625164 -0.13764481 -0.059802916 -0.010101347
-0.09106037 0.15590729 0.14817375 -0.04379627 -0.10255497 -0.14687969 -0.16374812 -0.09179514
-0.06785841 0.033731014 -0.023403365 0.1066762 -0.035293184 -0.018283844 0.13238128 0.08984846
-0.010884673 0.047818527 0.0585021 -0.0038368313 -0.042403158 0.13420673 -0.12174155 -0.06650987
-0.02555194 -0.044251952 -0.06166119 -0.015882822 0.007803952 -0.009781625 0.003410791 0.12742849
0.05603848 -0.047585577 -0.101709224 0.029891653 -0.027545853 0.05030277 0.01769778 -0.11368302
0.0052348394 -0.08082282 -0.020510701 0.0034519539 -0.078005835 -0.0005771012 0.09706531 0.09806087
0.05549079 -0.028289804 0.012545781 0.04197829 0.12098908 0.04670147 0.24937917 -0.086828165
0.0021390375 -0.12646778 0.061170433 0.007565122 -0.1519082 0.00071714754 0.080425955 0.09776155
0.043703824 0.072510585 -0.017185872 0.020520963 -0.051223055 -0.09146147 -0.06275255 -0.2923969
-0.026672961 -0.042152055 0.0005019166 0.09955578 -0.035098948 -0.03170171 0.049786095 -0.16621788
-0.18193014 0.02121461 -0.056564353 -0.08120334 0.08476445 -0.030035572 -0.09711568 0.05602946
-0.093718745 -0.19728355 -0.10720916 -0.10797538 0.02829433 0.09018785 0.07002257 -0.05024734
-0.042328622 0.13725956 0.14805733 -0.107603565 -0.053223293 0.08613625 -0.07097848 0.062748045
0.10363167 -0.14467993 0.032131568 0.02480212 0.041030645 -0.05727234 -0.056169324 -0.09779963
-0.10742514 0.05755797 -0.03209972 -0.10789097 -0.016239805 0.006487432 -0.1629438 0.108133376
0.12350527 0.055265255 0.06724156 -0.04196333 -0.036398567 -0.0063321833 0.05378332 -0.005567816
-0.01524904 -0.116868064 0.010085266 0.018201454 -0.1454588 0.22668523 -0.0695746 0.10023772
0.11258486 -0.04712409 -0.20038024 0.046192855 0.12625945 -0.04729537 0.22502327 -0.049729988
0.004489051 -0.21704443 -0.048620384 0.06078671 0.029050652 0.25875068 0.09082558 0.113943234
0.10549839 -0.10463902 0.06350128 0.13840374 0.10978897 -0.0046451665 -0.048235435 -0.0032292737
-0.008615076 -0.0040146923 -0.08494192 -0.051980667 0.10435303 0.016527532 0.0096427705 0.12559198
-0.0063015874 -0.121655464 -0.07697466 0.0007496847 0.04784095 -0.30138966 0.07093371 -0.078822404

network_body.linear_encoder.seq_layers.2.bias f4 [128]
00000000: 0000 0000 0000 0000 0000 0000 0000 0000
00000010: 0000 0000 0000 0000 0000 0000 0000 0000
00000020: 0000 0000 0000 0000 0000 0000 0000 0000
00000030: 0000 0000 0000 0000 0000 0000 0000 0000
00000040: 0000 0000 0000 0000 0000 0000 0000 0000
00000050: 0000 0000 0000 0000 0000 0000 0000 0000
00000060: 0000 0000 0000 0000 0000 0000 0000 0000
00000070: 0000 0000 0000 0000 0000 0000 0000 0000
00000080: 0000 0000 0000 0000 0000 0000 0000 0000
00000090: 0000 0000 0000 0000 0000 0000 0000 0000
000000a0: 0000 0000 0000 0000 0000 0000 0000 0000
000000b0: 0000 0000 0000 0000 0000 0000 0000 0000
000000c0: 0000 0000 0000 0000 0000 0000 0000 0000
000000d0: 0000 0000 0000 0000 0000 0000 0000 0000
000000e0: 0000 0000 0000 0000 0000 0000 0000 0000
000000f0: 0000 0000 0000 0000 0000 0000 0000 0000
00000100: 0000 0000 0000 0000 0000 0000 0000 0000
00000110: 0000 0000 0000 0000 0000 0000 0000 0000
00000120: 0000 0000 0000 0000 0000 0000 0000 0000
00000130: 0000 0000 0000 0000 0000 0000 0000 0000
00000140: 0000 0000 0000 0000 0000 0000 0000 0000
00000150: 0000 0000 0000 0000 0000 0000 0000 0000
00000160: 0000 0000 0000 0000 0000 0000 0000 0000
00000170: 0000 0000 0000 0000 0000 0000 0000 0000
00000180: 0000 0000 0000 0000 0000 0000 0000 0000
00000190: 0000 0000 0000 0000 0000 0000 0000 0000
000001a0: 0000 0000 0000 0000 0000 0000 0000 0000
000001b0: 0000 0000 0000 0000 0000 0000 0000 0000
000001c0: 0000 0000 0000 0000 0000 0000 0000 0000
000001d0: 0000 0000 0000 0000 0000 0000 0000 0000
000001e0: 0000 0000 0000 0000 0000 0000 0000 0000
000001f0: 0000 0000 0000 0000 0000 0000 0000 0000
0.0 0.0 0.0 0.0 0.0 0.0 0.0 0.0
0.0 0.0 0.0 0.0 0.0 0.0 0.0 0.0
0.0 0.0 0.0 0.0 0.0 0.0 0.0 0.0
0.0 0.0 0.0 0.0 0.0 0.0 0.0 0.0
0.0 0.0 0.0 0.0 0.0 0.0 0.0 0.0
0.0 0.0 0.0 0.0 0.0 0.0 0.0 0.0
0.0 0.0 0.0 0.0 0.0 0.0 0.0 0.0
0.0 0.0 0.0 0.0 0.0 0.0 0.0 0.0
0.0 0.0 0.0 0.0 0.0 0.0 0.0 0.0
0.0 0.0 0.0 0.0 0.0 0.0 0.0 0.0
0.0 0.0 0.0 0.0 0.0 0.0 0.0 0.0
0.0 0.0 0.0 0.0 0.0 0.0 0.0 0.0
0.0 0.0 0.0 0.0 0.0 0.0 0.0 0.0
0.0 0.0 0.0 0.0 0.0 0.0 0.0 0.0
0.0 0.0 0.0 0.0 0.0 0.0 0.0 0.0
0.0 0.0 0.0 0.0 0.0 0.0 0.0 0.0

action_model._continuous_distribution.log_sigma f4 [1, 2]
00000000: 0000 0000 0000 0000
0.0 0.0

action_model._continuous_distribution.mu.weight f4 [2, 128]
00000000: b302 8e3c 0cc2 ab3b 0d9a ef3c c2c7 25bc
00000010: d4a9 0dbb 6241 543b df81 3aba db99 103d
00000020: fff6 963c 2d28 3c3c d8be 883c ff1a f6bb
00000030: 5828 c73b 6fe3 f7bb 8aeb cd3a 270d 363b
00000040: 8b36 05bc d510 a3bc 9f64 6fbb 82b9 803c
00000050: 53ca 43bc 4725 f2bc a7b7 03bc a86f 4f3b
00000060: bf41 203b 2039 f73c b8f0 8bbc 6826 a3bb
00000070: abc6 14bc bcbd 23bc fcdf 3cbd 938d 45bc
00000080: c3ee 4dbc 1d81 453c 1020 d9bb 47bf bcbb
00000090: 1a1f b4bb e104 82bd e59d 033c b327 1e3d
000000a0: 23ab eebc c0cb acbc 18b5 f23b 8d25 85bc
000000b0: 2ada 133d f70d ecbb 2dbe 373c 6a0d a13a
000000c0: 8a41 16bc cfe4 85bb c094 a3bb 732d ae3b
000000d0: b702 e63c e358 34bc 080f ea3c 5277 6a3b
000000e0: c3b9 4c3b d1c8 22bc 4aa6 0ebc d4ca 013d
000000f0: 8d67 20bc 4208 00bc 9a72 873b 47a4 a5bc
00000100: c85a 01bd 9cee 0abc 5ef2 2e3d a311 e33c
00000110: 344c 8abb 174f 9f3c 0861 2f3d 0087 29bc
00000120: 7807 f0bc 18ef 203c 5fc2 7ebc b7d6 813c
00000130: 6b2d e8bb 312a 4a3c 6598 733c aa46 7dbc
00000140: 5506 8fbc e782 493c 860e cbbc 53e5 653c
00000150: 27b9 ec3c 7457 853c 8a67 e2bc d7aa e43c
00000160: 1248 84bc 8fb3 e1bc 689e 28bb c7a2 3c3b
00000170: 0004 76ba 7360 983c d1b1 433c 3e0e 343c
00000180: 2f9f 6e3c ee63 43bc 81d1 3d3d ce34 c03c
00000190: 1038 e9bb 85b5 803c 42d0 8e3c abe9 e9bb
000001a0: fc23 90bc 9bf3 12bd 8d4c 4dbc c698 803c
000001b0: c730 a93c ab48 163b f6b9 443c 98d1 fdbb
000001c0: 3646 933c c36a 5f3b 2ad7 b23c 7f5d 053c
000001d0: 8bbd fbbc 389a d93b 6aaf 923a 4326 fbbb
000001e0: 1c31 a03c 026a fabb 4040 dd3b 93b8 9fbb
000001f0: 9a8f 843c cdc1 94bb a822 9fbc 224c 47bc
00000200: 0619 1a3c 37fa e3bc 15d5 bfbc 2d37 ddbc
00000210: a3bb ac3b 5164 abbc 2cb6 21bd ae36 93bc
00000220: 4f58 233c f882 a7bc f468 80ba 4bdc fabc
00000230: 7b11 4c3c f1e5 46bc 7bc4 abbc 3320 1ebc
00000240: 5a21 8dba 361d 9fbc b47b a53b 7818 d6bc
00000250: 0dbf 7fbb 27f8 b53b 58ee 86ba d5aa 8a3c
00000260: e3e3 82bc 6ad0 813c 4ff3 c03c 272f 4e3c
00000270: 6791 3dbc afd3 bd3b 9b6e 28bc 3bd8 55bc
00000280: 7a9d 0137 47a5 4e3c 02c0 063d ef2a 033d
00000290: 1fdc b93c 1b04 7b39 8371 d6bc 6b5c d4bc
000002a0: c287 7e3c 6ba6 873c cd39 e3bc ac5f 193c
000002b0: 925e a33c 27f3 d83c 030a eb3b ed16 b7bc
000002c0: 5294 5d3c 4d60 653c af14 f1ba 88c0 8c3b
000002d0: b780 74bc b523 12bc 7898 b13c da25 ec3b
000002e0: fe1a 82bc 7b5a 3ebc caae ab3c 75ba 6b3c
000002f0: d069 8dbc c2b5 d2bc aee6 163a 5a71 cf3c
00000300: 15a4 e03b 6401 84bc e038 9d3a 5903 19bd
00000310: d030 5c3c 06ea 9e3c 34dd 8bbc 86cf a0bb
00000320: 873e d63c 4fb2 363c 7225 08bb 0597 21bd
00000330: 8d60 a1bc 9d1f 763c 24e3 8b38 0012 8f3c
00000340: e3ac d53c 0990 1eb9 5ee2 bf3c 82e2 333c
00000350: 58e1 b3bc e199 9bbc 0464 013b 91cc 193c
00000360: 8584 72bc f0c9 e1bb 9628 9f3c 30fc 073c
00000370: 7839 323d dfa0 84bc a321 053b 5589 733b
00000380: 2678 95bb 8bfc f63b e68b 8b3c 1771 9ebc
00000390: 6003 dd3b 5d0f aabb 4fdf 16bc 5602 343b
000003a0: 8efd 263c 451b 9fbc 25a2 4e3c 6391 92bc
000003b0: 42e7 7abc 6540 d33a b34c 44bc 974d 02bb
000003c0: 3807 79bb 67a9 03bc bc1c 163c ca2c ce3a
000003d0: 6a2b dbbb 78a2 df3c 2df7 553c e22a 86bc
000003e0: fb42 95bc e469 c33c 6158 acbc 3352 693c
000003f0: fc6f 1fbc 8755 0e3d b22a d2bc 0e8f 8dbb
0.017335271 0.005241638 0.029248262 -0.010118427 -0.0021616118 0.0032387604 -0.0007114689 0.035302978
0.018428324 0.011484188 0.016692564 -0.0075105424 0.0060778074 -0.007564954 0.0015710455 0.0027778836
-0.00813068 -0.019905487 -0.003652848 0.015713457 -0.011950093 -0.02955879 -0.008039392 0.0031652246
0.002445325 0.030178607 -0.017082557 -0.0049789436 -0.009080569 -0.009993967 -0.046112046 -0.01205768
-0.012569132 0.012054709 -0.0066261366 -0.0057601067 -0.0054968717 -0.06348587 0.00803325 0.03861208
-0.029134339 -0.02109325 0.007406842 -0.016253257 0.03609673 -0.007203813 0.011214775 0.0012287323
-0.009170899 -0.004086114 -0.0049920976 0.0053154766 0.028077466 -0.01100752 0.02857162 0.0035776687
0.0031238652 -0.009935574 -0.008706639 0.031687573 -0.009790313 -0.007814469 0.0041335346 -0.020219935
-0.031580716 -0.0084797405 0.042711608 0.02771837 -0.00422051 0.019446893 0.042817146 -0.010347128
-0.029300436 0.009822629 -0.015549271 0.015849454 -0.0070854924 0.012339161 0.014867877 -0.015458742
-0.017459074 0.012299276 -0.024787199 0.014031726 0.028896881 0.016277052 -0.027637262 0.027913494
-0.016147647 -0.02755144 -0.0025729183 0.0028783546 -0.00093847513 0.018600678 0.01194425 0.010989724
0.0145643195 -0.011925681 0.046342377 0.02346268 -0.007117279 0.015711555 0.01743329 -0.007138451
-0.017595284 -0.03587685 -0.012530458 0.015697848 0.020653142 0.0022931497 0.012007227 -0.007745933
0.017977815 0.0034090735 0.021831114 0.008139967 -0.03073003 0.0066406988 0.0011191193 -0.0076644733
0.019554667 -0.0076420316 0.006752044 -0.004874298 0.016181756 -0.0045397044 -0.019425705 -0.012164148
0.00940538 -0.027829273 -0.023417035 -0.027003849 0.0052713915 -0.020921858 -0.039480373 -0.01797041
0.009969785 -0.020448193 -0.0009796903 -0.030622622 0.01245534 -0.012139783 -0.020967713 -0.009651232
-0.0010767386 -0.019423109 0.005050147 -0.026134714 -0.0039023787 0.0055532637 -0.0010294421 0.016927162
-0.015977805 0.01584645 0.023553519 0.012584484 -0.011570311 0.005793057 -0.010280277 -0.013052042
7.725665e-06 0.012612647 0.032897957 0.032023367 0.02268797 0.00023938755 -0.026177173 -0.025922975
0.015535297 0.016558846 -0.027737522 0.009361189 0.019942556 0.026483132 0.0071728243 -0.022349799
0.013524132 0.014000011 -0.0018393005 0.0042954125 -0.014923266 -0.008919646 0.021679148 0.0072066607
-0.015882012 -0.011618252 0.02095737 0.014387717 -0.01726237 -0.025721435 0.000575642 0.025322605
0.0068554976 -0.016113944 0.00119951 -0.03735671 0.013439372 0.0193987 -0.017073251 -0.004907551
0.026152862 0.0111509105 -0.0020774272 -0.039450664 -0.01969936 0.015022186 6.670345e-05 0.017464638
0.026083415 -0.00015121711 0.02342337 0.010979297 -0.021958038 -0.018994274 0.0019743452 0.009387151
-0.014802103 -0.006890528 0.019428533 0.008299872 0.043511838 -0.01618999 0.0020314238 0.0037160714
-0.004561442 0.0075374297 0.017034482 -0.019341035 0.006744787 -0.0051898197 -0.009208514 0.0027467213
0.010192288 -0.019422183 0.0126119 -0.017891591 -0.015313925 0.0016117214 -0.011981177 -0.0019882673
-0.0037998687 -0.008035994 0.009162124 0.0015729901 -0.006688525 0.02729915 0.01305942 -0.01637787
-0.018220415 0.023854204 -0.021038236 0.014240789 -0.009731289 0.034749534 -0.025655124 -0.004320032

action_model._continuous_distribution.mu.bias f4 [2]
00000000: 0000 0000 0000 0000
0.0 0.0

action_model._discrete_distribution.branches.0.weight f4 [1, 128]
00000000: fed9 103c 8725 973a 437e 6cbc ca7d 16bb
00000010: 6242 cc3b 30e2 e13b 39d3 b03b 89d8 c2bb
00000020: 7f17 423c c214 8f3c 9adf 513b 37fe 203b
00000030: ab65 66ba 0511 e3bc 787b fd3b 6e5b a1ba
00000040: f0a7 853b f2f7 a43c 57d3 17bc 8daf d1ba
00000050: 2340 843c 2896 e43a dcca 0bbb 4f8f bbbb
00000060: 2f78 2bbc cd0c f73b 28f6 14bc c07b d3bb
00000070: c3ed 2c3c bbf9 ee3a cba9 aa3b e199 90bb
00000080: a134 3c3c ccb9 193c 9a51 153b 4f95 d13b
00000090: 9563 16bc 67a9 00bb 026d 8aba 2fab ea3b
000000a0: ef56 563b f4a6 44ba 31f7 1f3b c707 c8b9
000000b0: 849e 86bb 1618 923b 622d 7abb e15a 0bbc
000000c0: 9e4f 043c 2a11 6bbc 98ee 67bc 8d4d 81bc
000000d0: 3c9c 4cbb 534d 1fba a092 5dbc 15d5 2cbb
000000e0: 009c 3a3c 857c 38bc a83a 0e3c 3f20 223b
000000f0: 0092 143c 0273 583b 2a4f 7a3b 547d 3e3c
00000100: 18eb c5bb 2d53 53bb fbe9 9f3b 1386 9cba
00000110: 4eec a43c c872 f73a d198 92bb dee6 043c
00000120: 88da 58bc 40de 133a 30b4 f6bb c870 ebba
00000130: 5823 3cbb edf6 b5bb 8a0b 52bb f726 a7bb
00000140: 6591 ae3b 1f9e 8fbb 4dba f0bb e2f5 13bb
00000150: 0a67 eaba 0eb5 16bc 0f3d 99bb 3483 26bb
00000160: d5dd 53ba 88ad 5dbc 4353 933a 2dab 3ebc
00000170: 0d71 e03b 5feb 2f3c 40b0 96bb 9a1f 48bc
00000180: 4689 053c 3755 26bc 2f24 143b cbdd 333c
00000190: a0e9 7fbc 2362 093b 57b8 aa3c a721 3abc
000001a0: c346 143c 2f08 33bc 9a7d 6cbc 1d35 2b3b
000001b0: 9d57 d63b 2803 12bc 3762 e83b 748e 9dbb
000001c0: 261a 8ebb e215 d6ba 75fa 833c cfbf 93bc
000001d0: d156 af3b 8bb2 c5bc eb45 15bc 1874 fd3a
000001e0: 2f8f 3e3c a39b 3b3b f4b1 95b8 4821 653b
000001f0: c7dc d8bb cbf3 a7bc 3cc7 a13b b6db 08bc
0.008841036 0.001153157 -0.0144344 -0.002296316 0.0062334994 0.0068934187 0.0053962735 -0.005946223
0.011846422 0.017465953 0.0032024146 0.0024565586 -0.00087889534 -0.027718076 0.007735666 -0.0012310573
0.0040788576 0.02013776 -0.009266696 -0.0015997753 0.016143864 0.001743977 -0.002133063 -0.005723871
-0.010465666 0.007539368 -0.009091891 -0.006453961 0.010554734 0.0018232384 0.005208229 -0.004412875
0.011487157 0.009382676 0.0022784234 0.006395973 -0.009179016 -0.0019632222 -0.0010561051 0.00716152
0.0032705625 -0.00075016846 0.0024408812 -0.00038152767 -0.004108252 0.0044584377 -0.0038174023 -0.008505554
0.008075623 -0.014347354 -0.014156006 -0.01578405 -0.0031221053 -0.0006076891 -0.013523728 -0.0026372124
0.011389732 -0.0112601565 0.008680977 0.0024738458 0.009068012 0.0033027534 0.0038194158 0.01162656
-0.0060399882 -0.0032245622 0.0048801876 -0.0011941813 0.02013221 0.0018878812 -0.0044737835 0.008111684
-0.013235696 0.0005640723 -0.0075288042 -0.0017962689 -0.002870759 -0.0055531175 -0.0032050335 -0.0051010805
0.005327391 -0.004382863 -0.0073464275 -0.0022576977 -0.0017883491 -0.00919844 -0.004676468 -0.0025407793
-0.0008082067 -0.013530143 0.0011240024 -0.011637491 0.006849414 0.010737269 -0.0045986474 -0.012214566
0.008150404 -0.010152153 0.0022604575 0.0109781725 -0.015619665 0.0020963035 0.020839853 -0.011360562
0.009050074 -0.010927244 -0.014434243 0.0026124187 0.006541206 -0.008911885 0.0070917862 -0.0048082415
-0.004336613 -0.0016333426 0.016110638 -0.018035797 0.0053509255 -0.024132987 -0.009110908 0.0019336967
0.011630817 0.0028626702 -7.13802e-05 0.0034962464 -0.0066181156 -0.020501992 0.0049370807 -0.008353164

critic.network_body.linear_encoder.seq_layers.0.weight f4 [128, 6]
00000000: 5b3c 6ebf c69d 033f d3b6 1e3e 32d4 acbe
00000010: 434a 0abe 5fa4 1ebf d983 9dbf a575 253f
00000020: 55c9 8dbe 34fe 0abf d09d 273f 836f b23e
00000030: 63b7 f2bc 81a6 063c 0d93 a73e c4b8 f83e
00000040: 1f8e 523e dab0 c23e 0057 7d3e 0169 853f
00000050: e162 85be baf3 92bd 5782 203e c977 ba3e
00000060: 1429 9d3e c626 363f 222e 003f 7d68 ac3e
00000070: 66df cb3e 5856 12bd 1f9c e2bd 89d4 0b3e
00000080: 8c87 fabe 5813 53bf a534 d4be b55e 563c
00000090: a859 8ebf 16fd 49bf d7b7 c1be 9121 9dbc
000000a0: c209 4abe 191f bf3e f92d 943e 2dd2 cebd
000000b0: aac0 583f 75e8 993e 0ed2 3bbd 64ae 223d
000000c0: 19b6 663d 677c 1abf 7721 113e b236 efbe
000000d0: 0777 22be e971 96bd ffb7 b83d 520a a3bf
000000e0: da83 8a3f aa80 7f3e af87 dcbc 08ae 91be
000000f0: 984f 7c3e 5ce4 d4be 194d c73d a1ec 6cbd
00000100: d001 0a3e 4867 f6bd 7559 bebd 21de f73e
00000110: 761f 333f 2f3a 113f f6c4 a23c 8175 34be
00000120: 7dd1 80bf 3c8f cfbe 5938 babd 5102 e9bd
00000130: 2195 5c3d e977 af3e 2fe9 aa3e df80 bfbe
00000140: a683 1b3e d25e 34bf 69f0 a7be f345 323d
00000150: 9df6 95bb 28fb 00bf bed1 093e e824 86be
00000160: 7465 853e 187d d9be 3287 f83d b579 0a3d
00000170: 7444 d8be 1cf6 d4be ef1b e9bd c2b5 b23c
00000180: ae21 26be 188c 2b3c 7c3e 1a3f dd14 b63d
00000190: 8e08 e63e 5cd3 9bbe a1ad bf3e 4843 4b3e
000001a0: adb4 5fbf 89f6 9b3e 608e f93d ec4b 2e3e
000001b0: 388a d1bd fa19 033f c0ac 4fbf ab58 243e
000001c0: 9756 f73e 52df 4f3e ce09 8cbe 0c17 113f
000001d0: a319 a73d 2425 0bbe a50d eb3e 77be 423e
000001e0: 7ce4 93bd 9d6e a03e 3dfe 5c3f 84a5 89bc
000001f0: d85b 19bf a0c6 dbbe 7c61 2cbf d371 bf3e
00000200: 306e eb3e 29e2 a33d 10da 08bd d2bb 143f
00000210: 3a01 ddbc 2295 643f 2e7a 7d3e b25f 8bbd
00000220: 17a7 00be ff38 1abf 7101 c9be cdf0 3bbe
00000230: e660 fa3e 04b4 b93e 37d8 97be 7754 ab3e
00000240: fcdb fd3e 5d70 00bf 9eac 753f ad26 a3bd
00000250: 9882 60be 2014 27bf 4e7a 6c3e a564 303e
00000260: e036 233f 56a5 7a3e f4eb 9e3e d49f 6b3f
00000270: 305b 893e 8191 54be 2281 10bf 101f 073e
00000280: 3893 3abe cf0e 613e 0be1 2ebd d900 2fbe
00000290: 9b91 413e 253d 613e a01e 0e3f 0ef5 963e
000002a0: c27b d63e 46e9 4fbf 6557 703e c033 993e
000002b0: 3a3d 10bf 530f 45be 2abe 47bf 9d58 8ebe
000002c0: ae76 f2bd e1ca 82bb c67b 0dbe c0a4 0fbe
000002d0: f481 40bf 305a 7e3e f80d 25bf 9d1e f23e
000002e0: 1bb7 153e e732 60be 0b97 8c3d a223 3fbf
000002f0: b033 aebe 239b 04bf 6197 423e 43b9 83be
00000300: 7a95 dfbd e4e0 e1be eb88 1d3f 502b 26bf
00000310: 3540 873c 8600 973e fe22 da3c 40e0 393e
00000320: 988a 113e 1b3b 13bd 78cc 3fbe 77ad eebc
00000330: fd43 2d3e 7aa4 fa3e 06be fcbe 5116 57be
00000340: 732f eebd df3a d9be 77ae c6bd e0ab 40bf
00000350: 09b7 edbd ae73 57bf a07a e0be 7c44 613e
00000360: 1eaa d53d d6fe 72be a052 893d c803 7ebe
00000370: c5c6 fcbd 6192 183d 7ddb 033f 5b16 cdbd
00000380: bb2b 3e3f 7808 37bd 5186 ee3c 0f6c 263e
00000390: 8168 ec3d 4dea f7bd 23b5 043f b8d9 913e
000003a0: 6d32 bf3d 5828 37bf ef29 e9bb 2f5d bbbe
000003b0: 855d c8be 5ec5 6c3c eb1f 093e 23de c5be
000003c0: 89e2 61be 48ba 92be ab91 37bf 59af 9bbe
000003d0: 0411 b73e 5bb9 f5be 2c7b c1bd ba27 103e
000003e0: 59de 843f 5e75 6abe 50b3 83be 016c 81bd
000003f0: 4aa1 343f 7946 f93d b7ba 9fbd 2fac b1be
-0.93060845 0.5141262 0.1549943 -0.33755642 -0.13504891 -0.6196956 -1.2305862 0.64632636
-0.27692667 -0.54294133 0.6547518 0.34850702 -0.029628461 0.008218409 0.32729378 0.48578465
0.20562027 0.38025552 0.24740219 1.042267 -0.26052 -0.071753934 0.1567472 0.36419514
0.30695403 0.71152914 0.50070393 0.33673468 0.39818877 -0.035726875 -0.11064934 0.13655294
-0.4893154 -0.8245139 -0.41446415 0.013084103 -1.1121111 -0.78901803 -0.3783557 -0.019181045
-0.19730285 0.37328413 0.28941324 -0.100986816 0.8466898 0.30060163 -0.04585462 0.039717093
0.056326006 -0.6034607 0.14172922 -0.46721417 -0.15865718 -0.073459454 0.090194695 -1.2737525
1.0821488 0.24951425 -0.026920168 -0.28453088 0.24639738 -0.41580474 0.09731502 -0.057842854
0.13477254 -0.12031418 -0.09294406 0.48411658 0.6996988 0.56729406 0.019869309 -0.17622949
-1.0063931 -0.40538967 -0.09092779 -0.11377395 0.053853158 0.34271172 0.3338103 -0.37403008
0.15186939 -0.70457184 -0.32800606 0.04352374 -0.0045765177 -0.50383234 0.13458917 -0.26200032
0.26053965 -0.4247825 0.121351615 0.033807475 -0.42239726 -0.41594017 -0.11382281 0.021815185
-0.16223785 0.010470413 0.60251594 0.08890698 0.44928402 -0.30434692 0.37437156 0.19849885
-0.87385064 0.3046153 0.12185359 0.1702115 -0.10231441 0.5121151 -0.8112297 0.16049449
0.4830825 0.20300034 -0.2735123 0.5667579 0.08159187 -0.13588387 0.45908847 0.19017969
-0.07221314 0.3133439 0.86325437 -0.016802557 -0.5990577 -0.42924976 -0.6733625 0.37391528
0.45982504 0.08002121 -0.033411086 0.5809909 -0.026978124 0.8929006 0.24753639 -0.06805362
-0.1256374 -0.6024322 -0.39258912 -0.18353577 0.48902053 0.36270154 -0.29657146 0.3346288
0.49581897 -0.5017145 0.9596652 -0.07966361 -0.21924818 -0.65265083 0.2309353 0.17225893
0.6375561 0.24477133 0.31039393 0.92040753 0.26827383 -0.2075863 -0.5644704 0.13195443
-0.18220222 0.21978305 -0.042695086 -0.17090167 0.189032 0.21995981 0.5551548 0.29483837
0.41891295 -0.8121532 0.23470838 0.29922295 -0.56343424 -0.19244127 -0.7802454 -0.27801982
-0.118390426 -0.00399147 -0.13816747 -0.14027691 -0.7519829 0.24839091 -0.6447444 0.4728898
0.1462063 -0.21894418 0.06864747 -0.74663746 -0.3402381 -0.5179922 0.19003059 -0.2572728
-0.10917182 -0.4411689 0.61537045 -0.6490984 0.016510108 0.29492587 0.026628014 0.18151951
0.14213026 -0.03594504 -0.18730342 -0.029135449 0.16920467 0.4895361 -0.49363726 -0.21004607
-0.11630144 -0.42427728 -0.09701245 -0.7526226 -0.11607177 -0.8416089 -0.43843555 0.21998781
0.10432838 -0.23730025 0.067052126 -0.2480613 -0.123426 0.037248973 0.5150679 -0.100140296
0.7428548 -0.04468581 0.029116781 0.16252159 0.1154337 -0.12105236 0.5183889 0.2848642
0.0933579 -0.71545935 -0.0071155946 -0.3659453 -0.3913385 0.014451353 0.13391082 -0.3864604
-0.22059073 -0.28657746 -0.71706647 -0.30407217 0.3575517 -0.47992977 -0.09447321 0.14077654
1.0380355 -0.22896335 -0.25722742 -0.06319428 0.7055861 0.12171645 -0.07799285 -0.34701678

critic.network_body.linear_encoder.seq_layers.0.bias f4 [128]
00000000: 0000 0000 0000 0000 0000 0000 0000 0000
00000010: 0000 0000 0000 0000 0000 0000 0000 0000
00000020: 0000 0000 0000 0000 0000 0000 0000 0000
00000030: 0000 0000 0000 0000 0000 0000 0000 0000
00000040: 0000 0000 0000 0000 0000 0000 0000 0000
00000050: 0000 0000 0000 0000 0000 0000 0000 0000
00000060: 0000 0000 0000 0000 0000 0000 0000 0000
00000070: 0000 0000 0000 0000 0000 0000 0000 0000
00000080: 0000 0000 0000 0000 0000 0000 0000 0000
00000090: 0000 0000 0000 0000 0000 0000 0000 0000
000000a0: 0000 0000 0000 0000 0000 0000 0000 0000
000000b0: 0000 0000 0000 0000 0000 0000 0000 0000
000000c0: 0000 0000 0000 0000 0000 0000 0000 0000
000000d0: 0000 0000 0000 0000 0000 0000 0000 0000
000000e0: 0000 0000 0000 0000 0000 0000 0000 0000
000000f0: 0000 0000 0000 0000 0000 0000 0000 0000
00000100: 0000 0000 0000 0000 0000 0000 0000 0000
00000110: 0000 0000 0000 0000 0000 0000 0000 0000
00000120: 0000 0000 0000 0000 0000 0000 0000 0000
00000130: 0000 0000 0000 0000 0000 0000 0000 0000
00000140: 0000 0000 0000 0000 0000 0000 0000 0000
00000150: 0000 0000 0000 0000 0000 0000 0000 0000
00000160: 0000 0000 0000 0000 0000 0000 0000 0000
00000170: 0000 0000 0000 0000 0000 0000 0000 0000
00000180: 0000 0000 0000 0000 0000 0000 0000 0000
00000190: 0000 0000 0000 0000 0000 0000 0000 0000
000001a0: 0000 0000 0000 0000 0000 0000 0000 0000
000001b0: 0000 0000 0000 0000 0000 0000 0000 0000
000001c0: 0000 0000 0000 0000 0000 0000 0000 0000
000001d0: 0000 0000 0000 0000 0000 0000 0000 0000
000001e0: 0000 0000 0000 0000 0000 0000 0000 0000
000001f0: 0000 0000 0000 0000 0000 0000 0000 0000
0.0 0.0 0.0 0.0 0.0 0.0 0.0 0.0
0.0 0.0 0.0 0.0 0.0 0.0 0.0 0.0
0.0 0.0 0.0 0.0 0.0 0.0 0.0 0.0
0.0 0.0 0.0 0.0 0.0 0.0 0.0 0.0
0.0 0.0 0.0 0.0 0.0 0.0 0.0 0.0
0.0 0.0 0.0 0.0 0.0 0.0 0.0 0.0
0.0 0.0 0.0 0.0 0.0 0.0 0.0 0.0
0.0 0.0 0.0 0.0 0.0 0.0 0.0 0.0
0.0 0.0 0.0 0.0 0.0 0.0 0.0 0.0
0.0 0.0 0.0 0.0 0.0 0.0 0.0 0.0
0.0 0.0 0.0 0.0 0.0 0.0 0.0 0.0
0.0 0.0 0.0 0.0 0.0 0.0 0.0 0.0
0.0 0.0 0.0 0.0 0.0 0.0 0.0 0.0
0.0 0.0 0.0 0.0 0.0 0.0 0.0 0.0
0.0 0.0 0.0 0.0 0.0 0.0 0.0 0.0
0.0 0.0 0.0 0.0 0.0 0.0 0.0 0.0

critic.network_body.linear_encoder.seq_layers.2.weight f4 [128, 128]
00000000: 6b3b 9a3c 91a1 53bd 020f 83bd b2bb 9d3d
00000010: ab14 963d 98f8 b63d 4ca0 abbd 974e b73c
00000020: ca72 76bb 0b5f 83bd 0dc9 f43c 9ff3 1ebd
00000030: b227 89bd 37c0 953d 0db6 ac3d 98ad 84ba
00000040: 70ef 1abd d6ad 17bd 619a 93bc 0268 e23b
00000050: 185d 96bd 8e60 123d 68dc a03d 30f1 05bc
00000060: 0f1d b7bd 644a de3d 5ea0 013d 1e20 0ebc
00000070: 343e 1ebd 5b70 0bbe 4216 cdbd 0138 8ebd
00000080: b5d3 28bd daff b9bd ba33 52bd 5c03 b23c
00000090: 4ec4 9dbd 2ba9 b03c 329c 793c a780 7c3d
000000a0: 0e01 24be 9af7 58be 90ec d83b dc24 003e
000000b0: 4ebe 493d 07e4 063d e5a8 903b b4fc 4f3e
000000c0: fb59 a2bb c29c 8dbd eb80 9a3d 4dcf 253e
000000d0: 5625 a3bd 334b 7dbd d977 e1bd 8dc9 16bd
000000e0: 9ec6 043d 82e7 62bb b88e 6e3c 6de5 80bd
000000f0: a9d7 8bbd 1297 733d 4fc3 013d aa1d f3bd
00000100: a60b f13d 3014 d73d f43d d9ba 4b59 2c3c
00000110: ba63 b9bd 2e33 2e3d 9ba4 1f3e 9d47 643d
00000120: 7da0 db3b e62d fd3c 2d2c ed3c 10bb df3d
00000130: 56d3 2f3c 2afd 43bd 01da a4bd b884 2cbd
00000140: 27dd f6bc 5a9f a2bc 0d6b af3d 2bfe 63be
00000150: 854a 89bd c61d 7a3d 3f34 943d c996 14bd
00000160: dcfa 16bd be9b 433d 56e4 8fbd ccf9 063e
00000170: 9f11 ffbd 8a81 d13b 6145 47bc b60d 29be
00000180: 8b9e 53bd 6bd6 183e 6068 343e 8abb 343d
00000190: 1ad6 04bd 43de 10be cf5d 2abe 959f 0b3c
000001a0: 4d41 b5bc db33 773d b82e 76bd f514 8a3d
000001b0: 6937 a33c 665b 63bd e5f5 9d3d 7ea6 5739
000001c0: afa9 09bb d874 013e c7e7 15bc 4e76 9a3d
000001d0: 1044 1dbe 1ee4 403a 0d11 cf3c 042e 823a
000001e0: 7059 793d d8e6 d63b 5134 f83d ff0c 133d
000001f0: d896 a4bd 1a65 1ebe ba5e 79bd 6385 7f3d
00000200: 5f64 70bd 40ee 86bd 195e fdbd 322e 1a3e
00000210: d812 aabb 4206 29be feb8 4d3a 1a90 34bd
00000220: 0e60 2ebe 112b f2bd a3c7 203e 81e1 58bd
00000230: 4b4f 063e a259 1ebd 6e9c 5a3d ade0 7ebd
00000240: 7b4a 2dbd 3f9b 703c 951c 86bd 3ed8 a3bb
00000250: 3fb6 013d be10 b4bd 73db 273d 7436 9f3d
00000260: 4924 be3d 1546 e23d 7aa4 173e 70b7 04bd
00000270: cfec 96bd 1112 323e d032 903c 6233 ac3d
00000280: d8d8 0abe aad0 4dbd a99d 1c3e fe2f 04be
00000290: dd87 9cbb e19e b6bc ec28 c53c acab a53d
000002a0: d3e3 a83d 538b c53d 6ac2 823d 82a6 81bd
000002b0: ac4a 963d 2584 8d3d 5570 cdbc 60c5 2b3e
000002c0: 9694 a53c 6ffe da3d 2c23 47bd 40f6 3cbd
000002d0: e30a 3339 0768 5b3d 4704 3abd 1477 be3d
000002e0: 60d5 7bbe 784c cf3d a207 5c3d ce03 7ebc
000002f0: 0125 ffbc ebd1 a2bc 7b1c f1bc 69ad 33bc
00000300: ad61 213d 2ccf 40be 0f95 c4bd 9b17 833d
00000310: 2b4c c9bd ab7f be3c 78d2 38bd 25e1 c2bd
00000320: 6f9f a33c 597e d13d c3d5 033d 17dd d8bd
00000330: b9be aabd b257 e7bd 5b76 93bd bf21 813c
00000340: fc83 4a3d e017 febc 8bc6 633d 265d b3bc
00000350: 88f1 043c dbd7 ccbc 0bce 833e 6ba2 403c
00000360: 7232 b1bd 979e cd3c 49b7 f93d c5eb d63d
00000370: ecca 04be 7482 a0bd 44ea 403d 35c7 58bd
00000380: c6ae abbc a810 b6bd 0a49 203e bd59 13be
00000390: 86d0 c13d a375 7b3d 8e67 9abd 961f 823d
000003a0: ceda 973a f540 b33d 7c58 433e cd95 a2bc
000003b0: 3cec dd3d 53a1 86bd 6c21 36be 4c3b d63d
000003c0: 59d6 a83b 3e41 e2bd 2636 933d 3d6b 493e
000003d0: 19ff ecbd fa37 123e b9cf 71bd f987 43bc
000003e0: ea24 34be 6e14 7c3c 3ddc 41bc 3650 01bd
000003f0: 2b43 8e3d 0742 e4bd fa3d c5bc 61a9 183e
0.01882716 -0.051667754 -0.06399347 0.07701816 0.07328161 0.08934134 -0.083801836 0.022376342
-0.003760504 -0.064146124 0.029881025 -0.038806554 -0.066970244 0.07312053 0.08433161 -0.0010122536
-0.037826 -0.037031017 -0.01801795 0.0069093714 -0.07341975 0.035736613 0.07854539 -0.008175179
-0.08941089 0.10854033 0.03164708 -0.0086746495 -0.03863354 -0.13617079 -0.10014011 -0.06944276
-0.041217525 -0.09082003 -0.05131886 0.021730117 -0.07703458 0.02156504 0.015234994 0.06164613
-0.16016027 -0.21188203 0.0066199973 0.1251406 0.049253754 0.032932308 0.004414665 0.20311242
-0.004954574 -0.06914665 0.075441204 0.1619236 -0.07966106 -0.061839294 -0.11009187 -0.036813308
0.03241598 -0.0034622853 0.014560394 -0.062937595 -0.06828243 0.059470244 0.0316804 -0.11870892
0.117698 0.10501897 -0.001657425 0.010519336 -0.090522245 0.042529278 0.15590136 0.05573236
0.0067024813 0.030905675 0.028951729 0.10924351 0.010731539 -0.047848858 -0.080493934 -0.042118758
-0.03013475 -0.019851375 0.0856534 -0.22264926 -0.067036666 0.06106355 0.07236528 -0.036276612
-0.036860332 0.04775595 -0.070259735 0.13181227 -0.12454533 0.006393616 -0.012162537 -0.16509137
-0.05166487 0.14925544 0.17617941 0.044124164 -0.032430746 -0.14147286 -0.16637348 0.008521934
-0.022125864 0.060352188 -0.06010315 0.067422785 0.019923883 -0.055507086 0.07712916 0.00020566021
-0.002100568 0.12642229 -0.009149498 0.07542096 -0.15357995 0.0007358211 0.025276685 0.0009931927
0.06087631 0.0065582804 0.121193536 0.035901066 -0.08036584 -0.15468255 -0.060881354 0.062383067
-0.05868947 -0.06588411 -0.12371463 0.15056685 -0.0051902346 -0.16506293 0.00078476954 -0.04408274
-0.1702883 -0.118246205 0.15701155 -0.052949432 0.13116185 -0.0386597 0.05337184 -0.062225986
-0.04230736 0.014685451 -0.0654842 -0.0050001433 0.031667944 -0.08792256 0.040980767 0.07774058
0.092842646 0.11048523 0.14808837 -0.032401502 -0.073693864 0.17389704 0.017602354 0.08408238
-0.13559282 -0.050247826 0.15294518 -0.12908933 -0.0047769384 -0.022292556 0.024067365 0.080893844
0.08246579 0.096457146 0.06384738 -0.06330587 0.07338461 0.0690997 -0.025077978 0.16774511
0.020212453 0.106930606 -0.048617527 -0.04613328 0.00017074826 0.053566005 -0.045414235 0.09300056
-0.24593115 0.10122007 0.053718217 -0.015503837 -0.031145575 -0.019875487 -0.029432526 -0.010966637
0.03939979 -0.1882903 -0.09598743 0.06400987 -0.09828981 0.023254236 -0.045122594 -0.09515599
0.019973485 0.10229177 0.03218628 -0.105890445 -0.08337159 -0.112960234 -0.07200309 0.015763162
0.049442276 -0.031017244 0.055609267 -0.021895003 0.008114226 -0.025005272 0.25743136 0.011757473
-0.086522 0.025100036 0.12193162 0.10494188 -0.12968034 -0.07837382 0.047098413 -0.052924354
-0.020957362 -0.08889896 0.15652862 -0.14389701 0.09463601 0.061391484 -0.07539283 0.06353681
0.0011585595 0.08752624 0.19076723 -0.019846821 0.10836074 -0.06573739 -0.17786187 0.10460529
0.0051525054 -0.110476 0.07188062 0.19669814 -0.115720935 0.14279166 -0.05903599 -0.011934274
-0.17592207 0.01538573 -0.011832294 -0.031570636 0.06946405 -0.11145406 -0.024077404 0.14908363

critic.network_body.linear_encoder.seq_layers.2.bias f4 [128]
00000000: 0000 0000 0000 0000 0000 0000 0000 0000
00000010: 0000 0000 0000 0000 0000 0000 0000 0000
00000020: 0000 0000 0000 0000 0000 0000 0000 0000
00000030: 0000 0000 0000 0000 0000 0000 0000 0000
00000040: 0000 0000 0000 0000 0000 0000 0000 0000
00000050: 0000 0000 0000 0000 0000 0000 0000 0000
00000060: 0000 0000 0000 0000 0000 0000 0000 0000
00000070: 0000 0000 0000 0000 0000 0000 0000 0000
00000080: 0000 0000 0000 0000 0000 0000 0000 0000
00000090: 0000 0000 0000 0000 0000 0000 0000 0000
000000a0: 0000 0000 0000 0000 0000 0000 0000 0000
000000b0: 0000 0000 0000 0000 0000 0000 0000 0000
000000c0: 0000 0000 0000 0000 0000 0000 0000 0000
000000d0: 0000 0000 0000 0000 0000 0000 0000 0000
000000e0: 0000 0000 0000 0000 0000 0000 0000 0000
000000f0: 0000 0000 0000 0000 0000 0000 0000 0000
00000100: 0000 0000 0000 0000 0000 0000 0000 0000
00000110: 0000 0000 0000 0000 0000 0000 0000 0000
00000120: 0000 0000 0000 0000 0000 0000 0000 0000
00000130: 0000 0000 0000 0000 0000 0000 0000 0000
00000140: 0000 0000 0000 0000 0000 0000 0000 0000
00000150: 0000 0000 0000 0000 0000 0000 0000 0000
00000160: 0000 0000 0000 0000 0000 0000 0000 0000
00000170: 0000 0000 0000 0000 0000 0000 0000 0000
00000180: 0000 0000 0000 0000 0000 0000 0000 0000
00000190: 0000 0000 0000 0000 0000 0000 0000 0000
000001a0: 0000 0000 0000 0000 0000 0000 0000 0000
000001b0: 0000 0000 0000 0000 0000 0000 0000 0000
000001c0: 0000 0000 0000 0000 0000 0000 0000 0000
000001d0: 0000 0000 0000 0000 0000 0000 0000 0000
000001e0: 0000 0000 0000 0000 0000 0000 0000 0000
000001f0: 0000 0000 0000 0000 0000 0000 0000 0000
0.0 0.0 0.0 0.0 0.0 0.0 0.0 0.0
0.0 0.0 0.0 0.0 0.0 0.0 0.0 0.0
0.0 0.0 0.0 0.0 0.0 0.0 0.0 0.0
0.0 0.0 0.0 0.0 0.0 0.0 0.0 0.0
0.0 0.0 0.0 0.0 0.0 0.0 0.0 0.0
0.0 0.0 0.0 0.0 0.0 0.0 0.0 0.0
0.0 0.0 0.0 0.0 0.0 0.0 0.0 0.0
0.0 0.0 0.0 0.0 0.0 0.0 0.0 0.0
0.0 0.0 0.0 0.0 0.0 0.0 0.0 0.0
0.0 0.0 0.0 0.0 0.0 0.0 0.0 0.0
0.0 0.0 0.0 0.0 0.0 0.0 0.0 0.0
0.0 0.0 0.0 0.0 0.0 0.0 0.0 0.0
0.0 0.0 0.0 0.0 0.0 0.0 0.0 0.0
0.0 0.0 0.0 0.0 0.0 0.0 0.0 0.0
0.0 0.0 0.0 0.0 0.0 0.0 0.0 0.0
0.0 0.0 0.0 0.0 0.0 0.0 0.0 0.0

critic.value_heads.value_heads.extrinsic.weight f4 [1, 128]
00000000: 40cf 3dbd 56ad 3c3e d8da 7d3d 304f b33c
00000010: 0873 a63d 733e d0bd 78a4 08bd 386c 2cbd
00000020: 3a13 0dbe 6c6f 903d d86f 103d feef 533e
00000030: c0d8 6d3d 7a5a 1a3e daf1 01be 008a c9b9
00000040: e816 d43d 908d 7f3d b81a 023e d88c b03d
00000050: 505d 0cbe a095 5cbe 8096 5a3e 8089 55bc
00000060: 883e 4abe 2a35 18be 8436 3cbd 907f 42bc
00000070: b097 58be b27a 95bd fc3e 5cbd 77a8 33be
00000080: 9850 d1bc 2056 a93c 4afa 0ebe 68e7 90bc
00000090: 04db b93d a059 c83c 6051 a93b 34cd 993d
000000a0: b0da 953c 1f5f 45be 601b 233e 4c95 ddbd
000000b0: 4d71 3abe 3b0b 52be 7810 43be 422d 253e
000000c0: 22fc d7bd 1099 41be a0d6 d23d a087 44bc
000000d0: 6821 e7bc ac02 c23d e874 5c3d 60eb bc3d
000000e0: eac8 45be d0fa 733c ce39 2d3e 0894 bf3c
000000f0: b29d 433e 8976 5cbe 24cd e63d a8f1 ef3c
00000100: 4862 d33d d4b0 893d fc6d 4abd 917a 0fbe
00000110: 4694 21be 6cd0 e9bd c090 373c 3b32 c1bd
00000120: 9099 bf3d aea1 323e 4883 443e 9894 553e
00000130: 9e92 1d3e e8ba 2ebe b1d4 35be 408f 61bc
00000140: 4217 233e b498 47be f8db 1abd 58fb b13d
00000150: bcd9 08bd dc12 4dbe 701a 473d be13 1abe
00000160: 2a57 03be da7f 89bd 0008 b93a 06fb 193e
00000170: 00d4 973c 761b 24be 604a 9c3d 1886 ae3d
00000180: 4828 8bbc d0f8 393c 21bb 35be c8d1 893d
00000190: 5c61 283e 0634 213e bc38 b83d f8e5 d43c
000001a0: ceb7 44be bcef b8bd 2ad1 503e e035 f93d
000001b0: 65e0 13be 42e1 483e 8256 1cbe 621c f4bd
000001c0: 7d0f 2bbe 609f ce3c 986f 953d 207c 5c3d
000001d0: d841 353e 14ec 563e d064 703c a80c fe3d
000001e0: fc1a 0dbe c0de 03bc fcb5 053d 8542 17be
000001f0: 48e8 513d c045 e13d 2323 4bbe a784 50be
-0.046340227 0.18425497 0.061976284 0.021888345 0.08127409 -0.10168161 -0.033359975 -0.042095393
-0.13776866 0.07052502 0.035262913 0.20697019 0.058068037 0.15073577 -0.12689915 -0.00038440526
0.103559315 0.062390864 0.12705505 0.08620614 -0.13707471 -0.21541452 0.21346474 -0.013033271
-0.19750416 -0.1486403 -0.045950428 -0.011871234 -0.21151614 -0.07298793 -0.053771004 -0.17544733
-0.025551125 0.02067095 -0.13962665 -0.017688468 0.09074977 0.024456799 0.0051671714 0.075098425
0.018292755 -0.19274567 0.15928411 -0.10819492 -0.18207283 -0.20512097 -0.19049251 0.16130546
-0.105461374 -0.18906045 0.10294843 -0.011995226 -0.028214172 0.09473166 0.053822428 0.09224582
-0.19314924 0.014891341 0.16916582 0.023386016 0.19103125 -0.21529593 0.11269596 0.029290035
0.1032148 0.067231804 -0.049421296 -0.14011599 -0.15779218 -0.114167064 0.011203945 -0.09433409
0.093554616 0.17444488 0.19190705 0.20857465 0.15387961 -0.17063487 -0.17756917 -0.013767064
0.15926841 -0.19491845 -0.037807435 0.08690518 -0.033410773 -0.20026726 0.048609197 -0.15046594
-0.12826219 -0.06713839 0.0014116764 0.15037164 0.018533707 -0.160261 0.076313734 0.0852167
-0.016986981 0.011350825 -0.17747165 0.06729466 0.1644339 0.15742502 0.08995196 0.025988564
-0.19210741 -0.09030101 0.2039229 0.12168479 -0.14441068 0.19617179 -0.15267375 -0.11919476
-0.16705127 0.02522248 0.072966754 0.053829312 0.17700899 0.20988494 0.014672473 0.12404758
-0.13779825 -0.008048713 0.032644257 -0.14771469 0.05124691 0.10999632 -0.19837622 -0.20363103
