results/test1/HitTheBall/HitTheBall-1600.pt (torch, 150559 bytes, 13 tensors)

network_body.linear_encoder.seq_layers.0.weight f4 [128, 6]
0	0x3e301084	0.171938
1	0x3e22f04d	0.1591198
2	0x3dcd65a7	0.10029154
3	0x3e6425ac	0.22279996
4	0xbef71baf	-0.48263308
5	0x3ea2645a	0.31717187
6	0xbe3ae474	-0.1825121
7	0xbe5628b8	-0.2091397
8	0x3e888e80	0.2667122
9	0xbd5e1ff5	-0.054229695
10	0xbd2301ef	-0.039796766
11	0x3f21cd72	0.6320411
12	0x3ea8e561	0.32987502
13	0xbd9e9598	-0.077433765
14	0x3c17be12	0.009261625
15	0x3f312e7b	0.6921155
16	0x3e0470b1	0.12933613
17	0x3f273cc3	0.6532709
18	0x3edebb76	0.43502396
19	0x3e89c7f8	0.26910377
20	0x3e564649	0.20925249
21	0x3c75e2a5	0.01500765
22	0xbf260dc0	-0.6486473
23	0x3e2b0865	0.16702421
24	0x3e1a0d00	0.15044022
25	0xbec6d2d0	-0.38832712
26	0xbeb1c74a	-0.34722358
27	0xbea14860	-0.3150053
28	0xbf2f61ae	-0.6850842
29	0xbf262ee8	-0.64915323
30	0xbe1f1d72	-0.15538576
31	0xbec767e2	-0.38946444
32	0xbe5a9214	-0.21344787
33	0xbe13717d	-0.14398761
34	0xbe4bdfd1	-0.19909598
35	0xbe4be1a5	-0.19910295
36	0xbaa7f495	-0.001281398
37	0xbccbbc42	-0.024870042
38	0xbed90eb7	-0.4239404
39	0x3e917a8d	0.2841381
40	0xbc0a4324	-0.008438859
41	0xbe7cdcbf	-0.24693583
42	0x3f727b63	0.94719523
43	0x3eca6ec6	0.39537638
44	0x3ea3fab4	0.3202721
45	0x3f1db635	0.6160615
46	0x3e008bf3	0.12553386
47	0xbea0f0d5	-0.3143374
48	0x3f4d62d7	0.8022894
49	0x3f25d7b8	0.64782286
50	0x3e9311e1	0.28724578
51	0xbda5d5dc	-0.08097431
52	0x3ec3858c	0.38187826
53	0x3e4a3138	0.19745338
54	0x3db41974	0.08793917
55	0x3e8488e7	0.25885698
56	0x3e71e256	0.23621497
57	0x3e8c614b	0.2741798
58	0xbe61b644	-0.22042185
59	0xbe933fda	-0.28759652
60	0xbf4bc278	-0.7959361
61	0x3ed27493	0.41104564
62	0x3df51bd1	0.11968196
63	0x3d8a1ebf	0.067441456
64	0xbf002724	-0.50059724
65	0x3f6d3be9	0.9266954
66	0x3f500f75	0.81273586
67	0xbe7a637e	-0.24452016
68	0xbe033fba	-0.12817279
69	0x3e9f316e	0.310924
70	0xbe9e1769	-0.30877236
71	0xbecc403b	-0.39892754
72	0x3eb3b052	0.3509546
73	0xbcc49220	-0.02399546
74	0x3f03068c	0.51181865
75	0xbdc7dc4a	-0.09758814
76	0xbee4e399	-0.44704893
77	0x3f11ce73	0.5695564
78	0x3e514f75	0.20440467
79	0xbf4bbfdc	-0.7958963
80	0xbf6775c4	-0.9041407
81	0xbe988b73	-0.2979389
82	0x3f0b55f7	0.54428047
83	0xbede8959	-0.43464163
84	0x3e21df3e	0.15807816
85	0x3e470b3f	0.19437884
86	0xbea168e5	-0.3152534
87	0x3df1259e	0.11774753
88	0x3c9d8ea9	0.019233065
89	0x3e429804	0.19003302
90	0x3eb40a44	0.35164082
91	0x3eeb9d4a	0.4601844
92	0x3eb14aca	0.34627372
93	0x3e93e0c9	0.28882435
94	0xbd0dd6f8	-0.03462884
95	0x3eb3a47f	0.35086438
96	0xbf0509f7	-0.5196833
97	0x3e2bb0d0	0.16766667
98	0x3f76da48	0.9642682
99	0x3e3aa29a	0.1822609
100	0x3e6483b9	0.22315873
101	0xbe8e1edb	-0.27757916
102	0x3eaffa9c	0.34370887
103	0xbed4448b	-0.41458544
104	0x3cbd4a3b	0.023106685
105	0x3f05d192	0.52272904
106	0x3ee40e8f	0.44542357
107	0x3e96ed82	0.2947808
108	0xbef1b52d	-0.4720854
109	0x3f54df89	0.8315359
110	0xbec776c8	-0.3895781
111	0xbe56ede5	-0.20989187
112	0x3ea4c115	0.3217856
113	0x3ef1c1f2	0.4721828
114	0x3f01f1bb	0.50759476
115	0x3d036431	0.03207797
116	0xbcbb466d	-0.02286073
117	0x3e580eab	0.21099345
118	0xbf0fd88a	-0.5618979
119	0xbe88d2b6	-0.2672326
120	0x3cd8acf7	0.026449664
121	0xbe32b2b4	-0.17450982
122	0x3ee3dffa	0.44506818
123	0x3dafbabd	0.085805394
124	0x3d9f9f87	0.07794099
125	0xbf2a02fb	-0.664108
126	0xbd500640	-0.05078721
127	0x3efbba83	0.49165735
128	0xbe0999bf	-0.13437556
129	0x3ebb1795	0.3654143
130	0xbed2849e	-0.41116804
131	0xbeca5863	-0.3952056
132	0xbe9a173d	-0.30095854
133	0x3f97c0ab	1.1855673
134	0xbec689f1	-0.38777116
135	0xbd58d534	-0.0529377
136	0xbeee84bc	-0.46585643
137	0x3e72c407	0.23707591
138	0xbdb7f08d	-0.08981428
139	0x3f2d4385	0.6768115
140	0x3e79cadc	0.24393791
141	0xbd1e51b4	-0.038652137
142	0x3d832413	0.06403365
143	0x3f459dc5	0.7719386
144	0xbe9aadec	-0.30210817
145	0x3eaf7e53	0.34276065
146	0xbeef8499	-0.4678085
147	0xbf3df11c	-0.7419603
148	0xbee19636	-0.44059914
149	0x3d425c64	0.04745139
150	0x3efb16b4	0.4904076
151	0x3f06e28b	0.5268943
152	0x3db8643d	0.09003494
153	0x3e73206a	0.23742834
154	0xbea20373	-0.31643257
155	0xbc1bd9aa	-0.009512344
156	0xbe2df46b	-0.1698777
157	0x3e9c0841	0.30475047
158	0x3d760f2a	0.060073055
159	0xbed9fef6	-0.42577332
160	0xbe8ad720	-0.27117252
161	0x3e98d865	0.29852596
162	0x3f502f6d	0.81322366
163	0xbee281e4	-0.44239724
164	0x3e6be399	0.2303604
165	0x3eb0a0a1	0.3449755
166	0xbeade665	-0.3396484
167	0x3e26f999	0.16306151
168	0xbed5c6b1	-0.41753152
169	0x3ebcd960	0.36884594
170	0x3eb45d92	0.35227638
171	0xbeb4c2d1	-0.35304883
172	0x3e459e2e	0.19298622
173	0x3e38d6a2	0.18050626
174	0x3eade19e	0.33961195
175	0xbdc0a2dc	-0.09406063
176	0xbea79af9	-0.32735422
177	0x3e9dda33	0.30830535
178	0xbe2c4b1b	-0.16825525
179	0xbec8b970	-0.39203978
180	0xbe2b654a	-0.16737857
181	0xbe213bc6	-0.15745458
182	0xbe551224	-0.20807701
183	0xbd4b074b	-0.049567502
184	0x3de7e6f0	0.11323345
185	0xbeaa1458	-0.33218646
186	0x3f10024e	0.56253517
187	0x3ddc121f	0.10745644
188	0x3eab1903	0.3341752
189	0x3eb59b23	0.35469922
190	0x3eee904b	0.46594462
191	0xbf6d2eb0	-0.92649364
192	0xbe02921e	-0.12751052
193	0x3e4e4f14	0.20147353
194	0xbb841bca	-0.004031633
195	0xbf2482c4	-0.6426203
196	0x3dbaf479	0.09128661
197	0xbd75ade4	-0.05998029
198	0xbcfd2869	-0.030903058
199	0x3cadcd34	0.021216013
200	0x3e8019da	0.25019723
201	0x3ef1bfb7	0.4721658
202	0xbdf599d8	-0.11992234
203	0xbe762010	-0.24035668
204	0xbf7b9771	-0.98277956
205	0xbd304d6e	-0.043042593
206	0x3eac1311	0.33608297
207	0xbf4020b7	-0.7504992
208	0x3efee9a6	0.49787635
209	0xbd81c327	-0.063360505
210	0xbe98e39b	-0.2986115
211	0x3dc2309b	0.09481927
212	0x3eb30f76	0.34972733
213	0x3eb28b41	0.34871867
214	0x3e829a51	0.2550836
215	0xbf888dc9	-1.0668269
216	0x3eb30244	0.34962666
217	0xbe2256a2	-0.1585336
218	0xbe6d1cea	-0.23155561
219	0xbd4a160c	-0.04933743
220	0xbe9c6a6c	-0.30549943
221	0x3ec4f795	0.3847014
222	0xbf643fa6	-0.8915962
223	0x3ea7dc95	0.32785478
224	0xbe3e3a82	-0.18577006
225	0x3eaccafa	0.3374861
226	0x3e3b7635	0.18306811
227	0x3eb89892	0.36053902
228	0x3efe3063	0.4964629
229	0xbe2ff0e7	-0.1718174
230	0xbfaaeae4	-1.3352933
231	0xbea51e01	-0.32249454
232	0x3f05b1b2	0.52224267
233	0x3cf7c1c7	0.030243767
234	0xbeeef8b3	-0.46674117
235	0xbf8efcb6	-1.1170871
236	0xbe9865ae	-0.29765075
237	0x3e26efb4	0.16302377
238	0xbeee2ff1	-0.4652095
239	0x3ec8c781	0.3921471
240	0x3e01246b	0.12611549
241	0xbdd68855	-0.10475222
242	0xbf03759d	-0.5135134
243	0x3adcdfce	0.0016851367
244	0x3da0925e	0.07840417
245	0x3dfdb8fb	0.12388798
246	0xbf0fc187	-0.56154674
247	0xbdf2cc88	-0.118554175
248	0x3e75ce4c	0.24004477
249	0x3e09e61c	0.13466686
250	0x3e10a2b7	0.14124571
251	0x3eeea977	0.46613666
252	0x3e781105	0.24225242
253	0xbe44c18f	-0.19214462
254	0x3e5f8d50	0.2183125
255	0xbd4db38a	-0.05022005

network_body.linear_encoder.seq_layers.0.bias f4 [128]
0	0x00000000	0.0
1	0x00000000	0.0
2	0x00000000	0.0
3	0x00000000	0.0
4	0x00000000	0.0
5	0x00000000	0.0
6	0x00000000	0.0
7	0x00000000	0.0
8	0x00000000	0.0
9	0x00000000	0.0
10	0x00000000	0.0
11	0x00000000	0.0
12	0x00000000	0.0
13	0x00000000	0.0
14	0x00000000	0.0
15	0x00000000	0.0
16	0x00000000	0.0
17	0x00000000	0.0
18	0x00000000	0.0
19	0x00000000	0.0
20	0x00000000	0.0
21	0x00000000	0.0
22	0x00000000	0.0
23	0x00000000	0.0
24	0x00000000	0.0
25	0x00000000	0.0
26	0x00000000	0.0
27	0x00000000	0.0
28	0x00000000	0.0
29	0x00000000	0.0
30	0x00000000	0.0
31	0x00000000	0.0
32	0x00000000	0.0
33	0x00000000	0.0
34	0x00000000	0.0
35	0x00000000	0.0
36	0x00000000	0.0
37	0x00000000	0.0
38	0x00000000	0.0
39	0x00000000	0.0
40	0x00000000	0.0
41	0x00000000	0.0
42	0x00000000	0.0
43	0x00000000	0.0
44	0x00000000	0.0
45	0x00000000	0.0
46	0x00000000	0.0
47	0x00000000	0.0
48	0x00000000	0.0
49	0x00000000	0.0
50	0x00000000	0.0
51	0x00000000	0.0
52	0x00000000	0.0
53	0x00000000	0.0
54	0x00000000	0.0
55	0x00000000	0.0
56	0x00000000	0.0
57	0x00000000	0.0
58	0x00000000	0.0
59	0x00000000	0.0
60	0x00000000	0.0
61	0x00000000	0.0
62	0x00000000	0.0
63	0x00000000	0.0
64	0x00000000	0.0
65	0x00000000	0.0
66	0x00000000	0.0
67	0x00000000	0.0
68	0x00000000	0.0
69	0x00000000	0.0
70	0x00000000	0.0
71	0x00000000	0.0
72	0x00000000	0.0
73	0x00000000	0.0
74	0x00000000	0.0
75	0x00000000	0.0
76	0x00000000	0.0
77	0x00000000	0.0
78	0x00000000	0.0
79	0x00000000	0.0
80	0x00000000	0.0
81	0x00000000	0.0
82	0x00000000	0.0
83	0x00000000	0.0
84	0x00000000	0.0
85	0x00000000	0.0
86	0x00000000	0.0
87	0x00000000	0.0
88	0x00000000	0.0
89	0x00000000	0.0
90	0x00000000	0.0
91	0x00000000	0.0
92	0x00000000	0.0
93	0x00000000	0.0
94	0x00000000	0.0
95	0x00000000	0.0
96	0x00000000	0.0
97	0x00000000	0.0
98	0x00000000	0.0
99	0x00000000	0.0
100	0x00000000	0.0
101	0x00000000	0.0
102	0x00000000	0.0
103	0x00000000	0.0
104	0x00000000	0.0
105	0x00000000	0.0
106	0x00000000	0.0
107	0x00000000	0.0
108	0x00000000	0.0
109	0x00000000	0.0
110	0x00000000	0.0
111	0x00000000	0.0
112	0x00000000	0.0
113	0x00000000	0.0
114	0x00000000	0.0
115	0x00000000	0.0
116	0x00000000	0.0
117	0x00000000	0.0
118	0x00000000	0.0
119	0x00000000	0.0
120	0x00000000	0.0
121	0x00000000	0.0
122	0x00000000	0.0
123	0x00000000	0.0
124	0x00000000	0.0
125	0x00000000	0.0
126	0x00000000	0.0
127	0x00000000	0.0

network_body.linear_encoder.seq_layers.2.weight f4 [128, 128]
0	0xbc9a88e9	-0.018864112
1	0x3d3a3669	0.045462046
2	0x3b5a4162	0.0033303131
3	0x3e09faa0	0.13474512
4	0x3bce5b17	0.00629748
5	0xbc621b31	-0.013800428
6	0x3bfc066f	0.0076911966
7	0x3e006eee	0.12542316
8	0xbb08bf79	-0.002086608
9	0x3dbcb0e8	0.0921343
10	0x3e107d39	0.14110269
11	0xbdc309f2	-0.09523381
12	0xbc20d075	-0.009815325
13	0x3d88f2d4	0.06686941
14	0xbe061b3b	-0.13096325
15	0xbd9a9e73	-0.07549753
16	0xbdc93ba2	-0.09825827
17	0x3e0f5238	0.13996208
18	0xba1e8d3e	-0.00060482684
19	0xbd457234	-0.048204616
20	0x3c78ddeb	0.015189628
21	0x3e203718	0.15646017
22	0x3d4daed7	0.05021557
23	0x3d864e15	0.06557862
24	0x3d0bed65	0.034161944
25	0xbe66a2ff	-0.22523116
26	0xbe2e21ee	-0.1700513
27	0xbd379e66	-0.044828795
28	0x3df980f9	0.12182803
29	0xbe216bfd	-0.1576385
30	0x3c9ea21a	0.019364405
31	0x3c756256	0.014977058
32	0x3e10921d	0.14118238
33	0xbc2eec25	-0.010676418
34	0xbccd1278	-0.02503322
35	0x3d911c84	0.07085517
36	0x3de678cc	0.11253509
37	0x3e021d40	0.1270647
38	0x3d5c5e15	0.05380066
39	0xbd643384	-0.05571319
40	0x3b509a18	0.0031830128
41	0xbd5db22e	-0.054125004
42	0xbc2930a8	-0.010326542
43	0x3d802bc7	0.0625835
44	0x3df95a5a	0.12175436
45	0x3d95fa12	0.07323088
46	0x3d806c9f	0.06270718
47	0x3d9df5fa	0.07712932
48	0x3d8d9e24	0.069149286
49	0x3d17b52c	0.037038013
50	0x3d7856d9	0.0606297
51	0x3c8cb84a	0.01717772
52	0x3bf2df9c	0.00741191
53	0x3dbbc777	0.09168904
54	0x3c845a18	0.016156241
55	0xbb004e5a	-0.0019577951
56	0xbe077d87	-0.13231479
57	0xbd0c6519	-0.0342761
58	0x3c9fe493	0.019518172
59	0xbe0fb842	-0.14035133
60	0x3cae86f0	0.021304578
61	0x3cfe07b6	0.031009536
62	0xbd8ab71c	-0.067732066
63	0x3dacdbfd	0.08440397
64	0x3d20bb59	0.03924117
65	0xbd23ba85	-0.0399728
66	0xbd8bfc55	-0.06835238
67	0xbd1fce7d	-0.039015282
68	0x3d990da6	0.07473306
69	0xbdf75cbd	-0.12078235
70	0x3dc8928f	0.09793579
71	0x3b973e25	0.0046155625
72	0x3dc5e839	0.096634336
73	0x3dc52e53	0.09627976
74	0x3be86b38	0.0070928596
75	0xbd174e06	-0.036939643
76	0x3ba231e9	0.0049497974
77	0xbc077b1b	-0.008269097
78	0xbe026d82	-0.12737086
79	0xbe403bda	-0.18772832
80	0x3df451a9	0.11929638
81	0x3ddd9cd0	0.10820925
82	0xbc2c66ce	-0.010522557
83	0xba931052	-0.0011220074
84	0xbd46faf3	-0.048579168
85	0xbda5b361	-0.080908544
86	0x3ca552bd	0.020181054
87	0xbcb4acd3	-0.022055065
88	0x3d0b7788	0.03404954
89	0x3da18277	0.07886212
90	0xbc2af953	-0.01043542
91	0x3d86fd3d	0.0659127
92	0xbda13f70	-0.07873428
93	0xbde4befe	-0.11169241
94	0x3d2c8775	0.04212137
95	0xbe590912	-0.21194866
96	0xbcba3f2f	-0.022735206
97	0x3ccae9bd	0.024769658
98	0x3d4613cf	0.048358735
99	0xbda120cf	-0.07867586
100	0x3ce259f9	0.027630793
101	0xbcc3013c	-0.0238043
102	0xbd88b8a5	-0.06675843
103	0xbd01e647	-0.03171375
104	0x3db50807	0.08839422
105	0xbc5d5f75	-0.013511528
106	0xbdb25de2	-0.08709313
107	0xbe205a67	-0.15659486
108	0x3c0e738c	0.008694541
109	0xbd963388	-0.073340476
110	0xbdb89e7f	-0.09014606
111	0x3dede730	0.11616361
112	0xbc87e3ac	-0.016588055
113	0xbc4bac41	-0.012431205
114	0x3e4882fe	0.1958122
115	0xbb4288c9	-0.002968358
116	0x3e2727a8	0.16323721
117	0xbdca7d99	-0.09887237
118	0xbca98afc	-0.020696156
119	0xbe0df41c	-0.13862652
120	0xbda0e71b	-0.0785658
121	0xbe234c15	-0.15946992
122	0x3d01c443	0.03168131
123	0xbe3dbc2d	-0.18528815
124	0x3da8325f	0.082127325
125	0x3c6a7b85	0.014311676
126	0x3d9bed02	0.07613565
127	0xbcda6f57	-0.02666442
128	0x3d14ba18	0.036310285
129	0x3cb4b4fe	0.02205896
130	0x3d2105e1	0.039312247
131	0xbd932bc9	-0.07186086
132	0xbd14872d	-0.036261726
133	0x3dd0432c	0.10169062
134	0x3e08900a	0.13336197
135	0x3dc861cc	0.09784278
136	0xbd01635c	-0.031588897
137	0xbd681da8	-0.056668907
138	0xbd337d1f	-0.043820497
139	0xbcc8d5f6	-0.024516087
140	0xbe3f5d8a	-0.18688026
141	0xbd002236	-0.031282626
142	0xbda3942c	-0.07987246
143	0xbde78f89	-0.11306674
144	0xbdc8db62	-0.09807469
145	0x3d7ecb98	0.06220588
146	0xbd8b5319	-0.06802959
147	0xbd9c9818	-0.07646197
148	0x3de5223b	0.111881696
149	0x3d08b88e	0.03337913
150	0xbb0fbe15	-0.0021933366
151	0x3c92956f	0.017893521
152	0x3d50bea9	0.050963078
153	0xbd857f8d	-0.06518469
154	0x3cb06971	0.021534653
155	0xbdea4e8c	-0.11440763
156	0xbd3a2bbe	-0.045451872
157	0xbde18d28	-0.110132515
158	0xbcabdff9	-0.020980822
159	0x3d92e8c6	0.07173304
160	0xbd68ff2d	-0.05688398
161	0x3c1d9b68	0.009619571
162	0xbe572d61	-0.21013404
163	0xbce9c69a	-0.028537083
164	0x3da6885d	0.08131478
165	0x3df7ace3	0.120935224
166	0xbbeff64a	-0.007323061
167	0xbd726d53	-0.05918629
168	0x3d86ea7f	0.06587695
169	0xbcb3e08d	-0.02195766
170	0xbd35ffee	-0.044433527
171	0x3c20b6e9	0.009809234
172	0xbd80da1b	-0.062916
173	0xbdb0e4a7	-0.08637362
174	0x3def70e7	0.11691456
175	0xbe2e6f4c	-0.17034644
176	0x3dd47756	0.10374324
177	0xbd072bb6	-0.03300067
178	0x3d1986b6	0.037481986
179	0xbd2d26a4	-0.04227318
180	0xbc878333	-0.016542053
181	0xba87958b	-0.001034425
182	0xbcaa0ac9	-0.020757096
183	0x3d8a8f77	0.06765645
184	0xbd88093e	-0.06642388
185	0xbde83c13	-0.11339583
186	0xbe0a4aed	-0.13505144
187	0x3dc8cc45	0.09804586
188	0x3dcf6593	0.101267956
189	0x3ca062cc	0.01957836
190	0x3e2a66b8	0.16640747
191	0x3df6dc7c	0.12053773
192	0xbd349703	-0.04408933
193	0xbd83976f	-0.06425368
194	0xbdb0f8da	-0.08641215
195	0x3cd46699	0.025927829
196	0x3d82452a	0.06360848
197	0x3e5a5de5	0.2132488
198	0xbe1f7e1e	-0.15575454
199	0xbc2ddfdb	-0.010612453
200	0x3dd75a1d	0.105152346
201	0xbc9cd415	-0.019144097
202	0x3d0d003d	0.034424055
203	0x3d30b45c	0.043140754
204	0x3c726011	0.014793412
205	0xbd617812	-0.05504615
206	0x3d04135c	0.032245025
207	0x3c9948fd	0.018711561
208	0x3caca294	0.021073617
209	0x3d763a29	0.06011406
210	0x3daaa39d	0.08331988
211	0x3e10a2fc	0.14124674
212	0x3d45370b	0.048148196
213	0xbe003fdb	-0.12524359
214	0x3d9f2409	0.07770545
215	0xbe521974	-0.20517522
216	0x3e089099	0.1333641
217	0x3d6afdbd	0.05737089
218	0x3d1a47f6	0.037666284
219	0xbbb1c936	-0.0054255975
220	0xbe157823	-0.1459661
221	0xbc18d094	-0.009327073
222	0x3d51df9e	0.05123865
223	0x3dc7a769	0.09748728
224	0x3ca56ffa	0.020194996
225	0x3dac25c6	0.08405642
226	0x3d384eed	0.044997144
227	0x3df61f5f	0.12017702
228	0xbce843e0	-0.028352678
229	0xbd97ee0a	-0.07418449
230	0xbe5f2474	-0.2179125
231	0xbdf677e6	-0.120345876
232	0xbc4570a6	-0.012050783
233	0xbdca05d2	-0.098643914
234	0xbca5a52a	-0.020220358
235	0x3c4c8f40	0.012485325
236	0x3a5035d4	0.00079425913
237	0x3dd18729	0.10230858
238	0x3c92a269	0.017899709
239	0xbdc8af2c	-0.097990364
240	0xbdbffa7c	-0.09373948
241	0xbcfa2913	-0.030537164
242	0xbc8b65b0	-0.017016262
243	0x3bb01085	0.005373063
244	0x3dcd9877	0.10038846
245	0x3d2c3557	0.042043056
246	0xbddeaa9e	-0.108723864
247	0xbd14e511	-0.036351267
248	0x3d9fcf77	0.07803243
249	0xbd1f0943	-0.038827192
250	0xbc465489	-0.012105116
251	0x3dceceb4	0.10098019
252	0x3c173bc1	0.009230555
253	0x3ba3f013	0.0050029843
254	0x3d300278	0.042971104
255	0x3da9db35	0.082937635

network_body.linear_encoder.seq_layers.2.bias f4 [128]
0	0x00000000	0.0
1	0x00000000	0.0
2	0x00000000	0.0
3	0x00000000	0.0
4	0x00000000	0.0
5	0x00000000	0.0
6	0x00000000	0.0
7	0x00000000	0.0
8	0x00000000	0.0
9	0x00000000	0.0
10	0x00000000	0.0
11	0x00000000	0.0
12	0x00000000	0.0
13	0x00000000	0.0
14	0x00000000	0.0
15	0x00000000	0.0
16	0x00000000	0.0
17	0x00000000	0.0
18	0x00000000	0.0
19	0x00000000	0.0
20	0x00000000	0.0
21	0x00000000	0.0
22	0x00000000	0.0
23	0x00000000	0.0
24	0x00000000	0.0
25	0x00000000	0.0
26	0x00000000	0.0
27	0x00000000	0.0
28	0x00000000	0.0
29	0x00000000	0.0
30	0x00000000	0.0
31	0x00000000	0.0
32	0x00000000	0.0
33	0x00000000	0.0
34	0x00000000	0.0
35	0x00000000	0.0
36	0x00000000	0.0
37	0x00000000	0.0
38	0x00000000	0.0
39	0x00000000	0.0
40	0x00000000	0.0
41	0x00000000	0.0
42	0x00000000	0.0
43	0x00000000	0.0
44	0x00000000	0.0
45	0x00000000	0.0
46	0x00000000	0.0
47	0x00000000	0.0
48	0x00000000	0.0
49	0x00000000	0.0
50	0x00000000	0.0
51	0x00000000	0.0
52	0x00000000	0.0
53	0x00000000	0.0
54	0x00000000	0.0
55	0x00000000	0.0
56	0x00000000	0.0
57	0x00000000	0.0
58	0x00000000	0.0
59	0x00000000	0.0
60	0x00000000	0.0
61	0x00000000	0.0
62	0x00000000	0.0
63	0x00000000	0.0
64	0x00000000	0.0
65	0x00000000	0.0
66	0x00000000	0.0
67	0x00000000	0.0
68	0x00000000	0.0
69	0x00000000	0.0
70	0x00000000	0.0
71	0x00000000	0.0
72	0x00000000	0.0
73	0x00000000	0.0
74	0x00000000	0.0
75	0x00000000	0.0
76	0x00000000	0.0
77	0x00000000	0.0
78	0x00000000	0.0
79	0x00000000	0.0
80	0x00000000	0.0
81	0x00000000	0.0
82	0x00000000	0.0
83	0x00000000	0.0
84	0x00000000	0.0
85	0x00000000	0.0
86	0x00000000	0.0
87	0x00000000	0.0
88	0x00000000	0.0
89	0x00000000	0.0
90	0x00000000	0.0
91	0x00000000	0.0
92	0x00000000	0.0
93	0x00000000	0.0
94	0x00000000	0.0
95	0x00000000	0.0
96	0x00000000	0.0
97	0x00000000	0.0
98	0x00000000	0.0
99	0x00000000	0.0
100	0x00000000	0.0
101	0x00000000	0.0
102	0x00000000	0.0
103	0x00000000	0.0
104	0x00000000	0.0
105	0x00000000	0.0
106	0x00000000	0.0
107	0x00000000	0.0
108	0x00000000	0.0
109	0x00000000	0.0
110	0x00000000	0.0
111	0x00000000	0.0
112	0x00000000	0.0
113	0x00000000	0.0
114	0x00000000	0.0
115	0x00000000	0.0
116	0x00000000	0.0
117	0x00000000	0.0
118	0x00000000	0.0
119	0x00000000	0.0
120	0x00000000	0.0
121	0x00000000	0.0
122	0x00000000	0.0
123	0x00000000	0.0
124	0x00000000	0.0
125	0x00000000	0.0
126	0x00000000	0.0
127	0x00000000	0.0

action_model._continuous_distribution.log_sigma f4 [1, 2]
0	0x00000000	0.0
1	0x00000000	0.0

action_model._continuous_distribution.mu.weight f4 [2, 128]
0	0xbcd3dbe3	-0.025861686
1	0x3cd0ab48	0.025472298
2	0xbc9c8619	-0.019106911
3	0x3cf27202	0.029595379
4	0xbbc94624	-0.0061423946
5	0x3c4983c2	0.01229948
6	0xbc8e308f	-0.017357139
7	0xbc2a9567	-0.010411597
8	0x3ce880a0	0.028381646
9	0xbab1549c	-0.0013529244
10	0xbc656ef7	-0.014003507
11	0x3d048fa7	0.03236356
12	0x3ca32fdc	0.019920282
13	0x3c83f95c	0.016110115
14	0xbc86281f	-0.016376553
15	0x3b446b4d	0.0029971183
16	0x3c3f50ba	0.011676962
17	0xbb279317	-0.002556985
18	0xbd03e431	-0.032200042
19	0xbcca8a96	-0.024724286
20	0x3c3b3093	0.011425155
21	0x3ca27f22	0.019836012
22	0x3cb007f1	0.021488162
23	0x3c859673	0.016307091
24	0xbba089ff	-0.004899263
25	0x3c221e40	0.0098949075
26	0xbbbe09b8	-0.0057994984
27	0xbb3e089f	-0.0028996838
28	0xbc8f2c58	-0.0174772
29	0x3c539795	0.012914558
30	0xbcd272d5	-0.025689522
31	0xbbf962d3	-0.0076106577
32	0xbaac6d1f	-0.0013155079
33	0xbbf3bea3	-0.007438497
34	0xbc461ddc	-0.01209208
35	0x3c35e067	0.011100865
36	0x3b305c07	0.0026910321
37	0xbbcea35f	-0.0063060964
38	0xbc288bef	-0.010287269
39	0x3b979c89	0.0046268147
40	0xbba1ed06	-0.0049415855
41	0x3bb8a484	0.005634846
42	0xbc06e87a	-0.008234138
43	0xbc3a82dd	-0.011383739
44	0xbb0fa538	-0.0021918546
45	0x3c9dec6f	0.01927778
46	0xbb3a22d8	-0.0028402116
47	0xbc81be3b	-0.01583778
48	0x3cb77262	0.02239341
49	0x39db5723	0.00041835857
50	0x3d3047e8	0.043037325
51	0x3ccb5e83	0.02482534
52	0x3c56dc13	0.013113993
53	0x3ce749e7	0.028233482
54	0xbb8b5f06	-0.004253271
55	0xbc29a3f4	-0.010354031
56	0xbba3dc6b	-0.005000641
57	0xbc13be04	-0.009017471
58	0xbccbd0bf	-0.024879811
59	0x3c0e8475	0.008698572
60	0xbbfbbc62	-0.007682369
61	0xbbd200d2	-0.006408789
62	0x3cb4aeb0	0.022055954
63	0xbc955891	-0.018230708
64	0x3bcfa990	0.006337352
65	0xbd2cb908	-0.042168647
66	0xbc2b9163	-0.010471675
67	0x3cb609d7	0.022221489
68	0xbb2f8eb1	-0.0026787932
69	0xbbe8ed03	-0.007108332
70	0xbc4532a1	-0.012035997
71	0xbc60b48a	-0.013714919
72	0x3ab7a648	0.0014011348
73	0xbbd560e0	-0.0065117925
74	0xbc087908	-0.008329637
75	0x3a590498	0.00082785776
76	0x3cfcdc7f	0.03086686
77	0x3c5badd2	0.013408141
78	0x3c01cc23	0.007922205
79	0xbbd3045f	-0.00643973
80	0x3ceff96b	0.029293736
81	0x3c946681	0.018115284
82	0x3d06bfe7	0.032897856
83	0x3c8f1217	0.01746468
84	0xbb85ac06	-0.0040793447
85	0x3d4d3a78	0.05010459
86	0xbd61afbd	-0.055099238
87	0x3cba4ad0	0.022740752
88	0x3ce44de5	0.027869174
89	0xbcc69444	-0.02424062
90	0x3b9696ec	0.004595628
91	0xbbe2ffdf	-0.006927475
92	0xbcfe326a	-0.031029899
93	0x3c23fc5c	0.010008898
94	0x3c8b9e6f	0.01704332
95	0x3c9d6386	0.019212496
96	0xb955e838	-0.00020399771
97	0xbd108ce8	-0.03529063
98	0xbc241a47	-0.010016031
99	0xbbe8e308	-0.0071071424
100	0x3c0a2f93	0.008434194
101	0x3b9e0883	0.004822792
102	0xbc5b2b98	-0.013377093
103	0xbc88e559	-0.016710924
104	0xbcfc0a1b	-0.030766537
105	0xbc1fc664	-0.00975189
106	0x3c0004c2	0.007813634
107	0xbc09db3d	-0.008414087
108	0x3bdb9160	0.0067006797
109	0x3c8b8bb2	0.017034385
110	0xbb2ac031	-0.0026054496
111	0xbc2dd6e1	-0.010610313
112	0x3cd92378	0.02650617
113	0x3c642333	0.013924408
114	0xb9512773	-0.00019946489
115	0xbc9446ac	-0.018100105
116	0x3a09f6f0	0.0005262932
117	0x3c98a62f	0.01863393
118	0x3c2f43de	0.010697333
119	0x3caf51c8	0.021401301
120	0xbc991737	-0.018687828
121	0x3bbb2d3b	0.005712179
122	0xbbabf7db	-0.0052480525
123	0xbb9a2b73	-0.0047048866
124	0xba4f1b5d	-0.0007900501
125	0x3c3fbdc4	0.0117029585
126	0xbbf4b59a	-0.0074679377
127	0x3ce2c102	0.027679924
128	0xbcbf21fa	-0.023331631
129	0xbc79da63	-0.015249821
130	0xbc128ff5	-0.008945455
131	0xbc5cb2a7	-0.013470328
132	0xbb32d442	-0.002728716
133	0x3cdb3c53	0.026762163
134	0x3bc832f7	0.006109591
135	0x3b9aed4a	0.004727994
136	0xbc29f27c	-0.010372754
137	0xbb8e3da1	-0.004340843
138	0xbac50727	-0.0015032039
139	0xbae4c412	-0.0017453453
140	0x3c691f32	0.014228629
141	0x3bd3c577	0.0064627486
142	0x3c769457	0.015050015
143	0xbc807b11	-0.015683683
144	0x3c563ff0	0.013076767
145	0xbc227fb9	-0.009918147
146	0xbd09d019	-0.033645723
147	0xbb664937	-0.0035138854
148	0x3bcbee97	0.0062235105
149	0x3ca4135b	0.02002876
150	0x3ba5543b	0.0050454414
151	0x3c1c3093	0.009533065
152	0x3c3e5eec	0.011619311
153	0xbc3db413	-0.011578578
154	0x3c7dbfda	0.0154876355
155	0xbc98bd93	-0.018645084
156	0xbc0cf20f	-0.008602633
157	0x3bda55f8	0.0066630803
158	0x3c97d296	0.018533032
159	0xbc023925	-0.007948195
160	0x3d24f728	0.04027477
161	0xbb891543	-0.004183443
162	0xbcef5005	-0.029212961
163	0x3c43ae4e	0.011943413
164	0x3b906df5	0.004407639
165	0x3bbfdae8	0.005854953
166	0x3bcdff78	0.0062865578
167	0xbc9a5da0	-0.018843472
168	0x3c8db3ae	0.017297592
169	0x3c8f086f	0.017460076
170	0xbc01d432	-0.007924126
171	0x3a56eaea	0.0008198457
172	0xbc83783c	-0.016048543
173	0xbcb5232f	-0.022111503
174	0xbba5b996	-0.005057524
175	0x3cfa627a	0.030564535
176	0x381061ca	3.442335e-05
177	0x3ab6e072	0.0013952388
178	0xbc6aa4d7	-0.014321527
179	0xbc6fbb7d	-0.014632103
180	0x3be7d340	0.0070747435
181	0xbcb7a34a	-0.02241673
182	0xbc20d872	-0.00981723
183	0x3be42abd	0.0069631026
184	0xbca91c9e	-0.020643529
185	0xbca47c19	-0.020078706
186	0xbac2550f	-0.0014826375
187	0x3b50d6d2	0.0031866324
188	0x3ccbacd1	0.024862679
189	0xbd32f1fb	-0.0436878
190	0xbc1b721d	-0.009487656
191	0xbbb92d4d	-0.005651152
192	0xbc765158	-0.015034042
193	0x39c0b05c	0.00036752492
194	0xbc4a52ef	-0.0123488745
195	0xbc8f78ef	-0.01751372
196	0xbb0f4902	-0.0021863584
197	0x3c999928	0.018749788
198	0xbb931859	-0.0044889865
199	0x3cdb6548	0.026781693
200	0xbb820447	-0.003967795
201	0x3cd4eb3a	0.025991071
202	0xbc80d27e	-0.01572537
203	0xbbf181e7	-0.007370222
204	0x3bb3558e	0.0054728454
205	0xbb6b0b20	-0.0035864785
206	0x3c0fbe80	0.008773446
207	0x3c538422	0.012909921
208	0x3c812d35	0.015768627
209	0x3d06d5b6	0.032918654
210	0xbcdf3c1b	-0.02725034
211	0xbc576f1d	-0.01314905
212	0xb9ababce	-0.00032743666
213	0xbca6636b	-0.020311078
214	0x3cdb1070	0.026741236
215	0x3b402813	0.002932076
216	0x3c1681dc	0.009186234
217	0x3ca1ceea	0.019751985
218	0x3c88cc96	0.016699117
219	0xbbf94b07	-0.007607821
220	0xbccd6b6a	-0.025075633
221	0x3bc8134b	0.0061058155
222	0xbcf6b85b	-0.030117204
223	0xb9374d07	-0.00017480935
224	0x3b19821f	0.0023423505
225	0xba69b0b0	-0.0008914573
226	0x3c0be9dd	0.008539644
227	0xbc60f5d0	-0.013730481
228	0xbc22d923	-0.009939465
229	0xbc1bfd8f	-0.009520902
230	0xbc6ebc7b	-0.014571304
231	0x3ba9ce2f	0.0051820497
232	0x3b4ef0bb	0.0031576592
233	0x3a3e0cba	0.0007249821
234	0xbbfb0600	-0.0076606274
235	0xbc620c62	-0.013796898
236	0x3c3e9306	0.011631733
237	0xba6870dd	-0.00088669156
238	0x3c525535	0.012837698
239	0xbc22d743	-0.009939018
240	0xbb98caf9	-0.004662868
241	0xbcc4cb51	-0.02402273
242	0xbbafe74e	-0.00536815
243	0x3bb1c284	0.0054247994
244	0xbbc18146	-0.005905303
245	0xbbfcc353	-0.007713714
246	0xbcc591d7	-0.024117393
247	0xbc926ca9	-0.017874079
248	0x3c86cf51	0.016456278
249	0x3c422d43	0.011851612
250	0xbc6272d0	-0.013821319
251	0xbcdf0095	-0.027221957
252	0xba2edb83	-0.0006670283
253	0xbcb31ce5	-0.021864364
254	0xbcb454ee	-0.022013154
255	0xbc8dff47	-0.01733364

action_model._continuous_distribution.mu.bias f4 [2]
0	0x00000000	0.0
1	0x00000000	0.0

action_model._discrete_distribution.branches.0.weight f4 [1, 128]
0	0x3c37c162	0.01121554
1	0xbbaa9e57	-0.005206864
2	0xbc078054	-0.008270342
3	0x3ba7485f	0.005105063
4	0xbb4a2445	-0.0030844372
5	0x3b041425	0.0020153609
6	0x3bed1c27	0.007236022
7	0x3a2df39d	0.00066357275
8	0x3bbddacb	0.0057939044
9	0x3c3e93d0	0.011631921
10	0x3a6c8bef	0.0009023537
11	0x3c0a6f42	0.0084493775
12	0xbb175404	-0.0023090849
13	0x3c127171	0.008938179
14	0x3b3cb909	0.0028796813
15	0x3c03c0a7	0.008041537
16	0xbae1ea9d	-0.0017236058
17	0xba09bb83	-0.00052540767
18	0xbbf4e00a	-0.0074729966
19	0xbb11f64a	-0.0022272044
20	0xba467ce4	-0.0007571711
21	0x3bb87973	0.0056297123
22	0xbbf6b1df	-0.007528528
23	0xbc21b3f3	-0.009869563
24	0x3b5ca705	0.0033668887
25	0xbcbadb84	-0.022809751
26	0x3c12e843	0.008966508
27	0xbb58ddfb	-0.0033091295
28	0x395014f3	0.0001984423
29	0xbbb5c0c3	-0.0055466606
30	0x3bc1aab7	0.0059102434
31	0x39934bb0	0.00028094416
32	0xba523823	-0.0008019229
33	0xbaff48c2	-0.001947664
34	0xbc6553ab	-0.013996999
35	0x3cb56a87	0.022145523
36	0x3c306ff6	0.010768881
37	0x3b1f2e40	0.0024289042
38	0xbc759943	-0.014990154
39	0xba5313af	-0.00080519443
40	0x3c41be56	0.011825165
41	0x3c1843e6	0.009293532
42	0x3be0f9aa	0.0068657
43	0x3c2c65c5	0.010522311
44	0x3c2d2cd2	0.010569768
45	0xbabf0eea	-0.0014576588
46	0x3ac352bb	0.0014901975
47	0x3b549d4a	0.0032442384
48	0xbb8d9421	-0.004320637
49	0x3a84cc4b	0.0010131685
50	0x3bc64db0	0.0060517415
51	0x3c630fcb	0.013858746
52	0xbb8431c3	-0.0040342524
53	0xba0b66df	-0.0005317758
54	0xbc36a804	-0.0111484565
55	0xbc41b046	-0.011821812
56	0xbc3aa1c0	-0.011391103
57	0xbc935ff9	-0.0179901
58	0xbab6f45d	-0.0013958324
59	0xb88dbe4a	-6.758848e-05
60	0xbc69487b	-0.014238472
61	0x3abdf77c	0.0014493312
62	0xbc38d997	-0.011282346
63	0xba821c71	-0.0009926689
64	0xbc88b508	-0.016687885
65	0x3bfdddab	0.007747372
66	0x3b01dc1c	0.0019815033
67	0x3b1bef34	0.00237937
68	0x3c2609d5	0.01013418
69	0xbc4e23a3	-0.012581739
70	0xbb19ae83	-0.0023449964
71	0x3c5502ef	0.013001188
72	0x3c08b260	0.008343309
73	0xb988003f	-0.00025940125
74	0xbb2e9af0	-0.0026642643
75	0x3bac2faf	0.0052547078
76	0xbc1b4791	-0.009477512
77	0x3b21b7a9	0.002467612
78	0x3ab7dac0	0.0014026985
79	0xbc097c53	-0.008391458
80	0xbc4b2f48	-0.012401409
81	0xbad4d0b8	-0.001623652
82	0x3cc08b21	0.023503842
83	0x3c64e57d	0.01397073
84	0x3c483a78	0.012220971
85	0xbcc66cf5	-0.024221877
86	0xbb9eb107	-0.0048428806
87	0xbc4503cb	-0.01202483
88	0x3b3bdbb8	0.0028664898
89	0xbc8638ee	-0.016384568
90	0xba1b7135	-0.000592965
91	0x3a4a9e1d	0.0007729249
92	0x3c5e5580	0.0135701895
93	0x3c0cfbfb	0.008604999
94	0x3bd07382	0.006361426
95	0xbbfec3c7	-0.0077748033
96	0xbbd8d577	-0.006617244
97	0xbb75d05b	-0.0037508223
98	0xbb18c6bb	-0.0023311812
99	0xbc6266ad	-0.013818425
100	0xba4ca5e3	-0.00078067015
101	0x3b0b79d4	0.0021282332
102	0xbc082e67	-0.008311844
103	0x3bb884c7	0.0056310627
104	0x3b803f01	0.0039137607
105	0x3bcdfe40	0.0062864125
106	0xbc0bb7a3	-0.008527669
107	0xbc164bed	-0.009173376
108	0xb9bd2dc2	-0.0003608298
109	0x3c062a9f	0.008188873
110	0xbbf44030	-0.007453941
111	0xbbd8603a	-0.006603268
112	0xbc82619b	-0.015915683
113	0xbc27a3ad	-0.010231894
114	0xbb72eda7	-0.0037067921
115	0xbc13a771	-0.009012089
116	0x3c6379e2	0.01388404
117	0xbb998d38	-0.004686024
118	0x3bfa2933	0.007634306
119	0x3b95931a	0.004564655
120	0xbbb0c837	-0.005394961
121	0x3bc20d13	0.0059219687
122	0xbba8a18e	-0.005146212
123	0xbc75f22b	-0.015011351
124	0xbb2b8f13	-0.0026177808
125	0xbae7018a	-0.001762436
126	0x3797b8e9	1.8086708e-05
127	0x3bc45522	0.005991594

critic.network_body.linear_encoder.seq_layers.0.weight f4 [128, 6]
0	0x3e0b01eb	0.1357495
1	0x3f2495ae	0.64290893
2	0x3ebbae78	0.36656547
3	0x3e7192bc	0.23591131
4	0x3d7f8263	0.062380206
5	0x3f0c9896	0.5492033
6	0x3d8f4986	0.06996445
7	0x3e79879a	0.24368134
8	0x3f36f22a	0.71463263
9	0xbe5630ef	-0.20917104
10	0x3c75e1db	0.015007461
11	0x3ebd1cef	0.36936137
12	0xbe87cf5b	-0.26525387
13	0xbead77fa	-0.33880597
14	0xbeab1570	-0.33414793
15	0xbe9d61a0	-0.30738544
16	0xbe2519e0	-0.16123152
17	0x3f48d670	0.78452206
18	0xbe50cd7e	-0.20390889
19	0xbe50761a	-0.20357552
20	0x3e91a181	0.2844353
21	0x3ee3fdcb	0.44529566
22	0xbd1ffcdb	-0.0390595
23	0x3d850b8a	0.064963415
24	0xbd0985a7	-0.033574726
25	0xbefb20fa	-0.49048597
26	0xbed254e4	-0.4108039
27	0xbd3e2e9d	-0.046431173
28	0xbf337047	-0.70093197
29	0xbec7d51a	-0.3902977
30	0x3e11bf8b	0.14233224
31	0x3f1ca0a4	0.6118262
32	0x3e4d4a4c	0.20047873
33	0xbf2a7554	-0.6658528
34	0xbf4dac80	-0.8034134
35	0x3cbcfc47	0.023069514
36	0xbe873500	-0.26407623
37	0xbecbd63f	-0.39811894
38	0x3e4ba285	0.19886215
39	0x3c478add	0.012179104
40	0x3f179b39	0.59221226
41	0xbe54d879	-0.20785703
42	0x3daf8a1b	0.085712634
43	0xbe97c82c	-0.29644907
44	0xbd614b4b	-0.055003446
45	0xbea60eca	-0.32433158
46	0xbf255a62	-0.6459104
47	0xbf18916a	-0.59596884
48	0x3e84c48e	0.2593121
49	0xbda5df3c	-0.08099219
50	0x3dea37db	0.11436435
51	0xbe7b1c23	-0.24522452
52	0xbe9ad837	-0.30243084
53	0x3e4f7a88	0.20261586
54	0x3e937a9d	0.28804484
55	0xbe001d34	-0.1251114
56	0x3de8dff8	0.11370844
57	0x3f2c4a59	0.67300946
58	0xbdf0431e	-0.117315516
59	0xbee683d7	-0.4502246
60	0x3df6064e	0.12012921
61	0x3f1422b4	0.5786545
62	0xbf08439d	-0.5322817
63	0x3e668297	0.22510754
64	0x3e795059	0.24347056
65	0x3ee3e49a	0.44510347
66	0x3e0d6a39	0.13810052
67	0xbf2144fc	-0.62995887
68	0x3e909482	0.28238302
69	0x3e1d353f	0.15352343
70	0xbed2bf25	-0.41161457
71	0xbee86d3f	-0.45395848
72	0xbf66c26e	-0.90140426
73	0xbcc44545	-0.023958812
74	0x3eaaf68f	0.33391234
75	0xbf0eeb30	-0.5582762
76	0xbd9196a6	-0.07108812
77	0x3ee35a68	0.44404912
78	0xbe1b0a5c	-0.1514067
79	0x3cf6a1c5	0.030106435
80	0xbe552808	-0.20816052
81	0xbe57a05a	-0.21057263
82	0x3d1c5a6d	0.038172174
83	0xbdc9a5f7	-0.098461084
84	0x3e36308b	0.17791955
85	0xbe13cd04	-0.14433676
86	0xbd562de7	-0.05228987
87	0x3f58f128	0.84742975
88	0x3efcde55	0.49388376
89	0xbf050248	-0.51956606
90	0xbda5dffb	-0.080993615
91	0x3f397cac	0.7245586
92	0x3f02210d	0.5083168
93	0x3e23b598	0.15987241
94	0x3f09d3a3	0.53838557
95	0x3f25ef37	0.6481814
96	0xbe6f189b	-0.2334923
97	0x3e500bd9	0.2031702
98	0x3eaffb4b	0.3437141
99	0x3e70d489	0.23518576
100	0xbeb46f94	-0.35241377
101	0xbd96e67c	-0.0736818
102	0x3ef4d4da	0.47818643
103	0x3f396cb5	0.724315
104	0x3dc4638b	0.09589299
105	0x3ce8997c	0.0283935
106	0x3e984992	0.2974363
107	0x3ebc3e34	0.36766207
108	0xbf2b939b	-0.67022103
109	0xbf0a74c3	-0.54084414
110	0xbe971a4c	-0.2951225
111	0x3d0773b5	0.03306933
112	0xbd957075	-0.0729684
113	0x3cabdcad	0.02097925
114	0xbe1e7bcb	-0.15476911
115	0x3ebb5c6c	0.3659395
116	0xbe2b3cd3	-0.16722421
117	0x3e224ee5	0.15850408
118	0x3e2268dd	0.15860315
119	0xbe0f4fb5	-0.1399525
120	0xbf168d62	-0.58809483
121	0xbe075b8d	-0.13218518
122	0xbd47a112	-0.048737593
123	0x3ef2ce12	0.47422844
124	0x3e0e2cfe	0.1388435
125	0x3e521a91	0.20517947
126	0xbe7625fe	-0.2403793
127	0xbe97e089	-0.29663494
128	0x3f16630f	0.587449
129	0xbc3675fa	-0.011136526
130	0xbeb147c0	-0.34625053
131	0xbe1d29dc	-0.15348
132	0xbdba2718	-0.09089488
133	0xbeadf94a	-0.33979255
134	0xbe90b53c	-0.2826327
135	0xbe4cb287	-0.19989978
136	0xbf184f38	-0.5949588
137	0xbe70aa76	-0.23502526
138	0x3cd82093	0.02638272
139	0xbdbad9c0	-0.09123564
140	0x3f0a1e78	0.5395274
141	0xbbd96c95	-0.0066352584
142	0xbeb52164	-0.35377038
143	0xbeeaeaad	-0.45882168
144	0xbeb7907c	-0.3585242
145	0xbd9e8969	-0.07741053
146	0x3e32647f	0.17421149
147	0x3d130d76	0.03590151
148	0x3e0ff060	0.1405654
149	0x3e721ced	0.23643847
150	0xbc50cb2a	-0.012743751
151	0xbdb131f5	-0.08652107
152	0xbf4a3b0c	-0.7899635
153	0xbeac3783	-0.33636102
154	0xbdf2e385	-0.11859802
155	0xbf054543	-0.5205881
156	0xbe6c9bf1	-0.23106362
157	0x3dd4d520	0.10392213
158	0xbf03e3e8	-0.5151963
159	0x3bba4faa	0.005685766
160	0xbdb7ae4c	-0.08968791
161	0xbdf1d541	-0.11808253
162	0xbe24e4f9	-0.16102971
163	0x3e2ecacc	0.17069548
164	0x3e9c7aec	0.30562532
165	0x3e7fd495	0.24983437
166	0x3d81e9c4	0.063434154
167	0xbf4844c7	-0.78229946
168	0xbe518c68	-0.20463717
169	0x3eaa561e	0.33268827
170	0xbce62639	-0.028094398
171	0x3ec2a82b	0.38018927
172	0xbf1a81be	-0.6035422
173	0x3e4b5400	0.19856262
174	0x3e2e5cce	0.1702759
175	0x3ecd3a82	0.400837
176	0xbd525930	-0.051354587
177	0xbebb6ce7	-0.36606523
178	0xbd0dd7b8	-0.034629554
179	0x3f421c6a	0.75824606
180	0x3ddbf309	0.10739715
181	0xbca7548d	-0.02042606
182	0x3d4fa2f1	0.050692502
183	0x3f26d9cb	0.65176076
184	0xbe760969	-0.24027027
185	0xbedd893b	-0.4326876
186	0xbebd5cd4	-0.36984885
187	0x3f405330	0.75126934
188	0xbe77bea5	-0.24193819
189	0xbe9403b5	-0.28909078
190	0x3cb48b1c	0.022038989
191	0x3d28a0cb	0.04116897
192	0x3e9dac21	0.30795386
193	0x3e035bab	0.12827937
194	0x3dc1017d	0.09424112
195	0x3e333fe4	0.17504841
196	0x3ea3ca3b	0.31990227
197	0x3ead8ca9	0.33896378
198	0xbe5eccf5	-0.21757872
199	0xbf2bc30a	-0.6709448
200	0x3f3597b3	0.709346
201	0xbe5ead17	-0.21745716
202	0xbf064222	-0.5244466
203	0x3eb33e21	0.35008338
204	0x3efd2402	0.49441534
205	0x3e05528e	0.13019773
206	0xbe97a3de	-0.29617208
207	0x3ea9109b	0.3302048
208	0xbec911c8	-0.3927138
209	0xbea85025	-0.32873645
210	0xbe2ed983	-0.17075162
211	0x3fb18585	1.3868872
212	0x3e696cb5	0.22795375
213	0xbe961541	-0.2931309
214	0x3e0df2e7	0.13862191
215	0x3ee373db	0.44424328
216	0x3ed878a4	0.42279541
217	0x3e8aa3f7	0.2707822
218	0x3eb77feb	0.3583978
219	0xbeb6498f	-0.35602996
220	0xbf3acd97	-0.72969955
221	0x3f0ce787	0.5504078
222	0xbf3d5989	-0.73964745
223	0x3e641ff4	0.22277814
224	0x3cb9cb08	0.02267982
225	0x3e76d712	0.2410548
226	0xbeeb336f	-0.45937678
227	0xbf142e5a	-0.57883227
228	0x3f224dd9	0.63400036
229	0x3e8d8361	0.27639297
230	0xbf664de6	-0.89962614
231	0x3f67bd3c	0.90523124
232	0x3dc8057c	0.09766671
233	0x3e5310ba	0.2061185
234	0xbe027ce8	-0.1274296
235	0x3ebd3825	0.36956897
236	0xbe0317b7	-0.12802015
237	0x3dae3251	0.08505691
238	0x3eefdf91	0.46850255
239	0xbe618363	-0.22022776
240	0x3f39bcac	0.72553515
241	0x3d04b98f	0.032403525
242	0xbefc28b8	-0.49249816
243	0xbebabf08	-0.3647387
244	0xbf21a210	-0.6313791
245	0xbbe6ba38	-0.007041242
246	0xbe5b4e6a	-0.21416631
247	0x3f36e8ec	0.7144916
248	0xbee0ac96	-0.43881673
249	0x3e2385d3	0.15969019
250	0x3e0be4c4	0.13661486
251	0x3e8c75aa	0.2743352
252	0x3f24fee2	0.6445142
253	0x3e4e891f	0.20169495
254	0x3f9db30f	1.2320269
255	0xbf25ffb7	-0.64843315

critic.network_body.linear_encoder.seq_layers.0.bias f4 [128]
0	0x00000000	0.0
1	0x00000000	0.0
2	0x00000000	0.0
3	0x00000000	0.0
4	0x00000000	0.0
5	0x00000000	0.0
6	0x00000000	0.0
7	0x00000000	0.0
8	0x00000000	0.0
9	0x00000000	0.0
10	0x00000000	0.0
11	0x00000000	0.0
12	0x00000000	0.0
13	0x00000000	0.0
14	0x00000000	0.0
15	0x00000000	0.0
16	0x00000000	0.0
17	0x00000000	0.0
18	0x00000000	0.0
19	0x00000000	0.0
20	0x00000000	0.0
21	0x00000000	0.0
22	0x00000000	0.0
23	0x00000000	0.0
24	0x00000000	0.0
25	0x00000000	0.0
26	0x00000000	0.0
27	0x00000000	0.0
28	0x00000000	0.0
29	0x00000000	0.0
30	0x00000000	0.0
31	0x00000000	0.0
32	0x00000000	0.0
33	0x00000000	0.0
34	0x00000000	0.0
35	0x00000000	0.0
36	0x00000000	0.0
37	0x00000000	0.0
38	0x00000000	0.0
39	0x00000000	0.0
40	0x00000000	0.0
41	0x00000000	0.0
42	0x00000000	0.0
43	0x00000000	0.0
44	0x00000000	0.0
45	0x00000000	0.0
46	0x00000000	0.0
47	0x00000000	0.0
48	0x00000000	0.0
49	0x00000000	0.0
50	0x00000000	0.0
51	0x00000000	0.0
52	0x00000000	0.0
53	0x00000000	0.0
54	0x00000000	0.0
55	0x00000000	0.0
56	0x00000000	0.0
57	0x00000000	0.0
58	0x00000000	0.0
59	0x00000000	0.0
60	0x00000000	0.0
61	0x00000000	0.0
62	0x00000000	0.0
63	0x00000000	0.0
64	0x00000000	0.0
65	0x00000000	0.0
66	0x00000000	0.0
67	0x00000000	0.0
68	0x00000000	0.0
69	0x00000000	0.0
70	0x00000000	0.0
71	0x00000000	0.0
72	0x00000000	0.0
73	0x00000000	0.0
74	0x00000000	0.0
75	0x00000000	0.0
76	0x00000000	0.0
77	0x00000000	0.0
78	0x00000000	0.0
79	0x00000000	0.0
80	0x00000000	0.0
81	0x00000000	0.0
82	0x00000000	0.0
83	0x00000000	0.0
84	0x00000000	0.0
85	0x00000000	0.0
86	0x00000000	0.0
87	0x00000000	0.0
88	0x00000000	0.0
89	0x00000000	0.0
90	0x00000000	0.0
91	0x00000000	0.0
92	0x00000000	0.0
93	0x00000000	0.0
94	0x00000000	0.0
95	0x00000000	0.0
96	0x00000000	0.0
97	0x00000000	0.0
98	0x00000000	0.0
99	0x00000000	0.0
100	0x00000000	0.0
101	0x00000000	0.0
102	0x00000000	0.0
103	0x00000000	0.0
104	0x00000000	0.0
105	0x00000000	0.0
106	0x00000000	0.0
107	0x00000000	0.0
108	0x00000000	0.0
109	0x00000000	0.0
110	0x00000000	0.0
111	0x00000000	0.0
112	0x00000000	0.0
113	0x00000000	0.0
114	0x00000000	0.0
115	0x00000000	0.0
116	0x00000000	0.0
117	0x00000000	0.0
118	0x00000000	0.0
119	0x00000000	0.0
120	0x00000000	0.0
121	0x00000000	0.0
122	0x00000000	0.0
123	0x00000000	0.0
124	0x00000000	0.0
125	0x00000000	0.0
126	0x00000000	0.0
127	0x00000000	0.0

critic.network_body.linear_encoder.seq_layers.2.weight f4 [128, 128]
0	0x3d875b80	0.06609249
1	0xbc559417	-0.013035796
2	0xbe27f42f	-0.16401742
3	0xbe495d6a	-0.19664541
4	0xbe0c779f	-0.13717507
5	0x3ddca127	0.10772925
6	0xbcec7d09	-0.028868215
7	0xbd03b930	-0.03215903
8	0x3d1148c1	0.035469774
9	0xbdab9c8d	-0.08379469
10	0xbe2e373b	-0.17013256
11	0xbde0d54e	-0.10978185
12	0x3e03909f	0.12848137
13	0x3d8f8078	0.07006925
14	0xbd2eb95d	-0.042657245
15	0xbcb7bdeb	-0.022429427
16	0x3d13f7ad	0.036124874
17	0x3d04b8d1	0.032402817
18	0xbe610304	-0.21973807
19	0x3cb84489	0.022493618
20	0x3dbb3b37	0.09142154
21	0x3dbb141f	0.09134697
22	0x3d9ad095	0.07559315
23	0xbdfdc3b7	-0.12390845
24	0xbd3dc7e0	-0.046333194
25	0x3e041c94	0.12901527
26	0x3cd3d54d	0.025858546
27	0x3c2dc3eb	0.0106057925
28	0x3d624fcb	0.055251878
29	0xbcbfb707	-0.023402704
30	0xbe014be8	-0.12626612
31	0xbcd7a67e	-0.026324507
32	0xbdf4b516	-0.11948602
33	0xbde8160d	-0.11332331
34	0x3de92d21	0.11385561
35	0xbdad4af6	-0.08461563
36	0x3c8b63b0	0.017015308
37	0xbd231856	-0.03981813
38	0x3d645bc7	0.05575159
39	0xbd826477	-0.063668184
40	0x3db31c35	0.087456144
41	0xbd113f5c	-0.035460815
42	0x3bda5c38	0.0066638254
43	0xbd2f58a6	-0.04280915
44	0x3df1f3be	0.11814068
45	0xbc100cbc	-0.008792099
46	0x3c3580c9	0.011078068
47	0x3bb01c37	0.005374457
48	0x3de64827	0.11244231
49	0x3dbe4a9b	0.092915736
50	0x3bf9cc7a	0.0076232525
51	0x3d1a48d7	0.03766712
52	0x3dd335e7	0.103130154
53	0xbde3003e	-0.110840306
54	0xbe080bbe	-0.1328573
55	0x3ca50ecd	0.02014866
56	0x3dffc133	0.12488022
57	0xbcecddf9	-0.028914439
58	0xbe1b9f90	-0.15197587
59	0x3da01c90	0.07817948
60	0x3da4740a	0.08029945
61	0x3c88af74	0.016685225
62	0xbd660e48	-0.056165963
63	0x3d186467	0.037205126
64	0x3dd7eb4b	0.105429254
65	0x3d2dd1fe	0.042436592
66	0x3ca979a5	0.020687887
67	0xbc7df9d6	-0.01550146
68	0x3e3aded1	0.1824906
69	0x3ac9b120	0.001538787
70	0xbc0c9fa0	-0.008582979
71	0xbc9753e8	-0.018472627
72	0x3df228b9	0.118241735
73	0xbdb03be7	-0.086051755
74	0xbc4c59d2	-0.012472587
75	0x3de076a5	0.1096013
76	0x3d26b37f	0.040698525
77	0x3d8f0c6d	0.06984792
78	0x3d8af3dd	0.067847945
79	0x3d8455bc	0.06461665
80	0x3c7e36a2	0.015515955
81	0x3c586249	0.013207027
82	0x3d3abc4f	0.04558974
83	0xbc8ccc1b	-0.017187169
84	0xbdb1de36	-0.086849615
85	0x3dbac3c8	0.091193736
86	0xbdae86f5	-0.08521835
87	0xbda04c21	-0.078270204
88	0x3d9a883c	0.07545516
89	0x3d24eb0c	0.04026322
90	0xbd88f2c4	-0.06686929
91	0x3d78dd17	0.060757723
92	0x3e189e8f	0.14904235
93	0x3ca3f1a9	0.020012693
94	0x3e0bf6a6	0.13668308
95	0x3e16d8c8	0.14731133
96	0xbdb2eb4b	-0.08736285
97	0xbcdb544b	-0.026773592
98	0x3da5556f	0.08072936
99	0x3d56ef34	0.052474216
100	0xbda16df5	-0.07882301
101	0xbd190051	-0.037353817
102	0xbe2d9ff0	-0.16955543
103	0xbc38a7bd	-0.011270461
104	0x3d2d0757	0.042243328
105	0xbd815da3	-0.06316688
106	0x3e120663	0.14260249
107	0x3e2bc6e6	0.16775092
108	0xbda623b5	-0.08112279
109	0x3d6d4f06	0.05793669
110	0x3d4c2796	0.04984244
111	0xba9e35a0	-0.0012070425
112	0x3d1cd59a	0.038289644
113	0xbc852451	-0.016252669
114	0x3da0e79b	0.07856675
115	0xbe072af5	-0.1319998
116	0xbd80b8a0	-0.062852144
117	0xbd301ec4	-0.04299809
118	0x3dd7fb5e	0.10545991
119	0xbe077a16	-0.13230166
120	0x3c84d220	0.016213477
121	0x3e476cb5	0.19475062
122	0xbccdced7	-0.025123043
123	0xbd8a133a	-0.067419484
124	0x3e4f09d7	0.20218597
125	0x3d930193	0.07178035
126	0x3cf6c4ba	0.030123103
127	0x3d9752c9	0.07388837
128	0xbc34548e	-0.0110064875
129	0xbdfd2460	-0.123604536
130	0x3d2f9101	0.042862896
131	0x3d8bd005	0.06826786
132	0x3d8ab2b4	0.06772366
133	0xbe0792f9	-0.1323966
134	0xbd95976a	-0.073042706
135	0xbe181107	-0.14850245
136	0xbe4f7fed	-0.20263644
137	0xbdf2b056	-0.1185004
138	0x3b9d1f53	0.004794994
139	0x3d8f0dff	0.069850914
140	0x3df2035a	0.118170455
141	0xbdda603a	-0.10662885
142	0x3e3797b2	0.17928961
143	0xbc83cdb1	-0.016089292
144	0xbc30fcde	-0.010802476
145	0xbc8bb376	-0.017053347
146	0x3df4d2ac	0.11954245
147	0x3de4f901	0.11180306
148	0x3b38b506	0.002818407
149	0xbc5fd006	-0.0136604365
150	0xbe1c08cc	-0.1523773
151	0x3e2b076d	0.16702051
152	0xbdc9e013	-0.09857192
153	0x3db1a624	0.08674267
154	0x3e43e324	0.19129616
155	0x3d9ecc47	0.077538066
156	0x3d1ee741	0.03879476
157	0x3dab16a0	0.08353925
158	0xbd0368df	-0.032082435
159	0x3d966278	0.07343
160	0xbdb63132	-0.08896102
161	0x3b2374f6	0.002494154
162	0x3d8185c3	0.06324341
163	0x3bd29946	0.006426963
164	0xbe23cc90	-0.15996003
165	0xbca8258b	-0.020525714
166	0xbca46f7e	-0.020072695
167	0xbc77654f	-0.015099837
168	0x3cc0c86c	0.023533069
169	0xbd1c2a85	-0.038126487
170	0x3dbb8c76	0.0915765
171	0xbc6912a7	-0.0142256385
172	0xbd04fa43	-0.03246523
173	0xbb806e15	-0.003919373
174	0x3d858141	0.06518794
175	0xbe44b5b0	-0.19209933
176	0xbdcb7ef7	-0.09936326
177	0x3d69fc4f	0.057125386
178	0xbcfa9f8f	-0.030593662
179	0xbe0ad035	-0.13555987
180	0xbdd3de02	-0.10345079
181	0xbcfb1ce5	-0.030653426
182	0x3d12cb17	0.035838213
183	0x3e45e5e7	0.19325982
184	0xbd49feaa	-0.049315132
185	0x3dcd0c8f	0.10012161
186	0x3dac7cb6	0.08422224
187	0x3e11b199	0.14227904
188	0x3c44fda9	0.012023368
189	0xbc1771d3	-0.009243446
190	0xbb9b5c4f	-0.0047412287
191	0xbdb979e1	-0.0905645
192	0x3d16628a	0.036715068
193	0x3dba7d12	0.091058865
194	0x3c85c0c6	0.016327273
195	0x3d24a18f	0.040193137
196	0xbc5957a3	-0.013265523
197	0x3d8f4e7a	0.0699739
198	0xbe0e3eac	-0.13891095
199	0x3d6514fe	0.055928223
200	0xbdd2bf41	-0.10290385
201	0x3d4beb10	0.04978472
202	0xbc979318	-0.018502757
203	0x3dcaa396	0.09894483
204	0x3d8d1624	0.068889886
205	0x3cd759c9	0.02628793
206	0x3d300b6b	0.04297964
207	0xbd2e1d7c	-0.042508587
208	0xbc3ead8f	-0.011638059
209	0x3cee5675	0.02909396
210	0x3d94ec11	0.072715886
211	0x3d572a9f	0.05253088
212	0x3b877963	0.0041343435
213	0xbd298565	-0.04138698
214	0x3dcda84e	0.10041867
215	0x3d8a7bf8	0.067619264
216	0xbd3ae0fa	-0.04562471
217	0x3dc7960d	0.09745417
218	0xbd20e866	-0.039284132
219	0xbe1ce824	-0.1532293
220	0xbd8aab18	-0.06770915
221	0x3ba57c54	0.0050502215
222	0xbdf4c751	-0.11952079
223	0xbdd4de88	-0.10394007
224	0x3d2f0e18	0.04273805
225	0x3d7ce201	0.06173897
226	0xbd59636f	-0.053073343
227	0x3cf1fa47	0.029538287
228	0xbd304476	-0.04303404
229	0x3ea871be	0.32899278
230	0xbce8724d	-0.028374815
231	0x3dfd1fa4	0.123595506
232	0x3cc07128	0.023491457
233	0xbd6ffe82	-0.058592327
234	0xbc866055	-0.016403357
235	0xbd6e5ce8	-0.05819407
236	0x3cb9f7be	0.02270114
237	0xbd6239f6	-0.055231057
238	0x3d69f22d	0.057115722
239	0xbbcdd94f	-0.0062820087
240	0xbdab9122	-0.08377291
241	0x3cc938b2	0.024563167
242	0xbc974ea7	-0.018470122
243	0xbe38322b	-0.17987888
244	0xbe0aa621	-0.13539936
245	0x3e142219	0.14466132
246	0x3d5b9f60	0.05361879
247	0xbdc70523	-0.097177766
248	0xbdb36be4	-0.08760813
249	0xb91a3de4	-0.0001470964
250	0x3df9dfb6	0.122008726
251	0xbd193adc	-0.03740965
252	0xbd1c704f	-0.038193043
253	0xbb765944	-0.0037589828
254	0x3d833d0d	0.06408129
255	0x3e04ee57	0.12981544

critic.network_body.linear_encoder.seq_layers.2.bias f4 [128]
0	0x00000000	0.0
1	0x00000000	0.0
2	0x00000000	0.0
3	0x00000000	0.0
4	0x00000000	0.0
5	0x00000000	0.0
6	0x00000000	0.0
7	0x00000000	0.0
8	0x00000000	0.0
9	0x00000000	0.0
10	0x00000000	0.0
11	0x00000000	0.0
12	0x00000000	0.0
13	0x00000000	0.0
14	0x00000000	0.0
15	0x00000000	0.0
16	0x00000000	0.0
17	0x00000000	0.0
18	0x00000000	0.0
19	0x00000000	0.0
20	0x00000000	0.0
21	0x00000000	0.0
22	0x00000000	0.0
23	0x00000000	0.0
24	0x00000000	0.0
25	0x00000000	0.0
26	0x00000000	0.0
27	0x00000000	0.0
28	0x00000000	0.0
29	0x00000000	0.0
30	0x00000000	0.0
31	0x00000000	0.0
32	0x00000000	0.0
33	0x00000000	0.0
34	0x00000000	0.0
35	0x00000000	0.0
36	0x00000000	0.0
37	0x00000000	0.0
38	0x00000000	0.0
39	0x00000000	0.0
40	0x00000000	0.0
41	0x00000000	0.0
42	0x00000000	0.0
43	0x00000000	0.0
44	0x00000000	0.0
45	0x00000000	0.0
46	0x00000000	0.0
47	0x00000000	0.0
48	0x00000000	0.0
49	0x00000000	0.0
50	0x00000000	0.0
51	0x00000000	0.0
52	0x00000000	0.0
53	0x00000000	0.0
54	0x00000000	0.0
55	0x00000000	0.0
56	0x00000000	0.0
57	0x00000000	0.0
58	0x00000000	0.0
59	0x00000000	0.0
60	0x00000000	0.0
61	0x00000000	0.0
62	0x00000000	0.0
63	0x00000000	0.0
64	0x00000000	0.0
65	0x00000000	0.0
66	0x00000000	0.0
67	0x00000000	0.0
68	0x00000000	0.0
69	0x00000000	0.0
70	0x00000000	0.0
71	0x00000000	0.0
72	0x00000000	0.0
73	0x00000000	0.0
74	0x00000000	0.0
75	0x00000000	0.0
76	0x00000000	0.0
77	0x00000000	0.0
78	0x00000000	0.0
79	0x00000000	0.0
80	0x00000000	0.0
81	0x00000000	0.0
82	0x00000000	0.0
83	0x00000000	0.0
84	0x00000000	0.0
85	0x00000000	0.0
86	0x00000000	0.0
87	0x00000000	0.0
88	0x00000000	0.0
89	0x00000000	0.0
90	0x00000000	0.0
91	0x00000000	0.0
92	0x00000000	0.0
93	0x00000000	0.0
94	0x00000000	0.0
95	0x00000000	0.0
96	0x00000000	0.0
97	0x00000000	0.0
98	0x00000000	0.0
99	0x00000000	0.0
100	0x00000000	0.0
101	0x00000000	0.0
102	0x00000000	0.0
103	0x00000000	0.0
104	0x00000000	0.0
105	0x00000000	0.0
106	0x00000000	0.0
107	0x00000000	0.0
108	0x00000000	0.0
109	0x00000000	0.0
110	0x00000000	0.0
111	0x00000000	0.0
112	0x00000000	0.0
113	0x00000000	0.0
114	0x00000000	0.0
115	0x00000000	0.0
116	0x00000000	0.0
117	0x00000000	0.0
118	0x00000000	0.0
119	0x00000000	0.0
120	0x00000000	0.0
121	0x00000000	0.0
122	0x00000000	0.0
123	0x00000000	0.0
124	0x00000000	0.0
125	0x00000000	0.0
126	0x00000000	0.0
127	0x00000000	0.0

critic.value_heads.value_heads.extrinsic.weight f4 [1, 128]
0	0xbe01fc3b	-0.12693875
1	0x3e04c526	0.12965831
2	0x3d942c40	0.072350025
3	0x3e4a0a3a	0.19730464
4	0xbd9dc1b8	-0.077029645
5	0x3d3639e0	0.044488788
6	0x3dcd04e8	0.100107014
7	0x3d063838	0.032768458
8	0xbd3b9e5c	-0.04580532
9	0x3ccadcd8	0.02476351
10	0xbe55dd7a	-0.20885268
11	0x3e1354b4	0.1438778
12	0xbde16b7a	-0.11006828
13	0x3ce84ed0	0.028357893
14	0x3c022840	0.007944167
15	0xbe351671	-0.17684342
16	0xbc883dd0	-0.016631037
17	0xbe3fbf6f	-0.1872537
18	0x3e5c2764	0.21499401
19	0x3e042e2c	0.12908238
20	0xbdb2be50	-0.087277055
21	0xbdb8b3b6	-0.09018652
22	0x3e202eb0	0.1564281
23	0xbdb842e2	-0.08997132
24	0x3e0bb4f2	0.13643244
25	0x3dddf8a0	0.10838437
26	0x3da0a064	0.07843092
27	0xbd908e8c	-0.07058439
28	0xbc31a090	-0.010841504
29	0xbe1dc3e6	-0.1540676
30	0x3e1f553a	0.15559855
31	0x3dc04b98	0.09389418
32	0x3db7d0b8	0.08975357
33	0xbd4e045c	-0.050297126
34	0x3d964d6c	0.07338986
35	0xbdb819e4	-0.08989313
36	0xbcf37808	-0.029720321
37	0xbe34110c	-0.17584628
38	0xbd64d3cc	-0.055866048
39	0x3cf515d8	0.029917642
40	0xbc5c0050	-0.013427809
41	0xbbaed020	-0.005334869
42	0xbc971fe0	-0.018447816
43	0x3debd8b0	0.11515939
44	0xbb8dc2c0	-0.0043261945
45	0xbdb0af8c	-0.08627233
46	0xbdb1b328	-0.086767495
47	0x3dfb5cbc	0.12273547
48	0xbd9a3c3a	-0.075310186
49	0x3df85e00	0.12127304
50	0xbda7a078	-0.08184904
51	0xbe19081c	-0.149445
52	0xbd8e0f3a	-0.06936498
53	0xbc5f10b0	-0.013614818
54	0xbd9638a8	-0.07335025
55	0x3e26bb86	0.16282472
56	0xbc299370	-0.010350093
57	0xbcafb2d8	-0.021447584
58	0x3e076c64	0.13224941
59	0xbb519000	-0.00319767
60	0x3e2b05c2	0.16701415
61	0xbdf87d5f	-0.12133288
62	0xbdd3e818	-0.10347003
63	0xbda30e64	-0.07961729
64	0xbe1a093a	-0.15042582
65	0xbe4ccd10	-0.200001
66	0x3c5770e0	0.01314947
67	0x3d46edb0	0.04856652
68	0xbda2e97c	-0.0795469
69	0xbe483870	-0.19552779
70	0x3e30472e	0.17214653
71	0x3e192a3a	0.14957514
72	0x3c55ba40	0.013044894
73	0xbdec57f5	-0.11540214
74	0x3e4f51f4	0.20246106
75	0x3db15150	0.08658087
76	0xbe3790f8	-0.17926395
77	0x3c5639d0	0.013075307
78	0x3d8ae574	0.06782046
79	0x3d642d68	0.055707365
80	0x3dbf9690	0.093548894
81	0x3dba9290	0.09109986
82	0x3e15cc90	0.14628816
83	0xbdb35e42	-0.087582126
84	0xbe1b1a6e	-0.15146801
85	0xbe158d17	-0.14604603
86	0x3e385896	0.18002543
87	0x3e49db6e	0.19712612
88	0x3d21c5c0	0.03949523
89	0xbc53a740	-0.0129182935
90	0x3df1dd90	0.11809838
91	0xbe0019ca	-0.12509838
92	0xbbea7c60	-0.00715594
93	0xbd89707a	-0.06710906
94	0x3deec018	0.11657733
95	0xbd859998	-0.06523436
96	0x3bb3e340	0.005489737
97	0x3d3e1678	0.046408147
98	0x3e21e390	0.15809464
99	0xbd7d8968	-0.06189862
100	0x3d275af8	0.04085824
101	0x3d5f9780	0.05458784
102	0xbdcb79c1	-0.09935332
103	0xbe2d25f1	-0.16909005
104	0xbd724980	-0.059152126
105	0x3e286698	0.16445386
106	0x3d2f1328	0.04274288
107	0xbe367529	-0.1781813
108	0x3e4a8f30	0.19781184
109	0xbd80bbb4	-0.062858015
110	0xbbfe1520	-0.007753983
111	0x3e4ec5a8	0.20192587
112	0xbdb363b6	-0.08759253
113	0x3c7aead0	0.015314773
114	0xbe37e6c7	-0.17959128
115	0x3c9a8100	0.01886034
116	0xbdb40952	-0.0879084
117	0x3dd5bb80	0.104361534
118	0x3d845c18	0.06462878
119	0x3e1960d0	0.14978337
120	0xbe4bba6a	-0.1989533
121	0xbe23baff	-0.15989302
122	0xbdc1b886	-0.09459023
123	0xbda5bfe0	-0.08093238
124	0xbe0357cf	-0.12826465
125	0x3d85deb4	0.06536618
126	0x3c4726d0	0.01215525
127	0xbcdf8ac0	-0.02728784
