results/dajGoal2/HitTheBall.onnx (onnx, 74062 bytes, 8 tensors)

action_model._continuous_distribution.log_sigma f4 [1, 2]
0	0xbc9ed372	-0.019387934
1	0xbc7e6c78	-0.015528791

action_model._continuous_distribution.mu.bias f4 [2]
0	0x3af9dbf8	0.0019062748
1	0x3baf6766	0.005352902

action_model._continuous_distribution.mu.weight f4 [2, 128]
0	0xbc06b9f7	-0.008223048
1	0x3b358720	0.002769895
2	0x3c924d14	0.01785902
3	0xbcb1e707	-0.021716608
4	0xbd255730	-0.04036635
5	0xbd046d58	-0.03233084
6	0x3b445c79	0.0029962345
7	0xbbdcd8c3	-0.006739707
8	0xbd0474cd	-0.032337952
9	0x3ba1fc55	0.0049434104
10	0xbcefa296	-0.029252332
11	0x3a13e554	0.00056417775
12	0xbbfdd9e0	-0.00774692
13	0xbbc0c26a	-0.005882551
14	0xbd35f590	-0.04442364
15	0xb7d693d6	-2.557963e-05
16	0xbbfa5f7d	-0.0076407776
17	0xbc8abe85	-0.01693655
18	0xbc172d74	-0.009227145
19	0x3b3413f9	0.0027477725
20	0xbcbfc3cd	-0.023408795
21	0xbbbdf8ec	-0.005797496
22	0xbcbd3722	-0.023097578
23	0x3c191f67	0.009345866
24	0x3c05dbf4	0.008170117
25	0x3c8d59eb	0.01725479
26	0xbb9d9d95	-0.004810045
27	0x3c06678c	0.008203398
28	0x3d1f84db	0.03894506
29	0x3a04d745	0.0005067478
30	0xba2129e0	-0.00061479025
31	0xbbf6813e	-0.007522731
32	0x3c250d5d	0.010073987
33	0x3cfa6426	0.030565333
34	0x3cc4fd9b	0.02404671
35	0x3c393bf9	0.0113058025
36	0x3cc607ef	0.024173705
37	0xbb9af48d	-0.0047288598
38	0x3cb41892	0.021984372
39	0xbcb04685	-0.021518001
40	0x3c7a3802	0.015272142
41	0x3cb8a234	0.022538282
42	0x3ce75602	0.028239254
43	0xbccb44c3	-0.024813062
44	0xbc3e18e5	-0.011602615
45	0x3c76a85e	0.01505479
46	0x3d184bd4	0.03718169
47	0x3c8af814	0.016963996
48	0x3c304048	0.010757513
49	0xbcb7b83e	-0.02242672
50	0xbbb213f9	-0.00543451
51	0x3cca3938	0.024685487
52	0xbd1829b9	-0.037149165
53	0x3ac0af04	0.0014700596
54	0xbb7874e9	-0.003791148
55	0xbd0c63d2	-0.034274884
56	0xbc4758c7	-0.012167162
57	0x3ccb0971	0.024784775
58	0x3c78dd6d	0.015189511
59	0xbd0a0428	-0.03369537
60	0xbc23518a	-0.009968171
61	0x3bb79f92	0.005603739
62	0xbc6adc8e	-0.014334811
63	0x3c133d0d	0.008986724
64	0x3c8d8ce0	0.017279088
65	0xbb0770b7	-0.0020666549
66	0x3cec8e55	0.028876463
67	0x3cd97518	0.026545092
68	0xbc1da679	-0.00962221
69	0x3ca9a801	0.020709993
70	0xbc870c89	-0.01648547
71	0x3c87c116	0.016571563
72	0x3cce724b	0.025200984
73	0xbbe35ac1	-0.006938309
74	0xbb783dcc	-0.003787863
75	0xbcae4067	-0.021270944
76	0x3c99c26a	0.018769462
77	0xbba30189	-0.0049745482
78	0x3bc6ec76	0.006070669
79	0x3d35c306	0.044375442
80	0x3c75ebca	0.01500983
81	0xbd3fa3c7	-0.04678705
82	0xbbdd4915	-0.006753097
83	0xbd037dde	-0.03210246
84	0xbd0d236c	-0.03445761
85	0x3c554d95	0.013018985
86	0xbd106651	-0.035253827
87	0xbc731f07	-0.01483894
88	0xbb509922	-0.0031829556
89	0x3c3ac837	0.011400274
90	0x3a472f26	0.0007598273
91	0xbcb5bcfb	-0.02218484
92	0x3c03390e	0.008009208
93	0xbc55d7a8	-0.013051905
94	0xba60c157	-0.0008573732
95	0xbc5ad07f	-0.013355373
96	0x3d219080	0.039444447
97	0x3c44ed2c	0.012019437
98	0xbb2ede12	-0.0026682657
99	0xbb598f8a	-0.0033197128
100	0x3cd57ae8	0.026059583
101	0x3cc849a1	0.024449171
102	0x3cdfe088	0.027328745
103	0xbc85b084	-0.01631952
104	0xbcc70304	-0.02429343
105	0xbbea5d81	-0.00715226
106	0xbcaf007a	-0.021362532
107	0xbd03d5e0	-0.03218639
108	0xbc04abce	-0.008097602
109	0xbc013579	-0.007886284
110	0xbca38f42	-0.019965772
111	0xbc83a964	-0.016071983
112	0x3bd844d3	0.0066000014
113	0x3aceae20	0.0015768446
114	0x3b21cd1a	0.00246889
115	0xbcfca66e	-0.030841079
116	0x3cd02956	0.025410336
117	0x3c92af57	0.017905874
118	0x3c88e275	0.016709546
119	0x3aff125c	0.0019460428
120	0x3d2a6425	0.04159941
121	0x3beb0ad9	0.007172924
122	0x3bf0d0d7	0.0073491144
123	0xbb6d7853	-0.003623505
124	0x3b881650	0.0041530505
125	0xbc9335e3	-0.017970031
126	0x3d16ec50	0.03684646
127	0xbce78f02	-0.028266434
128	0xb9b69a66	-0.0003482878
129	0xbcaa7c52	-0.020811234
130	0xbb9db94a	-0.004813348
131	0x3c9ad4fc	0.018900387
132	0xbd1d94bc	-0.038471922
133	0xbcc47ff7	-0.0239868
134	0xbc0b1801	-0.00848961
135	0x3c817daf	0.015807
136	0xbbba5eb3	-0.0056875586
137	0xbc8814d5	-0.016611496
138	0xbcf187ce	-0.029483702
139	0xbcf87e4f	-0.030333666
140	0x3d1416f2	0.036154695
141	0x3bdc307f	0.0067196484
142	0x3c196041	0.009361328
143	0xbce63619	-0.028101968
144	0xbad8a717	-0.0016529289
145	0xbd83b022	-0.06430079
146	0xbbcfd523	-0.0063425465
147	0x3bc98451	0.0061498065
148	0xbcc9d784	-0.024638899
149	0xbba9b9c3	-0.005179615
150	0x3c79e5e4	0.015252564
151	0x3d00bc2b	0.03142945
152	0xbcf3583c	-0.02970516
153	0x3c774209	0.015091428
154	0xbbc392c3	-0.005968423
155	0x3a65225e	0.0008740778
156	0x3c1e3cb6	0.009658029
157	0x3b80ba9e	0.0039284965
158	0x3d20ea15	0.039285738
159	0xbc190390	-0.009339228
160	0x3d1b0123	0.03784288
161	0xbac52264	-0.0015040156
162	0xbca0daff	-0.019635675
163	0xba90f1c5	-0.0011058381
164	0x3d2e976d	0.04262488
165	0xbcb95b95	-0.022626678
166	0xbc9d729b	-0.019219687
167	0xbc5b5599	-0.013387107
168	0x3b8b08dd	0.004243
169	0x3cb98a0a	0.02264883
170	0xbc797b81	-0.0152271995
171	0xbc0866af	-0.008325263
172	0xbcd69aee	-0.026196923
173	0xbc6cae94	-0.01444592
174	0x3c704e44	0.0146670975
175	0xbd4c70d8	-0.049912304
176	0xbadefa41	-0.0017011837
177	0xbd32844a	-0.043583192
178	0xbc281bb3	-0.01026051
179	0x3c84ee76	0.016226988
180	0x3b5e9dc3	0.0033968545
181	0x3d256a5f	0.040384647
182	0x3c528270	0.012848482
183	0xbac4e1da	-0.0015020922
184	0x3cbbacc8	0.022909537
185	0xbca2fe09	-0.019896524
186	0x3b90bc93	0.004417011
187	0x3c05cbcf	0.008166268
188	0x3c216f38	0.009853177
189	0x3c886eec	0.016654454
190	0xbcb43e7a	-0.022002447
191	0xbb8d0434	-0.0043034796
192	0x3c3aed60	0.011409134
193	0xbcf715ee	-0.030161824
194	0x3c87f4b0	0.016596168
195	0x3bc45e01	0.0059926515
196	0xba95c821	-0.0011427441
197	0xbc28a535	-0.010293295
198	0xbd0de406	-0.03464129
199	0xbc7cd847	-0.015432424
200	0xbc08c564	-0.008347843
201	0xbbc5faeb	-0.0060418746
202	0x3cd140ee	0.025543656
203	0xbb69c3d9	-0.0035669713
204	0xbc35c298	-0.011093758
205	0xbcad8ee7	-0.021186305
206	0x3c562408	0.013070114
207	0xbc5922a5	-0.013252889
208	0x3c9e45cf	0.019320397
209	0xbbb381b4	-0.0054781083
210	0xbd048659	-0.032354686
211	0x3c413f3c	0.011794861
212	0x3ca34440	0.019930005
213	0x3c3d5c3d	0.011557636
214	0x3ba3b554	0.004995981
215	0x3c95eee6	0.018302392
216	0x3d043ce5	0.032284636
217	0xbb92472e	-0.0044640517
218	0xbd03861f	-0.03211033
219	0xbb8c8c2c	-0.0042891707
220	0xbbbd4514	-0.005776057
221	0xbcb36442	-0.021898393
222	0x3d112e3d	0.035444487
223	0xbc443e23	-0.011977705
224	0xbb9506c8	-0.0045479275
225	0x3c1555dd	0.00911471
226	0x3cdabc71	0.026701184
227	0xbd15cb10	-0.03657061
228	0xbc4d732f	-0.012539669
229	0x3d0fc993	0.035104346
230	0x39ae9548	0.0003329909
231	0xbc11348f	-0.008862629
232	0xbb7cec39	-0.0038592948
233	0x3c4f3b40	0.012648404
234	0x3befd9bf	0.0073196585
235	0xbb19f641	-0.0023492726
236	0xbbed3bf9	-0.0072398153
237	0xbc36a871	-0.011148558
238	0xbcfcf95d	-0.030880624
239	0x3be629f8	0.007024046
240	0xbbc0e30c	-0.005886441
241	0x3d2fa6f4	0.04288383
242	0xbc8b8969	-0.017033296
243	0xbcdc3e65	-0.02688522
244	0xbade7484	-0.001697198
245	0xbc2eca5a	-0.010668362
246	0xbccb4c03	-0.024816519
247	0x3ca42a29	0.020039635
248	0xbc04f6ed	-0.008115512
249	0x3becddb3	0.007228577
250	0xbca43f94	-0.020049848
251	0x3cf3ea0d	0.02977469
252	0xbc9e32b0	-0.019311279
253	0xbcaa1037	-0.020759685
254	0x3c9b615e	0.018967327
255	0xbd05948e	-0.032612376

action_model._discrete_distribution.branches.0.weight f4 [1, 128]
0	0x3bcfeeaf	0.006345592
1	0xbcaf1ef9	-0.021377074
2	0xbc41ea87	-0.011835701
3	0x3c01de36	0.007926514
4	0x3c3fa98c	0.011698138
5	0xb864867f	-5.4484695e-05
6	0xbbe16ccd	-0.006879425
7	0x3a7d27c2	0.00096571085
8	0x3c1e52ef	0.009663328
9	0xbc0e8c9b	-0.008700515
10	0x3be790d5	0.007066826
11	0xbc3fc44f	-0.011704518
12	0xbc19b6c5	-0.009381955
13	0xbb216df7	-0.0024632195
14	0x3be006f8	0.0068367682
15	0x3c1c367b	0.0095344735
16	0x3be0dad3	0.0068620234
17	0xbb736005	-0.003713609
18	0xbc9695ad	-0.018381918
19	0xbc4f6317	-0.012657902
20	0xbb8dd88b	-0.0043287924
21	0x3b94270c	0.0045212563
22	0xbaecfa98	-0.0018080054
23	0x3be09a3b	0.006854323
24	0x3b8eecad	0.00436171
25	0xb9ed0dab	-0.00045214346
26	0xbb904c02	-0.004403592
27	0xbcaeb35f	-0.021325765
28	0xbb1b2243	-0.0023671545
29	0xbbfb25bf	-0.007664412
30	0x3bb4d889	0.005518977
31	0xbb609a72	-0.0034271744
32	0x3b1c799d	0.0023876198
33	0x3c57895f	0.01315531
34	0xbac16d4b	-0.0014757303
35	0xbc8b0181	-0.01696849
36	0x3b585c07	0.0033013837
37	0xbb3d2794	-0.0028862702
38	0xbc8c7d8b	-0.017149707
39	0xba153b08	-0.0005692695
40	0xbbdfa6b2	-0.0068252916
41	0x3b375f03	0.0027980215
42	0x3bdc4a4f	0.0067227255
43	0x3ac28553	0.0014840759
44	0xbc4e52a3	-0.012592944
45	0x3b1f3524	0.002429315
46	0x3c0e5212	0.008686559
47	0xbc11616b	-0.008873324
48	0xbb00ddc5	-0.0019663435
49	0x3bbdca6b	0.0057919524
50	0x39e746ef	0.00044112603
51	0x3c10b0bb	0.008831198
52	0x3b0abbb7	0.0021169016
53	0x3c3883cc	0.011261892
54	0xbc1fdb77	-0.009756914
55	0x3bf73b6f	0.007544927
56	0x3b2bfd3e	0.0026243473
57	0x3af3feeb	0.00186154
58	0x3b2d974d	0.0026487887
59	0xbba832ff	-0.0051330323
60	0xbc22656b	-0.009911875
61	0x3b4ce40f	0.0031263863
62	0xbbe16403	-0.0068783774
63	0xbbb8505f	-0.0056248154
64	0x3bbe25f1	0.005802863
65	0x3bfebc2b	0.007773896
66	0x3c0c079f	0.008546739
67	0xbc035308	-0.008015402
68	0x3c302f1a	0.010753417
69	0x3a743ec0	0.0009317212
70	0xbbda1028	-0.006654758
71	0x3c44c9df	0.01201102
72	0x3c84139f	0.016122637
73	0xba2843fb	-0.0006418821
74	0xbc006b88	-0.007838137
75	0xbb784d30	-0.0037887804
76	0x3c7d3d7b	0.015456553
77	0x3bd2ad3f	0.006429344
78	0xbc709a95	-0.014685293
79	0xba6d8417	-0.00090605154
80	0x39764ba0	0.0002348856
81	0xbba33e34	-0.0049817804
82	0xba63a868	-0.0008684457
83	0x3c8dca52	0.017308388
84	0xbc017453	-0.007901269
85	0x3c845eea	0.01615854
86	0x3c91559f	0.017741023
87	0xbb787527	-0.0037911625
88	0xbbaef5d3	-0.005339363
89	0xbc2cb3d6	-0.010540923
90	0xb9d924bd	-0.00041416837
91	0x3c072596	0.008248707
92	0x3c9269db	0.017872741
93	0xba900e2e	-0.0010990554
94	0xbb5e1baf	-0.0033891012
95	0x3bec2538	0.0072065853
96	0x3c76a412	0.015053766
97	0xbb252b8b	-0.0025202956
98	0x3c18b50f	0.0093205115
99	0x3b56aeaa	0.0032757916
100	0xbbd694f0	-0.0065485165
101	0xbb03a4e3	-0.0020087294
102	0x3c2672d6	0.010159215
103	0xbb8fbf57	-0.004386823
104	0x3b3d7b5e	0.0028912644
105	0xbc1e0f73	-0.009647238
106	0xbc7890a8	-0.0151712075
107	0xbad7a00b	-0.0016450895
108	0xbbf57f85	-0.007492008
109	0xbae7d7f5	-0.0017688262
110	0x3ad520c8	0.001626038
111	0xbb2c63a3	-0.0026304505
112	0xbc073aa1	-0.008253724
113	0xbb8b109b	-0.004243923
114	0xbb4d78aa	-0.003135244
115	0x3bebe4f7	0.0071989256
116	0x3b39c110	0.0028343834
117	0xbc90908c	-0.01764705
118	0xba96283e	-0.0011456085
119	0x3ca6a2ff	0.020341394
120	0x3c09c15b	0.008407916
121	0x3b8d107d	0.004304944
122	0x3c79a200	0.015236378
123	0x3bdd74a3	0.006758289
124	0x3a6c034d	0.00090031774
125	0x3c4d8c38	0.012545638
126	0xba3d7db7	-0.0007228511
127	0x3b7a3c1a	0.0038182796

network_body.linear_encoder.seq_layers.0.bias f4 [128]
0	0x3b896a31	0.004193567
1	0xbb66f0df	-0.0035238785
2	0xba544850	-0.00080979336
3	0xba7fe542	-0.000976164
4	0x3b93b970	0.00450819
5	0xba4c67d7	-0.0007797456
6	0x3c3df210	0.011593357
7	0x3b567b23	0.0032727204
8	0x3bc13eb5	0.005897368
9	0x3c1ea92f	0.009683891
10	0x3abe5ced	0.0014523544
11	0xba8eec08	-0.0010904083
12	0xbc3aaccc	-0.011393737
13	0x3c3f99e7	0.011694408
14	0xbb221417	-0.0024731213
15	0xbaba7c43	-0.0014227707
16	0xbbac0d15	-0.005250583
17	0x3b0d7f1d	0.0021590658
18	0xbad388e9	-0.0016138825
19	0xba91e271	-0.0011130107
20	0xbb52a647	-0.0032142566
21	0x3c2d27f8	0.010568611
22	0xbc81596d	-0.015789712
23	0xbc101b7e	-0.008795617
24	0x3bf4846f	0.0074620764
25	0x3a5facec	0.0008532542
26	0xbb4939cf	-0.0030704623
27	0xbc2436a0	-0.010022789
28	0xba857d9c	-0.0010184529
29	0xbb6e5a0a	-0.0036369585
30	0x3bf5f2e1	0.00750576
31	0xbca00bfd	-0.019536966
32	0xbc1e07ee	-0.009645445
33	0x3bcfede3	0.006345497
34	0x3c1d4f5b	0.009601439
35	0xbc1b100c	-0.009464275
36	0xb8c5357d	-9.403655e-05
37	0xba12a2bd	-0.0005593708
38	0xbb1ccc8c	-0.002392563
39	0xbb8a0def	-0.004213087
40	0xbba9de49	-0.005183969
41	0x3ba9a4f2	0.0051771337
42	0x3bbbb868	0.00572877
43	0x3bada145	0.005298766
44	0xbbc0bc34	-0.0058818106
45	0x3b241181	0.0025034847
46	0xbb0b7eaf	-0.0021285226
47	0xba85c2b6	-0.0010205123
48	0x3af804e4	0.0018922356
49	0x3b0cc1e1	0.0021477866
50	0xbbb1b76e	-0.005423478
51	0xbc57807b	-0.013153191
52	0x3b50a366	0.0031835674
53	0xbb5088ad	-0.0031819746
54	0x3c68ce51	0.014209346
55	0x3be5f3d3	0.0070175915
56	0xbbb71c09	-0.005588059
57	0xbab799e0	-0.001400765
58	0x3b689129	0.0035486913
59	0x38f0440e	0.00011456768
60	0xbae440ae	-0.0017414296
61	0x3bcd2d69	0.006261517
62	0x3b27a6d8	0.0025581624
63	0x3b676022	0.0035305102
64	0xbb9b1c31	-0.0047335853
65	0x3be77fc2	0.0070647905
66	0xbbe4b07b	-0.006979046
67	0x3c3e3d2f	0.011611267
68	0xbb9f48dc	-0.0048609804
69	0xbc121268	-0.008915521
70	0xbbf91255	-0.0076010623
71	0x3c37c485	0.0112162875
72	0x3c250fdc	0.010074582
73	0xbb052a98	-0.0020319577
74	0x39ae6147	0.00033260343
75	0xbc4f4857	-0.0126515245
76	0xbc40229c	-0.0117270015
77	0xbb98d93c	-0.004664568
78	0x3c78af72	0.015178548
79	0xbb15ad50	-0.0022838898
80	0xbb7904d3	-0.003799726
81	0xb7b8f7f4	-2.2049971e-05
82	0xbc0aacd2	-0.008464055
83	0x390b3f18	0.00013279577
84	0xbb0d226a	-0.0021535405
85	0x3b854edc	0.0040682387
86	0xb993d6c8	-0.0002819805
87	0x3c54a49c	0.012978699
88	0xbb977016	-0.004621516
89	0x3b7c8a2e	0.003853451
90	0x3b183006	0.0023221984
91	0x3c3887ae	0.011262817
92	0xbc4f8c11	-0.012667672
93	0x3a0bdaa5	0.000533501
94	0x3b948597	0.0045325267
95	0xbbda94ed	-0.0066705854
96	0xb84e5350	-4.9191818e-05
97	0x3c1b84ee	0.009492142
98	0x3bd40b43	0.006471069
99	0x3c644450	0.013932303
100	0x3c269381	0.010167004
101	0xbc007718	-0.007840894
102	0xbb825cb6	-0.003978337
103	0x3a39240f	0.0007062563
104	0x3c196146	0.009361571
105	0x3bcedb4a	0.0063127624
106	0x3bba3556	0.0056826277
107	0x3b0af922	0.0021205624
108	0x3c3474fd	0.01101422
109	0xbc30b334	-0.010784913
110	0x3be8b2b7	0.0071013826
111	0x3c34f73c	0.011045273
112	0x3af03e42	0.0018329101
113	0xbb8a870e	-0.0042275256
114	0x3c0fffa8	0.008788981
115	0x3bfca731	0.0077103605
116	0xbabb6cc4	-0.0014299382
117	0xbb507689	-0.0031808934
118	0x3b6dab3a	0.003626539
119	0x3b739af0	0.0037171207
120	0x3b06a40c	0.0020544557
121	0x3bdb46db	0.0066917962
122	0xb82bf7fe	-4.1000538e-05
123	0xbbb6e042	-0.005580933
124	0x3a4c03f5	0.0007782572
125	0x3cb1e398	0.02171497
126	0x3bba1224	0.005678432
127	0x3b90dce7	0.004420865

network_body.linear_encoder.seq_layers.0.weight f4 [128, 6]
0	0xbda1a9d3	-0.078937195
1	0xbda0ad2b	-0.07845529
2	0xbf4f150b	-0.80891484
3	0x3ecab96f	0.395946
4	0x3f04776f	0.5174474
5	0x3ea3240c	0.3186344
6	0xbf27963f	-0.6546363
7	0xbdc4d3e8	-0.096107304
8	0xbce59781	-0.028026344
9	0x3f191d22	0.5981008
10	0xbf460e63	-0.773657
11	0xbf42d4ca	-0.7610594
12	0x3efed2e3	0.4977027
13	0x3eae110d	0.33997384
14	0x3e9fad10	0.31186724
15	0x3e54243d	0.20716949
16	0xbecc9454	-0.39956915
17	0x3ea08f75	0.3135945
18	0xbf3f5bd0	-0.7474947
19	0xbf17e337	-0.5933108
20	0xbf52c81f	-0.8233661
21	0xbe0f9ecf	-0.14025424
22	0xbc63b414	-0.013897914
23	0x3eb3b4d6	0.35098904
24	0x3f2e1517	0.6800093
25	0x3de2133d	0.11038826
26	0x3dbe178c	0.09281835
27	0xbf28d0df	-0.6594371
28	0xbef27e96	-0.47362202
29	0xbe0b6a09	-0.13614668
30	0x3e8b5550	0.27213526
31	0x3f08f447	0.5349774
32	0x3eb9134a	0.3614753
33	0x3ea6f934	0.32612002
34	0x3cbfde08	0.023421302
35	0xbe33f3c8	-0.17573464
36	0x3f1492b2	0.5803634
37	0x3ef49481	0.4776955
38	0xbd307557	-0.043080654
39	0x3f58430c	0.84477305
40	0x3e02d265	0.12775572
41	0x3e148617	0.14504276
42	0x3d9179b5	0.07103292
43	0xbefe229d	-0.49635783
44	0x3e92988c	0.2863201
45	0xbeacee8b	-0.33775744
46	0xbee8063d	-0.4531726
47	0x3f89c1cf	1.0762271
48	0xbeb5bedd	-0.3549718
49	0xbdfe4d42	-0.124170795
50	0x3f2229e6	0.6334518
51	0x3e112a05	0.14176185
52	0x3ee46c3c	0.44613826
53	0x3b861580	0.0040919185
54	0xbe2e209e	-0.1700463
55	0xbea54cd4	-0.32285178
56	0x3eebd161	0.4605818
57	0xbd131c84	-0.035915866
58	0xbdad2c78	-0.08455747
59	0x3f8619cb	1.0476621
60	0x3e937958	0.28803515
61	0xbe88f868	-0.2675202
62	0x3e970ee3	0.29503545
63	0xbb403591	-0.0029328803
64	0xbd96c6f5	-0.07362167
65	0xbf2ddac9	-0.67911965
66	0x3e3a7b6b	0.18211143
67	0xbef78ed4	-0.48351157
68	0xbe80bf06	-0.2514574
69	0x3d57408d	0.052551795
70	0x3ecaf729	0.39641693
71	0x3d3620ab	0.04446475
72	0xbe973a0e	-0.2953648
73	0x3e3d3712	0.18478039
74	0xbdc5104e	-0.096222505
75	0xbd2dc763	-0.042426478
76	0xbe79785c	-0.2436232
77	0x3e24fb8f	0.16111587
78	0x3d1c2bf3	0.03812785
79	0x3eaa6c56	0.3328578
80	0x3e44c308	0.19215024
81	0x3eda8b76	0.42684525
82	0xbc981adc	-0.018567495
83	0x3ea5fae5	0.3241798
84	0x3e46a8fe	0.19400403
85	0xbe8014d4	-0.2501589
86	0x3dad34eb	0.08457359
87	0x3edfc90d	0.43708077
88	0xb983b662	-0.00025122153
89	0x3eeccd9d	0.4625062
90	0x3eb47564	0.35245812
91	0x3f3bbc8a	0.7333456
92	0xbf61160d	-0.8792427
93	0xbef48d81	-0.4776421
94	0xbe8b3b4b	-0.27193674
95	0x3ea83f34	0.3286072
96	0x3ec7fc91	0.3905988
97	0xbf513b6c	-0.81731296
98	0xbf192a24	-0.59829926
99	0x3e367629	0.17818512
100	0xbe371223	-0.17878012
101	0xbd85b7bf	-0.065291874
102	0x3eaa6bc6	0.3328535
103	0x3ece8a9e	0.40340132
104	0x3e6d71e5	0.23187979
105	0xbe3a3b35	-0.18186648
106	0xbf23b121	-0.6394215
107	0x3f16dabf	0.5892753
108	0xbd018a1a	-0.031625845
109	0xbec29262	-0.38002306
110	0xbe8afcbb	-0.27145943
111	0x3edfd7a4	0.43719208
112	0x3d123013	0.03569038
113	0x3ee4181c	0.44549644
114	0x3d29b708	0.041434318
115	0x3d99a356	0.07501857
116	0xbe57d778	-0.21078289
117	0x3f6ea5d8	0.9322181
118	0xbe1f28aa	-0.15542856
119	0xbe0c379a	-0.13693085
120	0xbea02404	-0.31277478
121	0xbd32e297	-0.043673124
122	0x3f174a58	0.59097815
123	0xbe9d3a79	-0.30708674
124	0x3e02eff7	0.12786852
125	0xbf2b5b9a	-0.6693665
126	0xbe6c91a3	-0.23102431
127	0xbdc87c21	-0.09789301
128	0xbf031952	-0.5121051
129	0x3f1b1d51	0.6059161
130	0xbdb874ba	-0.09006639
131	0x3f1159f8	0.56777906
132	0x3d7f7ef1	0.06237692
133	0x3e4596d4	0.19295818
134	0x3cba717d	0.022759194
135	0x3dcff8d3	0.10154881
136	0x3f02795a	0.5096642
137	0xbdbda1a0	-0.09259343
138	0x3ebce8d2	0.36896378
139	0x3e84c09d	0.25928202
140	0xbd36c3ea	-0.044620432
141	0x3e674608	0.22585309
142	0x3f493a07	0.7860417
143	0xbe4fc934	-0.20291597
144	0xbe8c2d4f	-0.27378318
145	0xbe5db2ac	-0.21650189
146	0x3eeac59d	0.45853892
147	0xbd9f7f73	-0.07787981
148	0xbf005262	-0.50125706
149	0x3e2a2e29	0.16619171
150	0x3ea65b24	0.3249141
151	0xbbf8c19b	-0.007591439
152	0x3eafb792	0.3431974
153	0xbf3fb577	-0.7488627
154	0x3b6b5533	0.0035908937
155	0x3e04ab8b	0.12956063
156	0x3e5486e6	0.20754585
157	0x3ef313e6	0.4747612
158	0xbeeba764	-0.46026146
159	0xbf288831	-0.6583281
160	0xbee1604b	-0.44018778
161	0xbe283405	-0.16426094
162	0xbeb53365	-0.35390773
163	0x3ef5850a	0.47953063
164	0xbec20b1b	-0.37899098
165	0xbc44dc0c	-0.012015354
166	0xbe815f66	-0.25268096
167	0xbe18169a	-0.14852372
168	0xbea2b684	-0.31779873
169	0xbdf28e8f	-0.11843597
170	0x3d8cad75	0.06869022
171	0x3afa4a2a	0.0019095589
172	0xbebc6361	-0.3679457
173	0x3eecc6a0	0.4624529
174	0xbce6daa7	-0.028180433
175	0x3ec498e1	0.38397887
176	0x3d5d4831	0.054023925
177	0xbed99234	-0.42494357
178	0x3ed20419	0.4101875
179	0xbd377644	-0.04479052
180	0xbef15db6	-0.47141808
181	0xbf71816a	-0.94338095
182	0xbcdcb51b	-0.026941827
183	0x3e8624c4	0.26199925
184	0xbefe0964	-0.4961654
185	0xbde21e5f	-0.11040949
186	0x3dd687b7	0.10475104
187	0x3ef35f1d	0.47533503
188	0x3f8bebc8	1.093133
189	0x3f43e7c9	0.7652555
190	0xbe4bf3c7	-0.19917212
191	0x3dd7dabe	0.10539769
192	0x3eb777f7	0.35833713
193	0x3ecf2f6c	0.40465868
194	0x3f0a6ede	0.5407542
195	0xbe9070d5	-0.28211084
196	0x3e7828e1	0.24234344
197	0x3d2cc4b2	0.04217977
198	0xbe610af4	-0.21976835
199	0xbee868d0	-0.45392466
200	0xbe79530c	-0.24348086
201	0x3e0ccdf6	0.13750443
202	0x3e018e6e	0.12651989
203	0xbe53a7a7	-0.20669423
204	0xbf6e8f85	-0.93187743
205	0x3ea16f48	0.31530213
206	0x3dc87844	0.09788564
207	0x3e5a7091	0.21332003
208	0x3ef042c5	0.4692594
209	0x3f8c32a5	1.0952955
210	0x3e37777d	0.17916675
211	0xbc15046a	-0.009095291
212	0xbf2a93d4	-0.6663182
213	0x3edd6c0a	0.4324649
214	0x3e01fd11	0.12694193
215	0x3e831311	0.25600484
216	0xbf12dacf	-0.57365125
217	0x3f3da5db	0.740812
218	0xbf4c13ce	-0.7971772
219	0xbdcd899c	-0.100360125
220	0xbeea291d	-0.45734492
221	0x3ea6cff4	0.3258053
222	0xbce4e8f2	-0.027943108
223	0x3e896df7	0.2684171
224	0x3f1b660e	0.607026
225	0xbea207be	-0.31646532
226	0xbe5ced34	-0.21574861
227	0xbf95af98	-1.1694212
228	0x3f21803e	0.6308631
229	0x3e19ac3d	0.1500711
230	0x3f190de3	0.59786814
231	0xbf022654	-0.50839734
232	0xbf1e7069	-0.61890274
233	0x3df281ce	0.118411645
234	0xbe84869a	-0.25883943
235	0x3e332ef8	0.17498386
236	0xbe99bf9e	-0.30029005
237	0xbf0e759f	-0.55648226
238	0xbf157920	-0.5838795
239	0xbdc7734d	-0.09738789
240	0x3dccd2dc	0.10001156
241	0xbdef7219	-0.11691684
242	0xbe70160e	-0.23445913
243	0xbf2e1881	-0.6800614
244	0xbe1b1ffa	-0.15148917
245	0x3b85863f	0.0040748413
246	0x3e342512	0.17592266
247	0xbeadf99e	-0.33979505
248	0x3dbe24cc	0.09284362
249	0x3e7bdc88	0.24595845
250	0xbea96d98	-0.33091426
251	0x3c5b19fc	0.013372894
252	0x3ea6b6b4	0.32561266
253	0xbf3fec1e	-0.7496966
254	0xbef0aa08	-0.47004724
255	0x3d84401a	0.06457539

network_body.linear_encoder.seq_layers.2.bias f4 [128]
0	0xbbc053f1	-0.0058693816
1	0xbba53898	-0.005042147
2	0x3a168c45	0.00057429477
3	0x3b753971	0.003741827
4	0x3b9a4487	0.004707876
5	0xbc4f63e5	-0.012658094
6	0xbbe91077	-0.0071125585
7	0x3b054b3d	0.0020339035
8	0xbbc14703	-0.005898358
9	0xbbbbd8aa	-0.0057326155
10	0x3a9f079f	0.0012133009
11	0xbc225cb1	-0.009909795
12	0x3c204600	0.009782314
13	0x3a0f06f8	0.00054560555
14	0x3bab39a5	0.0052253776
15	0xbbafa802	-0.0053606043
16	0xbb9e9025	-0.0048389607
17	0xbb93e47a	-0.0045133205
18	0xbbbe2f04	-0.0058039445
19	0x3c29e93b	0.010370548
20	0x3b60e01e	0.0034313272
21	0xbba5f785	-0.005064907
22	0x3bac0e9d	0.0052507655
23	0x3c0445ce	0.008073283
24	0xbb690ecf	-0.0035561805
25	0x3c7b624a	0.015343258
26	0xbc03ee0d	-0.008052361
27	0xbb64a112	-0.0034886044
28	0x3c3e7081	0.011623503
29	0xbb80babc	-0.0039285105
30	0x3be04459	0.006844085
31	0xbc10933e	-0.008824168
32	0x3c4996a4	0.012303982
33	0x3c04c079	0.00810253
34	0x3b20ff98	0.0024566408
35	0xbc324840	-0.010881484
36	0x3c459bd6	0.01206108
37	0xbc3f64f2	-0.011681782
38	0x3bb3b171	0.005483799
39	0xba9d4852	-0.0011999703
40	0x3c1d90dc	0.009617057
41	0x3bf1ce86	0.007379356
42	0x3b2fc8d5	0.0026822586
43	0x39c7cc87	0.00038108623
44	0xbc131ff2	-0.008979784
45	0xbb83071f	-0.0039986516
46	0x3c097965	0.008390759
47	0x3b983c62	0.00464587
48	0x3b84f39b	0.0040573603
49	0xbbf0c4ed	-0.007347694
50	0xbb25e5c5	-0.0025313955
51	0x3b9a6335	0.0047115334
52	0xbb9e9f1e	-0.0048407456
53	0x3c1ab68f	0.009442939
54	0x3bc1eb85	0.0059179687
55	0x3b8ad891	0.0042372425
56	0x3b26f05f	0.0025472862
57	0xbb932bec	-0.00449132
58	0x3b28514f	0.002568323
59	0xb8d9c529	-0.0001038409
60	0x3b2f17a7	0.0026716979
61	0x3c16a425	0.009194409
62	0xbb7a7e05	-0.0038222086
63	0x3a721286	0.00092343276
64	0x3ba0b4e8	0.004904378
65	0xbb9afec1	-0.004730076
66	0x3abe41fb	0.0014515513
67	0x3c0b12a2	0.008488329
68	0x3bf4ce97	0.0074709165
69	0xbaaf73ec	-0.0013385988
70	0x3a546382	0.0008101986
71	0xbb65f05b	-0.003508589
72	0x3b978688	0.0046241917
73	0xbc3d7269	-0.011562922
74	0x3b907eb4	0.0044096354
75	0x3b388fb3	0.0028161823
76	0xba94aa5a	-0.0011342273
77	0x3b592bda	0.003313771
78	0x3b947ff9	0.004531857
79	0x3c0c8296	0.008576056
80	0x3c27c9a6	0.010240948
81	0x3a9d9120	0.00120214
82	0xbb614492	-0.0034373146
83	0xbb1979cb	-0.0023418542
84	0x3acc67b6	0.0015594873
85	0x3c09f939	0.008421236
86	0x3a2d8083	0.0006618576
87	0x3b324cb0	0.0027206354
88	0x3c7ed329	0.015553274
89	0xba06519f	-0.0005123857
90	0xbb836aec	-0.004010549
91	0xbbf129e9	-0.0073597324
92	0xbab1352f	-0.0013519878
93	0xbc162709	-0.00916458
94	0x3b9b64a8	0.004742224
95	0x3b45fc78	0.0030210298
96	0x3b5196ff	0.003198087
97	0x3b7c93c6	0.0038540228
98	0x3bfd2be6	0.0077261804
99	0x3b0da4b3	0.002161306
100	0x3b2ad14a	0.0026064687
101	0x3c09bf18	0.008407377
102	0x3c8a0fe7	0.016853286
103	0x3a82c168	0.0009975852
104	0xbb8a4c33	-0.0042205094
105	0x3b5b8773	0.0033497482
106	0x3b03f2bd	0.0020133697
107	0x3ba12f55	0.0049189725
108	0xbb26df84	-0.0025462816
109	0xbbf6e2d8	-0.007534366
110	0xbbf41ab1	-0.007449471
111	0x3b88241f	0.0041546966
112	0x3bfd8a10	0.0077374056
113	0x3c7a7766	0.015287256
114	0x39eee077	0.00045562137
115	0xbc389401	-0.011265756
116	0x3c3ed4a0	0.011647373
117	0xbb30085c	-0.0026860451
118	0xbbf0733d	-0.007337956
119	0x3b2e0a3b	0.002655639
120	0x3bec11a0	0.0072042495
121	0x3962cfa6	0.00021630395
122	0xbbf9d086	-0.007623735
123	0x3bd187da	0.0063943686
124	0xbba259dd	-0.00495456
125	0xbc058bb3	-0.008150983
126	0x3c4d2244	0.012520377
127	0xbb8c82f9	-0.004288074

network_body.linear_encoder.seq_layers.2.weight f4 [128, 128]
0	0x3d6e0526	0.05811038
1	0x3d640a8d	0.055674125
2	0xbdda0b72	-0.10646714
3	0xbe3d907f	-0.18512152
4	0x3df39bd1	0.11894954
5	0x3d4de5af	0.05026787
6	0xbd1c4dcc	-0.03816013
7	0x3ce2956a	0.027659137
8	0xbd0aff21	-0.033934716
9	0xbdec8f21	-0.11550737
10	0xbdfda087	-0.12384134
11	0xbda42651	-0.08015121
12	0xbd68924b	-0.05678014
13	0x3cd8ea78	0.02647899
14	0x3d618766	0.055060767
15	0xbb1101a8	-0.0022126231
16	0xbe022d05	-0.12712486
17	0x3d9d4372	0.0767888
18	0xbd2a9850	-0.041649163
19	0x3cacc4ef	0.021089999
20	0xbd75285b	-0.05985294
21	0x3e2c7bc5	0.1684409
22	0x3e0f07ca	0.13967815
23	0xbd4b9896	-0.049706064
24	0x3d65bc72	0.05608792
25	0x3db7af35	0.08968965
26	0x3e4a4bfb	0.19755547
27	0xbc6e5fba	-0.01454919
28	0xbe31a1b0	-0.17346835
29	0xbc4eb391	-0.012616054
30	0xbc8ee360	-0.017442405
31	0x3cc8befa	0.024505127
32	0x3c846e96	0.016166013
33	0xbd2c5ac1	-0.042078737
34	0xbcba999c	-0.022778325
35	0x3ad583aa	0.0016289849
36	0xbd3a43a6	-0.04547467
37	0x3d60a54e	0.054845147
38	0x3d908693	0.07056918
39	0x3d7b49ed	0.061349798
40	0xbdc65927	-0.09684973
41	0x3d8217f2	0.063522235
42	0x3d10c799	0.0353466
43	0x3d9e99e2	0.077441946
44	0xbc1c6fb3	-0.009548116
45	0x3e47af07	0.19500361
46	0xb9eecf19	-0.00045549197
47	0x3cabffd8	0.02099602
48	0x3da9561e	0.08268379
49	0x3d0d23e6	0.034458064
50	0x3d5080d4	0.05090411
51	0x3da3005b	0.07959052
52	0x3abe973f	0.0014540924
53	0x3d9882c4	0.074468166
54	0x3d59ef79	0.053206895
55	0xbda0a5c2	-0.07844116
56	0xbbc6d2ba	-0.006067601
57	0x3d30456e	0.043034963
58	0x3d0f93cc	0.03505306
59	0x3d19dace	0.037562184
60	0x3d09812a	0.033570446
61	0x3e66d27f	0.22541235
62	0x3c9ded76	0.01927827
63	0xbde70483	-0.112801574
64	0xbca0c7af	-0.019626467
65	0xbce6b245	-0.028161177
66	0xbe054b06	-0.130169
67	0xbc9ec006	-0.019378673
68	0x3e6baca6	0.23015079
69	0xbb7717be	-0.003770336
70	0xbd2eb176	-0.04264971
71	0x3d0d0e58	0.034437507
72	0x3d52979f	0.05141413
73	0xbd329d6a	-0.043607153
74	0xbd8d3893	-0.06895556
75	0xbdd5d768	-0.10441476
76	0x3e0ecd48	0.13945496
77	0xbd113ad3	-0.03545649
78	0xbd1fd509	-0.039021526
79	0xbe1c1d50	-0.15245557
80	0x3b2fecf2	0.0026844111
81	0x3dcaa33d	0.098944165
82	0xbdb63229	-0.08896286
83	0x3d6af4ae	0.05736225
84	0x3d0bbdca	0.034116544
85	0x3e45c95c	0.19315094
86	0x3c381bfe	0.011237143
87	0x381dbc17	3.760689e-05
88	0x3d0539df	0.032525893
89	0xbda32166	-0.079653546
90	0xbd84e4cb	-0.06488951
91	0x3e37ebbd	0.17961021
92	0x3d23256c	0.03983061
93	0xbd381193	-0.044938635
94	0x3d05841b	0.03259669
95	0xbd92ff09	-0.0717755
96	0x3e40fbc2	0.18846038
97	0xbcd3dff2	-0.025863621
98	0xbb519524	-0.0031979764
99	0xbe247c3b	-0.16063015
100	0xbe1f67e3	-0.15566973
101	0x3e3719f9	0.17881002
102	0x3d595fe0	0.05306995
103	0x3de37aa2	0.11107375
104	0x3dc85a6f	0.09782874
105	0x3d05a89f	0.032631513
106	0xbd95f6c3	-0.07322457
107	0xbce71182	-0.02820659
108	0xbdb370c9	-0.087617464
109	0xbb56513d	-0.003270223
110	0xbc22fc9a	-0.00994792
111	0xbc4dbbbd	-0.012556967
112	0x3d98e9f1	0.07466496
113	0xbc2e0ae6	-0.010622716
114	0x3c06dd83	0.008231523
115	0xbcf99a71	-0.030469151
116	0x3d043787	0.032279518
117	0x3e09ff72	0.13476351
118	0x3d903576	0.07041447
119	0xbcb34217	-0.0218821
120	0x3d2000f1	0.039063398
121	0xbcf29155	-0.029610315
122	0xbd2bab9e	-0.041911714
123	0x3d98a200	0.07452774
124	0xbc0b9552	-0.008519487
125	0x3d256127	0.040375855
126	0x3dc3ed4f	0.095667474
127	0xbd9c83bd	-0.076423146
128	0x3cda6e0a	0.026663799
129	0xbdb47b62	-0.08812596
130	0xbd7657ef	-0.060142454
131	0x3dbd22f4	0.092351824
132	0x3cf6e724	0.030139513
133	0xbd8b7c66	-0.068108365
134	0xbd3e9ff2	-0.046539254
135	0x3d186b68	0.037211806
136	0xbc038cd4	-0.0080291815
137	0xbb266b6f	-0.0025393625
138	0x3d0da421	0.034580354
139	0xbdb7a0aa	-0.08966191
140	0x3e4c8e20	0.19976091
141	0x3caf29b9	0.0213822
142	0x3d4c7d8c	0.04992442
143	0xbd74d4d6	-0.05977329
144	0x3da82499	0.082101054
145	0xbc21f9e3	-0.009886238
146	0x3e0da975	0.13834174
147	0xbcb8250a	-0.0224786
148	0x3e11571f	0.1419339
149	0x3d99c2e8	0.075078785
150	0xbd169d3e	-0.03677105
151	0x3ca13913	0.019680535
152	0xbb5af194	-0.0033408152
153	0xbd62ba2d	-0.055353332
154	0xbd89f29b	-0.067357264
155	0x3dd6d567	0.10489922
156	0x3df94907	0.12172132
157	0xbcf427bd	-0.029804105
158	0x3d6b3f2d	0.057433296
159	0xbb47a48b	-0.0030463065
160	0xbc205e03	-0.009788039
161	0x3dcf5236	0.10123102
162	0xbe25f1e6	-0.16205558
163	0xbe016d54	-0.12639362
164	0xbd8fbcda	-0.070184425
165	0xbc6caa2b	-0.014444868
166	0xbe1684d5	-0.14699109
167	0x3c8b2729	0.016986446
168	0x3c805ddc	0.015669756
169	0x3dba07cb	0.09083518
170	0xbc83480d	-0.016025567
171	0xbdd68b98	-0.10475844
172	0x3d26128b	0.040545028
173	0xbc0c3982	-0.008558633
174	0x3dab5616	0.08366029
175	0x3d7b721c	0.06138812
176	0x3e05c074	0.13061696
177	0x3e16e925	0.14737375
178	0xbe0b9845	-0.13632305
179	0xbd99d291	-0.075108655
180	0xbc79cdac	-0.01524679
181	0xbbd17c42	-0.0063929865
182	0xbd845fd3	-0.064635895
183	0xbe1e7dea	-0.1547772
184	0x3de70dc0	0.112819195
185	0xbd22fc30	-0.039791286
186	0xbcb658f4	-0.022259213
187	0x3da22afe	0.07918356
188	0x3e18a73e	0.14907548
189	0x3aa3f459	0.0012508734
190	0x3ddcec8b	0.107873045
191	0x3c97a1ac	0.018509708
192	0x3d4b6d3c	0.04966472
193	0xbdc0a7fc	-0.094070405
194	0x3c15b23d	0.009136734
195	0x3da3e912	0.08003439
196	0xbdd3e2c5	-0.10345987
197	0x3d2c21bc	0.04202436
198	0xbd533467	-0.051563647
199	0x3d32d391	0.043658797
200	0x3db2fa26	0.08739118
201	0xbdcdba66	-0.10045318
202	0x3d5939fa	0.053033806
203	0x3d82e426	0.06391172
204	0x3bb93e59	0.0056531844
205	0x3dc8c1d9	0.098025985
206	0xbb75518a	-0.0037432634
207	0xbd5379de	-0.051629893
208	0xbde306fe	-0.11085318
209	0x3e10a884	0.14126784
210	0x3e004d3c	0.12529463
211	0xbba68dbe	-0.005082815
212	0x3d63e1e2	0.05563534
213	0xbde8c101	-0.113649376
214	0xbdf71b7c	-0.12065789
215	0xb9d55b9e	-0.00040694786
216	0xbddf325f	-0.108982794
217	0x3dd6c47a	0.10486694
218	0xbdff11c8	-0.124545634
219	0x3d2aeba3	0.041728627
220	0x3d14e234	0.036348537
221	0xbd91ea0e	-0.071247205
222	0xbc28f73f	-0.010312854
223	0xbdd43057	-0.103607826
224	0x3e2c0d35	0.16801913
225	0xbda7a794	-0.0818626
226	0xbe040461	-0.12892295
227	0xbd408e69	-0.047010813
228	0xbb67373c	-0.0035280725
229	0x3e3cffa8	0.184569
230	0x3c890bfe	0.016729351
231	0x3dbc7c67	0.09203415
232	0xbcde36f0	-0.027125806
233	0x3d37186a	0.044701017
234	0x3ca6d306	0.020364296
235	0x3d6e8b40	0.058238268
236	0xbe44395b	-0.19162504
237	0x3dde274a	0.108473375
238	0x3dde5d2a	0.108576134
239	0xbdcba474	-0.09943476
240	0x3db23639	0.087017484
241	0x3d85e251	0.06537307
242	0xbd7301d8	-0.05932793
243	0x3cdc582c	0.026897512
244	0xbdb5ff13	-0.08886542
245	0xbdba3218	-0.09091586
246	0xbde510a9	-0.11184818
247	0x3db5df68	0.08880502
248	0x3dca41e0	0.09875846
249	0xbda5f31a	-0.081030086
250	0xbd58950e	-0.052876525
251	0xbd9633b6	-0.07334082
252	0xbc8d5ec2	-0.017257098
253	0x3caf165e	0.02137297
254	0xbd57418d	-0.05255275
255	0xbdf14646	-0.11780982
