results/test1/HitTheBall.onnx (onnx, 74062 bytes, 8 tensors)

action_model._continuous_distribution.log_sigma f4 [1, 2]
00000000: 0000 0000 0000 0000
0.0 0.0

action_model._continuous_distribution.mu.bias f4 [2]
00000000: 0000 0000 0000 0000
0.0 0.0

action_model._continuous_distribution.mu.weight f4 [2, 128]
00000000: e3db d3bc 48ab d03c 1986 9cbc 0272 f23c
00000010: 2446 c9bb c283 493c 8f30 8ebc 6795 2abc
00000020: a080 e83c 9c54 b1ba f76e 65bc a78f 043d
00000030: dc2f a33c 5cf9 833c 1f28 86bc 4d6b 443b
00000040: ba50 3f3c 1793 27bb 31e4 03bd 968a cabc
00000050: 9330 3b3c 227f a23c f107 b03c 7396 853c
00000060: ff89 a0bb 401e 223c b809 bebb 9f08 3ebb
00000070: 582c 8fbc 9597 533c d572 d2bc d362 f9bb
00000080: 1f6d acba a3be f3bb dc1d 46bc 67e0 353c
00000090: 075c 303b 5fa3 cebb ef8b 28bc 899c 973b
000000a0: 06ed a1bb 84a4 b83b 7ae8 06bc dd82 3abc
000000b0: 38a5 0fbb 6fec 9d3c d822 3abb 3bbe 81bc
000000c0: 6272 b73c 2357 db39 e847 303d 835e cb3c
000000d0: 13dc 563c e749 e73c 065f 8bbb f4a3 29bc
000000e0: 6bdc a3bb 04be 13bc bfd0 cbbc 7584 0e3c
000000f0: 62bc fbbb d200 d2bb b0ae b43c 9158 95bc
00000100: 90a9 cf3b 08b9 2cbd 6391 2bbc d709 b63c
00000110: b18e 2fbb 03ed e8bb a132 45bc 8ab4 60bc
00000120: 48a6 b73a e060 d5bb 0879 08bc 9804 593a
00000130: 7fdc fc3c d2ad 5b3c 23cc 013c 5f04 d3bb
00000140: 6bf9 ef3c 8166 943c e7bf 063d 1712 8f3c
00000150: 06ac 85bb 783a 4d3d bdaf 61bd d04a ba3c
00000160: e54d e43c 4494 c6bc ec96 963b dfff e2bb
00000170: 6a32 febc 5cfc 233c 6f9e 8b3c 8663 9d3c
00000180: 38e8 55b9 e88c 10bd 471a 24bc 08e3 e8bb
00000190: 932f 0a3c 8308 9e3b 982b 5bbc 59e5 88bc
000001a0: 1b0a fcbc 64c6 1fbc c204 003c 3ddb 09bc
000001b0: 6091 db3b b28b 8b3c 31c0 2abb e1d6 2dbc
000001c0: 7823 d93c 3323 643c 7327 51b9 ac46 94bc
000001d0: f0f6 093a 2fa6 983c de43 2f3c c851 af3c
000001e0: 3717 99bc 3b2d bb3b dbf7 abbb 732b 9abb
000001f0: 5d1b 4fba c4bd 3f3c 9ab5 f4bb 02c1 e23c
00000200: fa21 bfbc 63da 79bc f58f 12bc a7b2 5cbc
00000210: 42d4 32bb 533c db3c f732 c83b 4aed 9a3b
00000220: 7cf2 29bc a13d 8ebb 2707 c5ba 12c4 e4ba
00000230: 321f 693c 77c5 d33b 5794 763c 117b 80bc
00000240: f03f 563c b97f 22bc 19d0 09bd 3749 66bb
00000250: 97ee cb3b 5b13 a43c 3b54 a53b 9330 1c3c
00000260: ec5e 3e3c 13b4 3dbc dabf 7d3c 93bd 98bc
00000270: 0ff2 0cbc f855 da3b 96d2 973c 2539 02bc
00000280: 28f7 243d 4315 89bb 0550 efbc 4eae 433c
00000290: f56d 903b e8da bf3b 78ff cd3b a05d 9abc
000002a0: aeb3 8d3c 6f08 8f3c 32d4 01bc eaea 563a
000002b0: 3c78 83bc 2f23 b5bc 96b9 a5bb 7a62 fa3c
000002c0: ca61 1038 72e0 b63a d7a4 6abc 7dbb 6fbc
000002d0: 40d3 e73b 4aa3 b7bc 72d8 20bc bd2a e43b
000002e0: 9e1c a9bc 197c a4bc 0f55 c2ba d2d6 503b
000002f0: d1ac cb3c fbf1 32bd 1d72 1bbc 4d2d b9bb
00000300: 5851 76bc 5cb0 c039 ef52 4abc ef78 8fbc
00000310: 0249 0fbb 2899 993c 5918 93bb 4865 db3c
00000320: 4704 82bb 3aeb d43c 7ed2 80bc e781 f1bb
00000330: 8e55 b33b 200b 6bbb 80be 0f3c 2284 533c
00000340: 352d 813c b6d5 063d 1b3c dfbc 1d6f 57bc
00000350: ceab abb9 6b63 a6bc 7010 db3c 1328 403b
00000360: dc81 163c eace a13c 96cc 883c 074b f9bb
00000370: 6a6b cdbc 4b13 c83b 5bb8 f6bc 074d 37b9
00000380: 1f82 193b b0b0 69ba dde9 0b3c d0f5 60bc
00000390: 23d9 22bc 8ffd 1bbc 7bbc 6ebc 2fce a93b
000003a0: bbf0 4e3b ba0c 3e3a 0006 fbbb 620c 62bc
000003b0: 0693 3e3c dd70 68ba 3555 523c 43d7 22bc
000003c0: f9ca 98bb 51cb c4bc 4ee7 afbb 84c2 b13b
000003d0: 4681 c1bb 53c3 fcbb d791 c5bc a96c 92bc
000003e0: 51cf 863c 432d 423c d072 62bc 9500 dfbc
000003f0: 83db 2eba e51c b3bc ee54 b4bc 47ff 8dbc
-0.025861686 0.025472298 -0.019106911 0.029595379 -0.0061423946 0.01229948 -0.017357139 -0.010411597
0.028381646 -0.0013529244 -0.014003507 0.03236356 0.019920282 0.016110115 -0.016376553 0.0029971183
0.011676962 -0.002556985 -0.032200042 -0.024724286 0.011425155 0.019836012 0.021488162 0.016307091
-0.004899263 0.0098949075 -0.0057994984 -0.0028996838 -0.0174772 0.012914558 -0.025689522 -0.0076106577
-0.0013155079 -0.007438497 -0.01209208 0.011100865 0.0026910321 -0.0063060964 -0.010287269 0.0046268147
-0.0049415855 0.005634846 -0.008234138 -0.011383739 -0.0021918546 0.01927778 -0.0028402116 -0.01583778
0.02239341 0.00041835857 0.043037325 0.02482534 0.013113993 0.028233482 -0.004253271 -0.010354031
-0.005000641 -0.009017471 -0.024879811 0.008698572 -0.007682369 -0.006408789 0.022055954 -0.018230708
0.006337352 -0.042168647 -0.010471675 0.022221489 -0.0026787932 -0.007108332 -0.012035997 -0.013714919
0.0014011348 -0.0065117925 -0.008329637 0.00082785776 0.03086686 0.013408141 0.007922205 -0.00643973
0.029293736 0.018115284 0.032897856 0.01746468 -0.0040793447 0.05010459 -0.055099238 0.022740752
0.027869174 -0.02424062 0.004595628 -0.006927475 -0.031029899 0.010008898 0.01704332 0.019212496
-0.00020399771 -0.03529063 -0.010016031 -0.0071071424 0.008434194 0.004822792 -0.013377093 -0.016710924
-0.030766537 -0.00975189 0.007813634 -0.008414087 0.0067006797 0.017034385 -0.0026054496 -0.010610313
0.02650617 0.013924408 -0.00019946489 -0.018100105 0.0005262932 0.01863393 0.010697333 0.021401301
-0.018687828 0.005712179 -0.0052480525 -0.0047048866 -0.0007900501 0.0117029585 -0.0074679377 0.027679924
-0.023331631 -0.015249821 -0.008945455 -0.013470328 -0.002728716 0.026762163 0.006109591 0.004727994
-0.010372754 -0.004340843 -0.0015032039 -0.0017453453 0.014228629 0.0064627486 0.015050015 -0.015683683
0.013076767 -0.009918147 -0.033645723 -0.0035138854 0.0062235105 0.02002876 0.0050454414 0.009533065
0.011619311 -0.011578578 0.0154876355 -0.018645084 -0.008602633 0.0066630803 0.018533032 -0.007948195
0.04027477 -0.004183443 -0.029212961 0.011943413 0.004407639 0.005854953 0.0062865578 -0.018843472
0.017297592 0.017460076 -0.007924126 0.0008198457 -0.016048543 -0.022111503 -0.005057524 0.030564535
3.442335e-05 0.0013952388 -0.014321527 -0.014632103 0.0070747435 -0.02241673 -0.00981723 0.0069631026
-0.020643529 -0.020078706 -0.0014826375 0.0031866324 0.024862679 -0.0436878 -0.009487656 -0.005651152
-0.015034042 0.00036752492 -0.0123488745 -0.01751372 -0.0021863584 0.018749788 -0.0044889865 0.026781693
-0.003967795 0.025991071 -0.01572537 -0.007370222 0.0054728454 -0.0035864785 0.008773446 0.012909921
0.015768627 0.032918654 -0.02725034 -0.01314905 -0.00032743666 -0.020311078 0.026741236 0.002932076
0.009186234 0.019751985 0.016699117 -0.007607821 -0.025075633 0.0061058155 -0.030117204 -0.00017480935
0.0023423505 -0.0008914573 0.008539644 -0.013730481 -0.009939465 -0.009520902 -0.014571304 0.0051820497
0.0031576592 0.0007249821 -0.0076606274 -0.013796898 0.011631733 -0.00088669156 0.012837698 -0.009939018
-0.004662868 -0.02402273 -0.00536815 0.0054247994 -0.005905303 -0.007713714 -0.024117393 -0.017874079
0.016456278 0.011851612 -0.013821319 -0.027221957 -0.0006670283 -0.021864364 -0.022013154 -0.01733364

action_model._discrete_distribution.branches.0.weight f4 [1, 128]
00000000: 62c1 373c 579e aabb 5480 07bc 5f48 a73b
00000010: 4524 4abb 2514 043b 271c ed3b 9df3 2d3a
00000020: cbda bd3b d093 3e3c ef8b 6c3a 426f 0a3c
00000030: 0454 17bb 7171 123c 09b9 3c3b a7c0 033c
00000040: 9dea e1ba 83bb 09ba 0ae0 f4bb 4af6 11bb
00000050: e47c 46ba 7379 b83b dfb1 f6bb f3b3 21bc
00000060: 05a7 5c3b 84db babc 43e8 123c fbdd 58bb
00000070: f314 5039 c3c0 b5bb b7aa c13b b04b 9339
00000080: 2338 52ba c248 ffba ab53 65bc 876a b53c
00000090: f66f 303c 402e 1f3b 4399 75bc af13 53ba
000000a0: 56be 413c e643 183c aaf9 e03b c565 2c3c
000000b0: d22c 2d3c ea0e bfba bb52 c33a 4a9d 543b
000000c0: 2194 8dbb 4bcc 843a b04d c63b cb0f 633c
000000d0: c331 84bb df66 0bba 04a8 36bc 46b0 41bc
000000e0: c0a1 3abc f95f 93bc 5df4 b6ba 4abe 8db8
000000f0: 7b48 69bc 7cf7 bd3a 97d9 38bc 711c 82ba
00000100: 08b5 88bc abdd fd3b 1cdc 013b 34ef 1b3b
00000110: d509 263c a323 4ebc 83ae 19bb ef02 553c
00000120: 60b2 083c 3f00 88b9 f09a 2ebb af2f ac3b
00000130: 9147 1bbc a9b7 213b c0da b73a 537c 09bc
00000140: 482f 4bbc b8d0 d4ba 218b c03c 7de5 643c
00000150: 783a 483c f56c c6bc 07b1 9ebb cb03 45bc
00000160: b8db 3b3b ee38 86bc 3571 1bba 1d9e 4a3a
00000170: 8055 5e3c fbfb 0c3c 8273 d03b c7c3 febb
00000180: 77d5 d8bb 5bd0 75bb bbc6 18bb ad66 62bc
00000190: e3a5 4cba d479 0b3b 672e 08bc c784 b83b
000001a0: 013f 803b 40fe cd3b a3b7 0bbc ed4b 16bc
000001b0: c22d bdb9 9f2a 063c 3040 f4bb 3a60 d8bb
000001c0: 9b61 82bc ada3 27bc a7ed 72bb 71a7 13bc
000001d0: e279 633c 388d 99bb 3329 fa3b 1a93 953b
000001e0: 37c8 b0bb 130d c23b 8ea1 a8bb 2bf2 75bc
000001f0: 138f 2bbb 8a01 e7ba e9b8 9737 2255 c43b
0.01121554 -0.005206864 -0.008270342 0.005105063 -0.0030844372 0.0020153609 0.007236022 0.00066357275
0.0057939044 0.011631921 0.0009023537 0.0084493775 -0.0023090849 0.008938179 0.0028796813 0.008041537
-0.0017236058 -0.00052540767 -0.0074729966 -0.0022272044 -0.0007571711 0.0056297123 -0.007528528 -0.009869563
0.0033668887 -0.022809751 0.008966508 -0.0033091295 0.0001984423 -0.0055466606 0.0059102434 0.00028094416
-0.0008019229 -0.001947664 -0.013996999 0.022145523 0.010768881 0.0024289042 -0.014990154 -0.00080519443
0.011825165 0.009293532 0.0068657 0.010522311 0.010569768 -0.0014576588 0.0014901975 0.0032442384
-0.004320637 0.0010131685 0.0060517415 0.013858746 -0.0040342524 -0.0005317758 -0.0111484565 -0.011821812
-0.011391103 -0.0179901 -0.0013958324 -6.758848e-05 -0.014238472 0.0014493312 -0.011282346 -0.0009926689
-0.016687885 0.007747372 0.0019815033 0.00237937 0.01013418 -0.012581739 -0.0023449964 0.013001188
0.008343309 -0.00025940125 -0.0026642643 0.0052547078 -0.009477512 0.002467612 0.0014026985 -0.008391458
-0.012401409 -0.001623652 0.023503842 0.01397073 0.012220971 -0.024221877 -0.0048428806 -0.01202483
0.0028664898 -0.016384568 -0.000592965 0.0007729249 0.0135701895 0.008604999 0.006361426 -0.0077748033
-0.006617244 -0.0037508223 -0.0023311812 -0.013818425 -0.00078067015 0.0021282332 -0.008311844 0.0056310627
0.0039137607 0.0062864125 -0.008527669 -0.009173376 -0.0003608298 0.008188873 -0.007453941 -0.006603268
-0.015915683 -0.010231894 -0.0037067921 -0.009012089 0.01388404 -0.004686024 0.007634306 0.004564655
-0.005394961 0.0059219687 -0.005146212 -0.015011351 -0.0026177808 -0.001762436 1.8086708e-05 0.005991594

network_body.linear_encoder.seq_layers.0.bias f4 [128]
00000000: 0000 0000 0000 0000 0000 0000 0000 0000
00000010: 0000 0000 0000 0000 0000 0000 0000 0000
00000020: 0000 0000 0000 0000 0000 0000 0000 0000
00000030: 0000 0000 0000 0000 0000 0000 0000 0000
00000040: 0000 0000 0000 0000 0000 0000 0000 0000
00000050: 0000 0000 0000 0000 0000 0000 0000 0000
00000060: 0000 0000 0000 0000 0000 0000 0000 0000
00000070: 0000 0000 0000 0000 0000 0000 0000 0000
00000080: 0000 0000 0000 0000 0000 0000 0000 0000
00000090: 0000 0000 0000 0000 0000 0000 0000 0000
000000a0: 0000 0000 0000 0000 0000 0000 0000 0000
000000b0: 0000 0000 0000 0000 0000 0000 0000 0000
000000c0: 0000 0000 0000 0000 0000 0000 0000 0000
000000d0: 0000 0000 0000 0000 0000 0000 0000 0000
000000e0: 0000 0000 0000 0000 0000 0000 0000 0000
000000f0: 0000 0000 0000 0000 0000 0000 0000 0000
00000100: 0000 0000 0000 0000 0000 0000 0000 0000
00000110: 0000 0000 0000 0000 0000 0000 0000 0000
00000120: 0000 0000 0000 0000 0000 0000 0000 0000
00000130: 0000 0000 0000 0000 0000 0000 0000 0000
00000140: 0000 0000 0000 0000 0000 0000 0000 0000
00000150: 0000 0000 0000 0000 0000 0000 0000 0000
00000160: 0000 0000 0000 0000 0000 0000 0000 0000
00000170: 0000 0000 0000 0000 0000 0000 0000 0000
00000180: 0000 0000 0000 0000 0000 0000 0000 0000
00000190: 0000 0000 0000 0000 0000 0000 0000 0000
000001a0: 0000 0000 0000 0000 0000 0000 0000 0000
000001b0: 0000 0000 0000 0000 0000 0000 0000 0000
000001c0: 0000 0000 0000 0000 0000 0000 0000 0000
000001d0: 0000 0000 0000 0000 0000 0000 0000 0000
000001e0: 0000 0000 0000 0000 0000 0000 0000 0000
000001f0: 0000 0000 0000 0000 0000 0000 0000 0000
0.0 0.0 0.0 0.0 0.0 0.0 0.0 0.0
0.0 0.0 0.0 0.0 0.0 0.0 0.0 0.0
0.0 0.0 0.0 0.0 0.0 0.0 0.0 0.0
0.0 0.0 0.0 0.0 0.0 0.0 0.0 0.0
0.0 0.0 0.0 0.0 0.0 0.0 0.0 0.0
0.0 0.0 0.0 0.0 0.0 0.0 0.0 0.0
0.0 0.0 0.0 0.0 0.0 0.0 0.0 0.0
0.0 0.0 0.0 0.0 0.0 0.0 0.0 0.0
0.0 0.0 0.0 0.0 0.0 0.0 0.0 0.0
0.0 0.0 0.0 0.0 0.0 0.0 0.0 0.0
0.0 0.0 0.0 0.0 0.0 0.0 0.0 0.0
0.0 0.0 0.0 0.0 0.0 0.0 0.0 0.0
0.0 0.0 0.0 0.0 0.0 0.0 0.0 0.0
0.0 0.0 0.0 0.0 0.0 0.0 0.0 0.0
0.0 0.0 0.0 0.0 0.0 0.0 0.0 0.0
0.0 0.0 0.0 0.0 0.0 0.0 0.0 0.0

network_body.linear_encoder.seq_layers.0.weight f4 [128, 6]
00000000: 8410 303e 4df0 223e a765 cd3d ac25 643e
00000010: af1b f7be 5a64 a23e 74e4 3abe b828 56be
00000020: 808e 883e f51f 5ebd ef01 23bd 72cd 213f
00000030: 61e5 a83e 9895 9ebd 12be 173c 7b2e 313f
00000040: b170 043e c33c 273f 76bb de3e f8c7 893e
00000050: 4946 563e a5e2 753c c00d 26bf 6508 2b3e
00000060: 000d 1a3e d0d2 c6be 4ac7 b1be 6048 a1be
00000070: ae61 2fbf e82e 26bf 721d 1fbe e267 c7be
00000080: 1492 5abe 7d71 13be d1df 4bbe a5e1 4bbe
00000090: 95f4 a7ba 42bc cbbc b70e d9be 8d7a 913e
000000a0: 2443 0abc bfdc 7cbe 637b 723f c66e ca3e
000000b0: b4fa a33e 35b6 1d3f f38b 003e d5f0 a0be
000000c0: d762 4d3f b8d7 253f e111 933e dcd5 a5bd
000000d0: 8c85 c33e 3831 4a3e 7419 b43d e788 843e
000000e0: 56e2 713e 4b61 8c3e 44b6 61be da3f 93be
000000f0: 78c2 4bbf 9374 d23e d11b f53d bf1e 8a3d
00000100: 2427 00bf e93b 6d3f 750f 503f 7e63 7abe
00000110: ba3f 03be 6e31 9f3e 6917 9ebe 3b40 ccbe
00000120: 52b0 b33e 2092 c4bc 8c06 033f 4adc c7bd
00000130: 99e3 e4be 73ce 113f 754f 513e dcbf 4bbf
00000140: c475 67bf 738b 98be f755 0b3f 5989 debe
00000150: 3edf 213e 3f0b 473e e568 a1be 9e25 f13d
00000160: a98e 9d3c 0498 423e 440a b43e 4a9d eb3e
00000170: ca4a b13e c9e0 933e f8d6 0dbd 7fa4 b33e
00000180: f709 05bf d0b0 2b3e 48da 763f 9aa2 3a3e
00000190: b983 643e db1e 8ebe 9cfa af3e 8b44 d4be
000001a0: 3b4a bd3c 92d1 053f 8f0e e43e 82ed 963e
000001b0: 2db5 f1be 89df 543f c876 c7be e5ed 56be
000001c0: 15c1 a43e f2c1 f13e bbf1 013f 3164 033d
000001d0: 6d46 bbbc ab0e 583e 8ad8 0fbf b6d2 88be
000001e0: f7ac d83c b4b2 32be fadf e33e bdba af3d
000001f0: 879f 9f3d fb02 2abf 4006 50bd 83ba fb3e
00000200: bf99 09be 9517 bb3e 9e84 d2be 6358 cabe
00000210: 3d17 9abe abc0 973f f189 c6be 34d5 58bd
00000220: bc84 eebe 07c4 723e 8df0 b7bd 8543 2d3f
00000230: dcca 793e b451 1ebd 1324 833d c59d 453f
00000240: ecad 9abe 537e af3e 9984 efbe 1cf1 3dbf
00000250: 3696 e1be 645c 423d b416 fb3e 8be2 063f
00000260: 3d64 b83d 6a20 733e 7303 a2be aad9 1bbc
00000270: 6bf4 2dbe 4108 9c3e 2a0f 763d f6fe d9be
00000280: 20d7 8abe 65d8 983e 6d2f 503f e481 e2be
00000290: 99e3 6b3e a1a0 b03e 65e6 adbe 99f9 263e
000002a0: b1c6 d5be 60d9 bc3e 925d b43e d1c2 b4be
000002b0: 2e9e 453e a2d6 383e 9ee1 ad3e dca2 c0bd
000002c0: f99a a7be 33da 9d3e 1b4b 2cbe 70b9 c8be
000002d0: 4a65 2bbe c63b 21be 2412 55be 4b07 4bbd
000002e0: f0e6 e73d 5814 aabe 4e02 103f 1f12 dc3d
000002f0: 0319 ab3e 239b b53e 4b90 ee3e b02e 6dbf
00000300: 1e92 02be 144f 4e3e ca1b 84bb c482 24bf
00000310: 79f4 ba3d e4ad 75bd 6928 fdbc 34cd ad3c
00000320: da19 803e b7bf f13e d899 f5bd 1020 76be
00000330: 7197 7bbf 6e4d 30bd 1113 ac3e b720 40bf
00000340: a6e9 fe3e 27c3 81bd 9be3 98be 9b30 c23d
00000350: 760f b33e 418b b23e 519a 823e c98d 88bf
00000360: 4402 b33e a256 22be ea1c 6dbe 0c16 4abd
00000370: 6c6a 9cbe 95f7 c43e a63f 64bf 95dc a73e
00000380: 823a 3ebe faca ac3e 3576 3b3e 9298 b83e
00000390: 6330 fe3e e7f0 2fbe e4ea aabf 011e a5be
000003a0: b2b1 053f c7c1 f73c b3f8 eebe b6fc 8ebf
000003b0: ae65 98be b4ef 263e f12f eebe 81c7 c83e
000003c0: 6b24 013e 5588 d6bd 9d75 03bf cedf dc3a
000003d0: 5e92 a03d fbb8 fd3d 87c1 0fbf 88cc f2bd
000003e0: 4cce 753e 1ce6 093e b7a2 103e 77a9 ee3e
000003f0: 0511 783e 8fc1 44be 508d 5f3e 8ab3 4dbd
0.171938 0.1591198 0.10029154 0.22279996 -0.48263308 0.31717187 -0.1825121 -0.2091397
0.2667122 -0.054229695 -0.039796766 0.6320411 0.32987502 -0.077433765 0.009261625 0.6921155
0.12933613 0.6532709 0.43502396 0.26910377 0.20925249 0.01500765 -0.6486473 0.16702421
0.15044022 -0.38832712 -0.34722358 -0.3150053 -0.6850842 -0.64915323 -0.15538576 -0.38946444
-0.21344787 -0.14398761 -0.19909598 -0.19910295 -0.001281398 -0.024870042 -0.4239404 0.2841381
-0.008438859 -0.24693583 0.94719523 0.39537638 0.3202721 0.6160615 0.12553386 -0.3143374
0.8022894 0.64782286 0.28724578 -0.08097431 0.38187826 0.19745338 0.08793917 0.25885698
0.23621497 0.2741798 -0.22042185 -0.28759652 -0.7959361 0.41104564 0.11968196 0.067441456
-0.50059724 0.9266954 0.81273586 -0.24452016 -0.12817279 0.310924 -0.30877236 -0.39892754
0.3509546 -0.02399546 0.51181865 -0.09758814 -0.44704893 0.5695564 0.20440467 -0.7958963
-0.9041407 -0.2979389 0.54428047 -0.43464163 0.15807816 0.19437884 -0.3152534 0.11774753
0.019233065 0.19003302 0.35164082 0.4601844 0.34627372 0.28882435 -0.03462884 0.35086438
-0.5196833 0.16766667 0.9642682 0.1822609 0.22315873 -0.27757916 0.34370887 -0.41458544
0.023106685 0.52272904 0.44542357 0.2947808 -0.4720854 0.8315359 -0.3895781 -0.20989187
0.3217856 0.4721828 0.50759476 0.03207797 -0.02286073 0.21099345 -0.5618979 -0.2672326
0.026449664 -0.17450982 0.44506818 0.085805394 0.07794099 -0.664108 -0.05078721 0.49165735
-0.13437556 0.3654143 -0.41116804 -0.3952056 -0.30095854 1.1855673 -0.38777116 -0.0529377
-0.46585643 0.23707591 -0.08981428 0.6768115 0.24393791 -0.038652137 0.06403365 0.7719386
-0.30210817 0.34276065 -0.4678085 -0.7419603 -0.44059914 0.04745139 0.4904076 0.5268943
0.09003494 0.23742834 -0.31643257 -0.009512344 -0.1698777 0.30475047 0.060073055 -0.42577332
-0.27117252 0.29852596 0.81322366 -0.44239724 0.2303604 0.3449755 -0.3396484 0.16306151
-0.41753152 0.36884594 0.35227638 -0.35304883 0.19298622 0.18050626 0.33961195 -0.09406063
-0.32735422 0.30830535 -0.16825525 -0.39203978 -0.16737857 -0.15745458 -0.20807701 -0.049567502
0.11323345 -0.33218646 0.56253517 0.10745644 0.3341752 0.35469922 0.46594462 -0.92649364
-0.12751052 0.20147353 -0.004031633 -0.6426203 0.09128661 -0.05998029 -0.030903058 0.021216013
0.25019723 0.4721658 -0.11992234 -0.24035668 -0.98277956 -0.043042593 0.33608297 -0.7504992
0.49787635 -0.063360505 -0.2986115 0.09481927 0.34972733 0.34871867 0.2550836 -1.0668269
0.34962666 -0.1585336 -0.23155561 -0.04933743 -0.30549943 0.3847014 -0.8915962 0.32785478
-0.18577006 0.3374861 0.18306811 0.36053902 0.4964629 -0.1718174 -1.3352933 -0.32249454
0.52224267 0.030243767 -0.46674117 -1.1170871 -0.29765075 0.16302377 -0.4652095 0.3921471
0.12611549 -0.10475222 -0.5135134 0.0016851367 0.07840417 0.12388798 -0.56154674 -0.118554175
0.24004477 0.13466686 0.14124571 0.46613666 0.24225242 -0.19214462 0.2183125 -0.05022005

network_body.linear_encoder.seq_layers.2.bias f4 [128]
00000000: 0000 0000 0000 0000 0000 0000 0000 0000
00000010: 0000 0000 0000 0000 0000 0000 0000 0000
00000020: 0000 0000 0000 0000 0000 0000 0000 0000
00000030: 0000 0000 0000 0000 0000 0000 0000 0000
00000040: 0000 0000 0000 0000 0000 0000 0000 0000
00000050: 0000 0000 0000 0000 0000 0000 0000 0000
00000060: 0000 0000 0000 0000 0000 0000 0000 0000
00000070: 0000 0000 0000 0000 0000 0000 0000 0000
00000080: 0000 0000 0000 0000 0000 0000 0000 0000
00000090: 0000 0000 0000 0000 0000 0000 0000 0000
000000a0: 0000 0000 0000 0000 0000 0000 0000 0000
000000b0: 0000 0000 0000 0000 0000 0000 0000 0000
000000c0: 0000 0000 0000 0000 0000 0000 0000 0000
000000d0: 0000 0000 0000 0000 0000 0000 0000 0000
000000e0: 0000 0000 0000 0000 0000 0000 0000 0000
000000f0: 0000 0000 0000 0000 0000 0000 0000 0000
00000100: 0000 0000 0000 0000 0000 0000 0000 0000
00000110: 0000 0000 0000 0000 0000 0000 0000 0000
00000120: 0000 0000 0000 0000 0000 0000 0000 0000
00000130: 0000 0000 0000 0000 0000 0000 0000 0000
00000140: 0000 0000 0000 0000 0000 0000 0000 0000
00000150: 0000 0000 0000 0000 0000 0000 0000 0000
00000160: 0000 0000 0000 0000 0000 0000 0000 0000
00000170: 0000 0000 0000 0000 0000 0000 0000 0000
00000180: 0000 0000 0000 0000 0000 0000 0000 0000
00000190: 0000 0000 0000 0000 0000 0000 0000 0000
000001a0: 0000 0000 0000 0000 0000 0000 0000 0000
000001b0: 0000 0000 0000 0000 0000 0000 0000 0000
000001c0: 0000 0000 0000 0000 0000 0000 0000 0000
000001d0: 0000 0000 0000 0000 0000 0000 0000 0000
000001e0: 0000 0000 0000 0000 0000 0000 0000 0000
000001f0: 0000 0000 0000 0000 0000 0000 0000 0000
0.0 0.0 0.0 0.0 0.0 0.0 0.0 0.0
0.0 0.0 0.0 0.0 0.0 0.0 0.0 0.0
0.0 0.0 0.0 0.0 0.0 0.0 0.0 0.0
0.0 0.0 0.0 0.0 0.0 0.0 0.0 0.0
0.0 0.0 0.0 0.0 0.0 0.0 0.0 0.0
0.0 0.0 0.0 0.0 0.0 0.0 0.0 0.0
0.0 0.0 0.0 0.0 0.0 0.0 0.0 0.0
0.0 0.0 0.0 0.0 0.0 0.0 0.0 0.0
0.0 0.0 0.0 0.0 0.0 0.0 0.0 0.0
0.0 0.0 0.0 0.0 0.0 0.0 0.0 0.0
0.0 0.0 0.0 0.0 0.0 0.0 0.0 0.0
0.0 0.0 0.0 0.0 0.0 0.0 0.0 0.0
0.0 0.0 0.0 0.0 0.0 0.0 0.0 0.0
0.0 0.0 0.0 0.0 0.0 0.0 0.0 0.0
0.0 0.0 0.0 0.0 0.0 0.0 0.0 0.0
0.0 0.0 0.0 0.0 0.0 0.0 0.0 0.0

network_body.linear_encoder.seq_layers.2.weight f4 [128, 128]
00000000: e988 9abc 6936 3a3d 6241 5a3b a0fa 093e
00000010: 175b ce3b 311b 62bc 6f06 fc3b ee6e 003e
00000020: 79bf 08bb e8b0 bc3d 397d 103e f209 c3bd
00000030: 75d0 20bc d4f2 883d 3b1b 06be 739e 9abd
00000040: a23b c9bd 3852 0f3e 3e8d 1eba 3472 45bd
00000050: ebdd 783c 1837 203e d7ae 4d3d 154e 863d
00000060: 65ed 0b3d ffa2 66be ee21 2ebe 669e 37bd
00000070: f980 f93d fd6b 21be 1aa2 9e3c 5662 753c
00000080: 1d92 103e 25ec 2ebc 7812 cdbc 841c 913d
00000090: cc78 e63d 401d 023e 155e 5c3d 8433 64bd
000000a0: 189a 503b 2eb2 5dbd a830 29bc c72b 803d
000000b0: 5a5a f93d 12fa 953d 9f6c 803d faf5 9d3d
000000c0: 249e 8d3d 2cb5 173d d956 783d 4ab8 8c3c
000000d0: 9cdf f23b 77c7 bb3d 185a 843c 5a4e 00bb
000000e0: 877d 07be 1965 0cbd 93e4 9f3c 42b8 0fbe
000000f0: f086 ae3c b607 fe3c 1cb7 8abd fddb ac3d
00000100: 59bb 203d 85ba 23bd 55fc 8bbd 7dce 1fbd
00000110: a60d 993d bd5c f7bd 8f92 c83d 253e 973b
00000120: 39e8 c53d 532e c53d 386b e83b 064e 17bd
00000130: e931 a23b 1b7b 07bc 826d 02be da3b 40be
00000140: a951 f43d d09c dd3d ce66 2cbc 5210 93ba
00000150: f3fa 46bd 61b3 a5bd bd52 a53c d3ac b4bc
00000160: 8877 0b3d 7782 a13d 53f9 2abc 3dfd 863d
00000170: 703f a1bd febe e4bd 7587 2c3d 1209 59be
00000180: 2f3f babc bde9 ca3c cf13 463d cf20 a1bd
00000190: f959 e23c 3c01 c3bc a5b8 88bd 47e6 01bd
000001a0: 0708 b53d 755f 5dbc e25d b2bd 675a 20be
000001b0: 8c73 0e3c 8833 96bd 7f9e b8bd 30e7 ed3d
000001c0: ace3 87bc 41ac 4bbc fe82 483e c988 42bb
000001d0: a827 273e 997d cabd fc8a a9bc 1cf4 0dbe
000001e0: 1be7 a0bd 154c 23be 43c4 013d 2dbc 3dbe
000001f0: 5f32 a83d 857b 6a3c 02ed 9b3d 576f dabc
00000200: 18ba 143d feb4 b43c e105 213d c92b 93bd
00000210: 2d87 14bd 2c43 d03d 0a90 083e cc61 c83d
00000220: 5c63 01bd a81d 68bd 1f7d 33bd f6d5 c8bc
00000230: 8a5d 3fbe 3622 00bd 2c94 a3bd 898f e7bd
00000240: 62db c8bd 98cb 7e3d 1953 8bbd 1898 9cbd
00000250: 3b22 e53d 8eb8 083d 15be 0fbb 6f95 923c
00000260: a9be 503d 8d7f 85bd 7169 b03c 8c4e eabd
00000270: be2b 3abd 288d e1bd f9df abbc c6e8 923d
00000280: 2dff 68bd 689b 1d3c 612d 57be 9ac6 e9bc
00000290: 5d88 a63d e3ac f73d 4af6 efbb 536d 72bd
000002a0: 7fea 863d 8de0 b3bc eeff 35bd e9b6 203c
000002b0: 1bda 80bd a7e4 b0bd e770 ef3d 4c6f 2ebe
000002c0: 5677 d43d b62b 07bd b686 193d a426 2dbd
000002d0: 3383 87bc 8b95 87ba c90a aabc 778f 8a3d
000002e0: 3e09 88bd 133c e8bd ed4a 0abe 45cc c83d
000002f0: 9365 cf3d cc62 a03c b866 2a3e 7cdc f63d
00000300: 0397 34bd 6f97 83bd daf8 b0bd 9966 d43c
00000310: 2a45 823d e55d 5a3e 1e7e 1fbe dbdf 2dbc
00000320: 1d5a d73d 15d4 9cbc 3d00 0d3d 5cb4 303d
00000330: 1160 723c 1278 61bd 5c13 043d fd48 993c
00000340: 94a2 ac3c 293a 763d 9da3 aa3d fca2 103e
00000350: 0b37 453d db3f 00be 0924 9f3d 7419 52be
00000360: 9990 083e bdfd 6a3d f647 1a3d 36c9 b1bb
00000370: 2378 15be 94d0 18bc 9edf 513d 69a7 c73d
00000380: fa6f a53c c625 ac3d ed4e 383d 5f1f f63d
00000390: e043 e8bc 0aee 97bd 7424 5fbe e677 f6bd
000003a0: a670 45bc d205 cabd 2aa5 a5bc 408f 4c3c
000003b0: d435 503a 2987 d13d 69a2 923c 2caf c8bd
000003c0: 7cfa bfbd 1329 fabc b065 8bbc 8510 b03b
000003d0: 7798 cd3d 5735 2c3d 9eaa debd 11e5 14bd
000003e0: 77cf 9f3d 4309 1fbd 8954 46bc b4ce ce3d
000003f0: c13b 173c 13f0 a33b 7802 303d 35db a93d
-0.018864112 0.045462046 0.0033303131 0.13474512 0.00629748 -0.013800428 0.0076911966 0.12542316
-0.002086608 0.0921343 0.14110269 -0.09523381 -0.009815325 0.06686941 -0.13096325 -0.07549753
-0.09825827 0.13996208 -0.00060482684 -0.048204616 0.015189628 0.15646017 0.05021557 0.06557862
0.034161944 -0.22523116 -0.1700513 -0.044828795 0.12182803 -0.1576385 0.019364405 0.014977058
0.14118238 -0.010676418 -0.02503322 0.07085517 0.11253509 0.1270647 0.05380066 -0.05571319
0.0031830128 -0.054125004 -0.010326542 0.0625835 0.12175436 0.07323088 0.06270718 0.07712932
0.069149286 0.037038013 0.0606297 0.01717772 0.00741191 0.09168904 0.016156241 -0.0019577951
-0.13231479 -0.0342761 0.019518172 -0.14035133 0.021304578 0.031009536 -0.067732066 0.08440397
0.03924117 -0.0399728 -0.06835238 -0.039015282 0.07473306 -0.12078235 0.09793579 0.0046155625
0.096634336 0.09627976 0.0070928596 -0.036939643 0.0049497974 -0.008269097 -0.12737086 -0.18772832
0.11929638 0.10820925 -0.010522557 -0.0011220074 -0.048579168 -0.080908544 0.020181054 -0.022055065
0.03404954 0.07886212 -0.01043542 0.0659127 -0.07873428 -0.11169241 0.04212137 -0.21194866
-0.022735206 0.024769658 0.048358735 -0.07867586 0.027630793 -0.0238043 -0.06675843 -0.03171375
0.08839422 -0.013511528 -0.08709313 -0.15659486 0.008694541 -0.073340476 -0.09014606 0.11616361
-0.016588055 -0.012431205 0.1958122 -0.002968358 0.16323721 -0.09887237 -0.020696156 -0.13862652
-0.0785658 -0.15946992 0.03168131 -0.18528815 0.082127325 0.014311676 0.07613565 -0.02666442
0.036310285 0.02205896 0.039312247 -0.07186086 -0.036261726 0.10169062 0.13336197 0.09784278
-0.031588897 -0.056668907 -0.043820497 -0.024516087 -0.18688026 -0.031282626 -0.07987246 -0.11306674
-0.09807469 0.06220588 -0.06802959 -0.07646197 0.111881696 0.03337913 -0.0021933366 0.017893521
0.050963078 -0.06518469 0.021534653 -0.11440763 -0.045451872 -0.110132515 -0.020980822 0.07173304
-0.05688398 0.009619571 -0.21013404 -0.028537083 0.08131478 0.120935224 -0.007323061 -0.05918629
0.06587695 -0.02195766 -0.044433527 0.009809234 -0.062916 -0.08637362 0.11691456 -0.17034644
0.10374324 -0.03300067 0.037481986 -0.04227318 -0.016542053 -0.001034425 -0.020757096 0.06765645
-0.06642388 -0.11339583 -0.13505144 0.09804586 0.101267956 0.01957836 0.16640747 0.12053773
-0.04408933 -0.06425368 -0.08641215 0.025927829 0.06360848 0.2132488 -0.15575454 -0.010612453
0.105152346 -0.019144097 0.034424055 0.043140754 0.014793412 -0.05504615 0.032245025 0.018711561
0.021073617 0.06011406 0.08331988 0.14124674 0.048148196 -0.12524359 0.07770545 -0.20517522
0.1333641 0.05737089 0.037666284 -0.0054255975 -0.1459661 -0.009327073 0.05123865 0.09748728
0.020194996 0.08405642 0.044997144 0.12017702 -0.028352678 -0.07418449 -0.2179125 -0.120345876
-0.012050783 -0.098643914 -0.020220358 0.012485325 0.00079425913 0.10230858 0.017899709 -0.097990364
-0.09373948 -0.030537164 -0.017016262 0.005373063 0.10038846 0.042043056 -0.108723864 -0.036351267
0.07803243 -0.038827192 -0.012105116 0.10098019 0.009230555 0.0050029843 0.042971104 0.082937635
