results/testBall4/HitTheBall/HitTheBall-4833.pt (torch, 150559 bytes, 13 tensors)

network_body.linear_encoder.seq_layers.0.weight f4 [128, 6]
0	0x3e8cc25a	0.27492028
1	0xbea29a8a	-0.3175853
2	0xbf11d94d	-0.569722
3	0x3e9c2449	0.30496433
4	0x3ecde40b	0.40213045
5	0x3de170ce	0.11007844
6	0x3f0c2eb4	0.54758763
7	0x3e18cc49	0.14921679
8	0x3de712b7	0.112828664
9	0x3e1c4577	0.15260874
10	0x3e337cd3	0.17528085
11	0x3ed134f4	0.40860713
12	0xbebd9db0	-0.3703437
13	0x3e92a9c3	0.28645143
14	0x3f34b93f	0.70595163
15	0xbe833ef9	-0.25633982
16	0x3e9f8372	0.31154972
17	0xbe628cc1	-0.22124006
18	0x3d3f33d5	0.04668029
19	0xbdf95442	-0.12174274
20	0xbe010541	-0.1259966
21	0x3f2cac95	0.6745084
22	0xbf05c191	-0.52248484
23	0x3ebd9e51	0.37034848
24	0xbe778b58	-0.24174249
25	0xbe246f01	-0.1605797
26	0x3e25f1ff	0.16205595
27	0x3d0b16cd	0.03395729
28	0x3e4d0995	0.20023187
29	0x3dc8595d	0.0978267
30	0xbf145ce5	-0.57954246
31	0x3efea0d1	0.49732068
32	0xbeeb6a4a	-0.4597953
33	0x3d845c63	0.06462934
34	0xbe4514a2	-0.19246152
35	0x3ef0c546	0.47025508
36	0x3e860db6	0.26182336
37	0x3f0e891b	0.55677956
38	0xbd55ecc8	-0.052227765
39	0x3ddaeff8	0.10690302
40	0xbf2bfe0d	-0.67184526
41	0x3d6a75ec	0.057241365
42	0x3ed8f358	0.42373157
43	0x3f3d5bd3	0.7396824
44	0x3e884548	0.26615357
45	0xbe546c21	-0.20744373
46	0xbf13bc1c	-0.5770891
47	0xbec1c799	-0.37847593
48	0xbed7d1fc	-0.42152393
49	0x3e3be2af	0.18348192
50	0xbe681095	-0.22662576
51	0x3eb9d739	0.36297014
52	0xbe12697f	-0.14298056
53	0x3e0621fe	0.13098904
54	0x3e8a015a	0.26954156
55	0xbd9865b6	-0.07441275
56	0xbf05b99f	-0.5223636
57	0xbddef6fa	-0.10886951
58	0x3e2f8d28	0.1714369
59	0xbf3967d9	-0.72424084
60	0x3f34b566	0.7058929
61	0xbeb7494c	-0.3579811
62	0x3ee94f9d	0.45568553
63	0x3f930418	1.1485624
64	0x3ca73f7e	0.020416018
65	0x3f2bfefc	0.6718595
66	0xbe1cd890	-0.15316987
67	0xbe544d1a	-0.20732537
68	0xbdd07221	-0.10178018
69	0xbeb3e14d	-0.35132828
70	0xbe1aab2f	-0.15104364
71	0x3c80bdd0	0.01571551
72	0xbf1a84b0	-0.60358715
73	0xbdcd15c6	-0.100139186
74	0x3e36fa7f	0.17868994
75	0xbeb843d0	-0.35989237
76	0xbda02e42	-0.07821323
77	0xbf09a504	-0.5376742
78	0xbe689193	-0.22711782
79	0xbe007a70	-0.12546706
80	0xbea8c131	-0.32959893
81	0xbf2352bd	-0.63798124
82	0x3f5c7019	0.8610855
83	0x3e33bd5b	0.17552702
84	0x3d8fe75b	0.070265494
85	0xbe0df655	-0.138635
86	0xbd69618f	-0.056977805
87	0xbefb42d8	-0.49074435
88	0x3f61d35f	0.8821315
89	0xbea25d89	-0.31711987
90	0x3e729d90	0.23692918
91	0x3efe09da	0.4961689
92	0xbc95757c	-0.018244497
93	0xbf4c17c2	-0.7972375
94	0x3fa95f7d	1.3232266
95	0x3ede48dd	0.43414965
96	0x3ec81ee5	0.3908607
97	0x3d7da3e8	0.06192389
98	0x3d965be6	0.07341747
99	0x3c83b13b	0.016075721
100	0x3e87cf7a	0.2652548
101	0xbe2f7493	-0.17134313
102	0x3ee0bfb4	0.43896258
103	0xbf4c12ab	-0.79715985
104	0x3ece5e95	0.40306535
105	0xbd67356d	-0.056447435
106	0x3edc0cac	0.42978418
107	0xbeb25f3f	-0.34838292
108	0x3d12e16b	0.035859507
109	0xbe075b5e	-0.13218448
110	0x3f282728	0.6568475
111	0xbe592205	-0.21204384
112	0xbe27b6f6	-0.16378388
113	0x3e0de727	0.13857709
114	0xbdd9e01d	-0.10638449
115	0xbe52f591	-0.20601489
116	0x3ecbd1a3	0.39808378
117	0xbc52a27d	-0.012856123
118	0xbcd2ce9e	-0.025733288
119	0x3f5cd1c9	0.86257607
120	0x3e15b07c	0.14618105
121	0x3eb88d1c	0.36045158
122	0x3e249f1a	0.16076317
123	0xbe837606	-0.25675982
124	0xbdc47731	-0.095930465
125	0x3e5e327b	0.21698944
126	0x3df2ded8	0.1185891
127	0x3cd63805	0.02614976
128	0xbe129d80	-0.14317894
129	0xbe3f1c18	-0.1866306
130	0xbf4957c1	-0.78649527
131	0xbf090428	-0.53521967
132	0x3f1484e8	0.580153
133	0xbbb21c46	-0.0054354994
134	0x3dab9f7c	0.083800286
135	0x3e519b54	0.20469409
136	0xbd3f6882	-0.046730526
137	0xbf1b43a2	-0.60650074
138	0x3e3aac8c	0.18229884
139	0x3f545e1d	0.82956105
140	0xbf0791fe	-0.5295714
141	0x3e924edd	0.28575793
142	0xbeb35cad	-0.35031644
143	0x3f13d4c9	0.5774656
144	0x3ef2fb1e	0.47457212
145	0xbee0f117	-0.43933937
146	0x3dbcd851	0.092209466
147	0x3f2eda21	0.6830159
148	0x3e1ec05e	0.1550307
149	0xbf5a0cb2	-0.8517562
150	0xbe9f7eb5	-0.31151357
151	0xbf0475ea	-0.5174242
152	0x3ea16aab	0.31526694
153	0x3de80758	0.11329526
154	0xbdd79f34	-0.105284125
155	0x3df18821	0.11793543
156	0x3f071cac	0.52778125
157	0x3eab477f	0.33452985
158	0x3dd78969	0.10524256
159	0xbf666e59	-0.9001213
160	0xbdee10ce	-0.11624299
161	0x3d10b26f	0.035326418
162	0xbf023fc6	-0.5087856
163	0xbf3ec20b	-0.74514836
164	0x3f2df518	0.6795211
165	0x3f04af55	0.51830035
166	0x3e931a3d	0.28730956
167	0xbc73f7b3	-0.014890599
168	0xbe621767	-0.2207924
169	0x3e105f62	0.14098886
170	0x3f2aadf8	0.66671705
171	0xbec51c6d	-0.3849825
172	0x3f8bc564	1.0919614
173	0xbe1138bd	-0.141818
174	0xbf849a2e	-1.0359552
175	0x3cbb246e	0.02284452
176	0x3f445239	0.7668796
177	0x3d6043e4	0.054752246
178	0xbf24f11b	-0.644304
179	0x3d4432a6	0.047899865
180	0x3e94507c	0.28967655
181	0xbccffe90	-0.02538994
182	0xbe205317	-0.15656696
183	0x3f226051	0.6342822
184	0x3f3cf424	0.7381003
185	0xbeba7ea6	-0.3642475
186	0x3f451c58	0.76996374
187	0xbef37503	-0.4755021
188	0xbf1b26ce	-0.60606086
189	0x3e63f997	0.2226318
190	0xbe273a61	-0.16330864
191	0xbf061675	-0.52378017
192	0xbd2738db	-0.040825706
193	0xbf58b587	-0.8465199
194	0x3e83e66e	0.2576174
195	0x3dd0ef5a	0.10201903
196	0x3e460895	0.19339211
197	0xbf0174b7	-0.5056872
198	0x3ef294d0	0.4737916
199	0x3e980950	0.29694605
200	0x3dc7895b	0.09742995
201	0xbf33af10	-0.70189
202	0xbd81c31c	-0.06336042
203	0x3eba09a7	0.3633549
204	0x3e89f58e	0.26945156
205	0xbea57cc0	-0.3232174
206	0x3f043536	0.51643693
207	0xbe2a0196	-0.16602167
208	0xbefcb8a1	-0.4935961
209	0x3d2c1ee4	0.042021647
210	0xbf79b993	-0.9754879
211	0x3e9a19c4	0.30097783
212	0x3ebf6dcd	0.3738846
213	0x3f21cfe4	0.6320784
214	0xbf47938d	-0.7795952
215	0xbedd366d	-0.43205586
216	0xbdbe517f	-0.09292888
217	0x3e8adc67	0.2712128
218	0x3edc971d	0.4308404
219	0x3bd65846	0.0065412847
220	0x3ebe35b3	0.37150344
221	0x3e3f6bde	0.18693492
222	0xbd05ec24	-0.032695904
223	0x3de40b59	0.11134977
224	0xbe17d8bd	-0.14828773
225	0x3d985dc1	0.07439757
226	0x3d0e2fe3	0.034713637
227	0x3f090413	0.5352184
228	0x3f4b8efc	0.7951505
229	0xbed5ca8f	-0.41756102
230	0xbee84bd2	-0.45370346
231	0xbed3582e	-0.41278213
232	0xbed9674c	-0.42461622
233	0x3eacd502	0.33756262
234	0xbdb99356	-0.09061305
235	0xbd5a80aa	-0.05334536
236	0xbf92c781	-1.1467134
237	0x3ee885fd	0.45414725
238	0xbd94d37c	-0.072669
239	0x3ec99f94	0.3937956
240	0x3f073252	0.5281116
241	0x3e19fb51	0.15037276
242	0xbe9c3b05	-0.30513778
243	0x3e3e1ff4	0.18566877
244	0xbc47a465	-0.012185191
245	0xbefc6775	-0.4929768
246	0xbd8f3e19	-0.06994266
247	0x3c5e0966	0.013552045
248	0x3eab7f00	0.3349533
249	0x3dcf86b5	0.10133115
250	0xbe04eff9	-0.12982167
251	0x3daf2e90	0.08553803
252	0x3ea44233	0.32081756
253	0x3ece7116	0.40320653
254	0xbe1c2d88	-0.15251744
255	0xbe7e67d4	-0.24844295

network_body.linear_encoder.seq_layers.0.bias f4 [128]
0	0x00000000	0.0
1	0x00000000	0.0
2	0x00000000	0.0
3	0x00000000	0.0
4	0x00000000	0.0
5	0x00000000	0.0
6	0x00000000	0.0
7	0x00000000	0.0
8	0x00000000	0.0
9	0x00000000	0.0
10	0x00000000	0.0
11	0x00000000	0.0
12	0x00000000	0.0
13	0x00000000	0.0
14	0x00000000	0.0
15	0x00000000	0.0
16	0x00000000	0.0
17	0x00000000	0.0
18	0x00000000	0.0
19	0x00000000	0.0
20	0x00000000	0.0
21	0x00000000	0.0
22	0x00000000	0.0
23	0x00000000	0.0
24	0x00000000	0.0
25	0x00000000	0.0
26	0x00000000	0.0
27	0x00000000	0.0
28	0x00000000	0.0
29	0x00000000	0.0
30	0x00000000	0.0
31	0x00000000	0.0
32	0x00000000	0.0
33	0x00000000	0.0
34	0x00000000	0.0
35	0x00000000	0.0
36	0x00000000	0.0
37	0x00000000	0.0
38	0x00000000	0.0
39	0x00000000	0.0
40	0x00000000	0.0
41	0x00000000	0.0
42	0x00000000	0.0
43	0x00000000	0.0
44	0x00000000	0.0
45	0x00000000	0.0
46	0x00000000	0.0
47	0x00000000	0.0
48	0x00000000	0.0
49	0x00000000	0.0
50	0x00000000	0.0
51	0x00000000	0.0
52	0x00000000	0.0
53	0x00000000	0.0
54	0x00000000	0.0
55	0x00000000	0.0
56	0x00000000	0.0
57	0x00000000	0.0
58	0x00000000	0.0
59	0x00000000	0.0
60	0x00000000	0.0
61	0x00000000	0.0
62	0x00000000	0.0
63	0x00000000	0.0
64	0x00000000	0.0
65	0x00000000	0.0
66	0x00000000	0.0
67	0x00000000	0.0
68	0x00000000	0.0
69	0x00000000	0.0
70	0x00000000	0.0
71	0x00000000	0.0
72	0x00000000	0.0
73	0x00000000	0.0
74	0x00000000	0.0
75	0x00000000	0.0
76	0x00000000	0.0
77	0x00000000	0.0
78	0x00000000	0.0
79	0x00000000	0.0
80	0x00000000	0.0
81	0x00000000	0.0
82	0x00000000	0.0
83	0x00000000	0.0
84	0x00000000	0.0
85	0x00000000	0.0
86	0x00000000	0.0
87	0x00000000	0.0
88	0x00000000	0.0
89	0x00000000	0.0
90	0x00000000	0.0
91	0x00000000	0.0
92	0x00000000	0.0
93	0x00000000	0.0
94	0x00000000	0.0
95	0x00000000	0.0
96	0x00000000	0.0
97	0x00000000	0.0
98	0x00000000	0.0
99	0x00000000	0.0
100	0x00000000	0.0
101	0x00000000	0.0
102	0x00000000	0.0
103	0x00000000	0.0
104	0x00000000	0.0
105	0x00000000	0.0
106	0x00000000	0.0
107	0x00000000	0.0
108	0x00000000	0.0
109	0x00000000	0.0
110	0x00000000	0.0
111	0x00000000	0.0
112	0x00000000	0.0
113	0x00000000	0.0
114	0x00000000	0.0
115	0x00000000	0.0
116	0x00000000	0.0
117	0x00000000	0.0
118	0x00000000	0.0
119	0x00000000	0.0
120	0x00000000	0.0
121	0x00000000	0.0
122	0x00000000	0.0
123	0x00000000	0.0
124	0x00000000	0.0
125	0x00000000	0.0
126	0x00000000	0.0
127	0x00000000	0.0

network_body.linear_encoder.seq_layers.2.weight f4 [128, 128]
0	0x3d17c046	0.0370486
1	0xbdc51040	-0.0962224
2	0x3dc3f9ea	0.09569152
3	0x3d21baec	0.039484903
4	0x3d2995db	0.04140268
5	0xbd62062d	-0.05518167
6	0x3d804ec3	0.062650226
7	0x3de2af4f	0.11068594
8	0x3d3f697d	0.04673146
9	0x3dc3b955	0.09556834
10	0xbdde040b	-0.10840615
11	0xbdf49681	-0.11942769
12	0x3ceba3e7	0.028764678
13	0xbd5b9b11	-0.05361468
14	0x3d6ce970	0.05783981
15	0x3bd795d2	0.0065791393
16	0x3d9cd762	0.076582685
17	0xbc543e4b	-0.012954305
18	0x3d276a59	0.040872905
19	0xbd6e8e63	-0.05824126
20	0xbd9497c4	-0.072555095
21	0xbcb37c5e	-0.021909889
22	0xbdbeddbb	-0.093196355
23	0xbda52a1a	-0.08064671
24	0xba9b6463	-0.0011855479
25	0x3c3a6743	0.011377159
26	0x3d969cf7	0.073541574
27	0xbdc28fe1	-0.09500099
28	0x3c9a0ff2	0.018806431
29	0xbdd6b728	-0.10484153
30	0xbd3173ad	-0.043323208
31	0x3dda2934	0.1065239
32	0xbe23a3e6	-0.15980491
33	0x3d784ae8	0.06061831
34	0xbe75e8e9	-0.2401463
35	0xbd12748c	-0.03575568
36	0x3e37550f	0.17903541
37	0x3def1668	0.116741955
38	0x3c41a9ec	0.011820298
39	0x3de50a75	0.11183635
40	0xbd99d8c2	-0.075120464
41	0x3e20e443	0.15712075
42	0xbe0c9a08	-0.13730633
43	0xbd020dc8	-0.031751424
44	0x3da95ae3	0.082692884
45	0xbbb1dc89	-0.005427901
46	0x3ce3e587	0.027819408
47	0x3d09296b	0.033486765
48	0x3dbdcc8d	0.092675306
49	0x3e7d9364	0.24763256
50	0xbca11fae	-0.019668426
51	0xbe038677	-0.12844263
52	0xbb5a12c7	-0.0033275352
53	0x3da119a9	0.078662224
54	0xbd3169d7	-0.043313827
55	0xbd55fd1f	-0.05224335
56	0xbd183541	-0.037160162
57	0xbc6ff2b7	-0.01464527
58	0x3c5ef9a1	0.013609321
59	0x3d7d7300	0.06187725
60	0xbd91cc70	-0.071190715
61	0xbd8fdee2	-0.070249334
62	0x3deee4c5	0.11664728
63	0x3d8b6339	0.068060346
64	0x3a5cd41c	0.0008423941
65	0x3c89eb96	0.016835969
66	0xbdcedd33	-0.10100784
67	0x3de0b167	0.10971337
68	0xbd4aaa48	-0.0494788
69	0x3bd2292e	0.0064136004
70	0xbcf03c24	-0.029325552
71	0xbdfa44f2	-0.122201815
72	0x3c8d58d4	0.01725427
73	0xbe035f17	-0.12829243
74	0xbd8c869f	-0.068616144
75	0xbddb92f5	-0.10721389
76	0xbd0d7c5d	-0.03454243
77	0x3ca44c18	0.020055816
78	0x3cb96176	0.02262948
79	0xbe343a05	-0.17600258
80	0x3d2b64b8	0.0418441
81	0xbdca0cc0	-0.09865713
82	0x3c912b52	0.017720852
83	0xbd0a328a	-0.033739604
84	0xbd06624f	-0.032808598
85	0xbd54fe1c	-0.05200015
86	0x3e0bd058	0.13653696
87	0x3d0b30bd	0.033982027
88	0x3d94df69	0.072691746
89	0x3e360824	0.17776543
90	0x3ca42c8e	0.020040777
91	0x3b3abf4d	0.0028495372
92	0x3dd7fd6f	0.105463855
93	0xbc481316	-0.012211582
94	0xbddd848a	-0.108162954
95	0x3c3ef4dc	0.011655059
96	0xbcbd7ef6	-0.023131829
97	0xbd6258b7	-0.055260386
98	0xbd819f2c	-0.06329188
99	0xbd830ecf	-0.06399309
100	0xbd3183f5	-0.043338735
101	0x3c18317f	0.009289145
102	0x3d3e0446	0.046390794
103	0x3d8df56a	0.06931575
104	0xbdc84916	-0.09779565
105	0x3cfa2c54	0.030538715
106	0xbce8ab77	-0.028402073
107	0x3c5e40db	0.013565267
108	0xbd2b3145	-0.041795034
109	0xbc5e33e8	-0.01356218
110	0x3dc2cffa	0.09512325
111	0xbe142e7f	-0.14470862
112	0xbe20722f	-0.15668558
113	0x3d86cdc8	0.065822184
114	0x3e3638ae	0.17795059
115	0x3d94089f	0.07228207
116	0x3cad806b	0.021179399
117	0x3ce3105c	0.027717762
118	0x3d6c74fb	0.05772875
119	0xbc351142	-0.011051478
120	0xbdb75df1	-0.08953465
121	0xbd6bd898	-0.057579607
122	0xbcd00192	-0.025391374
123	0xbdeed4cb	-0.11661681
124	0xbcbbde0a	-0.022933025
125	0x3d5acc61	0.053417567
126	0xbba97ddf	-0.0051724757
127	0xbd19d538	-0.037556857
128	0x3d88af5e	0.06674074
129	0xbdcb57f4	-0.09928885
130	0x3e25657b	0.16151993
131	0x3d43c2c9	0.047793183
132	0x3c6619c6	0.014044231
133	0x3e6d0a5f	0.23148488
134	0x3c1f62eb	0.009728174
135	0x3d941738	0.07230991
136	0xbdb4f904	-0.088365585
137	0xbd2ffe9a	-0.042967416
138	0xbdbfe3de	-0.09369634
139	0xbaeeb05e	-0.001821052
140	0xbc7d0e29	-0.015445271
141	0x3d3edf10	0.046599448
142	0x3d40d465	0.047077555
143	0xbc8e8b5f	-0.017400442
144	0x3dcac5cd	0.09901009
145	0x3c0306b5	0.007997205
146	0xbd807dd4	-0.06274
147	0x3d1d4bcc	0.038402364
148	0xbd0628e4	-0.03275384
149	0x3e39b534	0.1813553
150	0xbd28027b	-0.04101799
151	0x3d001d36	0.031277858
152	0x3cc72c01	0.024312975
153	0x3d501020	0.050796628
154	0x3ddd9a67	0.108204655
155	0x3e05f778	0.13082683
156	0x3d8e2105	0.06939892
157	0x3d30e0e7	0.043183234
158	0x3df4c7a9	0.11952145
159	0xbd885c88	-0.06658274
160	0xbc200886	-0.009767657
161	0x3cb68417	0.022279782
162	0xbdd8b460	-0.10581279
163	0xbc5576aa	-0.01302878
164	0xbe0fd932	-0.14047697
165	0xbda58ee5	-0.080838956
166	0x3cbb928d	0.02289703
167	0xbe5e103b	-0.21685879
168	0xbd88c101	-0.066774376
169	0x3da19e9b	0.0789158
170	0xbcf63cf9	-0.03005837
171	0xbe24b3b6	-0.1608418
172	0x3c7e9b6b	0.015539984
173	0xbc8d029c	-0.017213158
174	0x3d8931c5	0.06698946
175	0xbe01c8cb	-0.12674253
176	0x3d370911	0.04468638
177	0xbdcc57d3	-0.09977689
178	0x3d0dfccb	0.03466491
179	0xbe3accd7	-0.18242203
180	0xbba81a91	-0.00513012
181	0x3d33d8f7	0.043908086
182	0xbca71a03	-0.020398146
183	0xbd8b3cdb	-0.06798717
184	0x3e02d1a7	0.12775289
185	0x3d200f2e	0.039076976
186	0xbd3a84e9	-0.04553691
187	0xbe4187b5	-0.18899424
188	0xbda9851b	-0.08277341
189	0x3b0cd8d2	0.002149154
190	0x3e545579	0.2073573
191	0x3cc355d0	0.02384463
192	0x3d88e21b	0.06683751
193	0x3cc64814	0.024204291
194	0xbdd27024	-0.102752954
195	0xbd5d860f	-0.054082926
196	0x3e06fd29	0.1318251
197	0x3d14ecde	0.036358707
198	0xbc3b9e8e	-0.011451377
199	0x3de8a53c	0.11359641
200	0xbde6adb9	-0.11263604
201	0x3e4379f9	0.19089498
202	0xbd9f0780	-0.077651024
203	0xbce085cb	-0.027407547
204	0x3e136b02	0.14396289
205	0x3e32dd9c	0.1746735
206	0x3e0c12f5	0.13679107
207	0x3cdd7a4d	0.027035857
208	0x3cc302be	0.023805019
209	0xbd826f8d	-0.06368933
210	0xbcf134f4	-0.029444195
211	0xbd1403f9	-0.0361366
212	0xbd8ba5a2	-0.06818701
213	0x3d4644ac	0.048405334
214	0xbd99ee8c	-0.07516202
215	0xbd8a6d63	-0.06759145
216	0xbccdbe21	-0.025115075
217	0x3d3e2087	0.04641774
218	0x3dbf168d	0.09330473
219	0x3e110579	0.14162244
220	0x3da38c23	0.07985713
221	0x3df543e3	0.11975839
222	0xbddb90f0	-0.10721004
223	0x3ac92f11	0.001534911
224	0xba8adacf	-0.0010593774
225	0xbda4f8c3	-0.0805526
226	0xbe27fb81	-0.16404535
227	0xbe0650fd	-0.13116832
228	0xbdc16294	-0.094426304
229	0xbc438f78	-0.011936061
230	0xbd2cb47a	-0.042164303
231	0x3e0b7a2f	0.13620828
232	0xbe04d7fe	-0.1297302
233	0x3d0e5603	0.034749996
234	0x3d24377e	0.040091984
235	0xbd0705bf	-0.032964464
236	0x3d28b0aa	0.041184105
237	0x3c42cbe9	0.011889436
238	0xbd1a9f4b	-0.03774957
239	0xbda49ec3	-0.08038094
240	0x3cf1624e	0.02946582
241	0x3d85d300	0.06534386
242	0xbc290f32	-0.010318564
243	0xbdc90ff6	-0.098174974
244	0x3d814f58	0.06313962
245	0x3bb56e31	0.0055368175
246	0xbd380f83	-0.044936668
247	0x3d08a82a	0.0333635
248	0xbd8904d0	-0.06690371
249	0xbcb9be80	-0.022673845
250	0x3e15d763	0.14632945
251	0xbdb08d5a	-0.08620711
252	0x3e58b51a	0.21162835
253	0xbc525ba1	-0.012839229
254	0xbccec64d	-0.025241042
255	0xbc1ab692	-0.009442942

network_body.linear_encoder.seq_layers.2.bias f4 [128]
0	0x00000000	0.0
1	0x00000000	0.0
2	0x00000000	0.0
3	0x00000000	0.0
4	0x00000000	0.0
5	0x00000000	0.0
6	0x00000000	0.0
7	0x00000000	0.0
8	0x00000000	0.0
9	0x00000000	0.0
10	0x00000000	0.0
11	0x00000000	0.0
12	0x00000000	0.0
13	0x00000000	0.0
14	0x00000000	0.0
15	0x00000000	0.0
16	0x00000000	0.0
17	0x00000000	0.0
18	0x00000000	0.0
19	0x00000000	0.0
20	0x00000000	0.0
21	0x00000000	0.0
22	0x00000000	0.0
23	0x00000000	0.0
24	0x00000000	0.0
25	0x00000000	0.0
26	0x00000000	0.0
27	0x00000000	0.0
28	0x00000000	0.0
29	0x00000000	0.0
30	0x00000000	0.0
31	0x00000000	0.0
32	0x00000000	0.0
33	0x00000000	0.0
34	0x00000000	0.0
35	0x00000000	0.0
36	0x00000000	0.0
37	0x00000000	0.0
38	0x00000000	0.0
39	0x00000000	0.0
40	0x00000000	0.0
41	0x00000000	0.0
42	0x00000000	0.0
43	0x00000000	0.0
44	0x00000000	0.0
45	0x00000000	0.0
46	0x00000000	0.0
47	0x00000000	0.0
48	0x00000000	0.0
49	0x00000000	0.0
50	0x00000000	0.0
51	0x00000000	0.0
52	0x00000000	0.0
53	0x00000000	0.0
54	0x00000000	0.0
55	0x00000000	0.0
56	0x00000000	0.0
57	0x00000000	0.0
58	0x00000000	0.0
59	0x00000000	0.0
60	0x00000000	0.0
61	0x00000000	0.0
62	0x00000000	0.0
63	0x00000000	0.0
64	0x00000000	0.0
65	0x00000000	0.0
66	0x00000000	0.0
67	0x00000000	0.0
68	0x00000000	0.0
69	0x00000000	0.0
70	0x00000000	0.0
71	0x00000000	0.0
72	0x00000000	0.0
73	0x00000000	0.0
74	0x00000000	0.0
75	0x00000000	0.0
76	0x00000000	0.0
77	0x00000000	0.0
78	0x00000000	0.0
79	0x00000000	0.0
80	0x00000000	0.0
81	0x00000000	0.0
82	0x00000000	0.0
83	0x00000000	0.0
84	0x00000000	0.0
85	0x00000000	0.0
86	0x00000000	0.0
87	0x00000000	0.0
88	0x00000000	0.0
89	0x00000000	0.0
90	0x00000000	0.0
91	0x00000000	0.0
92	0x00000000	0.0
93	0x00000000	0.0
94	0x00000000	0.0
95	0x00000000	0.0
96	0x00000000	0.0
97	0x00000000	0.0
98	0x00000000	0.0
99	0x00000000	0.0
100	0x00000000	0.0
101	0x00000000	0.0
102	0x00000000	0.0
103	0x00000000	0.0
104	0x00000000	0.0
105	0x00000000	0.0
106	0x00000000	0.0
107	0x00000000	0.0
108	0x00000000	0.0
109	0x00000000	0.0
110	0x00000000	0.0
111	0x00000000	0.0
112	0x00000000	0.0
113	0x00000000	0.0
114	0x00000000	0.0
115	0x00000000	0.0
116	0x00000000	0.0
117	0x00000000	0.0
118	0x00000000	0.0
119	0x00000000	0.0
120	0x00000000	0.0
121	0x00000000	0.0
122	0x00000000	0.0
123	0x00000000	0.0
124	0x00000000	0.0
125	0x00000000	0.0
126	0x00000000	0.0
127	0x00000000	0.0

action_model._continuous_distribution.log_sigma f4 [1, 2]
0	0x00000000	0.0
1	0x00000000	0.0

action_model._continuous_distribution.mu.weight f4 [2, 128]
0	0x3c46bcd6	0.012129983
1	0x3c97cb47	0.018529547
2	0x39e2e61f	0.00043277533
3	0x3c6ae380	0.014336467
4	0x3cb76a5e	0.022389587
5	0x3b0860bf	0.0020809618
6	0x3c8c2c83	0.017111069
7	0xbc9c7354	-0.019097961
8	0x3b78840a	0.0037920498
9	0x3c549900	0.012975931
10	0x3cac9770	0.021068305
11	0x3c2a96f0	0.010411963
12	0x3aa3829f	0.0012474841
13	0xbc7cd783	-0.015432241
14	0x3c3aff10	0.011413351
15	0x3cd4cc05	0.02597619
16	0x3c312502	0.010812046
17	0xba079c9d	-0.00051731785
18	0x3b3e260e	0.0029014382
19	0xbc8277b3	-0.015926218
20	0x3d1c42e3	0.038149726
21	0xbb651ca0	-0.0034959689
22	0x3bedf022	0.007261292
23	0x397ae7a7	0.00023928155
24	0x3c65f590	0.014035597
25	0x3c87bae9	0.016568618
26	0xbc89cc62	-0.01682109
27	0x3c557e55	0.013030608
28	0xbbecd243	-0.0072272136
29	0xbc02f7b0	-0.007993624
30	0xbb23d12b	-0.00249965
31	0x3b46b0ab	0.0030317705
32	0xbaf3e383	-0.0018607232
33	0xbc1e86bc	-0.009675678
34	0x3cdf449b	0.027254393
35	0x3c3d990f	0.011572137
36	0xbce7be8f	-0.028289108
37	0x3aef24d3	0.0018245227
38	0x3b6554e0	0.0034993216
39	0xbbf6e435	-0.0075345286
40	0x3c32d5e7	0.010915256
41	0xbc9ee244	-0.019395001
42	0xbc439384	-0.011937026
43	0x3c94a179	0.018143402
44	0x3cda79cf	0.026669411
45	0x3caa11d3	0.020760452
46	0xbd001fb7	-0.031280246
47	0x3d53bd70	0.051694334
48	0x3d209a2e	0.039209537
49	0x3c3d1659	0.011540973
50	0x3cca23a6	0.024675202
51	0x3bbaae03	0.0056970133
52	0xbc37665f	-0.011193841
53	0x3bf41d13	0.007449755
54	0xbce4627b	-0.02787899
55	0xbcadbc53	-0.021207964
56	0xbbad4566	-0.005287814
57	0x3b0ced15	0.0021503617
58	0x3c9666c9	0.018359559
59	0xbc739428	-0.014866866
60	0xbb07e117	-0.002073353
61	0x3c00452b	0.007828991
62	0xbc818863	-0.015812105
63	0xbb9d1347	-0.004793558
64	0xbc8b4d51	-0.01700464
65	0xbce21a75	-0.027600506
66	0x3c892ad0	0.016744047
67	0xbc8a84d7	-0.016909046
68	0xbb17d323	-0.0023166619
69	0x3b3d07b1	0.0028843696
70	0x3ae96e87	0.0017809429
71	0xbc3ef0e7	-0.011654115
72	0x3b1b9a92	0.0023743254
73	0xbc8243ff	-0.015901564
74	0x3c902028	0.017593458
75	0x3c22d303	0.009938004
76	0xbbe0d015	-0.006860743
77	0xbc5a9fe3	-0.013343784
78	0x3be64432	0.0070271725
79	0xbc48246c	-0.012215715
80	0xbae16972	-0.0017197563
81	0x3c8645ed	0.016390765
82	0xbc98548b	-0.018595
83	0xbd2aed3f	-0.04173016
84	0x3cb201e2	0.021729413
85	0x3ceb97c2	0.028758887
86	0xbc930a3b	-0.017949214
87	0x3b71ade2	0.0036877324
88	0x3c8c1d8f	0.017103938
89	0x3cacdc8d	0.02110126
90	0xbd121331	-0.035662834
91	0xbc8d07c4	-0.017215617
92	0xbcc79806	-0.024364483
93	0xbc6c9f5b	-0.01444229
94	0xbbbd33da	-0.0057740035
95	0xbd35be77	-0.044371095
96	0xbd115697	-0.03548297
97	0xbb1d2370	-0.0023977421
98	0xbc2460dc	-0.010032859
99	0xbc3dc2eb	-0.011582117
100	0x3b2fa6c3	0.0026802279
101	0x3c34e6c8	0.011041351
102	0xbcfbd367	-0.030740453
103	0xbbaca955	-0.0052692094
104	0xbbacdbfd	-0.005275248
105	0xbc47f817	-0.012205145
106	0x3d3ce27f	0.04611444
107	0x3bbd9aed	0.005786291
108	0xbc845826	-0.016155314
109	0x3cbcc1ff	0.023041723
110	0xbc956bff	-0.018239973
111	0x3beab7d2	0.0071630264
112	0xbcaa8726	-0.020816397
113	0xbcdf2588	-0.027239576
114	0xbc24b2df	-0.010052412
115	0x3ba2c43e	0.0049672415
116	0xba9cfc02	-0.001197696
117	0xbb16d2c7	-0.0023013817
118	0x3ceb911a	0.028755713
119	0xbbaf26b3	-0.0053451895
120	0x3ca66348	0.020311013
121	0x3ce866d3	0.028369343
122	0x3a7c290a	0.00096191524
123	0x3d1c8129	0.038209114
124	0x3ba88246	0.005142483
125	0x3c07a7a6	0.008279717
126	0xbc8e0e0c	-0.017340682
127	0x3c4a8ba2	0.012362393
128	0xbcdadef7	-0.026717646
129	0x3d1163bf	0.035495516
130	0x3b209a74	0.0024506124
131	0x3c9c2cd0	0.019064337
132	0xbccd4210	-0.025055915
133	0x3cacf0f1	0.021110984
134	0xbc184973	-0.009294855
135	0x3c0d7e5b	0.0086360825
136	0x3bb3c632	0.005486273
137	0x3d21e22f	0.039522346
138	0xbcc18ea4	-0.023627587
139	0x3d1dde75	0.03854223
140	0x3c2b0216	0.010437509
141	0xbca5a437	-0.020219905
142	0xbc3cd49d	-0.0115253
143	0xbb9298e8	-0.0044737943
144	0x3c753023	0.01496509
145	0xbc8df15f	-0.017327009
146	0x3c799c6a	0.015235046
147	0x3cae4d90	0.021277219
148	0x3c93c08d	0.018036151
149	0x3aa5faea	0.0012663279
150	0x3c19e531	0.009393022
151	0x3acc473a	0.0015585192
152	0x3c8d6abc	0.017262809
153	0x3bf7401a	0.0075454833
154	0x3c288581	0.010285736
155	0x3c88f96e	0.0167205
156	0xbbcfa928	-0.0063373037
157	0xbbe95df5	-0.0071217963
158	0xbb0ece24	-0.002179035
159	0xbb9046da	-0.0044029774
160	0xbc9f36dd	-0.01943534
161	0x3ba7497c	0.0051051956
162	0xbc2c34af	-0.010510608
163	0x3bdb93ed	0.0067009837
164	0x3cafff0f	0.021483926
165	0x3b13914f	0.002251703
166	0xbc8bd05f	-0.017067133
167	0xbb9fdea6	-0.0048788367
168	0xbc7d6565	-0.015466069
169	0xbd1fb90b	-0.03899483
170	0xbcbaf09b	-0.022819808
171	0xbbe10c70	-0.0068679377
172	0xba828b6f	-0.0009959767
173	0x3b0e92c5	0.0021754962
174	0x3c1ed97f	0.00969541
175	0xbc5a588f	-0.013326778
176	0xbcccfe23	-0.025023526
177	0xbb118359	-0.0022203533
178	0x3a160c7f	0.0005723908
179	0x3ca458e3	0.020061916
180	0x3ceb1fdb	0.028701713
181	0xbcb5cf4d	-0.022193575
182	0xbcded110	-0.027199298
183	0xbcc34a5a	-0.023839165
184	0xbadb2093	-0.0016718082
185	0x3c2d44f7	0.0105755245
186	0xbc129bd3	-0.008948284
187	0x3cabb8b0	0.02096209
188	0x3c012c9c	0.007884171
189	0x3b74bdc5	0.0037344557
190	0xbc680e33	-0.014163542
191	0x3b879287	0.0041373405
192	0xbc89674b	-0.016772887
193	0xbb661a8f	-0.0035111045
194	0xbcf5ca82	-0.03000379
195	0xbc0c9a39	-0.008581691
196	0xbcb8b7cf	-0.022548584
197	0x3a5bb41b	0.0008381025
198	0xba814357	-0.0009861988
199	0x3cbb498a	0.022862215
200	0x3bb18013	0.005416879
201	0xbba17876	-0.00492769
202	0xbc163798	-0.009168528
203	0x3cf0806a	0.029358108
204	0xba335a1f	-0.0006841737
205	0xbcb56b4d	-0.022145892
206	0xbb30b475	-0.002696303
207	0xbc2a992a	-0.010412494
208	0xbd144f75	-0.03620859
209	0x3d62498d	0.055245925
210	0xbca79471	-0.020456525
211	0xbc915783	-0.017741924
212	0x3c8e9095	0.017402926
213	0x3b3cf255	0.0028830965
214	0x3813de1d	3.525439e-05
215	0x3ca6272a	0.020282347
216	0x3bb30d9f	0.0054642702
217	0x3c0d9eb7	0.008643798
218	0x3c82934f	0.015939383
219	0x3c707528	0.01467637
220	0x3cf69915	0.030102292
221	0xbc9c0456	-0.019045036
222	0xbcad8ab5	-0.021184305
223	0xbd18951f	-0.037251588
224	0x3c8d9a2f	0.017285435
225	0xbc8cc2f6	-0.017182808
226	0x3c0f0ae1	0.008730621
227	0x39d7c7b0	0.00041156774
228	0xbc2f0bcd	-0.010683966
229	0xbc9eb83d	-0.019374961
230	0xbcc48ebb	-0.02399384
231	0xb99cb5e9	-0.00029890172
232	0x3ceed208	0.029152885
233	0x3bfc926f	0.007707886
234	0x3c10ec53	0.008845407
235	0x3b313962	0.002704226
236	0x3c924431	0.017854782
237	0xb90dab41	-0.00013510605
238	0xbcd68a60	-0.02618903
239	0x3b88cdaf	0.00417491
240	0x3c15e9c0	0.009149969
241	0x3ba05fd1	0.0048942347
242	0xbb641213	-0.0034800812
243	0x3bdba3df	0.0067028846
244	0xbc6bbc60	-0.014388174
245	0xbc9334ad	-0.017969454
246	0x3c465902	0.012106182
247	0x3ca79249	0.020455496
248	0xbbc458b1	-0.005992018
249	0x3c5028a0	0.012704998
250	0xbbbf84e7	-0.0058447006
251	0x3b319409	0.0027096292
252	0xbafbfa35	-0.0019224348
253	0x3bb1fa3f	0.005431443
254	0x3c9b397b	0.018948307
255	0xbb996fdb	-0.0046825237

action_model._continuous_distribution.mu.bias f4 [2]
0	0x00000000	0.0
1	0x00000000	0.0

action_model._discrete_distribution.branches.0.weight f4 [1, 128]
0	0x3b3a2255	0.002840181
1	0xbc0795b9	-0.008275443
2	0x3bb2eeb4	0.0054605845
3	0x3b0f4292	0.0021859747
4	0x3cae0e28	0.021246985
5	0x3aaef5d8	0.0013348414
6	0xbc1d75bf	-0.009610592
7	0x3c37aa81	0.011210085
8	0x3c018b7f	0.007906794
9	0xb920d572	-0.00015338304
10	0xbbd0425d	-0.0063555674
11	0x3bbe48cb	0.0058070174
12	0x3b600be2	0.003418677
13	0xbc17393c	-0.009229954
14	0xbc881b67	-0.016614629
15	0x3b26c3df	0.0025446338
16	0x39793ff8	0.0002377032
17	0xbc1a9aeb	-0.009436349
18	0xba0c92a7	-0.0005362429
19	0xbc633a5b	-0.0138688935
20	0xbba2d967	-0.004969764
21	0xbc499a0b	-0.012304793
22	0x3c3abd03	0.011397603
23	0x3bafc6df	0.0053642835
24	0x3c08e377	0.008355013
25	0x3af4c4e5	0.0018674402
26	0xbbbd632f	-0.005779646
27	0xbbe4ef35	-0.0069865235
28	0x3c333032	0.010936784
29	0xbc2320c0	-0.009956539
30	0xbc7749ad	-0.015093249
31	0x3b7dac25	0.0038707342
32	0xbba4df3c	-0.0050314944
33	0xbc5905f2	-0.013246046
34	0x3c4a266f	0.012338265
35	0xbc88c0d8	-0.016693518
36	0x3c2f4971	0.010698662
37	0xbb98dc4c	-0.0046649333
38	0x3c0ebdad	0.008712214
39	0xbbddd837	-0.0067701596
40	0xbca7f5fe	-0.02050304
41	0xba902eab	-0.0011000236
42	0xbab1af2a	-0.0013556231
43	0xbbdb6f2d	-0.006696603
44	0xbbcbd502	-0.006220461
45	0x3995aef2	0.0002854984
46	0xbc2a15db	-0.010381187
47	0x3bc1c9f1	0.005913966
48	0x3be4594f	0.006968654
49	0x3ba78447	0.0051122042
50	0xbba870ed	-0.005140415
51	0xbbb1b76a	-0.005423476
52	0x3be33667	0.0069339755
53	0x3b55ab6d	0.0032603398
54	0x3bacda38	0.005275037
55	0x3bb78ccf	0.0056015025
56	0x3b85b86f	0.004080824
57	0xbbedf2a5	-0.0072615915
58	0xba371a4f	-0.0006984816
59	0xbbf52d9f	-0.007482245
60	0x3c8eebdb	0.017446449
61	0x3b664b0b	0.0035139944
62	0xbb9617a0	-0.004580453
63	0xbb77bc5d	-0.0037801482
64	0x3c6c7bbb	0.0144337965
65	0xbb840144	-0.004028471
66	0xbb9a2643	-0.004704268
67	0xbc7dbc45	-0.0154867815
68	0x3a67d457	0.0008843592
69	0xbc802424	-0.015642233
70	0xbc93c944	-0.018040307
71	0xbb824a1b	-0.003976119
72	0x3b4747cf	0.0030407791
73	0x3c81c337	0.015840156
74	0x3c8862af	0.016648619
75	0x3c3134fe	0.010815857
76	0xbc4779c7	-0.01217503
77	0xbb1aff53	-0.002365072
78	0xba860e18	-0.0010227589
79	0xbb9f4b1a	-0.0048612477
80	0x3bfdb7d7	0.0077428627
81	0x3c2c58f4	0.010519255
82	0x3b69221d	0.0035573312
83	0xbac479e9	-0.0014989945
84	0x3c83a918	0.016071841
85	0x3abb345c	0.0014282572
86	0x3adeb4c0	0.0016991124
87	0xbcc41b4f	-0.023938803
88	0xbbaa1440	-0.0051904023
89	0x3c0129c4	0.007883493
90	0xbc1eddea	-0.009696463
91	0x3c04d295	0.008106847
92	0xbbe04c47	-0.0068450305
93	0xbc5d06cd	-0.013490391
94	0xbbfb247f	-0.007664263
95	0x3c10dc66	0.00884161
96	0x3c4e66af	0.012597724
97	0x3c0ec946	0.0087149795
98	0xbbe67400	-0.0070328712
99	0xbc4508b3	-0.012026
100	0xbbcafb45	-0.0061945044
101	0x3b98188b	0.0046415976
102	0x3b9c859b	0.004776669
103	0xbb556565	-0.0032561657
104	0xbb526097	-0.003210103
105	0x3b162607	0.002291085
106	0xbb9d1ba7	-0.004794556
107	0x3c74daea	0.014944771
108	0x3ba55faf	0.0050468068
109	0xbc242a83	-0.010019901
110	0x3c12192d	0.008917135
111	0xbc658e20	-0.014010936
112	0xba905c99	-0.0011013924
113	0xbc0a05c3	-0.008424225
114	0x3c6eff57	0.014587245
115	0x3c04ec71	0.008113013
116	0x3c34909f	0.0110208085
117	0x3b2d4908	0.0026441235
118	0x3c18ea83	0.009333256
119	0x3bc65a97	0.0060532796
120	0x3be7bae3	0.007071839
121	0x3aa5a43b	0.0012637445
122	0x3bd50312	0.00650061
123	0xbb342a5b	-0.0027491066
124	0x3be74207	0.0070574316
125	0x3babeb57	0.0052465606
126	0x3ab2dd47	0.0013646268
127	0x3bb779f5	0.005599255

critic.network_body.linear_encoder.seq_layers.0.weight f4 [128, 6]
0	0x3d104c6a	0.035229124
1	0xbe08c740	-0.13357258
2	0x3eab5488	0.3346293
3	0xbf2bbabd	-0.67081815
4	0xbed10760	-0.4082594
5	0xbf8e7c91	-1.1131765
6	0x3d26ccc5	0.040722627
7	0x3dbec98c	0.09315786
8	0xbe9126f9	-0.28350046
9	0xbf02b84c	-0.51062465
10	0x3ea22661	0.31669906
11	0xbe119fb5	-0.1422108
12	0xbded90a4	-0.11599854
13	0xbde8e0c5	-0.113709964
14	0xbeaa034b	-0.33205637
15	0xbe6d514d	-0.23175545
16	0xbf0a2af5	-0.539718
17	0x3f256577	0.6460795
18	0xbf186986	-0.59536016
19	0x3dd0f653	0.102032326
20	0x3f0c138d	0.5471733
21	0x3f17bb86	0.59270513
22	0xbef53bce	-0.4789719
23	0x3eaf89f7	0.34284946
24	0x3ef6da3c	0.48213375
25	0xbf08beaa	-0.5341593
26	0x3f003ba8	0.5009103
27	0x3e50e6b7	0.2040051
28	0x3f37e163	0.7182829
29	0x3ea30722	0.3184138
30	0xbe2d271b	-0.16909449
31	0x3d95cebf	0.07314824
32	0xbe412216	-0.18860659
33	0xbc1dc238	-0.009628825
34	0x3f35431c	0.70805526
35	0x3eecc036	0.46240395
36	0xbf3b1b95	-0.7308896
37	0x3f2ed7be	0.68297946
38	0xbf30ec00	-0.6911011
39	0x3d8f3e1f	0.069942705
40	0x3ed85403	0.42251596
41	0x3ed926da	0.42412454
42	0x3e5cf91e	0.21579406
43	0x3e31f495	0.17378457
44	0xbc6b94a2	-0.014378699
45	0xbeb957b5	-0.36199728
46	0x3f0dbcd8	0.5536628
47	0x3eecb18a	0.46229202
48	0x3e7a8fda	0.24468938
49	0xbc9e9b93	-0.019361293
50	0x3d7156fe	0.058920853
51	0x3e7febb7	0.24992262
52	0x3f093c86	0.53607976
53	0x3e4f49d1	0.20243002
54	0x3df14e9a	0.1178257
55	0xbdb34ac0	-0.08754492
56	0xbeb05845	-0.34442344
57	0xbded6e8e	-0.11593352
58	0x3d7c3ead	0.06158321
59	0xbdbfc6bd	-0.09364078
60	0xbdf86ec2	-0.121305004
61	0xbf2a48dc	-0.66517425
62	0x3e421480	0.18953133
63	0xbe92d474	-0.28677714
64	0x3e815a55	0.2526423
65	0x3f18bca8	0.59662867
66	0xbe04d38b	-0.12971322
67	0xbe90c514	-0.2827536
68	0x3e22a188	0.15881932
69	0xbeaab24d	-0.33339158
70	0xbe62ae42	-0.22136787
71	0xbf05bc44	-0.52240396
72	0x3e6e1e5c	0.23253769
73	0xbf16af99	-0.5886169
74	0xbf01dac3	-0.5072443
75	0xbec12501	-0.37723544
76	0x3f1d0fd5	0.6135228
77	0x3da0872f	0.07838284
78	0x3f5e5f68	0.8686433
79	0x3d32281d	0.043495286
80	0x3e6dd99f	0.23227547
81	0x3edb2fed	0.42810002
82	0xbdfb076e	-0.122572765
83	0x3d084756	0.033271156
84	0xbf5bdcf4	-0.8588402
85	0x3cc7f2ca	0.024407763
86	0x3dee0551	0.11622108
87	0x3de0e2ef	0.10980784
88	0xbd22b3f6	-0.039722405
89	0xbe8e787d	-0.278263
90	0xbd0e4a3a	-0.034738757
91	0xbf26b8ed	-0.65125924
92	0xbf03f5fd	-0.51547223
93	0x3e333e51	0.1750424
94	0x3e3d19bd	0.1846685
95	0x3b6c89f1	0.0036092962
96	0xbc1a3303	-0.009411576
97	0x3e9d2778	0.30694175
98	0xbee2500b	-0.44201693
99	0xbe6fd731	-0.23421933
100	0x3de23ba6	0.11046533
101	0xbee01a55	-0.4377009
102	0x3ee02666	0.43779296
103	0x3dd83a8a	0.105580404
104	0xbe92e875	-0.28692976
105	0x3f17b74f	0.5926408
106	0xbe1d0c25	-0.15336664
107	0xbecf76e8	-0.40520406
108	0xbdf5d15c	-0.12002823
109	0x3eace8db	0.33771405
110	0xbe67b106	-0.22626123
111	0x3e95603b	0.2917498
112	0xbe6f17ca	-0.23348919
113	0x3e8f2627	0.27958795
114	0xbe986289	-0.29762676
115	0x3eb4004f	0.35156485
116	0xbe993cc7	-0.29929182
117	0xbdd144d8	-0.10218209
118	0x3ef64de6	0.48106307
119	0xbe4279b5	-0.1899174
120	0xbf2d2a96	-0.67643106
121	0x3f436478	0.7632518
122	0xbf00a3ef	-0.5025014
123	0x3d432158	0.04763922
124	0xbf492224	-0.7856772
125	0xbe014e4a	-0.12627521
126	0xbdd787ea	-0.105239704
127	0xbe343a78	-0.17600429
128	0x3e0e70b0	0.13910174
129	0xbf1ddd63	-0.61665934
130	0xbc8ce8fa	-0.017200936
131	0xbe6b0d08	-0.2295419
132	0x3ed97ccf	0.42478034
133	0x3e0acc9c	0.13554615
134	0xbe71d087	-0.23614703
135	0xbde62717	-0.112379245
136	0x3d952c71	0.07283867
137	0xbeaf77f4	-0.34271204
138	0xbdf5cce3	-0.1200197
139	0x3e9aaad7	0.30208465
140	0xbe12f299	-0.14350356
141	0x3e3251c9	0.17414011
142	0xbe546466	-0.20741424
143	0x3e21f99d	0.15817876
144	0x3d924d63	0.071436666
145	0x3d2fc89d	0.04291593
146	0x3d53b26f	0.05168384
147	0x3f29be8d	0.6630638
148	0x3f128981	0.57241064
149	0x3ecf422a	0.40480167
150	0x3e257af8	0.1616019
151	0xbe8de881	-0.2771645
152	0xbebfe71f	-0.3748102
153	0x3ddba649	0.10725076
154	0x3d83fc3e	0.06444596
155	0x3ee23bcf	0.44186255
156	0xbe7b0136	-0.2451218
157	0x3ee1f4e5	0.44132152
158	0x3ec0f3e8	0.37686086
159	0xbf4e5812	-0.80603135
160	0xbf16cd51	-0.5890704
161	0x3e069a3c	0.13144773
162	0xbe8c38cd	-0.27387086
163	0xbe802710	-0.25029802
164	0x3d523e94	0.05132921
165	0xbe93d5dc	-0.288741
166	0x3eac8515	0.33695284
167	0xbef24046	-0.47314662
168	0xbe691913	-0.22763471
169	0xbf2599ae	-0.6468762
170	0x3f03310f	0.5124673
171	0x3e012777	0.12612711
172	0x3eb05303	0.34438333
173	0x3d050c8c	0.03248267
174	0x3f1e8c45	0.61932784
175	0xbf7ca288	-0.98685503
176	0x3dcbb718	0.09947032
177	0x3e851f32	0.26000363
178	0xbedffe19	-0.4374855
179	0x3eca0b2f	0.39461657
180	0x3e6b915b	0.23004667
181	0x3def376d	0.116804935
182	0x3ed94d00	0.4244156
183	0xbeb6fda7	-0.35740396
184	0xbe3c213e	-0.18372056
185	0x3e60e434	0.21962053
186	0x3c7be9dd	0.015375582
187	0xbe079153	-0.1323903
188	0xbf8a37b0	-1.0798244
189	0x3d3c0a90	0.04590851
190	0xbe5685bf	-0.20949458
191	0xbe8cb3d3	-0.27480945
192	0x3d5412b7	0.05177566
193	0x3ed542cf	0.41652533
194	0xbe9a37f9	-0.3012083
195	0xbd34c7c2	-0.044135816
196	0x3e304e20	0.17217302
197	0xbeede278	-0.46461844
198	0xbe442819	-0.19155921
199	0x3e10e123	0.14148383
200	0xbe9e9c1a	-0.3097847
201	0xbe635566	-0.22200546
202	0x3def9f1f	0.11700272
203	0xbe48f65c	-0.19625229
204	0x3f049369	0.5178743
205	0x3dfadc26	0.12249021
206	0x3ee3e5d2	0.44511276
207	0xbeaae8af	-0.33380648
208	0xbea7d211	-0.32777455
209	0xbeb11144	-0.34583485
210	0x3ebae331	0.36501458
211	0x3e6a1cd1	0.22862555
212	0xbf2cba88	-0.67472124
213	0xbdfa2e62	-0.12215878
214	0x3e087592	0.133261
215	0x3e12bc17	0.14329563
216	0xbd38b386	-0.045093082
217	0xbf0bcbce	-0.54607856
218	0x3dd3ea2a	0.103473976
219	0xbe7b2d3a	-0.24528971
220	0x3f0cce44	0.55002236
221	0xbf1bb939	-0.608295
222	0xbdb3dd0a	-0.08782394
223	0x3ef4a1d5	0.47779718
224	0x3f1698f3	0.5882713
225	0x3f1bcee5	0.6086257
226	0x3ec328a8	0.38116956
227	0xbec1b894	-0.37836134
228	0xbf17a2e1	-0.5923291
229	0xbe85d65f	-0.26140115
230	0x3f037b89	0.51360375
231	0x3e898fce	0.26867527
232	0x3e17443d	0.14772125
233	0xbe95a49c	-0.2922715
234	0x3de6f7f8	0.11277765
235	0x3eab4826	0.33453482
236	0xbe4bbb40	-0.19895649
237	0xbeb11bfe	-0.3459167
238	0x3c9e6e62	0.019339744
239	0x3edd084e	0.43170398
240	0x3eaf5021	0.3424082
241	0xbe54c258	-0.20777261
242	0xbef7a38d	-0.48366967
243	0x3f60f6d4	0.8787663
244	0xbee5023b	-0.44728264
245	0x3e13e0df	0.1444125
246	0x3f2a34e0	0.6648693
247	0xbe4d48f1	-0.20047356
248	0x3e8c4cd4	0.27402365
249	0x3e0c60f1	0.13708855
250	0xbda9cd39	-0.08291096
251	0xbe8c11c4	-0.27357304
252	0x3e338642	0.17531684
253	0x3e06a95f	0.13150547
254	0x3e6221f9	0.22083272
255	0xbe3a26c6	-0.18178853

critic.network_body.linear_encoder.seq_layers.0.bias f4 [128]
0	0x00000000	0.0
1	0x00000000	0.0
2	0x00000000	0.0
3	0x00000000	0.0
4	0x00000000	0.0
5	0x00000000	0.0
6	0x00000000	0.0
7	0x00000000	0.0
8	0x00000000	0.0
9	0x00000000	0.0
10	0x00000000	0.0
11	0x00000000	0.0
12	0x00000000	0.0
13	0x00000000	0.0
14	0x00000000	0.0
15	0x00000000	0.0
16	0x00000000	0.0
17	0x00000000	0.0
18	0x00000000	0.0
19	0x00000000	0.0
20	0x00000000	0.0
21	0x00000000	0.0
22	0x00000000	0.0
23	0x00000000	0.0
24	0x00000000	0.0
25	0x00000000	0.0
26	0x00000000	0.0
27	0x00000000	0.0
28	0x00000000	0.0
29	0x00000000	0.0
30	0x00000000	0.0
31	0x00000000	0.0
32	0x00000000	0.0
33	0x00000000	0.0
34	0x00000000	0.0
35	0x00000000	0.0
36	0x00000000	0.0
37	0x00000000	0.0
38	0x00000000	0.0
39	0x00000000	0.0
40	0x00000000	0.0
41	0x00000000	0.0
42	0x00000000	0.0
43	0x00000000	0.0
44	0x00000000	0.0
45	0x00000000	0.0
46	0x00000000	0.0
47	0x00000000	0.0
48	0x00000000	0.0
49	0x00000000	0.0
50	0x00000000	0.0
51	0x00000000	0.0
52	0x00000000	0.0
53	0x00000000	0.0
54	0x00000000	0.0
55	0x00000000	0.0
56	0x00000000	0.0
57	0x00000000	0.0
58	0x00000000	0.0
59	0x00000000	0.0
60	0x00000000	0.0
61	0x00000000	0.0
62	0x00000000	0.0
63	0x00000000	0.0
64	0x00000000	0.0
65	0x00000000	0.0
66	0x00000000	0.0
67	0x00000000	0.0
68	0x00000000	0.0
69	0x00000000	0.0
70	0x00000000	0.0
71	0x00000000	0.0
72	0x00000000	0.0
73	0x00000000	0.0
74	0x00000000	0.0
75	0x00000000	0.0
76	0x00000000	0.0
77	0x00000000	0.0
78	0x00000000	0.0
79	0x00000000	0.0
80	0x00000000	0.0
81	0x00000000	0.0
82	0x00000000	0.0
83	0x00000000	0.0
84	0x00000000	0.0
85	0x00000000	0.0
86	0x00000000	0.0
87	0x00000000	0.0
88	0x00000000	0.0
89	0x00000000	0.0
90	0x00000000	0.0
91	0x00000000	0.0
92	0x00000000	0.0
93	0x00000000	0.0
94	0x00000000	0.0
95	0x00000000	0.0
96	0x00000000	0.0
97	0x00000000	0.0
98	0x00000000	0.0
99	0x00000000	0.0
100	0x00000000	0.0
101	0x00000000	0.0
102	0x00000000	0.0
103	0x00000000	0.0
104	0x00000000	0.0
105	0x00000000	0.0
106	0x00000000	0.0
107	0x00000000	0.0
108	0x00000000	0.0
109	0x00000000	0.0
110	0x00000000	0.0
111	0x00000000	0.0
112	0x00000000	0.0
113	0x00000000	0.0
114	0x00000000	0.0
115	0x00000000	0.0
116	0x00000000	0.0
117	0x00000000	0.0
118	0x00000000	0.0
119	0x00000000	0.0
120	0x00000000	0.0
121	0x00000000	0.0
122	0x00000000	0.0
123	0x00000000	0.0
124	0x00000000	0.0
125	0x00000000	0.0
126	0x00000000	0.0
127	0x00000000	0.0

critic.network_body.linear_encoder.seq_layers.2.weight f4 [128, 128]
0	0xbd1e7ef0	-0.038695276
1	0x3dedf7c0	0.1161952
2	0xbdcfc616	-0.10145204
3	0x3d83688d	0.06416426
4	0xbd7d72c1	-0.061877016
5	0x3e1bd0f7	0.15216433
6	0xbe33fc34	-0.17576677
7	0x39c3537f	0.00037255508
8	0x3cbf2aff	0.023335932
9	0x3da45f1f	0.080259554
10	0xbc3a7a55	-0.011381705
11	0xbdcfe123	-0.10150363
12	0x3d8b8d4c	0.068140596
13	0xbc0fe873	-0.008783448
14	0x3e1033a4	0.140822
15	0x3de17f39	0.11010594
16	0x3b62ffe5	0.0034637388
17	0xbc94b047	-0.018150462
18	0xbe789f4a	-0.24279514
19	0xbd80c7fe	-0.062881455
20	0xbb7c47b6	-0.0038494891
21	0xbd036bd4	-0.032085255
22	0xbe391a39	-0.1807641
23	0xbd52cbd8	-0.05146393
24	0x3dc766b3	0.09736385
25	0x3ca806d2	0.020511065
26	0xbdb48e59	-0.08816213
27	0xbc7c9c9f	-0.015418201
28	0xbe098847	-0.13430892
29	0x3e476597	0.19472347
30	0xbe03c525	-0.12868173
31	0xbd397172	-0.045274206
32	0x3d7eb2e0	0.062182307
33	0x3d4be8ad	0.049782444
34	0x3d6b48fb	0.057442646
35	0xbd3629cc	-0.044473454
36	0xbcd8d117	-0.02646689
37	0x3e20406a	0.15649572
38	0xbe37cb3c	-0.17948622
39	0x3dc0ddca	0.09417303
40	0x3c47773f	0.012174427
41	0x3ca8c491	0.020601543
42	0xbe5c0f3c	-0.21490186
43	0xbd838163	-0.06421163
44	0x3da4fa18	0.08055514
45	0xbd67b245	-0.056566495
46	0xbd8fac73	-0.07015314
47	0xb946ec6c	-0.00018970825
48	0xbdc1c824	-0.09462002
49	0x3e30402a	0.17211977
50	0x3d5982f3	0.0531034
51	0xbda0030f	-0.078130834
52	0xbbe573ca	-0.0070023285
53	0x3d1c169a	0.038107492
54	0x3dd2c6af	0.10291802
55	0x3d8574e8	0.06516439
56	0xbdaecd4b	-0.0853525
57	0x3dc680a3	0.09692504
58	0x3de5a9f3	0.11214056
59	0x3de83c44	0.1133962
60	0x3d21ca64	0.039499655
61	0xbd8b2c8e	-0.067956075
62	0xbcf984a8	-0.030458763
63	0x3d24fede	0.040282123
64	0xbdb732d8	-0.089452446
65	0x3cde5e59	0.027144598
66	0x3d389bc0	0.04507041
67	0x3d252cd4	0.040325955
68	0xbd997bee	-0.07494341
69	0xbd5f6406	-0.05453875
70	0xbe013769	-0.12618794
71	0x3e213d3f	0.1574602
72	0x3b4ebf32	0.0031547067
73	0x3def4cc6	0.11684565
74	0x3b456c76	0.0030124462
75	0xbc6a5679	-0.014302843
76	0x3cfd83db	0.030946663
77	0xbb741407	-0.0037243383
78	0xbe384448	-0.17994797
79	0x3c999f93	0.018752849
80	0xbe25e099	-0.16198958
81	0xbdf25548	-0.11832672
82	0x3cff8237	0.031190021
83	0xbdc17a7d	-0.09447191
84	0xbd6d8a04	-0.05799295
85	0x3c83e16c	0.0160987
86	0xbdf0423f	-0.117313854
87	0x3e0de67f	0.13857459
88	0x3ce17789	0.02752282
89	0xbdb84a1d	-0.08998511
90	0xbd74ff1e	-0.05981361
91	0xbd931224	-0.071811944
92	0xbdbafc1d	-0.09130118
93	0xbd76fa59	-0.060297344
94	0x3cfac77a	0.030612696
95	0xbd611149	-0.054948125
96	0x3ddf5f43	0.109068416
97	0x3db5130b	0.08841523
98	0x3ca35bd2	0.019941244
99	0xbe1248e4	-0.14285618
100	0x3d91b481	0.071145065
101	0x3d50ab36	0.05094453
102	0xbe4a14a1	-0.19734432
103	0xbe25d046	-0.16192731
104	0x3a6849e8	0.00088611105
105	0x3db86ff0	0.090057254
106	0x3e29d666	0.16585693
107	0xbdcd555a	-0.10026045
108	0xbdd43db8	-0.103633344
109	0x3ca7edc6	0.020499121
110	0x3e0aebf5	0.13566573
111	0x3db6d258	0.08926839
112	0x3d16df02	0.03683377
113	0xbd89d3ab	-0.067298256
114	0x3d52065b	0.051275592
115	0xbe075d36	-0.13219151
116	0x3d336e27	0.04380622
117	0x3e0bf255	0.13666661
118	0x3cc1d8dc	0.023662977
119	0x3d0c4b87	0.034251716
120	0xba089e89	-0.0005211612
121	0x3ce788cb	0.02826347
122	0xbd240148	-0.040040284
123	0x3cd6af26	0.026206564
124	0xbba78ae1	-0.005112991
125	0x3e1cc1fa	0.15308371
126	0xbe485bf3	-0.19566326
127	0xbc3f3677	-0.0116707
128	0xbd13cf38	-0.03608629
129	0x3d2f4595	0.042790968
130	0xbd33489e	-0.043770425
131	0xbd2df437	-0.04246923
132	0x3d6b4647	0.05744007
133	0xbcfbbfd8	-0.030731127
134	0x3ca602b8	0.020264968
135	0xbce80370	-0.028321952
136	0x3dedc603	0.11610033
137	0xbd2c39be	-0.042047255
138	0xbb8e5a3a	-0.004344252
139	0x3d7d915a	0.061906196
140	0xbc761330	-0.015019223
141	0x3c1e15cf	0.009648754
142	0xbda7cfb7	-0.08193915
143	0xbd8275ca	-0.06370123
144	0x3ccd366c	0.025050364
145	0xbe01d985	-0.12680633
146	0x3d1b81f8	0.037965745
147	0xbe03defc	-0.1287803
148	0xbdc2a140	-0.09503412
149	0x3d78adec	0.06071274
150	0xbd092b8c	-0.033488795
151	0xbe2d2bba	-0.16911212
152	0x3d86fd78	0.06591314
153	0xbd191df4	-0.03738208
154	0xbda659b8	-0.08122581
155	0x3aa85710	0.001284333
156	0xbe025b04	-0.12730032
157	0xbcd13ac3	-0.025540715
158	0x3d7bf048	0.061508447
159	0x3ce955b8	0.028483257
160	0xbd6fe1cc	-0.058564946
161	0xbdf88971	-0.1213559
162	0x3ceedfdf	0.029159484
163	0x3a206f8e	0.00061201386
164	0x3b3ddae2	0.0028969576
165	0x3d8f0cc4	0.06984857
166	0xbcd5d3b8	-0.026101932
167	0x3d3989e0	0.045297503
168	0xbb275f8f	-0.0025539135
169	0x3cf43fe3	0.02981562
170	0xbd05b24a	-0.032640733
171	0x3cefd891	0.029278072
172	0xbdab3040	-0.08358812
173	0xbcd26439	-0.025682556
174	0xbbd34b82	-0.00644821
175	0x3d0061da	0.03134332
176	0x3ce47310	0.027886897
177	0x3d154640	0.03644395
178	0xbc3c9a52	-0.011511402
179	0x3df34a20	0.118793726
180	0xbda7b537	-0.08188861
181	0xbd9ecac9	-0.07753522
182	0x3d0d23ba	0.0344579
183	0xbccc32eb	-0.024926623
184	0xbd9e804c	-0.077393144
185	0xbdcee03b	-0.10101362
186	0x3d77c779	0.060492966
187	0xbe0e750c	-0.13911837
188	0x3da69bfe	0.08135222
189	0x3ccef406	0.025262844
190	0xbddb3060	-0.10702586
191	0x3d05da26	0.032678746
192	0xbdc146b9	-0.094373174
193	0xbd349e94	-0.044096544
194	0x3b50f60c	0.0031884937
195	0x3dc44005	0.09582523
196	0xbdb2c317	-0.08728617
197	0xbc5df498	-0.013547085
198	0xbc118de9	-0.008883932
199	0xbb93925a	-0.0045035305
200	0xbda9b0aa	-0.08285649
201	0xbdbc2717	-0.09187143
202	0xba338bc3	-0.0006849134
203	0x3cd72a64	0.02626533
204	0x3e10f5d9	0.14156283
205	0x3dc3c46b	0.09558948
206	0xbdc854eb	-0.09781822
207	0xbe058f2c	-0.13042897
208	0xbca4b708	-0.020106807
209	0xbe0103cb	-0.12599103
210	0xbca34034	-0.019928075
211	0x3d04c14d	0.03241091
212	0x3dce6311	0.10077489
213	0xbe21b251	-0.15790679
214	0x3dd9bc6c	0.10631642
215	0xbdecfc68	-0.1157158
216	0xbcb5871d	-0.022159154
217	0x3d9a915c	0.07547256
218	0x3e05d84e	0.13070795
219	0xbcdddfbb	-0.027084222
220	0xbdb29be7	-0.08721142
221	0xbdeaa33f	-0.11456918
222	0x3deaa3be	0.114570126
223	0xbd797b91	-0.060908858
224	0x3d647d49	0.055783544
225	0xbd745b69	-0.059657488
226	0xbc723271	-0.014782534
227	0xbd726aed	-0.059184004
228	0x3db0cdfc	0.086330384
229	0xbd66744c	-0.056263253
230	0x3b731cbd	0.0037095987
231	0x3de2fe16	0.11083619
232	0xbd11f74e	-0.03563624
233	0x3d335220	0.043779492
234	0xbcb53c63	-0.022123521
235	0xbd1a8981	-0.03772879
236	0xbdce7700	-0.10081291
237	0x3d64d5f2	0.055868097
238	0xbe20591a	-0.1565899
239	0x3d64ad68	0.055829436
240	0xbd804e93	-0.06264987
241	0xbcaa0760	-0.02075547
242	0x3d5fc6bb	0.054632884
243	0x3bda3590	0.006659217
244	0x3e2e8825	0.17044123
245	0xbd0b5ab8	-0.034022063
246	0x3d392fcb	0.045211595
247	0xbcf3b8df	-0.02975124
248	0x3d236610	0.039892256
249	0xb9bc2709	-0.00035887238
250	0xbdab0c91	-0.08352006
251	0xbe04223a	-0.12903681
252	0x3d227f83	0.039672386
253	0x3d00a7dd	0.031410087
254	0x3d73defb	0.059538823
255	0xbd4278c6	-0.04747846

critic.network_body.linear_encoder.seq_layers.2.bias f4 [128]
0	0x00000000	0.0
1	0x00000000	0.0
2	0x00000000	0.0
3	0x00000000	0.0
4	0x00000000	0.0
5	0x00000000	0.0
6	0x00000000	0.0
7	0x00000000	0.0
8	0x00000000	0.0
9	0x00000000	0.0
10	0x00000000	0.0
11	0x00000000	0.0
12	0x00000000	0.0
13	0x00000000	0.0
14	0x00000000	0.0
15	0x00000000	0.0
16	0x00000000	0.0
17	0x00000000	0.0
18	0x00000000	0.0
19	0x00000000	0.0
20	0x00000000	0.0
21	0x00000000	0.0
22	0x00000000	0.0
23	0x00000000	0.0
24	0x00000000	0.0
25	0x00000000	0.0
26	0x00000000	0.0
27	0x00000000	0.0
28	0x00000000	0.0
29	0x00000000	0.0
30	0x00000000	0.0
31	0x00000000	0.0
32	0x00000000	0.0
33	0x00000000	0.0
34	0x00000000	0.0
35	0x00000000	0.0
36	0x00000000	0.0
37	0x00000000	0.0
38	0x00000000	0.0
39	0x00000000	0.0
40	0x00000000	0.0
41	0x00000000	0.0
42	0x00000000	0.0
43	0x00000000	0.0
44	0x00000000	0.0
45	0x00000000	0.0
46	0x00000000	0.0
47	0x00000000	0.0
48	0x00000000	0.0
49	0x00000000	0.0
50	0x00000000	0.0
51	0x00000000	0.0
52	0x00000000	0.0
53	0x00000000	0.0
54	0x00000000	0.0
55	0x00000000	0.0
56	0x00000000	0.0
57	0x00000000	0.0
58	0x00000000	0.0
59	0x00000000	0.0
60	0x00000000	0.0
61	0x00000000	0.0
62	0x00000000	0.0
63	0x00000000	0.0
64	0x00000000	0.0
65	0x00000000	0.0
66	0x00000000	0.0
67	0x00000000	0.0
68	0x00000000	0.0
69	0x00000000	0.0
70	0x00000000	0.0
71	0x00000000	0.0
72	0x00000000	0.0
73	0x00000000	0.0
74	0x00000000	0.0
75	0x00000000	0.0
76	0x00000000	0.0
77	0x00000000	0.0
78	0x00000000	0.0
79	0x00000000	0.0
80	0x00000000	0.0
81	0x00000000	0.0
82	0x00000000	0.0
83	0x00000000	0.0
84	0x00000000	0.0
85	0x00000000	0.0
86	0x00000000	0.0
87	0x00000000	0.0
88	0x00000000	0.0
89	0x00000000	0.0
90	0x00000000	0.0
91	0x00000000	0.0
92	0x00000000	0.0
93	0x00000000	0.0
94	0x00000000	0.0
95	0x00000000	0.0
96	0x00000000	0.0
97	0x00000000	0.0
98	0x00000000	0.0
99	0x00000000	0.0
100	0x00000000	0.0
101	0x00000000	0.0
102	0x00000000	0.0
103	0x00000000	0.0
104	0x00000000	0.0
105	0x00000000	0.0
106	0x00000000	0.0
107	0x00000000	0.0
108	0x00000000	0.0
109	0x00000000	0.0
110	0x00000000	0.0
111	0x00000000	0.0
112	0x00000000	0.0
113	0x00000000	0.0
114	0x00000000	0.0
115	0x00000000	0.0
116	0x00000000	0.0
117	0x00000000	0.0
118	0x00000000	0.0
119	0x00000000	0.0
120	0x00000000	0.0
121	0x00000000	0.0
122	0x00000000	0.0
123	0x00000000	0.0
124	0x00000000	0.0
125	0x00000000	0.0
126	0x00000000	0.0
127	0x00000000	0.0

critic.value_heads.value_heads.extrinsic.weight f4 [1, 128]
0	0xbd3c4d7c	-0.045972332
1	0xbe1a84cf	-0.15089725
2	0x3dcda194	0.10040584
3	0xbd713a44	-0.058893457
4	0x3d0ade24	0.033903256
5	0x3c5428e0	0.0129491985
6	0xbcebcf50	-0.028785378
7	0x3de860d4	0.113465935
8	0x3d4fe0f8	0.050751656
9	0xbe30b158	-0.17255151
10	0x3e52f646	0.20601758
11	0x3d0be268	0.034151465
12	0xbe31695f	-0.17325352
13	0x3c112410	0.008858696
14	0x3dd66d70	0.10470092
15	0xbd98851a	-0.07447262
16	0x3e5ac066	0.21362457
17	0xbd3c4bec	-0.045970842
18	0xbdc9fbe4	-0.098624974
19	0x3e42b820	0.1901555
20	0x3dff5c14	0.124687344
21	0x3ddca6b0	0.107739806
22	0xbe51d102	-0.20489886
23	0xbc9a5640	-0.018839955
24	0xbdb535a6	-0.08848123
25	0x3e463698	0.19356763
26	0xbe368892	-0.17825535
27	0x3e24e550	0.16103101
28	0xbd6c0794	-0.057624415
29	0xbde0a63d	-0.109692074
30	0xbd09da8c	-0.03365569
31	0x3e47bfb6	0.19506726
32	0x3e09a392	0.13441303
33	0x3e2aaf06	0.16668329
34	0xbe174c3a	-0.14775172
35	0x3c1f0a30	0.009707019
36	0x3dc82ecc	0.09774551
37	0x3c5d2750	0.013498142
38	0x3d9d2bd0	0.07674372
39	0x3e50358e	0.2033293
40	0x3e38d144	0.18048579
41	0xbe177f00	-0.1479454
42	0x3e16419c	0.14673465
43	0xbe32cdaa	-0.17461267
44	0x3dff4934	0.12465134
45	0xbe146536	-0.14491734
46	0x3df65bac	0.12029204
47	0xbe59f11a	-0.21283379
48	0xbe429593	-0.1900237
49	0x3e443eae	0.19164535
50	0xbd95f900	-0.073228836
51	0xbc0780f0	-0.008270487
52	0xbdf841e7	-0.12121945
53	0xbd57758c	-0.052602336
54	0x3d199400	0.03749466
55	0x3d4d6b40	0.05015111
56	0xbd9e94de	-0.07743238
57	0xbd70dec4	-0.058806196
58	0x3e195b0c	0.14976138
59	0xbdc65a93	-0.096852444
60	0xbdb4802e	-0.08813511
61	0xbe3201b5	-0.17383464
62	0xbdaed444	-0.0853658
63	0xbe5c3cb1	-0.21507527
64	0x3e48937a	0.19587508
65	0xbdf04042	-0.11731006
66	0x3b640700	0.0034794211
67	0xbe0c2bb0	-0.1368854
68	0x3c9a66a8	0.018847778
69	0xbbb25260	-0.005441949
70	0xbe063db0	-0.1310947
71	0xb9616000	-0.00021493435
72	0x3affe180	0.001952216
73	0xbe0cadb0	-0.13738132
74	0xbd3f5664	-0.046713248
75	0x3e161116	0.14654955
76	0x3d868ae4	0.0656946
77	0x3e505600	0.20345306
78	0x3daf3698	0.08555335
79	0xbe1a30d4	-0.15057689
80	0xbded7a31	-0.11595572
81	0xbe466b81	-0.19376947
82	0xbdbe59c4	-0.09294465
83	0x3e0eff7c	0.13964647
84	0xbe2db1bc	-0.16962332
85	0xbdf21bbf	-0.118216984
86	0xbd90c214	-0.070682675
87	0x3ddaa728	0.10676414
88	0x3d5f6c30	0.054546535
89	0xbe3629aa	-0.17789331
90	0x3d5111a8	0.05104223
91	0x3d6f6fb0	0.058456123
92	0x3d08ae78	0.03336951
93	0x3d788678	0.060675114
94	0x3d5dbd00	0.054135323
95	0xbe04ee34	-0.12981492
96	0xbb81afc0	-0.0039577186
97	0xbcd87458	-0.026422665
98	0x3dffc794	0.124892384
99	0x3dcd6b60	0.10030246
100	0x3e34d046	0.17657575
101	0x3e39315c	0.18085235
102	0xbda15822	-0.07878138
103	0x3d63e0b8	0.05563423
104	0xbd0ae40c	-0.03390889
105	0xbde81789	-0.11332614
106	0xbd10c940	-0.035348177
107	0xbe1499e4	-0.1451183
108	0xbe491d0c	-0.19639987
109	0x3e0c8648	0.13723099
110	0xbe572e7e	-0.21013829
111	0xbd9b2b4a	-0.07576616
112	0xbd4e5e54	-0.050382927
113	0xbe18a188	-0.1490537
114	0x3e44f4bc	0.19233984
115	0x3db32ce0	0.087487936
116	0x3c23a080	0.009986997
117	0xbe409865	-0.18808134
118	0x3e2a513e	0.16632554
119	0x3e1d3370	0.15351653
120	0xbdcd6709	-0.10029418
121	0x3e54447a	0.20729247
122	0xbe05bdc6	-0.13060674
123	0x3e3920d6	0.18078932
124	0xbe2ea7db	-0.1705622
125	0x3e3a7286	0.1820775
126	0x3de00f74	0.109404474
127	0xbdb45466	-0.0880516
