results/RandomTest6/HitTheBall.onnx (onnx, 74062 bytes, 8 tensors)

action_model._continuous_distribution.log_sigma f4 [1, 2]
00000000: 0000 0000 0000 0000
0.0 0.0

action_model._continuous_distribution.mu.bias f4 [2]
00000000: 0000 0000 0000 0000
0.0 0.0

action_model._continuous_distribution.mu.weight f4 [2, 128]
00000000: 2954 90bb 5de0 333c 610e 84bc febb c7bc
00000010: 58b7 313d 63b7 1dbd 50f1 5e3c 47b9 f53b
00000020: b329 353a f564 073c 2c81 14bb 0dc9 5abc
00000030: 013e 413c 7310 3c3d 5768 433d 17cc a03b
00000040: 936c ddba 0a0c d6bb 6074 fd3b 73de c63c
00000050: 6494 bbbb 53e3 6d3c cb9e a4bb ebdf 483b
00000060: 8d53 473c cfa9 a23b 5bed 593b c2bc 673c
00000070: 276e a93b cb41 253c 7c83 1ebd 87b9 efb9
00000080: df3a 293c c96e 16bc 0087 aeba 8367 cfbb
00000090: f678 9e39 adb7 053c 73a9 143d d35f d73c
000000a0: f77b bebb ebd5 6739 b1ed b2bc 0d3a 6dbc
000000b0: ff87 073c a578 cb3c 04a5 9f3c 0cdd 24bc
000000c0: 5fc9 8abc b7a6 a13c 5ffe 753b 477d 8f3c
000000d0: f3e2 103d 5fd6 943c 1263 903b 4eae 933c
000000e0: af5d 213c 925a fbbc 51b6 98bc 8249 a23c
000000f0: 216d 14bc 77de d9bc a36d 7cbc ad40 023d
00000100: f645 a3bb 05a3 513d 6deb 47bb bce9 a0bc
00000110: 2058 1cbd f7e0 b43c a7e5 0fbc a2d8 f03c
00000120: 8faf e5bc 9b95 af3b 550c 1a3c a8e1 86bc
00000130: a7fa 453c fefd c83b e906 933c af64 04ba
00000140: 1473 49bc e709 043c 0bbe 8c3c f8b0 7f3c
00000150: efe5 46bd 5776 4c3c 25ce 80bc 25c9 57bc
00000160: 2249 cd3b fca8 c9bc 421d e23c b0e8 073c
00000170: 10e2 063d f351 2e3a 0bda 8a3c 5f64 113c
00000180: 337d 59bc 4070 833a 25d3 0c3c bd5e debb
00000190: 5a89 78bb 0bde 1abc 02e6 7fbc 2d71 ec3c
000001a0: 5ac5 023d 1bd4 7abc d0f5 6a3c 878c 683b
000001b0: 3778 8fbc 5720 8eba 4794 753c f7d5 2ebd
000001c0: 30ee 503a ecb9 48bc 1e40 9d3b 6b16 943b
000001d0: b32e 2bbc d38c 3fbb 7da1 ed3b fc0a 273c
000001e0: 82e7 19bd 6ff1 83bc b737 ef3b 332f ea3c
000001f0: f6df 9d3b 0063 0a3c 577b 253c 6fe1 0dbd
00000200: 0332 d1bc 05ae 333c 2ece 323c 641f 0e3c
00000210: 7956 a1bc ebb4 38bd 4fc3 62bc 682a a2bb
00000220: ec2e 0dbc fa8c 68bc 83b0 923c adcd fcbc
00000230: 51c7 c5bc c7bd b53c 737b 783c b375 8bbc
00000240: 13af 493a f3cf 5fbc 4d08 833b 2d1b da3c
00000250: 59f8 c3bc 296e 3dbc b521 fcbc 83a6 953c
00000260: 59db 08bb 302e eaba 0ce1 81bc dc14 b1bb
00000270: da30 d23a 3bea fc3b a3ae 293c c74d 4f3d
00000280: fa11 223c 35cf 67bc 6a13 983c 26d3 383a
00000290: 0cce 3a3c b3bb e43b 48f0 ffbc 979e 7fbc
000002a0: 8d00 dfbb 1900 3bbc 8e65 c5ba fbb2 8a3b
000002b0: 3f27 2dbb fcbd 36bb 40cf 9dbc 6db1 fb3b
000002c0: c8f1 3f3b 642e 08bd 4823 703b 48fc c13c
000002d0: 2d67 cebc 0fbd 9b3b 0d5c 083c a7f0 1ebd
000002e0: 02ea fbba 7462 a93c 431f 81bc 6bc2 87bc
000002f0: 7c08 823b 6187 92bb 40e2 ab3c 679b 41bd
00000300: d740 4c3c b3d3 36bd 633e fc3c b558 bfbc
00000310: f344 9b3c e204 033b df71 c73c e783 e8bb
00000320: 0477 c53c a754 89bc 29d1 38bc cf14 07bd
00000330: 6e84 1abc d9f6 353c c936 103b c23e b4bc
00000340: ab5e 323c b3dc 763d 35a0 d4bc 1fc2 823c
00000350: d8f1 05bc a7cd 7bbc 3bce be3b c86f 283d
00000360: 0f9f 80bb 6607 813c 88b4 dfbc 83b9 473c
00000370: 7db6 90ba 367c 9f3b 300b d2bb 1a2b ea3b
00000380: e68a c63c 4289 0abc a7cf 633c 83a6 2c3b
00000390: 4b78 a3bc 7558 efbb 8431 14bd 0367 8dbb
000003a0: eb19 41bc 850c 82bc 4a34 e73b b891 d93c
000003b0: 40ea 16bd f717 08bc 6bdd f0bc bf54 093d
000003c0: b7fd 31bb 1587 b3b9 9ed7 093d 6839 80bc
000003d0: 07a4 cebb 176e e73c 1a6f 3f3c 2bed 293c
000003e0: e5ba 093c c8be 5d3b 04a7 8938 52bb 04bc
000003f0: dd5f 63bb be57 163b bec0 bc3c 8f50 91bb
-0.004404564 0.010978785 -0.016120138 -0.024381634 0.04338774 -0.03850497 0.013607338 0.0074988934
0.0006910816 0.008263816 -0.002266 -0.013353598 0.011794568 0.045914125 0.047706928 0.004907142
-0.001689332 -0.006532197 0.0077348202 0.024275994 -0.0057244767 0.01451953 -0.0050238124 0.0030651044
0.012165916 0.0049640904 0.0033253047 0.014144124 0.005170602 0.010086487 -0.038699612 -0.0004572386
0.010328977 -0.009181687 -0.001331538 -0.006329478 0.0003022623 0.0081614675 0.036294412 0.02629081
-0.0058131176 0.00022109567 -0.021841856 -0.014479172 0.00827217 0.024837801 0.019487865 -0.010062467
-0.016941724 0.019732816 0.003753565 0.017515792 0.035372686 0.018168626 0.0044063414 0.01802745
0.009848996 -0.030682836 -0.018641623 0.019810442 -0.0090592215 -0.026595337 -0.015406999 0.03179996
-0.004982705 0.05118086 -0.0030505315 -0.019642703 -0.03816998 0.022079928 -0.008782781 0.029400174
-0.028037814 0.0053584105 0.009402354 -0.016465023 0.012083686 0.006133794 0.017947631 -0.00050504034
-0.012295503 0.0080590015 0.017180463 0.0156061575 -0.048559126 0.012479386 -0.015723297 -0.013170515
0.0062648216 -0.02461671 0.027601842 0.008295223 0.032930434 0.00066497846 0.016949674 0.008874028
-0.013274479 0.001002796 0.008595263 -0.006786196 -0.0037923665 -0.009452353 -0.015618803 0.02886256
0.03192649 -0.015309359 0.014340833 0.0035484151 -0.017513378 -0.0010843378 0.014988965 -0.04268452
0.0007970063 -0.0122513585 0.004798903 0.004519274 -0.010448146 -0.0029228225 0.007251917 0.01019549
-0.0375743 -0.016106335 0.007300343 0.02858696 0.004817958 0.008446455 0.010100207 -0.03463882
-0.025536543 0.010966782 0.010913415 0.008674476 -0.019694554 -0.04509441 -0.0138405105 -0.004948903
-0.008617144 -0.014193768 0.017906433 -0.030859793 -0.024142893 0.02218522 0.015166151 -0.017023897
0.00076936296 -0.013660419 0.0039987923 0.026624287 -0.023922132 -0.011561909 -0.030777792 0.018267876
-0.0020882695 -0.0017866548 -0.015854381 -0.005404098 0.0016036287 0.007718352 0.010356578 0.050611284
0.009891981 -0.014148523 0.018563945 0.00070505065 0.0114016645 0.0069803833 -0.031242505 -0.015601776
-0.0068054856 -0.0114135975 -0.0015060173 0.004232762 -0.0026421098 -0.0027884236 -0.019263864 0.007681063
0.00292884 -0.033247367 0.0036642123 0.023679867 -0.025195682 0.004752762 0.008322728 -0.038803723
-0.001921952 0.020676829 -0.015761977 -0.016572198 0.0039682966 -0.004471705 0.020981908 -0.047267344
0.012466631 -0.044635486 0.030791467 -0.023357728 0.018953776 0.0019991924 0.02434629 -0.007095802
0.024104603 -0.016763998 -0.011280336 -0.03297883 -0.009430988 0.011106216 0.002200531 -0.022002582
0.010886828 0.06026907 -0.025955299 0.015961705 -0.008175336 -0.015368856 0.0058229244 0.041122228
-0.0039252113 0.015750598 -0.027307764 0.0121902255 -0.0011040714 0.004867102 -0.006410025 0.0071462514
0.024236154 -0.008455576 0.013904489 0.0026344366 -0.019954821 -0.007304246 -0.036180034 -0.0043152585
-0.0117859645 -0.01587511 0.007055794 0.026558742 -0.036844492 -0.008306495 -0.029402455 0.033528086
-0.0027159282 -0.00034242184 0.033652894 -0.015652373 -0.0063061747 0.028250737 0.0116842035 0.010371487
0.008406376 0.0033835638 6.563778e-05 -0.008101301 -0.003469459 0.0022940482 0.023041125 -0.004434652

action_model._discrete_distribution.branches.0.weight f4 [1, 128]
00000000: 025e 5cbb 8b47 093b 3873 3dbc b65d 183c
00000010: 9854 52bc a58e ed3b 73f9 9e3a 502d d7bb
00000020: 3f39 edbb 5b23 98bc f0f8 fa3b 8815 62bb
00000030: 72b6 f8bb 3f85 333c 40ea 63bb abdb 273c
00000040: b91a 1e3c 2868 26bb 4b05 f0bb 9d65 e13b
00000050: 93d5 893c 50e1 963b ef41 883c 3a02 39bc
00000060: 0af5 7a37 2920 15bc c27b ce3b a1aa 263c
00000070: 020e fa3a fd56 b6bb f01c a43b e9d1 be3a
00000080: 5da8 a43a c64a c93b 4f6b e43b 3808 2abc
00000090: 9fa2 b3bb 9f82 6dbb 5f81 7e3b d0a0 1dba
000000a0: 9758 4a3c 3f11 babb 5a0e 3bbc e101 96bb
000000b0: 7f4d 833b dbc8 743c 3e97 ab3a 6317 163c
000000c0: 1d28 97bc f851 a83b bb15 0abc a889 5cbc
000000d0: f375 84bb 477a d33a ea01 8d3b 9f13 403c
000000e0: 480e 23bb 8cff 813c d4b0 3a3c 8dc5 89bb
000000f0: a009 0fbb 2784 bd3a f889 4f3b a8b5 04bb
00000100: 50f6 f4bb efd8 f1bb cc76 01bc b488 923c
00000110: 6141 813b 5844 903b b81c 52ba c309 fd3b
00000120: 030e c3bb 98cd 9c3b 6fa5 a13a 9a2e 5abc
00000130: 651d 68bc f32c 333b 41e4 a1ba 7827 9a3b
00000140: edda 2f3c b447 17ba b338 1fbb a2c9 1a3c
00000150: 2e5b ac37 9312 3f3c 726f 61bb 6f16 d73b
00000160: a690 49b9 ecfa 92bb 5553 68bb 8c6d 313c
00000170: 67fc 1cbc 9d5d 8a3a 7116 91bb aae2 b9ba
00000180: 9357 c3bb 0feb a4ba 70db fabb 8103 80bc
00000190: f3c3 2f3c 3f17 55bb 562d 86bb 701d 8c3b
000001a0: a83d 34bc 4810 98bc 9758 8b3b 43f5 493a
000001b0: 179b 0fbc 803e 08bc 6b9b 4c3b ef84 783c
000001c0: fba5 24bc fb9e ec3a cc15 8cbc 7ac5 7cbc
000001d0: 5792 85bb b3f5 da3b b29f fe3b 27b1 543c
000001e0: c074 b0bb c30f d9ba 7dd8 383c 638d 123c
000001f0: 75c2 f5bb ba62 62bb 3aac 33bc f17f 023c
-0.003362537 0.0020947184 -0.011563115 0.009299686 -0.0128375515 0.0072496706 0.0012128785 -0.006566681
-0.0072394903 -0.018571546 0.00765907 -0.0034497697 -0.0075901086 0.010957061 -0.0034777075 0.010245244
0.009649926 -0.0025391672 -0.0073248497 0.0068785683 0.016825473 0.004604496 0.016633002 -0.011292035
1.4958214e-05 -0.009101906 0.006301374 0.010172517 0.0019077661 -0.005564569 0.0050083324 0.0014558408
0.0012562383 0.006142947 0.0069708 -0.010377936 -0.0054820324 -0.0036241186 0.0038834435 -0.00060130376
0.012350223 -0.0056783254 -0.011416996 -0.0045778607 0.004007041 0.014940466 0.0013091338 0.009160849
-0.018451745 0.0051367246 -0.0084280325 -0.013460554 -0.004042381 0.0016134464 0.0043032067 0.011723428
-0.0024880338 0.015868925 0.011394698 -0.004204458 -0.0021825805 0.001445894 0.003166793 -0.0020249877
-0.007475652 -0.007380597 -0.007901859 0.01788745 0.0039445614 0.0044026785 -0.00080151437 0.007722111
-0.005952598 0.004785251 0.0012332628 -0.013316775 -0.014167164 0.0027340024 -0.001235135 0.004704412
0.010733348 -0.00057708775 -0.002429527 0.009447487 2.0546457e-05 0.011662143 -0.0034398702 0.0065639536
-0.0001922274 -0.0044854786 -0.003545006 0.010829341 -0.009581662 0.0010556463 -0.004427724 -0.0014181931
-0.0059613674 -0.001258226 -0.0076555535 -0.01562667 0.01072787 -0.0032515076 -0.00409476 0.00427597
-0.011001028 -0.018562451 0.004252504 0.00077040883 -0.008765004 -0.008315682 0.0031220566 0.015168413
-0.010049338 0.0018052751 -0.017100237 -0.015427941 -0.004076283 0.0066821217 0.007770502 0.01298169
-0.0053850114 -0.0016560483 0.011282084 0.008944842 -0.0074999877 -0.003454371 -0.010966355 0.007965074

network_body.linear_encoder.seq_layers.0.bias f4 [128]
00000000: 0000 0000 0000 0000 0000 0000 0000 0000
00000010: 0000 0000 0000 0000 0000 0000 0000 0000
00000020: 0000 0000 0000 0000 0000 0000 0000 0000
00000030: 0000 0000 0000 0000 0000 0000 0000 0000
00000040: 0000 0000 0000 0000 0000 0000 0000 0000
00000050: 0000 0000 0000 0000 0000 0000 0000 0000
00000060: 0000 0000 0000 0000 0000 0000 0000 0000
00000070: 0000 0000 0000 0000 0000 0000 0000 0000
00000080: 0000 0000 0000 0000 0000 0000 0000 0000
00000090: 0000 0000 0000 0000 0000 0000 0000 0000
000000a0: 0000 0000 0000 0000 0000 0000 0000 0000
000000b0: 0000 0000 0000 0000 0000 0000 0000 0000
000000c0: 0000 0000 0000 0000 0000 0000 0000 0000
000000d0: 0000 0000 0000 0000 0000 0000 0000 0000
000000e0: 0000 0000 0000 0000 0000 0000 0000 0000
000000f0: 0000 0000 0000 0000 0000 0000 0000 0000
00000100: 0000 0000 0000 0000 0000 0000 0000 0000
00000110: 0000 0000 0000 0000 0000 0000 0000 0000
00000120: 0000 0000 0000 0000 0000 0000 0000 0000
00000130: 0000 0000 0000 0000 0000 0000 0000 0000
00000140: 0000 0000 0000 0000 0000 0000 0000 0000
00000150: 0000 0000 0000 0000 0000 0000 0000 0000
00000160: 0000 0000 0000 0000 0000 0000 0000 0000
00000170: 0000 0000 0000 0000 0000 0000 0000 0000
00000180: 0000 0000 0000 0000 0000 0000 0000 0000
00000190: 0000 0000 0000 0000 0000 0000 0000 0000
000001a0: 0000 0000 0000 0000 0000 0000 0000 0000
000001b0: 0000 0000 0000 0000 0000 0000 0000 0000
000001c0: 0000 0000 0000 0000 0000 0000 0000 0000
000001d0: 0000 0000 0000 0000 0000 0000 0000 0000
000001e0: 0000 0000 0000 0000 0000 0000 0000 0000
000001f0: 0000 0000 0000 0000 0000 0000 0000 0000
0.0 0.0 0.0 0.0 0.0 0.0 0.0 0.0
0.0 0.0 0.0 0.0 0.0 0.0 0.0 0.0
0.0 0.0 0.0 0.0 0.0 0.0 0.0 0.0
0.0 0.0 0.0 0.0 0.0 0.0 0.0 0.0
0.0 0.0 0.0 0.0 0.0 0.0 0.0 0.0
0.0 0.0 0.0 0.0 0.0 0.0 0.0 0.0
0.0 0.0 0.0 0.0 0.0 0.0 0.0 0.0
0.0 0.0 0.0 0.0 0.0 0.0 0.0 0.0
0.0 0.0 0.0 0.0 0.0 0.0 0.0 0.0
0.0 0.0 0.0 0.0 0.0 0.0 0.0 0.0
0.0 0.0 0.0 0.0 0.0 0.0 0.0 0.0
0.0 0.0 0.0 0.0 0.0 0.0 0.0 0.0
0.0 0.0 0.0 0.0 0.0 0.0 0.0 0.0
0.0 0.0 0.0 0.0 0.0 0.0 0.0 0.0
0.0 0.0 0.0 0.0 0.0 0.0 0.0 0.0
0.0 0.0 0.0 0.0 0.0 0.0 0.0 0.0

network_body.linear_encoder.seq_layers.0.weight f4 [128, 6]
00000000: ebff b6bd c73f cf3e d652 57bd be7d 0dbf
00000010: db5c f7bc 5fb8 3e3e a83f 973e e3b2 173e
00000020: 3432 9ebe f1ac b7be ca71 28bf 3189 54be
00000030: 110f 5ebe 22ac 02bd 9fd2 e5bd 5c1f 08be
00000040: fbad 5cbe 5d37 64bf 5735 7bbe 09ed 0cbf
00000050: bd73 883e 1c3a 813e 4248 a1bd 428d 453e
00000060: 99e4 83be d87b a3be 2ddc a0be 8097 c83e
00000070: 3d48 883d 7f43 523f f6b0 aabd 1810 523e
00000080: ff60 983e f2e4 99be ceca 293f 3bdf d6bd
00000090: e474 c9bc fbed a2bd 5893 fe3e fdfc 973e
000000a0: a8d6 02bf 605d f2bb 4058 27be 1dfd ad3c
000000b0: c993 99bd 711b a53c e19d c4be 662a 803e
000000c0: 3088 8a3f a3be e0bd e2d7 e5be 1985 80bf
000000d0: e82b f4bd 4e0a 0ebf a418 18be 6a6c 923d
000000e0: 56e6 083e 4417 783e 45c0 5cbe ff68 02be
000000f0: db26 3d3c bd39 7ebd 5bb9 0a3f a45d d7be
00000100: ec8a 513e 1756 c7bd fdff fabe 7b12 58be
00000110: 6230 8abe bcee 203f 395b 8dbd daf9 85bd
00000120: 87f9 803f 59ac 02be ccd4 b1be 98b2 c8be
00000130: ed95 04bf 7961 863e 6da4 aa3e f121 c83c
00000140: 9129 05be 71da 8fbe 0ee2 66be 5a09 b73e
00000150: 7f9b 50be f06a bbbb 83a5 27be b869 2c3f
00000160: 1d8a 4a3e 71ca 8a3e 59f3 113f f39c 5fbe
00000170: 9656 473e 3102 003e 9598 203e 0921 ce3e
00000180: afa3 8d3e 2db6 513e 54fa 0dbd e637 8cbe
00000190: e4dd a6be 7a42 acbd 1611 c4bc 6914 513e
000001a0: 7bfc b23e 0e0c 6bbe 7204 e9be df60 ce3e
000001b0: cf8b a7be cf81 083e f25a 26be 5758 94be
000001c0: e6ad 2f3c e439 2ebd e080 9d3e 4aa6 5abe
000001d0: 91f7 56bd c07d d13d ec8b 91be eac0 91be
000001e0: baf0 b23d 9b41 0ebe cfa8 14bf 4305 ac3d
000001f0: 4b13 57bf 8f56 cc3d fee9 803d 2dd8 993e
00000200: 570b 993e 9163 1d3f 41de edbe 7471 95be
00000210: 4f1d a1be 2506 0a3e 22a8 ecbd 5192 89bf
00000220: 89ad 893e 306c e33c 7d02 18be c7e6 923e
00000230: 34ac 913e 05dd b63e 38cf 8a3e 5941 343f
00000240: 727a fc3e 50b9 043f 1d4f 663f 155c c93e
00000250: 8e7e cabe 9fc0 c83e 638b 283e 0cf6 fb3d
00000260: db99 8f3d 8fc5 d93e 8143 39bc dd46 13bf
00000270: 2583 f83e 358c 463d e128 2b3d 600d a3be
00000280: 27c2 723e ccd9 8e3e b5fc 1abf 9372 903e
00000290: c860 cb3d 4e37 333f 82de 053e cca4 443f
000002a0: f072 e63c ae12 563e a829 a63e 6357 313e
000002b0: 11fc 4cbd e3f8 043e 50ed 4cbe a11e 193e
000002c0: b673 b63e 37d0 a4bd dbd9 a23e 6c04 48bd
000002d0: ae8c bbbe 5a99 b6bd cd14 c13d dff6 b33e
000002e0: 752e 5b3f 3d0b 46bf 6aeb a5be 55a0 1a3d
000002f0: b0cd ef3e 1174 993d cb30 a13e 589e 1bbe
00000300: ebfb 703e b470 b5be 1fbf f03d 8da1 163f
00000310: 9119 62be 3e9c 10bf 50eb 8b3e b77c 643e
00000320: ddf1 ab3e a7ea 173e 7244 a7bd edd2 dc3d
00000330: 12cc a33d a345 e4be 1e76 9f3e bd1a f2bd
00000340: 8d48 0f3e 7b4c 243f c804 f8be 6e27 b23e
00000350: a957 ff3e 1fdc 353f d905 46bf c201 97bd
00000360: b122 8e3e 8841 6bbd 5ef2 e63d 8918 933e
00000370: a8cb 0e3e 15c6 f9be 5110 8d3e 2e80 febe
00000380: 1109 dfbe 4b0c aabe 216e afbe 27b7 99be
00000390: af8b 8dbf 1d30 4d3f 6aa2 c53b b461 3a3e
000003a0: 829d 80bf cca0 adbe 25bc 3b3e 5a08 8b3e
000003b0: 6479 213d 8266 2f3e adc4 dc3c 8556 00bf
000003c0: ca0e 8ebd 2aaa 17be eef1 11bf 75e0 133d
000003d0: 3afc c2be 29a6 a7be 1914 c43e e03f a7be
000003e0: 9d1d fa3e 99ad b63e eca1 c5be c6df 4d3d
000003f0: b6f2 22bf 5761 ca3d b407 c9be da2d 0bbd
-0.08935531 0.40478346 -0.052569233 -0.5526999 -0.030195644 0.1862502 0.29540753 0.14814334
-0.30897677 -0.3587413 -0.6579863 -0.2075546 -0.21685435 -0.03190244 -0.112218134 -0.13293213
-0.21550743 -0.8914698 -0.24532066 -0.55049187 0.266508 0.25239646 -0.0787511 0.19292167
-0.25760344 -0.31930423 -0.3141798 0.39178085 0.06654403 0.8213424 -0.08334534 0.20513952
0.29761502 -0.30057484 0.6632508 -0.104917966 -0.02459187 -0.079555474 0.4972179 0.29685202
-0.5110879 -0.007396385 -0.16342258 0.021238858 -0.07498891 0.020154687 -0.38401702 0.25032347
1.0822811 -0.10973861 -0.44891268 -1.0040618 -0.11922437 -0.55484474 -0.1485315 0.071495846
0.13369116 0.24227625 -0.2155772 -0.12735365 0.011544908 -0.062066782 0.5418908 -0.4206363
0.2046315 -0.09733217 -0.4902343 -0.211008 -0.26990038 0.6286428 -0.06902165 -0.06541796
1.007615 -0.12761058 -0.34732664 -0.39198756 -0.5179127 0.2624624 0.33328572 0.024430247
-0.13004138 -0.28096345 -0.2254717 0.35749322 -0.20371817 -0.005719535 -0.16371731 0.67348814
0.19779249 0.27107576 0.57011944 -0.21837215 0.19466624 0.12500836 0.15683205 0.4025958
0.27663943 0.20479651 -0.03466256 -0.27386397 -0.32591164 -0.08411117 -0.023933928 0.20417942
0.34958252 -0.22953817 -0.45511204 0.40308282 -0.32723853 0.13330768 -0.1624563 -0.28973648
0.010722613 -0.042535678 0.30762386 -0.21352497 -0.05248219 0.10229063 -0.28427064 -0.28467494
0.08737321 -0.13892214 -0.5807008 0.08399441 -0.84013814 0.09977447 0.062946305 0.30047742
0.29891464 0.6148005 -0.4645863 -0.2918812 -0.31467673 0.13478906 -0.11555506 -1.0747777
0.2689021 0.027761549 -0.14844699 0.28691694 0.28451693 0.357155 0.2711122 0.7041221
0.49312168 0.51845264 0.8996447 0.39328066 -0.3954968 0.39209458 0.16459422 0.12302789
0.070117675 0.42533538 -0.011307598 -0.57530004 0.48537555 0.048473556 0.041787032 -0.31846142
0.23706876 0.2790054 -0.6054185 0.28212413 0.09930569 0.70006263 0.13073161 0.7681396
0.028130978 0.20905563 0.32453656 0.17318492 -0.050045077 0.12985568 -0.20012403 0.1495309
0.35635155 -0.08047526 0.31806836 -0.048832342 -0.36630768 -0.08915968 0.094277956 0.35149285
0.8561776 -0.773609 -0.3240617 0.03775056 0.46836615 0.07492841 0.3148254 -0.15197122
0.23533599 -0.35437548 0.117552035 0.58840257 -0.22080065 -0.56488407 0.27327967 0.223132
0.33582965 0.14835607 -0.08167352 0.107824184 0.07997908 -0.4458438 0.31144804 -0.11821506
0.1399252 0.641792 -0.48441148 0.34795707 0.49871567 0.71039003 -0.7735267 -0.07373382
0.27760842 -0.057435542 0.112766966 0.28729656 0.13944876 -0.48783937 0.2755151 -0.49707168
-0.43561605 -0.33212504 -0.3426371 -0.30022547 -1.1058253 0.8015154 0.006031324 0.18201333
-1.0048068 -0.3391174 0.1833349 0.2715481 0.039422408 0.17128947 0.026949251 -0.5013202
-0.069364145 -0.14811006 -0.5700978 0.03610273 -0.3808306 -0.32743958 0.38296583 -0.3266592
0.48850718 0.3567932 -0.386001 0.050262235 -0.636516 0.09881847 -0.3926369 -0.033979274

network_body.linear_encoder.seq_layers.2.bias f4 [128]
00000000: 0000 0000 0000 0000 0000 0000 0000 0000
00000010: 0000 0000 0000 0000 0000 0000 0000 0000
00000020: 0000 0000 0000 0000 0000 0000 0000 0000
00000030: 0000 0000 0000 0000 0000 0000 0000 0000
00000040: 0000 0000 0000 0000 0000 0000 0000 0000
00000050: 0000 0000 0000 0000 0000 0000 0000 0000
00000060: 0000 0000 0000 0000 0000 0000 0000 0000
00000070: 0000 0000 0000 0000 0000 0000 0000 0000
00000080: 0000 0000 0000 0000 0000 0000 0000 0000
00000090: 0000 0000 0000 0000 0000 0000 0000 0000
000000a0: 0000 0000 0000 0000 0000 0000 0000 0000
000000b0: 0000 0000 0000 0000 0000 0000 0000 0000
000000c0: 0000 0000 0000 0000 0000 0000 0000 0000
000000d0: 0000 0000 0000 0000 0000 0000 0000 0000
000000e0: 0000 0000 0000 0000 0000 0000 0000 0000
000000f0: 0000 0000 0000 0000 0000 0000 0000 0000
00000100: 0000 0000 0000 0000 0000 0000 0000 0000
00000110: 0000 0000 0000 0000 0000 0000 0000 0000
00000120: 0000 0000 0000 0000 0000 0000 0000 0000
00000130: 0000 0000 0000 0000 0000 0000 0000 0000
00000140: 0000 0000 0000 0000 0000 0000 0000 0000
00000150: 0000 0000 0000 0000 0000 0000 0000 0000
00000160: 0000 0000 0000 0000 0000 0000 0000 0000
00000170: 0000 0000 0000 0000 0000 0000 0000 0000
00000180: 0000 0000 0000 0000 0000 0000 0000 0000
00000190: 0000 0000 0000 0000 0000 0000 0000 0000
000001a0: 0000 0000 0000 0000 0000 0000 0000 0000
000001b0: 0000 0000 0000 0000 0000 0000 0000 0000
000001c0: 0000 0000 0000 0000 0000 0000 0000 0000
000001d0: 0000 0000 0000 0000 0000 0000 0000 0000
000001e0: 0000 0000 0000 0000 0000 0000 0000 0000
000001f0: 0000 0000 0000 0000 0000 0000 0000 0000
0.0 0.0 0.0 0.0 0.0 0.0 0.0 0.0
0.0 0.0 0.0 0.0 0.0 0.0 0.0 0.0
0.0 0.0 0.0 0.0 0.0 0.0 0.0 0.0
0.0 0.0 0.0 0.0 0.0 0.0 0.0 0.0
0.0 0.0 0.0 0.0 0.0 0.0 0.0 0.0
0.0 0.0 0.0 0.0 0.0 0.0 0.0 0.0
0.0 0.0 0.0 0.0 0.0 0.0 0.0 0.0
0.0 0.0 0.0 0.0 0.0 0.0 0.0 0.0
0.0 0.0 0.0 0.0 0.0 0.0 0.0 0.0
0.0 0.0 0.0 0.0 0.0 0.0 0.0 0.0
0.0 0.0 0.0 0.0 0.0 0.0 0.0 0.0
0.0 0.0 0.0 0.0 0.0 0.0 0.0 0.0
0.0 0.0 0.0 0.0 0.0 0.0 0.0 0.0
0.0 0.0 0.0 0.0 0.0 0.0 0.0 0.0
0.0 0.0 0.0 0.0 0.0 0.0 0.0 0.0
0.0 0.0 0.0 0.0 0.0 0.0 0.0 0.0

network_body.linear_encoder.seq_layers.2.weight f4 [128, 128]
00000000: 4480 05bd ca85 c23d 9dfc 053e 8466 783d
00000010: 650d 57bd b447 6abe 2ad0 15bc b011 473d
00000020: 0b58 153e aa17 43be 8bd6 25be 93e7 953c
00000030: 6ed2 d73d f2a5 393d 57f6 14ba 801a fb3c
00000040: ac90 d93d bbac 93bc 379e a83d df37 a1bd
00000050: ef4c 073d 6552 64bd e74e 9ebc 68e9 cebd
00000060: 9499 41bd 19c1 bebd 0e45 2cbd 7904 133e
00000070: d8df 3f3d ae00 ab3b f24d 283e bd69 413e
00000080: 0ec0 443e bad1 293e d9e3 433e 90ac 0fbd
00000090: f085 b7bb 76eb e43d 3ca0 08be e5ba 68bd
000000a0: 2c69 f83b 4b4d 65bd 023b c13d 1d3d a33c
000000b0: b15c a4bc 3108 b5bd 99c9 cf3d e4c1 783d
000000c0: a791 033e 2641 e03d fef4 883b 1de6 07bd
000000d0: 75be fe3d ddfa bb3d 5890 fbbd 2f59 6ebd
000000e0: 3b47 bf3d 20fc 3c3d eec1 aabb 45b9 99bd
000000f0: 8921 803d a8e4 64bc 7952 cdbd 3e07 89bd
00000100: 4c58 a1bd 6bfd ae3c 36ed b5bd 2a34 d33d
00000110: 2e32 dabd d312 8cbb f933 f03c dff1 06bb
00000120: 4819 c4bc 00b9 bf3d 50ec 173d 23f4 7dbd
00000130: ecdb 533d 3943 80bd d849 be3c d0a2 eb3c
00000140: 85ad 83bc 710d aa3d 0f2a 313d 9943 6bbb
00000150: bb86 253d ed5c 04be 7dcb 26be 8e44 8fbd
00000160: 8334 02bd 7e64 483c 369c adbc 23b8 ce3d
00000170: 7a8d 76be c31d 823d fae8 51bc 01d0 163e
00000180: 1bd3 26bb d19a 193e 1a8c 4cbe a507 86bb
00000190: a5e7 63be 88b3 6dbe 7973 d9bd 9028 bd3c
000001a0: 0dd5 f73d 4555 68bb 3f13 ec3d 774f 00be
000001b0: 9b08 21bd 0c56 67bc 0e44 f2ba ae24 f53d
000001c0: 5811 143e d4d4 01bd 2490 87bd 49d8 edbd
000001d0: 8fd3 9d3c 35f1 aebd 4b85 023d 4da0 a73d
000001e0: 2a25 4e3e bf05 843d 1ca5 503d 6429 78bd
000001f0: d0ba ff3c 1db5 ddbd 9ab7 103e b7dd 423e
00000200: c8c3 e23d 80b8 debd 1021 5ebc 0f9c 59bc
00000210: 5967 323d 6948 0abd dba7 013e 1c80 e0bd
00000220: 8258 07bd 9ed3 b83b 81ea b73d e715 0f3e
00000230: 918c 1c3d e95e 943d 93f7 d7bd ef4a 083d
00000240: 9fa7 81bc fd3a 5d3d 789a 08be 8d7e e43c
00000250: 102a 7b3a 7648 383e 0191 673e b35b ce3d
00000260: e093 fcbc b43a d83d 13ed 093e e1d8 693d
00000270: 8f5f 623d a016 d3bd 3945 853d 7121 7abe
00000280: b8b4 f2bc 1c2d 023d 8d3e 12be edf7 173e
00000290: 2859 b43d 9783 2dbd c593 813d 44c8 af3c
000002a0: c89b 3ebe 867b 7cbc 3417 b13d 107a f33d
000002b0: cd09 aebc ba11 70bc 4b9f ca3c 99f7 b6bc
000002c0: 428b 873d 13ec c9bd def1 573d 0e45 5fbb
000002d0: 4309 2a3d 2a8e 43be 49f0 99bd 2429 cdbd
000002e0: a011 78bd 59db 1c3c fe08 c83d 3e14 173d
000002f0: 9f49 a7bd 1bbb 68bd 23df f13c 6d75 0f3e
00000300: 747a 77bd 8ff7 2dbd b5d3 cabd 730a 8c3d
00000310: d2c1 873d 4911 20bd ee40 feba cfe7 233d
00000320: 15c0 b53c dec7 073d c52c 1f3e 41e4 313c
00000330: 6385 e9bd 24d8 c53d 8821 313e 4e29 c93c
00000340: bb5b 053d add3 c33d 58d7 f83d 211d 37be
00000350: 5d5f e63d e9a9 4dbe 536e 46bd abb2 9c3d
00000360: abec 3bbd 8635 b3bd 6965 0e3c 83d7 4dbd
00000370: 99da 24bd 2520 f0bc ef72 5d3e 40b8 c1bd
00000380: a158 db3d 869e 233d 48a3 b73d c049 4bbd
00000390: 67b6 82bd a6e0 0e3e 0a8f b3bd a2eb 0bbd
000003a0: 0b12 893d 861d 233e 09d5 8c3d 37f9 1dbe
000003b0: 02c2 183d 2b76 7dbe 9eeb 54bd 0781 65bc
000003c0: e984 c2bd 320a 403e 2829 143d cac5 863d
000003d0: 8907 0cbd 95de ea3d f60a 353d 090d 10be
000003e0: 4401 3ebc aaed 09be c154 2bbe cd4a 0bbe
000003f0: 436f ecbd 7312 703c a05b cdbd 4d78 193e
-0.032593027 0.094981745 0.13084646 0.06064464 -0.05250301 -0.22878915 -0.009143868 0.048600852
0.14584367 -0.19051996 -0.16195123 0.0182989 0.10538183 0.045324273 -0.00056824595 0.030652285
0.10623297 -0.0180267 0.08233302 -0.07871985 0.033032354 -0.05574264 -0.019324733 -0.101031125
-0.047265604 -0.09314174 -0.042058043 0.14357175 0.046844333 0.005218587 0.16435984 0.18887992
0.19213888 0.1658391 0.19129886 -0.035076678 -0.0056006834 0.11177723 -0.13342375 -0.05681886
0.007580897 -0.055981915 0.09435083 0.019926602 -0.02006373 -0.08839453 0.101458736 0.060731784
0.1284853 0.10949926 0.004179596 -0.033178438 0.124386705 0.09178708 -0.12283391 -0.05819052
0.09339758 0.046138883 -0.0052111065 -0.075060405 0.06256396 -0.0139705315 -0.10025496 -0.066908345
-0.078781694 0.021361073 -0.08883135 0.10312684 -0.10654102 -0.004274705 0.029321657 -0.0020590944
-0.023937836 0.09361458 0.0370906 -0.062000405 0.051723406 -0.06262822 0.02322857 0.028764158
-0.016073951 0.08303345 0.043253 -0.0035898446 0.040411692 -0.12926073 -0.16288562 -0.06995498
-0.03178836 0.01223099 -0.021192651 0.10093715 -0.24077407 0.06353333 -0.012811894 0.14727785
-0.0025455419 0.15000464 -0.1997532 -0.004090267 -0.22256334 -0.23213017 -0.10617728 0.02309063
0.12101183 -0.0035451215 0.115271084 -0.12530313 -0.039314847 -0.014119636 -0.0018483417 0.11969887
0.14459741 -0.03169711 -0.066192895 -0.11613519 0.019265918 -0.085421 0.0318654 0.08184872
0.20131364 0.064464085 0.05093871 -0.06058635 0.031217009 -0.1082556 0.14132538 0.1902989
0.110724986 -0.10875034 -0.013557687 -0.013281836 0.04355559 -0.033760462 0.12661688 -0.10961935
-0.033043392 0.005640461 0.08980275 0.13973199 0.038219992 0.07244665 -0.10545268 0.033274587
-0.015826998 0.054011334 -0.13340175 0.027892375 0.0009581158 0.17996392 0.22613908 0.10076084
-0.030832231 0.10558072 0.13469343 0.057091597 0.055266913 -0.1030705 0.06507344 -0.2442682
-0.029627189 0.0317813 -0.14281674 0.1484067 0.08806068 -0.042361822 0.06327013 0.021457799
-0.18614113 -0.01541031 0.08647004 0.11888516 -0.021244908 -0.014652664 0.02473416 -0.02233486
0.06618358 -0.09859481 0.052720897 -0.003406826 0.04151274 -0.190972 -0.07516534 -0.100176126
-0.060563684 0.009573781 0.0976734 0.03688454 -0.08168339 -0.056819063 0.029525345 0.14009638
-0.060419515 -0.04247242 -0.09903661 0.068379305 0.06628765 -0.039078984 -0.0019398013 0.04001599
0.022186318 0.033149593 0.15544422 0.010857643 -0.114023946 0.09660366 0.17297947 0.024555828
0.032558184 0.09561858 0.121504486 -0.17882206 0.11248658 -0.20084347 -0.048445057 0.07651266
-0.04588 -0.08750443 0.00869117 -0.050254356 -0.040247533 -0.029312203 0.21625875 -0.09458971
0.10710264 0.0399461 0.0896669 -0.04963088 -0.06382447 0.13952884 -0.08767517 -0.034160264
0.066928945 0.15929231 0.06876571 -0.15427099 0.037294395 -0.24752109 -0.051982515 -0.014007813
-0.09498007 0.18753889 0.036172062 0.06580694 -0.034186874 0.114682354 0.044199906 -0.14067473
-0.011596981 -0.13469568 -0.1673155 -0.13602753 -0.11544659 0.014652836 -0.10027242 0.14987297
