results/RandomTest5/HitTheBall/checkpoint.pt (torch, 442191 bytes, 39 tensors)

network_body.linear_encoder.seq_layers.0.weight f4 [128, 6]
0.56680435 0.6666623 0.12682712 0.51848745 0.23348959 0.081633955 -0.34849536 0.061667297
0.54747355 0.13912658 -0.26213622 -0.36388314 -0.23222308 -0.00028799364 -0.34042498 0.042018067
0.7726874 0.39376748 -0.42790502 -0.29602143 -0.29246557 0.5960742 0.35283554 0.2602656
-0.07156666 0.6823563 -0.5354749 -0.7977824 -0.036994454 0.5513416 -0.0061102565 -0.04574614
-0.24311464 -0.19390756 0.017868685 0.030301878 0.28510195 0.107934415 -0.16412517 0.21704067
-0.27547124 0.21389046 -0.31430233 -0.24521427 -0.12296304 0.79036593 0.42514178 0.32147577
0.5381432 0.0627758 -0.14579657 0.0055333152 -0.1892976 -0.27542976 0.2747327 0.5432755
0.2838852 0.26465327 -0.38680574 0.8812165 0.33366925 -0.14569129 -0.6732525 0.6465823
0.1945344 -0.50123817 0.12038153 0.041086033 0.16995397 0.10874173 0.018715957 0.8113087
-0.5512284 -0.14080228 -0.20402299 0.112804145 -0.45525163 -0.26365587 -0.19906786 -0.02179051
0.27245653 -0.10555779 -0.24882875 0.3560627 -0.08602847 0.54574406 0.43031886 0.0074262726
-0.91532826 0.31103873 -0.3721539 -0.88094693 0.23630463 -0.10548331 0.35072815 -0.1843004
-0.08298681 0.45211306 -0.69051474 -0.50800735 -0.039767098 0.15131633 -0.030160787 -0.49409512
0.4370907 0.8317655 -0.09679529 0.12676466 -0.1550349 0.10085947 0.45847714 -0.08382899
0.086692445 -0.70037895 -0.19443114 0.12747799 -0.2048399 -0.12499728 0.5473913 0.14402713
0.3144479 0.3525724 -0.75647885 0.28626195 -0.22299242 0.35061046 0.47283453 0.5915371
-0.09876889 -0.19756527 0.22999296 0.29764464 0.24328648 0.26919004 0.24119571 -0.32835874
-0.66273546 0.7622448 -0.15727916 0.5440406 -0.3864354 -0.35716033 0.33367255 -0.3688113
-0.42784575 0.060616847 -0.4130034 0.13494264 0.24334852 0.05244075 -0.16968712 -0.0998153
-0.72467506 0.10339701 0.49798658 -0.06166626 -0.15467454 -0.46243107 -0.12974864 -0.3045839
-0.3334487 0.040646516 -0.46741804 0.3439139 0.5796839 -0.13397838 -0.29464006 0.03155035
-0.047301736 0.4339625 0.42595536 -0.43210718 -0.4547506 -1.0413096 -0.6497634 -0.18574819
0.09914581 0.20303822 -0.4180357 0.6019992 0.31136087 -0.5428665 0.11208414 -0.5965602
0.37496987 0.46230397 -0.07008777 -0.20198125 0.3230358 -0.16972944 0.13743787 -0.3324881
-0.4302446 -0.46706972 -0.21113402 0.2519952 -0.88607025 -0.04902533 0.26904106 -0.102674805
-0.09374613 0.41625977 -0.5048728 0.34297785 0.15011774 0.22294118 0.031080943 -0.6552041
0.06660201 0.60746664 -0.022931874 -0.60505164 0.22348006 -0.17258829 0.19046238 0.39370036
0.11689977 -0.71800363 -0.21098132 -0.82290995 -0.46892947 0.32328185 0.10276377 0.22430475
0.34137458 -0.22726905 0.081644595 0.2478231 0.51757526 -0.0032552127 0.35313544 0.42616037
0.05246087 -0.21155132 -0.60947067 -0.28024673 -0.17446391 -0.046748787 -0.45661256 0.35201675
-0.062911086 0.51004446 -0.46278837 0.6523508 -0.41567257 0.38966534 0.5638872 -0.069708385
-0.0849256 -0.31609505 0.756848 0.62296194 0.6975633 0.2525196 0.11205051 -0.72263443
00000000: 171a 113f 61aa 2a3f f8de 013e 98bb 043f
00000010: e517 6f3e b42f a73d fc6d b2be d996 7c3d
00000020: 3a27 0c3f 3377 0e3e b836 86be e44e babe
00000030: e3cb 6dbe dafd 96b9 2f4c aebe 231b 2c3d
00000040: d7ce 453f e49b c93e 5e16 dbbe 1f90 97be
00000050: 0cbe 95be 5298 183f dca6 b43e 8841 853e
00000060: 8b91 92bd e7ae 2e3f e214 09bf 783b 4cbf
00000070: 7f87 17bd b924 0d3f 8c38 c8bb 4e60 3bbd
00000080: 0bf3 78be b48f 46be 5961 923c a53b f83c
00000090: e2f8 913e b80c dd3d 6e10 28be e93f 5e3e
000000a0: 910a 8dbe 1a06 5b3e 3cec a0be 7319 7bbe
000000b0: 0cd4 fbbd 6c55 4a3f 2fac d93e 7998 a43e
000000c0: c1c3 093f 9990 803d b24b 15be d050 b53b
000000d0: 3bd7 41be 2105 8dbe c4a9 8c3e 1a14 0b3f
000000e0: 6759 913e a280 873e 670b c6be 6897 613f
000000f0: b2d6 aa3e 1930 15be 475a 2cbf 6b86 253f
00000100: 0734 473e 2551 00bf 978a f63d d449 283d
00000110: 6a08 2e3e fcb3 de3d 3552 993c edb1 4f3f
00000120: 4e1d 0dbf 792e 10be 67eb 50be dc05 e73d
00000130: be16 e9be e7fd 86be 72d8 4bbe 0382 b2bc
00000140: 6c7f 8b3e af2e d8bd f7cc 7ebe da4d b63e
00000150: b22f b0bd e2b5 0b3f c152 dc3e 1758 f33b
00000160: f452 6abf 7840 9f3e f58a bebe bd85 61bf
00000170: d7f9 713e a207 d8bd a492 b33e 3eb9 3cbe
00000180: fdf4 a9bd 5d7b e73e 93c5 30bf c50c 02bf
00000190: d3e2 22bd abf2 1a3e c113 f7bc 09fa fcbe
000001a0: 5aca df3e 95ee 543f 9c3c c6bd 98ce 013e
000001b0: 78c1 1ebe 698f ce3d 84bd ea3e 89ae abbd
000001c0: cf8b b13d 094c 33bf f518 47be 9789 023e
000001d0: 8dc1 51be 93fe ffbd d621 0c3f d97b 133e
000001e0: 51ff a03e 5f84 b43e 99a8 41bf ed90 923e
000001f0: 2058 64be 3783 b33e 5e17 f23e fa6e 173f
00000200: 5847 cabd 8d4e 4abe 4683 6b3e e164 983e
00000210: 1720 793e 47d3 893e 02fc 763e a31e a8be
00000220: 08a9 29bf 7a22 433f ca0d 21be 3f46 0b3f
00000230: dcda c5be b8dd b6be 21d7 aa3e d6d4 bcbe
00000240: 990e dbbe 5f49 783d 2f75 d3be 672e 0a3e
00000250: 5b30 793e 1dcc 563d 76c2 2dbe f76b ccbd
00000260: 4e84 39bf d0c1 d33d 19f8 fe3e c395 7cbd
00000270: 0163 1ebe c4c3 ecbe d4dc 04be 6cf2 9bbe
00000280: cab9 aabe f67c 263d 6b51 efbe 7c15 b03e
00000290: 2a66 143f a131 09be 10db 96be f13a 013d
000002a0: 77bf 41bd 5530 de3e d216 da3e 273d ddbe
000002b0: 12d5 e8be a249 85bf e556 26bf c634 3ebe
000002c0: f50c cb3d 40e9 4f3e c608 d6be 9f1c 1a3f
000002d0: b16a 9f3e 4df9 0abf 5f8c e53d 2bb8 18bf
000002e0: 0dfc bf3e 1bb3 ec3e 2d8a 8fbd 2cd4 4ebe
000002f0: f364 a53e 8ecd 2dbe 83bc 0c3e e13b aabe
00000300: 0549 dcbe c323 efbe 8433 58be 8405 813e
00000310: 80d5 62bf c9ce 48bd c0bf 893e 2b47 d2bd
00000320: f9fd bfbd 0020 d53e 583f 01bf cb9a af3e
00000330: 77b8 193e b14a 643e 769d fe3c 75bb 27bf
00000340: a266 883d ef82 1b3f a0db bbbc aae4 1abf
00000350: f5d7 643e fcba 30be 9208 433e 1893 c93e
00000360: 2669 ef3d 16cf 37bf 7d0b 58be 3aaa 52bf
00000370: 8617 f0be 3385 a53e d075 d23d 25b0 653e
00000380: a6c8 ae3e 38b9 68be 4835 a73d 57c5 7d3e
00000390: d07f 043f 6855 55bb 2bce b43e b131 da3e
000003a0: 36e1 563d e9a0 58be 4506 1cbf 807c 8fbe
000003b0: aba6 32be a87b 3fbd 1fc9 e9be 8a3b b43e
000003c0: 87d7 80bd 4692 023f 99f2 ecbe 7600 273f
000003d0: 09d3 d4be 3782 c73e e95a 103f 45c3 8ebd
000003e0: 79ed adbd 36d7 a1be cac0 413f 6f7a 1f3f
000003f0: 8293 323f 404a 813e bd7a e53d 92fe 38bf

network_body.linear_encoder.seq_layers.0.bias f4 [128]
0.0010041087 -0.0034039607 0.0060325833 -0.0042341487 0.0008183521 -0.003459978 -0.001117127 0.0028509267
-0.0025708969 0.0020206834 0.005514331 -0.0012753446 -0.006306146 0.004589039 -0.0018803995 -0.011136365
-0.0014538311 -0.010732716 -0.00504096 -0.00093416765 -0.0021121034 0.0014878166 -0.00014313095 -0.0017172801
-0.00015189857 0.0069962414 -0.0054951054 0.0015745605 0.0010070377 -0.009969438 -0.003566788 -0.0076006413
-0.0074029164 -0.0014921929 -0.0014096098 -0.0039401413 0.0032616793 -0.0022761435 0.00834304 -0.005703131
0.0012320206 0.008020935 0.004240831 0.006967784 0.0050714076 -0.0042548217 -0.008080179 0.0041469415
-0.0012750274 -0.00029875693 0.0036849694 -0.0021115004 -0.0013046429 0.006032276 0.0076236334 -0.010416278
0.0012594834 -0.0037983083 0.0009481805 9.1706184e-05 -0.0012358206 0.0023812542 -0.00093125756 0.009682449
0.007590313 0.003014674 -0.00047753428 -0.0010782535 -0.006325888 -0.0053816177 0.0025773204 -0.0027970222
0.004910816 0.0019710504 -0.0010828226 -0.00038537453 0.0047234213 0.008484051 -0.00024285656 -0.0025001573
0.0040780655 -0.0049543553 -0.009936169 0.004805424 0.0012931575 0.005083293 0.0047839195 0.00029278704
-0.006309569 0.0008083574 0.0008833809 0.0054387785 0.0026257222 -0.0006582157 -0.008840099 0.0042610588
0.0068029575 0.009456898 -0.0015545336 -0.00228148 -0.0023975063 0.0058220276 -0.0037943656 0.0062138173
0.005217599 -0.0031401296 -0.005423993 -0.004534289 -0.012498221 0.0026528179 0.0038527232 0.0027114805
-0.000803785 -0.0009718551 0.0018252733 0.0033889597 0.0028035345 -0.0016945201 -0.008776292 -0.0051681413
0.00033973536 -0.0001501317 0.0070040845 -0.0023082455 -0.0063100588 -0.0018905465 -0.001930293 0.0075374367
00000000: 4c9c 833a fc14 5fbb faac c53b 9dbe 8abb
00000010: ae86 563a ccc0 62bb 906c 92ba 9dd6 3a3b
00000020: 7e7c 28bb 716d 043b 90b1 b43b 7729 a7ba
00000030: c9a3 cebb a65f 963b bd77 f6ba 4d75 36bc
00000040: 7a8e beba 46d8 2fbc a32e a5bb eee2 74ba
00000050: 376b 0abb d702 c33a 6c15 16b9 5c16 e1ba
00000060: f646 1fb9 ba40 e53b 4910 b4bb 7c61 ce3a
00000070: 94fe 833a db56 23bc c6c0 69bb cd0e f9bb
00000080: 2a94 f2bb af95 c3ba a8c2 b8ba 4d1c 81bb
00000090: e6c1 553b 5a2b 15bb 3fb1 083c 55e1 babb
000000a0: c07b a13a 3d6a 033c abf6 8a3b 0252 e43b
000000b0: 0d2e a63b 086c 8bbb ba62 04bc 11e3 873b
000000c0: d21e a7ba 7aa2 9cb9 877f 713b 1961 0abb
000000d0: 8d00 abba 66aa c53b accf f93b 09a9 2abc
000000e0: 4015 a53a 0aed 78bb 518f 783a 6252 c038
000000f0: 42fb a1ba d10e 1c3b a31f 74ba 22a3 1e3c
00000100: 29b8 f83b d691 453b 915d fab9 2f54 8dba
00000110: 6549 cfbb 4858 b0bb 43e8 283b 3f4e 37bb
00000120: e9ea a03b bd2c 013b 7fed 8dba 180c cab9
00000130: eec6 9a3b b000 0b3c 50a7 7eb9 aed9 23bb
00000140: 4ba1 853b 2558 a2bb 50cb 22bc d176 9d3b
00000150: 2a7f a93a c191 a63b 6dc2 9c3b 3681 9939
00000160: 80c0 cebb f2e7 533a b092 673a c837 b23b
00000170: 4f14 2c3b 1c8c 2cba 10d6 10bc 5aa0 8b3b
00000180: 58eb de3b 1bf1 1a3c 7ec1 cbba e284 15bb
00000190: 7b1f 1dbb b5c6 be3b e4aa 78bb 479d cb3b
000001a0: 65f8 aa3b a2ca 4dbb c0bb b1bb 5f94 94bb
000001b0: 57c5 4cbc e6da 2d3b f87d 7c3b 18b3 313b
000001c0: 19b5 52ba 17c4 7eba 023e ef3a 4f19 5e3b
000001d0: 81bb 373b a91a deba 70ca 0fbc 8359 a9bb
000001e0: 821e b239 ac6c 1db9 8582 e53b ef45 17bb
000001f0: 9cc4 cebb 37cc f7ba e301 fdba 9afc f63b

network_body.linear_encoder.seq_layers.2.weight f4 [128, 128]
0.004823984 0.08108323 -0.033866722 0.0004620213 -0.0755299 0.02591848 0.10349217 0.012783856
-0.06795365 0.104568735 0.030440224 -0.0160275 0.12243303 0.17305712 0.044518594 -0.10505627
-0.01310056 -0.060849294 0.06062481 0.071337886 -0.025341077 -0.01371801 -0.07908817 -0.0055324375
-0.043044966 -0.012295347 -0.11030372 0.036026996 0.08979086 0.1755424 0.20600696 0.09559057
-0.027931359 0.05214354 0.039353304 0.09168925 -0.00075373775 0.04598689 0.050597273 -0.09019449
0.06012558 -0.117798924 -0.18944539 0.06352331 0.0337973 0.1032709 0.0220232 -0.015619544
-0.02577467 -0.065369904 0.05468332 -0.07586322 0.0076029687 -0.012405048 -0.002856379 -0.074176624
0.02616722 0.12257983 0.033894766 -0.10515104 0.029181566 -0.08281812 0.011059199 0.1031369
0.18572827 0.025016187 -0.053829525 0.11179744 -0.01672621 -0.24820505 0.051557798 0.0033131146
-0.018972712 -0.20340042 -0.091931894 -0.04521638 -0.0633481 -0.036647703 -0.09961928 0.14362313
0.08526943 -0.15345845 -0.07090926 0.014734069 0.18629864 0.030209772 0.024030551 0.06397643
-0.10797555 -0.052556783 0.06154743 -0.10563862 0.008233453 0.02592845 -0.12930663 -0.01589351
-0.049976442 0.067313805 -0.013847663 0.04355846 0.071420185 -0.066896506 0.0069333436 -0.03487764
-0.019334497 -0.027766103 0.071085796 -0.053590592 -0.0028737546 -0.10137954 -0.06243769 0.023732234
0.0041138157 -0.040590074 0.11126807 -0.08168171 0.0026603958 0.034430917 -0.24609716 -0.03306318
0.13022368 0.16343825 0.0826665 0.013062963 -0.15152614 0.05139985 -0.11843163 0.22502393
-0.026838176 0.039749403 0.09819881 -0.0831649 0.049265765 -0.11500697 0.09917796 0.0108690355
0.14402035 -0.15720327 -0.022219926 0.010100312 0.0725096 -0.034941178 0.07664285 -0.07002353
0.10110616 0.13754961 0.0033754376 0.020254398 0.042936116 -0.1292637 0.060669463 -0.12694007
-0.04347764 0.046519008 0.019454971 0.023463495 0.08641053 -0.12906091 -0.054348744 -0.13728398
0.03973272 0.07888903 0.0503097 -0.025918623 0.11722815 0.02280804 -0.030317858 -0.044381563
0.017819308 -0.036057655 0.08835795 -0.02454681 0.005029865 0.048703227 0.00069619966 -0.058705628
0.18528505 0.16371536 -0.07741073 -0.11591668 0.05793299 -0.01207023 -0.11080238 0.026175091
0.1062914 0.062157054 -0.018361285 -0.08027537 -0.022728786 -0.1982274 0.062788196 -0.03310215
0.058402207 -0.06328065 -0.038896903 0.026687048 0.026681373 0.036838736 -0.0958769 -0.08660988
0.10977429 -0.10383902 -0.026586907 -0.093282685 0.03582642 -0.27443367 -0.13266459 -0.19567078
-0.18512224 -0.08946026 -0.006732869 0.14877073 0.08193181 0.010218218 0.1514704 0.061136674
-0.14500095 -0.047667786 -0.010527866 0.08947993 0.06874715 0.013249107 -0.10233567 -0.043506265
-0.05497687 -0.2643935 -0.1667232 -0.0059867403 -0.12753883 -0.1638323 -0.08719604 -0.08092877
-0.031266183 -0.07428166 -0.13740289 -0.014666871 0.20700288 0.08353294 0.07678599 0.13618788
0.04316473 0.014663749 -0.07799389 0.06910051 -0.043521535 -0.047314834 -0.034035042 0.04275018
-0.011754441 -0.003437248 -0.276995 -0.10498654 -0.15033634 -0.10036254 -0.04075698 -0.03195846
00000000: 8312 9e3b f70e a63d d5b7 0abd 733b f239
00000010: 6caf 9abd fe52 d43c b4f3 d33d 6173 513c
00000020: 492b 8bbd 2228 d63d c75d f93c 1b4c 83bc
00000030: 2bbe fa3d e335 313e 2159 363d be27 d7bd
00000040: bba3 56bc 1c3d 79bd b951 783d 9919 923d
00000050: 1798 cfbc 81c1 60bc faf8 a1bd 7349 b5bb
00000060: eb4f 30bd 6c72 49bc ebe6 e1bd 0b91 133d
00000070: 45e4 b73d 63c1 333e 7df3 523e fdc4 c33d
00000080: 4ed0 e4bc 7794 553d ee30 213d 93c7 bb3d
00000090: 7c96 45ba c05c 3c3d 163f 4f3d e4b7 b8bd
000000a0: 3d46 763d 9040 f1bd f9fd 41be 8218 823d
000000b0: 0a6f 0a3d b27f d33d ff69 b43c 1ee9 7fbc
000000c0: 6725 d3bc a8e0 85bd 9efb 5f3d 2d5e 9bbd
000000d0: 5322 f93b 8b3e 4bbc 1632 3bbb eae9 97bd
000000e0: a35c d63c 220b fb3d 3dd5 0a3d 6e59 d7bd
000000f0: 2e0e ef3c 8c9c a9bd a531 353c 7039 d33d
00000100: 8d2f 3e3e bfee cc3c 597c 5cbd 0ef6 e43d
00000110: 6805 89bc 7729 7ebe 452e 533d d720 593b
00000120: a96c 9bbc 3348 50be ca46 bcbd d034 39bd
00000130: a6bc 81bd e71b 16bd 3105 ccbd f111 133e
00000140: bda1 ae3d 3624 1dbe e038 91bd 2a67 713c
00000150: 12c5 3e3e 7c7a f73c b8db c43c 1306 833d
00000160: 4922 ddbd c845 57bd 2819 7c3d 1059 d8bd
00000170: 9be5 063c e767 d43c f568 04be 1b33 82bc
00000180: 19b4 4cbd d2db 893d 4fe1 62bc 5b6a 323d
00000190: bf44 923d 0901 89bd 1a31 e33b dbdb 0ebd
000001a0: 6163 9ebc bd75 e3bc 6e95 913d cf81 5bbd
000001b0: 9a55 3cbb 14a0 cfbd aabe 7fbd 1a6a c23c
000001c0: 30cd 863b c741 26bd 84e0 e33d be48 a7bd
000001d0: 095a 2e3b 6f07 0d3d e500 7cbe 426d 07bd
000001e0: 5b59 053e 5b5c 273e 0e4d a93d 0a06 563c
000001f0: ab29 1bbe a688 523d 488c f2bd ac6c 663e
00000200: bcdb dbbc 45d0 223d 751c c93d 5c52 aabd
00000210: e6ca 493d c688 ebbd d01d cb3d 0a14 323c
00000220: 127a 133e e5f9 20be 9006 b6bc c77b 253c
00000230: ea7f 943d 7b1e 0fbd edf6 9c3d 7f68 8fbd
00000240: bf10 cf3d ced9 0c3e 7236 5d3b 8dec a53c
00000250: c8dd 2f3d b45d 04be 8b80 783d 94fc 01be
00000260: 9c15 32bd b78a 3e3d 0860 9f3c 8436 c03c
00000270: 01f8 b03d 8b28 04be ca9c 5ebd 2c94 0cbe
00000280: c7be 223d 9290 a13d 8b11 4e3d 4b53 d4bc
00000290: 5015 f03d edd7 ba3c 285d f8bc 71c9 35bd
000002a0: ccf9 913c 31b1 13bd 03f5 b43d 6416 c9bc
000002b0: 91d1 a43b 097d 473d 2b81 363a 5075 70bd
000002c0: 5dbb 3d3e 00a5 273e 8489 9ebd b965 edbd
000002d0: 254b 6d3d 37c2 45bc 5cec e2bd 256d d63c
000002e0: 4eaf d93d 6598 7e3d 686a 96bc 6a67 a4bd
000002f0: b831 babc 20fc 4abe 1997 803d 1f96 07bd
00000300: 2737 6f3d 4999 81bd 5c52 1fbd cc9e da3c
00000310: e592 da3c 37e4 163d 1c5b c4bd 8560 b1bd
00000320: 58d1 e03d 8da9 d4bd c9cc d9bc fe0a bfbd
00000330: b9be 123d 9282 8cbe 3ad9 07be ec5d 48be
00000340: af90 3dbe f136 b7bd 669f dcbb 5b57 183e
00000350: ddcb a73d 506a 273c 0e1b 1b3e 736a 7a3d
00000360: 217b 14be 4c3f 43bd 127d 2cbc 4141 b73d
00000370: 4ecb 8c3d c812 593c 5d95 d1bd a033 32bd
00000380: 6d2f 61bd 965e 87be 7db9 2abe 6b2c c4bb
00000390: 8a99 02be a8c3 27be d693 b2bd fcbd a5bd
000003a0: f810 00bd fc20 98bd 58b3 0cbe 514d 70bc
000003b0: 90f8 533e 5113 ab3d f941 9d3d d674 0b3e
000003c0: 80cd 303d 3940 703c 43bb 9fbd 9184 8d3d
000003d0: a343 32bd 33cd 41bd 5468 0bbd d01a 2f3d
000003e0: b395 40bc 7443 61bb 4ad2 8dbe 2f03 d7bd
000003f0: c5f1 19be e08a cdbd cbf0 26bd e0e6 02bd

network_body.linear_encoder.seq_layers.2.bias f4 [128]
0.012099186 -0.0010877436 -0.00044651752 0.0011306299 -0.0070906975 -0.0017442429 -0.0018722309 4.235705e-05
0.0012575141 -0.002697486 -0.00039960444 -7.531657e-05 -0.0012544637 -0.0036663967 -0.010135797 -0.007625259
-0.0021183402 0.0012106291 -0.0021656672 0.004740332 0.0077318414 -0.005712309 -0.001760635 0.00226316
-0.0012983067 0.00022413331 -0.004853264 0.0045806393 0.006290409 0.00028137455 -0.0016559241 0.0023318
-0.0017459274 0.0012935877 0.008690006 0.0033275262 -0.0006774606 -0.010743166 0.00022401163 -0.0048259567
0.0030597 -0.0021706934 -0.001389813 0.0067036455 -0.007284483 -0.00094121846 -0.0023080434 -0.00283384
-0.0017607643 0.0013279539 -0.0010888876 0.0029969804 0.0015066601 -0.0006991493 -0.004051729 0.00961072
0.004040785 -0.00088144705 -0.0035469558 -0.009302768 -0.0036919385 0.00065492897 -0.0026799112 -0.008473449
0.008343453 -0.0036902225 -0.008942494 -0.006370802 -0.003284829 -0.0002588784 -0.004121177 -0.00259387
-0.0061469288 -0.007910558 -0.0010994825 -0.0042544194 0.0061024493 -0.004459204 0.0021624246 -0.0073193205
0.0030851336 0.009611896 -0.0018120675 -0.0084774 0.0014935913 0.0058568725 0.001967567 -0.0068315878
-0.0065303957 0.0012770152 0.007316771 0.007107433 -0.0035449297 -0.009177077 -0.00033080427 -0.0070436876
-0.008715478 0.007554196 -0.006714992 0.0064636096 -0.0067535904 -0.005625392 0.0072537274 0.0025477542
0.0016827967 -0.004349268 0.0068741525 0.0069668116 0.0076473434 -0.002347058 0.0033372832 0.00045916514
0.0009595045 -0.010700876 -0.010818684 -0.0017232815 0.006055228 0.0010281084 0.0047598653 0.0044118767
0.0027808547 0.0069093737 0.00066105224 -0.008081936 0.0014470024 -0.0020058712 -0.008185929 0.004571171
00000000: aa3b 463c 9e92 8eba 911a eab9 a531 943a
00000010: 1559 e8bb 149f e4ba a565 f5ba 89a8 3138
00000020: 2cd3 a43a 4ec8 30bb 0082 d1b9 47f3 9db8
00000030: d16c a4ba ee47 70bb 9d10 26bc 4fdd f9bb
00000040: dad3 0abb f9ad 9e3a deed 0dbb c954 9b3b
00000050: 635b fd3b 522e bbbb 1bc5 e6ba 8651 143b
00000060: f22b aaba 5405 6b39 2108 9fbb 3019 963b
00000070: c61f ce3b 7485 9339 980b d9ba 1dd1 183b
00000080: 9ad7 e4ba 9a8d a93a 8760 0e3c a012 5a3b
00000090: 9c97 31ba 1b04 30bc aae4 6a39 0f23 9ebb
000000a0: 3f85 483b 3142 0ebb 632a b6ba 41aa db3b
000000b0: acb2 eebb 1abc 76ba 8b42 17bb f2b7 39bb
000000c0: 72c9 e6ba bd0e ae3a 01b9 8eba fd68 443b
000000d0: 207b c53a 1e47 37ba 5ec4 84bb 4876 1d3c
000000e0: 9068 843b e910 67ba 0b74 68bb a36a 18bc
000000f0: 73f4 71bb 8aaf 2b3a 73a1 2fbb 39d4 0abc
00000100: fab2 083c a9d7 71bb 8a83 12bc 29c2 d0bb
00000110: 4946 57bb 12ba 87b9 f00a 87bb ebfd 29bb
00000120: 2d6c c9bb 499b 01bc 831c 90ba a868 8bbb
00000130: 0ef7 c73b 841e 92bb 77b7 0d3b e9d6 efbb
00000140: f42f 4a3b 377b 1d3c e582 edba cbe4 0abc
00000150: 9cc4 c33a 02eb bf3b 4cf2 003b 83db dfbb
00000160: eefc d5bb 8561 a73a 86c1 ef3b 78e5 e83b
00000170: 0d52 68bb 735b 16bc cc6f adb9 bcce e6bb
00000180: 5dcb 0ebc 3089 f73b 7009 dcbb b0cc d33b
00000190: 394d ddbb 3555 b8bb adb0 ed3b 39f8 263b
000001a0: 4a91 dc3a 4e84 8ebb 9240 e13b da49 e43b
000001b0: 9196 fa3b 19d1 19bb 52b6 5a3b 1abc f039
000001c0: 4287 7b3a ba52 2fbc d940 31bc bbdf e1ba
000001d0: ef6a c63b 98c1 863a a5f8 9b3b 8191 903b
000001e0: 003f 363b 0768 e23b 774a 2d3a 196a 04bc
000001f0: 58a9 bd3a ef74 03bb 461e 06bc c3c9 953b

action_model._continuous_distribution.log_sigma f4 [1, 2]
0.004837501 0.012832737
00000000: e683 9e3b 6640 523c

action_model._continuous_distribution.mu.weight f4 [2, 128]
0.015417876 0.032010276 0.01621115 0.00077877817 -0.0096396785 -0.003645039 0.040960994 0.0048156767
-0.0009952257 0.05206383 -0.020907834 -0.008049441 0.0063176877 -0.0119166365 -0.012535825 -0.016663533
0.025725067 -0.0005265313 0.0055105854 0.013013059 0.0068743755 -0.02300863 0.010733167 0.006506439
0.0030858607 -0.004111417 -0.01764262 0.01854661 0.052134383 -0.016003512 -0.003229015 0.0056230812
0.010036657 -0.030266017 0.017568197 -0.016096655 -0.03726345 -0.005093638 -0.00039109658 -0.001410286
-0.0023824219 0.016164424 0.01290962 0.012338362 -0.0065680025 0.027058795 -0.005139513 -0.024868986
0.01782281 -0.008346884 -0.02755476 -0.0022156027 0.0144230155 0.03505835 0.0012356207 0.0084417295
0.034167737 -0.01850407 -0.009324171 -0.023068363 -0.013997155 0.010005429 0.016157404 -0.0009511498
0.0061310707 0.001919383 -0.03197761 -0.0074353027 0.013377067 0.03242638 0.010145794 -0.011467025
-0.0026055432 -0.026263498 0.018196223 -0.00206032 0.0040599345 0.0016309656 0.00596047 -0.015169839
0.015198466 0.016223429 -0.01178694 -0.026229063 0.012829195 0.002677784 0.01161997 -0.00890712
-0.0016367674 0.030870054 0.008476078 0.014259665 -0.00049713906 -0.015969716 0.019635675 0.0046993634
-0.0026018964 0.0029780427 -0.0009911853 0.008467088 0.015009358 0.00171726 0.020788204 -0.013938422
0.015673902 0.00024400673 0.009232525 0.008156563 0.020213578 0.0009987736 -0.0047962456 -0.023096554
0.011866108 -0.014954315 -0.032306705 -0.006144404 0.0031820051 0.009758453 -0.006048166 0.016397519
-0.0031102684 0.004847978 0.0032027962 -0.021224216 0.010266139 0.008779218 -0.015143607 -0.006564975
-0.0036320058 0.002598058 0.021236876 -0.019696029 0.026018787 -0.0019654369 0.022398043 -0.034230404
-0.027139857 0.03377653 -0.018985096 -0.0012723474 0.008105379 0.013841293 0.004416225 0.02608375
0.028010996 0.0058400584 0.012257451 -0.0062043546 -0.00822522 -0.010584792 0.010717322 0.02757016
-0.014134081 0.024454914 -0.0077229035 0.006295731 0.022578659 -0.009294791 0.003842358 -0.018641721
0.0046935673 0.002174761 -0.00878308 -0.016653797 -0.025789764 0.0015296033 0.019706164 -0.012478008
-0.0035515947 0.015542677 0.01349335 -0.03291872 0.014747268 0.024175191 0.010471379 -0.016462866
0.015258734 -0.01655138 -0.0073417374 -0.0034156577 -0.0026252577 0.0075676064 0.0007842871 -0.002202422
0.013325761 -0.004558846 -0.009633525 0.0043206275 0.0034805785 0.020582551 0.015719423 0.003226128
-0.0008418466 0.013365056 -0.009193991 0.04201419 -0.005260606 0.0034382793 0.021659264 0.0073982244
0.018438507 -0.008519997 0.0075466475 -0.003137829 -0.012167205 0.0016656024 0.01196969 0.04210577
0.008287465 -0.009038124 0.0069393967 -0.0048607183 -0.019597888 -0.044004776 0.007642871 0.028548498
0.013049079 0.009298432 -0.014162073 0.0033043334 -0.0093682 0.015700135 -8.081515e-06 0.008485743
0.004259277 0.00029029112 0.009533116 -0.028293602 0.024343276 0.008344206 0.012334838 -0.0150581505
0.03231668 0.00060830667 0.0035938704 -0.018541005 -0.03221646 0.003417683 0.010520569 0.012917534
-0.01004066 -0.0016340379 0.010569254 0.029029127 -0.028140405 0.021245524 -0.04277724 -0.0016440353
-0.0027816796 -0.006902739 -0.000529481 0.025297374 0.0044164346 0.004533967 -0.00465698 -0.023464188
00000000: 429b 7c3c 351d 033d 3fcd 843c eb26 4c3a
00000010: beef 1dbc 9be1 6ebb b7c6 273d d3cc 9d3b
00000020: 3c72 82ba e240 553d e846 abbc cde1 03bc
00000030: 9b04 cf3b ff3d 43bc 1063 4dbc f681 88bc
00000040: 60bd d23c eb06 0aba 2492 b43b ba34 553c
00000050: 7142 e13b 987c bcbc 2ada 2f3c f733 d53b
00000060: 273c 4a3b 11b9 86bb 4187 90bc 0fef 973c
00000070: dd8a 553d cc19 83bc e29d 53bb d341 b83b
00000080: ca70 243c 70f0 f7bc 2eeb 8f3c 22dd 83bc
00000090: 8fa1 18bd 88e8 a6bb 180c cdb9 58d9 b8ba
000000a0: 6822 1cbb 416b 843c df82 533c d726 4a3c
000000b0: 6638 d7bb 68aa dd3c 5c69 a8bb 0bba cbbc
000000c0: 2401 923c 5ec1 08bc 85ba e1bc a533 11bb
000000d0: 834e 6c3c 5899 0f3d 8df4 a13a 2e4f 0a3c
000000e0: 78f3 0b3d d995 97bc 68c4 18bc ddf9 bcbc
000000f0: 5354 65bc d0ed 233c 885c 843c 9556 79ba
00000100: 26e7 c83b ce93 fb3a f4fa 02bd d7a3 f3bb
00000110: 7c2b 5b3c 86d1 043d 8b3a 263c 30e0 3bbc
00000120: c3c1 2abb 8c26 d7bc 3f10 953c 6f06 07bb
00000130: 3309 853b 20c6 d53a 0c50 c33b eb8a 78bc
00000140: fd02 793c ffe6 843c 021e 41bc 55de d6bc
00000150: 8b31 523c c37d 2f3b b061 3e3c 2bef 11bc
00000160: cd88 d6ba 32e3 fc3c 3fdf 0a3c 5fa1 693c
00000170: 7052 02ba ecd2 82bc ffda a03c 1efd 993b
00000180: 9484 2abb 442b 433b a9ea 81ba 8bb9 0a3c
00000190: cfe9 753c af15 e13a 064c aa3c fb5d 64bc
000001a0: 8e66 803c 0fdc 7f39 0444 173c 1ba3 053c
000001b0: f296 a53c 48e9 823a d329 9dbb fc34 bdbc
000001c0: 106a 423c f102 75bc 0954 04bd ff56 c9bb
000001d0: 3089 503b ebe1 1f3c b22f c6bb 1754 863c
000001e0: a5d5 4bbb c9db 9e3b 01e6 513b 68de adbc
000001f0: 4f33 283c b6d6 0f3c e41c 78bc 001f d7bb
00000200: f206 6ebb 2e44 2a3b f5f8 ad3c 9159 a1bc
00000210: 5a25 d53c 8fce 00bb 1a7c b73c 2e35 0cbd
00000220: 6854 debc 4259 0a3d a286 9bbc e5c4 a6ba
00000230: 6ccc 043c 97c6 623c fbb5 903b 97ad d53c
00000240: 5177 e53c f65d bf3b 7ad3 483c e64d cbbb
00000250: 13c3 06bc d66b 2dbc b597 2f3c d1da e13c
00000260: a292 67bc ac55 c83c 6910 fdbb 6b4c ce3b
00000270: e1f6 b83c 2e49 18bc 12d0 7b3b 86b6 98bc
00000280: 7fcc 993b 6f86 0e3b e8e6 0fbc 8b6d 88bc
00000290: 0e45 d3bc f87c c83a d26e a13c 8f70 4cbc
000002a0: dfc1 68bb b6a6 7e3c 3613 5d3c c8d5 06bd
000002b0: 869e 713c 0d0b c63c 2690 2b3c 22dd 86bc
000002c0: c5ff 793c c296 87bc f592 f0bb 3ad9 5fbb
000002d0: 840c 2cbb aff9 f73b 9e98 4d3a 8256 10bb
000002e0: 4b54 5a3c 5f62 95bb efd5 1dbc 0d94 8d3b
000002f0: 6b1a 643b bd9c a83c 05c6 803c 726d 533b
00000300: 5eaf 5cba 1cf9 5a3c 65a2 16bc 1217 2c3d
00000310: 2961 acbb c154 613b c56e b13c ce6c f23b
00000320: 5a0c 973c 7597 0bbc de49 f73b 09a4 4dbb
00000330: f558 47bc 5850 da3a 851c 443c 1a77 2c3d
00000340: 26c8 073c a414 14bc e163 e33b a946 9fbb
00000350: c08b a0bc 5a3e 34bd 0c71 fa3b 8ade e93c
00000360: cecb 553c 7358 183c 0a08 68bc 848d 583b
00000370: 147d 19bc 929d 803c d895 07b7 c907 0b3c
00000380: 6891 8b3b 3732 9839 c930 1c3c fcc7 e7bc
00000390: 8d6b c73c 23b6 083c 0f18 4a3c 76b6 76bc
000003a0: 7f5e 043d c576 1f3a 2487 6b3b 4ee3 97bc
000003b0: 68f5 03bd 35fb 5f3b 775e 2c3c 11a4 533c
000003c0: 9581 24bc 372d d6ba aa2a 2d3c 7ece ed3c
000003d0: b586 e6bc 180b ae3c 3037 2fbd ac7c d7ba
000003e0: d74c 36bb 5f30 e2bb decc 0aba 703c cf3c
000003f0: bdb7 903b ac91 943b 9499 98bb f837 c0bc

action_model._continuous_distribution.mu.bias f4 [2]
0.008814314 -0.0058004474
00000000: ea69 103c ae11 bebb

action_model._discrete_distribution.branches.0.weight f4 [1, 128]
0.004583533 0.005053226 0.0007049202 0.004845072 -0.008900465 -0.000701796 0.006989781 -0.008321754
-0.0022954536 -0.009588799 -0.013608428 0.018340122 0.0029237408 -0.011121216 -0.00096657715 0.012017168
-0.011707305 0.01144641 0.0027242412 0.0026091475 -0.004105673 -0.0067318305 0.00783034 0.003931752
-0.016568702 -0.017302437 -0.002444798 7.513185e-05 -0.007546256 -0.00053784566 -0.0058038025 -0.0020388786
0.00061054574 -0.02032136 0.0041765342 0.0068963054 -0.0005211953 0.0012341713 -0.0067673647 -0.0070572733
0.011492539 0.010467368 -0.017270679 0.013939887 0.0089646885 0.007510558 -0.014953581 -0.0063336366
-0.002259369 0.008038587 0.0031773353 0.015567086 0.0058083697 -0.0059557618 -0.015870022 -0.0008093432
0.005713509 -0.005699309 -0.003169026 0.010100125 0.0011859814 0.008369031 -0.0008714691 0.010388381
-0.007960702 0.013250298 -0.002779938 -0.0061012395 0.0005229771 0.012255608 0.010756521 0.00867943
0.0006932746 -0.013526424 0.006889845 0.0032542273 -0.013947004 0.0026493857 0.00047786787 -0.0027171744
0.012085369 -0.0072106244 0.0010053753 -0.019052105 0.0012382737 -0.01293844 -0.007960536 -0.01128405
0.0058026453 0.008067771 0.0040913997 0.008180051 0.0063758898 -0.0072100507 0.0067116492 -0.0016585191
-0.0009950304 0.006538266 -0.015684698 -0.010353002 0.009201757 0.0039937897 0.005082396 -0.01587988
-0.0075158128 -0.00796035 -0.015032075 -0.0026527296 0.002754352 -0.0019582284 0.008195596 0.002509118
-0.0057185427 0.018276736 0.011065829 -0.0063343467 0.0062820963 0.005023337 -0.0038902953 0.0077511384
-0.0060423412 0.0027800614 0.011461696 -0.0020289542 0.006939108 -5.0700048e-05 0.0073159127 -0.013723261
00000000: 7631 963b 8895 a53b 65ca 383a 69c3 9e3b
00000010: 42d3 11bc bbf8 37ba 880a e53b f757 08bc
00000020: 526f 16bb 571a 1dbc e2f5 5ebc 063e 963c
00000030: 3b9c 3f3b c335 36bc e561 7dba a8e3 443c
00000040: ffcf 3fbc b989 3b3c 2f89 323b 3bfe 2a3b
00000050: e288 86bb b096 dcbb d44a 003c edd5 803b
00000060: 16bb 87bc d7bd 8dbc e738 20bb 1b90 9d38
00000070: 9546 f7bb 36fe 0cba d32d bebb b59e 05bb
00000080: 080d 203a fb78 a6bc 4fdb 883b 67fa e13b
00000090: d3a0 08ba ebc3 a13a c5c0 ddbb b340 e7bb
000000a0: 344b 3c3c 537f 2b3c 3d7b 8dbc 2064 643c
000000b0: a1e0 123c 201b f63b ddff 74bc 658a cfbb
000000c0: ec11 14bb 47b4 033c d73a 503b 170d 7f3c
000000d0: 2354 be3b 8d28 c3bb d901 82bc 1a2a 54ba
000000e0: 6338 bb3b 45c1 babb 6faf 4fbb ff7a 253c
000000f0: ef72 9b3a 431e 093c 4d73 64ba 0734 2a3c
00000100: 9b6d 02bc c717 593c 9f2f 36bb e8ec c7bb
00000110: 6618 093a bfcb 483c 1e3c 303c 2b34 0e3c
00000120: dfbc 353a ef9d 5dbc 35c4 e13b e044 553b
00000130: fa81 64bc 51a1 2d3b 578a fa39 9f12 32bb
00000140: b601 463c 1a47 ecbb ccc6 833a 2913 9cbc
00000150: 924d a23a c0fb 53bc e86c 02bc bce0 38bc
00000160: 1e24 be3b af2e 043c 2611 863b 9f05 063c
00000170: d7ec d03b 4a42 ecbb 65ed db3b ab62 d9ba
00000180: ae6b 82ba f33e d63b 327d 80bc a39f 29bc
00000190: f7c2 163c 56de 823b 3a8a a63b 8616 82bc
000001a0: 3547 f6bb 216c 02bc 1849 76bc 6bd9 2dbb
000001b0: 5c82 343b 9f55 00bb d246 063c 0470 243b
000001c0: 9d62 bbbb 18b9 953c 734d 353c 5a90 cfbb
000001d0: 0bda cd3b ce9a a43b 53f4 7ebb 43fd fd3b
000001e0: d5fe c5bb b131 363b d6c9 3b3c 34f8 04bb
000001f0: 7561 e33b c3a6 54b8 53ba ef3b 87d7 60bc

critic.network_body.linear_encoder.seq_layers.0.weight f4 [128, 6]
0.08485641 -0.0918255 0.0949336 0.13316074 0.2805552 -0.85150164 -0.051290702 0.33764264
-0.34899792 -0.7332764 -0.38037193 0.2731375 0.10234975 -0.20307934 -0.12090087 0.56517017
0.15602067 -0.049523614 -0.024828872 -0.08376088 -0.65113276 -0.235968 0.06498557 0.1377436
0.39014053 -0.030471295 -0.5017641 1.025189 -0.42931893 -0.15793999 0.2353659 -0.24082476
-0.44614 -0.4896 -0.12873365 0.76701766 0.98033565 0.30511662 0.39554128 -0.12800865
0.37931427 -0.46240237 -0.49538317 0.65022016 0.06259855 0.3655301 0.53875464 -0.47091007
0.20464739 0.24365489 -0.19088298 0.06314923 -0.07727628 -0.19235578 0.0125330975 -0.085724875
0.3844693 -0.4294878 0.22550017 -0.008809305 -0.66868484 0.36403292 -0.35987648 -1.1421824
0.18239138 -0.19324553 -0.30035716 0.3092191 -0.0015249602 0.32344225 0.021789243 0.28455114
0.54619193 -0.679534 -0.10169047 0.19694038 0.050588354 -0.20149559 -0.1987376 -0.17918521
-0.4241842 0.42342582 -0.1631426 -0.79838604 -0.72513115 -0.09806157 0.2606728 0.2974488
0.30432114 -0.43669066 -0.5374504 0.33726832 0.25007835 0.22486202 0.5935689 -0.023218712
0.2952547 0.50487506 0.005242519 0.012469376 0.49798265 0.14006634 0.40895107 -0.10915101
0.025557827 1.0083376 -0.41257152 0.8971209 -0.41247854 0.6385069 0.3529485 -0.8534609
0.57518566 -0.017077845 0.15461943 -0.10898628 0.48485577 0.30967247 0.13283898 -0.21531591
-0.8013097 0.7929465 0.14046855 0.10103381 -0.29750165 0.15693472 -0.09411914 0.15762578
0.42001048 0.6647198 0.18640468 -0.015106686 -0.09813262 0.9239408 -0.45769012 0.44432324
0.5478086 0.8042429 -0.1676188 0.25785568 -0.28346765 -0.119031504 -0.24343719 -0.2722573
-0.32449272 0.11461497 0.094342604 -0.18035989 0.10686368 -0.14482653 0.015199912 0.6740952
0.1456766 0.17853653 0.34407482 -0.2751769 -0.71549016 -0.69689643 0.06635356 0.4910158
-0.16196549 0.087081246 0.10806844 0.10248318 0.0986684 -0.3880186 0.1843842 -0.05951262
0.11243223 -0.61153346 0.6901707 0.15450537 0.5324806 -0.3742048 -0.119920135 -0.30376995
0.45476037 -0.10933805 -0.28444102 -0.5718578 -0.69044274 -0.061456595 0.28882506 0.7275737
-0.07950383 0.014465744 -0.56222796 -0.40606567 -0.18310665 -0.58308786 0.42498988 0.3654415
-0.011827186 0.07446759 -0.022010755 -0.021848286 -0.08180493 -0.17025807 0.33801058 -0.69874626
0.5084222 -0.5630765 0.10939923 -0.19879442 -1.1386917 -0.22724265 -0.39330554 -0.24404913
0.5556374 -0.0059935893 0.23429777 0.33201486 0.65466326 -0.7924093 -0.5992199 -0.3214408
0.2965928 0.39651978 0.43651107 -0.3767739 0.7857005 -0.5033665 -0.4530692 0.46038616
0.5680228 0.08530678 -0.3886031 -0.5585077 0.1141378 0.040369365 0.078715146 -0.17084476
0.44673795 -0.0652285 0.10804086 -0.5399044 -0.75836253 0.43396607 -0.008507769 0.35011566
-0.36291513 0.13615428 -0.5846417 0.16629739 -0.07739252 -0.1917019 0.36335227 -0.34982795
-0.40078965 -0.45051298 0.29947296 0.16935042 -0.88756526 -0.15289514 -0.010856115 0.19853929
00000000: 33c9 ad3d 020f bcbd 8c6c c23d 4a5b 083e
00000010: eea4 8f3e 03fc 59bf 3316 52bd 7fdf ac3e
00000020: dbaf b2be 01b8 3bbf 1cc0 c2be aed8 8b3e
00000030: bf9c d13d 08f4 4fbe e09a f7bd feae 103f
00000040: e2c3 1f3e 46d9 4abd eb65 cbbc d38a abbd
00000050: a3b0 26bf 98a1 71be 2817 853d a90c 0d3e
00000060: 80c0 c73e f09e f9bc 9d73 00bf 6539 833f
00000070: b1cf dbbe 05bb 21be c203 713e c49a 76be
00000080: 766c e4be daac fabe c1d2 03be 455b 443f
00000090: 47f7 7a3f 3f38 9c3e 6384 ca3e b314 03be
000000a0: 7b35 c23e 01c0 ecbe dda2 fdbe d474 263f
000000b0: ab33 803d c326 bb3e d3eb 093f 201b f1be
000000c0: 168f 513e ab80 793e d476 43be 6254 813d
000000d0: 0743 9ebd eaf8 44be 9f57 4d3c 8690 afbd
000000e0: 29d9 c43e d3e5 dbbe 84e9 663e e754 10bc
000000f0: ee2e 2bbf 8662 ba3e bb41 b8be 0833 92bf
00000100: cec4 3a3e 28e2 45be 6ac8 99be f751 9e3e
00000110: 2ce1 c7ba 399a a53e 5b7f b23c b0b0 913e
00000120: 3cd3 0b3f f1f5 2dbf 1843 d0bd bdaa 493e
00000130: bc35 4f3d dc54 4ebe df81 4bbe 547c 37be
00000140: ac2e d9be 45cb d83e db0e 27be 0763 4cbf
00000150: 32a2 39bf 81d4 c8bd e876 853e 364b 983e
00000160: fbcf 9b3e eb95 dfbe 5996 09bf 6fae ac3e
00000170: 450a 803e 3b42 663e 22f4 173f 2b35 bebc
00000180: a02b 973e 7e3f 013f 70c9 ab3b 5b4c 4c3c
00000190: 95f7 fe3e 8d6d 0f3e 0962 d13e 918a dfbd
000001a0: a65e d13c 3511 813f 933c d3be b7a9 653f
000001b0: 6330 d3be 3075 233f aab5 b43e 6a7c 5abf
000001c0: 5e3f 133f d6e6 8bbc 8e54 1e3e 3334 dfbd
000001d0: 043f f83e 648d 9e3e f106 083e c67b 5cbe
000001e0: a222 4dbf 8bfe 4a3f fdd6 0f3e d0ea ce3d
000001f0: 2352 98be 7fb3 203e 89c1 c0bd a768 213e
00000200: 9d0b d73e 142b 2a3f dee0 3e3e 0982 77bc
00000210: c1f9 c8bd 6287 6c3f 5c56 eabe 567e e33e
00000220: 2f3d 0c3f dde2 4d3f 43a4 2bbe a905 843e
00000230: ac22 91be cac6 f3bd 9947 79be 4f65 8bbe
00000240: e923 a6be 41bb ea3d b236 c13d 43b0 38be
00000250: 58db da3d 684d 14be 0d09 793c 8191 2c3f
00000260: 3f2c 153e 48d2 363e 932a b03e fde3 8cbe
00000270: 5d2a 37bf ce67 32bf 60e4 873d 6c66 fb3e
00000280: 48da 25be a757 b23d fc52 dd3d b4e2 d13d
00000290: a812 ca3d 60aa c6be 36cf 3c3e 81c3 73bd
000002a0: de42 e63d 758d 1cbf 07af 303f a836 1e3e
000002b0: a650 083f c697 bfbe b098 f5bd bc87 9bbe
000002c0: 5ad6 e83e a1ec dfbd 41a2 91be 4665 12bf
000002d0: dbc0 30bf e9b9 7bbd e1e0 933e 4542 3a3f
000002e0: e7d2 a2bd ba01 6d3c 2cee 0fbf d7e7 cfbe
000002f0: 4f80 3bbe 3f45 15bf 4698 d93e 261b bb3e
00000300: d0c6 41bc 7782 983d e64f b4bc 2dfb b2bc
00000310: 5889 a7bd 2258 2ebe b90f ad3e 09e1 32bf
00000320: f527 023f c825 10bf b40c e03d c490 4bbe
00000330: a6c0 91bf 4cb2 68be 585f c9be 04e8 79be
00000340: 413e 0e3f df65 c4bb c1eb 6f3e dafd a93e
00000350: 0398 273f 56db 4abf 7a66 19bf e393 a4be
00000360: 03db 973e a404 cb3e 617e df3e 82e8 c0be
00000370: ab23 493f a0dc 00bf b0f8 e7be bcb7 eb3e
00000380: f169 113f 52b5 ae3d fcf6 c6be 5cfa 0ebf
00000390: 14c1 e93d 595a 253d 6835 a13d eef1 2ebe
000003a0: d6ba e43e 8596 85bd 8744 dd3d 2d37 0abf
000003b0: 0c24 42bf cd30 de3e 2b64 0bbc 5c42 b33e
000003c0: 03d0 b9be 076c 0b3e 14ab 15bf dd49 2a3e
000003d0: f87f 9ebd 814d 44be 4f09 ba3e a61c b3be
000003e0: 4d34 cdbe a3a9 e6be 8554 993e 326a 2d3e
000003f0: 7a37 63bf 8b90 1cbe d9dd 31bc e24d 4b3e

critic.network_body.linear_encoder.seq_layers.0.bias f4 [128]
-0.0077512837 -0.007111156 0.011535149 0.010078707 0.009265639 0.011346268 0.0023495897 -0.00027204663
-0.005092627 0.010734995 0.00801255 -0.0027013554 0.011267155 0.008417026 0.010695501 -0.000602401
-0.0045702653 0.011157742 -0.0029721328 -0.011322364 -0.0065729185 0.0035769416 0.009801608 0.0047028954
-0.0020565838 0.0054130885 -0.0121373 -0.0027531683 0.0113299275 0.01161178 0.011456357 -0.011381252
0.012487064 0.011303467 0.010877753 0.0007132124 0.0011086493 0.0006583462 0.006566185 0.011118713
0.002550217 -0.0054092193 -0.011007679 -0.010386314 0.011237498 -0.00076405716 0.0022089267 0.008158587
0.010869658 0.0035302886 -0.010457468 0.0109823765 0.010950758 0.010669045 -0.0065340525 -0.001935457
-0.0037293483 0.004310276 -0.009415671 0.007896534 -0.010834113 -0.010864766 -0.002363724 0.01153287
0.003068981 -0.011401649 0.01109454 0.005282336 0.009449161 0.0040948917 0.0053685587 -0.011167165
-0.0035512904 0.00078257 -0.00036345332 -0.01151238 0.0081274 0.011252845 0.0011799759 -0.0036680216
0.008394551 0.01076712 -0.0062534595 0.0058043012 -0.0047773966 -0.00047944748 0.009422246 -0.006334039
-0.010163745 0.011143294 -0.0019228355 -0.002104438 -0.0065188226 0.011349599 0.012659073 0.011100962
-0.0037201154 0.0059415027 0.0114593655 -0.01086091 -0.010846863 -0.0033528046 -0.004936762 0.0103597045
0.010169668 -0.010318265 0.011503459 0.0066105723 -0.010530251 -0.0021665536 0.0010292954 -0.0108266305
0.0014340659 0.0021584171 0.0066267685 -0.010830821 0.00024770384 0.010842017 0.011359655 0.010176337
0.011373044 -0.0025286898 -0.010799066 0.011143276 0.003227951 -0.011180006 -0.0060510533 0.0037569422
00000000: 7bfe fdbb b304 e9bb ecfd 3c3c 2921 253c
00000010: e8ce 173c b2e5 393c 93fb 193b 7ba1 8eb9
00000020: 0de0 a6bb d5e1 2f3c 1247 033c 3909 31bb
00000030: e099 383c 91e7 093c 2f3c 2f3c 72ea 1dba
00000040: 2ac2 95bb f6ce 363c 1dc8 42bb 7081 39bc
00000050: a361 d7bb 1f6b 6a3b ec96 203c bf1a 9a3b
00000060: c0c7 06bb 4760 b13b 87db 46bc 806e 34bb
00000070: 29a1 393c 563f 3e3c 72b3 3b3c 6e78 3abc
00000080: 8b96 4c3c 2d32 393c 9a38 323c e0f6 3a3a
00000090: 1950 913a de94 2c3a 2729 d73b 432b 363c
000000a0: 8b21 273b d23f b1bb 8d59 34bc 5c2b 2abc
000000b0: 7c1d 383c 024b 48ba a4c3 103b 98ab 053c
000000c0: a616 323c 6a5c 673b cd55 2bbc 6def 333c
000000d0: cf6a 333c 38cd 2e3c 9b1b d6bb 29af fdba
000000e0: 1568 74bb 373d 8d3b 3044 1abc 7760 013c
000000f0: 9081 31bc 2202 32bc b5e8 1abb 5df4 3c3c
00000100: f520 493b fbcd 3abc e0c5 353c 7217 ad3b
00000110: a7d0 1a3c 712e 863b bcea af3b 7cf6 36bc
00000120: c4bc 68bb 6225 4d3a e18d beb9 6c9e 3cbc
00000130: c928 053c da5d 383c 6ca9 9a3a 3163 70bb
00000140: 4d89 093c 9368 303c d2e9 ccbb 0232 be3b
00000150: b58b 9cbb 5a5e fbb9 c45f 1a3c c58d cfbb
00000160: d685 26bc 5d92 363c a707 fcba 9cea 09bb
00000170: d99b d5bb abf3 393c 0068 4f3c cfe0 353c
00000180: 2ecd 73bb f0b0 c23b 10c0 3b3c f5f1 31bc
00000190: 0ab7 31bc baba 5bbb 90c4 a1bb c0bb 293c
000001a0: ae9e 263c f10d 29bc 0179 3c3c 809d d83b
000001b0: 1387 2cbc bdfc 0dbb 6ce9 863a 2e62 31bc
000001c0: 44f7 bb3a 3b74 0d3b 5d25 d93b c173 31bc
000001d0: 3fde 8139 b7a2 313c d91d 3a3c a7ba 263c
000001e0: 0156 3a3c 60b8 25bb 91ee 30bc 4992 363c
000001f0: 088c 533b 582c 37bc ea47 c6bb 0837 763b

critic.network_body.linear_encoder.seq_layers.2.weight f4 [128, 128]
0.2078969 -0.12806846 -0.05328312 -0.08367434 0.016655687 0.033233363 -0.09157237 0.093958095
-0.016112022 0.099021465 0.06379956 -0.04292112 0.032481465 -0.1747111 0.07742364 -0.064413756
0.05996377 -0.06885475 -0.24067065 0.063615695 -0.037596177 0.09003883 0.041392732 -0.044677656
-0.18611382 0.044948492 -0.0060403394 0.09020074 0.09280678 0.08888141 -0.020062717 -0.10890806
0.15518662 -0.12092062 0.041391343 0.13693541 0.03001936 0.11492437 0.0083026 0.03332205
-0.035312418 0.10041563 -0.04966814 -0.05946853 0.10847797 0.08514457 -0.17006032 0.19523083
0.023945903 -0.065853454 0.033785682 -0.07203606 -0.086659044 -0.15681843 -0.016760174 0.007574772
0.0001650029 0.14745232 0.18571134 0.02661663 -0.08050242 0.043455586 0.21870972 -0.1069237
0.016279893 0.077681065 -0.03387794 -0.023265531 -0.070309035 0.08767033 0.024932656 -0.18034758
-0.05941019 -0.027509503 -0.048340317 -0.053601958 0.025644911 0.089789234 -0.013714213 -0.02623568
-0.16721223 0.12410493 -0.058036417 0.16496317 -0.039265897 0.13787097 -0.053787287 -0.14250313
0.09537696 0.043704953 0.11178317 0.0735727 -0.0019849283 0.23917985 0.06994718 0.0710497
0.139225 0.14877778 -0.07431664 0.026807385 -0.10262597 -0.05663868 -0.058284193 -0.10975951
-0.042860314 0.01693145 0.07500944 -0.049623862 0.09035605 0.005927386 0.050624374 0.08526843
0.1109824 0.14481154 0.07996974 0.053362112 0.11673247 -0.16973163 -0.12918988 -0.11944762
-0.0012673693 0.046769865 0.05602458 0.09035694 -0.085646495 0.01795131 -0.09547111 -0.084212825
0.036241777 0.09387768 0.17104268 0.07817232 -0.010266366 0.12120405 -0.13626355 0.10053607
0.0425617 0.04946268 -0.03405327 0.094289996 -0.0032563875 0.016346442 0.049709555 -0.06110434
-0.124732524 0.11904445 -0.16136776 -0.04142507 -0.089682356 0.0034682818 0.06074883 -0.022174519
0.013758885 -0.058167208 0.03795233 0.1946397 -0.052603193 -0.056922626 0.044248182 -0.056257978
0.06835501 0.1617297 0.059002616 -0.09170641 0.09910347 0.14427564 0.036852513 -0.059814118
0.004944837 0.22164427 0.099859826 0.08678533 -0.034806244 -0.016293805 0.01973375 -0.016676955
0.13624601 -0.001957616 -0.14906873 0.11473493 0.028063852 0.03414568 0.008475306 0.04754987
0.039246224 0.002828126 -0.02962428 0.028029567 -0.04354699 -0.09937218 -0.05975475 0.109852865
-0.09180775 -0.034680646 -0.060353078 -0.10433278 0.033188824 0.0019924864 0.031169794 0.020994566
-0.024686264 -0.10986099 -0.17295603 -0.22873801 0.033040818 -0.11396602 0.12329986 0.015708841
-0.13147298 0.0059959567 0.04044598 -0.0026422944 -0.2186025 0.13854949 0.08000063 -0.009261299
0.07183724 0.13192125 -0.047588028 0.073934816 0.005436576 -0.11222324 0.1326769 -0.028163133
-0.08398376 0.013391229 -0.027779603 -0.017219327 -0.019079026 -0.038958687 0.029167486 0.05829856
0.3728254 -0.2284614 -0.12059062 0.029094214 -0.021111576 0.06411418 -0.05580213 0.17507418
-0.09655111 0.026751582 0.17312817 -0.04885007 0.066733584 -0.052117173 -0.017072922 -0.10869768
-0.034316976 0.1378576 0.13731301 0.012457657 0.06394776 -0.036920726 -0.044445377 0.10872034
00000000: ede2 543e 6124 03be 673f 5abd 745d abbd
00000010: 8271 883c b51f 083d 4b8a bbbd 1a6d c03d
00000020: 5cfd 83bc c4cb ca3d 58a9 823d 0ece 2fbd
00000030: 490b 053d 77e7 32be 4990 9e3d 5ceb 83bd
00000040: 929c 753d b803 8dbd 5e72 76be f248 823d
00000050: 73fe 19bd 4766 b83d 6d8b 293d ebff 36bd
00000060: 9f94 3ebe e91b 383d 0aee c5bb 2abb b83d
00000070: 7b11 be3d 7507 b63d 915a a4bc 300b dfbd
00000080: 3ee9 1e3e 3ba5 f7bd f889 293d cc38 0c3e
00000090: 29eb f53c 785d eb3d a107 083c b47c 083d
000000a0: c1a3 10bd b6a6 cd3d d270 4bbd 4695 73bd
000000b0: b329 de3d 4760 ae3d 4b24 2ebe 97ea 473e
000000c0: 332a c43c 2dde 86bd db62 0a3d a487 93bd
000000d0: 4c7a b1bd 0395 20be a24c 89bc cb35 f83b
000000e0: a104 2d39 befd 163e 1d2b 3e3e 1e0b da3c
000000f0: 74de a4bd 7cfe 313d 71f5 5f3e d0fa dabd
00000100: 695d 853c 4017 9f3d 98c3 0abd 5b97 bebc
00000110: 2ffe 8fbd 818c b33d 923f cc3c 09ad 38be
00000120: 1958 73bd 9c5b e1bc 7f00 46bd ba8d 5bbd
00000130: 4715 d23c 6be3 b73d 94b1 60bc 35ec d6bc
00000140: af39 2bbe ba2a fe3d 98b7 6dbd 1bec 283e
00000150: 47d5 20bd 0c2e 0d3e 0f50 5cbd 57ec 11be
00000160: ff54 c33d f703 333d 93ee e43d 49ad 963d
00000170: 9215 02bb 90eb 743e 7840 8f3d 8182 913d
00000180: 0091 0e3e 3459 183e 5333 98bd 299b db3c
00000190: 912d d2bd f6fd 67bd 68bb 6ebd 98c9 e0bd
000001a0: 4c8e 2fbd d3b3 8a3c 8d9e 993d 6442 4bbd
000001b0: 980c b93d 853a c23b 815b 4f3d 37a1 ae3d
000001c0: be4a e33d 7a49 143e 2dc7 a33d 3b92 5a3d
000001d0: 6f11 ef3d 21ce 2dbe 5a4a 04be f4a0 f4bd
000001e0: db1d a6ba c291 3f3d 087a 653d 0f0d b93d
000001f0: 6e67 afbd a00e 933c 5b86 c3bd c677 acbd
00000200: 4272 143d f142 c03d d025 2f3e cf18 a03d
00000210: 4334 28bc d439 f83d ac88 0bbe dbe5 cd3d
00000220: 2d55 2e3d 6199 4a3d 717b 0bbd 1d1b c13d
00000230: 1e69 55bb f9e8 853c 3f9c 4b3d 8b48 7abd
00000240: c473 ffbd 94cd f33d 973d 25be 56ad 29bd
00000250: 62ab b7bd 1d4c 633b c4d3 783d 56a7 b5bc
00000260: f26c 613c bd40 6ebd e773 1b3d a14f 473e
00000270: 7276 57bd b327 69bd 953d 353d c46e 66bd
00000280: b6fd 8b3d 789c 253e baac 713d 92d0 bbbd
00000290: c3f6 ca3d febc 133e a9f2 163d a6ff 74bd
000002a0: 4d08 a23b b7f6 623e 4f83 cc3d 82bc b13d
000002b0: fe90 0ebd 967a 85bc aca8 a13c 1c9e 88bc
000002c0: 1384 0b3e 594b 00bb 79a5 18be 26fa ea3d
000002d0: 2ae6 e53c 57dc 0b3d 03dc 0a3c a7c3 423d
000002e0: a6c0 203d 1558 393b 9eae f2bc 439e e53c
000002f0: 545e 32bd a483 cbbd 66c1 74bd 8afa e03d
00000300: b405 bcbd 4b0d 0ebd ca34 77bd 6dac d5bd
00000310: 01f1 073d 6094 023b cc57 ff3c ccfc ab3c
00000320: d93a cabc ccfe e0bd 631b 31be 4c3a 6abe
00000330: cf55 073d 0467 e9bd a384 fc3d d4af 803c
00000340: daa0 06be bb79 c43b afaa 253d 582a 2dbb
00000350: 55d9 5fbe ebdf 0d3e 5fd7 a33d b4bc 17bc
00000360: 671f 933d 5d16 073e aaeb 42bd 236b 973d
00000370: 4e25 b23b 4cd5 e5bd 74dc 073e 5fb6 e6bc
00000380: adff abbd e366 5b3c 0d92 e3bc 8c0f 8dbc
00000390: 9e4b 9cbc 2593 1fbd a7f0 ee3c 79ca 6e3d
000003a0: f9e2 be3e c9f1 69be 37f8 f6bd fd56 ee3c
000003b0: 2ff2 acbc 4c4e 833d c690 64bd a546 333e
000003c0: 97bc c5bd 2226 db3c 8348 313e 0317 48bd
000003d0: 9eab 883d d178 55bd 83dc 8bbc e49c debd
000003e0: f58f 0cbd 8b2a 0d3e c89b 0c3e 331b 4c3c
000003f0: 0bf7 823d 303a 17bd 5b0c 36bd c5a8 de3d

critic.network_body.linear_encoder.seq_layers.2.bias f4 [128]
-0.011132464 0.011175215 -0.011179203 0.011126565 -0.011177899 0.0013659473 -0.011133355 0.011127909
-0.0038746607 -0.0036787784 0.011172913 -0.011152799 -0.0014480463 -0.0039643506 -0.011122476 -0.003996585
-0.0109849945 -0.011122494 0.011185627 0.00395803 0.007790467 0.011123551 0.01114956 0.011118361
0.003512389 0.011123581 -0.011126446 4.4784272e-05 0.004705438 0.007701205 -0.011170756 0.011121903
-0.011180129 -0.0024141464 0.010091728 0.0060005155 0.011139673 -0.011125626 0.0074291015 0.00036318845
0.011124092 -0.0011054565 -0.011181076 -0.00023334395 0.010600661 -0.011208608 -0.0064150626 0.011108426
0.00498884 0.006681477 -0.0057536066 -0.0111552905 -0.005050263 -0.007829389 -0.0050784205 -0.0028139632
-0.0044741547 -0.011122948 -0.004615044 0.011117121 -0.01113023 -0.006963138 0.01116805 0.011121388
-0.0013054891 -0.0055170893 -0.011213102 -0.011129677 0.0008003816 -0.011105522 -0.011194232 -0.004302355
-0.01117326 -0.01115781 0.011123557 -0.011186528 -0.00729108 0.011125995 -0.011128546 -0.0026357304
-0.011124626 0.003919391 0.011134235 0.0042845774 0.011129375 0.002604947 -0.0022903276 0.011192092
0.011123207 -0.0020334276 0.011150901 0.006759744 -0.00010715213 -0.011175464 4.493749e-05 0.01225957
0.0028134568 0.01117561 0.0065645888 -0.011153973 0.003119779 0.0111493915 0.011129734 0.011124819
-0.011121369 0.011122624 -0.00011623523 0.0063136476 -0.011144816 -0.0045181834 -0.00071370846 -0.004216934
0.0078043113 -0.011130968 0.011173937 -0.00552481 0.011144442 -0.011137331 0.011175537 0.011170671
0.0048460914 0.0028665583 -0.006309777 0.011138858 -0.011179262 -0.011153258 0.011148042 0.011131764
00000000: f064 36bc 4018 373c fa28 37bc 324c 363c
00000010: 8223 37bc 9609 b33a ad68 36bc d551 363c
00000020: 05ee 7dbb a917 71bb 980e 373c 3bba 36bc
00000030: 5fcc bdba 62e7 81bb 0c3b 36bc c9f5 82bb
00000040: 68fa 33bc 1f3b 36bc ec43 373c 5db2 813b
00000050: 2c47 ff3b 8e3f 363c a5ac 363c c929 363c
00000060: 1c30 663b ae3f 363c b24b 36bc bfd6 3b38
00000070: 1330 9a3b 645a fc3b 8c05 37bc a438 363c
00000080: dc2c 37bc a836 1ebb c657 253c f99f c43b
00000090: 2d83 363c 4248 36bc d26f f33b 546a be39
000000a0: d341 363c f7e4 90ba d530 37bc caad 74b9
000000b0: 65ae 2d3c 4fa4 37bc 7235 d2bb 1e00 363c
000000c0: 6c79 a33b 4bf0 da3b c088 bcbb aec4 36bc
000000d0: ad7c a5bb d646 00bc e168 a6bb 786a 38bb
000000e0: ee9b 92bb 063d 36bc cc39 97bb 9624 363c
000000f0: 915b 36bc 092b e4bb 32fa 363c 7b36 363c
00000100: f21c abba b3c8 b4bb 29b7 37bc 4059 36bc
00000110: b3d0 513a eff3 35bc 0368 37bc c5fa 8cbb
00000120: 0d10 37bc 3fcf 36bc 943f 363c b347 37bc
00000130: 03ea eebb ce49 363c 8154 36bc 38bc 2cbb
00000140: 1044 36bc 3c6e 803b 5e6c 363c a465 8c3b
00000150: fb57 363c c2b7 2a3b 5219 16bb 095f 373c
00000160: 1d3e 363c 4143 05bb 45b2 363c d880 dd3b
00000170: ddb6 e0b8 4b19 37bc 437b 3c38 5ddc 483c
00000180: f961 383b e819 373c c31b d73b 27bf 36bc
00000190: 3575 4c3b f0ab 363c 7d59 363c df44 363c
000001a0: 6736 36bc ab3b 363c 50c3 f3b8 b7e2 ce3b
000001b0: bf98 36bc 450d 94bb 2a18 3bba 352e 8abb
000001c0: 4fbb ff3b aa5e 36bc e312 373c 7709 b5bb
000001d0: 2d97 363c 5a79 36bc 9919 373c 3105 373c
000001e0: f6cb 9e3b dedc 3b3b 3fc2 cebb c27f 363c
000001f0: 3929 37bc 28bc 36bc 47a6 363c 0162 363c
