results/test3/HitTheBall/HitTheBall-384.onnx (onnx, 74062 bytes, 8 tensors)

action_model._continuous_distribution.log_sigma f4 [1, 2]
0.0 0.0
00000000: 0000 0000 0000 0000

action_model._continuous_distribution.mu.bias f4 [2]
0.0 0.0
00000000: 0000 0000 0000 0000

action_model._continuous_distribution.mu.weight f4 [2, 128]
0.012489012 -0.008485716 0.017199114 -0.022935439 -0.005018343 -0.0015192403 0.0061954255 -0.015788896
-0.0014118584 -0.02471258 0.0077467384 0.02718508 0.008084626 0.0023569602 0.001173817 -0.0054665054
-0.01977293 0.0009801126 0.006257294 0.0034645577 -0.0131229805 -0.007046947 0.013322696 -0.013350247
0.01795019 -0.0017197899 -0.015907628 0.0058598164 -0.0041096094 -0.008241363 -0.0042254934 0.022329861
-0.0084778415 -0.019964285 0.015869278 -0.00163549 -0.013565212 0.00634128 0.01768565 -0.044361457
-0.01500615 -0.022933576 -0.018075613 0.018804824 0.02445146 -0.0043435805 -0.019649414 0.021289853
0.009532985 0.007326773 -0.009292054 -0.009796001 0.0358536 0.005557114 -0.0011758931 0.000722122
-0.042161494 -0.020986972 -0.001989453 0.012295664 0.016491083 0.009671769 0.017399373 -0.0107513815
-0.0131442025 -0.021126848 0.034563042 -0.0020784126 0.023164 0.0067112218 0.00078179967 -0.013339825
0.0044462173 0.0044361087 -0.020014716 -0.0010297799 0.0020763632 0.0038307942 -0.0019489389 -0.027895445
0.012515831 -0.012000435 -0.00950291 0.0041541713 -0.018830134 0.012539826 0.0138001805 -0.00060208206
0.012182197 -0.005911159 0.008578105 0.018137183 -0.00080735836 0.013293493 -0.011303999 0.015494953
0.00022141507 -0.0022322226 -0.0234529 -0.0067725056 -0.012233049 0.0037037511 0.022022402 0.041906577
0.0031176948 0.02877806 0.0106596155 0.028141512 0.012048802 0.0148734525 -0.0088848295 0.00078824547
-0.0150530655 -0.01181282 0.035425723 -0.035188597 0.028148903 -0.039973594 -0.009941666 0.017768722
0.004039906 -0.036024693 -0.013858435 -0.0006834316 0.019007225 0.012484461 0.023308204 0.0015500903
-0.008176829 0.0033161945 -0.022747206 0.028295008 0.010010305 -0.024444288 0.017353756 -0.018422492
0.014465565 -0.021964928 -0.012483025 0.015904972 0.0069500655 0.04108 -0.0015552657 -0.010484169
-0.0050846385 -7.0144466e-05 -0.022231286 -0.0014321608 0.0022359667 -0.013816709 0.010476217 0.027172733
0.008832855 -0.039597422 0.02087081 0.01659605 -0.0042868624 0.007946475 0.013083552 -0.026035959
0.00015497068 0.013855274 0.0043366035 -0.026886804 -0.0044147694 0.009320076 -0.008802085 -0.035417315
-0.0039040234 -0.00091947167 -0.0072105224 0.019274501 -0.033816636 -0.037444502 0.0006150525 -0.007900712
0.0042050835 -0.011965039 0.009948707 0.018849568 -0.039090138 0.005598075 0.006559301 -0.021450853
0.022596285 -0.01786151 -0.001277851 -0.0025267696 -0.0031884678 -0.0055840113 0.004718037 0.0008738111
0.015458706 0.029454146 0.01848114 0.018822495 0.018723426 -0.024222406 -0.023885481 -0.0013585775
0.013454407 -0.020996964 0.027030248 -0.0014942564 0.034178194 0.020551039 -0.0069440044 0.004213548
0.0007090631 0.02016062 0.017809985 -0.0068156617 0.012960265 -0.0036864334 0.007020016 -0.019001072
-0.00041645832 0.029189272 -0.0042121313 0.0137769 0.03177646 0.0010827153 -0.01767923 -0.018937109
-0.0005316499 0.021048041 -0.009515502 0.008028758 -0.012099466 0.0111067025 -0.021087484 0.026251832
-0.014983847 0.012294774 0.009338824 0.0061742864 0.0042955163 0.0039191796 0.011936901 -0.008340495
0.0036218807 0.008946079 0.017541071 0.024644988 0.0096689975 -0.030087424 0.004764068 -0.021355575
0.0027463818 0.0069903093 -0.01689502 0.004999406 -0.0010102928 0.00609065 -0.020655248 0.03485236
00000000: b79e 4c3c ac07 0bbc 28e5 8c3c 1ae3 bbbc
00000010: ea70 a4bb 3f21 c7ba ff02 cb3b b757 81bc
00000020: 1b0e b9ba 0972 cabc 5ad8 fd3b 3fb3 de3c
00000030: 6175 043c 3b77 1a3b c3da 993a 5f20 b3bb
00000040: d7fa a1bc 1f77 803a fd09 cd3b a20d 633b
00000050: c501 57bc 13ea e6bb 7047 5a3c ffba 5abc
00000060: 470c 933c 936a e1ba b750 82bc b403 c03b
00000070: e7a9 86bb c806 07bc 0276 8abb 1ded b63c
00000080: a5e6 0abc 248c a3bc 4a00 823c f05d d6ba
00000090: 9f40 5ebc 83ca cf3b 7fe1 903c 5cb4 35bd
000000a0: 5bdc 75bc 32df bbbc 4f13 94bc 930c 9a3c
000000b0: 6e4e c83c 9854 8ebb cff7 a0bc 0f68 ae3c
000000c0: 3d30 1c3c 6d15 f03b b33d 18bc 687f 20bc
000000d0: 39db 123d 7318 b63b 6d20 9aba c94c 3d3a
000000e0: 88b1 2cbd dfec abbc 7c61 02bb c173 493c
000000f0: 4f18 873c 5776 1e3c 2189 8e3c 9026 30bc
00000100: c85a 57bc 3612 adbc fa91 0d3d fa35 08bb
00000110: 6ec2 bd3c cfe9 db3b b0f1 4c3a 488f 5abc
00000120: 93b1 913b c75c 913b e7f5 a3bc aef9 86ba
00000130: 9813 083b 100e 7b3b 8a73 ffba fd84 e4bc
00000140: 330f 4d3c 799d 44bc 18b2 1bbc b71f 883b
00000150: a741 9abc d873 4d3c 271a 623c 0bd5 1dba
00000160: d697 473c 65b2 c1bb 2e8b 0c3c 6e94 943c
00000170: e7a4 53ba f3cc 593c 6934 39bc 8bde 7d3c
00000180: a82b 6839 7b4a 12bb 4c20 c0bc e5eb ddbb
00000190: 206d 48bc a2ba 723b 5368 b43c 3ba6 2b3d
000001a0: 3d52 4c3b f7bf eb3c aba5 2e3c 0789 e63c
000001b0: 5768 453c c8af 733c ad91 11bc 42a2 4e3a
000001c0: 22a1 76bc 8f8a 41bc 901a 113d eb21 10bd
000001d0: 8798 e63c 5abb 23bd 5fe2 22bc b68f 913c
000001e0: 3061 843b a18e 13bd 7d0e 63bc 5128 33ba
000001f0: 0ab5 9b3c a08b 4c3c d9f0 be3c 662c cb3a
00000200: 1bf8 05bc 8354 593b 5958 babc efca e73c
00000210: 4302 243c 633f c8bc 7729 8e3c c4ea 96bc
00000220: fa00 6d3c cbef b3bc 9a85 4cbc 254b 823c
00000230: 60bd e33b 8143 283d 0fda cbba cbc5 2bbc
00000240: 0a9d a6bb 861a 93b8 631e b6bc 58b7 bbba
00000250: 4c89 123b 7a5f 62bc 70a4 2b3c 5a99 de3c
00000260: aeb7 103c e830 22bd 43f9 aa3c 70f4 873c
00000270: cf78 8cbb ef31 023c 655c 563c 5d49 d5bc
00000280: a07f 2239 3b01 633c 111a 8e3b b741 dcbc
00000290: c5a9 90bb 3bb3 183c 9f36 10bc bf11 11bd
000002a0: a5da 7fbb b308 71ba 3f46 ecbb 8fe5 9d3c
000002b0: 5083 0abd 685f 19bd 793b 213a fd71 01bc
000002c0: ccca 893b 0309 44bc e7ff 223c 696a 9a3c
000002d0: fb1c 20bd 0f70 b73b 68ef d63b b3b9 afbc
000002e0: d81b b93c 4d52 92bc 917d a7ba 2998 25bb
000002f0: 9df5 50bb 15fa b6bb c399 9a3b 7810 653a
00000300: 8346 7d3c d249 f13c c265 973c a231 9a3c
00000310: df61 993c 116e c6bc 7cab c3bc 4c12 b2ba
00000320: e06f 5c3c d301 acbc 8a6e dd3c edda c3ba
00000330: 6ffe 0b3d a75a a83c 888a e3bb cd11 8a3b
00000340: 6be0 393a e227 a53c 3fe6 913c ea55 dfbb
00000350: 4b57 543c 1798 71bb 2a08 e63b 23a8 9bbc
00000360: 1758 dab9 571e ef3c eb05 8abb 82b8 613c
00000370: 0928 023d e6e9 8d3a 08d4 90bc ff21 9bbc
00000380: 6c5e 0bba f16c ac3c e8e6 1bbc 0d8b 033c
00000390: d73c 46bc e3f8 353c a9bf acbc 150e d73c
000003a0: cf7e 75bc 0570 493c de01 193c ab51 ca3b
000003b0: 67c1 8c3b 766c 803b fe92 433c 92a6 08bc
000003c0: 135d 6d3b 9392 123c 4bb2 8f3c 49e4 c93c
000003d0: b76a 1e3c e779 f6bc e61b 9c3b e3f1 aebc
000003e0: a4fc 333b f70e e53b 6d67 8abc 0fd2 a33b
000003f0: cd6b 84ba 1394 c73b 3235 a9bc 59c1 0e3d

action_model._discrete_distribution.branches.0.weight f4 [1, 128]
0.013842367 -0.0046996954 0.0009309427 0.0015172502 -0.0051275003 0.004212542 -0.006677469 0.011769019
0.014877043 0.0024487416 -0.0069785314 -0.013714473 0.00608347 0.002865038 -0.00033040327 0.010849892
0.0022500886 -0.0003663786 0.00086345105 0.0030506102 -0.003557789 0.0070776604 -0.0025909825 0.0013018387
-0.013947125 0.003805307 0.0010014037 0.00072162965 -0.0011549332 -0.0035983452 -0.0051365336 -0.0020380085
0.0075292587 0.0042369184 -0.009949116 0.0054335906 -0.00448527 -0.0059190183 -0.004300026 -0.0037359353
0.0074686925 0.0009919934 0.008699758 -0.005479736 0.0016272984 0.006157137 0.005195294 0.011640481
-0.0063608843 -0.0029125917 -0.0076234224 0.00911331 -0.0012532986 -8.524103e-05 -0.0048606144 0.019598393
-0.011155828 -0.0074635963 0.014390227 0.00781837 0.011586714 0.00095182966 0.008699685 0.008618093
0.0108409105 0.008784033 0.017809372 -0.0010969117 -0.008477079 0.01638368 0.013153585 0.014873969
-0.013078782 0.0066463323 0.011328447 0.013677123 0.00366031 -0.002180411 -0.0035484184 -0.012592815
0.006476154 -0.001107359 0.011659092 -0.00713087 0.0021108226 -0.0095913885 0.0041613635 0.008512633
0.012710864 -0.0039311824 0.0011829173 0.0026050098 -0.010407162 0.011090706 0.00316123 0.013402571
-0.006874092 -0.006564499 0.0078126155 0.014982312 -0.0023061216 -0.00011659308 -0.00041381968 0.0027373869
0.001030502 0.010651833 0.0053920127 -0.005672694 -0.01794081 -0.0044830902 -0.002222627 0.00048643403
0.003556562 -0.011285099 -0.0011133271 -0.012364971 -0.0018150887 -0.00056357647 0.00019470233 0.018880626
0.003581694 -0.0032047895 0.0032259244 -0.01242037 0.007738193 -0.013412793 0.0047909166 0.005742097
00000000: 18cb 623c e7ff 99bb 820a 743a 78de c63a
00000010: 9704 a8bb 5d09 8a3b abce dabb d8d2 403c
00000020: d7be 733c 117b 203b 2aac e4bb abb2 60bc
00000030: d857 c73b 5dc3 3b3b fa39 adb9 bfc3 313c
00000040: 3976 133b 8116 c0b9 3859 623a bfec 473b
00000050: cb29 69bb b8eb e73b 79cd 29bb 75a2 aa3a
00000060: 7b82 64bc 7562 793b 8841 833a bf2b 3d3a
00000070: 2161 97ba 37d2 6bbb 5e50 a8bb 1c90 05bb
00000080: 00b8 f63b d9d5 8a3b 9e01 23bc 430c b23b
00000090: 2cf9 92bb 53f4 c1bb 3ce7 8cbb 98d6 74bb
000000a0: efbb f43b c605 823a 6e89 0e3c 5b8f b3bb
000000b0: 134b d53a cfc1 c93b 493d aa3b b7b7 3e3c
000000c0: f76e d0bb 2ee1 3ebb e7cd f9bb fe4f 153c
000000d0: b945 a4ba 6ec3 b2b8 ca45 9fbb cf8c a03c
000000e0: efc6 36bc 2f91 f4bb fdc4 6b3c 9f18 003c
000000f0: 33d6 3d3c 3584 793a 2089 0e3c e732 0d3c
00000100: 139e 313c e8ea 0f3c f6e4 913c 40c6 8fba
00000110: 72e3 0abc 1137 863c 2282 573c f3b1 733c
00000120: 6348 56bc 7ac9 d93b f39a 393c 0316 603c
00000130: d0e1 6f3b 3ae5 0ebb 958c 68bb 1852 4ebc
00000140: eb35 d43b cd24 91ba c705 3f3c 13aa e9bb
00000150: ba55 0a3b 3325 1dbc 0c5c 883b 9278 0b3c
00000160: 3a41 503c 26d1 80bb 1e0c 9b3a d0b8 2a3b
00000170: cd82 2abc cbb5 353c a32c 4f3b 7596 5b3c
00000180: 1040 e1bb 021b d7bb 7c00 003c 5f78 753c
00000190: 4d22 17bb 6f83 f4b8 f0f5 d8b9 bb65 333b
000001a0: e911 873a 0785 2e3c 7baf b03b 02e2 b9bb
000001b0: 9bf8 92bc e3e6 92bb 7ea9 11bb 1208 ff39
000001c0: 3515 693b 23e5 38bc 0fed 91ba 7396 4abc
000001d0: 45e8 edba fabc 13ba 0229 4c39 8bab 9a3c
000001e0: dbba 6a3b 7207 52bb 086a 533b cf7e 4bbc
000001f0: ab90 fd3b 55c1 5bbc 1ffd 9c3b 3328 bc3b

network_body.linear_encoder.seq_layers.0.bias f4 [128]
0.0 0.0 0.0 0.0 0.0 0.0 0.0 0.0
0.0 0.0 0.0 0.0 0.0 0.0 0.0 0.0
0.0 0.0 0.0 0.0 0.0 0.0 0.0 0.0
0.0 0.0 0.0 0.0 0.0 0.0 0.0 0.0
0.0 0.0 0.0 0.0 0.0 0.0 0.0 0.0
0.0 0.0 0.0 0.0 0.0 0.0 0.0 0.0
0.0 0.0 0.0 0.0 0.0 0.0 0.0 0.0
0.0 0.0 0.0 0.0 0.0 0.0 0.0 0.0
0.0 0.0 0.0 0.0 0.0 0.0 0.0 0.0
0.0 0.0 0.0 0.0 0.0 0.0 0.0 0.0
0.0 0.0 0.0 0.0 0.0 0.0 0.0 0.0
0.0 0.0 0.0 0.0 0.0 0.0 0.0 0.0
0.0 0.0 0.0 0.0 0.0 0.0 0.0 0.0
0.0 0.0 0.0 0.0 0.0 0.0 0.0 0.0
0.0 0.0 0.0 0.0 0.0 0.0 0.0 0.0
0.0 0.0 0.0 0.0 0.0 0.0 0.0 0.0
00000000: 0000 0000 0000 0000 0000 0000 0000 0000
00000010: 0000 0000 0000 0000 0000 0000 0000 0000
00000020: 0000 0000 0000 0000 0000 0000 0000 0000
00000030: 0000 0000 0000 0000 0000 0000 0000 0000
00000040: 0000 0000 0000 0000 0000 0000 0000 0000
00000050: 0000 0000 0000 0000 0000 0000 0000 0000
00000060: 0000 0000 0000 0000 0000 0000 0000 0000
00000070: 0000 0000 0000 0000 0000 0000 0000 0000
00000080: 0000 0000 0000 0000 0000 0000 0000 0000
00000090: 0000 0000 0000 0000 0000 0000 0000 0000
000000a0: 0000 0000 0000 0000 0000 0000 0000 0000
000000b0: 0000 0000 0000 0000 0000 0000 0000 0000
000000c0: 0000 0000 0000 0000 0000 0000 0000 0000
000000d0: 0000 0000 0000 0000 0000 0000 0000 0000
000000e0: 0000 0000 0000 0000 0000 0000 0000 0000
000000f0: 0000 0000 0000 0000 0000 0000 0000 0000
00000100: 0000 0000 0000 0000 0000 0000 0000 0000
00000110: 0000 0000 0000 0000 0000 0000 0000 0000
00000120: 0000 0000 0000 0000 0000 0000 0000 0000
00000130: 0000 0000 0000 0000 0000 0000 0000 0000
00000140: 0000 0000 0000 0000 0000 0000 0000 0000
00000150: 0000 0000 0000 0000 0000 0000 0000 0000
00000160: 0000 0000 0000 0000 0000 0000 0000 0000
00000170: 0000 0000 0000 0000 0000 0000 0000 0000
00000180: 0000 0000 0000 0000 0000 0000 0000 0000
00000190: 0000 0000 0000 0000 0000 0000 0000 0000
000001a0: 0000 0000 0000 0000 0000 0000 0000 0000
000001b0: 0000 0000 0000 0000 0000 0000 0000 0000
000001c0: 0000 0000 0000 0000 0000 0000 0000 0000
000001d0: 0000 0000 0000 0000 0000 0000 0000 0000
000001e0: 0000 0000 0000 0000 0000 0000 0000 0000
000001f0: 0000 0000 0000 0000 0000 0000 0000 0000

network_body.linear_encoder.seq_layers.0.weight f4 [128, 6]
0.49095196 0.12383644 0.76711017 0.63184464 -0.2016971 -0.7090155 -0.034494337 0.36086836
-0.70759314 0.17977993 -0.6198275 0.80540246 -0.070061155 1.1969863 0.1233304 0.16522121
0.023291877 0.50263566 -0.21764912 0.46017656 -0.0009696431 -0.21233454 -0.31901693 -0.20855144
0.0021932183 0.08132266 -0.117303334 -0.12635973 -0.22611834 -0.42008525 0.37706825 0.028757881
0.021110516 -0.3038017 0.4776378 -0.23733161 0.17952102 -0.09330584 -0.20107768 -0.30895323
-0.11573907 0.22679669 0.15661794 0.37852257 0.045304574 -0.060467135 -0.0144557 0.6106307
-0.061409406 0.5131413 0.6840965 0.87243843 0.2599042 -0.14894181 0.35817316 -0.057259925
-0.4128413 0.24440229 -0.11816264 -0.031645533 0.35447535 0.1677904 0.41637516 -0.10348041
-0.6088705 0.029151816 -0.6861811 0.25971127 -0.6345067 -0.08330834 0.034888506 0.8065421
-0.2889465 0.061441544 -0.024805 0.2775899 -0.24521044 -1.0073427 -0.8672975 -0.0027862191
-0.020065743 -0.34955618 -0.019732714 0.20391764 -0.42950818 0.034939658 -0.17641363 0.87063015
0.13239613 -0.10219535 -0.16121495 0.13384092 0.46232268 -0.62726015 0.42386082 0.30443352
-0.6045571 -0.3766508 0.11191704 -0.41747752 0.14433855 0.25983483 -0.42596295 0.086742565
0.4196106 -0.5934901 -0.447038 0.042728953 -0.6578059 0.38343754 0.18692833 0.55640495
-0.33777282 -0.032538056 -0.13613619 0.16252 0.9152941 0.24713023 0.36716673 0.34758273
-0.095692344 0.84293455 0.14466673 0.15637292 0.17030554 0.41630736 -0.12965804 0.46674797
-0.22643997 -0.6890712 -0.2454393 0.4268895 0.5323266 -0.30333057 -0.6722897 -0.83544415
0.44827807 -0.40952855 0.26329708 0.80245906 0.22932017 -0.039976038 0.16983406 0.4850122
0.2020004 0.154288 -0.22924963 0.15137105 0.6987297 0.2310941 -0.29959217 0.19995011
1.2825812 -0.13621919 -0.5757831 -0.28700298 -0.41695273 -0.07223372 -0.14195365 0.2565518
0.084635 0.15822089 0.7854738 0.3116309 0.04528971 0.22272302 0.29901925 -0.2610454
-0.39104602 0.57875806 -0.4332808 0.25866792 -0.091501184 0.48619413 -0.043304544 0.27527803
0.2693918 -0.424362 0.6873084 0.19887713 -0.25461036 0.908975 0.28025892 0.3888933
-0.46457636 0.12629282 -0.48906368 0.4213841 -0.30759227 -0.057239067 -0.1900238 0.35393712
-0.11947532 -0.27084616 -0.27811092 -0.12912178 -0.002598038 -0.10628006 -0.40859637 0.6543594
0.0856796 -0.38515192 0.084697805 -0.0690573 0.37422618 0.556654 -0.47954154 -0.32907867
0.5779135 0.059297703 0.08303196 -0.43895376 -0.529256 -0.18001568 -0.19798271 0.11137521
-0.344122 -0.22883072 -0.14648978 -0.16917178 0.5589297 0.4832541 -0.5710821 0.16066223
0.098090716 0.5831213 -0.38040593 0.40642703 0.10875667 -0.97771907 0.806497 -0.824167
0.08342972 0.035088807 -0.7166326 -0.16675182 0.08863635 0.160103 0.659348 0.26436272
-0.05333297 0.14214565 0.45246008 0.07268593 0.73200923 0.15138438 -0.19115938 -0.15554927
-0.32905936 -0.35168982 -0.59307486 0.120945364 0.43247533 0.6446569 -0.7184021 -0.08482814
00000000: 0e5e fb3e f69d fd3d 5561 443f 92c0 213f
00000010: af89 4ebe 0a82 35bf ef49 0dbd bdc3 b83e
00000020: d324 35bf 3b18 383e 04ad 1ebf db2e 4e3f
00000030: 397c 8fbd d936 993f a694 fc3d c02f 293e
00000040: 9bce be3c bbac 003f 69df 5ebe 439c eb3e
00000050: a62f 7eba 3a6e 59be 3056 a3be 828e 55be
00000060: 19bc 0f3b 7f8c a63d bb3c f0bd 7264 01be
00000070: 918b 67be 6a15 d7be 170f c13e a695 eb3c
00000080: f6ef ac3c e58b 9bbe f18c f43e 0f07 73be
00000090: 5cd4 373e 2217 bfbd 4fe7 4dbe 1e2f 9ebe
000000a0: 9b08 edbd 643d 683e 7460 203e b6cd c13e
000000b0: 4a91 393d 63ac 77bd 9ad7 6cbc 4b52 1c3f
000000c0: 6e88 7bbd 3a5d 033f f320 2f3f 2058 5f3f
000000d0: 2a12 853e 3484 18be 7962 b73e 6289 6abd
000000e0: ef5f d3be 9844 7a3e 41ff f1bd bf9e 01bd
000000f0: cb7d b53e 3fd1 2b3e 202f d53e 8aed d3bd
00000100: f0de 1bbf cacf ee3c 91a9 2fbf e0f8 843e
00000110: 086f 22bf 909d aabd 40e7 0e3d 8b79 4e3f
00000120: ccf0 93be 21aa 7b3d db33 cbbc 4320 8e3e
00000130: 7218 7bbe 9bf0 80bf 3507 5ebf 0099 36bb
00000140: ea60 a4bc 07f9 b2be 80a6 a1bc c9cf 503e
00000150: 7fe8 dbbe e31c 0f3d c6a5 34be 9ee1 5e3f
00000160: da92 073e cc4b d1bd 8815 25be 980d 093e
00000170: 8fb5 ec3e 1f94 20bf 4904 d93e b6de 9b3e
00000180: 41c4 1abf 60d8 c0be c334 e53d 9dbf d5be
00000190: 7ccd 133e 1209 853e d117 dabe 16a6 b13d
000001a0: 33d7 d63e f8ee 17bf 2ae2 e4be 8e04 2f3d
000001b0: f865 28bf ed51 c43e 246a 3f3e 8e70 0e3f
000001c0: 8ff0 acbe a046 05bd 4967 0bbe a56b 263e
000001d0: b750 6a3f b50f 7d3e 47fd bb3e 5df6 b13e
000001e0: 59fa c3bd 8fca 573f 8423 143e 3920 203e
000001f0: 9364 2e3e 3d26 d53e 14c5 04be 97f9 ee3e
00000200: e1df 67be f866 30bf 7154 7bbe 4391 da3e
00000210: 8e46 083f 254e 9bbe 2e1b 2cbf abdf 55bf
00000220: b484 e53e baad d1be e0ce 863e f56d 4d3f
00000230: e8d2 6a3e eabd 23bd fbe8 2d3e 8553 f83e
00000240: 31d9 4e3e acfd 1d3e 6ac0 6abe 0301 1b3e
00000250: f3df 323f efa3 6c3e 2564 99be b9bf 4c3e
00000260: 9f2b a43f 0b7d 0bbe 8566 13bf 0ef2 92be
00000270: d47a d5be 46ef 93bd 4c5c 11be c25a 833e
00000280: 1d55 ad3d a804 223e d014 493f 168e 9f3e
00000290: b481 393d 8111 643e 0d19 993e bea7 85be
000002a0: 2f37 c8be 7d29 143f fbd6 ddbe 1f70 843e
000002b0: f964 bbbd 70ee f83e 1b60 31bd 3ef1 8c3e
000002c0: b9ed 893e fa45 d9be 71f3 2f3f 72a6 4b3e
000002d0: 4a5c 82be 96b2 683f 197e 8f3e 061d c73e
000002e0: f4dc edbe e852 013e 8e66 fabe a8bf d73e
000002f0: bc7c 9dbe 8373 6abd 9995 42be 3f37 b53e
00000300: 7aaf f4bd 59ac 8abe 8e64 8ebe 8038 04be
00000310: d843 2abb 5ca9 d9bd 8b33 d1be 1984 273f
00000320: c978 af3d a232 c5be 0b76 ad3d ea6d 8dbd
00000330: 939a bf3e e080 0e3f 7886 f5be 007d a8be
00000340: 24f2 133f 26e2 723d a90c aa3d 8cbe e0be
00000350: 527d 07bf 0856 38be fbbb 4abe b018 e43d
00000360: c230 b0be 9a52 6abe 6b01 16be 5e3b 2dbe
00000370: 0416 0f3f 156d f73e 7032 12bf a484 243e
00000380: c9e3 c83d 7047 153f 91c4 c2be 3417 d03e
00000390: d1bb de3d cc4b 7abf 9676 4e3f 9cfc 52bf
000003a0: 33dd aa3d 48b9 0f3d 3c75 37bf fdc0 2abe
000003b0: fa86 b53d 0af2 233e 08cb 283f 8d5a 873e
000003c0: ac73 5abd a18e 113e d9a8 e73e 5cdc 943d
000003d0: f564 3b3f 8204 1b3e 49bf 43be 4f48 1fbe
000003e0: 787a a8be b010 b4be c1d3 17bf 34b2 f73d
000003f0: 686d dd3e 3c08 253f 33e9 37bf 60ba adbd

network_body.linear_encoder.seq_layers.2.bias f4 [128]
0.0 0.0 0.0 0.0 0.0 0.0 0.0 0.0
0.0 0.0 0.0 0.0 0.0 0.0 0.0 0.0
0.0 0.0 0.0 0.0 0.0 0.0 0.0 0.0
0.0 0.0 0.0 0.0 0.0 0.0 0.0 0.0
0.0 0.0 0.0 0.0 0.0 0.0 0.0 0.0
0.0 0.0 0.0 0.0 0.0 0.0 0.0 0.0
0.0 0.0 0.0 0.0 0.0 0.0 0.0 0.0
0.0 0.0 0.0 0.0 0.0 0.0 0.0 0.0
0.0 0.0 0.0 0.0 0.0 0.0 0.0 0.0
0.0 0.0 0.0 0.0 0.0 0.0 0.0 0.0
0.0 0.0 0.0 0.0 0.0 0.0 0.0 0.0
0.0 0.0 0.0 0.0 0.0 0.0 0.0 0.0
0.0 0.0 0.0 0.0 0.0 0.0 0.0 0.0
0.0 0.0 0.0 0.0 0.0 0.0 0.0 0.0
0.0 0.0 0.0 0.0 0.0 0.0 0.0 0.0
0.0 0.0 0.0 0.0 0.0 0.0 0.0 0.0
00000000: 0000 0000 0000 0000 0000 0000 0000 0000
00000010: 0000 0000 0000 0000 0000 0000 0000 0000
00000020: 0000 0000 0000 0000 0000 0000 0000 0000
00000030: 0000 0000 0000 0000 0000 0000 0000 0000
00000040: 0000 0000 0000 0000 0000 0000 0000 0000
00000050: 0000 0000 0000 0000 0000 0000 0000 0000
00000060: 0000 0000 0000 0000 0000 0000 0000 0000
00000070: 0000 0000 0000 0000 0000 0000 0000 0000
00000080: 0000 0000 0000 0000 0000 0000 0000 0000
00000090: 0000 0000 0000 0000 0000 0000 0000 0000
000000a0: 0000 0000 0000 0000 0000 0000 0000 0000
000000b0: 0000 0000 0000 0000 0000 0000 0000 0000
000000c0: 0000 0000 0000 0000 0000 0000 0000 0000
000000d0: 0000 0000 0000 0000 0000 0000 0000 0000
000000e0: 0000 0000 0000 0000 0000 0000 0000 0000
000000f0: 0000 0000 0000 0000 0000 0000 0000 0000
00000100: 0000 0000 0000 0000 0000 0000 0000 0000
00000110: 0000 0000 0000 0000 0000 0000 0000 0000
00000120: 0000 0000 0000 0000 0000 0000 0000 0000
00000130: 0000 0000 0000 0000 0000 0000 0000 0000
00000140: 0000 0000 0000 0000 0000 0000 0000 0000
00000150: 0000 0000 0000 0000 0000 0000 0000 0000
00000160: 0000 0000 0000 0000 0000 0000 0000 0000
00000170: 0000 0000 0000 0000 0000 0000 0000 0000
00000180: 0000 0000 0000 0000 0000 0000 0000 0000
00000190: 0000 0000 0000 0000 0000 0000 0000 0000
000001a0: 0000 0000 0000 0000 0000 0000 0000 0000
000001b0: 0000 0000 0000 0000 0000 0000 0000 0000
000001c0: 0000 0000 0000 0000 0000 0000 0000 0000
000001d0: 0000 0000 0000 0000 0000 0000 0000 0000
000001e0: 0000 0000 0000 0000 0000 0000 0000 0000
000001f0: 0000 0000 0000 0000 0000 0000 0000 0000

network_body.linear_encoder.seq_layers.2.weight f4 [128, 128]
-0.19689931 -0.14566137 0.14906229 0.026514426 -0.058874995 0.062722 -0.015672132 0.09852379
0.024438025 -0.062017463 0.008378295 0.0632779 0.06746609 -0.02720123 -0.04518191 -0.07574784
0.04188151 0.07209104 0.07813623 0.18506253 0.06611954 -0.0018183625 -0.119697586 -0.16042984
0.0083255 -0.21598673 0.18875067 0.06854359 0.08426613 -0.017766515 -0.071765795 0.09685247
-0.037220303 -0.13589849 0.06174725 -0.121630155 0.050491676 0.034709964 -0.06234081 -0.0012019554
0.027275212 0.072714984 0.12921092 -0.0148847215 -0.054007355 -0.17791824 0.14405622 0.017629186
-0.005047051 -0.15339503 0.1233844 0.117505506 0.018771324 -0.0016716722 -0.11422116 -0.0093659
-0.07031787 0.06302404 -0.009758676 -0.052486885 -0.16047332 0.14297685 -0.115054876 0.13804996
0.16971968 -0.08434971 0.0983109 -0.13130192 -0.039999533 -0.001498597 -0.11744875 0.14597556
-0.023879116 -0.023247074 0.07223278 -0.15887828 -0.059441227 -0.16152856 0.20479177 -0.025779303
0.08656891 -0.0010810618 -0.012856211 -0.20995606 -0.016030699 0.005175266 -0.045463476 0.12834337
-0.028693289 0.09246238 -0.0049929363 0.035220884 0.008326924 0.029160753 -0.023791414 0.15839344
-0.05123236 -0.065287545 -0.059417147 0.023246566 -0.07373292 -0.035520714 0.007884083 0.029626932
-0.12984562 -0.16290694 0.16000055 0.076041445 -0.12695703 0.13078094 0.011775608 -0.046086412
-0.0006018318 -0.09938344 -0.05093404 -0.17442714 0.15192193 -0.15289885 0.007633084 0.117523454
0.02170058 0.065358035 -0.021599295 0.027891334 -0.12648146 -0.031514894 0.05148318 -0.12549809
0.026043868 -0.017839327 0.014879077 0.04017694 0.0008225498 0.061528303 -0.007857846 -0.10637971
0.07136849 0.010445663 0.074498564 0.019467454 0.06340572 -0.19828941 -0.10202182 -0.030375797
0.08600817 0.0847472 -0.0038193949 -0.049370524 0.102754794 -0.06444622 -0.0009380111 0.060841
-0.07015714 0.07483084 -0.05106189 0.06710423 -0.014599714 0.07575784 0.00252413 -0.0206072
0.072099864 -0.103453934 -0.14978403 -0.06395805 -0.016673295 0.01674681 0.055189464 0.12840554
0.014311214 0.054931715 -0.07191253 0.019410107 0.0037008864 -0.107900575 -0.08786082 -0.021161975
0.14187771 0.11926033 -0.12101848 0.011875843 0.07271868 0.03975717 -0.082477994 -0.02806371
0.02894023 0.11902021 0.09543683 -0.030332237 0.018140255 0.10172818 -0.03934529 0.0650259
0.07477161 0.021226484 0.025088757 -0.0055084783 -0.04134787 -0.12242166 0.0004583765 -0.11352994
-0.043355368 -0.124004655 -0.09367558 -0.031971548 0.09175939 0.025191844 -0.02707204 -0.12195314
-0.1518722 0.053315766 0.047517464 -0.0063861324 -0.13964778 -0.0005565977 -0.012974598 0.015918054
0.04208534 -0.09986108 -0.18028545 0.06524903 -0.11809315 -0.11790548 0.13054423 0.085179284
0.065668374 0.009680516 0.024067465 0.15104324 -0.071937084 0.017242461 0.072195895 0.0019434511
0.03052159 -0.17532064 0.027035818 0.093481444 -0.050726507 0.031373814 0.11141454 -0.0037321688
-0.10445714 0.0875622 5.025268e-05 -0.1867924 -0.014452596 -0.018424124 0.14709787 0.05160186
0.12266319 0.027646473 0.086124934 0.031161817 0.04977486 0.12291009 -0.009419667 -0.05181896
00000000: f99f 49be 4128 15be c9a3 183e c834 d93c
00000010: e826 71bd 6474 803d d862 80bc d7c6 c93d
00000020: 4132 c83c 0606 7ebd 1e45 093c d897 813d
00000030: a92b 8a3d 1dd5 debc ab10 39bd af21 9bbd
00000040: f28b 2b3d 78a4 933d e305 a03d 0881 3d3e
00000050: ae69 873d 1f56 eeba 0224 f5bd b847 24be
00000060: ae67 083c a02b 5dbe db47 413e 9560 8c3d
00000070: b993 ac3d 158b 91bc f2f9 92bd 965a c63d
00000080: 5174 18bd f928 0bbe afea 7c3d 3b19 f9bd
00000090: 5cd0 4e3d 092c 0e3d 1459 7fbd ee8a 9dba
000000a0: 4470 df3c 98eb 943d de4f 043e 0cdf 73bc
000000b0: d136 5dbd 3330 36be 7983 133e 156b 903c
000000c0: bb61 a5bb 9613 1dbe f6b0 fc3d baa6 f03d
000000d0: 52c6 993c 031c dbba c9ec e9bd 6f73 19bc
000000e0: d102 90bd bf12 813d dbe2 1fbc 7dfc 56bd
000000f0: 1e53 24be 8668 123e e4a1 ebbd f85c 0d3e
00000100: ffca 2d3e 8abf acbd 3a57 c93d 0374 06be
00000110: 8dd6 23bd 926c c4ba f888 f0bd 9e7a 153e
00000120: 239e c3bc a670 bebc c8ee 933d fdb0 22be
00000130: a578 73bd be67 25be efb4 513e 1e2f d3bc
00000140: 0a4b b13d 6ab2 8dba dba2 52bc b9fe 56be
00000150: d052 83bc 4795 a93b e937 3abd 726c 033e
00000160: 300e ebbc eb5c bd3d c99b a3bb c643 103d
00000170: a76d 083c 88e2 ee3c 36e6 c2bc e431 223e
00000180: 06d9 51bd 7ab5 85bd 655f 73bd 956f be3c
00000190: 4901 97bd 2b7e 11bd 3e2c 013c 2eb4 f23c
000001a0: 40f6 04be 14d1 26be 2fd7 233e 9ebb 9b3d
000001b0: 0601 02be 70eb 053e 7bee 403c 1bc5 3cbd
000001c0: 40c4 1dba 8c89 cbbd 36a0 50bd 079d 32be
000001d0: 6c91 1b3e 8491 1cbe f31e fa3b 23b0 f03d
000001e0: 6ac5 b13c 6fda 853d 01f1 b0bc 5e7c e43c
000001f0: 5b84 01be c315 01bd 07e0 523d 9282 00be
00000200: f359 d53c c823 92bc 5fc7 733c 9390 243d
00000210: 62a0 573a 1a05 7c3d 32be 00bc 9bdd d9bd
00000220: a529 923d 4924 2b3c b492 983d 367a 9f3c
00000230: dcda 813d 610c 4bbe d1f0 d0bd aad6 f8bc
00000240: 0d25 b03d f18f ad3d d04e 7abb bf38 4abd
00000250: 1b71 d23d 61fc 83bd dce4 75ba 6a34 793d
00000260: 8cae 8fbd e940 993d 4626 51bd f16d 893d
00000270: a433 6fbc ed26 9b3d e06b 253b 6ed0 a8bc
00000280: 18a9 933d a8df d3bd fc60 19be 70fc 82bd
00000290: 6f96 88bc 9b30 893c 590e 623d be7c 033e
000002a0: 9579 6a3c 1400 613d e046 93bd f201 9f3c
000002b0: 928a 723b fafa dcbd 60f0 b3bd e15b adbc
000002c0: 6448 113e c33e f43d 89d8 f7bd e592 423c
000002d0: 88ed 943d 6ad8 223d 39ea a8bd dee5 e5bc
000002e0: 1014 ed3c dec0 f33d 6274 c33d 507b f8bc
000002f0: df9a 943c dd56 d03d 8728 21bd 4d2c 853d
00000300: dc21 993d 2ae3 ad3c f086 cd3c 7780 b4bb
00000310: 625c 29bd 35b8 fabd 4152 f039 6382 e8bd
00000320: 6695 31bd 27f6 fdbd fcd8 bfbd 99f4 02bd
00000330: 59ec bb3d 205f ce3c 2fc6 ddbc 91c2 f9bd
00000340: 6384 1bbe a261 5a3d aca1 423d c342 d1bb
00000350: d4ff 0ebe a4e8 11ba 6993 54bc 9466 823c
00000360: ad61 2c3d f783 ccbd c09c 38be 49a1 853d
00000370: d2da f1bd 6e78 f1bd 63ad 053e 7a72 ae3d
00000380: 247d 863d 079b 1e3c 2229 c53c 14ab 1a3e
00000390: c053 93bd 1040 8d3c 71db 933d 66bb fe3a
000003a0: 6a08 fa3c 4187 33be 387a dd3c 3373 bf3d
000003b0: 99c6 4fbd d481 003d 4e2d e43d 6797 74bb
000003c0: a0ed d5bd d053 b33d 67c6 5238 8246 3fbe
000003d0: 95ca 6cbc 30ee 96bc d3a0 163e 795c 533d
000003e0: d736 fb3d db7a e23c 4562 b03d 1147 ff3c
000003f0: b9e0 4b3d 49b8 fb3d f254 1abc 1e40 54bd
