results/RandomTest7/HitTheBall/HitTheBall-468206.pt (torch, 442191 bytes, 39 tensors)

network_body.linear_encoder.seq_layers.0.weight f4 [128, 6]
0.018626945 -0.25230816 0.23280588 0.0332261 0.05022552 0.47945404 1.0715641 -0.0011879626
0.31089413 -0.6598172 0.6271454 0.42840144 0.13301426 -0.96530807 0.19737796 -0.75379956
0.31337076 0.0042960215 -0.16001879 0.677883 0.4634199 -0.082691446 -0.3660737 0.49386826
-0.48923567 -1.1673856 -0.053516723 -0.4532173 0.02379888 0.46998313 -0.0993085 0.4958825
0.0672388 -0.23948376 -0.05519774 -0.21323563 0.45050588 -0.7036848 0.15427144 0.07156349
0.236859 0.37679794 0.40282074 -0.5118475 0.19696768 -0.7055038 -0.0637775 0.15764275
-0.33218065 -0.25019854 -0.30280152 0.022867603 0.12913063 0.49320877 0.060958683 0.90222484
-0.05198549 0.44198003 -0.045108132 0.8599458 0.39419606 0.36815742 0.22833794 -0.36843377
0.030521525 -0.014780251 0.7822079 0.14497453 -0.4424183 -0.020503022 -0.34572834 -0.31110173
0.3033287 0.30681008 0.031864345 0.15819775 0.03714602 -0.42389613 -0.6791045 -0.0710846
-0.08288959 0.07762939 0.1163257 -0.1691587 1.092525 0.38082352 -0.14241175 0.51692957
-0.5233679 -0.04716131 0.43116587 -0.7595127 -0.8893417 0.18623275 0.037324596 -0.06174176
0.50176054 -0.30479932 0.49825406 -0.19235757 -0.16654739 0.11574889 -0.28578395 0.24036802
-0.068899944 -0.42211574 1.2445872 -0.2825205 -0.4630249 0.43730944 0.6036918 0.42323843
0.13057905 -0.3567489 0.4130561 -0.1693165 0.77263194 0.525555 0.3222521 -0.32795328
0.41236812 0.39453387 -0.5003346 -0.12559971 0.4809852 0.24309252 -0.16502286 -0.1779889
-0.4295949 0.47126424 0.3767835 -0.61076015 -0.030193055 0.52416116 0.50330305 -0.23904383
0.08539925 -0.5490518 0.09623791 -0.83370674 -0.26677644 -0.5796517 0.6313798 0.98214453
0.16750506 -0.15785003 0.72180605 0.37777567 -0.036720924 -0.1519616 -0.02128211 0.09882163
-0.17762472 -0.0947665 -0.58908284 -0.47992876 -0.5307187 0.42902777 0.2578491 -0.80829626
0.8089927 -0.4173521 -0.017695857 -0.37412715 -0.57037836 0.037191965 -0.25616166 0.10760435
0.21631207 -0.2095064 -0.29409817 0.07421333 -0.7740694 -0.16890243 0.30146262 -0.9166479
-0.31977418 0.80753434 0.046041988 -0.05503943 -0.0940627 -0.10596786 -0.014922808 0.29967338
0.4667665 -0.5489503 0.21761274 -0.36222607 0.0055592996 -0.045034956 0.13734972 -0.62560725
-0.100877784 -0.57581574 1.0245152 0.02712618 0.34803885 0.015236417 -0.3368371 0.14768948
0.21125059 0.08285912 -0.15204185 0.39230663 0.065542094 -0.23198418 -0.055397555 0.172823
0.06962735 0.0450437 0.5541658 0.34447253 0.38403672 0.17691498 -0.11989429 -0.048149563
0.9685411 0.07547982 -0.49161783 -0.34208956 0.016989749 0.11783678 -0.42440054 0.23562878
0.49262208 0.007300492 -0.18107167 -0.22285114 0.2516685 0.80016685 -0.16529205 -0.14624874
0.35578436 0.20395368 0.088214345 0.2618961 -0.40415043 0.23045102 -0.14048839 -0.14061005
0.34788945 0.13148399 0.2988827 0.073616035 -0.26626348 0.37819016 0.27638543 0.2104407
0.059346646 0.15730736 0.2065445 -0.6606143 -0.34463933 -0.9978677 -0.40696815 0.11462227
00000000: 8997 983c 892e 81be aa64 6e3e 1718 083d
00000010: 46b9 4d3d 007b f53e 0329 893f 69b5 9bba
00000020: 842d 9f3e c8e9 28bf 9a8c 203f 6f57 db3e
00000030: e434 083e 6e1e 77bf 731d 4a3e 02f9 40bf
00000040: 2272 a03e a4c5 8c3b f7db 23be be89 2d3f
00000050: 6045 ed3e 225a a9bd 036e bbbe 4ddc fc3e
00000060: 197d fabe e46c 95bf 5a34 5bbd 190c e8be
00000070: def5 c23c a1a1 f03e 4162 cbbd 50e4 fd3e
00000080: 7fb4 893d 3b3b 75be 0717 62bd 715a 5abe
00000090: b5a8 e63e b024 34bf 55f9 1d3e e18f 923d
000000a0: 2a8b 723e a9eb c03e 853e ce3e 7008 03bf
000000b0: e5b1 493e e69b 34bf c79d 82bd 1a6d 213e
000000c0: 9513 aabe 061a 80be cd08 9bbe d754 bb3c
000000d0: d23a 043e dc85 fc3e d0af 793d 35f8 663f
000000e0: bdee 54bd 354b e23e 4ec3 38bd 6825 5c3f
000000f0: 11d4 c93e 217f bc3e 6cd1 693e 5aa3 bcbe
00000100: 4708 fa3c de28 72bc c73e 483f 3474 143e
00000110: a784 e2be f4f5 a7bc 4e03 b1be ba48 9fbe
00000120: e64d 9b3e 3616 9d3e 3084 023d 97fe 213e
00000130: 6d26 183d ea08 d9be cbd9 2dbf ce94 91bd
00000140: 04c2 a9bd 28fc 9e3d 2b3c ee3d f037 2dbe
00000150: dcd7 8b3f 4dfb c23e 63d4 11be 7f55 043f
00000160: 70fb 05bf 382c 41bd c6c1 dc3e 6d6f 42bf
00000170: e6ab 63bf ccb3 3e3e ade1 183d ede4 7cbd
00000180: 6173 003f a80e 9cbe 281b ff3e 62f9 44be
00000190: 668b 2abe c10d ed3d 4652 92be 0923 763e
000001a0: 6a1b 8dbd 8e1f d8be a24e 9f3f 87a6 90be
000001b0: 9a11 edbe 06e7 df3e 8c8b 1a3f b5b2 d83e
000001c0: 84b6 053e cba7 b6be 177c d33e 4e61 2dbe
000001d0: 35cb 453f c68a 063f 3afe a43e 7ee9 a7be
000001e0: ea21 d33e 5800 ca3e ee15 00bf 369d 00be
000001f0: b143 f63e 3fed 783e c1fb 28be b942 36be
00000200: ddf3 dbbe 8c49 f13e c4e9 c03e c75a 1cbf
00000210: 6d57 f7bc 6d2f 063f 78d8 003f e8c7 74be
00000220: cde5 ae3d a98e 0cbf 6218 c53d ce6d 55bf
00000230: ec96 88be 0e64 14bf 1ba2 213f d36d 7b3f
00000240: 7286 2b3e 70a3 21be 48c8 383f d06b c13e
00000250: ae68 16bd d29b 1bbe d257 aebc ff62 ca3d
00000260: 41e3 35be f014 c2bd 22ce 16bf 39b9 f5be
00000270: 2edd 07bf 87a9 db3e cc04 843e 81ec 4ebf
00000280: 251a 4f3f 2daf d5be e7f6 90bc 988d bfbe
00000290: 5104 12bf 9a56 183d 9f27 83be ab5f dc3d
000002a0: e980 5d3e d988 56be 0994 96be 29fd 973d
000002b0: 6a29 46bf c2f4 2cbe 4f59 9a3e 70a9 6abf
000002c0: 71b9 a3be 92ba 4e3f 8696 3c3d 0671 61bd
000002d0: f2a3 c0bd ad05 d9bd cb7e 74bc ca6e 993e
000002e0: 05fc ee3e 0288 0cbf e0d5 5e3e b275 b9be
000002f0: c92a b63b 9376 38bd 68a5 0c3e cc27 20bf
00000300: 0399 cebd a968 13bf 5023 833f b937 de3c
00000310: 2632 b23e 2aa2 793c ea75 acbe e93b 173e
00000320: 1352 583e 0bb2 a93d dcb0 1bbe 6adc c83e
00000330: ef3a 863d 438d 6dbe 8ce8 62bd 83f8 303e
00000340: c998 8e3d be7f 383d cfdd 0d3f b45e b03e
00000350: 76a0 c43e 3329 353e 238b f5bd 7a38 45bd
00000360: 4ff2 773f 2a95 9a3d 55b5 fbbe 5d26 afbe
00000370: 162e 8b3c 6954 f13d 074b d9be ac48 713e
00000380: f638 fc3e f738 ef3b da6a 39be 1733 64be
00000390: b2da 803e bcd7 4c3f 5242 29be 3bc2 15be
000003a0: 5e29 b63e 3cd9 503e b9a9 b43d 3f17 863e
000003b0: ceec cebe 5afb 6b3e 30dc 0fbe 15fc 0fbe
000003c0: 911e b23e bda3 063e 2707 993e 01c4 963d
000003d0: b053 88be 24a2 c13e 6482 8d3e c47d 573e
000003e0: 7815 733d 2e15 213e 6780 533e 051e 29bf
000003f0: 9174 b0be 4274 7fbf 215e d0be 15bf ea3d

network_body.linear_encoder.seq_layers.0.bias f4 [128]
0.013355684 0.028822402 0.021334155 0.010600513 -0.006441178 0.022467999 -0.021825712 0.0026087612
-0.008493466 -0.036837034 0.0446455 -0.0082028955 -0.022774916 -0.03831954 0.001560661 0.041681014
-0.037096117 0.018649643 -0.006072236 0.0726351 0.045745227 -0.004069466 0.015984915 0.00058495253
0.04168366 0.020784074 0.011289602 -0.031804442 0.024381349 0.07319071 -0.02238105 -0.046171922
0.0063651097 0.022708194 -0.04925373 0.014251163 0.014811642 -0.028687393 0.008556228 -0.025886813
0.013020269 0.0033691032 -0.015643934 0.037862547 0.024848556 -0.016133683 0.052703157 -0.013387818
0.0276436 0.0054306593 0.016282517 -0.016995633 0.01997806 0.04022325 0.057673067 -0.005259384
0.030925812 0.025155043 0.00029978846 -0.028732125 -0.0060439515 -0.0007585639 -0.017907575 -0.02552755
-0.0037781533 0.06378322 -0.01975984 -0.014602966 0.051434867 -0.019910606 0.0074419887 0.015309137
-0.026468886 -0.013069544 -0.011674542 0.02616886 0.028908959 0.032176916 0.014639995 -0.019120675
0.0054724277 -0.0030654692 0.084018685 0.0085888365 0.026248999 0.010899368 0.02078436 0.053370662
-0.032518733 0.016630603 -0.03849014 -0.0036140995 -0.0120422235 0.022238623 0.054437988 0.06590699
-0.0065954034 0.010522951 -0.0084280195 0.026274055 0.02000014 -0.0034997195 -0.041489553 0.000108591725
0.014036329 0.008109933 -0.019923357 0.013589259 -0.0010788356 0.009845356 -0.02173541 0.0013116046
-0.018217871 0.023818763 0.07007704 -0.01143832 0.0003922683 0.06380372 -0.0034116665 0.020103399
0.016065914 -0.00562067 0.01468426 0.021843659 0.010626346 0.005244592 0.019420272 -0.007645861
00000000: ccd1 5a3c f51c ec3c f7c4 ae3c c6ad 2d3c
00000010: 8410 d3bb cf0e b83c d6cb b2bc c0f7 2a3b
00000020: 2e28 0bbc 6ee2 16bd 33de 363d 7065 06bc
00000030: 7692 babc f3f4 1cbd 188f cc3a b6b9 2a3d
00000040: 19f2 17bd 23c7 983c 9cf9 c6bb b6c1 943d
00000050: 595f 3b3d 2859 85bb ccf2 823c 8057 193a
00000060: 7cbc 2a3d 5d43 aa3c 06f8 383c 6045 02bd
00000070: 65bb c73c 03e5 953d 7758 b7bc c51e 3dbd
00000080: 6992 d03b 8906 ba3c 47be 49bd b67d 693c
00000090: 87ac 723c d301 ebbc 6c2f 0c3c 9510 d4bc
000000a0: f752 553c 2ccc 5c3b b527 80bc c215 1b3d
000000b0: 338f cb3c c92a 84bc 44df 573d 9458 5bbc
000000c0: d574 e23c acf3 b13b ea62 853c 6d3a 8bbc
000000d0: 07a9 a33c 22c1 243d 983a 6c3d e956 acbb
000000e0: 2158 fd3c f311 ce3c ed2c 9d39 a25f ebbc
000000f0: 570c c6bb 5dda 46ba e8b2 92bc 271f d1bc
00000100: e59a 77bb c7a0 823d 63df a1bc 4741 6fbc
00000110: 5ead 523d 911b a3bc eddb f33b 2dd3 7a3c
00000120: 47d5 d8bc a421 56bc 9446 3fbc 1460 d63c
00000130: 7bd2 ec3c f1cb 033d 97dc 6f3c f6a2 9cbc
00000140: 0d52 b33b 0ae6 48bb fd11 ac3d 31b8 0c3c
00000150: 2408 d73c 4393 323c f643 aa3c 329b 5a3d
00000160: 5d32 05bd e73c 883c d6a7 1dbd 87da 6cbb
00000170: bf4c 45bc c62d b63c 5efa 5e3d 3efa 863d
00000180: 411e d8bb 7568 2c3c ad15 0abc b03c d73c
00000190: 55d7 a33c 8d5b 65bb f3f0 29bd bdbb e338
000001a0: a2f8 653c 86df 043c 4f36 a3bc 7ca5 5e3c
000001b0: b767 8dba 6b4e 213c 750e b2bc 26ea ab3a
000001c0: a53d 95bc 911f c33c 8d84 8f3d cb67 3bbc
000001d0: 5ca9 cd39 86ab 823d 4496 5fbb e2af a43c
000001e0: aa9c 833c 992d b8bb 4096 703c 79f1 b23c
000001f0: 201a 2e3c d4da ab3b 4317 9f3c 218a fabb

network_body.linear_encoder.seq_layers.2.weight f4 [128, 128]
0.006909823 0.053113252 0.18389471 0.013781518 0.01681897 -0.04546066 0.0019234697 0.16202651
-0.1104963 -0.028978806 -0.10428843 0.107302494 -0.032573383 -0.0007720306 0.045508698 0.034819108
0.0855598 0.038627915 -0.12304792 0.09807306 0.0041427542 -0.30272195 0.01017363 -0.062357754
-0.18837707 0.11335618 0.048638035 -0.03844724 -0.04313063 0.041628018 -0.090219334 0.19546956
-0.0102846855 0.066561304 0.0966074 0.036838487 0.11115362 -0.05439904 0.015073467 0.029639293
0.082067765 -0.088025644 0.09741078 0.050846137 -0.01824007 0.07399651 0.024067758 -0.14979021
0.041534916 0.044303983 0.12794231 -0.02581451 -0.16034438 0.0446637 -0.051171355 0.050192013
0.0839666 -0.040426552 -0.058747463 0.109593794 0.01448751 0.02655741 -0.08345527 -0.25260743
-0.08134387 -0.13765697 -0.03708303 -0.08183251 0.048246183 -0.05069955 0.0035814177 0.022710161
-0.06254173 -0.1814686 -0.04181707 0.04216715 -0.18184905 0.0033323658 -0.1864468 0.16774
-0.01619149 -0.070579275 0.013984078 0.27251825 0.16727675 -0.06575852 0.022631185 -0.036588237
0.043253105 0.059962288 -0.030021917 -0.05961752 -0.115118004 0.009622051 0.092377976 0.031188898
-0.08202029 -0.025741039 0.01733452 -0.061282836 0.09934848 0.027450763 0.0062396117 -0.118790664
0.08620589 -0.12809676 -0.1787878 -0.07976334 0.018172946 -0.017265 0.015138137 0.032938186
-0.039539963 0.12649031 0.04809305 -0.06968261 -0.0085246 0.0030344694 0.10442145 -0.08555477
-0.12054066 0.031083569 -0.14106512 0.12770826 -0.07891588 0.07402721 0.0229729 -0.28778836
-0.13623197 -0.09198505 -0.17866977 -0.039611287 -0.081437856 0.022302095 0.06539666 0.001288168
0.036694687 0.015385056 0.034338724 -0.12289261 -0.04261961 -0.03729145 0.111758225 -0.03852183
-0.07831208 0.07266888 0.040670227 -0.081377655 0.027457878 -0.10651698 0.13019016 0.07947358
0.014869613 0.08016744 0.04377631 0.063553296 -0.053110927 -0.008596829 0.00515386 -0.03771209
-0.0246955 -0.011611069 0.03615323 -0.08616037 0.029437797 0.068040274 0.033502404 0.09889544
-0.027700754 -0.017938856 0.05147098 -0.034985486 0.007068552 0.0020277346 0.11305387 -0.069812916
-0.030674942 0.062771514 0.05784637 -0.021720666 0.03866082 0.27892733 -0.07113423 -0.09407235
-0.043622468 -0.007898295 -0.12540227 -0.13393623 -0.05413744 -0.02213557 0.027580079 0.08427034
-0.19117257 0.013194135 0.044574585 -0.0845348 -0.012193256 0.09206037 -0.04657039 -0.12692858
0.114289165 0.014812832 0.006857772 -0.11285373 -0.03790724 -0.13769309 0.10267795 0.01671854
-0.023613516 -0.10768458 -0.13499166 -0.015634092 -0.13199827 -0.02433389 0.24468161 -0.05451864
-0.05673778 0.14946246 0.085834965 -0.021368021 -0.07870667 0.110395476 0.06852562 0.015416416
0.10386135 -0.02954786 0.08406657 -0.003742653 0.10939339 0.101657234 0.044854935 -0.025649507
-1.7769325e-05 -0.15327147 0.02269681 -0.11836574 -0.047980096 0.10354819 0.018516373 0.010611594
-0.16559106 -0.039826877 0.020500395 0.039787803 0.20946181 -0.030709751 -0.12416087 -0.109098636
0.10038606 -0.12628166 0.08504491 -0.022392105 0.11460292 0.06090009 0.09420897 -0.03572779
00000000: cc6b e23b 488d 593d e54e 3c3e e0cb 613c
00000010: f0c7 893c f534 3abd ef1c fc3a 47ea 253e
00000020: e24b e2bd f664 edbc 2c95 d5bd 69c1 db3d
00000030: ab6b 05bd 1962 4aba 5467 3a3d 7b9e 0e3d
00000040: fa39 af3d 4e38 1e3d 8c00 fcbd 87da c83d
00000050: f1bf 873b 5ffe 9abe 4caf 263c d86a 7fbd
00000060: ebe5 40be 4927 e83d ad38 473d da7a 1dbd
00000070: bea9 30bd 2482 2a3d eac4 b8bd 2c29 483e
00000080: 1981 28bc 4b51 883d 1ada c53d f4e3 163d
00000090: 82a4 e33d 87d1 5ebd b4f6 763c 1ace f23c
000000a0: 2513 a83d ca46 b4bd 4e7f c73d 0a44 503d
000000b0: 336c 95bc 7b8b 973d bf29 c53c 9b62 19be
000000c0: 8420 2a3d 1878 353d 4f03 033e f478 d3bc
000000d0: 5131 24be 49f1 363d 0e99 51bd 2496 4d3d
000000e0: aef6 ab3d 5096 25bd 2ea1 70bd b672 e03d
000000f0: 055d 6d3c ed8e d93c 99ea aabd c355 81be
00000100: 9d97 a6bd f3f5 0cbe 60e4 17bd ce97 a7bd
00000110: ca9d 453d 55aa 4fbd 38b6 6a3b a90a ba3c
00000120: e115 80bd e8d2 39be 6048 2bbd 76b7 2c3d
00000130: a336 3abe d263 5a3b e9eb 3ebe 09c4 2b3e
00000140: 04a4 84bc de8b 90bd 791d 653c 8387 8b3e
00000150: 994a 2b3e 67ac 86bd 0965 b93c 8cdd 15bd
00000160: 2b2a 313d 049b 753d 86f0 f5bc 8031 74bd
00000170: fdc2 ebbd cfa5 1d3c aa30 bd3d dc7f ff3c
00000180: 41fa a7bd dfde d2bc 2001 8e3c b603 7bbd
00000190: 3777 cb3d 6ce0 e03c a875 cc3b 8548 f3bd
000001a0: b78c b03d cc2b 03be 2614 37be f65a a3bd
000001b0: 6edf 943c 546f 8dbc f305 783c 31ea 063d
000001c0: a8f4 21bd ad86 013e 38fd 443d c2b5 8ebd
000001d0: c4aa 0bbc f3dd 463b eada d53d 5737 afbd
000001e0: 06de f6bd f8a2 fe3c 6073 10be f4c5 023e
000001f0: a69e a1bd 949b 973d aa31 bc3c ff58 93be
00000200: 6580 0bbe a862 bcbd 35f5 36be 723f 22bd
00000210: e4c8 a6bd e2b2 b63c afee 853d bfd7 a83a
00000220: 2b4d 163d 9a11 7c3c c3a6 0c3d 1faf fbbd
00000230: e691 2ebd ebbe 18bd 7fe1 e43d 11c9 1dbd
00000240: 1562 a0bd 6cd3 943d d395 263d 54a9 a6bd
00000250: 58ef e03c 9325 dabd 9250 053e 0bc3 a23d
00000260: ad9f 733c d42e a43d ca4e 333d 3b28 823d
00000270: d88a 59bd b7d9 0cbc b6e1 a83b fe77 1abd
00000280: 384e cabc 5a3c 3ebc 6915 143d d974 b0bd
00000290: 8927 f13c b358 8b3d d139 093d b189 ca3d
000002a0: b1ec e2bc 82f4 92bc 3cd3 523d f14c 0fbd
000002b0: 509f e73b bee3 043b ca88 e73d 13fa 8ebd
000002c0: 044a fbbc 5a8e 803d 51f0 6c3d 8aef b1bc
000002d0: cf5a 1e3d 90cf 8e3e d3ae 91bd 01a9 c0bd
000002e0: 79ad 32bd da67 01bc 7469 00be 9426 09be
000002f0: 38bf 5dbd a855 b5bc 9eef e13c ee95 ac3d
00000300: bec2 43be 372c 583c d793 363d 9520 adbd
00000310: 39c6 47bc 268a bc3d 98c0 3ebd 91f9 01be
00000320: 7010 ea3d 85b1 723c 29b7 e03b db1f e7bd
00000330: 9f44 1bbd 6bff 0cbe d148 d23d 52f5 883c
00000340: 2271 c1bc bc89 dcbd 413b 0abe 1113 80bc
00000350: 8e2a 07be de57 c7bc d18d 7a3e f04e 5fbd
00000360: e065 68bd b00c 193e 3eca af3d fd0b afbc
00000370: f630 a1bd 0617 e23d 2957 8c3d 2395 7c3c
00000380: 42b5 d43d 5b0e f2bc 182b ac3d 4c47 75bb
00000390: a409 e03d ab31 d03d cfb9 373d ea1e d2bc
000003a0: 560f 95b7 32f3 1cbe a9ee b93c bd69 f2bd
000003b0: c786 44bd 1311 d43d a6af 973c 40dc 2d3c
000003c0: b490 29be 8221 23bd 72f0 a73c 89f8 223d
000003d0: 287d 563e 0493 fbbc 0e48 febd 1b6f dfbd
000003e0: 3597 cd3d fb4f 01be 072c ae3d a66f b7bc
000003f0: f0b4 ea3d 5f72 793d a2f0 c03d 4e57 12bd

network_body.linear_encoder.seq_layers.2.bias f4 [128]
0.02152136 0.006858246 0.025671413 -0.016159596 -0.018404273 -0.012378835 0.009896036 0.001945889
0.034369722 -0.006195143 -0.0046545654 0.044442188 -0.014253362 -0.020316651 -0.007957629 0.05475694
0.018149672 0.034457535 0.014223929 -0.01556787 0.0048191515 0.03879479 0.0075868415 0.033095837
0.008598285 -0.0003808298 -0.015077573 0.025563389 -0.0025237068 -0.002210571 0.016286593 0.012661177
0.025570128 -0.016126337 -0.0090986695 0.026483307 -0.009474261 0.0057915184 -0.02419682 -0.0014602139
0.02266098 0.035361495 0.0137940245 0.027855346 0.016065935 -0.01411496 -0.009684084 -0.00880387
-0.0123798745 0.0063152537 0.031177716 -0.020354874 -0.011152087 0.03075499 -0.019648327 0.02526982
-0.008649269 -0.01532388 0.011455801 -0.005205506 0.016061947 -0.01527406 -0.021871101 -0.0060030343
0.002998526 -0.0033183792 0.010213934 0.045381304 -0.022034032 0.010392873 0.020314643 0.021906756
0.031210173 0.035831172 0.03488469 0.03450828 0.018626321 0.023883315 0.04705991 0.048717298
0.042244688 -0.0031934364 0.021794299 0.02675643 0.023330899 -0.0006648258 0.013228996 0.045413576
0.029094458 -0.016373504 -0.0085366 0.0071775117 -0.004987447 -0.0027121797 0.016087113 -0.02808806
0.018872665 0.026692718 -0.00091645744 -0.016514027 -0.0044047777 -0.017513208 0.022147657 0.0075138807
0.021815725 -0.022475604 0.045637332 -0.0054333936 0.008189704 0.047829337 0.039719947 0.014213532
-0.014626617 0.022826903 0.008083224 -0.007856008 0.023295388 -0.0023667472 -0.0070010684 -0.015556713
-0.008687003 -0.014074036 0.016373312 0.014928361 0.016635127 0.0024803756 0.020792358 0.02282114
00000000: 904d b03c 23bb e03b db4c d23c 2161 84bc
00000010: 8fc4 96bc 99d0 4abc fc22 223c 330d ff3a
00000020: 44c7 0c3d a000 cbbb 5385 98bb 0309 363d
00000030: ef86 69bc 1b6f a6bc b760 02bc d048 603d
00000040: 9fae 943c 5823 0d3d 7b0b 693c 6110 7fbc
00000050: f9e9 9d3b 49e7 1e3d 0a9b f83b 808f 073d
00000060: d2df 0c3c 1caa c7b9 ed07 77bc 506a d13c
00000070: c664 25bb 3adf 10bb 766b 853c d370 4f3c
00000080: 7278 d13c 611b 84bc 9612 15bc 85f3 d83c
00000090: ee39 1bbc c7c6 bd3b 6938 c6bc a664 bfba
000000a0: 85a3 b93c 37d7 103d 5500 623c e530 e43c
000000b0: b59c 833c 6f42 67bc fea9 1ebc 1b3e 10bc
000000c0: f5d4 4abc 30f0 ce3b 6968 ff3c 44bf a6bc
000000d0: 3eb7 36bc e4f1 fb3c 87f5 a0bc a702 cf3c
000000e0: aab5 0dbc 0311 7bbc 1db1 3b3c f392 aabb
000000f0: 5894 833c 0d40 7abc 062b b3bc 1ab5 c4bb
00000100: eb82 443b 2a79 59bb 5858 273c bfe1 393d
00000110: b780 b4bc de46 2a3c e56a a63c cc75 b33c
00000120: 7aac ff3c b5c3 123d 40e3 0e3d 8e58 0d3d
00000130: 3a96 983c f1a6 c33c e4c1 403d ca8b 473d
00000140: c408 2d3d f948 51bb f589 b23c 4d30 db3c
00000150: 7120 bf3c b447 2eba 6ebe 583c 9603 3a3d
00000160: 8057 ee3c ba21 86bc 18dd 0bbc 5531 eb3b
00000170: bd6d a3bb d3be 31bb 1fc9 833c ee18 e6bc
00000180: d99a 9a3c b0aa da3c 6b3e 70ba 6d48 87bc
00000190: f455 90bb dc77 8fbc 016f b53c 0037 f63b
000001a0: e4b6 b23c c21e b8bc 36ee 3a3d 9c0a b2bb
000001b0: 1c2e 063c b2e8 433d 62b1 223d e0df 683c
000001c0: 7aa4 6fbc 7cff ba3c 806f 043c 7cb6 00bc
000001d0: f8d5 be3c 6e1b 1bbb 3869 e5bb 95e1 7ebc
000001e0: ee53 0ebc c996 66bc 5321 863c 1696 743c
000001f0: 6446 883c cc8d 223b bc54 aa3c 66f3 ba3c

action_model._continuous_distribution.log_sigma f4 [1, 2]
-0.020872321 -0.0017177433
00000000: 6efc aabc e725 e1ba

action_model._continuous_distribution.mu.weight f4 [2, 128]
-0.041497782 0.021086266 -0.049717132 0.022224221 0.010870272 0.0366964 0.00199826 0.047177933
-0.037780803 0.013734503 0.028871283 -0.01779603 0.007926256 0.022192385 0.02164657 -0.08466121
-0.015229476 0.002560036 0.036415625 0.02212484 -0.03025922 -0.051634125 0.039582368 -0.00023251657
0.0043074745 0.02435806 0.017286496 0.019414837 -0.012624221 0.013831345 0.01572037 -0.0067910785
-0.031536765 0.005303983 0.023676801 -0.02993021 0.03250917 -0.020291232 0.00985276 -0.02569187
0.027160171 -0.017459892 -0.03711474 -0.07091182 0.044286538 0.028595382 0.023940412 0.01088094
0.01903877 0.073401906 -0.01566807 0.0062312577 0.015705625 -0.035832718 0.03806936 -0.032396294
0.05466354 0.035750683 -0.03454919 0.014188357 0.03869194 0.0057057333 0.02336765 -0.0015826094
0.049670316 -0.008078301 0.0022686154 -0.017946435 0.0064861593 0.011919939 -0.04158263 0.0072034867
-0.0058910633 0.011410041 -0.02015943 -0.06484759 -0.02392249 -0.028743464 -0.007733057 -0.016186366
-0.059661552 0.04515145 -0.055352937 -0.027807701 -0.020368498 0.04829522 0.057874233 -0.010130679
-0.023589622 0.024533164 0.027486477 0.044434503 -0.0022640459 0.018063031 0.037344866 0.010596042
-0.02373197 -0.08241505 0.01153458 0.027327107 0.012366834 0.024047667 -0.016379062 -0.03487722
-0.020195117 0.012529508 -0.059131816 0.021505954 0.021539733 -0.049359553 -0.041011035 -0.02144701
-0.0061836755 -0.040162798 0.027660668 0.059177704 -0.0718267 0.01768986 -0.019280577 0.06538418
0.008004829 -0.00438641 -0.042161364 0.013376612 -0.004030901 -0.023093168 0.009737375 -0.035524342
0.0072519737 0.033660293 0.0059370985 -0.0032582951 -0.007647667 0.0011548437 0.004420968 -0.031606644
-0.012521869 -0.002344496 -0.018938819 0.082059346 0.008412026 -0.0020719515 0.0058902088 0.001960458
0.0100821825 0.061977316 0.008642434 0.0004374634 -0.07870288 0.024592938 -0.064171284 -0.07810756
0.013508185 0.02761651 0.0031604392 0.046739295 -0.0371655 -0.057922635 0.03440814 -0.008655875
0.010182749 0.0021549335 0.005864415 0.01973957 0.015675215 -0.044711202 -0.008965846 -0.02777409
0.0059999567 0.050992843 -0.0030629185 -0.027597845 -0.02926865 -0.023123072 0.0024819833 -0.018392276
-0.031221492 -0.044903032 0.03505026 -0.034134194 -0.034738764 0.045909908 0.008697827 0.013015443
-0.0047773602 -0.030873565 -0.027833985 -0.0050087683 -0.045991655 -0.028188746 -0.033807766 -0.026002508
-0.032617025 -0.057143066 0.01905123 0.04230677 -0.004404638 0.0031923596 0.010441454 0.010472703
0.02626443 -0.0779254 0.035750285 -0.0042021866 0.005429108 0.019227134 0.072983496 -0.08435054
0.031579085 -0.00948557 0.009821244 0.013850563 0.013561564 -0.015675072 -0.01729885 0.022064922
0.075088955 -0.01521703 0.00092008675 -0.02971774 -0.046500124 -0.0060140467 -0.01656372 0.018605262
0.0041785967 -0.009451741 -0.033347122 -0.021160692 -0.00016601308 -0.008972274 0.009441024 -0.024548128
0.023271479 -0.01666025 0.013595266 0.007897575 -0.0015336012 0.05522776 0.042500343 -0.032306623
-0.013789882 0.020050695 -0.023686148 -0.0186166 -0.020155251 -0.034973282 -0.016574046 -0.004346487
0.00889364 -0.019593349 -0.05123015 0.014497646 0.011260178 -0.030664321 -0.045475386 -0.0179317
00000000: 94f9 29bd 1bbd ac3c 31a4 4bbd 920f b63c
00000010: 3a19 323c f74e 163d 3df5 023b a63d 413d
00000020: 0bc0 1abd ae06 613c 7883 ec3c fbc8 91bc
00000030: 21dd 013c cecc b53c 2654 b13c db62 adbd
00000040: 0d85 79bc 47c6 273b 8d28 153d 273f b53c
00000050: 2fe2 f7bc 4e7e 53bd 1f21 223d b1cf 73b9
00000060: b725 8d3b 8e8a c73c 699c 8d3c dd0b 9f3c
00000070: d2d5 4ebc de9c 623c 01c8 803c b287 debb
00000080: b22c 01bd 09cd ad3b daf5 c13c 3330 f5bc
00000090: 5628 053d cc39 a6bc 786d 213c c277 d2bc
000000a0: 027f de3c 0c08 8fbc a005 18bd 373a 91bd
000000b0: cd65 353d dd40 ea3c af1e c43c f845 323c
000000c0: 32f7 9b3c bd53 963d 535a 80bc 942f cc3b
000000d0: 15a9 803c 54c5 12bd 9eee 1b3d fab1 04bd
000000e0: e0e6 5f3d 4f6f 123d 7483 0dbd 4876 683c
000000f0: 717b 1e3d 29f7 ba3b 846d bf3c 8f6f cfba
00000100: 1a73 4b3d da5a 04bc 0dad 143b 6704 93bc
00000110: d989 d43b d94b 433c 8c52 2abd 3a0b ec3b
00000120: d209 c1bb 2ef1 3a3c 6425 a5bc d0ce 84bd
00000130: 19f9 c3bc 6a77 ebbc 9565 fdbb 4599 84bc
00000140: ac5f 74bd baf0 383d c3b9 62bd facc e3bc
00000150: d6db a6bc 35d1 453d 880d 6d3d 26fb 25bc
00000160: 063f c1bc c6f9 c83c 522b e13c f400 363d
00000170: 6360 14bb ecf8 933c eef6 183d 059b 2d3c
00000180: 8c69 c2bc 39c9 a8bd 89fb 3c3c 19dd df3c
00000190: 439e 4a3c 9dff c43c 622d 86bc 6adb 0ebd
000001a0: 3b70 a5bc 9148 4d3c 3434 72bd 412d b03c
000001b0: 1874 b03c 3e2d 4abd 30fb 27bd a4b1 afbc
000001c0: 6ea0 cabb bf81 24bd a098 e23c 5264 723d
000001d0: e019 93bd 53ea 903c 4df2 9dbc 24e8 853d
000001e0: b026 033c e0bb 8fbb 65b1 2cbd 9429 5b3c
000001f0: a615 84bb e22d bdbc 8389 1f3c f981 11bd
00000200: f7a1 ed3b 60df 093d fe8b c23b 1f89 55bb
00000210: 4899 fabb 205e 973a c4dd 903b f875 01bd
00000220: 8628 4dbc 1ea6 19bb 9525 9bbc bb0e a83d
00000230: 98d2 093c 94c9 07bb a702 c13b 077b 003b
00000240: bd2f 253c eddb 7d3d ff98 0d3c 585b e539
00000250: fa2e a1bd 2177 c93c 3c6c 83bd dbf6 9fbd
00000260: 6f51 5d3c 053c e23c 5f1f 4f3b b471 3f3d
00000270: da3a 18bd 4940 6dbd 8def 0c3d 5fd1 0dbc
00000280: 8bd5 263c c939 0d3b 472a c03b e1b4 a13c
00000290: 4f69 803c 1823 37bd 7ce5 12bc 7d86 e3bc
000002a0: 499b c43b dfdd 503d 3fbb 48bb e014 e2bc
000002b0: cfc4 efbc 996c bdbc c5a8 223b 66ab 96bc
000002c0: 37c4 ffbc 3eec 37bd dd90 0f3d 4cd0 0bbd
000002d0: 3c4a 0ebd 070c 3c3d 5581 0e3c ba3e 553c
000002e0: 678b 9cbb 8fea fcbc 1904 e4bc 9820 a4bb
000002f0: bf61 3cbd 16ec e6bc 037a 0abd 3603 d5bc
00000300: 6e99 05bd d90e 6abd 5311 9c3c dd49 2d3d
00000310: c854 90bb e836 513b a212 2b3c b395 2b3c
00000320: 8028 d73c 5a97 9fbd e46e 123d 7fb2 89bb
00000330: a9e6 b13b 3982 9d3c 5f78 953d fabf acbd
00000340: 1259 013d 5d69 1bbc 48e9 203c 79ed 623c
00000350: 5231 5e3c 0269 80bc 51b6 8dbc 7fc1 b43c
00000360: 3dc8 993d da50 79bc fa31 713a 9e72 f3bc
00000370: ea76 3ebd 7b11 c5bb a3b0 87bc 106a 983c
00000380: 9cec 883b 7adb 1abc fe96 08bd 3059 adbc
00000390: cc13 2eb9 7200 13bc 86ae 1a3c 2819 c9bc
000003a0: d4a3 be3c 147b 88bc aebe 5e3c d564 013c
000003b0: 1e03 c9ba 8136 623d d714 2e3d f353 04bd
000003c0: f5ee 61bc 5b41 a43c 7409 c2bc d781 98bc
000003d0: a01c a5bc 2540 0fbd 4bc6 87bc fa6c 8ebb
000003e0: a1b6 113c 3b82 a0bc b5d6 51bd 8987 6d3c
000003f0: 9c7c 383c be33 fbbc 6644 3abd 80e5 92bc

action_model._continuous_distribution.mu.bias f4 [2]
-0.019070374 0.013679162
00000000: 7939 9cbc 901e 603c

action_model._discrete_distribution.branches.0.weight f4 [1, 128]
-0.010158471 0.00069536566 0.0010160393 0.010636201 0.002477791 -0.006753663 0.007544134 -0.0115180565
-0.01619119 0.00032921144 -0.008000158 0.0024828606 0.011148582 -0.002382344 0.0021801644 0.0015076388
0.009095496 0.010495453 0.006229199 0.00012789054 0.0032157805 0.0072842673 -0.0069331354 -0.0061668763
0.0029284107 0.011294912 -0.00073095824 0.007784858 -0.0023601714 0.0018131201 0.0113858115 0.010437994
0.0060831057 -0.0052406187 -0.006020649 0.005027809 0.0034431962 0.0009939771 -0.0033229906 0.0036769395
-0.0063957213 -0.0067384555 0.0053041237 -0.014974311 0.0039046102 -0.0013498551 0.013699918 -0.008928276
0.0042202673 0.0006574114 0.0032398 -0.006886856 0.0045320145 -0.0043595866 -0.0017444327 0.003446721
-0.0011869584 0.010148242 -0.021900967 0.002889679 0.009979021 4.784438e-05 -0.008289549 0.0022497617
-0.0024169981 0.0017340606 0.00649438 -0.013053383 0.013028818 -0.00096461474 -0.007471201 0.008175486
0.0010596502 0.005733852 0.005374755 0.008788998 0.0026172341 -0.017718455 0.0136258425 0.003070435
0.009871254 0.003079301 0.0020728183 -0.005122962 0.006467987 -0.0023835916 0.00418838 0.002412818
-0.014517476 0.0049539204 0.0038749897 -0.0050133867 -0.0060047484 -0.019609539 -0.02315685 -0.0109134745
-0.00347814 0.0063636336 0.010162199 0.002316046 -0.0019364114 -0.0036540136 -0.019106753 0.012981603
0.01424701 0.0033755265 -0.017045232 -0.0151508 -0.0030029651 -0.005617651 -0.0048536393 -0.00890579
0.00017173466 -6.8590794e-05 0.0023010357 0.0020176156 0.004414149 -0.008560603 -0.006847635 0.007351722
-0.014964576 -0.007796304 0.006948277 0.0021370992 -0.003059807 -0.013108753 -0.012228338 0.009990453
00000000: b76f 26bc 3349 363a 9f2c 853a 7643 2e3c
00000010: 6f62 223b d54d ddbb c834 f73b 3bb6 3cbc
00000020: 63a3 84bc 039a ac39 1813 03bc 7db7 223b
00000030: 8ba8 363c 1a21 1cbb 17e1 0e3b f79b c53a
00000040: 4605 153c 1ff5 2b3c 4f1e cc3b 5b1a 0639
00000050: d8bf 523b ddb0 ee3b 5b2f e3bb 8213 cabb
00000060: 94ea 3f3b 4b0e 393c c79d 3fba 1f18 ff3b
00000070: 1bad 1abb 37a6 ed3a 8e8b 3a3c 1f04 2b3c
00000080: ca54 c73b 7fb9 abbb dd48 c5bb 52c0 a43b
00000090: 3fa7 613b 5648 823a 88c6 59bb cff8 703b
000000a0: 3393 d1bb 43ce dcbb 37ce ad3b d056 75bc
000000b0: 7de4 7f3b 9fed b0ba 9f75 603c e747 12bc
000000c0: 2b4a 8a3b 2256 2c3a d352 543b 23ab e1bb
000000d0: 4b81 943b ddda 8ebb 73a5 e4ba 62e2 613b
000000e0: b793 9bba d044 263c a869 b3bc c560 3d3b
000000f0: 0c7f 233c 83ac 4838 e3d0 07bc bd70 133b
00000100: 8066 1ebb 6b49 e33a cfce d43b dbdd 55bc
00000110: d376 553c 33de 7cba fad0 f4bb 79f2 053c
00000120: f6e3 8a3a 09e3 bb3b b61e b03b bbff 0f3c
00000130: e785 2b3b 4b26 91bc ed3e 5f3c 5a39 493b
00000140: 0abb 213c 19ce 493b 1fd8 073b 85de a7bb
00000150: 68f1 d33b 0836 1cbb ae3e 893b 5e20 1e3b
00000160: b5da 6dbc 7f54 a23b 8af3 7d3b 5647 a4bb
00000170: 7bc3 c4bb 2fa4 a0bc 6fb3 bdbc 6ece 32bc
00000180: 82f1 63bb 0786 d03b 5a7f 263c cec8 173b
00000190: 2fcf fdba 2d78 6fbb c485 9cbc cab0 543c
000001a0: 4b6c 693c f037 5d3b 71a2 8bbc 103b 78bc
000001b0: 65cd 44bb 4614 b8bb 470b 9fbb 97e9 11bc
000001c0: ac13 3439 67d8 8fb8 f9cc 163b f939 043b
000001d0: 91a4 903b c541 0cbc 2062 e0bb b7e6 f03b
000001e0: fb2d 75bc 2378 ffbb 5fae e33b 930e 0c3b
000001f0: 0b87 48bb 18c6 56bc 5e59 48bc ffae 233c

critic.network_body.linear_encoder.seq_layers.0.weight f4 [128, 6]
-0.12094701 -0.18870571 -0.22877094 -0.009371269 0.12502751 0.18428913 0.48201656 0.37411213
-0.18898848 0.43169445 0.07526808 -0.053371575 0.11513341 -0.6479423 0.37863395 -0.5563027
0.24677327 -0.075462684 0.24109058 0.23910758 0.14392513 0.8743323 0.5544494 0.4802489
-0.8174649 0.096972466 -0.32164732 -0.020891875 -0.35693946 -0.57727915 0.05577704 0.050576225
-0.7786074 0.3290845 0.8694337 0.63940877 0.23966835 0.27915087 -0.054538395 0.78021234
0.20173974 -0.13810429 -0.29860514 -0.22432187 0.70688725 0.20417038 -0.3719157 -0.4480678
-0.38969806 0.21563862 -0.16953681 -0.90560055 0.41143864 0.43597984 -0.191537 -0.044908885
-0.698651 -0.3023958 -0.29229438 0.2922929 -0.12819907 0.14003225 -0.35253686 -0.18924086
0.4062138 0.86094165 0.41695672 0.7017286 0.53710276 -0.59191 0.32280117 -0.4585065
-0.1961747 -0.19926696 -0.24586795 -0.07288491 -0.9038052 0.5609848 0.3267952 -0.084178865
-0.39593378 -0.6269886 -0.51625335 0.2858696 0.48047867 -0.09617084 0.29461423 -0.26411942
-0.058043268 -0.34481165 -0.1071831 -0.10461308 -0.42405716 -0.24922706 1.001594 -0.71766806
0.13861868 -0.3741612 -0.01832698 -0.3309693 0.086146995 0.1899512 0.013042762 -0.3102251
0.4030618 -0.09551061 0.59441215 -0.153752 0.11284979 -0.4582498 -0.5127591 0.5225844
-0.6636454 -0.3365292 -0.18110268 0.088623725 0.010063911 0.37992162 -0.45182982 -0.17511359
-0.29689348 -0.38744774 -0.4722074 -0.47288975 0.0653282 -0.9515332 -0.26785728 0.30059513
0.43592948 -0.37413618 -0.3985443 -0.014196506 0.21155992 -0.46763834 -0.49676287 -0.18884368
-0.5618836 -0.46603426 -0.100388914 -0.122273356 -0.38873014 0.15597783 0.529313 -0.4309396
-0.14209737 -0.124013186 0.4814089 0.798305 0.27671555 0.35454652 -0.09242621 -0.08278368
-0.84003454 -0.28104034 0.9157225 0.06190892 -0.06347786 0.3587447 -0.2521418 0.35508257
-0.6094561 -0.13150679 0.21478647 0.042360593 0.007765307 -0.7856585 1.1650156 0.19505115
-0.27024302 -0.22180165 -0.26128292 0.2538396 -0.032715283 -0.7630112 0.6382418 0.460766
1.0287774 0.16388471 -0.022238092 -0.01709592 0.43636128 -0.98161983 0.18132372 0.38373938
-0.091651864 0.17642972 0.28753126 0.46520427 -0.17935881 -0.6157602 -0.3933587 -0.35215962
-0.21149148 -0.37313297 0.18124191 0.20433249 0.36106873 0.94017303 0.44636333 0.6051313
-0.20779768 0.26450387 -0.06971084 0.57978857 0.28791034 -0.20928821 -0.3073175 0.015190379
-0.5841037 0.40583655 -0.014301407 0.053045515 0.16426049 0.47753564 -0.003460636 0.0031965354
-1.0983095 0.17304045 -0.19263841 -0.026460657 -0.43552125 -0.41590142 0.5986117 0.21862304
0.017029252 0.31491476 0.042759378 -0.864713 -0.90344626 -0.5333223 -0.18586127 0.045328096
-0.40566912 -0.3955269 -0.09485787 -0.22777222 -0.21330892 0.45800754 -0.2725315 -0.108021356
-0.1883311 -0.6331977 -0.37419498 0.19636558 0.43242753 -1.1074725 0.532273 -0.10789012
-0.8242436 -0.62669885 -0.22617887 -0.4299309 0.058145594 0.15938288 0.6710102 0.16561542
00000000: 11b3 f7bd 123c 41be ee42 6abe f389 19bc
00000010: 3607 003e 4ab6 3c3e e0ca f63e a08b bf3e
00000020: 3286 41be 0e07 dd3e 2726 9a3d 279c 5abd
00000030: 11cb eb3d 8cdf 25bf 4fdc c13e db69 0ebf
00000040: 22b2 7c3e 2e8c 9abd 73e0 763e 9ed8 743e
00000050: 1c61 133e 3ed4 5f3f 65f0 0d3f 2fe3 f53e
00000060: 6145 51bf 8099 c63d f5ae a4be 7025 abbc
00000070: c5c0 b6be 91c8 13bf 7776 643d 0429 4f3d
00000080: d152 47bf c37d a83e 3593 5e3f 4bb0 233f
00000090: 9f6b 753e ddec 8e3e a763 5fbd ffbb 473f
000000a0: dd94 4e3e 366b 0dbe c6e2 98be a2b4 65be
000000b0: 90f6 343f 0a12 513e bc6b bebe 2569 e5be
000000c0: 8186 c7be 5fd0 5c3e 0f9b 2dbe 70d5 67bf
000000d0: 16a8 d23e c038 df3e 4622 44be 61f2 37bd
000000e0: cbda 32bf 9fd3 9abe 9ca7 95be 6aa7 953e
000000f0: 9e46 03be 9d64 0f3e b67f b4be 5bc8 41be
00000100: 41fb cf3e ac66 5c3f 5a7b d53e 7ca4 333f
00000110: 917f 093f 6a87 17bf 3246 a53e 5dc1 eabe
00000120: 05e2 48be a30c 4cbe cfc4 7bbe af44 95bd
00000130: c75f 67bf b39c 0f3f b351 a73e f865 acbd
00000140: d5b7 cabe 5382 20bf 2e29 04bf 805d 923e
00000150: 4d01 f63e 38f5 c4bd add7 963e a93a 87be
00000160: c7be 6dbd 278b b0be d082 dbbd 623f d6bd
00000170: 051e d9be 6135 7fbe 3b34 803f 18b9 37bf
00000180: 0ef2 0d3e 0f92 bfbe 7622 96bc cf74 a9be
00000190: d66d b03d 9182 423e 4fb1 553c d3d5 9ebe
000001a0: 1e5e ce3e 119b c3bd 652b 183f 2a71 1dbe
000001b0: ca1d e73d b89f eabe 2e44 03bf 17c8 053f
000001c0: aae4 29bf 8e4d acbe fb72 39be 5b80 b53d
000001d0: 1ae3 243c 1685 c23e 3d56 e7be fa50 33be
000001e0: 6c02 98be 8d5f c6be 2bc5 f1be 9b1e f2be
000001f0: cbca 853d ae97 73bf 9724 89be 9be7 993e
00000200: 2632 df3e c78e bfbe 000e ccbe 7698 68bc
00000210: 2aa3 583e 4b6e efbe b457 febe 3d60 41be
00000220: 9bd7 0fbf 0b9c eebe b498 cdbd 746a fabd
00000230: a307 c7be a7b8 1f3e 0f81 073f 1ea4 dcbe
00000240: f981 11be a0fa fdbd 3a7b f63e b75d 4c3f
00000250: a9ad 8d3e 1f87 b53e f449 bdbd 7d8a a9bd
00000260: 810c 57bf 85e4 8fbe ca6c 6a3f 3594 7d3d
00000270: ae00 82bd 63ad b73e bb18 81be 62cd b53e
00000280: 5105 1cbf b7a9 06be fcf0 5b3e 4d82 2d3d
00000290: 1e74 fe3b ea20 49bf 3b1f 953f 7dbb 473e
000002a0: 4b5d 8abe f91f 63be e0c6 85be 44f7 813e
000002b0: 7600 06bd b454 43bf d163 233f 85e9 eb3e
000002c0: faae 833f 65d1 273e a92c b6bc be0c 8cbc
000002d0: bf6a df3e 704b 7bbf edac 393e 7d79 c43e
000002e0: f9b3 bbbd fea9 343e 4c37 933e 412f ee3e
000002f0: d6a9 37be 76a2 1dbf 5066 c9be 444e b4be
00000300: 3991 58be 490b bfbe 7b97 393e 893c 513e
00000310: 00de b83e 2eaf 703f bc89 e43e e3e9 1a3f
00000320: eac8 54be 0d6d 873e 8fc4 8ebd 066d 143f
00000330: fc68 933e a64f 56be b858 9dbe 11e1 783c
00000340: d287 15bf cfc9 cf3e 7350 6abc 4146 593d
00000350: e733 283e 8d7f f43e d6cb 62bb f77c 513b
00000360: 6895 8cbf 8431 313e 0143 45be 05c4 d8bc
00000370: a4fc debe 08f1 d4be 9e3e 193f b8de 5f3e
00000380: ee80 8b3c 823c a13e 7524 2f3d d55d 5dbf
00000390: 4148 67bf cf87 08bf 6b52 3ebe f4a9 393d
000003a0: ddb3 cfbe 8082 cabe d844 c2bd 1f3d 69be
000003b0: a76d 5abe f77f ea3e 4089 8bbe 4d3a ddbd
000003c0: ded9 40be 3f19 22bf 7c96 bfbe 0f14 493e
000003d0: 2467 dd3e a9c1 8dbf 0b43 083f 7ff5 dcbd
000003e0: a101 53bf 566f 20bf 6f9b 67be e71f dcbe
000003f0: 132a 6e3d 4435 233e 53c7 2b3f 1797 293e

critic.network_body.linear_encoder.seq_layers.0.bias f4 [128]
-0.00936053 -0.0012484877 0.006557335 0.044227645 -0.0011725664 0.06426423 0.024252262 -0.016840434
0.021956686 0.016275486 -0.00714586 0.03242168 -0.0032620577 0.02692741 0.03484264 0.022090513
0.018697405 0.03241223 0.0018000392 -0.014429181 0.010130443 0.026403407 -0.0032642514 -0.0059997197
-0.011261648 0.018820114 0.035216518 0.018218473 0.06882868 -0.043039203 -0.016388103 0.026381921
-0.012230746 -0.0059501347 0.00070688553 0.027665377 -0.015141534 0.041173585 -0.019084392 -0.026830593
0.042557154 0.023636568 0.011037497 0.025568148 0.032708317 0.01457694 0.026494887 0.025558319
0.03736512 0.02740055 0.006721944 0.015176947 0.02820855 0.020712778 -0.03651428 -0.023624392
0.011000689 0.022506313 -0.010424356 0.0049447264 0.03961796 0.012672755 -0.043523885 -0.043106683
0.026644712 -0.0020783632 0.030097308 0.01005192 -0.0151677 0.024995673 0.01494131 0.015285634
-0.055646423 0.01541996 0.009113901 0.019784737 0.0030686548 -0.018969184 -0.0031271814 -0.03918551
-0.016490374 0.025126282 0.020883268 0.03336916 0.026596908 -0.00458937 -0.025562162 0.02435003
0.009923017 0.025483714 0.011164685 0.008772603 -0.025370654 0.045109406 0.030242851 0.008048423
0.003143535 0.033914886 0.03429512 0.020013412 0.02718117 0.0097449375 -0.01771 0.03275881
-0.0036726515 0.021790054 -0.003631258 -0.015742216 -0.0006638068 0.041439123 -0.010417094 0.02056787
0.015000584 0.0066106888 0.025938833 0.015978303 -0.018338231 -0.013752551 0.015219285 0.020583212
-0.017489564 0.01610174 0.020860061 -0.0027980644 0.098797694 -0.024049496 0.032346267 -0.014835155
00000000: e95c 19bc 4ca4 a3ba eade d63b 0c28 353d
00000010: cdb0 99ba f79c 833d aeac c63c f3f4 89bc
00000020: 82de b33c 2b54 853c d227 eabb 98cc 043d
00000030: 3fc8 55bb df96 dc3c 28b7 0e3d 2af7 b43c
00000040: 4d2b 993c b0c2 043d 4bef eb3a 5f68 6cbc
00000050: 28fa 253c f54b d83c 0ded 55bb 4c99 c4bb
00000060: c682 38bc a42c 9a3c 323f 103d e83e 953c
00000070: 0df6 8c3d e049 30bd 5840 86bc e61e d83c
00000080: 7863 48bc 59f9 c2bb 494e 393a 80a2 e23c
00000090: 3214 78bc a2a5 283d df56 9cbc d5cb dbbc
000000a0: 6950 2e3d 7aa1 c13c 9ed6 343c 4b74 d13c
000000b0: 28f9 053d 1ed4 6e3c ce0b d93c ae5f d13c
000000c0: 2b0c 193d 1e77 e03c c143 dc3b bba8 783c
000000d0: 9e15 e73c d8ad a93c ff8f 15bd f187 c1bc
000000e0: 3c3c 343c 295f b83c ebca 2abc 5f07 a23b
000000f0: 7146 223d 63a1 4f3c 1a46 32bd a290 30bd
00000100: 0346 da3c 2635 08bb a18e f63c cfb0 243c
00000110: f281 78bc bac3 cc3c 65cc 743c 9970 7a3c
00000120: 81ed 63bd 00a4 7c3c 7952 153c 9a13 a23c
00000130: 7c1b 493b 4365 9bbc 66f1 4cbb fc80 20bd
00000140: d216 87bc a2d5 cd3c 6313 ab3c 1aae 083d
00000150: c2e1 d93c 6d62 96bb bd67 d1bc b779 c73c
00000160: 2694 223c 39c3 d03c 15ec 363c f7ba 0f3c
00000170: 1ed6 cfbc a4c4 383d dbbf f73c 88dd 033c
00000180: c403 4e3b 56ea 0a3d 0a79 0c3d 2bf3 a33c
00000190: 0cab de3c 3ba9 1f3c 9014 91bc 1a2e 063d
000001a0: deb0 70bb 0e81 b23c 66fa 6dbb d2f5 80bc
000001b0: 5203 2eba 12bc 293d 76ac 2abc f37d a83c
000001c0: 02c5 753c 7a9e d83b ad7d d43c eee4 823c
000001d0: 0f3a 96bc 6152 61bc 4f5a 793c 209e a83c
000001e0: 4646 8fbc cce7 833c b8e2 aa3c bb5f 37bb
000001f0: 7256 ca3d 7303 c5bc 857d 043d 260f 73bc

critic.network_body.linear_encoder.seq_layers.2.weight f4 [128, 128]
0.04390346 0.058874723 -0.06493929 0.122610174 -0.023795368 0.03154018 0.045993306 0.083705224
-0.035808995 -0.12833586 0.11650541 0.00015485684 -0.0049598776 -0.10156926 -0.10658106 0.11394501
0.060304426 0.13968195 0.008468637 0.11063644 0.1536284 0.055162977 -0.016914431 -0.05202145
0.027204515 -0.022574835 0.24606831 0.038629018 0.080053456 0.13709524 -0.118800476 -0.012052184
-0.12995192 -0.112096295 0.09006222 0.16087486 0.17983392 -0.14315273 0.04627403 0.0035367522
-0.013740473 0.13067886 0.043301433 0.06071251 0.08993963 -0.053884327 -0.008359102 -0.18242691
-0.0041108676 0.050200302 -0.029651033 -0.055981934 -0.08954726 -0.08128722 -0.014462483 0.041775703
-0.16913225 -0.18204801 -0.024374971 0.062508024 -0.026563317 6.7905006e-05 -0.16856696 -0.045966487
0.05480689 -0.0140467575 0.06301154 -0.066491604 -0.05420499 -0.07548418 -0.09388633 0.0096114855
0.0047021112 -0.095275044 0.08810664 0.0894185 -0.075114086 -0.15525243 0.015199246 0.07012817
-0.009474004 0.1490967 0.069085106 0.069280565 0.014057658 0.053884532 0.03756863 -0.12403548
-0.08712295 -0.07683355 -0.01127058 0.064916074 0.07729085 -0.09256015 -0.08622614 0.0029895462
0.047995098 0.09089496 -0.1650728 -0.17268318 0.068685435 0.17881797 -0.15854603 -0.10927925
-0.09012303 -0.030010212 -0.037510935 -0.061304603 -0.08589957 0.0035609412 -0.09349463 -0.2150179
-0.07677072 -0.2706848 0.059080727 0.036749985 0.1391363 -0.12495138 -0.13755195 0.023048472
-0.007830254 -0.03093067 0.17410342 0.09098234 -0.036775786 -0.081471354 0.047423773 -0.043609533
-0.026291052 -0.061153676 0.25674576 0.104826234 0.1632634 -0.13442662 -0.011517124 -0.017141586
0.13651797 -0.15111683 -0.059694786 0.12901373 -0.024139717 0.14858945 0.10788086 -0.071887776
-0.133752 0.12091351 -0.020517198 -0.041869733 -0.040319826 -0.025664447 -0.04587054 -0.124280035
0.011869206 0.049517285 0.024329597 -0.020220872 -0.12020634 -0.028491601 -0.014302394 0.047079444
0.03539777 -0.015777327 -0.06219263 0.054686975 0.06253571 0.080189764 0.14389043 -0.06402821
-0.06907494 0.07652801 -0.005404457 -0.018301528 -0.001042493 0.033845264 0.100225836 -0.003952882
-0.10870749 -0.08455441 0.057808507 -0.1633319 -0.11821738 0.19393027 0.12344515 -0.090943076
0.048322015 0.09501442 0.18331976 0.07768348 0.062404633 0.021631612 -0.079863444 0.011785579
0.11543697 0.10822021 0.032824025 0.0022015392 0.11500902 -0.0777282 -0.15686211 -0.101969555
0.0051060757 -0.06792996 0.04333365 -0.17668407 -0.069047414 -0.23500365 0.20082684 0.09012722
-0.08054192 0.09726621 0.069632314 -0.07646911 0.09905217 -0.13002096 -0.0694024 0.09067342
0.043664183 0.20973049 0.01792561 -0.015921077 0.0435961 0.0073374747 -0.012320828 -0.019117013
-0.091855176 -0.053314175 0.032700162 -0.028170012 0.07409266 -0.32122836 0.06961727 0.07200852
0.003820542 0.032833498 -0.026372967 -0.046019696 -0.06589032 -0.027120342 -0.19396593 0.049441837
0.12611972 -0.16395785 0.01198494 0.1183279 0.121902764 -0.04930393 0.11639581 0.064648055
0.08430914 -0.07782398 -0.0071206335 -0.10614957 -0.10308574 -0.07899081 0.08109767 -0.0032773402
00000000: 1dd4 333d 9f26 713d e4fe 84bd 0b1b fb3d
00000010: 81ee c2bc 4730 013d 7a63 3c3d a56d ab3d
00000020: 74ac 12bd 7a6a 03be 639a ee3d 1161 2239
00000030: 7886 a2bb 8b03 d0bd 2c47 dabd 005c e93d
00000040: c601 773d c908 0f3e 0ac0 0a3c 5c95 e23d
00000050: c350 1d3e 93f2 613d 2290 8abc 7214 55bd
00000060: 01dc de3c dcee b8bc 55f9 7b3e 7639 1e3d
00000070: 11f3 a33d b262 0c3e aa4d f3bd 8676 45bc
00000080: 1e12 05be be92 e5bd 8b72 b83d 61bc 243e
00000090: 6226 383e a196 12be d689 3d3d dbc8 673b
000000a0: b91f 61bc aed0 053e d85c 313d aead 783d
000000b0: 4532 b83d d0b5 5cbd 9df4 08bc 1fce 3abe
000000c0: 75b4 86bb d59e 4d3d b9e6 f2bc 504d 65bd
000000d0: 8e64 b7bd ea79 a6bd 0df4 6cbc 001d 2b3d
000000e0: 0131 2dbe cb6a 3abe 05ae c7bc 3504 803d
000000f0: 509b d9bc 3968 8e38 d19c 2cbe 5b47 3cbd
00000100: 317d 603d 5f24 66bc 320c 813d c02c 88bd
00000110: 0d06 5ebd 7397 9abd 7a47 c0bd 7e79 1d3c
00000120: 2b14 9a3b 901f c3bd 4171 b43d 0c21 b73d
00000130: 6ad5 99bd 7efa 1ebe 4206 793c 5c9f 8f3d
00000140: da38 1bbc ceac 183e 7e7c 8d3d f8e2 8d3d
00000150: 1752 663c 07b6 5c3d 90e1 193d 5006 febd
00000160: 846d b2bd e95a 9dbd 3da8 38bc b8f2 843d
00000170: aa4a 9e3d 2d90 bdbd 5597 b0bd 43ec 433b
00000180: 8296 443d 2327 ba3d d808 29be dcd3 30be
00000190: f3aa 8c3d 0f1c 373e e459 22be cdcd dfbd
000001a0: 6c92 b8bd fad7 f5bc 11a5 19bd 891a 7bbd
000001b0: 1dec afbd ae5e 693b 1d7a bfbd a72d 5cbe
000001c0: f839 9dbd 3397 8abe a2fe 713d 2787 163d
000001d0: bf79 0e3e 82e6 ffbd 6bda 0cbe 26d0 bc3c
000001e0: 774a 00bc 5162 fdbc 2b48 323e f354 ba3d
000001f0: 35a2 16bd 74da a6bd 6e3f 423d e99f 32bd
00000200: 5560 d7bc 477c 7abd 2e74 833e 23af d63d
00000210: 852e 273e 22a7 09be 52b2 3cbc 836c 8cbc
00000220: 5ecb 0b3e 5fbe 1abe 8582 74bd 2d1c 043e
00000230: a8c0 c5bc d527 183e a4f0 dc3d e639 93bd
00000240: 49f6 08be 81a1 f73d af13 a8bc 997f 2bbd
00000250: 6726 25bd 3f3e d2bc bfe2 3bbd 8886 febd
00000260: 0f77 423c a3d2 4a3d dd4e c73c 3ea6 a5bc
00000270: be2e f6bd 3867 e9bc 9754 6abc 60d6 403d
00000280: 41fd 103d 743f 81bc b3bd 7ebd 73ff 5f3d
00000290: b912 803d 883a a43d 0358 133e 3921 83bd
000002a0: 2a77 8dbd b8ba 9c3d df17 b1bb 16ed 95bc
000002b0: 43a4 88ba 55a1 0a3d 3443 cd3d 2d87 81bb
000002c0: 08a2 debd dd2a adbd 9dc8 6c3d 7a40 27be
000002d0: f41b f2bd a895 463e d0d0 fc3d 5d40 babd
000002e0: 4eed 453d ec96 c23d 2db8 3b3e 8418 9f3d
000002f0: 009c 7f3d c734 b13c 728f a3bd 4d18 413c
00000300: 386a ec3d 8fa2 dd3d 7c72 063d b347 103b
00000310: d989 eb3d f62f 9fbd 76a0 20be 6ad5 d0bd
00000320: de50 a73b dd1e 8bbd a07e 313d abec 34be
00000330: bb68 8dbd cca4 70be 8da5 4d3e 9f94 b83d
00000340: 2af3 a4bd 8233 c73d 639b 8e3d d69b 9cbd
00000350: dddb ca3d 3724 05be d822 8ebd fcb2 b93d
00000360: 37d9 323d 97c3 563e bbd8 923c eb6c 82bc
00000370: d391 323d 336f f03b 4cdd 49bc 489b 9cbc
00000380: 911e bcbd f75f 5abd 9bf0 053d ccc4 e6bc
00000390: e4bd 973d 0b78 a4be 8093 8e3d 3479 933d
000003a0: 0f62 7a3b 6b7c 063d 1f0c d8bc 267f 3cbd
000003b0: 81f1 86bd 7b2b debc 019f 46be 8683 4a3d
000003c0: 8725 013e 91e4 27be 7b5c 443c e655 f23d
000003d0: 28a8 f93d ebf2 49bd ed60 ee3d 3366 843d
000003e0: 45aa ac3d 2e62 9fbd 3454 e9bb f264 d9bd
000003f0: 9e1e d3bd efc5 a1bd 8916 a63d a5c8 56bb

critic.network_body.linear_encoder.seq_layers.2.bias f4 [128]
0.0003425838 0.024229854 -0.01401954 0.029256403 0.022422468 0.02456122 0.022729428 -0.02086644
0.020924186 -0.028188145 0.009602126 0.021496758 0.024070675 -0.005149445 0.027302846 -0.0150710475
0.02976433 -0.012083595 -0.0020662535 -0.023750216 -0.00834388 -0.012280071 0.024821766 -0.017458327
0.020228835 -0.015081996 0.010648117 -0.01250821 0.028779084 0.023113856 0.0056370622 -0.01964242
0.0055935886 -0.0065860325 0.008460592 0.0017448148 0.024608843 -0.01983128 -0.024607673 0.018735847
0.021627665 -0.017598866 -0.0049969484 0.020870987 0.008741375 0.02281595 -0.019865502 0.025056902
0.014270498 0.017586758 0.024220733 -0.030950055 0.022821818 -0.027275903 -0.013484551 -0.025457691
0.03255535 -0.017070016 0.0322671 0.0062345224 -0.01645835 0.02129741 -0.0144306375 -0.01606735
-0.015937967 -0.022991803 -0.008407291 -0.017740438 -0.005751062 -0.0097290715 -0.020513462 -0.015026527
0.022877473 0.045773868 0.03127373 -0.009658782 -0.0032333462 0.022983456 -0.014934291 0.022905907
-0.0004551493 -0.006227245 -0.0032605377 -0.014433916 -0.025782067 -0.0018525833 -0.027630651 0.028584678
-0.009529552 0.0031257533 -0.0063325004 -0.015170634 -0.0133576505 0.026828583 0.008406751 0.022959363
-0.01294486 -0.015027898 0.020039124 0.011921313 -0.005243047 -0.006652116 -0.01565106 0.010611964
-0.004165151 0.022343855 -0.0038693412 -0.0113154845 -0.018276166 0.024160784 -0.0044477554 -0.014995147
0.021463996 -0.019406859 -0.013245881 0.028911803 -0.004526219 -0.004234053 0.012655772 -4.3976088e-05
-0.0056930617 0.0023597106 0.010369594 -0.0024706265 0.023378422 -0.0025726275 0.0029577918 0.022768104
00000000: d29c b339 b07d c63c 36b2 65bc 20ab ef3c
00000010: 53af b73c 9d34 c93c 1133 ba3c 19f0 aabc
00000020: 3369 ab3c d3ea e6bc 3c52 1d3c f819 b03c
00000030: dd2f c53c adbc a8bb 38aa df3c 8eec 76bc
00000040: 53d4 f33c 45fa 45bc fb69 07bb d08f c2bc
00000050: c5b4 08bc 5a32 49bc 0457 cb3c c404 8fbc
00000060: f1b6 a53c 7a1a 77bc 7175 2e3c 3cef 4cbc
00000070: 1dc2 eb3c 4559 bd3c 1bb7 b83b 24e9 a0bc
00000080: 6c4a b73b a5cf d7bb 4b9e 0a3c 45b2 e43a
00000090: 7c98 c93c 3575 a2bc 0896 c9bc eb7b 993c
000000a0: 802c b13c 7f2b 90bc 71bd a3bb a2f9 aa3c
000000b0: fc37 0f3c 84e8 ba3c fabc a2bc 2244 cd3c
000000c0: cfce 693c 1b12 903c 8f6a c63c f88a fdbc
000000d0: d2f4 ba3c b771 dfbc 4eee 5cbc a68c d0bc
000000e0: c258 053d 6bd6 8bbc 822a 043d f74a cc3b
000000f0: a9d3 86bc e877 ae3c 7b6e 6cbc ad9f 83bc
00000100: 5790 82bc 4e59 bcbc bcbe 09bc 6554 91bc
00000110: 6873 bcbb af66 1fbc d90b a8bc d331 76bc
00000120: 8a69 bb3c 617d 3b3d e218 003d de3f 1ebc
00000130: 8ce6 53bb cd47 bc3c f5ae 74bc 2ba5 bb3c
00000140: 1ba1 eeb9 eb0d ccbb bfae 55bb 3b7c 6cbc
00000150: ea34 d3bc 61d2 f2ba ad59 e2bc 6a2a ea3c
00000160: d721 1cbc 70d9 4c3b dd80 cfbb 408e 78bc
00000170: 0cda 5abc 9ec7 db3c 78bc 093c 4615 bc3c
00000180: ae16 54bc 9337 76bc 1729 a43c 9c51 433c
00000190: decd abbb fef9 d9bb a736 80bc cedd 2d3c
000001a0: d27b 88bb 760a b73c c694 7dbb 9564 39bc
000001b0: e6b7 95bc d6ec c53c 7abe 91bb 34ae 75bc
000001c0: 43d5 af3c 22fb 9ebc 4005 59bc 72d8 ec3c
000001d0: ad50 94bb d0bd 8abb 285a 4f3c f772 38b8
000001e0: dd8c babb 60a5 1a3b 3be5 293c 3cea 21bb
000001f0: 1b84 bf3c 8799 28bb 83d7 413b 2d84 ba3c
