results/scoreGoal9/HitTheBall.onnx (onnx, 74062 bytes, 8 tensors)

action_model._continuous_distribution.log_sigma f4 [1, 2]
000000 00 00 00 00 00 00 00 00
       0.0 0.0

action_model._continuous_distribution.mu.bias f4 [2]
000000 00 00 00 00 00 00 00 00
       0.0 0.0

action_model._continuous_distribution.mu.weight f4 [2, 128]
000000 ff ed a5 bc bb 44 98 3c 27 aa b2 bc 7a 19 e4 bc
       -0.020255087 0.01858746 -0.02180965 -0.02784418
000010 b1 2d a3 bb 80 08 6c 3b 00 60 e5 3c 60 f9 14 3c
       -0.004979812 0.0036015809 0.027999878 0.009092659
000020 6e a6 8f 3b 82 86 8e bc e1 74 bc bc d7 78 2d 3d
       0.0043838536 -0.017398123 -0.023004951 0.04235157
000030 50 be 68 3a 5e 7b b2 3c 3f cd ef bb 42 2f fc 3c
       0.00088784564 0.021787342 -0.0073181684 0.030784253
000040 21 fb c6 3b c3 25 a9 3c 58 75 50 ba 5b a7 4f bc
       0.0060724174 0.020647889 -0.0007952056 -0.012674178
000050 2b 8d 6d 3c 34 27 c5 3a 66 b0 4b 3b e2 b0 4f 3b
       0.014498989 0.0015041591 0.0031080483 0.0031691124
000060 ef 34 71 3b 94 bd 16 3c d0 c9 ab bb 40 17 4f bb
       0.0036805233 0.009200472 -0.005242564 -0.0031599551
000070 97 31 ae bb aa a2 db bc da 5b be 3c 2f 6f 0a 3c
       -0.00531597 -0.026810963 0.023237158 0.00844936
000080 da d9 39 3c dd c6 1b 3c 0f 85 56 bc 6b 4a 88 3c
       0.011343444 0.009507862 -0.013093247 0.016637048
000090 d7 0b ad 3c 1a 0f c1 ba ea 4f cd bb b0 78 76 3b
       0.02112381 -0.0014729232 -0.00626563 0.0037608556
0000a0 19 d9 2c bd 2c 24 32 bc 8f 1c 9e 3b 0b b9 aa 3c
       -0.042199228 -0.010872882 0.004825182 0.020840188
0000b0 83 e8 3c 3c 0f 7d f1 bc 75 69 23 bc 4b f7 42 3c
       0.0115300445 -0.029478578 -0.009973873 0.01189978
0000c0 5f fc e4 bb 3b 53 84 3c f7 e8 ae bc bf c3 d2 3a
       -0.006988093 0.016152969 -0.02135132 0.0016080065
0000d0 cb 56 4a 3c 2e d8 46 bc 77 6d f1 3b 2d 72 ec 3b
       0.012349795 -0.012136502 0.0073677856 0.0072157593
0000e0 e5 e5 72 bc 68 ed 81 bb ab 7d 5a 3c 69 c8 ad 3b
       -0.014825319 -0.0039650686 0.013335626 0.005303432
0000f0 70 bc 46 bc 61 34 a7 bc 2d e9 bc bb f3 8a c0 3c
       -0.012129888 -0.020410718 -0.0057651014 0.023503756
000100 54 83 a9 3b 25 31 ee 3b bf f6 8d 3c 75 fa cd 3b
       0.0051731262 0.007269042 0.017329572 0.0062859603
000110 39 75 43 bb 8a 30 f7 3b 7a 92 89 bc 20 d8 d3 3b
       -0.0029824509 0.007543628 -0.016793478 0.006464973
000120 6d 62 2a bd 62 eb 77 bc c3 b2 b7 3b 5b 96 fe 3b
       -0.041597772 -0.015131803 0.005606027 0.0077693886
000130 10 05 4f bb ed fb 43 bc 7e b1 b5 b8 e5 43 54 3d
       -0.003158871 -0.011961919 -8.663813e-05 0.05182256
000140 bb 4b fe bc 00 03 9f bb 96 6a c4 3c cf 51 89 3c
       -0.03104197 -0.0048526525 0.023976605 0.016762642
000150 96 59 28 3d 2d c0 4f bc 90 9b d9 3c e2 90 84 3c
       0.04110106 -0.012680096 0.026563436 0.016182367
000160 15 cd 23 3c 28 e2 88 3b 1a 8e de bb 0b 25 09 bb
       0.009997626 0.0041773506 -0.006791842 -0.002092662
000170 78 69 dc 3b 9f 52 c7 bb f3 bd 6e bc 63 9e 4a bc
       0.00672644 -0.0060828472 -0.014571655 -0.012366864
000180 fd a3 87 bc 17 f6 d9 3b 3d 38 fb ba 17 df 16 bc
       -0.016557688 0.0066516506 -0.0019166541 -0.009208462
000190 ef 1d e4 bc 57 2b 7f 3c 8e 46 48 bd 87 3e 12 3c
       -0.027846305 0.015574298 -0.04889541 0.0089260405
0001a0 bc 10 b8 bc 32 18 fc bb 7b 77 b0 3a 62 87 47 bd
       -0.022468917 -0.007693314 0.0013463342 -0.048713095
0001b0 27 19 97 bb b3 a7 d0 bb dd ea d1 bc ca 8a be bc
       -0.0046111527 -0.0063676476 -0.025624687 -0.02325954
0001c0 ac c8 20 3c c0 f2 eb 3c 72 0e 02 3c d7 df 01 bc
       0.009813469 0.028802276 0.007938014 -0.007926903
0001d0 3d 83 46 3c 56 0c 21 bc b9 6c 33 3d 7c 54 ba 3b
       0.012116251 -0.009829601 0.043804858 0.005686341
0001e0 79 41 c5 3b 37 c4 fd 39 65 39 d8 bc 33 11 4b bc
       0.006019768 0.00048402112 -0.026394555 -0.012394237
0001f0 b8 e1 b1 3b 3d fb e3 3b f8 89 0f 3d 3b f7 06 bd
       0.005428519 0.00695744 0.035043687 -0.03295062
000200 7f 83 00 bd 7b 01 97 bc 8c 43 32 bb 23 78 96 3c
       -0.031375404 -0.018433323 -0.0027200906 0.018367833
000210 23 0d 25 bc 60 38 43 3c d7 e5 a4 bc 3c 92 2a 3c
       -0.010073933 0.011915296 -0.020129127 0.010410842
000220 43 85 bd bc 6a ad 2f 3d a1 0e 11 3d f8 af fb bc
       -0.023134833 0.04288999 0.03541434 -0.030723557
000230 87 d1 28 bd 83 81 b1 3c 28 82 45 bb d8 ef 04 bb
       -0.041215446 0.021668201 -0.0030137394 -0.002028456
000240 7d 88 33 bb c6 f5 2a 3b 2d 09 a9 b9 9f d2 78 3b
       -0.0027394586 0.0026086434 -0.00032241028 0.0037967337
000250 2c 20 95 3c 19 72 10 bc d9 28 a0 3c 40 6b ed 3c
       0.018203817 -0.0088162655 0.019550728 0.028981805
000260 b8 28 92 bc e8 c1 05 bc 2b 65 83 3c b5 d3 92 bc
       -0.017841682 -0.008163907 0.016039452 -0.017923215
000270 e1 7c 05 3d 57 dd 8f bc 4b c3 74 bc b4 ff 83 bc
       0.032589797 -0.017561598 -0.01493914 -0.01611314
000280 db 22 80 bc 44 70 9a 3c b2 2c 86 3c 7d 57 14 3c
       -0.01564162 0.01885236 0.016378734 0.009054062
000290 1d bc a8 3c 38 f8 ff bb f3 00 85 3b 39 8e ca bb
       0.020597512 -0.0078115724 0.004058951 -0.006181505
0002a0 7e 08 cc bb 19 bb 86 3c db aa 8d 3c 73 66 13 bc
       -0.0062265983 0.016446637 0.017293384 -0.008996594
0002b0 57 60 c5 39 7b 5d f5 bc 43 21 3b bc f4 30 39 3b
       0.00037646547 -0.029951802 -0.011421504 0.0028257938
0002c0 16 a1 3d 3b 4a 12 a0 bc e5 1e 2c bc 94 22 8c 3c
       0.0028935126 -0.01953997 -0.010505413 0.017106332
0002d0 8d 5e 00 3c 50 8f 00 3b 47 c8 9e 3c 5f 9f ea bb
       0.007835043 0.001961667 0.019382609 -0.007160112
0002e0 b0 66 e9 3b 36 98 00 bd c6 9c a9 3b fb 2f 16 bd
       0.007122837 -0.03139516 0.0051761596 -0.03666685
0002f0 37 87 3c 3b 75 85 95 ba a1 f0 10 bc b5 d7 50 bb
       0.0028767118 -0.0011407571 -0.008846433 -0.0031866853
000300 0e 1a 07 3c b6 1e 12 3c 02 3d 5d bb a2 b7 05 3a
       0.008245958 0.008918455 -0.0033758287 0.0005100911
000310 03 70 df 3a 67 38 11 3b 07 5d 2f bc ad 76 bd 3b
       0.0017046932 0.0022158863 -0.010703332 0.0057819695
000320 0b 45 9b bc f3 ea 79 bc 78 ad c3 bc 27 25 00 bc
       -0.01895382 -0.01525377 -0.023886427 -0.007821358
000330 e1 b9 a1 3c 8a 39 18 bd cc b9 bf bc 11 90 43 3c
       0.019741954 -0.03716425 -0.023404025 0.011936204
000340 84 b7 2a bb 98 71 d4 3c 77 75 3f bc 7a 71 27 3c
       -0.0026049325 0.025933072 -0.011685721 0.010219926
000350 b6 9b 03 bd b2 b1 de 3b b4 b6 ab 3c 9c ca 2e 3c
       -0.03213092 0.0067960853 0.020961143 0.010668423
000360 66 c6 b4 3a ed e9 61 bc ff 55 12 bd 08 64 8b bc
       0.0013792037 -0.013788682 -0.035726544 -0.017015472
000370 93 76 b7 bb 2f eb ae bc 1b 5b 0e bc 15 97 c9 bc
       -0.005598852 -0.021352379 -0.008688713 -0.024608174
000380 b0 00 d4 3c 3d f5 d8 3c 82 19 1c 3c 7b ef 97 3c
       0.025879234 0.026484126 0.009527566 0.01854681
000390 6c 1e 96 3c 7f 4f ad bc a7 65 00 bc 9a 3f bb 3c
       0.018325053 -0.02115607 -0.007836736 0.022857476
0003a0 d3 7f ee b9 7b 8a 1b bc d8 00 d9 3b 9e b9 3d 3c
       -0.00045490134 -0.009493466 0.006622415 0.011579899
0003b0 a4 9b 92 3c 77 4f 30 bc 77 36 96 3c 3b de d4 3b
       0.01789648 -0.010761133 0.018336518 0.0064962185
0003c0 ef e1 b3 3c d0 93 30 bc ba 7c 24 3b cf ea 80 3b
       0.02195832 -0.010777429 0.0025098757 0.0039342414
0003d0 b2 f4 99 3c 38 32 d3 bb 60 d1 3e bb 9a 84 f3 3b
       0.018793438 -0.0064451955 -0.0029116496 0.007431579
0003e0 ba ec e1 bb 13 58 52 bb 05 ff f0 bc 5f d2 7b 3a
       -0.006894675 -0.0032095953 -0.029418478 0.0009606238
0003f0 12 2f 9e 3c d3 5a b1 ba 2f ed ae bb a2 e8 36 bb
       0.019309554 -0.0013531096 -0.005338333 -0.0027909656

action_model._discrete_distribution.branches.0.weight f4 [1, 128]
000000 df 12 33 3b 8a 65 9e 39 3f 3e 97 bb c0 b2 71 3c
       0.002732448 0.0003021176 -0.0046155746 0.01475209
000010 3d 06 9c 3b f8 ae 3c bc c2 f9 e9 bb 44 b4 c3 ba
       0.004761486 -0.011516325 -0.007140369 -0.0014931043
000020 72 71 a9 3c e3 cc f6 bb 3a 5a e6 ba c9 ad 88 3c
       0.020683978 -0.0075317486 -0.0017574497 0.01668443
000030 17 2d 14 bc 1d d8 da bb f2 58 9d bb f7 53 03 bc
       -0.009043953 -0.0066785947 -0.004801863 -0.008015624
000040 5b 92 3e 39 bb 7b d8 bb c7 6c 8a bc 83 d6 2a 3c
       0.00018174334 -0.0066065467 -0.016897572 0.01042712
000050 54 88 43 3b c2 95 e8 ba 27 31 0d bc be 28 ab 3b
       0.0029835897 -0.0017744827 -0.008617676 0.0052233627
000060 93 5f 9b bc 0f 47 63 3c 10 fb 03 3b 07 e8 df bb
       -0.018966472 0.013871922 0.0020138659 -0.0068330797
000070 6c 70 8c 3a 7f ce 86 3c d0 2b f5 3b 67 90 15 bc
       0.0010714657 0.016455887 0.0074820295 -0.0091286665
000080 b5 fc 75 bc 1f 4a be 3a 25 d7 ff 3a 23 9c b5 bb
       -0.015013863 0.0014517939 0.0019519074 -0.0055422946
000090 8b e9 35 bc 98 4a bb bb 4b de ae b8 33 10 bf 3b
       -0.011103044 -0.0057156794 -8.338372e-05 0.0058307885
0000a0 26 b4 04 bc aa 0b 44 3a 4d 44 d9 3b 8b 3a 06 3c
       -0.008099591 0.0007478545 0.0066304565 0.008192669
0000b0 e7 66 41 3b 04 df 96 3a 9a 6b 19 bc b4 58 8a 3a
       0.0029510797 0.0011510556 -0.009364033 0.0010555
0000c0 d3 bb eb bb 2d e5 61 bb c3 23 4f bc c7 d7 58 3c
       -0.0071940213 -0.0034468875 -0.012642804 0.013235039
0000d0 50 71 1a 3b 6f c1 8f 3b 47 30 85 3a bb 02 1f bc
       0.0023566075 0.0043870728 0.0010161482 -0.009705241
0000e0 df 29 af ba c2 58 95 3c 38 56 90 3c 13 53 4b 3c
       -0.0013363919 0.0182308 0.017619237 0.012409943
0000f0 d1 f1 cb ba 8c 8c 34 3b eb 45 90 3b d6 30 11 3b
       -0.0015559738 0.0027549593 0.004402866 0.0022154353
000100 e0 27 bb 3b a2 e6 64 bb 1b 21 5d bb ef af 22 bc
       0.0057115406 -0.0034927507 -0.0033741656 -0.009929641
000110 28 74 e0 bb 08 2c 80 3a 30 d6 c8 bb 27 80 df 3a
       -0.0068497844 0.0009778747 -0.0061290488 0.0017051742
000120 cc 98 80 bb aa 2f f9 b9 d7 a0 31 bb 27 75 65 bc
       -0.003924465 -0.00047528493 -0.0027103925 -0.014004982
000130 8f a8 45 bc 83 e9 09 3c fe ad ba 3b 79 a8 35 bc
       -0.012064113 0.00841749 0.005697011 -0.01108753
000140 03 62 0d bc b3 eb 12 bc 24 6e 48 bc aa a2 06 bc
       -0.008629325 -0.008967328 -0.012233291 -0.008217493
000150 db 77 b7 bb 95 9e 19 bc fb af 19 bb b5 8f 70 ba
       -0.0055990047 -0.009376188 -0.002345084 -0.00091766875
000160 11 51 2d 39 c3 8b 0d 3c ef 03 69 3c 75 87 8c bb
       0.00016528765 0.008639279 0.014222129 -0.0042886087
000170 cb 1b 64 38 fb c7 05 3c 13 97 0c bc e3 0e a4 3b
       5.438532e-05 0.008165355 -0.008580941 0.0050066574
000180 57 c2 e3 ba 87 d6 55 bc 27 c5 c6 3b a0 27 63 3b
       -0.0017376643 -0.013051636 0.006065983 0.003466107
000190 ff 97 c0 ba 67 35 ba 3b 9b 36 11 bc 98 05 8a bc
       -0.0014693736 0.0056826356 -0.008863117 -0.01684837
0001a0 60 ce 2e bc 10 48 cb bb d6 a1 8f bc 44 8e 29 3b
       -0.010669321 -0.006203659 -0.017533224 0.002587215
0001b0 4b e7 08 bc 6b ff 68 bc 31 f5 b7 3b 65 fd 9c 3b
       -0.008355926 -0.014221053 0.005613946 0.004790949
0001c0 52 0e fe bb 3f 16 31 bc 95 64 09 3a 88 12 24 bc
       -0.007753172 -0.010808527 0.0005241123 -0.010014184
0001d0 15 73 c3 3c 3b 40 b7 3b 42 91 6d 3b 50 f5 cc 3b
       0.023858586 0.0055923737 0.003624991 0.0062548295
0001e0 74 4f 87 3c 08 b3 8d 3c 58 15 b0 3b cf 94 fc bb
       0.016517378 0.017297283 0.005373638 -0.007708169
0001f0 02 45 70 3c 5a 6a 15 bc 7f c0 8d bc e0 09 57 bc
       0.01466489 -0.0091195945 -0.017303703 -0.013124913

network_body.linear_encoder.seq_layers.0.bias f4 [128]
000000 00 00 00 00 00 00 00 00 00 00 00 00 00 00 00 00
       0.0 0.0 0.0 0.0
000010 00 00 00 00 00 00 00 00 00 00 00 00 00 00 00 00
       0.0 0.0 0.0 0.0
000020 00 00 00 00 00 00 00 00 00 00 00 00 00 00 00 00
       0.0 0.0 0.0 0.0
000030 00 00 00 00 00 00 00 00 00 00 00 00 00 00 00 00
       0.0 0.0 0.0 0.0
000040 00 00 00 00 00 00 00 00 00 00 00 00 00 00 00 00
       0.0 0.0 0.0 0.0
000050 00 00 00 00 00 00 00 00 00 00 00 00 00 00 00 00
       0.0 0.0 0.0 0.0
000060 00 00 00 00 00 00 00 00 00 00 00 00 00 00 00 00
       0.0 0.0 0.0 0.0
000070 00 00 00 00 00 00 00 00 00 00 00 00 00 00 00 00
       0.0 0.0 0.0 0.0
000080 00 00 00 00 00 00 00 00 00 00 00 00 00 00 00 00
       0.0 0.0 0.0 0.0
000090 00 00 00 00 00 00 00 00 00 00 00 00 00 00 00 00
       0.0 0.0 0.0 0.0
0000a0 00 00 00 00 00 00 00 00 00 00 00 00 00 00 00 00
       0.0 0.0 0.0 0.0
0000b0 00 00 00 00 00 00 00 00 00 00 00 00 00 00 00 00
       0.0 0.0 0.0 0.0
0000c0 00 00 00 00 00 00 00 00 00 00 00 00 00 00 00 00
       0.0 0.0 0.0 0.0
0000d0 00 00 00 00 00 00 00 00 00 00 00 00 00 00 00 00
       0.0 0.0 0.0 0.0
0000e0 00 00 00 00 00 00 00 00 00 00 00 00 00 00 00 00
       0.0 0.0 0.0 0.0
0000f0 00 00 00 00 00 00 00 00 00 00 00 00 00 00 00 00
       0.0 0.0 0.0 0.0
000100 00 00 00 00 00 00 00 00 00 00 00 00 00 00 00 00
       0.0 0.0 0.0 0.0
000110 00 00 00 00 00 00 00 00 00 00 00 00 00 00 00 00
       0.0 0.0 0.0 0.0
000120 00 00 00 00 00 00 00 00 00 00 00 00 00 00 00 00
       0.0 0.0 0.0 0.0
000130 00 00 00 00 00 00 00 00 00 00 00 00 00 00 00 00
       0.0 0.0 0.0 0.0
000140 00 00 00 00 00 00 00 00 00 00 00 00 00 00 00 00
       0.0 0.0 0.0 0.0
000150 00 00 00 00 00 00 00 00 00 00 00 00 00 00 00 00
       0.0 0.0 0.0 0.0
000160 00 00 00 00 00 00 00 00 00 00 00 00 00 00 00 00
       0.0 0.0 0.0 0.0
000170 00 00 00 00 00 00 00 00 00 00 00 00 00 00 00 00
       0.0 0.0 0.0 0.0
000180 00 00 00 00 00 00 00 00 00 00 00 00 00 00 00 00
       0.0 0.0 0.0 0.0
000190 00 00 00 00 00 00 00 00 00 00 00 00 00 00 00 00
       0.0 0.0 0.0 0.0
0001a0 00 00 00 00 00 00 00 00 00 00 00 00 00 00 00 00
       0.0 0.0 0.0 0.0
0001b0 00 00 00 00 00 00 00 00 00 00 00 00 00 00 00 00
       0.0 0.0 0.0 0.0
0001c0 00 00 00 00 00 00 00 00 00 00 00 00 00 00 00 00
       0.0 0.0 0.0 0.0
0001d0 00 00 00 00 00 00 00 00 00 00 00 00 00 00 00 00
       0.0 0.0 0.0 0.0
0001e0 00 00 00 00 00 00 00 00 00 00 00 00 00 00 00 00
       0.0 0.0 0.0 0.0
0001f0 00 00 00 00 00 00 00 00 00 00 00 00 00 00 00 00
       0.0 0.0 0.0 0.0

network_body.linear_encoder.seq_layers.0.weight f4 [128, 6]
000000 39 a3 e8 3d bb 6b 23 bd 06 c5 c9 3e d8 85 84 ba
       0.11359257 -0.03989766 0.3940813 -0.0010110689
000010 0b ff 1f 3f 3b 9f 06 3d 1c 29 90 3e 46 c7 b4 bd
       0.6249854 0.032866698 0.28156364 -0.08827071
000020 02 94 e9 be 24 f8 9d be 32 c7 c2 3e 45 22 d4 3c
       -0.45620733 -0.3085338 0.380426 0.025895247
000030 43 99 d0 be d3 82 e6 be df e2 e4 3e b8 45 33 be
       -0.4074193 -0.45021686 0.4470434 -0.17507064
000040 72 78 04 bd cb e2 aa be 06 67 06 3f cc 8a 3c bf
       -0.032341428 -0.33376154 0.5250095 -0.7364929
000050 a4 75 a6 3d 88 99 18 bf 61 73 30 bf 3d c5 1a bf
       0.08127907 -0.5960927 -0.68926054 -0.6045721
000060 2a 34 c8 3e 2b 30 3f 3d fe 34 2b bc 14 9c 86 bd
       0.39102298 0.046676796 -0.010449646 -0.06572738
000070 11 00 f1 be fb cf 71 bc 6e a9 45 3e 63 1b 51 be
       -0.47070363 -0.014759059 0.19302914 -0.20420603
000080 d2 cd 0f bf a7 e6 99 3e d0 71 1e be a0 30 08 bf
       -0.5617343 0.30058786 -0.15473104 -0.53199196
000090 8b 14 a9 3e f4 83 9b 3c 8a 57 fd bd 69 99 86 3f
       0.33023486 0.018983819 -0.123702124 1.0515567
0000a0 12 f6 9d bd d4 3f 76 bc f1 ba 13 be 75 1f 46 bd
       -0.0771295 -0.015029866 -0.14426781 -0.048369844
0000b0 9a 66 7c 3e 96 11 20 be 34 43 b6 3e a6 cc c9 3c
       0.24648514 -0.15631709 0.35598147 0.024633717
0000c0 00 d0 51 3e 9f 9c 30 bd d4 ad 9c 3e 4c 3c a5 be
       0.20489502 -0.043118116 0.3060137 -0.32272565
0000d0 81 36 23 3f db 7a 64 3e e6 bf bc 3d f8 bd 34 3e
       0.6375504 0.2231249 0.09216289 0.17650592
0000e0 a9 9e 3c bf 2e 70 14 bf 2b 65 0b 3c 18 e0 02 3f
       -0.73679596 -0.5798367 0.008508007 0.5112319
0000f0 3c 6e ca be f6 84 3c be f2 b1 2b 3f ec 76 38 bf
       -0.39537227 -0.18410096 0.670684 -0.7205646
000100 b2 9b 3e 3e 3e b5 34 3f 19 87 85 3e 70 ca 82 be
       0.1861408 0.70589054 0.26079634 -0.25545073
000110 4d 41 08 be 27 78 41 3e 38 5a d3 bd e2 05 a9 be
       -0.1330616 0.1889349 -0.10319942 -0.330123
000120 18 bc 6f 3e f1 69 c8 3e 3a 8f d8 3d 15 64 bf 3e
       0.23411596 0.39143327 0.10574193 0.37381044
000130 5b a1 75 3e 9a c2 2d bf 9e 70 3d be 6b 76 f1 3e
       0.23987333 -0.67875063 -0.18499991 0.47160658
000140 8b 46 2d 3f 45 bb 35 be 3f 5b b5 3e 81 e5 4e 3f
       0.67685765 -0.17747219 0.35421178 0.80818945
000150 a5 de 3e bf dd 48 01 3e f8 c4 bd be b4 ed 6d 3e
       -0.7455848 0.12625451 -0.37064338 0.23235208
000160 80 97 ce bd 84 19 52 3f e7 eb bb be 77 01 5c 3e
       -0.1008749 0.82070184 -0.36703417 0.21484934
000170 e7 fb d6 3e c0 7a b1 3d c9 f3 b8 bd b4 34 b9 3e
       0.4198906 0.08665991 -0.09030873 0.36173022
000180 5e 70 8c be 2d e2 46 bf 03 13 99 be ec ec 8b be
       -0.2742948 -0.77688867 -0.29897317 -0.27329195
000190 6b 42 08 3f 7f e3 c8 3d 56 30 44 3e 7d 3d e1 be
       0.53226346 0.098090164 0.19159064 -0.43992224
0001a0 76 7d 25 be d5 11 1e bc 05 af ca bc 73 df 73 3f
       -0.16161141 -0.009647806 -0.024741659 0.9526283
0001b0 9f 0e 37 be 20 31 61 3e 15 45 aa bd 23 37 0e bf
       -0.17876671 0.21991396 -0.083139576 -0.5555288
0001c0 cd 98 99 be 4d 4f 83 3e 01 b5 10 3f e3 75 dc 3d
       -0.2999939 0.2564644 0.5652619 0.107646726
0001d0 fe 4d 05 3f be cc 0c be 2e e0 5b 3f 15 f9 f9 be
       0.5207213 -0.13749978 0.85888946 -0.48822847
0001e0 58 bc d8 3e 02 c2 98 be 9e 41 80 bf 6c ae f0 be
       0.42331195 -0.29835516 -1.0020025 -0.47008073
0001f0 5e 44 8c 3e 52 ef b8 3e 37 3e a9 bd fc 67 b3 bb
       0.2739591 0.36120087 -0.0826382 -0.0054750424
000200 82 e4 77 3e 65 8f f1 bb 95 e7 c8 bd e1 33 88 be
       0.24208263 -0.0073718303 -0.09809796 -0.2660208
000210 4a 28 b5 be ea df 12 bf 1e 22 ae be ef 8a af be
       -0.353823 -0.57372916 -0.34010404 -0.34285685
000220 19 68 e4 be e9 eb 89 3e c1 95 97 3f b1 1d 20 bf
       -0.4461067 0.26937798 1.1842576 -0.62545305
000230 33 56 05 bf 49 0a 5f bd 78 57 64 be 65 10 72 be
       -0.52084655 -0.054453168 -0.22298992 -0.23639067
000240 1f 41 e0 3e 4b cd 82 3d 61 1b 10 3f d1 78 37 bf
       0.43799683 0.06386813 0.56291777 -0.71668726
000250 60 17 2b bf b7 cc 0c 3e 0f 0a 04 3f 1c f4 be be
       -0.6683254 0.13749968 0.5157785 -0.37295616
000260 85 7c cc 3e 0e 8a 10 be e0 80 25 3e 38 0c 6c be
       0.3993875 -0.14115164 0.16162443 -0.23051536
000270 92 87 d2 be c6 63 13 3f 46 d0 38 3f bc db 7d 3d
       -0.41119057 0.5757412 0.721928 0.061977133
000280 ca eb 3c be 71 07 3e be 51 e7 84 3e ba fb 23 bf
       -0.18449321 -0.18557526 0.2595773 -0.6405598
000290 78 bb ed 3d 6c 52 18 bf 66 5d 10 be 69 06 70 3c
       0.116080225 -0.59500766 -0.14098129 0.014649966
0002a0 61 53 f6 be 3c 11 d4 3e 62 01 9b be 72 5a 23 bf
       -0.48110488 0.414194 -0.30274493 -0.63809884
0002b0 6b a7 77 be 55 a9 5b 3d 5f 40 c0 3e 5c 2b 2e bf
       -0.24184959 0.053628284 0.3754911 -0.6803491
0002c0 3a 8a 29 3e 50 47 e3 bd ed f8 90 bd 98 f8 15 bf
       0.16556635 -0.11097586 -0.07078729 -0.5858245
0002d0 65 78 84 be bb 2a 0d 3f 55 9e 09 3f 62 20 e5 be
       -0.25873104 0.55143327 0.5375722 -0.4475127
0002e0 05 c8 9f 39 69 59 e7 3e 09 02 35 3f 5a 1f ce 3c
       0.0003047587 0.45185402 0.7070623 0.025161434
0002f0 b6 fc e9 bd 34 ea 36 3f 35 37 a2 bc 23 5e 57 be
       -0.11425154 0.71451116 -0.019801715 -0.21032004
000300 54 18 3f 3f 03 a6 5f be b7 4f a2 be 75 18 c6 3e
       0.74646497 -0.21840672 -0.31701443 0.38690534
000310 7e 9e 85 be 87 60 73 be 64 f9 dc be fb 31 17 3f
       -0.26097482 -0.23767291 -0.4315902 0.5906064
000320 18 3f 31 bf c3 fe c1 be 64 46 4f bf 12 a6 04 bf
       -0.692369 -0.3788968 -0.8096678 -0.51815903
000330 a1 7a 31 3f f8 49 12 3f af 65 f3 3d b9 0c 21 be
       0.6932774 0.5714412 0.11884629 -0.1572751
000340 c3 21 87 be 45 ad 00 3f 10 19 c2 3e 28 94 24 3f
       -0.26392946 0.5026439 0.37909746 0.6428857
000350 1d 7a a3 be 8f 57 45 bf a4 86 03 3f 49 34 11 be
       -0.31929103 -0.7708673 0.5137732 -0.14180101
000360 03 5a b6 be f2 b8 10 3d ec 88 a9 be 4e d1 38 3e
       -0.35615548 0.035332628 -0.33112276 0.18048593
000370 4f 78 32 bf 75 4b 6f be a4 35 54 bd ba 62 cc 3e
       -0.69714826 -0.23368628 -0.05180897 0.39919072
000380 a4 e6 26 bf c5 f4 1b be 41 4d 59 3d d2 3a 00 3e
       -0.6519568 -0.15230091 0.05305219 0.12522438
000390 75 cb c2 be 76 70 ca 3e 1e 40 a2 be b9 77 26 be
       -0.3804585 0.39538926 -0.31689543 -0.16256608
0003a0 49 f4 ff be 7d 98 53 bf a5 ee ee be 13 80 81 bd
       -0.49991062 -0.82654554 -0.46666446 -0.06323256
0003b0 ff bf 23 3e f5 00 97 bc 66 c2 50 3f ad 94 c0 3d
       0.1599121 -0.018433074 0.8154663 0.09403358
0003c0 30 40 21 3f ed d0 81 3f 5d 07 07 bf 8c 33 50 be
       0.6298857 1.0141884 -0.5274561 -0.20332164
0003d0 8a 2b 50 3f ed b5 97 3e 39 dd b3 3d ee 8b 80 3e
       0.81316435 0.29630986 0.08782429 0.25106758
0003e0 53 5a f2 3e 85 5f 4d bd 95 61 09 3e 56 ce ab bc
       0.47334537 -0.050139923 0.13416131 -0.020972412
0003f0 99 ed 67 bd c0 9d f4 3e 6b a0 b3 3e 3c 08 5d bf
       -0.056623075 0.47776604 0.35083327 -0.8634069

network_body.linear_encoder.seq_layers.2.bias f4 [128]
000000 00 00 00 00 00 00 00 00 00 00 00 00 00 00 00 00
       0.0 0.0 0.0 0.0
000010 00 00 00 00 00 00 00 00 00 00 00 00 00 00 00 00
       0.0 0.0 0.0 0.0
000020 00 00 00 00 00 00 00 00 00 00 00 00 00 00 00 00
       0.0 0.0 0.0 0.0
000030 00 00 00 00 00 00 00 00 00 00 00 00 00 00 00 00
       0.0 0.0 0.0 0.0
000040 00 00 00 00 00 00 00 00 00 00 00 00 00 00 00 00
       0.0 0.0 0.0 0.0
000050 00 00 00 00 00 00 00 00 00 00 00 00 00 00 00 00
       0.0 0.0 0.0 0.0
000060 00 00 00 00 00 00 00 00 00 00 00 00 00 00 00 00
       0.0 0.0 0.0 0.0
000070 00 00 00 00 00 00 00 00 00 00 00 00 00 00 00 00
       0.0 0.0 0.0 0.0
000080 00 00 00 00 00 00 00 00 00 00 00 00 00 00 00 00
       0.0 0.0 0.0 0.0
000090 00 00 00 00 00 00 00 00 00 00 00 00 00 00 00 00
       0.0 0.0 0.0 0.0
0000a0 00 00 00 00 00 00 00 00 00 00 00 00 00 00 00 00
       0.0 0.0 0.0 0.0
0000b0 00 00 00 00 00 00 00 00 00 00 00 00 00 00 00 00
       0.0 0.0 0.0 0.0
0000c0 00 00 00 00 00 00 00 00 00 00 00 00 00 00 00 00
       0.0 0.0 0.0 0.0
0000d0 00 00 00 00 00 00 00 00 00 00 00 00 00 00 00 00
       0.0 0.0 0.0 0.0
0000e0 00 00 00 00 00 00 00 00 00 00 00 00 00 00 00 00
       0.0 0.0 0.0 0.0
0000f0 00 00 00 00 00 00 00 00 00 00 00 00 00 00 00 00
       0.0 0.0 0.0 0.0
000100 00 00 00 00 00 00 00 00 00 00 00 00 00 00 00 00
       0.0 0.0 0.0 0.0
000110 00 00 00 00 00 00 00 00 00 00 00 00 00 00 00 00
       0.0 0.0 0.0 0.0
000120 00 00 00 00 00 00 00 00 00 00 00 00 00 00 00 00
       0.0 0.0 0.0 0.0
000130 00 00 00 00 00 00 00 00 00 00 00 00 00 00 00 00
       0.0 0.0 0.0 0.0
000140 00 00 00 00 00 00 00 00 00 00 00 00 00 00 00 00
       0.0 0.0 0.0 0.0
000150 00 00 00 00 00 00 00 00 00 00 00 00 00 00 00 00
       0.0 0.0 0.0 0.0
000160 00 00 00 00 00 00 00 00 00 00 00 00 00 00 00 00
       0.0 0.0 0.0 0.0
000170 00 00 00 00 00 00 00 00 00 00 00 00 00 00 00 00
       0.0 0.0 0.0 0.0
000180 00 00 00 00 00 00 00 00 00 00 00 00 00 00 00 00
       0.0 0.0 0.0 0.0
000190 00 00 00 00 00 00 00 00 00 00 00 00 00 00 00 00
       0.0 0.0 0.0 0.0
0001a0 00 00 00 00 00 00 00 00 00 00 00 00 00 00 00 00
       0.0 0.0 0.0 0.0
0001b0 00 00 00 00 00 00 00 00 00 00 00 00 00 00 00 00
       0.0 0.0 0.0 0.0
0001c0 00 00 00 00 00 00 00 00 00 00 00 00 00 00 00 00
       0.0 0.0 0.0 0.0
0001d0 00 00 00 00 00 00 00 00 00 00 00 00 00 00 00 00
       0.0 0.0 0.0 0.0
0001e0 00 00 00 00 00 00 00 00 00 00 00 00 00 00 00 00
       0.0 0.0 0.0 0.0
0001f0 00 00 00 00 00 00 00 00 00 00 00 00 00 00 00 00
       0.0 0.0 0.0 0.0

network_body.linear_encoder.seq_layers.2.weight f4 [128, 128]
000000 79 d8 9b bd dd 84 b7 3d 7c be ad bc 97 df 71 3d
       -0.07609648 0.089608885 -0.021208994 0.059051123
000010 c3 37 b3 bd 3b d3 2d 3e 3e 3e f9 3d 2c f5 b7 bd
       -0.0875087 0.1697511 0.12170075 -0.0898231
000020 c5 1e df bd 53 01 c2 3d 47 1c 46 3d 16 0b 85 bb
       -0.10894541 0.09472909 0.04836681 -0.0040601594
000030 e8 a2 0b 3d e2 8c 9f bd 1d b8 9f be 60 c7 6a 3e
       0.034090906 -0.07790543 -0.31195155 0.22927618
000040 a6 35 87 bd 60 c6 35 3d 93 a7 0f 3e 79 6e 49 bc
       -0.066020295 0.04437864 0.14028768 -0.012294405
000050 02 04 19 bc 32 83 9a 3d 3c ef 2a bd 45 de 3e 3e
       -0.009339334 0.07544555 -0.041732058 0.18639477
000060 de f5 0f 3e 06 6d 43 bd 9b a9 18 ba cc c7 a7 bd
       0.14058635 -0.047711395 -0.0005823613 -0.08192405
000070 2c 55 a2 bc 79 05 c3 bc 0e d4 31 be 06 0f 8a bc
       -0.019816004 -0.02380632 -0.17366049 -0.016852867
000080 1a 61 b8 bc f8 9e 9b bb 7a a9 21 3d a7 18 c2 bd
       -0.02250724 -0.004749175 0.039468266 -0.09477358
000090 4c b0 03 bd 5b b1 6e 3c ea 30 eb bd a8 7b a0 3c
       -0.03215055 0.014568652 -0.11483939 0.019590214
0000a0 e2 3d 9a 3b 6d be 6b be 18 cc 32 3d 0d 70 86 3e
       0.004707084 -0.2302186 0.04365167 0.26257363
0000b0 b9 ad 03 3e cb e5 50 be 9b 2a 1c 3e 9a 6f 81 bd
       0.12859239 -0.20400159 0.15250628 -0.063201144
0000c0 76 4c 21 bd 05 b3 15 bd bb 78 a0 bd 73 bc 13 be
       -0.03937956 -0.03654768 -0.078355275 -0.14427356
0000d0 fc c8 f5 bc f4 f1 52 be 06 c6 3c 3e 7c 67 74 bd
       -0.030003063 -0.2060011 0.18434915 -0.059669003
0000e0 43 c6 3d 3d 39 9e 0f bd b9 15 a0 bd d2 a7 dc 3d
       0.046331655 -0.035063002 -0.07816643 0.10774197
0000f0 4b 64 e0 39 bc fe c7 3d a5 ff e8 3c c0 43 27 3d
       0.00042799333 0.097653836 0.028442213 0.040836096
000100 76 ba e3 bc ff 42 1a 3e db af 04 be 28 ef f1 3d
       -0.027798872 0.1506462 -0.12957709 0.118131936
000110 9b ab 2f 3e 99 f4 02 3e df 9d 18 bc 29 68 3e be
       0.17155306 0.12788619 -0.009314983 -0.18594421
000120 97 f2 82 3d 97 3c 8f 3c dd f8 49 be 72 de 07 3e
       0.063939266 0.017484946 -0.1972384 0.1326845
000130 d3 a0 b9 3d 7e d2 3c bd 05 dc 8b 3d 40 65 f3 3d
       0.09063878 -0.04609918 0.06829075 0.11884546
000140 ec 7b 17 3c a7 9f 29 3d ad 69 77 3c 48 dd e0 3c
       0.009245854 0.041412022 0.015100879 0.027449265
000150 97 9b ca 3d 31 cf c5 bd e2 de 2b 3c 4a 8b 89 3c
       0.09892958 -0.09658659 0.010490151 0.016790051
000160 f1 38 9f 3d 36 40 9a 3d 1f 13 9a bc d2 f7 5f bd
       0.077745326 0.075317785 -0.018807946 -0.0546797
000170 d0 dc e7 bb 20 fc c5 3c 02 28 13 be 18 2b 1e 3e
       -0.0070758834 0.024168074 -0.1437073 0.15446126
000180 6c ba 91 bc 5f 15 bf 3d 00 e7 d0 3d 2c dd 10 be
       -0.017789088 0.09330248 0.1020031 -0.1414687
000190 49 d1 2b 3c b6 06 b9 bd d9 5c f7 bd e2 d0 2f bd
       0.010486909 -0.09034483 -0.12078256 -0.042923816
0001a0 04 28 15 3c 6b 3d 3a 3e e7 c6 62 bc 33 53 ac 3d
       0.009103779 0.18187492 -0.013841367 0.084143065
0001b0 18 75 ce bd 60 a9 0e be cb df cd 3d f3 b9 bd 3d
       -0.100809276 -0.13931799 0.10052451 0.092639826
0001c0 41 2a 0b be cc 6a 07 3d 03 33 a3 3d 7f 9b 19 bc
       -0.13590337 0.033060834 0.07968714 -0.009375452
0001d0 08 db 87 bd df d8 a4 3d 55 f7 2b be 4e c3 2d be
       -0.06633574 0.080491774 -0.16793568 -0.16969034
0001e0 b6 d7 02 3d 15 0b bb ba c2 fd a2 3d 0c 26 a5 bb
       0.031944 -0.001427027 0.07958557 -0.005039936
0001f0 6f 0e af bc 48 16 c2 3c c0 f7 d8 3d d7 8b 7f 3d
       -0.021369187 0.023692265 0.105941296 0.06238922
000200 3b 94 8f bd dd 94 40 be 13 63 0e bd 9e fe 27 3e
       -0.070106946 -0.18806787 -0.034762453 0.16405722
000210 15 46 a9 3c d2 2e ed 3c 59 1e 2f 3e 1f 46 ca 3b
       0.0206633 0.02895299 0.1710142 0.00617291
000220 b9 b9 63 3d 7a b8 ec bc 8c c7 a6 3c 58 bb 1e 3d
       0.05559704 -0.028896559 0.020358823 0.038752884
000230 b7 fc 38 3e 39 ed 9e 3c ff 0a e5 3b 1a 40 fa bc
       0.18065153 0.019400226 0.006989836 -0.030548144
000240 d3 9b 41 3d 6a 55 14 3d 64 09 83 3d ee e0 7f ba
       0.047267746 0.03621427 0.063982755 -0.0009760995
000250 a5 36 61 3c ee dc bd 3c 51 d8 5b bd 4c 35 86 bd
       0.013745938 0.023176637 -0.053673092 -0.06553134
000260 41 a3 98 3d 62 c9 85 bd ef 8b 30 3d 66 5c f1 3d
       0.07453013 -0.06532551 0.0431022 0.11785202
000270 2e f4 5f bd 7a 18 b7 3d 84 19 a4 bb 9e 53 ae 3d
       -0.054676227 0.089402154 -0.0050079245 0.085120425
000280 be c7 c1 ba 46 f5 32 bd 55 56 32 be 37 03 10 3d
       -0.0014784259 -0.043690942 -0.17415746 0.035159316
000290 21 7d 2e bc 5a 23 e9 3d e5 10 33 3d de a0 05 3d
       -0.01064995 0.11383696 0.043717284 0.032624118
0002a0 67 92 56 bd 3b cf 8f bd e4 c9 0f 3e 5f f9 b8 3d
       -0.052385714 -0.07021948 0.14041859 0.09031939
0002b0 d1 bc 46 3d d7 86 d9 3a 65 40 22 bc f7 e7 c7 3d
       0.048519913 0.0016595972 -0.009903048 0.09761041
0002c0 b2 20 93 bd 17 25 86 3d d0 73 68 bd 64 d5 2b 3e
       -0.071839705 0.06550043 -0.056751072 0.16780621
0002d0 8b 44 06 3d 3e 88 9d 3d 08 95 b0 bd 32 4d d7 bc
       0.03278021 0.07692002 -0.086221755 -0.026281927
0002e0 4d 52 00 3e 3e 3b 87 3d 32 70 ab bc f2 8a ea bc
       0.12531395 0.066030964 -0.020927522 -0.028630707
0002f0 e0 dd 8c 3d 85 8e b5 3d 93 23 01 3d 82 65 6c 3d
       0.06878257 0.08865074 0.031528067 0.057713993
000300 db 8d 0f bd 41 96 a4 bd 94 2e 95 be f5 1e 00 3e
       -0.035047393 -0.08036471 -0.291371 0.12511809
000310 7c ad 77 bc 7e 55 b5 3c 96 7c 5b 3c 11 1e 6e 3d
       -0.0151170455 0.022135492 0.013396403 0.058134142
000320 7a 6c a4 3c d6 af 47 bd 75 3a b4 bb cc 66 ab 3d
       0.020071257 -0.048751675 -0.0055001327 0.08369216
000330 f3 0f 10 bd 05 07 af 3d 71 d5 98 bc 8d 16 32 bd
       -0.03517146 0.08546261 -0.018656464 -0.043478537
000340 ba 1e ca 3d 4a d7 e4 3b be 25 26 bd 00 3c 2a 3e
       0.09869142 0.0069836723 -0.040563338 0.1662445
000350 f1 da ad bb 4e 95 a9 3d fc ec 57 3d 95 bb 20 be
       -0.005305641 0.08280431 0.05271624 -0.15696557
000360 bc 9f ca bc df 29 e6 bc d5 f7 99 3b 97 6b 1c 3d
       -0.02473437 -0.028096138 0.0046987333 0.038188543
000370 e9 29 14 3d 7e 7b a8 bd 1e 54 ce bd 5f ab a1 3d
       0.03617278 -0.08226679 -0.10074638 0.078940146
000380 5d f2 d8 3a 34 68 1b 3e 6a fe 39 3d 4c 2a 52 bd
       0.0016551722 0.15176469 0.045408644 -0.05130987
000390 e9 db 8d bc 8a 91 10 be df d7 86 bd 50 e6 03 bc
       -0.017316775 -0.14118019 -0.06584143 -0.008050516
0003a0 2f 01 75 bd 97 3a 38 bd 8c 36 0a bd 5d d6 62 3d
       -0.059815582 -0.04497775 -0.033743426 0.055380214
0003b0 cd 67 25 3c f7 ad bd 3c f1 56 70 3c 0b 81 d6 3c
       0.010095549 0.023154242 0.014669166 0.02618458
0003c0 e5 13 a6 bc 81 22 e4 3c f4 f3 a1 bb 9c 0b 03 be
       -0.020273158 0.027848484 -0.0049424116 -0.12797397
0003d0 47 01 ae 3d cd e5 42 bd e7 97 a2 3d 75 f1 9c bd
       0.084963374 -0.047582436 0.07939129 -0.07663242
0003e0 29 f7 1e 3e 96 77 41 3c 01 05 b6 3c 50 85 00 be
       0.15523972 0.011808297 0.022219183 -0.12550855
0003f0 38 b8 55 3e 99 7a d0 3d 4a bb f3 bc 97 65 71 3d
       0.20871055 0.10179634 -0.029752392 0.058934774
