results/scoreGoal3/HitTheBall/HitTheBall-8250.pt (torch, 150559 bytes, 13 tensors)

network_body.linear_encoder.seq_layers.0.weight f4 [128, 6]
00000000: e135 1d3f ca63 09be c2e7 2c3e 9836 b9bd
00000010: 9500 ca3e ab8b 9e3e 2350 69bd b872 f4bd
00000020: 8d59 4a3e 909b 363e 83fa a0be 1643 873e
00000030: 1ed8 d03e 7d33 d73d cec0 b5be 9161 013f
00000040: 9e6f 6e3e 17c9 d83e 3924 cbbe ddd6 793e
00000050: c7dd 333e 97f5 16bf bfb6 ab3d 0de2 48bd
00000060: 9294 863e 01f1 6cbf 7f01 e0be dd81 0f3e
00000070: 0caa 8dbd 571b d73e f70a 0cbd 92bf 11bf
00000080: f9f4 063e e4aa 153f 2458 09be c731 6abe
00000090: b5bb 95be d303 263e d833 85be 32a6 3f3d
000000a0: d3be 94bc 9d5e 003d e39d 57bf 8037 a3bd
000000b0: b207 873d 57d4 b1be 64be 76be ae4a 533f
000000c0: d5a1 ab3d 93d6 e33e 4462 bdbe 015b 66be
000000d0: 4100 84bf 914b 28bd bd86 633e 64d2 3cbe
000000e0: ef9b 113f 8aca be3e 9626 dd3e b779 b2be
000000f0: 9ecd 353f 3ec7 12bf 2065 a0be 3aa5 3e3f
00000100: 07f9 34be 07bc e3be 0c30 4d3e afee 4c3f
00000110: 8231 d43f 41a8 72be eba7 e23d e30d 81be
00000120: 1bbb b7be 7634 103f f77d e13e 4412 66bf
00000130: f6a9 ff3d 103f bbbe 20eb 093e f3e7 07bd
00000140: a562 483f 16b6 d93e 16bf 743e 7a18 9e3e
00000150: 917c 33bf e8af d33e 018b 76bf f794 c4be
00000160: ecff 093f b060 89be e870 8bbe 56ab 373e
00000170: 8839 05bf 6298 0dbe e002 913e 70ff e1be
00000180: 416a 56bd 57e3 6abe 5793 a6be d64b 63be
00000190: d55a 3cbe 654a 2bbe d37d 283e 461a 773e
000001a0: 153d de3d af81 e8be f4b2 afbc 4524 4d3e
000001b0: a606 513e 2baa e23e 58a7 2cbe 8c78 c43d
000001c0: 5665 d83d aff6 d4bd df33 bfba be42 66bd
000001d0: b95f e3be 2d32 a0be 4c3d 7e3e 25aa a1be
000001e0: 07ae c9bc e344 22bc 55ba 183f 901e b2bc
000001f0: 8246 cb3d bc7c 5b3d 797d 03bf 2578 2bbe
00000200: 3c94 d83e 8272 393d dce3 f03d 2fa7 243f
00000210: 7638 883e 7bf9 9e3e 56a7 ab3e ccc4 b53c
00000220: b432 ab3e e8b3 fc3e 2ed9 a2bb 188f 33be
00000230: 993e 5c3d 588c 2b3e 514d 033f 80de 7c3d
00000240: 0ace da3e 35d3 c13d 52f1 a53e 160c f73d
00000250: 1537 98be 3819 ca3d b924 0f3f db33 713b
00000260: 7b4b 213e 5d40 763f 413f 0b3d de65 c5be
00000270: b032 913e a8a0 10bf 171a 783d 7a37 3b3f
00000280: 1e43 fb3d c6cb 563f c57d 5ebf afbb b53e
00000290: d6c6 eb3e 2b9c 993e 66c8 56be b630 4fbf
000002a0: 9943 db3e 3e77 3b3f aac6 563e c1c7 c73e
000002b0: 32e1 da3e a9d0 eb3e 24bc 98be 8699 143e
000002c0: 61c1 123f 59d1 143e 4c93 75be 1411 803d
000002d0: 4daa 9e3e eb6d e83d 5f15 dcbe 5944 773f
000002e0: c50a e43e b715 9cbe 0789 fc3e f161 253e
000002f0: 7534 3d3c 931b ecbe 8c3c 5b3f e248 253f
00000300: 8aef 00bf 0f96 2ebf f841 b4bb 9e1c 733e
00000310: 76f6 39bc ef78 88be d321 ad3e da19 5ebc
00000320: b934 c2be 38a9 cc3d ceef 7e3d 3023 63be
00000330: d218 d9be 3348 06bf e893 f9bd f809 d7bc
00000340: a0c6 083f e172 3fbe 2762 60be d98a e739
00000350: 6ab0 05be e02a 45be 900f adbd adbe 59be
00000360: fc16 25bf a800 003e f8d9 4cbf cfd2 a53e
00000370: c79d fa3e 4e6e 143f 849b 47be 84cc 023f
00000380: d4de 413e 4671 48be 6299 8f3e 2a4d 9abe
00000390: bf8e 9e3e ccd0 acbe 3eb1 0b3e 2ed3 4c3f
000003a0: e4e7 c5be cb36 12bd 84bb 083e 4e23 c2be
000003b0: 88a5 8c3e ce6e 3fbf c0d3 3fbe dc51 453e
000003c0: 5093 22be 0624 3ebe c743 1b3f 24b7 aabd
000003d0: 08c3 c5be 10a4 9d3d 48c5 943d 821e e13e
000003e0: 1f43 e3bc 4959 163f 735d f5be 1109 c63e
000003f0: 6188 db3e 4bb6 c0be 0aa1 b5bd 52a0 aabe
0.6141034 -0.13416973 0.16885284 -0.09043616 0.3945357 0.30965933 -0.05696119 -0.11935943
0.19760723 0.1783278 -0.31441125 0.2641837 0.40789884 0.105078675 -0.3549866 0.505395
0.23284766 0.4234092 -0.39676073 0.2439837 0.1756507 -0.5896849 0.083844654 -0.049043704
0.26285225 -0.9255524 -0.4375114 0.14014383 -0.069171995 0.42013046 -0.034190144 -0.5693294
0.13179387 0.58463883 -0.13412529 -0.22870551 -0.29244772 0.16212396 -0.26016116 0.046789356
-0.018157398 0.03134023 -0.8422529 -0.0796957 0.06593265 -0.34732315 -0.24096066 0.8253583
0.083804764 0.44499645 -0.36989033 -0.22495653 -1.0312577 -0.04108769 0.22219367 -0.18439633
0.5687856 0.372639 0.431935 -0.34858486 0.7101687 -0.5733527 -0.31327152 0.74470866
-0.17673121 -0.4447939 0.2003786 0.800517 1.6577609 -0.23696996 0.11067184 -0.25205907
-0.35884938 0.5633005 0.44041416 -0.8987162 0.12483589 -0.3657155 0.134686 -0.03318019
0.7827552 0.42521733 0.23901019 0.3087805 -0.7011195 0.41345143 -0.96305853 -0.383949
0.5390613 -0.2683158 -0.27234578 0.17936453 -0.5204091 -0.1382766 0.28322506 -0.44140196
-0.052347425 -0.22938286 -0.32534286 -0.22196898 -0.18394025 -0.16727598 0.16454248 0.24131116
0.10851494 -0.4541144 -0.021447636 0.20033367 0.20412692 0.44270453 -0.16860712 0.09593305
0.10566203 -0.10398614 -0.0014587602 -0.056215994 -0.44408968 -0.3128828 0.2482807 -0.31575122
-0.024619116 -0.009904119 0.5965932 -0.021743089 0.09925558 0.053585753 -0.5136333 -0.1674505
0.42300594 0.04527522 0.11762211 0.643176 0.26605576 0.31049713 0.33526105 0.022188567
0.3343712 0.49356008 -0.0049697375 -0.17535055 0.053770635 0.16752756 0.5128985 0.06173563
0.4273532 0.09464113 0.32410675 0.12062852 -0.29729524 0.09868091 0.5591541 0.003680459
0.1575145 0.9619196 0.03399587 -0.3855428 0.28358984 -0.5649514 0.060571756 0.73131526
0.12268661 0.83904684 -0.8691066 0.35494754 0.46050137 0.3000196 -0.20974883 -0.809337
0.4282501 0.73228824 0.20974222 0.39019588 0.42749935 0.46057633 -0.2983104 0.1451169
0.5732632 0.14532985 -0.2398197 0.062532574 0.30989304 0.1134909 -0.42985055 0.96588665
0.44539467 -0.30485317 0.49323294 0.16150643 0.011548151 -0.46114787 0.8563926 0.64564335
-0.5036551 -0.6819772 -0.005501028 0.23741385 -0.011350265 -0.26654765 0.33814868 -0.013555968
-0.3793085 0.099932134 0.062240414 -0.22181392 -0.4240175 -0.5245392 -0.12186414 -0.02624987
0.5342808 -0.18696167 -0.21912442 0.00044163203 -0.13055578 -0.19254637 -0.08450234 -0.21264143
-0.64488196 0.1250025 -0.80020094 0.32387397 0.489485 0.5798081 -0.19492918 0.51093316
0.18932658 -0.1957446 0.2804671 -0.30136997 0.30968282 -0.3375305 0.13641831 0.80009735
-0.3865348 -0.035696786 0.13352782 -0.3791756 0.2747004 -0.7477845 -0.1873312 0.19269508
-0.15876508 -0.1856843 0.60650295 -0.083357126 -0.3862536 0.07697308 0.07264191 0.43968588
-0.027741967 0.5872999 -0.4792286 0.38678792 0.42877486 -0.37639078 -0.088686064 -0.3332544

network_body.linear_encoder.seq_layers.0.bias f4 [128]
00000000: 0000 0000 0000 0000 0000 0000 0000 0000
00000010: 0000 0000 0000 0000 0000 0000 0000 0000
00000020: 0000 0000 0000 0000 0000 0000 0000 0000
00000030: 0000 0000 0000 0000 0000 0000 0000 0000
00000040: 0000 0000 0000 0000 0000 0000 0000 0000
00000050: 0000 0000 0000 0000 0000 0000 0000 0000
00000060: 0000 0000 0000 0000 0000 0000 0000 0000
00000070: 0000 0000 0000 0000 0000 0000 0000 0000
00000080: 0000 0000 0000 0000 0000 0000 0000 0000
00000090: 0000 0000 0000 0000 0000 0000 0000 0000
000000a0: 0000 0000 0000 0000 0000 0000 0000 0000
000000b0: 0000 0000 0000 0000 0000 0000 0000 0000
000000c0: 0000 0000 0000 0000 0000 0000 0000 0000
000000d0: 0000 0000 0000 0000 0000 0000 0000 0000
000000e0: 0000 0000 0000 0000 0000 0000 0000 0000
000000f0: 0000 0000 0000 0000 0000 0000 0000 0000
00000100: 0000 0000 0000 0000 0000 0000 0000 0000
00000110: 0000 0000 0000 0000 0000 0000 0000 0000
00000120: 0000 0000 0000 0000 0000 0000 0000 0000
00000130: 0000 0000 0000 0000 0000 0000 0000 0000
00000140: 0000 0000 0000 0000 0000 0000 0000 0000
00000150: 0000 0000 0000 0000 0000 0000 0000 0000
00000160: 0000 0000 0000 0000 0000 0000 0000 0000
00000170: 0000 0000 0000 0000 0000 0000 0000 0000
00000180: 0000 0000 0000 0000 0000 0000 0000 0000
00000190: 0000 0000 0000 0000 0000 0000 0000 0000
000001a0: 0000 0000 0000 0000 0000 0000 0000 0000
000001b0: 0000 0000 0000 0000 0000 0000 0000 0000
000001c0: 0000 0000 0000 0000 0000 0000 0000 0000
000001d0: 0000 0000 0000 0000 0000 0000 0000 0000
000001e0: 0000 0000 0000 0000 0000 0000 0000 0000
000001f0: 0000 0000 0000 0000 0000 0000 0000 0000
0.0 0.0 0.0 0.0 0.0 0.0 0.0 0.0
0.0 0.0 0.0 0.0 0.0 0.0 0.0 0.0
0.0 0.0 0.0 0.0 0.0 0.0 0.0 0.0
0.0 0.0 0.0 0.0 0.0 0.0 0.0 0.0
0.0 0.0 0.0 0.0 0.0 0.0 0.0 0.0
0.0 0.0 0.0 0.0 0.0 0.0 0.0 0.0
0.0 0.0 0.0 0.0 0.0 0.0 0.0 0.0
0.0 0.0 0.0 0.0 0.0 0.0 0.0 0.0
0.0 0.0 0.0 0.0 0.0 0.0 0.0 0.0
0.0 0.0 0.0 0.0 0.0 0.0 0.0 0.0
0.0 0.0 0.0 0.0 0.0 0.0 0.0 0.0
0.0 0.0 0.0 0.0 0.0 0.0 0.0 0.0
0.0 0.0 0.0 0.0 0.0 0.0 0.0 0.0
0.0 0.0 0.0 0.0 0.0 0.0 0.0 0.0
0.0 0.0 0.0 0.0 0.0 0.0 0.0 0.0
0.0 0.0 0.0 0.0 0.0 0.0 0.0 0.0

network_body.linear_encoder.seq_layers.2.weight f4 [128, 128]
00000000: 7c6c 2a3d 3e5e a1bc ad7f 6fbd 2ba6 463d
00000010: 944a ccbd 7af3 bdbb f126 4d3d 3f7d 63bc
00000020: 1959 b2bc 34ae 383a 999c 4bbd e7d4 09be
00000030: 740c 723d 285c 753d 9ce0 a8bd c5ed 6c3d
00000040: 9d00 66be 8a0c 62be 1441 00be e326 523e
00000050: 7eda 853d bf5c 5ebe 908f edb9 1e4f 43be
00000060: e58f cb3d 5e3e 22ba 9707 cf3d 471c b7bc
00000070: 9a55 9fbd 8523 92bc 7288 43bd ae66 0abe
00000080: 2350 40bd 4b71 843c fe58 683d cf5f 3cbd
00000090: e62e 07bd c322 2e3e ba68 b3bd 5195 973c
000000a0: 2b18 623e 5d6b dfbd 4a53 c83b d52e 973e
000000b0: 75d2 48bc 0f60 7fbd b894 f83d 56fd 8dbd
000000c0: 17bb 14be 81df 313d e264 07be cd19 89bd
000000d0: 4b06 d03d 51fa 8b3b 00b5 1fbe 4e65 293d
000000e0: 748e 9a3d c874 02bd 68b4 2f3c e6cb 86bd
000000f0: 9a50 d73d 0729 153e 481c d1bd 175c 353e
00000100: 0b2d 87bd 0722 b43d ba56 aabd 5100 26bc
00000110: f4b7 37be 2ed3 0d3d a20d 0d3e eade 69bd
00000120: b6e4 313c c927 62bd 8431 33bc e244 2a3e
00000130: cbea 2c3e 6178 88bd bcd5 35bc 4732 0bbe
00000140: a509 373d 57e4 94bd 7458 b7bd c903 d6bc
00000150: 77aa 90bc 06e2 2b3c e654 63bd f26c 5fbd
00000160: 0a75 ea3c c672 2ebe b842 a2bd 861e 86bd
00000170: 8352 df3c b879 9ebd 4097 0f3e 8e18 363b
00000180: 49f9 433e dd63 ba3d f70b 303d 335b 57bd
00000190: 2ed5 00be 9ca2 313d 1d71 6b3c 591e a33c
000001a0: 6f57 3a3d e260 463e 8679 47bd 9b37 8e3d
000001b0: 859f 50bd 4d00 a23d 499e 373d 9ca4 5cbd
000001c0: de6a cfbd 209b c33d 791b 5fbd 9cfa 16be
000001d0: ce97 e8bd b15a 86bd 7c9c 60bd 7ab9 ef3d
000001e0: 955d 21be ea20 b23d bd8d b13d 59da 01be
000001f0: f728 81bc 7edc 56bd 6cbb 1c3d 3bec cebd
00000200: a115 b7bd bc6c 9e3b 435c 94bd 2831 0abe
00000210: a28f 063e c9d2 073c 123e 933d 89d4 8bbd
00000220: 7a91 bd3c f094 35bc 1ea2 e2bc 45bb 013e
00000230: 7b1b a5be 3fd1 883d 5d4a debd 56cd 8abd
00000240: cadb 16bc a84a 84bc 3b16 17bd 8ce7 27bd
00000250: e44d 97bd c6e1 66bd ce9e 8dbb 2bc8 79bd
00000260: 02a4 833d db16 a7bc b612 4f3e 7dac 583c
00000270: 0f2c 243e f34a 503e efaa 523c a641 eebd
00000280: b26f f1bd c158 893d 1862 c73c 9277 d6bd
00000290: 2781 803d 51c1 bb3d e4c8 3b3c aca5 16be
000002a0: ca68 5cbd 94bd 183e 08b3 093d ef85 94bc
000002b0: efae 91ba 929f 413e e030 243d 3f24 2fbe
000002c0: afe4 973d 3e0b 15bd b7ef 16bd 9c02 423d
000002d0: afa2 c83c da7d 80bd 9e1a 733d f41a 123e
000002e0: b099 92bc c5bf a6bd d708 a3bc 67d5 883d
000002f0: 8e9f d73d ecc9 aebd fa15 4aba 82ae 9bbd
00000300: 2fee a83d 996e 1dbd 6625 8abc 69d3 0e3e
00000310: 8761 d33d 7dcc 7d3d 00d9 973d 895e d6bd
00000320: cbc5 6d3d 7b14 d23d 6fcd 1e3e facd 7d3b
00000330: 6130 d0ba 2f36 763d 6a8d 99bd 3c6d 70bd
00000340: 0f84 8e3d 3930 e2bd 5952 17bd af77 393d
00000350: 9eb0 f0bd 2acf 043e 5f7d 5c3e 61fb 42bd
00000360: 33c9 b23c 913a 273d 26d4 88bd 7819 afbd
00000370: 9475 593d 3cb1 2f3e 52e0 98be 588a f3bd
00000380: 0291 00be c839 00be 1223 d53c 4bd8 e7bd
00000390: fc20 45be d941 70bd 1694 ea3d a210 373d
000003a0: a584 bbbd 571c 3c3e 3ff9 1bbe 96b7 a43d
000003b0: 0599 c33c 165d a33c 07e6 883d 1d90 e23c
000003c0: f9a9 a03b e74d c33c e416 17bc ddfe 963d
000003d0: 94af ccba a6ce 613d ed48 91bd 6f0b 70bb
000003e0: 967e 3a3d 95d7 c1bd 6166 463c 067a 1dbe
000003f0: 7432 8a3c 2c89 0ebd ba6b 5cbd ab5e 90bb
0.041607365 -0.019698258 -0.05847137 0.048498314 -0.09975162 -0.005796847 0.050085966 -0.013884841
-0.021771 0.0007045001 -0.04970989 -0.13460122 0.059093907 0.05990234 -0.08245966 0.057843942
-0.22461171 -0.22075096 -0.12524825 0.20522647 0.06535815 -0.21715067 -0.00045311125 -0.1907315
0.09939555 -0.0006189103 0.101088695 -0.02235235 -0.07779999 -0.017839203 -0.047737546 -0.13515732
-0.046951424 0.016167304 0.056725495 -0.045989808 -0.03300371 0.17005448 -0.087602094 0.018503817
0.22079532 -0.1090915 0.0061134445 0.29527918 -0.012257208 -0.062347468 0.12137741 -0.069330856
-0.14524494 0.04342604 -0.13222077 -0.06694374 0.1015745 0.0042717834 -0.1559639 0.041356377
0.07546702 -0.031849653 0.010724165 -0.06581859 0.105134204 0.14566432 -0.10210472 0.1771091
-0.06600388 0.08795553 -0.08317323 -0.010131911 -0.17941266 0.034625225 0.13774732 -0.057097353
0.010857752 -0.055213723 -0.010937098 0.16627839 0.16886441 -0.066635855 -0.0110983215 -0.13593398
0.044686932 -0.07270115 -0.08952418 -0.026124852 -0.017659409 0.0104909 -0.055500887 -0.054547258
0.028620262 -0.1703597 -0.07922882 -0.06548791 0.027261024 -0.0773806 0.14022541 0.0027785632
0.19138063 0.09101079 0.04298016 -0.05257721 -0.12581322 0.043367967 0.01437023 0.019911932
0.04549354 0.19372895 -0.04869988 0.069442 -0.05093338 0.079102136 0.044828687 -0.05386792
-0.10127805 0.09551072 -0.05446956 -0.14744037 -0.113570794 -0.06560267 -0.054836735 0.11705299
-0.15758355 0.08697684 0.086696126 -0.1268095 -0.015766604 -0.05245637 0.038264677 -0.10103651
-0.08939672 0.0048347395 -0.0724416 -0.13495314 0.13140729 0.008290001 0.07189573 -0.06827647
0.023140658 -0.011082873 -0.027665194 0.12669094 -0.32247528 0.066805355 -0.108540274 -0.06777446
-0.009207675 -0.01614888 -0.036886435 -0.040992305 -0.07387903 -0.056367658 -0.0043219095 -0.06098191
0.064277664 -0.02039664 0.20221981 0.013224718 0.16032432 0.20341091 0.012858137 -0.11633615
-0.11788882 0.067063816 0.024338767 -0.10472025 0.06274634 0.091677316 0.01146147 -0.14711636
-0.053810872 0.14916068 0.033618003 -0.01813027 -0.0011114756 0.18908527 0.040085673 -0.1710367
0.07416665 -0.036387675 -0.036849704 0.04736577 0.024491636 -0.06274004 0.059351556 0.14268094
-0.01789555 -0.08142046 -0.019901676 0.06681328 0.105284795 -0.08534607 -0.0007708963 -0.07601644
0.08248555 -0.038435552 -0.016863536 0.13947834 0.10321336 0.061962593 0.07414436 -0.1046725
0.05804996 0.102578126 0.15508054 0.0038727508 -0.0015883559 0.060110267 -0.07497676 -0.058697924
0.06958782 -0.11044354 -0.036943767 0.045280155 -0.11752437 0.12969652 0.215322 -0.047603015
0.021824455 0.040827338 -0.06681089 -0.0854978 0.053090647 0.17157453 -0.29858643 -0.11891621
-0.12555316 -0.12522042 0.0260177 -0.113205515 -0.19250864 -0.058656547 0.114540264 0.044693597
-0.09156159 0.18370186 -0.15231799 0.08042829 0.023876676 0.019941848 0.06684499 0.02765661
0.004903075 0.023840858 -0.009221766 0.0737283 -0.0015616291 0.055128716 -0.070939876 -0.0036627909
0.045530878 -0.09464947 0.01210937 -0.1537858 0.016869761 -0.034798786 -0.053813674 -0.0044058166

network_body.linear_encoder.seq_layers.2.bias f4 [128]
00000000: 0000 0000 0000 0000 0000 0000 0000 0000
00000010: 0000 0000 0000 0000 0000 0000 0000 0000
00000020: 0000 0000 0000 0000 0000 0000 0000 0000
00000030: 0000 0000 0000 0000 0000 0000 0000 0000
00000040: 0000 0000 0000 0000 0000 0000 0000 0000
00000050: 0000 0000 0000 0000 0000 0000 0000 0000
00000060: 0000 0000 0000 0000 0000 0000 0000 0000
00000070: 0000 0000 0000 0000 0000 0000 0000 0000
00000080: 0000 0000 0000 0000 0000 0000 0000 0000
00000090: 0000 0000 0000 0000 0000 0000 0000 0000
000000a0: 0000 0000 0000 0000 0000 0000 0000 0000
000000b0: 0000 0000 0000 0000 0000 0000 0000 0000
000000c0: 0000 0000 0000 0000 0000 0000 0000 0000
000000d0: 0000 0000 0000 0000 0000 0000 0000 0000
000000e0: 0000 0000 0000 0000 0000 0000 0000 0000
000000f0: 0000 0000 0000 0000 0000 0000 0000 0000
00000100: 0000 0000 0000 0000 0000 0000 0000 0000
00000110: 0000 0000 0000 0000 0000 0000 0000 0000
00000120: 0000 0000 0000 0000 0000 0000 0000 0000
00000130: 0000 0000 0000 0000 0000 0000 0000 0000
00000140: 0000 0000 0000 0000 0000 0000 0000 0000
00000150: 0000 0000 0000 0000 0000 0000 0000 0000
00000160: 0000 0000 0000 0000 0000 0000 0000 0000
00000170: 0000 0000 0000 0000 0000 0000 0000 0000
00000180: 0000 0000 0000 0000 0000 0000 0000 0000
00000190: 0000 0000 0000 0000 0000 0000 0000 0000
000001a0: 0000 0000 0000 0000 0000 0000 0000 0000
000001b0: 0000 0000 0000 0000 0000 0000 0000 0000
000001c0: 0000 0000 0000 0000 0000 0000 0000 0000
000001d0: 0000 0000 0000 0000 0000 0000 0000 0000
000001e0: 0000 0000 0000 0000 0000 0000 0000 0000
000001f0: 0000 0000 0000 0000 0000 0000 0000 0000
0.0 0.0 0.0 0.0 0.0 0.0 0.0 0.0
0.0 0.0 0.0 0.0 0.0 0.0 0.0 0.0
0.0 0.0 0.0 0.0 0.0 0.0 0.0 0.0
0.0 0.0 0.0 0.0 0.0 0.0 0.0 0.0
0.0 0.0 0.0 0.0 0.0 0.0 0.0 0.0
0.0 0.0 0.0 0.0 0.0 0.0 0.0 0.0
0.0 0.0 0.0 0.0 0.0 0.0 0.0 0.0
0.0 0.0 0.0 0.0 0.0 0.0 0.0 0.0
0.0 0.0 0.0 0.0 0.0 0.0 0.0 0.0
0.0 0.0 0.0 0.0 0.0 0.0 0.0 0.0
0.0 0.0 0.0 0.0 0.0 0.0 0.0 0.0
0.0 0.0 0.0 0.0 0.0 0.0 0.0 0.0
0.0 0.0 0.0 0.0 0.0 0.0 0.0 0.0
0.0 0.0 0.0 0.0 0.0 0.0 0.0 0.0
0.0 0.0 0.0 0.0 0.0 0.0 0.0 0.0
0.0 0.0 0.0 0.0 0.0 0.0 0.0 0.0

action_model._continuous_distribution.log_sigma f4 [1, 2]
00000000: 0000 0000 0000 0000
0.0 0.0

action_model._continuous_distribution.mu.weight f4 [2, 128]
00000000: 0fde 603c dd69 a93c d2df 7d3c 87ba 2dbb
00000010: 0616 c83b 481d 27bc b322 18bc c0a1 c93b
00000020: f3b2 943c 852d d73a 8598 353d 0595 19bc
00000030: ea48 7a3c fdd3 443d d76e bc3a 75ef 583b
00000040: 888c 28bb e3cd 3fbc d7ef 57bc cd59 98bc
00000050: 1ad3 b33c 6a2f b53c 3be4 a8bc c399 98bb
00000060: d1ad 1b3c 47f1 cd3c 344d 3d3c a70a 53bc
00000070: ca94 2bbc adfd 603c 1793 abbc 42a0 cdbc
00000080: f525 4fbc 2971 3fbc 7d04 993a 0072 523c
00000090: 6964 953c 8a63 273d 3359 b03b 5937 83bc
000000a0: 47b6 8cbc fd4f 0bbb 7ec6 19bd 9a79 29bc
000000b0: 70f0 2cbc 8541 8dbc 9a58 bcbc 82e0 c83c
000000c0: 7704 04bd ab53 5fbc a2d2 a93b cd07 e2bb
000000d0: 1b6c 3f3b 950e 4f3c 4206 213d fbb8 85bc
000000e0: 4d7f de3b cfcb 04bd 6be0 fa3b 5be3 c9bc
000000f0: ed57 a33b 7b48 f6ba 2ada ab3b afd4 f13b
00000100: 6f59 c5bc d732 503c b360 e13b 81cb 063c
00000110: f315 a93c 4ba1 54bc 1513 063b 0726 89bc
00000120: e542 fdbc 8de3 69bc 3f08 723c 33a1 c0bc
00000130: 35cb 2c3c 94b3 acbc fd1b 6b3c c890 15bc
00000140: 8b71 9b3b ffd6 32bc 1e15 40bb 57c2 dfbb
00000150: fd6a 893c d3d5 0c3c 0ad4 dcbb 72cf 843c
00000160: 7b78 39bc e7da 243c 20fd 153a 3b93 843c
00000170: cb36 27bc d292 663c 0721 63bc 858e 58bc
00000180: e91d cb3c 3871 043c d200 6c3c a7aa 7abc
00000190: 1761 553c 3063 f33a 4f42 6c3c 53a4 b2bb
000001a0: 88a6 9b3c 18d7 853c de6a 80bc ff3c 2ebc
000001b0: 938a f2bc 6b67 ebbc b25b 07bd 95d1 b5bc
000001c0: 6dd1 dfbc e29d 90bc 7472 2abc 8ee0 883c
000001d0: 66f3 26bc 6658 103d a353 93bc 45c6 d53c
000001e0: bb67 26bb 5337 cb3c 6d2c 713b 98e7 06bd
000001f0: a443 4c3c c4ff c0bb 72f4 763b e066 8a3c
00000200: 83a9 133d 4039 eabc edae ba3c 128b 9abb
00000210: 95b4 7a3c ed4a 7d3c 53cb 0ebd d5f5 2c3b
00000220: c9fa 333c 1b87 0bbc 85ae f03b e0ca 13bb
00000230: 482a 52bd 1693 36bb e327 033d 5f22 bb3c
00000240: dca3 803a aa76 d73c 238b 223d a341 e93b
00000250: 8632 25bd df46 d13b 0416 b738 15f4 6ebc
00000260: 63ec 25bc 682f 773c 8fd2 4e3a 842f 813c
00000270: 5d56 4f3b c3ff 893b 4617 9a3c f0f1 d23b
00000280: 52ed ab3c cbda 47bc 5ce8 01bd d4ba 143c
00000290: 9a63 53bc 4757 1abc 77a9 e3bc c31f fa3c
000002a0: 33fa f5bb 8b95 9c3b 3a4c d43a 81a8 bcba
000002b0: 90a0 3fbb b3cd a53c 92b5 393c 82aa f13b
000002c0: 8ffd fbbc 8c20 9b3c 73f1 ae3c 1d67 88bc
000002d0: 925e 113b 40c7 9abc 218b 2e3c df01 683c
000002e0: 4df8 44bc 1d59 773c d7c8 6d3c 4319 663c
000002f0: 9b98 153c 536f b3bc b2bd 0cbc 9a7a 9e3c
00000300: 607e e93b 8df1 de3c e0f8 5bbd 465d bfbc
00000310: 2c73 263d 378c 793a f65b 28bd b76f 86bc
00000320: bac8 f93c 6dcc 5d3c 9619 34bd 24aa cbbc
00000330: d4e6 1ebd ee05 0f3d 54d8 32bc 5c77 46ba
00000340: 4413 38bc c765 203c e7b3 b63b cefa b73c
00000350: 5b17 843c 7db6 423a c766 fa3b 38b3 05bd
00000360: 5bd8 e43b 0f57 a33c 472d 263c ea3f ebba
00000370: 42a9 f6bb f25d 48bc 18f2 f3bb f714 873d
00000380: fae0 693b 0ae8 253b 5739 63bc d6ff 85bb
00000390: 65c6 8cbc 88b1 7cbc 271a e2bb cb19 a13b
000003a0: 23ff b3bb cd47 bcbc 0f57 433a 0917 453c
000003b0: 74b6 333c bd80 313c cbf8 beba 3d4c 46bc
000003c0: 2150 b13b c22b 57bb 1de8 cdbc cdb6 dd3a
000003d0: d5fe b53c d089 f5ba bd02 c13a c1d3 18bb
000003e0: 9602 10bc 72bf f9bb d91c 923c 0ccc 38bc
000003f0: 9702 6b3c 121e deba adc2 70bc cd62 6f3b
0.013724818 0.020680362 0.015495257 -0.0026508884 0.006106141 -0.010199852 -0.009285617 0.0061533153
0.018151736 0.0016416764 0.044334907 -0.009373908 0.015276173 0.04805373 0.0014376295 0.0033101712
-0.0025718529 -0.011706802 -0.013179741 -0.018597508 0.021951247 0.022117335 -0.020616641 -0.0046570017
0.00950189 0.025139464 0.011554051 -0.012880958 -0.010472486 0.013732356 -0.020944161 -0.025100831
-0.012643327 -0.011684694 0.0011674311 0.0128445625 0.018236356 0.040866412 0.005381727 -0.016017603
-0.01717676 -0.0021257394 -0.037542813 -0.0103439335 -0.010555372 -0.017243156 -0.022991467 0.024521116
-0.03223082 -0.013630788 0.00518258 -0.0068979026 0.0029208723 0.012637754 0.03931261 -0.016323557
0.006790078 -0.03242093 0.0076561472 -0.024644544 0.004984847 -0.0018789911 0.005244513 0.00738009
-0.024090497 0.012707434 0.0068779825 0.00822723 0.020640349 -0.012977908 0.002045815 -0.016741766
-0.030915687 -0.014275444 0.014772474 -0.023514366 0.010546495 -0.021081723 0.014349935 -0.009128757
0.00474376 -0.010915517 -0.0029309462 -0.006828587 0.016774649 0.008595902 -0.006739144 0.016212199
-0.011320229 0.010061956 0.00057216175 0.016183486 -0.010205935 0.014073091 -0.013862855 -0.013217573
0.024794536 0.008083634 0.014404492 -0.015299476 0.013023636 0.0018568989 0.014420106 -0.005451718
0.019000307 0.016337916 -0.015675958 -0.01063466 -0.029607093 -0.028735837 -0.03304643 -0.022194663
-0.027321542 -0.01765341 -0.010403264 0.016708639 -0.010189867 0.035240553 -0.017984217 0.026095519
-0.0025391418 0.024806654 0.0036800161 -0.03293571 0.012467299 -0.0058898646 0.0037682322 0.016894758
0.03605033 -0.028591752 0.02278849 -0.0047162855 0.015301843 0.015459758 -0.034861874 0.0026391644
0.010985085 -0.008516098 0.007345023 -0.0022551343 -0.051309854 -0.0027858666 0.03202046 0.022843538
0.0009814459 0.0263017 0.039683472 0.00711842 -0.040331386 0.0063866223 8.730221e-05 -0.014584561
-0.01012716 0.015086986 0.0007889652 0.015769728 0.003163717 0.0042113974 0.018809926 0.0064375326
0.020987187 -0.01219816 -0.031715736 0.009077746 -0.012902165 -0.009420223 -0.027790768 0.030532723
-0.0075066327 0.004778569 0.0016197034 -0.001439348 -0.002923999 0.020239687 0.011334794 0.0073750624
-0.030760555 0.018936418 0.021355366 -0.01665073 0.0022181612 -0.018893838 0.010653288 0.014160602
-0.01202209 0.01509693 0.014513216 0.014044109 0.009130622 -0.02190367 -0.008590149 0.01934557
0.007125661 0.02721479 -0.053704143 -0.023359906 0.04063718 0.000951949 -0.041103326 -0.016410692
0.030491222 0.013537508 -0.043969713 -0.024861403 -0.038794354 0.034917764 -0.010915834 -0.00075708865
-0.011235062 0.009789891 0.0055756452 0.02245846 0.016124418 0.00074277056 0.0076416465 -0.03264162
0.0069837994 0.019938974 0.010142631 -0.0017948125 -0.0075275013 -0.01222943 -0.0074446313 0.065957956
0.0035687075 0.0025315308 -0.013868651 -0.004089336 -0.017184446 -0.015423186 -0.0069000903 0.004916405
-0.005493061 -0.022983456 0.00074516324 0.012029418 0.010968793 0.010833916 -0.0014569996 -0.012103138
0.0054111634 -0.0032832478 -0.025135094 0.0016915441 0.02221624 -0.0018733088 0.0014725548 -0.0023319575
-0.008789679 -0.007621699 0.017836021 -0.011279117 0.014343879 -0.0016946218 -0.014694852 0.0036527396

action_model._continuous_distribution.mu.bias f4 [2]
00000000: 0000 0000 0000 0000
0.0 0.0

action_model._discrete_distribution.branches.0.weight f4 [1, 128]
00000000: f0a5 423c 98da c8bb bbfa 1cbc 4ae5 62bc
00000010: 3e20 44bb e2cd 6dba 67fd 95bb d350 113b
00000020: c742 0d39 cdd5 cdbb 0944 973c 474a 4eba
00000030: 5d6a 85bb 8753 42bc 4fc8 a1ba a943 453b
00000040: 8b64 07ba fc95 883c bf05 973b 7bc2 553c
00000050: e2b2 753a 1376 3c3c b707 b2bb c477 ab3a
00000060: 1af9 7fbb af89 17bc 5fe0 4dbb d04d e13b
00000070: a890 ddbb cbed 6d3a 7cf8 b3bb 1fb1 32ba
00000080: b8a2 f73b 6fa4 3c3b dab7 bc3c 73a8 0bbc
00000090: 2fb7 34bb e824 1c3c 7d4f 1abc 64d8 8bba
000000a0: 65a1 e536 ffb5 183c d801 3dbb f331 b9bb
000000b0: 123b 24bc e8f9 3e3b 6bf6 c1bb 4ff5 febb
000000c0: 868f 00bc 8b16 053c 9d13 353c dfe0 b03b
000000d0: 9855 373b 5b00 80bb 79be 15b7 efd2 8ebb
000000e0: 8540 9cbc 560a a73a f7dc b6bb 7403 b839
000000f0: b254 48bc 9ba6 eeba 4d05 5b3b e0cf fdbb
00000100: 03b6 733a 6f90 95bb cf9b 9b3a 0a0e 1e3c
00000110: fc4b 93ba 79cb 333c b863 49bb c538 8b3c
00000120: 0bdf cc3a e2ad a7bb dfc2 a5ba 6d98 be3b
00000130: 0e7c 9b3a 1fd1 bcbb 9fdc bd3b 1534 64ba
00000140: 1b79 473c 7d79 13bb 67e1 163b 3b2c 02bb
00000150: c8eb 61bb 3d7d 7bbc 6203 c33a aba4 0fbb
00000160: dbde 893b 7f4d 03bc 994e 033b 93c6 48bb
00000170: 0f45 223c 8a7b 21bc 7bab 31bc f4a9 133c
00000180: 7621 353c 0a25 f43b c599 c3bb 2721 d5bb
00000190: 63fa f63b be2b 22ba 97ce 0dbc f8cb 5d3c
000001a0: 6bef b939 e3b9 a6bb b3bd 80bb 2021 70bc
000001b0: 55bd 04bb 1b4b 8bbc f8e9 61b7 b3e1 7b3b
000001c0: 02ed f4b9 76ac 82bb a886 1fbc 233a 943c
000001d0: 47da 003b 4b75 e83b 462f 21bb 5f77 d1bb
000001e0: 4f10 d93a 0f2d dd3b cf0d cdbb 5dd8 7dbc
000001f0: d76f bb3b 2348 a63b 8b90 90bb cc62 44bc
0.011880383 -0.006129574 -0.009581263 -0.013848612 -0.0029926444 -0.00090715114 -0.004577327 0.002217342
0.00013471684 -0.0062815906 0.018465059 -0.00078693446 -0.0040715174 -0.011860735 -0.0012343022 0.0030100143
-0.00051648234 0.01667308 0.0046088393 0.013046856 0.0009372664 0.01150276 -0.0054330486 0.0013081958
-0.0039058388 -0.009249135 -0.0031414253 0.006875731 -0.006761629 0.00090762664 -0.005492268 -0.0006816554
0.0075572394 0.0028784533 0.023036886 -0.008524048 -0.0027575006 0.0095302835 -0.009418366 -0.0010669348
6.8435206e-06 0.009320735 -0.002884021 -0.0056517064 -0.010023849 0.0029140655 -0.005919268 -0.007780708
-0.007846719 0.00812305 0.011052039 0.0053979005 0.0027974602 -0.0039062924 -8.92544e-06 -0.0043586413
-0.019073734 0.0012744169 -0.0055805403 0.00035097788 -0.012227224 -0.0018207611 0.0033419908 -0.007745728
0.0009296836 -0.004564337 0.0011871996 0.009646902 -0.0011237855 0.010973805 -0.0030729603 0.016994843
0.0015630437 -0.005117164 -0.0012646577 0.0058165104 0.0011862533 -0.005762234 0.0057941223 -0.00087052706
0.01217487 -0.0022502833 0.0023022534 -0.001986279 -0.0034472812 -0.015349683 0.0014878327 -0.0021918218
0.0042074746 -0.008014082 0.0020035862 -0.0030635938 0.00990416 -0.009856114 -0.010844107 0.009012688
0.011055341 0.0074507045 -0.0059692585 -0.006504196 0.0075371726 -0.00061863277 -0.008655212 0.0135373995
0.0003546433 -0.0050880774 -0.003928864 -0.014656335 -0.0020254452 -0.017003587 -1.346552e-05 0.0038434088
-0.0004671589 -0.003987844 -0.009736694 0.018094128 0.0019661353 0.0070940605 -0.0024594828 -0.006392404
0.0016560646 0.006749756 -0.0062577496 -0.01549348 0.0057201195 0.0050745173 -0.004411762 -0.011986446

critic.network_body.linear_encoder.seq_layers.0.weight f4 [128, 6]
00000000: 9f1d 8b3d 08d6 593e 4539 573e 8cf6 debe
00000010: 8a4e 143f 063f e83e d978 843e a930 11be
00000020: 8b2b 91be e593 f43e dda9 57bf 16b7 03bf
00000030: 3e39 823e 0532 ce3e 0e66 003f 72dd 633f
00000040: 99dc 58bf 4cf2 cbbe e7ac be3e 84cf 25bf
00000050: cd9d 5bbd 89b1 ad3e 041d fb3e e65c a23e
00000060: f247 313f ec54 56be 8ba2 d1bd d6a3 213c
00000070: c13f de3e 6d93 953e ebb5 d9be ffc1 b73e
00000080: 2ece 813f 75c8 7d3d dfc0 9d3e 1f10 d6be
00000090: 8d12 68be 7203 083e ab45 9a3e 8b56 00be
000000a0: 5f45 b83e 03cd b7bd 1af6 4b3f e143 78be
000000b0: 20c2 eebe 3b38 303d 4163 c5be 597b 32be
000000c0: 23b6 0fbe c738 07be 54b2 e83e 0f51 203f
000000d0: 6f2c 01be 413c 0b3f 5b94 65be d16c e4be
000000e0: c570 2c3f 2f04 bcbc ae08 90bd 2c42 d5be
000000f0: d83b 40bd 10cf 0abe 10c2 ab3e d9cf f43e
00000100: 1cfa f2be 0cbb 0cbf 9d61 7a3d 76b8 d53e
00000110: 9f71 06bf 385c 243b ad24 0fbe 5b45 dabe
00000120: f518 f13e 7a0e aa3e 59ea 5d3f be8a 8e3f
00000130: 50dc 7b3e aefc 0cbf 01bd cabe 0c31 103f
00000140: 8f9b d7bd d3db b0be 3953 18bf ff1d a4be
00000150: 16fe a7bd f447 87be f598 2fbe 65db 5e3f
00000160: 8025 cbbe 3052 74be cca4 133e 4de8 df3e
00000170: 3ad8 03bf ad0e 913e a28b 9b3e 1356 0d3d
00000180: fb52 433f 3d01 b2bd 2ad8 51bf 6461 5a3f
00000190: 5967 15be 754d 633b 51bc 95be 0ac8 c23c
000001a0: 545c 86bd 6474 f63e e9ba 85be cd64 c8ba
000001b0: b79e 0c3e 09ba dd3e acf2 05bf 6d5d 66bf
000001c0: fe06 4dbf 3942 8d3e 4e55 d4be f58f 92be
000001d0: b803 e93e b62b d6be ea51 8e3e 86d0 883e
000001e0: 3cb8 95bd 678e c03e 5f90 c13e 628d dbbd
000001f0: 76d8 b4be 3c3c edbe 41a3 c03e d483 a03e
00000200: b3e2 c3be d8c0 4b3f e8f0 b2be 16d0 86bb
00000210: d1a1 4dbf 16d4 063d f12a 3a3c 0195 cdbd
00000220: d94a 3cbd e327 fbbe 9eff 5ebe d042 b1be
00000230: 6d3d 1c3e a221 533f 7b9f aabe 292b 993e
00000240: a036 75bf 9ce2 66be 8393 5b3d be74 3c3f
00000250: cddc b63e 4dc8 093f 3d23 91be ef47 523e
00000260: 0e53 823e d0dc b53e 6b65 8ebf 0d92 d73e
00000270: 71ce 3e3e 7547 7fbe d331 19bf e428 39bf
00000280: c9ef 893e 3f89 40be c275 8bbc b3d1 c53d
00000290: 7671 003f b949 7c3e b743 36be 983a 7cbe
000002a0: d92b 1cbc 7c77 f3be 40ce 263e 97f9 a3bd
000002b0: a38b 0cbe 88f8 8e3e af52 103f 4d5e 133d
000002c0: 56f7 063f acdc 7b3e e137 f03e 3c29 043f
000002d0: f4e2 e73e fb73 43bd a0b0 233f 3a26 cfbe
000002e0: fff0 3b3e dca6 053f 4a33 28bf e09c edbc
000002f0: f698 bd3e 0655 05bf 9a38 cfbd 5a0c c53e
00000300: 856b 9bbe f88d a13e a548 493e c619 7c3d
00000310: 2fbf a0bd 0187 12bf 9d3d 153e 7dc0 87be
00000320: de80 0bbe 5f2e fcbe 07a7 273e 79db ca3e
00000330: 64d4 dd3d 98fc 5cbd 68da 9ebe fd0e d9be
00000340: 1cc8 063d bd4a 96bd 9ae4 82be 7136 cabe
00000350: d3ce 243d 05c9 02bf 19d0 833e 0c5c e93d
00000360: f8e6 d6be 06c0 ddbe 4cf7 403d 2b11 813f
00000370: f327 d7be 5060 b1be f77a 81be 1ad8 2abf
00000380: fdff ad3d f9c7 46be d679 bd3e 7991 113f
00000390: 4114 893e 142b 11be f3aa 413f 0fd9 533e
000003a0: a13b 023f 773b 07bf 50b4 87be 5b8f ea3e
000003b0: 92af a13e dab5 47bf 4b7c c03e 9771 fb3d
000003c0: c4bc 05bf 8850 c6bd b508 f4bd ccb8 06bf
000003d0: 114b 3c3f 8b88 ecbe 6e2b 68be c9d7 f9be
000003e0: a8ff 2f3e 2cd2 b8be e908 a13e b6c2 54bd
000003f0: 17f9 15bf d440 053d 5ebc d9be fd22 d63e
0.06792759 0.21273053 0.2101794 -0.43547475 0.5793234 0.45360583 0.2587345 -0.14178719
-0.28353533 0.47769085 -0.84243566 -0.5145124 0.25434297 0.40272537 0.50155723 0.89009774
-0.84711605 -0.39833295 0.3724129 -0.6476977 -0.053617287 0.3392451 0.49045575 0.317115
0.69250405 -0.20930833 -0.10236081 0.009865722 0.43408015 0.2921404 -0.42521605 0.35890195
1.0141046 0.06195875 0.3081121 -0.41809174 -0.22663327 0.13282564 0.30131277 -0.12533014
0.35990426 -0.0897465 0.79672396 -0.24244644 -0.4663248 0.043022376 -0.38552287 -0.17429866
-0.14034323 -0.13205253 0.45448554 0.62623686 -0.12614606 0.54388815 -0.22419874 -0.4461427
0.6735957 -0.022951214 -0.070329055 -0.41652048 -0.04693207 -0.1355555 0.33546495 0.47814825
-0.47456443 -0.5497291 0.061128248 0.41742295 -0.5251712 0.002507938 -0.13978834 -0.4263104
0.47089353 0.3321417 0.8668571 1.1136091 0.24595761 -0.5507306 -0.39597324 0.5632484
-0.10527717 -0.34542713 -0.5950199 -0.32054135 -0.0820276 -0.26422083 -0.17148192 0.8705352
-0.39677048 -0.23859477 0.14418334 0.4373192 -0.5150181 0.2833151 0.3037997 0.034505915
0.76298493 -0.086916424 -0.81970465 0.85304856 -0.14590205 0.003468362 -0.29245237 0.023777027
-0.06560579 0.48135674 -0.26119164 -0.001528883 0.1373242 0.43305996 -0.5232341 -0.89986306
-0.80088794 0.27589586 -0.41471332 -0.28625455 0.4551065 -0.41830224 0.2779687 0.2672159
-0.073105305 0.37608644 0.3780546 -0.10720326 -0.35321397 -0.46335018 0.37624553 0.31350577
-0.38258895 0.7959113 -0.34949422 -0.0041141612 -0.8032504 0.032917105 0.011362777 -0.10038186
-0.045969818 -0.4905387 -0.21777198 -0.34621286 0.15257807 0.82473195 -0.333248 0.2991574
-0.95786476 -0.22547382 0.053607475 0.73615634 0.35715333 0.5382126 -0.28347197 0.20535253
0.2545399 0.3552003 -1.11247 0.42103615 0.18633439 -0.24929602 -0.5984165 -0.7232802
0.26940754 -0.18802355 -0.017023925 0.096591376 0.5017313 0.24637498 -0.17799269 -0.24631727
-0.0095319385 -0.47552097 0.16289616 -0.0800659 -0.13725142 0.2792399 0.56376165 0.035978604
0.52721155 0.24595898 0.46917632 0.5162542 0.4529034 -0.04771803 0.63941383 -0.40458852
0.18353651 0.5220773 -0.6570326 -0.029005468 0.37030762 -0.5208286 -0.10118218 0.38485986
-0.30355468 0.31553626 0.19656618 0.061548017 -0.078489654 -0.5723725 0.14574285 -0.26514044
-0.13623378 -0.49254128 0.1637231 0.3962057 0.10831526 -0.05395183 -0.31026006 -0.42394248
0.032905683 -0.07338474 -0.25565034 -0.3949466 0.040236305 -0.5108798 0.25744703 0.1139451
-0.4197309 -0.43310565 0.04711084 1.0083364 -0.42022666 -0.34643793 -0.25289127 -0.66735995
0.084960915 -0.19412221 0.37007016 0.568626 0.26773265 -0.14176589 0.7565147 0.2068827
0.50872236 -0.5282511 -0.26504755 0.45812497 0.31579262 -0.7801186 0.37594828 0.12277525
-0.5224116 -0.09683329 -0.11915723 -0.5262573 0.7355204 -0.46197924 -0.22672817 -0.48797444
0.17187369 -0.36097848 0.3145211 -0.051943503 -0.58583206 0.032532528 -0.42526525 0.4182357

critic.network_body.linear_encoder.seq_layers.0.bias f4 [128]
00000000: 0000 0000 0000 0000 0000 0000 0000 0000
00000010: 0000 0000 0000 0000 0000 0000 0000 0000
00000020: 0000 0000 0000 0000 0000 0000 0000 0000
00000030: 0000 0000 0000 0000 0000 0000 0000 0000
00000040: 0000 0000 0000 0000 0000 0000 0000 0000
00000050: 0000 0000 0000 0000 0000 0000 0000 0000
00000060: 0000 0000 0000 0000 0000 0000 0000 0000
00000070: 0000 0000 0000 0000 0000 0000 0000 0000
00000080: 0000 0000 0000 0000 0000 0000 0000 0000
00000090: 0000 0000 0000 0000 0000 0000 0000 0000
000000a0: 0000 0000 0000 0000 0000 0000 0000 0000
000000b0: 0000 0000 0000 0000 0000 0000 0000 0000
000000c0: 0000 0000 0000 0000 0000 0000 0000 0000
000000d0: 0000 0000 0000 0000 0000 0000 0000 0000
000000e0: 0000 0000 0000 0000 0000 0000 0000 0000
000000f0: 0000 0000 0000 0000 0000 0000 0000 0000
00000100: 0000 0000 0000 0000 0000 0000 0000 0000
00000110: 0000 0000 0000 0000 0000 0000 0000 0000
00000120: 0000 0000 0000 0000 0000 0000 0000 0000
00000130: 0000 0000 0000 0000 0000 0000 0000 0000
00000140: 0000 0000 0000 0000 0000 0000 0000 0000
00000150: 0000 0000 0000 0000 0000 0000 0000 0000
00000160: 0000 0000 0000 0000 0000 0000 0000 0000
00000170: 0000 0000 0000 0000 0000 0000 0000 0000
00000180: 0000 0000 0000 0000 0000 0000 0000 0000
00000190: 0000 0000 0000 0000 0000 0000 0000 0000
000001a0: 0000 0000 0000 0000 0000 0000 0000 0000
000001b0: 0000 0000 0000 0000 0000 0000 0000 0000
000001c0: 0000 0000 0000 0000 0000 0000 0000 0000
000001d0: 0000 0000 0000 0000 0000 0000 0000 0000
000001e0: 0000 0000 0000 0000 0000 0000 0000 0000
000001f0: 0000 0000 0000 0000 0000 0000 0000 0000
0.0 0.0 0.0 0.0 0.0 0.0 0.0 0.0
0.0 0.0 0.0 0.0 0.0 0.0 0.0 0.0
0.0 0.0 0.0 0.0 0.0 0.0 0.0 0.0
0.0 0.0 0.0 0.0 0.0 0.0 0.0 0.0
0.0 0.0 0.0 0.0 0.0 0.0 0.0 0.0
0.0 0.0 0.0 0.0 0.0 0.0 0.0 0.0
0.0 0.0 0.0 0.0 0.0 0.0 0.0 0.0
0.0 0.0 0.0 0.0 0.0 0.0 0.0 0.0
0.0 0.0 0.0 0.0 0.0 0.0 0.0 0.0
0.0 0.0 0.0 0.0 0.0 0.0 0.0 0.0
0.0 0.0 0.0 0.0 0.0 0.0 0.0 0.0
0.0 0.0 0.0 0.0 0.0 0.0 0.0 0.0
0.0 0.0 0.0 0.0 0.0 0.0 0.0 0.0
0.0 0.0 0.0 0.0 0.0 0.0 0.0 0.0
0.0 0.0 0.0 0.0 0.0 0.0 0.0 0.0
0.0 0.0 0.0 0.0 0.0 0.0 0.0 0.0

critic.network_body.linear_encoder.seq_layers.2.weight f4 [128, 128]
00000000: 4a63 d13d 48fe 91bd a688 c53d 3c26 15bd
00000010: 9141 c23c 7a63 71bc 9db1 95bb 80e3 03bc
00000020: f65d 223a 3550 ab3d 0056 6a3d 02bf 21bd
00000030: db37 14bd 2dd7 00bd bde1 5f3d c50b a73d
00000040: f226 cf3c 42d9 163d 312d d2bc 1b68 5cbd
00000050: 725a 38bd 5006 2b3e 063b 863d a30c d83b
00000060: 09e0 ed3d ca52 7bbd a26a 2e3d 7a6c ee3d
00000070: 2afa bb3d 1aa0 233d d339 ac3d e1bf f23b
00000080: eccf 07be 4449 96bd f48d 74bd 7290 bd3d
00000090: dc15 c8bd 6041 2a3d 76e8 b5bd 05ca 933d
000000a0: f016 21be 1756 25be b457 b8bb fad7 483e
000000b0: 808b f43d 9f38 3f3d fb30 0b3e b362 e43d
000000c0: f672 abbc 242b 02bd ddae 1b3d b7c8 ebbd
000000d0: 1a0b 21bb f7a3 2f3b 1ea4 cf3d a965 003d
000000e0: 6812 ef3d 8722 3abd 0ce1 af3c 0663 b53c
000000f0: 3d7a ffbc f064 34be f5de d03d 7a61 383d
00000100: 8694 223d 2cdd f9bd 7f33 063e 8ddf f8bc
00000110: c17c 443d f462 29be fd28 2bbb d023 21be
00000120: 491a d13d 8030 443d 3215 a1bd 601c c63b
00000130: 1979 95bd f546 01be 7cb5 f5bd f649 c4bb
00000140: 3e5b b0bd fd58 16be 447a b9bd 117b 12bc
00000150: 5a52 f4bd 320c 1e3e e4d5 4cbd d6f2 e0bd
00000160: 4e07 e63d 02cd 113d 8777 c3bd 0a92 0c3d
00000170: be12 fb3d 55e3 d83c f781 203d cfa5 0dbe
00000180: c592 753d dd5a 3d3c 74e0 9cbd 409d 80bd
00000190: 616b abbd c022 9f3d 22be 72bd 571b 1d3e
000001a0: 6b62 8cbd e863 263e 7029 783c f158 89bd
000001b0: 4387 37be 75e1 bb3d e333 1c3d 5152 5a3d
000001c0: 0e67 a33c b4a9 54bc 2765 40bc 7a65 153e
000001d0: f943 b43c 507b 31bc de35 f33d f9b1 073d
000001e0: 33e6 3b3d d67a 0bbe 63d7 84bd 45ee 8f3c
000001f0: f32c 24be 296c 373b 191a 83bc f30f 24be
00000200: b17c c93d 391a 813d 6965 bfbd aa14 5abd
00000210: e95b 65bd 5aa2 7fbd cec0 113e 01f8 7f3c
00000220: a220 663d 1b5a d8bd d454 0b3c 70f8 b53d
00000230: 8f74 4d3c 278d d3bd abaf 183d caf4 d4bd
00000240: a03a 91bd 9219 0bbb 4b2c d73b e9e6 86bd
00000250: 83da 9c3d 0eec c0bd 7bb7 8d3d 3e8f d5bd
00000260: 030d 173d 176d eb3d a803 933d b6c1 a6bc
00000270: 0ea8 303b 2408 d7bd 7ca3 46bc 7346 923c
00000280: 26d8 e7bd cc05 c23d e37d 583d 3f59 11bd
00000290: 773a 863c 860d adbd c61b 7e3c e955 edbd
000002a0: 1b37 f1bd 5fd2 a0bd 6684 04bb 5f15 973c
000002b0: da99 2c3e d873 4dbc b358 383e e4cb 9f3c
000002c0: 2b83 33bd 7814 093d ace0 2fbe e4e8 5e3d
000002d0: 7ad6 d5bc f6c6 2d3e 0f6b a63c 1d53 b43b
000002e0: 0d0b f93b 8ac0 3fbc de12 3d3d da3a 903c
000002f0: cc43 583d f834 febc 20b4 4c3c 8b61 d43c
00000300: caf7 9b3d 4359 b8bd 10a6 3f3d d1a0 ef3c
00000310: 59dc 82bd ac92 1f3d 5ff6 063d 1729 023c
00000320: 92e2 8b3d 60ab 2a3c ecb4 50bc f0c5 9abd
00000330: 08ec 94bd 9bcb 56bd 5664 14be 1766 f5bd
00000340: 566b 09be 1809 ddbd a2d5 0e3e c0fd 82bd
00000350: 8055 523e e5f7 0b3b 8d6c a63c 825e 6abd
00000360: b711 c83d 07c2 d8bd cb7b 9bbd d4a2 b93d
00000370: 95f1 813d 5561 27be c502 573d c42b 933c
00000380: 1e9b 503d d186 2bbd 0a22 14be 45da 93bc
00000390: 648d 46bd bf19 56bd 5c47 4dbc fe4a 81bd
000003a0: acec feba c37d 8fbc 1c9e 80bd 9f5c ff3d
000003b0: 42fd d83d 4a6a bfbd 3d4e 093b c271 653e
000003c0: 7643 37bd d142 333e 1cfa a23d d818 033d
000003d0: 76b3 5dbe aa62 e23d 2f21 25bd 0224 033e
000003e0: 5656 f83c d18c c43d 0799 a1b9 4fc4 b4bb
000003f0: ad21 3abe acb4 81bd 80ff bbbc 9f23 4ebd
0.10224016 -0.071285784 0.09645204 -0.036413416 0.023712905 -0.01473319 -0.0045682923 -0.008049846
0.0006193811 0.08364908 0.057210922 -0.0394888 -0.03618608 -0.031455208 0.05465864 0.08156542
0.025287125 0.036828287 -0.025656315 -0.05381022 -0.04500813 0.16701627 0.065542266 0.0065933033
0.11614997 -0.06135825 0.04258216 0.11641784 0.091785744 0.039947607 0.084094666 0.0074081277
-0.1326291 -0.07338193 -0.05970569 0.092560664 -0.09769794 0.041566253 -0.08882229 0.072162665
-0.15731406 -0.16146122 -0.0056256894 0.19613639 0.1194067 0.046684857 0.13592903 0.11151638
-0.020928841 -0.031779423 0.03800856 -0.11512893 -0.0024573267 0.0026800612 0.10138725 0.03134695
0.116734326 -0.045443084 0.021469615 0.022141945 -0.031186217 -0.1761663 0.10198776 0.045014836
0.039692424 -0.12200388 0.13105582 -0.030380035 0.047970537 -0.16541654 -0.002611696 -0.15736318
0.102100916 0.047897816 -0.07865371 0.006045863 -0.07298488 -0.12624724 -0.11997506 -0.005990262
-0.08611153 -0.14682384 -0.090565234 -0.008940474 -0.1192977 0.1543434 -0.05000867 -0.10983817
0.11231862 0.0355959 -0.095442824 0.03431896 0.12259434 0.026475588 0.039186444 -0.13832782
0.059954423 0.011557308 -0.076599985 -0.06279993 -0.0837009 0.077703 -0.059263356 0.1534246
-0.06854709 0.16249049 0.015146598 -0.06706417 -0.17922692 0.09173862 0.03813542 0.05330116
0.019946601 -0.0129799135 -0.011742867 0.14589491 0.022005068 -0.010832623 0.11875509 0.033128712
0.045873832 -0.13621077 -0.06486394 0.01756967 -0.16032772 0.0027988052 -0.016003655 -0.16021709
0.09838236 0.0630383 -0.09345514 -0.053242363 -0.055995855 -0.06241069 0.14233705 0.015623094
0.056183465 -0.10564061 0.008504111 0.08885276 0.012539997 -0.10329657 0.037276905 -0.10398252
-0.0709126 -0.0021224958 0.0065665594 -0.06587011 0.07658865 -0.09420024 0.06919762 -0.10427712
0.036877643 0.114954166 0.07178432 -0.02035604 0.0026955637 -0.104995996 -0.012123939 0.017855858
-0.11320524 0.09473762 0.05285443 -0.035485502 0.0163853 -0.08449845 0.015509551 -0.11588652
-0.11778089 -0.07852625 -0.0020220517 0.018442808 0.16855565 -0.012539826 0.18002586 0.019506402
-0.043826263 0.033466786 -0.1717555 0.05442132 -0.026103247 0.16970429 0.020314721 0.005503072
0.0076001943 -0.01170362 0.04616057 0.017606188 0.05279903 -0.031031117 0.012494117 0.025925418
0.076156214 -0.090014 0.04678923 0.029251488 -0.06389684 0.038958237 0.0329498 0.007944367
0.06830324 0.010416836 -0.012738448 -0.07557285 -0.07271582 -0.052440267 -0.144914 -0.11982363
-0.13419852 -0.1079275 0.13948682 -0.06396055 0.20540428 0.0021357473 0.020315433 -0.057219036
0.09769004 -0.10583883 -0.07591971 0.0906426 0.06344906 -0.16345723 0.052492876 0.017965205
0.05092918 -0.041876618 -0.1446611 -0.018048415 -0.048474684 -0.052270647 -0.01252922 -0.06313132
-0.0019449196 -0.017516023 -0.06280157 0.12468838 0.1059518 -0.09346445 0.0020951175 0.22406676
-0.04474207 0.17505957 0.07957861 0.032006115 -0.2165049 0.11053975 -0.04031485 0.12806705
0.030314606 0.09597171 -0.00030822327 -0.005516566 -0.18176909 -0.063332886 -0.02294898 -0.05032694

critic.network_body.linear_encoder.seq_layers.2.bias f4 [128]
00000000: 0000 0000 0000 0000 0000 0000 0000 0000
00000010: 0000 0000 0000 0000 0000 0000 0000 0000
00000020: 0000 0000 0000 0000 0000 0000 0000 0000
00000030: 0000 0000 0000 0000 0000 0000 0000 0000
00000040: 0000 0000 0000 0000 0000 0000 0000 0000
00000050: 0000 0000 0000 0000 0000 0000 0000 0000
00000060: 0000 0000 0000 0000 0000 0000 0000 0000
00000070: 0000 0000 0000 0000 0000 0000 0000 0000
00000080: 0000 0000 0000 0000 0000 0000 0000 0000
00000090: 0000 0000 0000 0000 0000 0000 0000 0000
000000a0: 0000 0000 0000 0000 0000 0000 0000 0000
000000b0: 0000 0000 0000 0000 0000 0000 0000 0000
000000c0: 0000 0000 0000 0000 0000 0000 0000 0000
000000d0: 0000 0000 0000 0000 0000 0000 0000 0000
000000e0: 0000 0000 0000 0000 0000 0000 0000 0000
000000f0: 0000 0000 0000 0000 0000 0000 0000 0000
00000100: 0000 0000 0000 0000 0000 0000 0000 0000
00000110: 0000 0000 0000 0000 0000 0000 0000 0000
00000120: 0000 0000 0000 0000 0000 0000 0000 0000
00000130: 0000 0000 0000 0000 0000 0000 0000 0000
00000140: 0000 0000 0000 0000 0000 0000 0000 0000
00000150: 0000 0000 0000 0000 0000 0000 0000 0000
00000160: 0000 0000 0000 0000 0000 0000 0000 0000
00000170: 0000 0000 0000 0000 0000 0000 0000 0000
00000180: 0000 0000 0000 0000 0000 0000 0000 0000
00000190: 0000 0000 0000 0000 0000 0000 0000 0000
000001a0: 0000 0000 0000 0000 0000 0000 0000 0000
000001b0: 0000 0000 0000 0000 0000 0000 0000 0000
000001c0: 0000 0000 0000 0000 0000 0000 0000 0000
000001d0: 0000 0000 0000 0000 0000 0000 0000 0000
000001e0: 0000 0000 0000 0000 0000 0000 0000 0000
000001f0: 0000 0000 0000 0000 0000 0000 0000 0000
0.0 0.0 0.0 0.0 0.0 0.0 0.0 0.0
0.0 0.0 0.0 0.0 0.0 0.0 0.0 0.0
0.0 0.0 0.0 0.0 0.0 0.0 0.0 0.0
0.0 0.0 0.0 0.0 0.0 0.0 0.0 0.0
0.0 0.0 0.0 0.0 0.0 0.0 0.0 0.0
0.0 0.0 0.0 0.0 0.0 0.0 0.0 0.0
0.0 0.0 0.0 0.0 0.0 0.0 0.0 0.0
0.0 0.0 0.0 0.0 0.0 0.0 0.0 0.0
0.0 0.0 0.0 0.0 0.0 0.0 0.0 0.0
0.0 0.0 0.0 0.0 0.0 0.0 0.0 0.0
0.0 0.0 0.0 0.0 0.0 0.0 0.0 0.0
0.0 0.0 0.0 0.0 0.0 0.0 0.0 0.0
0.0 0.0 0.0 0.0 0.0 0.0 0.0 0.0
0.0 0.0 0.0 0.0 0.0 0.0 0.0 0.0
0.0 0.0 0.0 0.0 0.0 0.0 0.0 0.0
0.0 0.0 0.0 0.0 0.0 0.0 0.0 0.0

critic.value_heads.value_heads.extrinsic.weight f4 [1, 128]
00000000: 0928 5abe c486 b2bd 6099 16bd 0092 e3ba
00000010: f86e debd e8bb 4d3e 8e9b ecbd 6be1 50be
00000020: 9839 fe3c 88e8 91bc e43f 863d 6aef 35be
00000030: 5669 00be ecfb 80bd cce9 34be a4bc 7abd
00000040: ad7b c4bd f4f6 1b3e acd4 09be 5018 95bc
00000050: c638 9cbd c889 eb3c 8004 7ebd c291 9dbd
00000060: 68ff e33d 005e 93bc 1c9e 203e 40e3 f33d
00000070: e4ff e5bd 1816 ef3d 7056 75bc f4d5 093e
00000080: 600b ee3c ec7b 0f3e 8871 953d 5a3f e8bd
00000090: f067 0d3e a047 72bd b0b7 c53d 3ee1 523e
000000a0: 4a4d 243e f088 bb3c 5c2f a53d 7071 183c
000000b0: 9ca1 963d 2ca7 1a3e 8c92 36bd 17be 0cbe
000000c0: 7cbd c23d 8451 383e d6f2 38be d02f 1c3e
000000d0: 8b95 2abe b2bc 01be d8ea 3bbd 6680 8dbd
000000e0: 1073 ebbc c4cb 853d 584c d63c 2606 18be
000000f0: d0da 593d 36c4 533e 6cb1 d6bd e098 e1bc
00000100: 708c b0bd 7497 5dbd 8459 6bbd c821 993c
00000110: 5018 84bc 4376 fcbd 7468 353e d827 143d
00000120: d674 4b3e 2df5 06be b87e a23d e8ec 193e
00000130: 5454 29be f416 473e 9e7e f4bd c4f2 26be
00000140: 5863 163e 9ee6 523e b0c7 513d 602c d03d
00000150: 4a82 e3bd 5019 0cbc 98cd ebbc 63ae 45be
00000160: d15b 5bbe 6eed 3f3e 4461 32be af24 51be
00000170: a392 cbbd 884c f33d 70e8 2e3e d85b fb3d
00000180: e04a a3bd cb3d 56be 80fa baba c805 2d3d
00000190: 5417 0b3d 00f1 98bd f048 173d 60a7 813b
000001a0: ca7d 18be f8a3 04be 409e 213c d056 1e3d
000001b0: 48ef e63d 8666 8cbd de8b 4a3e 1878 463e
000001c0: c44a 87bd d1cd 5bbe 06bf 183e c6f2 58be
000001d0: c007 e0bb 699d 4dbe cc28 e43d b829 a13d
000001e0: 99d9 43be 8827 253e fcb3 4cbe d08a 00bc
000001f0: b055 50be b8cf 1e3e e8c7 5c3e 145e a93d
-0.21304335 -0.08717111 -0.036767364 -0.0017362237 -0.10861009 0.20091212 -0.11553107 -0.2039849
0.031033322 -0.017811075 0.06555155 -0.1776711 -0.12540182 -0.0629805 -0.17667311 -0.061215058
-0.09593902 0.15230924 -0.13460034 -0.01820007 -0.07628016 0.028752223 -0.06201601 -0.07693817
0.11132699 -0.017989159 0.15685314 0.11908579 -0.11230448 0.11674136 -0.014974222 0.13460523
0.029058158 0.14012116 0.07297045 -0.11340208 0.1380918 -0.05915034 0.09654176 0.20593736
0.16045108 0.022892445 0.08065674 0.009304389 0.07355043 0.15102834 -0.04457335 -0.13744389
0.095087975 0.17999846 -0.18061385 0.15252614 -0.16658609 -0.12669638 -0.04587826 -0.06909256
-0.02874139 0.06533006 0.02615945 -0.14846095 0.05318719 0.20680317 -0.10483059 -0.027538717
-0.08620536 -0.054099515 -0.057458416 0.018692866 -0.016124874 -0.12327244 0.17715627 0.03617081
0.19868788 -0.13179465 0.07934326 0.15031779 -0.16536075 0.1944235 -0.11938213 -0.16303545
0.14686334 0.20595786 0.051215827 0.10164714 -0.11108835 -0.008550957 -0.028784558 -0.19304805
-0.21421744 0.18742916 -0.17419916 -0.2042415 -0.09940078 0.118798316 0.17080855 0.12273377
-0.07973266 -0.2092201 -0.0014265329 0.04224184 0.033957794 -0.07467842 0.036934793 0.0039567202
-0.14891735 -0.12953174 0.00986439 0.03865701 0.11276108 -0.06855492 0.19779918 0.1938175
-0.06606057 -0.21465231 0.1491662 -0.2118636 -0.0068368614 -0.20079578 0.11140594 0.07869285
-0.19125976 0.16128361 -0.19990534 -0.0078455955 -0.20345187 0.15508926 0.21560633 0.08269897
