results/scoreGoal5/HitTheBall/checkpoint.pt (torch, 150559 bytes, 13 tensors)

network_body.linear_encoder.seq_layers.0.weight f4 [128, 6]
-0.32954416 0.6300537 -0.07965557 -0.1398091 -0.10943907 0.18758908 -0.25960395 -0.7514356
0.1362396 -0.1888892 -0.51121116 -0.25183842 -0.5310466 0.25781265 0.26007697 0.5940946
0.46187237 -0.43721864 -0.36338568 1.0033324 0.33269933 0.07644909 -0.067500986 0.47874245
0.67435163 0.3638204 0.16796646 0.31987274 0.40107164 -0.36353996 0.46427384 -0.23318984
0.17520489 -0.38622147 -0.008174761 -0.0501099 -0.077684514 0.112898305 0.037987284 0.017538408
-0.17155638 -0.26456422 0.22745314 0.14810435 0.35127193 -0.15041833 -0.0883059 -0.8575189
-0.31998 -0.3156629 -0.590685 0.6960694 -0.47891915 0.111849785 0.14419706 -0.18914461
0.3932222 0.17131649 0.31952405 -1.2581339 0.5711697 -0.23507242 -0.2994559 -0.04781832
-0.28214583 0.30843827 0.33486137 0.3025309 -0.16671981 -0.26093355 0.07092373 0.06963016
0.17523733 0.867989 -0.18214329 0.024947414 0.36298686 0.31905168 -0.17728278 0.13899061
0.70215803 -0.54581225 0.64217037 0.43712223 -0.14376444 0.4105901 -0.13397703 -0.24270661
-0.12829418 -0.6685134 -0.520705 -0.5375416 -0.008721928 0.16687855 -0.14641818 0.17075355
-0.07962792 -1.167149 -0.52431405 -0.20369078 0.13695921 -0.75240487 -0.31100795 0.53746194
-0.3481181 -0.47459558 0.10408139 0.55081487 -0.8567367 0.45257565 0.21868196 0.077322744
0.3858856 -0.2430253 -0.010653111 -0.015252162 0.0014143597 0.98178643 0.21867621 -0.20655246
-0.0713304 -0.17530085 0.1635708 -0.2553339 0.245631 0.4604115 -0.21096198 -0.31940457
0.109368905 -0.55344576 -0.11888362 -0.5182112 0.5705966 0.3610578 0.08023184 -0.7359226
0.28416827 -0.21778397 0.30661753 0.09092021 -0.14834993 1.1096389 0.069723934 -0.08935586
0.58691317 -0.3745289 0.39829484 0.054851584 -0.5667405 0.15541194 -0.27716157 -0.66512287
-0.23620687 -0.9398864 0.2575923 0.1334133 0.33031327 0.54771876 0.4245124 -0.59117496
-0.27311048 0.12854062 0.1508748 -0.08285722 0.074839115 -0.2634786 0.13895115 -0.54097635
0.34356025 0.21523653 -0.2988322 -0.052751433 0.01628661 0.5124213 -0.3991294 -0.53902525
0.14320858 -0.37584803 -0.56833005 -0.17117606 -0.3864199 -0.19630863 0.20918323 -0.47029194
-0.2434759 -0.576709 -0.07256776 0.21381809 0.13642931 -0.031029845 -0.3156014 -0.02302258
-0.30191156 0.32265294 -0.3039401 -0.022588689 0.5975583 0.76017916 0.14286569 -0.45522085
-0.064918876 0.2620679 0.0641895 -0.35459548 0.17810646 -0.2512891 -0.04279648 -1.0412178
0.33678123 0.20104629 -0.25901437 -0.47369972 0.37367335 -0.11952047 0.22139509 0.56929106
0.44882756 -0.33026806 0.32800993 0.40754625 0.09904518 -0.36923718 -0.0146506755 0.45297453
-0.0766552 0.03544029 -0.5828181 -0.3683466 -0.55647343 0.9898381 -0.25839984 -0.048467156
0.15921575 0.22749472 -0.108173035 0.41308838 0.10925768 -0.7489283 0.77497196 0.13388732
-0.35934114 -0.2351693 -0.35689455 0.15270846 -0.29205862 0.50595343 -0.033234924 0.3457631
-0.5123242 0.4895068 -0.046288542 0.06387908 -0.1344069 -0.23736675 -0.048720565 -0.0428829
00000000: 03ba a8be 334b 213f 7622 a3bd 1e2a 0fbe
00000010: 9721 e0bd 5a17 403e cfea 84be 155e 40bf
00000020: 6582 0b3e 2c6c 41be bcde 02bf f7f0 80be
00000030: acf2 07bf 0500 843e cf28 853e 9516 183f
00000040: 897a ec3e 1fdb dfbe b00d babe 326d 803f
00000050: 9157 aa3e 5791 9c3d f53d 8abd bb1d f53e
00000060: 4fa2 2c3f ab46 ba3e 66ff 2b3e 5cc6 a33e
00000070: 4359 cd3e e921 babe 4db5 ed3e 51c9 6ebe
00000080: e968 333e d2be c5be 6fef 05bc 0a40 4dbd
00000090: 0f19 9fbd 3a37 e73d 8e98 1b3d b5ac 8f3c
000000a0: 7aac 2fbe f674 87be 7ae9 683e aba8 173e
000000b0: ead9 b33e 4307 1abe b9d9 b4bd 5c86 5bbf
000000c0: 6bd4 a3be 919e a1be 2237 17bf 9b31 323f
000000d0: e434 f5be 8011 e53d 65a8 133e 20af 41be
000000e0: 6c54 c93e 976d 2f3e a898 a33e 880a a1bf
000000f0: 2d38 123f d3b6 70be 4952 99be 25dd 43bd
00000100: 6b75 90be 9feb 9d3e f372 ab3e 55e5 9a3e
00000110: 99b8 2abe 1599 85be 7640 913d 429a 8e3d
00000120: 6a71 333e 8734 5e3f c583 3abe 855e cc3c
00000130: 6ad9 b93e be5a a33e 9e89 35be 8e53 0e3e
00000140: a1c0 333f 5aba 0bbf 4765 243f 7cce df3e
00000150: fc36 13be de38 d23e 4631 09be 1588 78be
00000160: 8d5f 03be b223 2bbf ec4c 05bf 549c 09bf
00000170: 6be6 0ebc 36e2 2a3e a6ee 15be 05da 2e3e
00000180: f713 a3bd 2365 95bf 7239 06bf 5194 50be
00000190: 093f 0c3e 9b9d 40bf 6f3c 9fbe 1b97 093f
000001a0: 893c b2be 31fe f2be a028 d53d 3402 0d3f
000001b0: 1953 5bbf ffb7 e73e 2aee 5f3e 635b 9e3d
000001c0: cc92 c53e a0db 78be 638a 2ebc 34e4 79bc
000001d0: 0962 b93a 5b56 7b3f a8ec 5f3e 7d82 53be
000001e0: ac15 92bd 1182 33be 1b7f 273e 20bb 82be
000001f0: b186 7b3e 0ebb eb3e 6b06 58be ff88 a3be
00000200: cefc df3d 9fae 0dbf 4179 f3bd 7da9 04bf
00000210: 9e12 123f 91dc b83e 9750 a43d 6c65 3cbf
00000220: 817e 913e c302 5fbe f9fc 9c3e 6034 ba3d
00000230: 0be9 17be a608 8e3f 6ccb 8e3d 3500 b7bd
00000240: f13f 163f 41c2 bfbe 4ded cb3e 0eac 603d
00000250: e815 11bf 4f24 1f3e 1fe8 8dbe 7e45 2abf
00000260: 37e0 71be 659c 70bf 23e3 833e 7f9d 083e
00000270: d21e a93e 4c37 0c3f b059 d93e 3e57 17bf
00000280: 23d5 8bbe 27a0 033e ec7e 1a3e 0cb1 a9bd
00000290: 4045 993d abe6 86be 3649 0e3e 6d7d 0abf
000002a0: 21e7 af3e f766 5c3e 8900 99be e311 58bd
000002b0: 7f6b 853c 0b2e 033f b05a ccbe 8ffd 09bf
000002c0: 45a5 123e 276f c0be 147e 11bf c748 2fbe
000002d0: d4d8 c5be 2105 49be 2134 563e 1bca f0be
000002e0: bf51 79be 33a3 13bf 689e 94bd 21f3 5a3e
000002f0: 20b4 0b3e 4d32 febc 8296 a1be da99 bcbc
00000300: 2794 9abe c432 a53e 099e 9bbe ea0b b9bc
00000310: 95f9 183f 1a9b 423f 624b 123e b512 e9be
00000320: 30f4 84bd c42d 863e c975 833d 8a8d b5be
00000330: 8a61 363e f7a8 80be 5d4b 2fbd a046 85bf
00000340: 976e ac3e 14df 4d3e 889d 84be c588 f2be
00000350: 1d52 bf3e 26c7 f4bd 65b5 623e 0fbd 113f
00000360: bacc e53e e518 a9be ebf0 a73e e7a9 d03e
00000370: 33d8 ca3d a80c bdbe 6309 70bc 47ec e73e
00000380: 67fd 9cbd d629 113d 9133 15bf ed97 bcbe
00000390: 0b75 0ebf 0866 7d3f fc4c 84be 7f85 46bd
000003a0: 7409 233e 60f4 683e d389 ddbd 5280 d33e
000003b0: 7ec2 df3d c4b9 3fbf 9064 463f c219 093e
000003c0: 90fb b7be 39d0 70be e2ba b6be 9b5f 1c3e
000003d0: b588 95be 2a86 013f 5821 08bd dc07 b13e
000003e0: ae27 03bf a3a0 fa3e 0e99 3dbd 09d3 823d
000003f0: f6a1 09be 4510 73be 378f 47bd fba5 2fbd

network_body.linear_encoder.seq_layers.0.bias f4 [128]
0.0 0.0 0.0 0.0 0.0 0.0 0.0 0.0
0.0 0.0 0.0 0.0 0.0 0.0 0.0 0.0
0.0 0.0 0.0 0.0 0.0 0.0 0.0 0.0
0.0 0.0 0.0 0.0 0.0 0.0 0.0 0.0
0.0 0.0 0.0 0.0 0.0 0.0 0.0 0.0
0.0 0.0 0.0 0.0 0.0 0.0 0.0 0.0
0.0 0.0 0.0 0.0 0.0 0.0 0.0 0.0
0.0 0.0 0.0 0.0 0.0 0.0 0.0 0.0
0.0 0.0 0.0 0.0 0.0 0.0 0.0 0.0
0.0 0.0 0.0 0.0 0.0 0.0 0.0 0.0
0.0 0.0 0.0 0.0 0.0 0.0 0.0 0.0
0.0 0.0 0.0 0.0 0.0 0.0 0.0 0.0
0.0 0.0 0.0 0.0 0.0 0.0 0.0 0.0
0.0 0.0 0.0 0.0 0.0 0.0 0.0 0.0
0.0 0.0 0.0 0.0 0.0 0.0 0.0 0.0
0.0 0.0 0.0 0.0 0.0 0.0 0.0 0.0
00000000: 0000 0000 0000 0000 0000 0000 0000 0000
00000010: 0000 0000 0000 0000 0000 0000 0000 0000
00000020: 0000 0000 0000 0000 0000 0000 0000 0000
00000030: 0000 0000 0000 0000 0000 0000 0000 0000
00000040: 0000 0000 0000 0000 0000 0000 0000 0000
00000050: 0000 0000 0000 0000 0000 0000 0000 0000
00000060: 0000 0000 0000 0000 0000 0000 0000 0000
00000070: 0000 0000 0000 0000 0000 0000 0000 0000
00000080: 0000 0000 0000 0000 0000 0000 0000 0000
00000090: 0000 0000 0000 0000 0000 0000 0000 0000
000000a0: 0000 0000 0000 0000 0000 0000 0000 0000
000000b0: 0000 0000 0000 0000 0000 0000 0000 0000
000000c0: 0000 0000 0000 0000 0000 0000 0000 0000
000000d0: 0000 0000 0000 0000 0000 0000 0000 0000
000000e0: 0000 0000 0000 0000 0000 0000 0000 0000
000000f0: 0000 0000 0000 0000 0000 0000 0000 0000
00000100: 0000 0000 0000 0000 0000 0000 0000 0000
00000110: 0000 0000 0000 0000 0000 0000 0000 0000
00000120: 0000 0000 0000 0000 0000 0000 0000 0000
00000130: 0000 0000 0000 0000 0000 0000 0000 0000
00000140: 0000 0000 0000 0000 0000 0000 0000 0000
00000150: 0000 0000 0000 0000 0000 0000 0000 0000
00000160: 0000 0000 0000 0000 0000 0000 0000 0000
00000170: 0000 0000 0000 0000 0000 0000 0000 0000
00000180: 0000 0000 0000 0000 0000 0000 0000 0000
00000190: 0000 0000 0000 0000 0000 0000 0000 0000
000001a0: 0000 0000 0000 0000 0000 0000 0000 0000
000001b0: 0000 0000 0000 0000 0000 0000 0000 0000
000001c0: 0000 0000 0000 0000 0000 0000 0000 0000
000001d0: 0000 0000 0000 0000 0000 0000 0000 0000
000001e0: 0000 0000 0000 0000 0000 0000 0000 0000
000001f0: 0000 0000 0000 0000 0000 0000 0000 0000

network_body.linear_encoder.seq_layers.2.weight f4 [128, 128]
-0.15809007 0.06158188 -0.0005898786 0.05248506 0.06080863 0.03316821 -0.08343387 -0.011115184
0.08645609 0.026415942 -0.044973474 0.059766527 -0.06955577 0.011603111 -0.087572515 -0.035451204
0.028349124 0.0015788586 0.10714471 0.19427785 -0.009183797 0.081081145 -0.066330954 -0.100821815
-0.0006499151 -0.031981476 -0.021253027 -0.014639328 -0.027253116 0.1694392 -0.18274155 0.10273694
0.17239559 0.037680965 -0.012560329 0.18184584 -0.21244836 0.00195286 -0.15925542 0.1824335
0.09312485 0.091307744 -0.025524605 -0.13969742 0.08891534 -0.04221405 -0.11179262 0.0034159154
0.03183805 -0.14299518 0.03343468 0.080040626 -0.06667753 0.015600505 -0.068928175 -0.15862182
0.03527208 -0.011724513 -0.05748124 -0.015705293 -0.0358939 -0.08740722 -0.047870606 0.0068576266
-0.15912972 -0.08790579 0.069625966 -0.030521072 0.020688547 -0.051058568 0.14596656 -0.0402487
0.23334853 0.009956072 0.082085 -0.08358689 0.051431824 0.0144128995 -0.011850571 -0.10640331
0.025281528 0.07393884 0.08305764 0.100240715 -0.026458506 0.018372849 0.104040466 0.12023168
-0.017500697 -0.08622494 -0.017067695 0.15218022 0.0537237 0.15765333 0.08985838 -0.013731151
0.019178845 0.009520542 0.009561366 -0.23426989 -0.06715013 -0.020680886 -0.1924305 0.052188102
-0.14122692 -0.23718198 0.11882632 -0.02855874 -0.07152279 -0.13242546 -0.151646 -0.0060901754
0.012361468 0.0258366 0.077435285 0.01921216 -0.075016454 -0.17168193 -0.1201383 0.05973327
0.003099772 0.093910605 -0.09223137 -0.12510005 -0.057937853 0.030963762 0.004573452 -0.010795153
-0.012290302 -0.051884376 0.017140655 0.05700518 0.0775763 0.0022238344 0.03276473 0.077202834
0.18260857 -0.049399484 0.042556673 -0.009128256 -0.22859882 -0.006980708 -0.055288445 -0.06630044
-0.045383636 0.021666413 -0.015503555 -0.103087954 -0.19659662 0.061264563 -0.16393363 -0.018290434
0.026570361 0.00919821 0.03113121 0.08647958 0.16286668 -0.024283968 0.12844062 -0.06323588
-0.010289074 -0.014979271 -0.12737162 -0.050798364 -0.033153422 0.06325671 0.23742856 -0.08241766
0.006886704 0.026162498 -0.051429313 0.035933584 0.14222103 -0.038975928 0.03494253 0.03751893
-0.08202768 0.1545465 -0.062564075 -0.068322845 0.034432862 -0.09794922 -0.14401752 0.016135758
0.019445043 0.048204113 -0.079456665 -0.0556397 0.005685648 -0.03387934 0.0037037495 -0.052252315
-0.017048094 0.009817656 -0.030762918 -0.024689455 0.0021945713 0.033282854 -0.23468396 -0.04411902
0.014651643 0.089002214 0.06136414 0.07026036 0.09782492 0.13156407 -0.004507254 0.1555879
0.009712051 -0.050937563 -0.028081564 0.11423809 0.12651466 0.04765442 -0.13395382 0.025792968
-0.036125194 0.19441618 -0.01431271 -0.08718437 0.032748595 0.05742431 0.018272651 0.10696339
0.012135545 -0.027165145 -0.07653567 -0.043504536 -0.17157766 -0.077471025 0.07616099 -0.071001016
-0.07221344 0.0522323 0.0031055638 0.15164289 -0.022422735 0.0616963 0.13888781 -0.06782185
-0.041329037 0.049566694 -0.066889554 -0.045166474 -0.057713006 -0.06166263 0.06165529 0.075599514
-0.06454525 -0.024570499 -0.04034346 0.048377316 0.032962494 0.13769995 0.030326333 0.030438479
00000000: 5de2 21be 483d 7c3d 15a2 1aba 93fa 563d
00000010: 7812 793d 64db 073d 60df aabd 761c 36bc
00000020: e40f b13d 3f66 d83c 1b36 38bd bfcd 743d
00000030: 4173 8ebd fa1a 3e3c 3859 b3bd 4835 11bd
00000040: 6c3c e83c b4f1 ce3a b06e db3d c6f0 463e
00000050: a377 16bc df0d a63d 86d8 87bd ab7b cebd
00000060: 105f 2aba 02ff 02bd d41a aebc cbd9 6fbc
00000070: ed41 dfbc 7881 2d3e 9a20 3bbe bf67 d23d
00000080: 7888 303e 5b57 1a3d d7c9 4dbc cc35 3a3e
00000090: 108c 59be 1cf7 ff3a da13 23be d9cf 3a3e
000000a0: 3eb8 be3d 8eff ba3d fa18 d1bc d70c 0fbe
000000b0: 3f19 b63d a4e8 2cbd 87f3 e4bd 8ddd 5f3b
000000c0: 9d68 023d 546d 12be cef2 083d 57ec a33d
000000d0: 3b8e 88bd 4399 7f3c 372a 8dbd c26d 22be
000000e0: 7579 103d 2c18 40bc 7371 6bbd 63a8 80bc
000000f0: 7b05 13bd 8e02 b3bd f813 44bd f1b5 e03b
00000100: e7f2 22be f307 b4bd 0f98 8e3d 5407 fabc
00000110: 077b a93c ca22 51bd 4278 153e d2db 24bd
00000120: ebf2 6e3e cb1e 233c 2e1c a83d 9a2f abbd
00000130: 2daa 523d 1524 6c3c e628 42bc fbe9 d9bd
00000140: 351b cf3c 3f6d 973d 201a aa3d 014b cd3d
00000150: 82bf d8bc a882 963c 2b13 d53d 073c f63d
00000160: 9f5d 8fbc b496 b0bd 8dd1 8bbc 22d5 1b3e
00000170: 620d 5c3d e06f 213e ac07 b83d 9ff8 60bc
00000180: f41c 9d3c 0cfc 1b3c 47a7 1c3c 72e4 6fbe
00000190: 0286 89bd f66a a9bc 800c 45be 31c3 553d
000001a0: ca9d 10be d5df 72be 375b f33d 05f4 e9bc
000001b0: 8a7a 92bd 8a9a 07be 1749 1bbe 1890 c7bb
000001c0: c187 4a3c 47a7 d33c 6496 9e3d d262 9d3c
000001d0: 3aa2 99bd 63cd 2fbe 120b f6bd e0aa 743d
000001e0: 8b25 4b3b 3454 c03d cde3 bcbd 3a1a 00be
000001f0: 3e50 6dbd b7a7 fd3c e5dc 953b 27de 30bc
00000200: 435d 49bc b684 54bd 8f6a 8c3c 437e 693d
00000210: 53e0 9e3d c0bd 113b 4f34 063d 851c 9e3d
00000220: befd 3a3e 1d57 4abd e84f 2e3d ae8e 15bc
00000230: cf15 6abe 6cbe e4bb 2376 62bd 86c8 87bd
00000240: 31e4 39bd c37d b13c 9f02 7ebc c71f d3bd
00000250: a050 49be 8df0 7a3d 38de 27be d2d5 95bc
00000260: 16aa d93c 17b4 163c e106 ff3c 351c b13d
00000270: 86c6 263e 2cef c6bc f085 033e d081 81bd
00000280: 8193 28bc 9e6b 75bc b56d 02be f211 50bd
00000290: e2cb 07bd bc8c 813d 7920 733e 97ca a8bd
000002a0: dca9 e13b bc52 d63c 8ba7 52bd 182f 133d
000002b0: 64a2 113e 39a5 1fbd e61f 0f3d 73ad 193d
000002c0: 21fe a7bd 7041 1e3e 9821 80bd d9ec 8bbd
000002d0: 7909 0d3d 9a99 c8bd 5479 13be 232f 843c
000002e0: 364b 9f3c ad71 453d 2dba a2bd 74e6 63bd
000002f0: ac4e ba3b 10c5 0abd 9bba 723b 8606 56bd
00000300: 72a8 8bbc 3cda 203c 8402 fcbc 8a41 cabc
00000310: ccd2 0f3b 9a53 083d fe50 70be 25b6 34bd
00000320: 720d 703c cb46 b63d f758 7b3d aae4 8f3d
00000330: 6f58 c83d bbb8 063e 96b1 93bb 6f52 1f3e
00000340: 4b1f 1f3c e8a3 50bd 4f0b e6bc a9f5 e93d
00000350: 0f8d 013e 4831 433d 312b 09be c64b d33c
00000360: 03f8 13bd 0915 473e db7f 6abc b88d b2bd
00000370: 6423 063d c135 6b3d 87b0 953c 9f0f db3d
00000380: 2ad4 463c 7089 debc bcbe 9cbd d031 32bd
00000390: 0eb2 2fbe 21a9 9ebd 4bfa 9b3d fb68 91bd
000003a0: a4e4 93bd 89f1 553d b786 4b3b 4648 1b3e
000003b0: e2af b7bc 42b5 7c3d 9b38 0e3e 2fe6 8abd
000003c0: a348 29bd 7206 4b3d 64fd 88bd 7b00 39bd
000003d0: 7964 6cbd f491 7cbd 428a 7c3d ebd3 9a3d
000003e0: 4d30 84bd 1248 c9bc 2f3f 25bd 4b27 463d
000003f0: ae03 073d 3701 0d3e ee6e f83c 1e5a f93c

network_body.linear_encoder.seq_layers.2.bias f4 [128]
0.0 0.0 0.0 0.0 0.0 0.0 0.0 0.0
0.0 0.0 0.0 0.0 0.0 0.0 0.0 0.0
0.0 0.0 0.0 0.0 0.0 0.0 0.0 0.0
0.0 0.0 0.0 0.0 0.0 0.0 0.0 0.0
0.0 0.0 0.0 0.0 0.0 0.0 0.0 0.0
0.0 0.0 0.0 0.0 0.0 0.0 0.0 0.0
0.0 0.0 0.0 0.0 0.0 0.0 0.0 0.0
0.0 0.0 0.0 0.0 0.0 0.0 0.0 0.0
0.0 0.0 0.0 0.0 0.0 0.0 0.0 0.0
0.0 0.0 0.0 0.0 0.0 0.0 0.0 0.0
0.0 0.0 0.0 0.0 0.0 0.0 0.0 0.0
0.0 0.0 0.0 0.0 0.0 0.0 0.0 0.0
0.0 0.0 0.0 0.0 0.0 0.0 0.0 0.0
0.0 0.0 0.0 0.0 0.0 0.0 0.0 0.0
0.0 0.0 0.0 0.0 0.0 0.0 0.0 0.0
0.0 0.0 0.0 0.0 0.0 0.0 0.0 0.0
00000000: 0000 0000 0000 0000 0000 0000 0000 0000
00000010: 0000 0000 0000 0000 0000 0000 0000 0000
00000020: 0000 0000 0000 0000 0000 0000 0000 0000
00000030: 0000 0000 0000 0000 0000 0000 0000 0000
00000040: 0000 0000 0000 0000 0000 0000 0000 0000
00000050: 0000 0000 0000 0000 0000 0000 0000 0000
00000060: 0000 0000 0000 0000 0000 0000 0000 0000
00000070: 0000 0000 0000 0000 0000 0000 0000 0000
00000080: 0000 0000 0000 0000 0000 0000 0000 0000
00000090: 0000 0000 0000 0000 0000 0000 0000 0000
000000a0: 0000 0000 0000 0000 0000 0000 0000 0000
000000b0: 0000 0000 0000 0000 0000 0000 0000 0000
000000c0: 0000 0000 0000 0000 0000 0000 0000 0000
000000d0: 0000 0000 0000 0000 0000 0000 0000 0000
000000e0: 0000 0000 0000 0000 0000 0000 0000 0000
000000f0: 0000 0000 0000 0000 0000 0000 0000 0000
00000100: 0000 0000 0000 0000 0000 0000 0000 0000
00000110: 0000 0000 0000 0000 0000 0000 0000 0000
00000120: 0000 0000 0000 0000 0000 0000 0000 0000
00000130: 0000 0000 0000 0000 0000 0000 0000 0000
00000140: 0000 0000 0000 0000 0000 0000 0000 0000
00000150: 0000 0000 0000 0000 0000 0000 0000 0000
00000160: 0000 0000 0000 0000 0000 0000 0000 0000
00000170: 0000 0000 0000 0000 0000 0000 0000 0000
00000180: 0000 0000 0000 0000 0000 0000 0000 0000
00000190: 0000 0000 0000 0000 0000 0000 0000 0000
000001a0: 0000 0000 0000 0000 0000 0000 0000 0000
000001b0: 0000 0000 0000 0000 0000 0000 0000 0000
000001c0: 0000 0000 0000 0000 0000 0000 0000 0000
000001d0: 0000 0000 0000 0000 0000 0000 0000 0000
000001e0: 0000 0000 0000 0000 0000 0000 0000 0000
000001f0: 0000 0000 0000 0000 0000 0000 0000 0000

action_model._continuous_distribution.log_sigma f4 [1, 2]
0.0 0.0
00000000: 0000 0000 0000 0000

action_model._continuous_distribution.mu.weight f4 [2, 128]
0.0020313202 0.0147924945 -0.009659583 -0.010842894 -0.01497108 0.014675425 -0.013154884 0.0048614857
0.0035087483 0.029889015 -0.014512435 0.02885714 -0.038368292 -0.009082033 0.010022036 -1.3771239e-05
-0.023024926 0.021206489 -0.00857941 -0.0017303294 -0.016822813 0.011701764 0.012650481 0.011445632
-0.020389749 0.002418041 -0.010615861 -0.03361611 -0.009023866 -0.0057803285 -0.046263758 -0.022785408
-0.012246243 -0.0030704197 -0.013813156 0.002683012 -0.0017991214 0.01985915 -0.029665483 -0.010606072
-0.015676787 -0.0007153977 -0.011858415 0.009139245 0.012844165 -0.030947058 -0.0061535747 0.00712664
0.035803046 0.00584499 0.01921962 -0.03196406 0.0042912015 0.00067706796 -0.014177776 -0.0022663227
-0.0056240824 -0.0008329792 0.0041651404 0.027948057 0.0047826464 -0.0009860585 0.013609471 0.018184898
0.01401003 -0.032170586 0.02622563 -0.028305132 -0.009927104 0.011414628 0.008300347 0.043542705
0.00058748794 -0.0305746 -0.002585477 -0.008439765 -0.003162428 0.005515573 -0.000994223 -0.0028605366
-0.009386162 0.004267896 -0.009383941 0.0072475933 -0.018335784 -0.025471453 0.00047594385 -0.008253663
-0.0068413983 -0.014797715 -0.012476978 0.017347032 0.019242292 -0.002719862 0.015239517 0.014423072
-0.007465895 -0.0010572125 0.012937699 -0.025742782 0.001699438 -0.029447084 0.017862221 -0.029680625
-0.015473269 -0.017641237 0.0059190043 5.104388e-05 0.047391698 0.014971144 0.012462154 0.0006097868
-0.007991678 0.0134055065 -0.0165561 -0.026347509 0.002906403 0.0012137074 -0.0010560855 -0.008375331
0.03352467 0.012027297 0.013584986 0.01822573 -0.007029859 0.015609137 -0.010432783 0.013350071
0.0016463954 -0.0009883923 0.0081764 0.008449884 0.030434797 -0.0045491452 0.00020473053 -0.0115967095
-0.019109694 -0.012616935 -0.01104969 -0.008205606 0.0035621568 -0.008223531 0.0069793547 0.03276303
-0.009717647 0.012060793 0.017317053 -0.018892752 0.012103317 0.0012759374 0.0035836839 -0.010365509
0.01031368 -0.0045592138 0.0025545864 0.024340943 -0.010964005 0.010298514 -0.020046826 -0.012285693
0.002536061 0.021607699 0.004820271 -0.00914135 -0.029810939 -0.02193247 -0.02058001 0.0016697481
-0.0057209334 -0.0054948432 -0.014797965 0.0060683116 0.016828965 0.010888813 -0.021057524 -0.016809214
0.009147949 0.020701438 0.010932596 -0.0028207235 -0.006279302 0.0028935487 0.00074962556 0.00039054573
-0.0042358893 0.008209636 0.042211454 -0.0037550398 -0.009454787 0.0013823712 0.017378872 -0.020440638
0.0008402643 0.006381786 0.04491451 0.004667853 0.009961073 -0.008158199 0.022116248 0.007006161
-0.005982385 0.020623522 0.014168738 0.03606369 0.01972524 0.0045167613 0.010517611 0.003964201
0.0042939186 0.0005158127 0.00961543 0.02269704 -0.005177881 0.007591199 -0.00043382752 0.004137206
-0.022636494 -0.0308986 -0.0066037937 -0.0009243401 0.015092152 -0.004829397 -0.008671193 0.03208256
0.005923466 0.031494305 0.0040549627 -0.0147135705 0.008966594 0.023837512 -0.012911864 0.018357983
0.010066057 0.00860758 -0.004108038 0.0028951354 0.0011109458 -0.019287484 0.032934267 -0.00021195244
-0.015163863 0.010961003 -0.0027322809 0.003220979 -0.024320282 0.0068763434 0.009929134 0.004078691
-0.0041614575 -0.02824968 -0.023352472 0.01852634 0.023744063 0.013936497 0.005199213 -0.010251616
00000000: e61f 053b 385c 723c 3a43 1ebc 65a6 31bc
00000010: 4349 75bc 3271 703c 9587 57bc 194d 9f3b
00000020: 07f3 653b cfd9 f43c 90c5 6dbc cf65 ec3c
00000030: 1228 1dbd cfcc 14bc 7733 243c 050b 67b7
00000040: c59e bcbc 3bb9 ad3c a790 0cbc 38cc e2ba
00000050: ffcf 89bc c1b8 3f3c f743 4f3c 7686 3b3c
00000060: 6708 a7bc ff77 1e3b 26ee 2dbc 0cb1 09bd
00000070: d6d8 13bc e968 bdbb 117f 3dbd 77a8 babc
00000080: 77a4 48bc 1839 49bb 9350 62bc 79d5 2f3b
00000090: 7fd0 ebba a8af a23c 0705 f3bc 17c5 2dbc
000000a0: 9b6c 80bc 8789 3bba cc49 42bc c6bc 153c
000000b0: 5570 523c af84 fdbc eda3 c9bb 9786 e93b
000000c0: 37a6 123d 5487 bf3b 7772 9d3c bfec 02bd
000000d0: 359d 8c3b 437d 313a e749 68bc 9686 14bb
000000e0: 394a b8bb 4a5c 5aba bb7b 883b 53f3 e43c
000000f0: bfb7 9c3b a23e 81ba 42fa 5e3c 7ff8 943c
00000100: 538a 653c 4ec5 03bd 22d7 d63c 2ae0 e7bc
00000110: 4ba5 22bc 6b04 3b3c 2efe 073c d659 323d
00000120: a601 1a3a 9577 fabc 1b71 29bb f146 0abc
00000130: bd40 4fbb fbbb b43b 9750 82ba d777 3bbb
00000140: 6bc8 19bc b5d9 8b3b 1abf 19bc 387d ed3b
00000150: ed34 96bc 82a9 d0bc 1a88 f939 5f3a 07bc
00000160: cf2d e0bb 1d72 72bc 3d6c 4cbc 5d1b 8e3c
00000170: 03a2 9d3c b63f 32bb 2baf 793c c04e 6c3c
00000180: 77a4 f4bb 2a92 8aba a5f8 533c 87e2 d2bc
00000190: adbf de3a 033b f1bc cb53 923c c824 f3bc
000001a0: 9883 7dbc 5b84 90bc 35f4 c13b f317 5638
000001b0: cc1d 423d 8749 753c 102e 4c3c 19da 1f3a
000001c0: 87ef 02bc c5a2 5b3c a9a0 87bc bbd6 d7bc
000001d0: 5a79 3e3b 4315 9f3a 596c 8aba af38 09bc
000001e0: 2a51 093d 240e 453c 9093 5e3c 204e 953c
000001f0: bb5a e6bb 77bd 7f3c 43ee 2abc 42ba 5a3c
00000200: ddcb d73a f18c 81ba 4ff6 053c 6271 0a3c
00000210: 6552 f93c ff10 95bb efac 5639 2000 3ebc
00000220: ef8b 9cbc 43b7 4ebc c209 35bc ce70 06bc
00000230: 1373 693b fdbb 06bc 12b3 e43b 8732 063d
00000240: c436 1fbc a29a 453c 7edc 8d3c f9c4 9abc
00000250: fe4c 463c 5b3d a73a 3ddc 6a3b 19d4 29bc
00000260: b6fa 283c 7565 95bb d96a 273b a866 c73c
00000270: 5fa2 33bc 19bb 283c 3e39 a4bc ee49 49bc
00000280: 0b34 263b a102 b13c 5df3 9d3b 9ac5 15bc
00000290: 1236 f4bc b9ab b3bc 6997 a8bc 73db da3a
000002a0: ab76 bbbb 160e b4bb 2a73 72bc b0d8 c63b
000002b0: e6dc 893c fe66 323c d480 acbc 7ab3 89bc
000002c0: 47e1 153c 1096 a93c a21e 333c e3db 38bb
000002d0: 9ac2 cdbb b1a1 3d3b 8582 443a 29c2 cc39
000002e0: 37cd 8abb b681 063c ebe5 2c3d 1d17 76bb
000002f0: 40e8 1abc ae30 b53a 235e 8e3c 2073 a7bc
00000300: 2f45 5c3a 4d1e d13b 47f8 373d caf4 983b
00000310: c533 233c f7a9 05bc 222d b53c f093 e53b
00000320: e207 c4bb a9f2 a83c ff23 683c 85b7 133d
00000330: d496 a13c 5701 943b 0f52 2c3c 21e6 813b
00000340: 00b4 8c3b 9b37 073a 098a 1d3c 25ef b93c
00000350: 37ab a9bb 98bf f83b 5873 e3b9 6691 873b
00000360: 2b70 b9bc 101f fdbc a364 d8bb 6a4f 72ba
00000370: 1345 773c eb3f 9ebb 9f11 0ebc 0169 033d
00000380: a219 c23b 2c00 013d 7edf 843b 3011 71bc
00000390: 9fe8 123c e346 c33c 488c 53bc 7b63 963c
000003a0: 1aec 243c cf06 0d3c b89c 86bb 50bc 3d3b
000003b0: 289d 913a c900 9ebc 15e6 063d 8d3f 5eb9
000003c0: da71 78bc c795 333c 1110 33bb 0f17 533b
000003d0: 543b c7bc f352 e13b cead 223c 8aa6 853b
000003e0: d65c 88bb df6b e7bc af4d bfbc 8dc4 973c
000003f0: e982 c23c e855 643c 295e aa3b 65f6 27bc

action_model._continuous_distribution.mu.bias f4 [2]
0.0 0.0
00000000: 0000 0000 0000 0000

action_model._discrete_distribution.branches.0.weight f4 [1, 128]
-0.01135581 -0.010056827 0.0009610727 0.0020225917 -0.00045394138 0.008721751 -0.0020480428 -0.0030951987
0.0037397617 -0.0045477846 -0.0055768685 0.0016891158 0.0056180684 0.010362969 0.0042815986 -0.002909947
-0.0019805932 -0.0009407008 0.005928668 -0.009111267 0.0038023877 -0.0032840266 0.010715709 -0.0021855817
0.010847242 -0.00819946 0.006581042 0.009286778 -0.0013788486 -0.005523326 0.020575637 0.00712332
-0.007361448 0.010251125 -0.018710248 0.007368184 -0.0030479275 0.009686705 0.0067390585 -0.0029651723
-0.001629026 -0.011568365 0.010938395 -0.00630917 -0.00995551 0.013994354 -0.008152986 0.00819873
-0.0027309821 0.008756704 0.00018522468 0.01192289 -0.019272527 0.00499569 0.011763545 2.1489468e-05
0.009455759 0.008756389 0.00717545 -0.0086346185 -0.0060808184 -0.0047825705 -0.0028527693 -0.0013837445
-0.007102554 -0.006114745 0.012862015 -0.0029790371 0.0058558728 0.006071377 -0.0003352894 -0.015068713
0.0036796355 0.01054821 -0.0055913585 0.0027256755 0.0068647126 -0.004693031 0.011157385 -0.0032510434
0.0013701443 0.006346041 -0.0060126027 0.0031696626 -0.006567174 0.00062703807 0.014158155 0.0070836074
0.004333149 0.005366135 0.0014376411 -0.0027368118 -0.012363712 -0.0030326934 0.0034146463 -0.018246055
-0.022524113 0.014052856 -0.0012700902 -0.008599891 -0.0030703612 -0.009647286 0.0076341326 0.004742629
-0.0033980613 0.009708958 -0.012015659 0.008700734 -0.00047996137 -0.0064867223 -0.009480484 -0.021182654
-0.0153836 -0.0031036162 -0.008789919 0.0016959499 0.00125222 0.0040922766 -0.004706533 -5.161868e-05
-0.0023375496 -0.0013523897 -0.0037869446 -0.007172347 -0.0014574853 -0.007756227 0.013800246 -0.0013466163
00000000: b80d 3abc 64c5 24bc 7ff0 7b3a 758d 043b
00000010: fbfe edb9 ade5 0e3c 7538 06bb d1d8 4abb
00000020: ca16 753b 9505 95bb 2abe b6bb 5265 dd3a
00000030: c617 b83b 71c9 293c a74c 8c3b cfb4 3ebb
00000040: d7cc 01bb 5d99 76ba 4645 c23b 6c47 15bc
00000050: 7b31 793b d338 57bb f190 2f3c fa3b 0fbb
00000060: a1b8 313c 0757 06bc c8a5 d73b 9227 183c
00000070: 7bba b4ba 04fd b4bb 3d8e a83c bd6a e93b
00000080: 4d38 f1bb 56f4 273c 3c46 99bc cf70 f13b
00000090: bdbf 47bb fcb4 1e3c 52d3 dc3b 5653 42bb
000000a0: 0b85 d5ba 3d89 3dbc f436 333c 27bd cebb
000000b0: 6f1c 23bc 9348 653c 1a94 05bc f753 063c
000000c0: 47fa 32bb 4778 0f3c df38 4239 3a58 433c
000000d0: 6be1 9dbc e3b2 a33b e2bb 403c 4844 b437
000000e0: 54ec 1a3c f576 0f3c 0a20 eb3b 3778 0dbc
000000f0: 9a41 c7bb 1cb7 9cbb 87f5 3abb c35e b5ba
00000100: 8bbc e8bb 335e c8bb 33bb 523c f33b 43bb
00000110: 9fe2 bf3b 67f2 c63b c8c9 afb9 c3e2 76bc
00000120: 0a26 713b 66d2 2c3c b737 b7bb 3fa1 323b
00000130: 62f1 e03b ffc7 99bb 77cd 363c 750f 55bb
00000140: 6a96 b33a 73f2 cf3b 5e05 c5bb 1dba 4f3b
00000150: 7331 d7bb d05f 243a 9bf7 673c 9b1d e83b
00000160: 17fd 8d3b 67d6 af3b 3b6f bc3a 155c 33bb
00000170: 2b91 4abc 27c0 46bb 42c8 5f3b c078 95bc
00000180: 7d84 b8bc f33d 663c 2879 a6ba 8fe6 0cbc
00000190: 1d38 49bb a60f 1ebc bf27 fa3b 0e68 9b3b
000001a0: 02b2 5ebb 5212 1f3c 54dd 44bc 868d 0e3c
000001b0: 53a3 fbb9 928e d4bb 0854 1bbc 3f87 adbc
000001c0: 7f0b 7cbc 0a66 4bbb 9803 10bc a34a de3a
000001d0: 8821 a43a 8118 863b 4339 9abb 2381 58b8
000001e0: 9331 19bb ab42 b1ba 632e 78bb 0206 ebbb
000001f0: 1709 bfba f327 febb 6d1a 623c f280 b0ba

critic.network_body.linear_encoder.seq_layers.0.weight f4 [128, 6]
0.6448582 -0.3578372 -0.07408078 0.4075443 0.35448837 0.2567196 0.13937287 0.7817623
0.05872698 -0.2805509 0.08234248 -1.26316 0.2937323 0.36985645 -0.14264977 -0.43998715
0.22454298 -0.67967474 0.45559078 0.3176436 -0.5462981 0.2036921 0.05490906 -0.004640827
-0.43448234 -0.23548336 0.5272957 0.33811447 -0.2962563 -0.1157116 0.45502487 -0.7287463
0.15078819 -0.53967655 -0.13495094 -0.055133186 0.3051318 -0.07684311 0.23922026 0.51782703
-0.24664107 0.1484386 0.13598111 -0.4610966 -0.32456845 -0.45704597 0.2926497 -0.3320795
-0.5713493 0.09187248 -0.08573575 0.9564913 0.2730025 -0.024211328 0.21094094 -0.044621576
0.5044327 -0.12436908 -0.27121484 -0.28987074 -0.09434239 -0.49255365 0.084483676 -0.19291158
-0.48498005 -0.13673091 0.21185999 0.30802414 -0.19549166 0.3758139 0.79255307 0.54115224
0.04684862 -0.3869569 0.7301257 -0.18971723 -0.396558 0.41760245 0.3185843 0.0040809466
-0.41108885 -0.84358585 0.4250942 -0.33530676 -0.46407548 -0.33485755 -0.060626455 0.43662655
0.3907597 -0.75756955 0.08201135 -0.13198552 -1.0925426 0.7399252 0.04318167 -0.9554649
-1.2623667 0.2951865 -1.1504725 0.556767 0.359704 -0.6724935 -0.49224898 -0.13516958
0.6348838 0.6278459 -0.08732884 -0.28458446 0.24949376 0.8827101 0.40582478 -0.23660944
0.38466662 -0.16869654 -1.2343749 0.45092312 0.39089045 -0.5378117 0.36291468 0.63409466
-0.1258181 0.14159721 -0.10187242 0.22072615 0.21371661 0.07148028 0.20202185 -0.050304327
0.23822278 -0.51264244 0.10006973 -0.1139624 -0.52348644 -0.26565313 0.1533176 -0.5603028
-0.03494813 0.10117284 1.1559274 -0.2915707 0.12808017 0.1725379 0.99159896 -0.17180136
-0.5612389 -0.8570985 0.0037171848 0.06443641 -0.06441711 0.02118012 -0.29040608 -0.4536423
0.52949816 -0.17356028 -0.62503153 0.5311404 0.008045368 0.09227138 -0.09046167 -0.040305298
0.6827036 0.25218248 -0.41136578 0.33376008 0.9510373 0.040666 -0.28827995 -0.7068428
-1.1875987 -0.6568206 -0.089324504 0.47424462 -0.12489829 0.014229454 -0.30459222 0.3410086
0.41958454 -0.10451415 -0.09545726 0.55703735 0.68254066 -0.029375475 0.43651262 -0.32544428
-0.43699226 -0.010868395 0.65225244 -0.22210748 0.22018187 0.06957028 0.5731949 -0.52973014
0.35353374 0.051780254 0.6373647 0.37762657 0.05138409 0.4263301 -0.07200066 0.21297412
-0.29705974 0.072277874 -0.37621284 0.09690727 -0.46216562 0.029843267 -0.26670083 -0.028845247
-0.35841668 0.23686871 0.09634091 -0.24384427 0.13367 0.8984003 -0.08078447 -0.28441545
0.3557772 0.18159644 0.6119765 0.2922062 -0.30276757 -0.6559755 -0.17670082 0.118593015
0.43776748 0.44870046 0.13535978 -0.18357489 -0.534588 0.1226789 0.13167664 0.43647
0.74231005 0.17631437 -0.85119647 0.27704564 0.40154046 -0.112568244 0.0031201767 -0.42774305
0.27970353 0.017109359 -0.22002447 0.22150713 -0.26603514 0.06574941 0.02876025 -0.20220633
0.18268311 -0.075411506 0.09023635 -0.1583911 0.18091281 -0.7116779 -0.039979767 0.54692525
00000000: 6d15 253f 7036 b7be aab7 97bd a6a9 d03e
00000010: 807f b53e c070 833e c3b7 0e3e 9321 483f
00000020: b48b 703d 5ea4 8fbe 2da3 a83d 3aaf a1bf
00000030: 1464 963e d35d bd3e c812 12be ff45 e1be
00000040: 98ee 653e 2aff 2dbf 3243 e93e 2fa2 a23e
00000050: 31da 0bbf a994 503e 53e8 603d 1412 98bb
00000060: 7874 debe 8d22 71be dafc 063f 571d ad3e
00000070: e8ae 97be 34fa ecbd 05f9 e83e 1e8f 3abf
00000080: 3868 1a3e 3e28 0abf 9430 0abe 56d3 61bd
00000090: 3c3a 9c3e ec5f 9dbd 28f6 743e 5090 043f
000000a0: 7a8f 7cbe 4a00 183e a23e 0b3e db14 ecbe
000000b0: d62d a6be ee01 eabe 2ed6 953e 5306 aabe
000000c0: f343 12bf a427 bc3d 3a96 afbd 9ddc 743f
000000d0: fcc6 8b3e d656 c6bc e700 583e 1dc5 36bd
000000e0: 8022 013f 37b5 febd acdc 8abe f069 94be
000000f0: 9536 c1bd fe2f fcbe c705 ad3d 9d8a 45be
00000100: 4e4f f8be 3003 0cbe d3f1 583e 57b5 9d3e
00000110: f72e 48be ae6a c03e c2e4 4a3f f488 0a3f
00000120: 57e4 3f3d 371f c6be 85e9 3a3f 3c45 42be
00000130: a609 cbbe fdcf d53e 7b1d a33e 76b9 853b
00000140: 3d7a d2be 3ef5 57bf f2a5 d93e 54ad abbe
00000150: 4d9b edbe 7372 abbe 7253 78bd 848d df3e
00000160: a811 c83e 14f0 41bf 91f5 a73d 3627 07be
00000170: 70d8 8bbf bd6b 3d3f 43df 303d 5999 74bf
00000180: 3b95 a1bf af22 973e af42 93bf 4888 0e3f
00000190: 1f2b b83e 8928 2cbf 0f08 fcbe e569 0abe
000001a0: bf87 223f 82ba 203f 76d9 b2bd 0eb5 91be
000001b0: 4b7b 7f3e 4af9 613f 44c8 cf3e bf49 72be
000001c0: 06f3 c43e c9be 2cbe ffff 9dbf 65df e63e
000001d0: cb22 c83e 07ae 09bf f4cf b93e 0754 223f
000001e0: 76d6 00be dcfe 103e 7da2 d0bd 0906 623e
000001f0: 87d8 5a3e 4164 923d d1de 4e3e e90b 4ebd
00000200: acf0 733e 893c 03bf 5cf1 cc3d 1e65 e9bd
00000210: 3503 06bf b003 88be 4aff 1c3e 0170 0fbf
00000220: c525 0fbd b533 cf3d 6ef5 933f c148 95be
00000230: 7327 033e c6ad 303e 6ed9 7d3f b2ec 2fbe
00000240: 5aad 0fbf cf6a 5bbf 039c 733b 3df7 833d
00000250: 1eed 83bd ee81 ad3c 1bb0 94be ce43 e8be
00000260: 318d 073f c9b9 31be 1102 20bf d1f8 073f
00000270: b8d0 033c c7f8 bc3d f843 b9bd 2b17 25bd
00000280: aac5 2e3f 101e 813e 899e d2be 9ae2 aa3e
00000290: 2e77 733f 6491 263d 6e99 93be a6f3 34bf
000002a0: 3c03 98bf 6525 28bf c4ef b6bd 31d0 f23e
000002b0: adca ffbd a822 693c 83f3 9bbe ae98 ae3e
000002c0: c9d3 d63e 840b d6bd 197f c3bd 009a 0e3f
000002d0: fcba 2e3f d6a4 f0bc 957e df3e a2a0 a6be
000002e0: 73bd dfbe 5a11 32bc 04fa 263f 2570 63be
000002f0: 5b77 613e dd7a 8e3d e7bc 123f 659c 07bf
00000300: 6002 b53e 8817 543d 552a 233f 4558 c13e
00000310: 2078 523d f047 da3e 1575 93bd e315 5a3e
00000320: 3718 98be 6c06 943d f89e c0be 5277 c63d
00000330: f9a0 ecbe de79 f43c 038d 88be de4c ecbc
00000340: 6482 b7be b68d 723e 624e c53d 50b2 79be
00000350: cae0 083e 90fd 653f 5472 a5bd e79e 91be
00000360: 6e28 b63e 6bf4 393e 7eaa 1c3f 0d9c 953e
00000370: 5a04 9bbe 03ee 27bf 0ff1 34be e5e0 f23d
00000380: 0f23 e03e 11bc e53e c19b 0a3e 0efb 3bbe
00000390: c2da 08bf 133f fb3d 3ed6 063e ff78 df3e
000003a0: 0808 3e3f c18b 343e 03e8 59bf edd8 8d3e
000003b0: b696 cd3e 2e8a e6bd e17b 4c3b 2301 dbbe
000003c0: 4d35 8f3e ed28 8c3c 184e 61be c4d2 623e
000003d0: c235 88be a0a7 863d 9e9a eb3c 2d0f 4fbe
000003e0: 4811 3b3e 5971 9abd d6cd b83d 4731 22be
000003f0: 3541 393e 8630 36bf d3c1 23bd 4b03 0c3f

critic.network_body.linear_encoder.seq_layers.0.bias f4 [128]
0.0 0.0 0.0 0.0 0.0 0.0 0.0 0.0
0.0 0.0 0.0 0.0 0.0 0.0 0.0 0.0
0.0 0.0 0.0 0.0 0.0 0.0 0.0 0.0
0.0 0.0 0.0 0.0 0.0 0.0 0.0 0.0
0.0 0.0 0.0 0.0 0.0 0.0 0.0 0.0
0.0 0.0 0.0 0.0 0.0 0.0 0.0 0.0
0.0 0.0 0.0 0.0 0.0 0.0 0.0 0.0
0.0 0.0 0.0 0.0 0.0 0.0 0.0 0.0
0.0 0.0 0.0 0.0 0.0 0.0 0.0 0.0
0.0 0.0 0.0 0.0 0.0 0.0 0.0 0.0
0.0 0.0 0.0 0.0 0.0 0.0 0.0 0.0
0.0 0.0 0.0 0.0 0.0 0.0 0.0 0.0
0.0 0.0 0.0 0.0 0.0 0.0 0.0 0.0
0.0 0.0 0.0 0.0 0.0 0.0 0.0 0.0
0.0 0.0 0.0 0.0 0.0 0.0 0.0 0.0
0.0 0.0 0.0 0.0 0.0 0.0 0.0 0.0
00000000: 0000 0000 0000 0000 0000 0000 0000 0000
00000010: 0000 0000 0000 0000 0000 0000 0000 0000
00000020: 0000 0000 0000 0000 0000 0000 0000 0000
00000030: 0000 0000 0000 0000 0000 0000 0000 0000
00000040: 0000 0000 0000 0000 0000 0000 0000 0000
00000050: 0000 0000 0000 0000 0000 0000 0000 0000
00000060: 0000 0000 0000 0000 0000 0000 0000 0000
00000070: 0000 0000 0000 0000 0000 0000 0000 0000
00000080: 0000 0000 0000 0000 0000 0000 0000 0000
00000090: 0000 0000 0000 0000 0000 0000 0000 0000
000000a0: 0000 0000 0000 0000 0000 0000 0000 0000
000000b0: 0000 0000 0000 0000 0000 0000 0000 0000
000000c0: 0000 0000 0000 0000 0000 0000 0000 0000
000000d0: 0000 0000 0000 0000 0000 0000 0000 0000
000000e0: 0000 0000 0000 0000 0000 0000 0000 0000
000000f0: 0000 0000 0000 0000 0000 0000 0000 0000
00000100: 0000 0000 0000 0000 0000 0000 0000 0000
00000110: 0000 0000 0000 0000 0000 0000 0000 0000
00000120: 0000 0000 0000 0000 0000 0000 0000 0000
00000130: 0000 0000 0000 0000 0000 0000 0000 0000
00000140: 0000 0000 0000 0000 0000 0000 0000 0000
00000150: 0000 0000 0000 0000 0000 0000 0000 0000
00000160: 0000 0000 0000 0000 0000 0000 0000 0000
00000170: 0000 0000 0000 0000 0000 0000 0000 0000
00000180: 0000 0000 0000 0000 0000 0000 0000 0000
00000190: 0000 0000 0000 0000 0000 0000 0000 0000
000001a0: 0000 0000 0000 0000 0000 0000 0000 0000
000001b0: 0000 0000 0000 0000 0000 0000 0000 0000
000001c0: 0000 0000 0000 0000 0000 0000 0000 0000
000001d0: 0000 0000 0000 0000 0000 0000 0000 0000
000001e0: 0000 0000 0000 0000 0000 0000 0000 0000
000001f0: 0000 0000 0000 0000 0000 0000 0000 0000

critic.network_body.linear_encoder.seq_layers.2.weight f4 [128, 128]
-0.023038305 -0.046776015 0.0064870175 -0.121070646 -0.027041372 0.1076821 -0.14331214 -0.08107369
-0.088331476 0.2314117 -0.0818926 -0.17005178 0.0029400613 -0.071250826 -0.0755183 0.023415953
0.10745325 -0.005267895 -0.015101144 -0.05437915 -0.087562874 -0.09218049 0.08865737 0.064415984
-0.13858075 0.05164204 -0.041686445 0.031216988 -0.0535611 -0.033981062 0.097134225 -0.060880367
0.07770837 0.035625827 -0.13629499 0.03259834 0.007695474 0.031928066 -0.14486502 -0.0991375
0.029042155 -0.111442395 -0.037390884 -0.0807888 -0.11777617 0.19604628 0.059828877 -0.011964363
-0.021947125 0.18370323 -0.010319652 0.20782942 0.0052730865 0.12741241 0.060786754 -0.06253427
0.083637625 0.025573704 -0.07107133 -0.031727258 -0.1971684 -0.18324183 -0.022645323 0.119631365
-0.04194186 -0.18549277 -0.057209585 0.08866323 -0.02636337 0.048243757 -0.07254473 -0.09735571
0.14310141 0.076360494 -0.031012494 -0.019361315 -0.03032534 -0.07065442 0.08522054 0.11990676
-0.100340515 0.056047965 -0.09565923 -0.06989616 0.019601988 0.03564603 -0.009874417 -0.029284919
0.17153668 -0.016442783 0.15359612 0.04653434 -0.0628269 0.049752057 -0.04680451 -0.09070401
0.13340744 -0.04952172 0.015400184 -0.10151655 0.062346898 0.051433664 0.035892628 -0.0014245592
0.017916784 0.039515864 0.13008161 0.029403938 0.06294079 0.040631983 0.03789646 0.01801768
0.09985155 0.07989073 0.01671587 -0.17890298 0.0667931 0.07185467 -0.05105517 0.108043484
-0.08080079 0.12514758 -0.11526458 0.032340508 0.006525864 0.05885999 -0.10386178 -0.11242637
-0.104528785 0.009998637 -0.058987547 -0.008419646 0.23062329 -0.0153096765 -0.07263627 0.11429904
0.09995555 -0.0820776 -0.07174396 -0.16761309 -0.08093798 0.01588811 -0.07969235 0.14484169
-0.07378294 0.15328275 0.063105345 0.027958902 0.041501738 -0.11932861 0.08209838 -0.029444486
0.013324934 0.002974895 -0.1321998 -0.049273197 0.030050745 -0.07934884 -0.11307768 0.19904591
0.08376047 0.034153707 -0.12007419 0.12800503 0.08231709 0.022627765 0.0014663544 -0.016696598
-0.044693682 -0.106625095 -0.0676669 0.079726025 -0.072596855 -0.0210876 -0.0822964 0.11533136
-0.07806675 0.003627404 -0.19341369 0.1542522 0.17903568 -0.08990098 0.14379162 -0.0051323306
0.0223991 0.016973762 -0.06769106 -0.037422396 -0.0009942935 0.06623339 0.013242749 0.019653777
0.11841084 -0.218575 0.20636578 0.080623664 0.16670641 -0.12195086 0.04603416 -0.20092104
-0.05390699 -0.09203533 0.020801378 0.040251683 -0.105264775 0.12411826 -0.19362003 -0.10894746
0.11379511 -0.02224632 0.18857446 0.021853719 -0.15184143 0.18859279 0.103278 -0.061678562
0.03821286 0.08522606 -0.02184998 -0.037842426 0.05868482 -0.003318385 0.10670713 -0.03904662
0.11096579 -0.05005535 0.014184947 -0.042533457 0.056959443 -0.11585549 -0.21721151 -0.0044019823
0.124471486 -0.1441823 -0.10608576 -0.062661216 -0.10913543 -0.03884918 0.011567639 -0.0013326741
-0.043330573 0.14265938 -0.042775534 -0.01664641 -0.009342692 -0.033632256 -0.08355624 0.13594909
0.0050398237 -0.07957483 0.01528498 -0.06107917 0.028672853 0.12816285 -0.07959513 -0.07153516
00000000: d4ba bcbc 3598 3fbd 0c91 d43b e3f3 f7bd
00000010: de85 ddbc 6f88 dc3d 6bc0 12be f609 a6bd
00000020: 22e7 b4bd 30f7 6c3e 4fb7 a7bd 0e22 2ebe
00000030: 0bae 403b f4eb 91bd 57a9 9abd d0d2 bf3c
00000040: 7310 dc3d 4e9e acbb ca6a 77bc acbc 5ebd
00000050: 2a54 b3bd 20c9 bcbd ff91 b53d 87ec 833d
00000060: 1de8 0dbe 9b86 533d 68bf 2abd c5ba ff3c
00000070: e262 5bbd ba2f 0bbd 4fee c63d b15d 79bd
00000080: 9125 9f3d 63ec 113d ea90 0bbe d685 053d
00000090: 512a fc3b 01c7 023d 7f57 14be 9a08 cbbd
000000a0: d0e9 ed3c e93b e4bd 2f27 19bd 9974 a5bd
000000b0: a234 f1bd 5bc0 483e 200f 753d 2d06 44bc
000000c0: 75ca b3bc b31c 3c3e c213 29bc 3cd1 543e
000000d0: dbc9 ac3b 6678 023e 88fb 783d f811 80bd
000000e0: 344a ab3d f27f d13c d88d 91bd 71f4 01bd
000000f0: 83e6 49be bfa3 3bbe af82 b9bc 4a01 f53d
00000100: 3acb 2bbd d1f1 3dbe 9954 6abd 1195 b53d
00000110: fef7 d7bc 3f9b 453d 5592 94bd 6e62 c7bd
00000120: 2d89 123e e462 9c3d ea0d febc 9f9b 9ebc
00000130: d96c f8bc 44b3 90bd 1b88 ae3d ad91 f53d
00000140: 547f cdbd 8d92 653d fde8 c3bd b825 8fbd
00000150: 5994 a03c 9201 123d 4fc8 21bc ede6 efbc
00000160: 50a7 2f3e 04b3 86bc 4d48 1d3e cb9a 3e3d
00000170: 64ab 80bd d0c8 4b3d 16b6 3fbd 06c3 b9bd
00000180: f69b 083e 49d7 4abd 0e51 7c3c e9e7 cfbd
00000190: 765f 7f3d 1bac 523d 2604 133d 46b8 baba
000001a0: 38c6 923c 63db 213d 1d34 053e 87e0 f03c
000001b0: 1ae7 803d b96d 263d 5239 1b3d d099 933c
000001c0: f87e cc3d c09d a33d b8ef 883c 5832 37be
000001d0: d2ca 883d 8b28 933d 3a1f 51bd e745 dd3d
000001e0: e27a a5bd b026 003e d60f ecbd 7b77 043d
000001f0: ead6 d53b 2c17 713d 7cb5 d4bd cc3f e6bd
00000200: 3013 d6bd 53d1 233c ed9c 71bd 8ef2 09bc
00000210: 8328 6c3e 70d5 7abc 53c2 94bd 9d15 ea3d
00000220: 7fb5 cc3d 4d18 a8bd 7fee 92bd c4a2 2bbe
00000230: d0c2 a5bd c827 823c be35 a3bd 6151 143e
00000240: 831b 97bd 27f6 1c3e 603d 813d 110a e53c
00000250: bafd 293d 8f62 f4bd 3223 a83d 9035 f1bc
00000260: d350 5a3c 75f6 423b 625f 07be b1d2 49bd
00000270: fb2c f63c a581 a2bd 4595 e7bd b1d2 4b3e
00000280: 9c8a ab3d c2e4 0b3d 75e9 f5bd c013 033e
00000290: dd95 a83d dd5d b93c b032 c03a 4ec7 88bc
000002a0: b910 37bd 425e dabd f294 8abd 6647 a33d
000002b0: a9ad 94bd e7bf acbc 048b a8bd d932 ec3d
000002c0: 76e1 9fbd beb9 6d3b 3d0e 46be 4af4 1d3e
000002d0: 2155 373e 011e b8bd 1c3e 133e 1c2d a8bb
000002e0: 517e b73c 8f0c 8b3c 9ca1 8abd 3a48 19bd
000002f0: f452 82ba 5fa5 873d 1df8 583c f500 a13c
00000300: 6281 f23d 20d2 5fbe 8d51 533e 051e a53d
00000310: 16b5 2a3e 5fc1 f9bd 518e 3c3d 3fbe 4dbe
00000320: 93cd 5cbd 057d bcbd a767 aa3c f3de 243d
00000330: 0f95 d7bd b731 fe3d 5444 46be d91f dfbd
00000340: 690d e93d ea3d b6bc aa19 413e 9206 b33c
00000350: 527c 1bbe 781e 413e 6b83 d33d a9a2 7cbd
00000360: 1685 1c3d 008b ae3d bbfe b2bc a900 1bbd
00000370: 7e5f 703d 4379 59bb 4589 da3d 59ef 1fbd
00000380: 0842 e33d d706 4dbd fb67 683c 9037 2ebd
00000390: 4e4e 693d a545 edbd b26c 5ebe 813e 90bb
000003a0: e8ea fe3d 86a4 13be 7e43 d9bd 8654 80bd
000003b0: 6582 dfbd 5120 1fbd 3286 3d3c 1fad aeba
000003c0: 667b 31bd 4d15 123e 6635 2fbd 0d5e 88bc
000003d0: 1712 19bc fac1 09bd 891f abbd 3d36 0b3e
000003e0: 1b25 a53b 21f8 a2bd da6d 7a3c 272e 7abd
000003f0: 55e3 ea3c 1f3d 033e c602 a3bd 0781 92bd

critic.network_body.linear_encoder.seq_layers.2.bias f4 [128]
0.0 0.0 0.0 0.0 0.0 0.0 0.0 0.0
0.0 0.0 0.0 0.0 0.0 0.0 0.0 0.0
0.0 0.0 0.0 0.0 0.0 0.0 0.0 0.0
0.0 0.0 0.0 0.0 0.0 0.0 0.0 0.0
0.0 0.0 0.0 0.0 0.0 0.0 0.0 0.0
0.0 0.0 0.0 0.0 0.0 0.0 0.0 0.0
0.0 0.0 0.0 0.0 0.0 0.0 0.0 0.0
0.0 0.0 0.0 0.0 0.0 0.0 0.0 0.0
0.0 0.0 0.0 0.0 0.0 0.0 0.0 0.0
0.0 0.0 0.0 0.0 0.0 0.0 0.0 0.0
0.0 0.0 0.0 0.0 0.0 0.0 0.0 0.0
0.0 0.0 0.0 0.0 0.0 0.0 0.0 0.0
0.0 0.0 0.0 0.0 0.0 0.0 0.0 0.0
0.0 0.0 0.0 0.0 0.0 0.0 0.0 0.0
0.0 0.0 0.0 0.0 0.0 0.0 0.0 0.0
0.0 0.0 0.0 0.0 0.0 0.0 0.0 0.0
00000000: 0000 0000 0000 0000 0000 0000 0000 0000
00000010: 0000 0000 0000 0000 0000 0000 0000 0000
00000020: 0000 0000 0000 0000 0000 0000 0000 0000
00000030: 0000 0000 0000 0000 0000 0000 0000 0000
00000040: 0000 0000 0000 0000 0000 0000 0000 0000
00000050: 0000 0000 0000 0000 0000 0000 0000 0000
00000060: 0000 0000 0000 0000 0000 0000 0000 0000
00000070: 0000 0000 0000 0000 0000 0000 0000 0000
00000080: 0000 0000 0000 0000 0000 0000 0000 0000
00000090: 0000 0000 0000 0000 0000 0000 0000 0000
000000a0: 0000 0000 0000 0000 0000 0000 0000 0000
000000b0: 0000 0000 0000 0000 0000 0000 0000 0000
000000c0: 0000 0000 0000 0000 0000 0000 0000 0000
000000d0: 0000 0000 0000 0000 0000 0000 0000 0000
000000e0: 0000 0000 0000 0000 0000 0000 0000 0000
000000f0: 0000 0000 0000 0000 0000 0000 0000 0000
00000100: 0000 0000 0000 0000 0000 0000 0000 0000
00000110: 0000 0000 0000 0000 0000 0000 0000 0000
00000120: 0000 0000 0000 0000 0000 0000 0000 0000
00000130: 0000 0000 0000 0000 0000 0000 0000 0000
00000140: 0000 0000 0000 0000 0000 0000 0000 0000
00000150: 0000 0000 0000 0000 0000 0000 0000 0000
00000160: 0000 0000 0000 0000 0000 0000 0000 0000
00000170: 0000 0000 0000 0000 0000 0000 0000 0000
00000180: 0000 0000 0000 0000 0000 0000 0000 0000
00000190: 0000 0000 0000 0000 0000 0000 0000 0000
000001a0: 0000 0000 0000 0000 0000 0000 0000 0000
000001b0: 0000 0000 0000 0000 0000 0000 0000 0000
000001c0: 0000 0000 0000 0000 0000 0000 0000 0000
000001d0: 0000 0000 0000 0000 0000 0000 0000 0000
000001e0: 0000 0000 0000 0000 0000 0000 0000 0000
000001f0: 0000 0000 0000 0000 0000 0000 0000 0000

critic.value_heads.value_heads.extrinsic.weight f4 [1, 128]
-0.020028323 -0.06112978 -0.019713968 0.20208332 0.022397146 -0.11057676 0.10545242 -0.042040378
0.14514917 0.19194031 -0.12990674 -0.025430396 -0.18569466 0.07131529 -0.10880364 0.15141723
0.16761431 -0.09826093 0.032856226 0.1148797 0.13214716 0.03425221 0.13562757 -0.19736798
0.0868606 0.12427646 -0.1582491 -0.17651232 0.17426461 0.13322517 0.21364093 -0.000358209
0.00651668 0.14353457 -0.013096228 0.16854852 0.20741054 0.21552613 -0.14924982 0.10609722
0.054248065 -0.09466263 -0.15273371 -0.104883656 0.073948085 -0.20729914 0.09975317 -0.15032825
0.18550861 0.12057057 0.02776654 0.032892495 0.10570654 0.07688072 0.17411911 -0.002862528
-0.085666746 0.10646078 0.030190289 0.0074215084 -0.21162248 -0.13171881 0.009720162 0.20999867
0.210888 0.20282322 0.08064523 0.05726415 -0.07697262 0.020634934 0.14863542 0.00093610585
0.061097533 0.06827587 -0.21172999 0.061629355 0.18144101 0.20084599 0.113030255 0.16497156
0.21471238 0.16802782 0.102858245 -0.015350997 -0.05152534 -0.079210624 -0.14078672 -0.07451087
0.1587427 -0.102933735 0.05124384 -0.18050808 0.13656297 -0.16277575 0.042374015 0.085519254
-0.023608476 0.011387512 -0.11907665 0.16271263 0.07617593 0.014586866 -0.14098121 -0.09905016
-0.19691709 -0.13517566 -0.091038436 0.053377718 -0.18299502 -0.002414927 -0.08303784 -0.051036835
-0.11852919 0.1199218 -0.0072361976 0.12418595 -0.15169609 -0.16343835 -0.1052287 0.1679948
-0.19401674 0.14797878 0.015786335 -0.07958467 -0.1755228 0.025377944 -0.19135678 -0.17785016
00000000: 7012 a4bc 3863 7abd 307f a1bc eeee 4e3e
00000010: 387a b73c 1176 e2bd 70f7 d73d 8832 2cbd
00000020: fca1 143e 008c 443e 4606 05be 6853 d0bc
00000030: be26 3ebe c00d 923d 71d4 debd 1e0d 1b3e
00000040: 16a3 2b3e 073d c9bd 4094 063d 0c46 eb3d
00000050: 9651 073e 0c4c 0c3d f4e1 0a3e d51a 4abe
00000060: f8e3 b13d a884 fe3d 0d0c 22be a5bf 34be
00000070: 6c72 323e 2e6c 083e b0c4 5a3e 00ce bbb9
00000080: e089 d53b bafa 123e 9091 56bc fc97 2c3e
00000090: 6e63 543e e2b2 5c3e f2d4 18be 8049 d93d
000000a0: 3833 5e3d 7bde c1bd 3a66 1cbe 3ecd d6bd
000000b0: 1872 973d 3a46 54be 644b cc3d a6ef 19be
000000c0: f8f5 3d3e b4ed f63d a876 e33c 48ba 063d
000000d0: ac7c d83d a473 9d3d 484c 323e 4099 3bbb
000000e0: 0c72 afbd 1c08 da3d a051 f73c 2030 f33b
000000f0: 90b3 58be 4ce1 06be 5041 1f3c e409 573e
00000100: 06f3 573e e4b0 4f3e 5429 a53d d08d 6a3d
00000110: d2a3 9dbd 980a a93c e233 183e 0065 753a
00000120: 6841 7a3d 38d4 8b3d bfcf 58be 106f 7c3d
00000130: accb 393e 92aa 4d3e 687c e73d 4eee 283e
00000140: 90dd 5b3e 7c0f 2c3e 58a7 d23d c082 7bbc
00000150: 3c0c 53bd 2e39 a2bd 652a 10be 2899 98bd
00000160: 728d 223e ecce d2bd 10e5 513d 1cd7 38be
00000170: 2ad7 0b3e b0ae 26be 6090 2d3d b824 af3d
00000180: 9066 c1bc b092 3a3c 75de f3bd 249e 263e
00000190: 2002 9c3d c0fd 6e3c 615d 10be cfda cabd
000001a0: a2a4 49be 7d6b 0abe 5c72 babd 98a2 5a3d
000001b0: 0c63 3bbe c043 1ebb be0f aabd 000c 51bd
000001c0: 6fbf f2bd 9099 f53d a01d edbb 3455 fe3d
000001d0: 3856 1bbe 625c 27be 2582 d7bd d406 2c3e
000001e0: 53ac 46be c087 173e 5852 813c 4afd a2bd
000001f0: 40bc 33be 68e5 cf3c 08f3 43be 5a1e 36be
