results/scoreGoal5/HitTheBall/HitTheBall-1483.onnx (onnx, 74062 bytes, 8 tensors)

action_model._continuous_distribution.log_sigma f4 [1, 2]
000000 00 00 00 00 00 00 00 00
       0.0 0.0

action_model._continuous_distribution.mu.bias f4 [2]
000000 00 00 00 00 00 00 00 00
       0.0 0.0

action_model._continuous_distribution.mu.weight f4 [2, 128]
000000 e6 1f 05 3b 38 5c 72 3c 3a 43 1e bc 65 a6 31 bc
       0.0020313202 0.0147924945 -0.009659583 -0.010842894
000010 43 49 75 bc 32 71 70 3c 95 87 57 bc 19 4d 9f 3b
       -0.01497108 0.014675425 -0.013154884 0.0048614857
000020 07 f3 65 3b cf d9 f4 3c 90 c5 6d bc cf 65 ec 3c
       0.0035087483 0.029889015 -0.014512435 0.02885714
000030 12 28 1d bd cf cc 14 bc 77 33 24 3c 05 0b 67 b7
       -0.038368292 -0.009082033 0.010022036 -1.3771239e-05
000040 c5 9e bc bc 3b b9 ad 3c a7 90 0c bc 38 cc e2 ba
       -0.023024926 0.021206489 -0.00857941 -0.0017303294
000050 ff cf 89 bc c1 b8 3f 3c f7 43 4f 3c 76 86 3b 3c
       -0.016822813 0.011701764 0.012650481 0.011445632
000060 67 08 a7 bc ff 77 1e 3b 26 ee 2d bc 0c b1 09 bd
       -0.020389749 0.002418041 -0.010615861 -0.03361611
000070 d6 d8 13 bc e9 68 bd bb 11 7f 3d bd 77 a8 ba bc
       -0.009023866 -0.0057803285 -0.046263758 -0.022785408
000080 77 a4 48 bc 18 39 49 bb 93 50 62 bc 79 d5 2f 3b
       -0.012246243 -0.0030704197 -0.013813156 0.002683012
000090 7f d0 eb ba a8 af a2 3c 07 05 f3 bc 17 c5 2d bc
       -0.0017991214 0.01985915 -0.029665483 -0.010606072
0000a0 9b 6c 80 bc 87 89 3b ba cc 49 42 bc c6 bc 15 3c
       -0.015676787 -0.0007153977 -0.011858415 0.009139245
0000b0 55 70 52 3c af 84 fd bc ed a3 c9 bb 97 86 e9 3b
       0.012844165 -0.030947058 -0.0061535747 0.00712664
0000c0 37 a6 12 3d 54 87 bf 3b 77 72 9d 3c bf ec 02 bd
       0.035803046 0.00584499 0.01921962 -0.03196406
0000d0 35 9d 8c 3b 43 7d 31 3a e7 49 68 bc 96 86 14 bb
       0.0042912015 0.00067706796 -0.014177776 -0.0022663227
0000e0 39 4a b8 bb 4a 5c 5a ba bb 7b 88 3b 53 f3 e4 3c
       -0.0056240824 -0.0008329792 0.0041651404 0.027948057
0000f0 bf b7 9c 3b a2 3e 81 ba 42 fa 5e 3c 7f f8 94 3c
       0.0047826464 -0.0009860585 0.013609471 0.018184898
000100 53 8a 65 3c 4e c5 03 bd 22 d7 d6 3c 2a e0 e7 bc
       0.01401003 -0.032170586 0.02622563 -0.028305132
000110 4b a5 22 bc 6b 04 3b 3c 2e fe 07 3c d6 59 32 3d
       -0.009927104 0.011414628 0.008300347 0.043542705
000120 a6 01 1a 3a 95 77 fa bc 1b 71 29 bb f1 46 0a bc
       0.00058748794 -0.0305746 -0.002585477 -0.008439765
000130 bd 40 4f bb fb bb b4 3b 97 50 82 ba d7 77 3b bb
       -0.003162428 0.005515573 -0.000994223 -0.0028605366
000140 6b c8 19 bc b5 d9 8b 3b 1a bf 19 bc 38 7d ed 3b
       -0.009386162 0.004267896 -0.009383941 0.0072475933
000150 ed 34 96 bc 82 a9 d0 bc 1a 88 f9 39 5f 3a 07 bc
       -0.018335784 -0.025471453 0.00047594385 -0.008253663
000160 cf 2d e0 bb 1d 72 72 bc 3d 6c 4c bc 5d 1b 8e 3c
       -0.0068413983 -0.014797715 -0.012476978 0.017347032
000170 03 a2 9d 3c b6 3f 32 bb 2b af 79 3c c0 4e 6c 3c
       0.019242292 -0.002719862 0.015239517 0.014423072
000180 77 a4 f4 bb 2a 92 8a ba a5 f8 53 3c 87 e2 d2 bc
       -0.007465895 -0.0010572125 0.012937699 -0.025742782
000190 ad bf de 3a 03 3b f1 bc cb 53 92 3c c8 24 f3 bc
       0.001699438 -0.029447084 0.017862221 -0.029680625
0001a0 98 83 7d bc 5b 84 90 bc 35 f4 c1 3b f3 17 56 38
       -0.015473269 -0.017641237 0.0059190043 5.104388e-05
0001b0 cc 1d 42 3d 87 49 75 3c 10 2e 4c 3c 19 da 1f 3a
       0.047391698 0.014971144 0.012462154 0.0006097868
0001c0 87 ef 02 bc c5 a2 5b 3c a9 a0 87 bc bb d6 d7 bc
       -0.007991678 0.0134055065 -0.0165561 -0.026347509
0001d0 5a 79 3e 3b 43 15 9f 3a 59 6c 8a ba af 38 09 bc
       0.002906403 0.0012137074 -0.0010560855 -0.008375331
0001e0 2a 51 09 3d 24 0e 45 3c 90 93 5e 3c 20 4e 95 3c
       0.03352467 0.012027297 0.013584986 0.01822573
0001f0 bb 5a e6 bb 77 bd 7f 3c 43 ee 2a bc 42 ba 5a 3c
       -0.007029859 0.015609137 -0.010432783 0.013350071
000200 dd cb d7 3a f1 8c 81 ba 4f f6 05 3c 62 71 0a 3c
       0.0016463954 -0.0009883923 0.0081764 0.008449884
000210 65 52 f9 3c ff 10 95 bb ef ac 56 39 20 00 3e bc
       0.030434797 -0.0045491452 0.00020473053 -0.0115967095
000220 ef 8b 9c bc 43 b7 4e bc c2 09 35 bc ce 70 06 bc
       -0.019109694 -0.012616935 -0.01104969 -0.008205606
000230 13 73 69 3b fd bb 06 bc 12 b3 e4 3b 87 32 06 3d
       0.0035621568 -0.008223531 0.0069793547 0.03276303
000240 c4 36 1f bc a2 9a 45 3c 7e dc 8d 3c f9 c4 9a bc
       -0.009717647 0.012060793 0.017317053 -0.018892752
000250 fe 4c 46 3c 5b 3d a7 3a 3d dc 6a 3b 19 d4 29 bc
       0.012103317 0.0012759374 0.0035836839 -0.010365509
000260 b6 fa 28 3c 75 65 95 bb d9 6a 27 3b a8 66 c7 3c
       0.01031368 -0.0045592138 0.0025545864 0.024340943
000270 5f a2 33 bc 19 bb 28 3c 3e 39 a4 bc ee 49 49 bc
       -0.010964005 0.010298514 -0.020046826 -0.012285693
000280 0b 34 26 3b a1 02 b1 3c 5d f3 9d 3b 9a c5 15 bc
       0.002536061 0.021607699 0.004820271 -0.00914135
000290 12 36 f4 bc b9 ab b3 bc 69 97 a8 bc 73 db da 3a
       -0.029810939 -0.02193247 -0.02058001 0.0016697481
0002a0 ab 76 bb bb 16 0e b4 bb 2a 73 72 bc b0 d8 c6 3b
       -0.0057209334 -0.0054948432 -0.014797965 0.0060683116
0002b0 e6 dc 89 3c fe 66 32 3c d4 80 ac bc 7a b3 89 bc
       0.016828965 0.010888813 -0.021057524 -0.016809214
0002c0 47 e1 15 3c 10 96 a9 3c a2 1e 33 3c e3 db 38 bb
       0.009147949 0.020701438 0.010932596 -0.0028207235
0002d0 9a c2 cd bb b1 a1 3d 3b 85 82 44 3a 29 c2 cc 39
       -0.006279302 0.0028935487 0.00074962556 0.00039054573
0002e0 37 cd 8a bb b6 81 06 3c eb e5 2c 3d 1d 17 76 bb
       -0.0042358893 0.008209636 0.042211454 -0.0037550398
0002f0 40 e8 1a bc ae 30 b5 3a 23 5e 8e 3c 20 73 a7 bc
       -0.009454787 0.0013823712 0.017378872 -0.020440638
000300 2f 45 5c 3a 4d 1e d1 3b 47 f8 37 3d ca f4 98 3b
       0.0008402643 0.006381786 0.04491451 0.004667853
000310 c5 33 23 3c f7 a9 05 bc 22 2d b5 3c f0 93 e5 3b
       0.009961073 -0.008158199 0.022116248 0.007006161
000320 e2 07 c4 bb a9 f2 a8 3c ff 23 68 3c 85 b7 13 3d
       -0.005982385 0.020623522 0.014168738 0.03606369
000330 d4 96 a1 3c 57 01 94 3b 0f 52 2c 3c 21 e6 81 3b
       0.01972524 0.0045167613 0.010517611 0.003964201
000340 00 b4 8c 3b 9b 37 07 3a 09 8a 1d 3c 25 ef b9 3c
       0.0042939186 0.0005158127 0.00961543 0.02269704
000350 37 ab a9 bb 98 bf f8 3b 58 73 e3 b9 66 91 87 3b
       -0.005177881 0.007591199 -0.00043382752 0.004137206
000360 2b 70 b9 bc 10 1f fd bc a3 64 d8 bb 6a 4f 72 ba
       -0.022636494 -0.0308986 -0.0066037937 -0.0009243401
000370 13 45 77 3c eb 3f 9e bb 9f 11 0e bc 01 69 03 3d
       0.015092152 -0.004829397 -0.008671193 0.03208256
000380 a2 19 c2 3b 2c 00 01 3d 7e df 84 3b 30 11 71 bc
       0.005923466 0.031494305 0.0040549627 -0.0147135705
000390 9f e8 12 3c e3 46 c3 3c 48 8c 53 bc 7b 63 96 3c
       0.008966594 0.023837512 -0.012911864 0.018357983
0003a0 1a ec 24 3c cf 06 0d 3c b8 9c 86 bb 50 bc 3d 3b
       0.010066057 0.00860758 -0.004108038 0.0028951354
0003b0 28 9d 91 3a c9 00 9e bc 15 e6 06 3d 8d 3f 5e b9
       0.0011109458 -0.019287484 0.032934267 -0.00021195244
0003c0 da 71 78 bc c7 95 33 3c 11 10 33 bb 0f 17 53 3b
       -0.015163863 0.010961003 -0.0027322809 0.003220979
0003d0 54 3b c7 bc f3 52 e1 3b ce ad 22 3c 8a a6 85 3b
       -0.024320282 0.0068763434 0.009929134 0.004078691
0003e0 d6 5c 88 bb df 6b e7 bc af 4d bf bc 8d c4 97 3c
       -0.0041614575 -0.02824968 -0.023352472 0.01852634
0003f0 e9 82 c2 3c e8 55 64 3c 29 5e aa 3b 65 f6 27 bc
       0.023744063 0.013936497 0.005199213 -0.010251616

action_model._discrete_distribution.branches.0.weight f4 [1, 128]
000000 b8 0d 3a bc 64 c5 24 bc 7f f0 7b 3a 75 8d 04 3b
       -0.01135581 -0.010056827 0.0009610727 0.0020225917
000010 fb fe ed b9 ad e5 0e 3c 75 38 06 bb d1 d8 4a bb
       -0.00045394138 0.008721751 -0.0020480428 -0.0030951987
000020 ca 16 75 3b 95 05 95 bb 2a be b6 bb 52 65 dd 3a
       0.0037397617 -0.0045477846 -0.0055768685 0.0016891158
000030 c6 17 b8 3b 71 c9 29 3c a7 4c 8c 3b cf b4 3e bb
       0.0056180684 0.010362969 0.0042815986 -0.002909947
000040 d7 cc 01 bb 5d 99 76 ba 46 45 c2 3b 6c 47 15 bc
       -0.0019805932 -0.0009407008 0.005928668 -0.009111267
000050 7b 31 79 3b d3 38 57 bb f1 90 2f 3c fa 3b 0f bb
       0.0038023877 -0.0032840266 0.010715709 -0.0021855817
000060 a1 b8 31 3c 07 57 06 bc c8 a5 d7 3b 92 27 18 3c
       0.010847242 -0.00819946 0.006581042 0.009286778
000070 7b ba b4 ba 04 fd b4 bb 3d 8e a8 3c bd 6a e9 3b
       -0.0013788486 -0.005523326 0.020575637 0.00712332
000080 4d 38 f1 bb 56 f4 27 3c 3c 46 99 bc cf 70 f1 3b
       -0.007361448 0.010251125 -0.018710248 0.007368184
000090 bd bf 47 bb fc b4 1e 3c 52 d3 dc 3b 56 53 42 bb
       -0.0030479275 0.009686705 0.0067390585 -0.0029651723
0000a0 0b 85 d5 ba 3d 89 3d bc f4 36 33 3c 27 bd ce bb
       -0.001629026 -0.011568365 0.010938395 -0.00630917
0000b0 6f 1c 23 bc 93 48 65 3c 1a 94 05 bc f7 53 06 3c
       -0.00995551 0.013994354 -0.008152986 0.00819873
0000c0 47 fa 32 bb 47 78 0f 3c df 38 42 39 3a 58 43 3c
       -0.0027309821 0.008756704 0.00018522468 0.01192289
0000d0 6b e1 9d bc e3 b2 a3 3b e2 bb 40 3c 48 44 b4 37
       -0.019272527 0.00499569 0.011763545 2.1489468e-05
0000e0 54 ec 1a 3c f5 76 0f 3c 0a 20 eb 3b 37 78 0d bc
       0.009455759 0.008756389 0.00717545 -0.0086346185
0000f0 9a 41 c7 bb 1c b7 9c bb 87 f5 3a bb c3 5e b5 ba
       -0.0060808184 -0.0047825705 -0.0028527693 -0.0013837445
000100 8b bc e8 bb 33 5e c8 bb 33 bb 52 3c f3 3b 43 bb
       -0.007102554 -0.006114745 0.012862015 -0.0029790371
000110 9f e2 bf 3b 67 f2 c6 3b c8 c9 af b9 c3 e2 76 bc
       0.0058558728 0.006071377 -0.0003352894 -0.015068713
000120 0a 26 71 3b 66 d2 2c 3c b7 37 b7 bb 3f a1 32 3b
       0.0036796355 0.01054821 -0.0055913585 0.0027256755
000130 62 f1 e0 3b ff c7 99 bb 77 cd 36 3c 75 0f 55 bb
       0.0068647126 -0.004693031 0.011157385 -0.0032510434
000140 6a 96 b3 3a 73 f2 cf 3b 5e 05 c5 bb 1d ba 4f 3b
       0.0013701443 0.006346041 -0.0060126027 0.0031696626
000150 73 31 d7 bb d0 5f 24 3a 9b f7 67 3c 9b 1d e8 3b
       -0.006567174 0.00062703807 0.014158155 0.0070836074
000160 17 fd 8d 3b 67 d6 af 3b 3b 6f bc 3a 15 5c 33 bb
       0.004333149 0.005366135 0.0014376411 -0.0027368118
000170 2b 91 4a bc 27 c0 46 bb 42 c8 5f 3b c0 78 95 bc
       -0.012363712 -0.0030326934 0.0034146463 -0.018246055
000180 7d 84 b8 bc f3 3d 66 3c 28 79 a6 ba 8f e6 0c bc
       -0.022524113 0.014052856 -0.0012700902 -0.008599891
000190 1d 38 49 bb a6 0f 1e bc bf 27 fa 3b 0e 68 9b 3b
       -0.0030703612 -0.009647286 0.0076341326 0.004742629
0001a0 02 b2 5e bb 52 12 1f 3c 54 dd 44 bc 86 8d 0e 3c
       -0.0033980613 0.009708958 -0.012015659 0.008700734
0001b0 53 a3 fb b9 92 8e d4 bb 08 54 1b bc 3f 87 ad bc
       -0.00047996137 -0.0064867223 -0.009480484 -0.021182654
0001c0 7f 0b 7c bc 0a 66 4b bb 98 03 10 bc a3 4a de 3a
       -0.0153836 -0.0031036162 -0.008789919 0.0016959499
0001d0 88 21 a4 3a 81 18 86 3b 43 39 9a bb 23 81 58 b8
       0.00125222 0.0040922766 -0.004706533 -5.161868e-05
0001e0 93 31 19 bb ab 42 b1 ba 63 2e 78 bb 02 06 eb bb
       -0.0023375496 -0.0013523897 -0.0037869446 -0.007172347
0001f0 17 09 bf ba f3 27 fe bb 6d 1a 62 3c f2 80 b0 ba
       -0.0014574853 -0.007756227 0.013800246 -0.0013466163

network_body.linear_encoder.seq_layers.0.bias f4 [128]
000000 00 00 00 00 00 00 00 00 00 00 00 00 00 00 00 00
       0.0 0.0 0.0 0.0
000010 00 00 00 00 00 00 00 00 00 00 00 00 00 00 00 00
       0.0 0.0 0.0 0.0
000020 00 00 00 00 00 00 00 00 00 00 00 00 00 00 00 00
       0.0 0.0 0.0 0.0
000030 00 00 00 00 00 00 00 00 00 00 00 00 00 00 00 00
       0.0 0.0 0.0 0.0
000040 00 00 00 00 00 00 00 00 00 00 00 00 00 00 00 00
       0.0 0.0 0.0 0.0
000050 00 00 00 00 00 00 00 00 00 00 00 00 00 00 00 00
       0.0 0.0 0.0 0.0
000060 00 00 00 00 00 00 00 00 00 00 00 00 00 00 00 00
       0.0 0.0 0.0 0.0
000070 00 00 00 00 00 00 00 00 00 00 00 00 00 00 00 00
       0.0 0.0 0.0 0.0
000080 00 00 00 00 00 00 00 00 00 00 00 00 00 00 00 00
       0.0 0.0 0.0 0.0
000090 00 00 00 00 00 00 00 00 00 00 00 00 00 00 00 00
       0.0 0.0 0.0 0.0
0000a0 00 00 00 00 00 00 00 00 00 00 00 00 00 00 00 00
       0.0 0.0 0.0 0.0
0000b0 00 00 00 00 00 00 00 00 00 00 00 00 00 00 00 00
       0.0 0.0 0.0 0.0
0000c0 00 00 00 00 00 00 00 00 00 00 00 00 00 00 00 00
       0.0 0.0 0.0 0.0
0000d0 00 00 00 00 00 00 00 00 00 00 00 00 00 00 00 00
       0.0 0.0 0.0 0.0
0000e0 00 00 00 00 00 00 00 00 00 00 00 00 00 00 00 00
       0.0 0.0 0.0 0.0
0000f0 00 00 00 00 00 00 00 00 00 00 00 00 00 00 00 00
       0.0 0.0 0.0 0.0
000100 00 00 00 00 00 00 00 00 00 00 00 00 00 00 00 00
       0.0 0.0 0.0 0.0
000110 00 00 00 00 00 00 00 00 00 00 00 00 00 00 00 00
       0.0 0.0 0.0 0.0
000120 00 00 00 00 00 00 00 00 00 00 00 00 00 00 00 00
       0.0 0.0 0.0 0.0
000130 00 00 00 00 00 00 00 00 00 00 00 00 00 00 00 00
       0.0 0.0 0.0 0.0
000140 00 00 00 00 00 00 00 00 00 00 00 00 00 00 00 00
       0.0 0.0 0.0 0.0
000150 00 00 00 00 00 00 00 00 00 00 00 00 00 00 00 00
       0.0 0.0 0.0 0.0
000160 00 00 00 00 00 00 00 00 00 00 00 00 00 00 00 00
       0.0 0.0 0.0 0.0
000170 00 00 00 00 00 00 00 00 00 00 00 00 00 00 00 00
       0.0 0.0 0.0 0.0
000180 00 00 00 00 00 00 00 00 00 00 00 00 00 00 00 00
       0.0 0.0 0.0 0.0
000190 00 00 00 00 00 00 00 00 00 00 00 00 00 00 00 00
       0.0 0.0 0.0 0.0
0001a0 00 00 00 00 00 00 00 00 00 00 00 00 00 00 00 00
       0.0 0.0 0.0 0.0
0001b0 00 00 00 00 00 00 00 00 00 00 00 00 00 00 00 00
       0.0 0.0 0.0 0.0
0001c0 00 00 00 00 00 00 00 00 00 00 00 00 00 00 00 00
       0.0 0.0 0.0 0.0
0001d0 00 00 00 00 00 00 00 00 00 00 00 00 00 00 00 00
       0.0 0.0 0.0 0.0
0001e0 00 00 00 00 00 00 00 00 00 00 00 00 00 00 00 00
       0.0 0.0 0.0 0.0
0001f0 00 00 00 00 00 00 00 00 00 00 00 00 00 00 00 00
       0.0 0.0 0.0 0.0

network_body.linear_encoder.seq_layers.0.weight f4 [128, 6]
000000 03 ba a8 be 33 4b 21 3f 76 22 a3 bd 1e 2a 0f be
       -0.32954416 0.6300537 -0.07965557 -0.1398091
000010 97 21 e0 bd 5a 17 40 3e cf ea 84 be 15 5e 40 bf
       -0.10943907 0.18758908 -0.25960395 -0.7514356
000020 65 82 0b 3e 2c 6c 41 be bc de 02 bf f7 f0 80 be
       0.1362396 -0.1888892 -0.51121116 -0.25183842
000030 ac f2 07 bf 05 00 84 3e cf 28 85 3e 95 16 18 3f
       -0.5310466 0.25781265 0.26007697 0.5940946
000040 89 7a ec 3e 1f db df be b0 0d ba be 32 6d 80 3f
       0.46187237 -0.43721864 -0.36338568 1.0033324
000050 91 57 aa 3e 57 91 9c 3d f5 3d 8a bd bb 1d f5 3e
       0.33269933 0.07644909 -0.067500986 0.47874245
000060 4f a2 2c 3f ab 46 ba 3e 66 ff 2b 3e 5c c6 a3 3e
       0.67435163 0.3638204 0.16796646 0.31987274
000070 43 59 cd 3e e9 21 ba be 4d b5 ed 3e 51 c9 6e be
       0.40107164 -0.36353996 0.46427384 -0.23318984
000080 e9 68 33 3e d2 be c5 be 6f ef 05 bc 0a 40 4d bd
       0.17520489 -0.38622147 -0.008174761 -0.0501099
000090 0f 19 9f bd 3a 37 e7 3d 8e 98 1b 3d b5 ac 8f 3c
       -0.077684514 0.112898305 0.037987284 0.017538408
0000a0 7a ac 2f be f6 74 87 be 7a e9 68 3e ab a8 17 3e
       -0.17155638 -0.26456422 0.22745314 0.14810435
0000b0 ea d9 b3 3e 43 07 1a be b9 d9 b4 bd 5c 86 5b bf
       0.35127193 -0.15041833 -0.0883059 -0.8575189
0000c0 6b d4 a3 be 91 9e a1 be 22 37 17 bf 9b 31 32 3f
       -0.31998 -0.3156629 -0.590685 0.6960694
0000d0 e4 34 f5 be 80 11 e5 3d 65 a8 13 3e 20 af 41 be
       -0.47891915 0.111849785 0.14419706 -0.18914461
0000e0 6c 54 c9 3e 97 6d 2f 3e a8 98 a3 3e 88 0a a1 bf
       0.3932222 0.17131649 0.31952405 -1.2581339
0000f0 2d 38 12 3f d3 b6 70 be 49 52 99 be 25 dd 43 bd
       0.5711697 -0.23507242 -0.2994559 -0.04781832
000100 6b 75 90 be 9f eb 9d 3e f3 72 ab 3e 55 e5 9a 3e
       -0.28214583 0.30843827 0.33486137 0.3025309
000110 99 b8 2a be 15 99 85 be 76 40 91 3d 42 9a 8e 3d
       -0.16671981 -0.26093355 0.07092373 0.06963016
000120 6a 71 33 3e 87 34 5e 3f c5 83 3a be 85 5e cc 3c
       0.17523733 0.867989 -0.18214329 0.024947414
000130 6a d9 b9 3e be 5a a3 3e 9e 89 35 be 8e 53 0e 3e
       0.36298686 0.31905168 -0.17728278 0.13899061
000140 a1 c0 33 3f 5a ba 0b bf 47 65 24 3f 7c ce df 3e
       0.70215803 -0.54581225 0.64217037 0.43712223
000150 fc 36 13 be de 38 d2 3e 46 31 09 be 15 88 78 be
       -0.14376444 0.4105901 -0.13397703 -0.24270661
000160 8d 5f 03 be b2 23 2b bf ec 4c 05 bf 54 9c 09 bf
       -0.12829418 -0.6685134 -0.520705 -0.5375416
000170 6b e6 0e bc 36 e2 2a 3e a6 ee 15 be 05 da 2e 3e
       -0.008721928 0.16687855 -0.14641818 0.17075355
000180 f7 13 a3 bd 23 65 95 bf 72 39 06 bf 51 94 50 be
       -0.07962792 -1.167149 -0.52431405 -0.20369078
000190 09 3f 0c 3e 9b 9d 40 bf 6f 3c 9f be 1b 97 09 3f
       0.13695921 -0.75240487 -0.31100795 0.53746194
0001a0 89 3c b2 be 31 fe f2 be a0 28 d5 3d 34 02 0d 3f
       -0.3481181 -0.47459558 0.10408139 0.55081487
0001b0 19 53 5b bf ff b7 e7 3e 2a ee 5f 3e 63 5b 9e 3d
       -0.8567367 0.45257565 0.21868196 0.077322744
0001c0 cc 92 c5 3e a0 db 78 be 63 8a 2e bc 34 e4 79 bc
       0.3858856 -0.2430253 -0.010653111 -0.015252162
0001d0 09 62 b9 3a 5b 56 7b 3f a8 ec 5f 3e 7d 82 53 be
       0.0014143597 0.98178643 0.21867621 -0.20655246
0001e0 ac 15 92 bd 11 82 33 be 1b 7f 27 3e 20 bb 82 be
       -0.0713304 -0.17530085 0.1635708 -0.2553339
0001f0 b1 86 7b 3e 0e bb eb 3e 6b 06 58 be ff 88 a3 be
       0.245631 0.4604115 -0.21096198 -0.31940457
000200 ce fc df 3d 9f ae 0d bf 41 79 f3 bd 7d a9 04 bf
       0.109368905 -0.55344576 -0.11888362 -0.5182112
000210 9e 12 12 3f 91 dc b8 3e 97 50 a4 3d 6c 65 3c bf
       0.5705966 0.3610578 0.08023184 -0.7359226
000220 81 7e 91 3e c3 02 5f be f9 fc 9c 3e 60 34 ba 3d
       0.28416827 -0.21778397 0.30661753 0.09092021
000230 0b e9 17 be a6 08 8e 3f 6c cb 8e 3d 35 00 b7 bd
       -0.14834993 1.1096389 0.069723934 -0.08935586
000240 f1 3f 16 3f 41 c2 bf be 4d ed cb 3e 0e ac 60 3d
       0.58691317 -0.3745289 0.39829484 0.054851584
000250 e8 15 11 bf 4f 24 1f 3e 1f e8 8d be 7e 45 2a bf
       -0.5667405 0.15541194 -0.27716157 -0.66512287
000260 37 e0 71 be 65 9c 70 bf 23 e3 83 3e 7f 9d 08 3e
       -0.23620687 -0.9398864 0.2575923 0.1334133
000270 d2 1e a9 3e 4c 37 0c 3f b0 59 d9 3e 3e 57 17 bf
       0.33031327 0.54771876 0.4245124 -0.59117496
000280 23 d5 8b be 27 a0 03 3e ec 7e 1a 3e 0c b1 a9 bd
       -0.27311048 0.12854062 0.1508748 -0.08285722
000290 40 45 99 3d ab e6 86 be 36 49 0e 3e 6d 7d 0a bf
       0.074839115 -0.2634786 0.13895115 -0.54097635
0002a0 21 e7 af 3e f7 66 5c 3e 89 00 99 be e3 11 58 bd
       0.34356025 0.21523653 -0.2988322 -0.052751433
0002b0 7f 6b 85 3c 0b 2e 03 3f b0 5a cc be 8f fd 09 bf
       0.01628661 0.5124213 -0.3991294 -0.53902525
0002c0 45 a5 12 3e 27 6f c0 be 14 7e 11 bf c7 48 2f be
       0.14320858 -0.37584803 -0.56833005 -0.17117606
0002d0 d4 d8 c5 be 21 05 49 be 21 34 56 3e 1b ca f0 be
       -0.3864199 -0.19630863 0.20918323 -0.47029194
0002e0 bf 51 79 be 33 a3 13 bf 68 9e 94 bd 21 f3 5a 3e
       -0.2434759 -0.576709 -0.07256776 0.21381809
0002f0 20 b4 0b 3e 4d 32 fe bc 82 96 a1 be da 99 bc bc
       0.13642931 -0.031029845 -0.3156014 -0.02302258
000300 27 94 9a be c4 32 a5 3e 09 9e 9b be ea 0b b9 bc
       -0.30191156 0.32265294 -0.3039401 -0.022588689
000310 95 f9 18 3f 1a 9b 42 3f 62 4b 12 3e b5 12 e9 be
       0.5975583 0.76017916 0.14286569 -0.45522085
000320 30 f4 84 bd c4 2d 86 3e c9 75 83 3d 8a 8d b5 be
       -0.064918876 0.2620679 0.0641895 -0.35459548
000330 8a 61 36 3e f7 a8 80 be 5d 4b 2f bd a0 46 85 bf
       0.17810646 -0.2512891 -0.04279648 -1.0412178
000340 97 6e ac 3e 14 df 4d 3e 88 9d 84 be c5 88 f2 be
       0.33678123 0.20104629 -0.25901437 -0.47369972
000350 1d 52 bf 3e 26 c7 f4 bd 65 b5 62 3e 0f bd 11 3f
       0.37367335 -0.11952047 0.22139509 0.56929106
000360 ba cc e5 3e e5 18 a9 be eb f0 a7 3e e7 a9 d0 3e
       0.44882756 -0.33026806 0.32800993 0.40754625
000370 33 d8 ca 3d a8 0c bd be 63 09 70 bc 47 ec e7 3e
       0.09904518 -0.36923718 -0.0146506755 0.45297453
000380 67 fd 9c bd d6 29 11 3d 91 33 15 bf ed 97 bc be
       -0.0766552 0.03544029 -0.5828181 -0.3683466
000390 0b 75 0e bf 08 66 7d 3f fc 4c 84 be 7f 85 46 bd
       -0.55647343 0.9898381 -0.25839984 -0.048467156
0003a0 74 09 23 3e 60 f4 68 3e d3 89 dd bd 52 80 d3 3e
       0.15921575 0.22749472 -0.108173035 0.41308838
0003b0 7e c2 df 3d c4 b9 3f bf 90 64 46 3f c2 19 09 3e
       0.10925768 -0.7489283 0.77497196 0.13388732
0003c0 90 fb b7 be 39 d0 70 be e2 ba b6 be 9b 5f 1c 3e
       -0.35934114 -0.2351693 -0.35689455 0.15270846
0003d0 b5 88 95 be 2a 86 01 3f 58 21 08 bd dc 07 b1 3e
       -0.29205862 0.50595343 -0.033234924 0.3457631
0003e0 ae 27 03 bf a3 a0 fa 3e 0e 99 3d bd 09 d3 82 3d
       -0.5123242 0.4895068 -0.046288542 0.06387908
0003f0 f6 a1 09 be 45 10 73 be 37 8f 47 bd fb a5 2f bd
       -0.1344069 -0.23736675 -0.048720565 -0.0428829

network_body.linear_encoder.seq_layers.2.bias f4 [128]
000000 00 00 00 00 00 00 00 00 00 00 00 00 00 00 00 00
       0.0 0.0 0.0 0.0
000010 00 00 00 00 00 00 00 00 00 00 00 00 00 00 00 00
       0.0 0.0 0.0 0.0
000020 00 00 00 00 00 00 00 00 00 00 00 00 00 00 00 00
       0.0 0.0 0.0 0.0
000030 00 00 00 00 00 00 00 00 00 00 00 00 00 00 00 00
       0.0 0.0 0.0 0.0
000040 00 00 00 00 00 00 00 00 00 00 00 00 00 00 00 00
       0.0 0.0 0.0 0.0
000050 00 00 00 00 00 00 00 00 00 00 00 00 00 00 00 00
       0.0 0.0 0.0 0.0
000060 00 00 00 00 00 00 00 00 00 00 00 00 00 00 00 00
       0.0 0.0 0.0 0.0
000070 00 00 00 00 00 00 00 00 00 00 00 00 00 00 00 00
       0.0 0.0 0.0 0.0
000080 00 00 00 00 00 00 00 00 00 00 00 00 00 00 00 00
       0.0 0.0 0.0 0.0
000090 00 00 00 00 00 00 00 00 00 00 00 00 00 00 00 00
       0.0 0.0 0.0 0.0
0000a0 00 00 00 00 00 00 00 00 00 00 00 00 00 00 00 00
       0.0 0.0 0.0 0.0
0000b0 00 00 00 00 00 00 00 00 00 00 00 00 00 00 00 00
       0.0 0.0 0.0 0.0
0000c0 00 00 00 00 00 00 00 00 00 00 00 00 00 00 00 00
       0.0 0.0 0.0 0.0
0000d0 00 00 00 00 00 00 00 00 00 00 00 00 00 00 00 00
       0.0 0.0 0.0 0.0
0000e0 00 00 00 00 00 00 00 00 00 00 00 00 00 00 00 00
       0.0 0.0 0.0 0.0
0000f0 00 00 00 00 00 00 00 00 00 00 00 00 00 00 00 00
       0.0 0.0 0.0 0.0
000100 00 00 00 00 00 00 00 00 00 00 00 00 00 00 00 00
       0.0 0.0 0.0 0.0
000110 00 00 00 00 00 00 00 00 00 00 00 00 00 00 00 00
       0.0 0.0 0.0 0.0
000120 00 00 00 00 00 00 00 00 00 00 00 00 00 00 00 00
       0.0 0.0 0.0 0.0
000130 00 00 00 00 00 00 00 00 00 00 00 00 00 00 00 00
       0.0 0.0 0.0 0.0
000140 00 00 00 00 00 00 00 00 00 00 00 00 00 00 00 00
       0.0 0.0 0.0 0.0
000150 00 00 00 00 00 00 00 00 00 00 00 00 00 00 00 00
       0.0 0.0 0.0 0.0
000160 00 00 00 00 00 00 00 00 00 00 00 00 00 00 00 00
       0.0 0.0 0.0 0.0
000170 00 00 00 00 00 00 00 00 00 00 00 00 00 00 00 00
       0.0 0.0 0.0 0.0
000180 00 00 00 00 00 00 00 00 00 00 00 00 00 00 00 00
       0.0 0.0 0.0 0.0
000190 00 00 00 00 00 00 00 00 00 00 00 00 00 00 00 00
       0.0 0.0 0.0 0.0
0001a0 00 00 00 00 00 00 00 00 00 00 00 00 00 00 00 00
       0.0 0.0 0.0 0.0
0001b0 00 00 00 00 00 00 00 00 00 00 00 00 00 00 00 00
       0.0 0.0 0.0 0.0
0001c0 00 00 00 00 00 00 00 00 00 00 00 00 00 00 00 00
       0.0 0.0 0.0 0.0
0001d0 00 00 00 00 00 00 00 00 00 00 00 00 00 00 00 00
       0.0 0.0 0.0 0.0
0001e0 00 00 00 00 00 00 00 00 00 00 00 00 00 00 00 00
       0.0 0.0 0.0 0.0
0001f0 00 00 00 00 00 00 00 00 00 00 00 00 00 00 00 00
       0.0 0.0 0.0 0.0

network_body.linear_encoder.seq_layers.2.weight f4 [128, 128]
000000 5d e2 21 be 48 3d 7c 3d 15 a2 1a ba 93 fa 56 3d
       -0.15809007 0.06158188 -0.0005898786 0.05248506
000010 78 12 79 3d 64 db 07 3d 60 df aa bd 76 1c 36 bc
       0.06080863 0.03316821 -0.08343387 -0.011115184
000020 e4 0f b1 3d 3f 66 d8 3c 1b 36 38 bd bf cd 74 3d
       0.08645609 0.026415942 -0.044973474 0.059766527
000030 41 73 8e bd fa 1a 3e 3c 38 59 b3 bd 48 35 11 bd
       -0.06955577 0.011603111 -0.087572515 -0.035451204
000040 6c 3c e8 3c b4 f1 ce 3a b0 6e db 3d c6 f0 46 3e
       0.028349124 0.0015788586 0.10714471 0.19427785
000050 a3 77 16 bc df 0d a6 3d 86 d8 87 bd ab 7b ce bd
       -0.009183797 0.081081145 -0.066330954 -0.100821815
000060 10 5f 2a ba 02 ff 02 bd d4 1a ae bc cb d9 6f bc
       -0.0006499151 -0.031981476 -0.021253027 -0.014639328
000070 ed 41 df bc 78 81 2d 3e 9a 20 3b be bf 67 d2 3d
       -0.027253116 0.1694392 -0.18274155 0.10273694
000080 78 88 30 3e 5b 57 1a 3d d7 c9 4d bc cc 35 3a 3e
       0.17239559 0.037680965 -0.012560329 0.18184584
000090 10 8c 59 be 1c f7 ff 3a da 13 23 be d9 cf 3a 3e
       -0.21244836 0.00195286 -0.15925542 0.1824335
0000a0 3e b8 be 3d 8e ff ba 3d fa 18 d1 bc d7 0c 0f be
       0.09312485 0.091307744 -0.025524605 -0.13969742
0000b0 3f 19 b6 3d a4 e8 2c bd 87 f3 e4 bd 8d dd 5f 3b
       0.08891534 -0.04221405 -0.11179262 0.0034159154
0000c0 9d 68 02 3d 54 6d 12 be ce f2 08 3d 57 ec a3 3d
       0.03183805 -0.14299518 0.03343468 0.080040626
0000d0 3b 8e 88 bd 43 99 7f 3c 37 2a 8d bd c2 6d 22 be
       -0.06667753 0.015600505 -0.068928175 -0.15862182
0000e0 75 79 10 3d 2c 18 40 bc 73 71 6b bd 63 a8 80 bc
       0.03527208 -0.011724513 -0.05748124 -0.015705293
0000f0 7b 05 13 bd 8e 02 b3 bd f8 13 44 bd f1 b5 e0 3b
       -0.0358939 -0.08740722 -0.047870606 0.0068576266
000100 e7 f2 22 be f3 07 b4 bd 0f 98 8e 3d 54 07 fa bc
       -0.15912972 -0.08790579 0.069625966 -0.030521072
000110 07 7b a9 3c ca 22 51 bd 42 78 15 3e d2 db 24 bd
       0.020688547 -0.051058568 0.14596656 -0.0402487
000120 eb f2 6e 3e cb 1e 23 3c 2e 1c a8 3d 9a 2f ab bd
       0.23334853 0.009956072 0.082085 -0.08358689
000130 2d aa 52 3d 15 24 6c 3c e6 28 42 bc fb e9 d9 bd
       0.051431824 0.0144128995 -0.011850571 -0.10640331
000140 35 1b cf 3c 3f 6d 97 3d 20 1a aa 3d 01 4b cd 3d
       0.025281528 0.07393884 0.08305764 0.100240715
000150 82 bf d8 bc a8 82 96 3c 2b 13 d5 3d 07 3c f6 3d
       -0.026458506 0.018372849 0.104040466 0.12023168
000160 9f 5d 8f bc b4 96 b0 bd 8d d1 8b bc 22 d5 1b 3e
       -0.017500697 -0.08622494 -0.017067695 0.15218022
000170 62 0d 5c 3d e0 6f 21 3e ac 07 b8 3d 9f f8 60 bc
       0.0537237 0.15765333 0.08985838 -0.013731151
000180 f4 1c 9d 3c 0c fc 1b 3c 47 a7 1c 3c 72 e4 6f be
       0.019178845 0.009520542 0.009561366 -0.23426989
000190 02 86 89 bd f6 6a a9 bc 80 0c 45 be 31 c3 55 3d
       -0.06715013 -0.020680886 -0.1924305 0.052188102
0001a0 ca 9d 10 be d5 df 72 be 37 5b f3 3d 05 f4 e9 bc
       -0.14122692 -0.23718198 0.11882632 -0.02855874
0001b0 8a 7a 92 bd 8a 9a 07 be 17 49 1b be 18 90 c7 bb
       -0.07152279 -0.13242546 -0.151646 -0.0060901754
0001c0 c1 87 4a 3c 47 a7 d3 3c 64 96 9e 3d d2 62 9d 3c
       0.012361468 0.0258366 0.077435285 0.01921216
0001d0 3a a2 99 bd 63 cd 2f be 12 0b f6 bd e0 aa 74 3d
       -0.075016454 -0.17168193 -0.1201383 0.05973327
0001e0 8b 25 4b 3b 34 54 c0 3d cd e3 bc bd 3a 1a 00 be
       0.003099772 0.093910605 -0.09223137 -0.12510005
0001f0 3e 50 6d bd b7 a7 fd 3c e5 dc 95 3b 27 de 30 bc
       -0.057937853 0.030963762 0.004573452 -0.010795153
000200 43 5d 49 bc b6 84 54 bd 8f 6a 8c 3c 43 7e 69 3d
       -0.012290302 -0.051884376 0.017140655 0.05700518
000210 53 e0 9e 3d c0 bd 11 3b 4f 34 06 3d 85 1c 9e 3d
       0.0775763 0.0022238344 0.03276473 0.077202834
000220 be fd 3a 3e 1d 57 4a bd e8 4f 2e 3d ae 8e 15 bc
       0.18260857 -0.049399484 0.042556673 -0.009128256
000230 cf 15 6a be 6c be e4 bb 23 76 62 bd 86 c8 87 bd
       -0.22859882 -0.006980708 -0.055288445 -0.06630044
000240 31 e4 39 bd c3 7d b1 3c 9f 02 7e bc c7 1f d3 bd
       -0.045383636 0.021666413 -0.015503555 -0.103087954
000250 a0 50 49 be 8d f0 7a 3d 38 de 27 be d2 d5 95 bc
       -0.19659662 0.061264563 -0.16393363 -0.018290434
000260 16 aa d9 3c 17 b4 16 3c e1 06 ff 3c 35 1c b1 3d
       0.026570361 0.00919821 0.03113121 0.08647958
000270 86 c6 26 3e 2c ef c6 bc f0 85 03 3e d0 81 81 bd
       0.16286668 -0.024283968 0.12844062 -0.06323588
000280 81 93 28 bc 9e 6b 75 bc b5 6d 02 be f2 11 50 bd
       -0.010289074 -0.014979271 -0.12737162 -0.050798364
000290 e2 cb 07 bd bc 8c 81 3d 79 20 73 3e 97 ca a8 bd
       -0.033153422 0.06325671 0.23742856 -0.08241766
0002a0 dc a9 e1 3b bc 52 d6 3c 8b a7 52 bd 18 2f 13 3d
       0.006886704 0.026162498 -0.051429313 0.035933584
0002b0 64 a2 11 3e 39 a5 1f bd e6 1f 0f 3d 73 ad 19 3d
       0.14222103 -0.038975928 0.03494253 0.03751893
0002c0 21 fe a7 bd 70 41 1e 3e 98 21 80 bd d9 ec 8b bd
       -0.08202768 0.1545465 -0.062564075 -0.068322845
0002d0 79 09 0d 3d 9a 99 c8 bd 54 79 13 be 23 2f 84 3c
       0.034432862 -0.09794922 -0.14401752 0.016135758
0002e0 36 4b 9f 3c ad 71 45 3d 2d ba a2 bd 74 e6 63 bd
       0.019445043 0.048204113 -0.079456665 -0.0556397
0002f0 ac 4e ba 3b 10 c5 0a bd 9b ba 72 3b 86 06 56 bd
       0.005685648 -0.03387934 0.0037037495 -0.052252315
000300 72 a8 8b bc 3c da 20 3c 84 02 fc bc 8a 41 ca bc
       -0.017048094 0.009817656 -0.030762918 -0.024689455
000310 cc d2 0f 3b 9a 53 08 3d fe 50 70 be 25 b6 34 bd
       0.0021945713 0.033282854 -0.23468396 -0.04411902
000320 72 0d 70 3c cb 46 b6 3d f7 58 7b 3d aa e4 8f 3d
       0.014651643 0.089002214 0.06136414 0.07026036
000330 6f 58 c8 3d bb b8 06 3e 96 b1 93 bb 6f 52 1f 3e
       0.09782492 0.13156407 -0.004507254 0.1555879
000340 4b 1f 1f 3c e8 a3 50 bd 4f 0b e6 bc a9 f5 e9 3d
       0.009712051 -0.050937563 -0.028081564 0.11423809
000350 0f 8d 01 3e 48 31 43 3d 31 2b 09 be c6 4b d3 3c
       0.12651466 0.04765442 -0.13395382 0.025792968
000360 03 f8 13 bd 09 15 47 3e db 7f 6a bc b8 8d b2 bd
       -0.036125194 0.19441618 -0.01431271 -0.08718437
000370 64 23 06 3d c1 35 6b 3d 87 b0 95 3c 9f 0f db 3d
       0.032748595 0.05742431 0.018272651 0.10696339
000380 2a d4 46 3c 70 89 de bc bc be 9c bd d0 31 32 bd
       0.012135545 -0.027165145 -0.07653567 -0.043504536
000390 0e b2 2f be 21 a9 9e bd 4b fa 9b 3d fb 68 91 bd
       -0.17157766 -0.077471025 0.07616099 -0.071001016
0003a0 a4 e4 93 bd 89 f1 55 3d b7 86 4b 3b 46 48 1b 3e
       -0.07221344 0.0522323 0.0031055638 0.15164289
0003b0 e2 af b7 bc 42 b5 7c 3d 9b 38 0e 3e 2f e6 8a bd
       -0.022422735 0.0616963 0.13888781 -0.06782185
0003c0 a3 48 29 bd 72 06 4b 3d 64 fd 88 bd 7b 00 39 bd
       -0.041329037 0.049566694 -0.066889554 -0.045166474
0003d0 79 64 6c bd f4 91 7c bd 42 8a 7c 3d eb d3 9a 3d
       -0.057713006 -0.06166263 0.06165529 0.075599514
0003e0 4d 30 84 bd 12 48 c9 bc 2f 3f 25 bd 4b 27 46 3d
       -0.06454525 -0.024570499 -0.04034346 0.048377316
0003f0 ae 03 07 3d 37 01 0d 3e ee 6e f8 3c 1e 5a f9 3c
       0.032962494 0.13769995 0.030326333 0.030438479
