results/scoreGoal/HitTheBall/HitTheBall-68215.pt (torch, 442191 bytes, 39 tensors)

network_body.linear_encoder.seq_layers.0.weight f4 [128, 6]
0	0xbeda9ce9	-0.42697838
1	0x3ea499ee	0.3214869
2	0x3e634106	0.22192773
3	0xbee1fed3	-0.44139728
4	0xbf030559	-0.51180035
5	0xbea3d61a	-0.31999284
6	0xbe6e6b16	-0.23283038
7	0xbdb2ab54	-0.087240845
8	0x3edbd9bb	0.42939553
9	0xbe5907a3	-0.2119432
10	0xbe7b52d6	-0.24543318
11	0x3f5530b8	0.83277464
12	0x3e2f5723	0.17123084
13	0x3e6000bd	0.21875282
14	0x3ea818ab	0.3283132
15	0xbf197471	-0.599433
16	0xbf303413	-0.6882946
17	0x3d855155	0.065096535
18	0x3ed253cb	0.41079554
19	0xbdb53fcb	-0.08850058
20	0x3f0a9165	0.54128104
21	0x3f729868	0.94763803
22	0x3eebd857	0.46063492
23	0xbeadd176	-0.3394887
24	0xbe567f22	-0.20946935
25	0x3ea94504	0.33060467
26	0xbea484a6	-0.32132453
27	0x3f13f4c9	0.5779539
28	0xbdf9b3e9	-0.12192518
29	0xbea5f65e	-0.32414526
30	0xbe76f804	-0.24118048
31	0xbf12989c	-0.57264113
32	0xbf2f36a8	-0.68442774
33	0x3f972565	1.1808287
34	0x3d1901b0	0.037355125
35	0x3dd8d5ad	0.105876304
36	0xbefa52f4	-0.48891413
37	0xbe8c4165	-0.27393642
38	0xbdc80670	-0.09766853
39	0xbeb50b77	-0.3536031
40	0x3db415e6	0.08793239
41	0x3e5a0259	0.21289958
42	0x3de18d2c	0.110132545
43	0xbed7ba5d	-0.4213437
44	0x3f3c9493	0.73664206
45	0xbdd890ce	-0.10574494
46	0xbe89566b	-0.26823744
47	0x3e9c21dc	0.30494583
48	0xbe80d5b6	-0.25163049
49	0xbf2443ba	-0.6416584
50	0x3f09264a	0.5357405
51	0x3e2a05e1	0.16603805
52	0xbf1bd546	-0.60872304
53	0xbd574650	-0.05255729
54	0x3e40a22c	0.18811864
55	0x3e4c08f9	0.19925298
56	0x3e8ccd48	0.27500367
57	0x3ccae797	0.024768634
58	0x3dd06dfd	0.101772286
59	0xbd443014	-0.047897413
60	0xbf7d7774	-0.99010396
61	0xbe67063f	-0.22560976
62	0xbd84834c	-0.064703554
63	0x3ebceca6	0.36899298
64	0x3e30e884	0.17276198
65	0xbe592673	-0.21206073
66	0x3f059144	0.5217478
67	0xbf5dc3cf	-0.86626905
68	0xbce05118	-0.027382419
69	0xbe2a1e6c	-0.16613168
70	0xbe8daff0	-0.27673292
71	0x3e16db0d	0.14731999
72	0x3f243aef	0.64152426
73	0xbd2d482f	-0.042305168
74	0x3eb67cc5	0.35642067
75	0x3f29e775	0.663688
76	0xbd90e6b1	-0.07075251
77	0x3e37a8bd	0.17935462
78	0x3e903a36	0.2816941
79	0x3db9acdd	0.09066174
80	0x3e56bdd7	0.20970856
81	0x3e21cd0c	0.15800875
82	0xbf41325e	-0.7546748
83	0x3f6b20fd	0.9184721
84	0x3f1e791d	0.61903554
85	0xbf5763d0	-0.84136677
86	0x3ec5889c	0.38580787
87	0xbd66c5ca	-0.05634097
88	0xbd8b2eb2	-0.06796016
89	0xbdc9f8ad	-0.09861884
90	0x3e80015d	0.2500104
91	0x3d9198f0	0.07109249
92	0xbee8ac6f	-0.45444056
93	0x3ef00a4f	0.46882865
94	0xbefa7ef5	-0.48924986
95	0x3d7617ac	0.06008117
96	0x3e732904	0.23746115
97	0xbd19bceb	-0.03753368
98	0x3e9991a0	0.29993916
99	0x3f039e85	0.51413757
100	0x3e5a48b1	0.21316792
101	0xbe121edd	-0.14269586
102	0xbed0ecd7	-0.40805694
103	0xbe84eff5	-0.25964323
104	0xbd15476f	-0.036445078
105	0x3f4fc96d	0.81166726
106	0xbf372a5b	-0.71549004
107	0xbec3a7dd	-0.38214007
108	0xbebcdc79	-0.36886957
109	0xbd96c73f	-0.07362222
110	0x3f4c74ae	0.7986554
111	0xbf65077d	-0.8946455
112	0x3eec7841	0.46185496
113	0x3d1c9fda	0.038238384
114	0xbf0d70bd	-0.5525015
115	0xbe0dccd2	-0.13847664
116	0xbd231d7b	-0.039823037
117	0x3f02db21	0.51115614
118	0x3d365462	0.044514067
119	0x3ea99692	0.3312269
120	0xbf6ce107	-0.92530864
121	0x3e925670	0.28581572
122	0xbf2102e8	-0.6289506
123	0x3addf053	0.0016932584
124	0x3ec43e62	0.38328844
125	0x3db0ede6	0.086391255
126	0xbe3e54d1	-0.18587042
127	0x3e2900aa	0.1650416
128	0x3f015903	0.50526446
129	0x3e9b32f2	0.30312306
130	0x3ef23f3d	0.47313872
131	0x3f2f9e8b	0.6860129
132	0x3d80e754	0.06294122
133	0xbe9776cd	-0.29582825
134	0xbdb2246a	-0.08698352
135	0xbf42d176	-0.7610086
136	0x3bdb8078	0.0066986643
137	0x3ce3366b	0.02773591
138	0xbf03bdc8	-0.5146146
139	0xbe007441	-0.12544347
140	0xbf49b3e4	-0.78790116
141	0xbfb4141a	-1.4068635
142	0x3f3c6cba	0.73603404
143	0xbf575a23	-0.8412191
144	0x3f27b076	0.65503633
145	0xbea851ec	-0.32875
146	0xbe83d51a	-0.2574852
147	0xbe81f997	-0.25385734
148	0xbe43e567	-0.19130479
149	0xbe850764	-0.259822
150	0xbe37c252	-0.17945221
151	0x3e9ef53c	0.31046474
152	0x3de691a9	0.11258251
153	0x3f2e67d4	0.6812718
154	0xbe01c10c	-0.12671298
155	0xbd87bbf2	-0.066276446
156	0x3e9051c0	0.2818737
157	0xbe8c2535	-0.27372137
158	0x3f0bc400	0.5459595
159	0xbec41fba	-0.38305455
160	0xbec6e821	-0.38848975
161	0xbed64f5b	-0.41857418
162	0x3ea3c04c	0.31982648
163	0x3dd8a01e	0.10577415
164	0xbd211fa5	-0.03933682
165	0x3e18de2b	0.149285
166	0x3ef36c62	0.47543627
167	0x3f4ace14	0.792207
168	0x3e234d8e	0.15947554
169	0x3d8ff6c6	0.0702949
170	0x3ea18d36	0.31553048
171	0x3e0bbf2b	0.13647144
172	0x3c7c343d	0.015393314
173	0xbe095baf	-0.13413881
174	0x3d3d7172	0.046250768
175	0xbe6c66f0	-0.23086143
176	0xbf0e841c	-0.5567033
177	0x3e6a5f15	0.22887833
178	0x3ca57544	0.020197518
179	0xbdf02a0a	-0.11726768
180	0x3f462c2c	0.7741115
181	0xbd980cf1	-0.074243434
182	0x3eb02ec1	0.3441067
183	0xbf1143bf	-0.56744
184	0x3f124830	0.571414
185	0x3ea4398d	0.32075158
186	0x3ec1d8a3	0.37860593
187	0xbf2878b2	-0.65809166
188	0xbe44bb19	-0.19211997
189	0xbe2bbb62	-0.167707
190	0x3e06ecdb	0.1317629
191	0xbeecd534	-0.4625641
192	0xbe138f69	-0.14410175
193	0xbec479cf	-0.38374183
194	0xbebcfac4	-0.3691007
195	0x3eafde28	0.3434918
196	0x3d738dd1	0.05946142
197	0x3f3a6b0d	0.72819597
198	0xbed2d367	-0.41176912
199	0xbd9d06f1	-0.076673396
200	0x3f2a9156	0.66628015
201	0x3ddd44c8	0.108041346
202	0x3eedc25e	0.46437353
203	0xbd4efe24	-0.050535336
204	0x3dc0fe9b	0.09423562
205	0xbf2b79e9	-0.66982895
206	0xbe8c60b4	-0.2741753
207	0x3c4f479b	0.012651349
208	0x3e1a8492	0.15089634
209	0xbe9ed094	-0.31018507
210	0x3e15c7a7	0.14626943
211	0xbee7722b	-0.4520429
212	0x3e81c982	0.2534905
213	0xbe7fa21a	-0.2496418
214	0x3e844312	0.2583242
215	0x3edcb160	0.43104076
216	0xbe711153	-0.23541765
217	0x3e9fc179	0.31202295
218	0xbf6b17cb	-0.9183318
219	0x3dd27c38	0.10277599
220	0x3efab520	0.48966312
221	0x3f066d77	0.5251078
222	0x3ed734bb	0.42032418
223	0xbc7c140f	-0.015385642
224	0xbee4e888	-0.44708657
225	0x3e427a50	0.18991971
226	0x3f1238b1	0.57117754
227	0xbea329c1	-0.31867793
228	0x3e8f0b2f	0.2793822
229	0xbf4d3887	-0.8016438
230	0xbddfcbe2	-0.109275594
231	0x3f28d8eb	0.6595599
232	0xbe16fbb1	-0.1474445
233	0x3ee73ee2	0.45165163
234	0xbe7625c7	-0.24037848
235	0xbf0ea983	-0.55727404
236	0x3d5612b7	0.05226394
237	0x3e509379	0.20368756
238	0x3e7a2567	0.2442833
239	0x3d499357	0.04921278
240	0x3d9a3ff7	0.075317316
241	0x3ec4c275	0.3842961
242	0xbee9fd94	-0.45701277
243	0xbde340cb	-0.11096343
244	0xbf5886a6	-0.8458046
245	0xbf0986bd	-0.5372122
246	0xbc38a2b6	-0.011269262
247	0xbe63e4d3	-0.22255258
248	0x3ec31020	0.3809824
249	0xbe3807f1	-0.1797178
250	0xbf0596a1	-0.52182966
251	0x3e856b43	0.26058397
252	0xbebb3eb9	-0.3657129
253	0x3eca754a	0.3954261
254	0x3e54f938	0.20798194
255	0xbd002409	-0.031284366

network_body.linear_encoder.seq_layers.0.bias f4 [128]
0	0xbaf0da45	-0.0018375596
1	0x3a04e14e	0.00050689734
2	0xbb7c80ed	-0.0038528994
3	0x3b14108a	0.0022592866
4	0xb9cb841c	-0.00038817606
5	0xbacff6bd	-0.001586638
6	0xba93b71d	-0.0011269782
7	0xbb558be3	-0.00325846
8	0xba2a2852	-0.00064909935
9	0x39a34375	0.00031140042
10	0x3b8c7abb	0.0042870915
11	0xbb24c90f	-0.0025144254
12	0xbb286478	-0.002569465
13	0xbabed67f	-0.0014559774
14	0xba9a6e2d	-0.0011782103
15	0xbbd66def	-0.006543867
16	0xbbe924b6	-0.007114972
17	0x3b0e9502	0.0021756296
18	0xbb36204d	-0.002779025
19	0xbaf9c6fa	-0.0019056492
20	0xb89e6ef6	-7.554695e-05
21	0x3a3befca	0.0007169215
22	0xbb41188b	-0.0029464092
23	0xbb0f3cb3	-0.0021856248
24	0x3aed6009	0.0018110286
25	0xbb1c3514	-0.0023835348
26	0xbba3c588	-0.004997913
27	0x39fcb3b2	0.0004819907
28	0x3c094e72	0.008380519
29	0x39cc1a04	0.00038929295
30	0xbb49a9b1	-0.003077131
31	0xbb0c2ca0	-0.0021388903
32	0x394a02b8	0.00019265234
33	0xbb3620da	-0.0027790577
34	0xba7e34e7	-0.0009697214
35	0xbbbc2722	-0.0057419697
36	0xbb170d99	-0.0023048876
37	0xb9d7d54b	-0.0004116691
38	0xbb8af1bb	-0.0042402423
39	0xba49d2db	-0.00076989614
40	0x3ac216d3	0.0014807828
41	0xbb0c293c	-0.0021386882
42	0xbb67daaf	-0.0035378148
43	0x3ae37161	0.0017352515
44	0xba85f52e	-0.0010220164
45	0x3b083c36	0.0020787842
46	0x3b235a8b	0.0024925794
47	0x3ba4d1d4	0.0050298963
48	0x3b121719	0.00222916
49	0x3aa68926	0.0012705668
50	0x3b7070e5	0.0036688384
51	0xba8cf0b4	-0.0010752887
52	0xbb5c9dda	-0.0033663423
53	0xb8f0d2b2	-0.00011483337
54	0xbaea602f	-0.0017881448
55	0xbaf0915e	-0.001835387
56	0x3be25576	0.0069071604
57	0xbad73a74	-0.0016420619
58	0x3bd8c243	0.0066149547
59	0xba92cd4a	-0.0011200097
60	0xbc000462	-0.007813545
61	0xbb096aaf	-0.002096813
62	0xbafcc550	-0.0019284878
63	0x3c0b3017	0.008495352
64	0xbc47acae	-0.012187166
65	0xbb59efce	-0.0033254507
66	0xbb8bc077	-0.004264887
67	0x3b473c23	0.0030400835
68	0x3a0a162f	0.0005267588
69	0xb99e04da	-0.00030139723
70	0x3c190817	0.009340308
71	0xb8ddb8bc	-0.00010572511
72	0x3a66fe08	0.00088116573
73	0x3c01dc83	0.007926109
74	0xbae7eda3	-0.0017694723
75	0x3b7a7105	0.0038214338
76	0xbb69fec7	-0.0035704838
77	0x396f7354	0.00022835779
78	0x384024c6	4.5810615e-05
79	0x3c03b265	0.008038138
80	0x3b0fc2dd	0.0021936216
81	0xbb49e88f	-0.0030808782
82	0xbadb34e6	-0.0016724139
83	0x394dc9a8	0.00019625446
84	0xb9d6526d	-0.00040878673
85	0x39388720	0.00017597945
86	0x3a812ff7	0.0009856214
87	0x3a28c79a	0.00064384344
88	0xbb92c57d	-0.004479109
89	0xbb35ef1d	-0.002776093
90	0x3b1a84bc	0.002357765
91	0x3a1bca61	0.00059429376
92	0x3ba8d577	0.0051524
93	0xb912192e	-0.00013933025
94	0xbbe05a1f	-0.006846681
95	0xba7728c2	-0.00094283756
96	0x3b4cb412	0.003123526
97	0xbaaa6d82	-0.0013002607
98	0x3bf8ef1e	0.0075968644
99	0x3a44d0cc	0.000750792
100	0x3b0244dc	0.001987747
101	0x3a0af316	0.0005300505
102	0xba772ed6	-0.00094292813
103	0x3c095dd4	0.008384187
104	0x3a2d4b78	0.0006610672
105	0xbb103597	-0.0022004598
106	0x3b8762b2	0.0041316384
107	0xbacbdfea	-0.0015554402
108	0x3b65f821	0.0035090523
109	0x3b9efe29	0.0048520756
110	0xbbb08253	-0.0053866296
111	0xba36a614	-0.00069674966
112	0x3b8bc89b	0.0042658574
113	0xbb195039	-0.0023393764
114	0xbb1ae408	-0.0023634452
115	0xba79a43b	-0.00095230684
116	0xba954cc2	-0.0011390673
117	0xbb938561	-0.004501984
118	0xb82b1a0f	-4.0793846e-05
119	0xbb563335	-0.003268433
120	0xbaba7789	-0.0014226298
121	0xbadc00bf	-0.001678489
122	0x39b5d0d5	0.00034678602
123	0xbbd7aca1	-0.0065818583
124	0xbb0be2ec	-0.0021344973
125	0xbbd4c66d	-0.0064933808
126	0x3b1e7198	0.0024176594
127	0x3bbd5811	0.0057783206

network_body.linear_encoder.seq_layers.2.weight f4 [128, 128]
0	0xbdedd35a	-0.11612578
1	0xbc80a074	-0.01570151
2	0xbe10736f	-0.14106534
3	0x3e0b4d4b	0.13603704
4	0xbd990c00	-0.07472992
5	0xbdfbf6ea	-0.123029545
6	0xbda88e3d	-0.08230255
7	0x3c8baeac	0.017051063
8	0x3e1da369	0.15394367
9	0x3e083413	0.13301115
10	0x3c85d7f8	0.016338333
11	0x3d15b6cd	0.036551286
12	0x3d922cd9	0.0713746
13	0xbd95896d	-0.073016025
14	0xbd88afdd	-0.06674168
15	0x3e01366c	0.12618417
16	0xbcabc73e	-0.02096903
17	0xbd650fe6	-0.055923365
18	0x3d0d285f	0.03446233
19	0xbc17b3c9	-0.009259173
20	0xbdd92f13	-0.10604682
21	0x3dbc89d9	0.0920598
22	0x3d5f90e0	0.054581523
23	0x3dd73d03	0.10509684
24	0xba495417	-0.0007680072
25	0x3d358aa9	0.04432169
26	0xbc7e4a1e	-0.015520601
27	0xbdc6a087	-0.09698587
28	0x3e0a339f	0.13496254
29	0x3ce8c965	0.028416345
30	0x3c834cf9	0.016027914
31	0xbc5f8535	-0.013642599
32	0x3b1a87fe	0.0023579593
33	0x3c41c874	0.011827577
34	0xbc376b22	-0.011194976
35	0xbd2f3a36	-0.042780124
36	0x3d327e06	0.043577217
37	0xbc07e715	-0.00829484
38	0x3d4bdf85	0.04977371
39	0xbde52280	-0.11188221
40	0x3d9684e6	0.07349567
41	0x3dadb1ac	0.08481154
42	0x3d1bd25a	0.038042404
43	0xbca943d3	-0.020662224
44	0x3e33fda9	0.17577232
45	0x3d7c5288	0.061602145
46	0xbe15b249	-0.14618792
47	0xbd792ff7	-0.06083676
48	0x3c2c71d7	0.010525188
49	0x3dc15eda	0.094419196
50	0x3d0344c4	0.032048002
51	0xbd0a16c0	-0.033713102
52	0xbe1518ba	-0.14560214
53	0xbdb8edbe	-0.09029721
54	0x3d9d9268	0.076939404
55	0xbe4a1482	-0.19734386
56	0x3d74e972	0.059792943
57	0xbcd833ef	-0.026391951
58	0x3caa0cba	0.020758022
59	0xbba455d9	-0.0050151167
60	0x3d49a62a	0.049230732
61	0x3c5c9f4b	0.013465713
62	0xbdb1d8b3	-0.0868391
63	0xbdb9854c	-0.090586275
64	0xbd4048ff	-0.046944614
65	0x3cadd8f4	0.021221615
66	0x3db933c3	0.09043076
67	0xbe5f236f	-0.2179086
68	0x3d6b9112	0.057511397
69	0x3b420bb1	0.002960902
70	0x3d1bcd7e	0.03803777
71	0x3cf7ed88	0.03026463
72	0xbdd71502	-0.10502054
73	0x3c6125ca	0.01374192
74	0x3e0bb74a	0.13644138
75	0x3d45a6c6	0.04825475
76	0x3d047754	0.032340363
77	0xbe0bd1cd	-0.13654251
78	0x3d027a35	0.031854827
79	0xbd94d33a	-0.07266851
80	0xbc19213c	-0.009346303
81	0x3dac4cc0	0.084130764
82	0x3df96f0f	0.12179386
83	0x3de70e4c	0.11282024
84	0xbdb56dc9	-0.088588305
85	0x3e0974e0	0.1342349
86	0xbdbd48c6	-0.09242396
87	0xbe5add01	-0.21373369
88	0x3dd108f3	0.10206785
89	0x3e09263e	0.13393494
90	0x3dbcd296	0.092198536
91	0x3d968657	0.07349842
92	0x3d79e180	0.06100607
93	0xbda07e72	-0.078366175
94	0xbd1fd8ae	-0.039025
95	0x3db7a1a3	0.08966377
96	0x3c9a4850	0.01883331
97	0x3b654086	0.0034981086
98	0x3c8698d2	0.016430292
99	0xbdde65e4	-0.10859278
100	0x3dd13677	0.102154665
101	0xbd0ee719	-0.03488836
102	0xbc1e1a8c	-0.009649884
103	0xbe16ffcf	-0.1474602
104	0xbcf24a1e	-0.029576357
105	0x3cc56bd1	0.024099262
106	0xbd68f715	-0.05687626
107	0xbd2fa1d7	-0.042878952
108	0x3d4ace3e	0.049513094
109	0xbd8e618c	-0.06952199
110	0xb9af4cad	-0.0003343573
111	0x3d54a50b	0.05191521
112	0x3ba5e043	0.0050621345
113	0x3c1b5173	0.009479868
114	0x3c912a23	0.017720288
115	0x3d22ad85	0.039716262
116	0x3d5edf91	0.05441243
117	0x3db5d716	0.08878915
118	0x3c0ebdda	0.008712256
119	0x3e14a001	0.14514162
120	0xbe002555	-0.12514241
121	0xbd940ac6	-0.07228617
122	0x3da29e22	0.07940318
123	0x3b3cfd8a	0.0028837644
124	0x3de32eac	0.11092886
125	0xbd953cd2	-0.07286991
126	0x3c332158	0.010933243
127	0xbc43c6e0	-0.011949271
128	0x3d13a333	0.03604431
129	0xbdc0d420	-0.0941546
130	0x3d4e8417	0.05041894
131	0xbd3d1302	-0.046160705
132	0xbd63d24b	-0.055620473
133	0xbdab50a5	-0.08364991
134	0x3e1268f0	0.14297843
135	0x3e2621c7	0.16223823
136	0xbcd80d83	-0.02637363
137	0x3ddcac03	0.10774996
138	0xbdb06dcf	-0.08614694
139	0xbdbad12e	-0.09121929
140	0xbc72e406	-0.014824873
141	0x3de5f07b	0.11227509
142	0xbbb7b708	-0.005606536
143	0xbd8d34a9	-0.0689481
144	0x3df73866	0.12071304
145	0xbdefe001	-0.11712647
146	0x3de172ed	0.110082485
147	0xbdbc15d9	-0.091838546
148	0x3d411b58	0.047145218
149	0xbcfb34f8	-0.030664906
150	0xbbd1705f	-0.0063915695
151	0xbcc49542	-0.023996953
152	0xbd6ca182	-0.057771213
153	0xbbf2a101	-0.007404447
154	0xbd847f88	-0.06469637
155	0x3c6e7005	0.014553075
156	0xbe006628	-0.1253897
157	0xbba2643e	-0.0049557975
158	0xbdf44fd7	-0.11929291
159	0xbd288972	-0.041146703
160	0x3caaad7b	0.020834675
161	0x3db8e8d8	0.090287864
162	0x3e03a434	0.12855607
163	0xbe3b8fa3	-0.18316512
164	0x3d62ff7d	0.055419434
165	0xbdf8dd87	-0.12151628
166	0xbe210827	-0.15725766
167	0x3d891694	0.066937596
168	0x3e0a58a8	0.13510382
169	0xbd866257	-0.065617256
170	0xbd6f30d1	-0.058396164
171	0x3e1e48fe	0.15457532
172	0xbca949e5	-0.020665118
173	0xbd95787b	-0.072983705
174	0x3d8cb5bb	0.068706
175	0x3e5ae20e	0.21375296
176	0xbd24b597	-0.04021224
177	0xbccaf3a1	-0.024774374
178	0x3e0541d7	0.13013397
179	0xbcc5317a	-0.024071444
180	0xbd02906a	-0.031876005
181	0xbe20c0a1	-0.15698482
182	0xbdddcb66	-0.10829811
183	0xbc83fbe8	-0.01611133
184	0xbbe56cbf	-0.007001489
185	0x3dc0f762	0.094221845
186	0xbc641f35	-0.013923456
187	0x3de3f41b	0.11130544
188	0xbde71a53	-0.11284318
189	0xbcfdcdce	-0.030981924
190	0xbd82df28	-0.0639022
191	0xbd826ca9	-0.063683815
192	0x3d79836c	0.06091635
193	0xbd8fd8ac	-0.07023749
194	0xbb563c50	-0.0032689758
195	0x3dac7bf8	0.08422083
196	0xbd28bc96	-0.041195475
197	0x3cb398e6	0.021923494
198	0xbd915443	-0.0709615
199	0x3e37378d	0.17892285
200	0x3cbf9540	0.023386598
201	0x3da71601	0.08158494
202	0xbde7512c	-0.11294779
203	0xbc9241fb	-0.017853728
204	0xbc95605e	-0.018234428
205	0xbe0fbdc6	-0.14037237
206	0x3e0538bf	0.13009928
207	0x3d2c126b	0.042009752
208	0xbd06987d	-0.032860268
209	0xbc5f80cf	-0.01364155
210	0x3d17e477	0.037083115
211	0xbdcc1ed0	-0.099668145
212	0x3d646d46	0.055768274
213	0x3d8e33e5	0.06943492
214	0xbe138e7e	-0.14409825
215	0x3d15c105	0.03656103
216	0xbc64f0fb	-0.01397347
217	0xbe3baafa	-0.18326941
218	0x3d041a7d	0.032251824
219	0xbd43dbe5	-0.04781713
220	0x3d6211cc	0.055192754
221	0xbd72b3b8	-0.059253424
222	0x3dc9d62e	0.09855305
223	0x3d6047e2	0.054756053
224	0xbc9a2d59	-0.018820452
225	0x3d013292	0.03154237
226	0x3ce9e389	0.02855088
227	0x3dd22c4e	0.10262357
228	0xbe10c6e9	-0.14138378
229	0xbdb3ad29	-0.08773262
230	0xbd99bb0f	-0.07506382
231	0xbdeee9fd	-0.116657235
232	0x3bcc3518	0.006231915
233	0x3db877c6	0.0900722
234	0xbcd7bd7c	-0.02633547
235	0xbba85d81	-0.0051380997
236	0xbd679374	-0.056537107
237	0xbd7ae8d7	-0.06125721
238	0xbd093752	-0.033500023
239	0xbd61e8d1	-0.05515367
240	0xbda9d2d4	-0.082921654
241	0xbde8c051	-0.113648064
242	0xbe288e98	-0.16460645
243	0xbd48f009	-0.04905704
244	0xbd80f80f	-0.062973134
245	0x3b739965	0.0037170288
246	0xbdbd5f37	-0.092466764
247	0x3e0bbce3	0.13646273
248	0x3e13a136	0.14416966
249	0x3d35450c	0.0442553
250	0x3c8f1a20	0.017468512
251	0x3e06d665	0.13167723
252	0xbd6f8c52	-0.05848343
253	0x3e023b4b	0.12717931
254	0x3e1aaee9	0.15105785
255	0x3c81d883	0.015850311

network_body.linear_encoder.seq_layers.2.bias f4 [128]
0	0xba9755bb	-0.0011545935
1	0x3a9060f1	0.0011015219
2	0x3b080322	0.002075382
3	0xbafea163	-0.0019426759
4	0x3ab73498	0.0013977466
5	0x39d7f42c	0.00041189918
6	0xbb7f27f8	-0.0038933735
7	0x35016cc0	4.8214497e-07
8	0xbb2cccb6	-0.0026367134
9	0x39835654	0.00025050587
10	0xb816e54e	-3.5976343e-05
11	0x3a8f6960	0.0010941438
12	0x37ad8a28	2.0687541e-05
13	0x3a825646	0.0009943924
14	0xba5ab501	-0.0008343012
15	0xbb17ae9a	-0.0023144842
16	0x3a45f7e1	0.00075518904
17	0x3a4f8842	0.00079167273
18	0x3b04b67f	0.0020250378
19	0xbb363f07	-0.0027808563
20	0x3b5f8e93	0.003411208
21	0x3acef5c8	0.0015789801
22	0xb9771ebb	-0.00023567204
23	0xbb353462	-0.002764963
24	0x3af51613	0.0018698595
25	0xbb7ee397	-0.0038892978
26	0xbc0739eb	-0.008253555
27	0x3b30cf5b	0.0026979062
28	0xbac24f8f	-0.0014824736
29	0x3b0b5aa5	0.0021263745
30	0xbb40f585	-0.0029443216
31	0x3add4394	0.0016881102
32	0x3ac1a83c	0.0014774869
33	0xba660f6f	-0.00087761035
34	0x3ace92c3	0.0015760291
35	0xbb390c65	-0.0028236147
36	0xbb53de74	-0.0032328637
37	0xba9d7148	-0.001201191
38	0x39f2d830	0.0004631891
39	0x3aaf9a38	0.0013397401
40	0xbc0c0118	-0.008545183
41	0xbb0a2945	-0.0021081727
42	0xbb07ae24	-0.002070316
43	0x3a2f8279	0.0006695162
44	0x3b49f00c	0.0030813245
45	0xbac60f6d	-0.0015110798
46	0xbb9487c0	-0.004532784
47	0xbbd00b8c	-0.0063490327
48	0x3acc22da	0.0015574351
49	0x3b881428	0.0041527934
50	0xbaee6964	-0.0018189368
51	0xbb50a090	-0.0031833984
52	0x3a9c447e	0.0011922268
53	0x3bbf3b52	0.005835929
54	0xbaf26fbc	-0.0018496434
55	0xbb6f2e88	-0.003649624
56	0xbb4bff3a	-0.0031127469
57	0xbb640e95	-0.003479873
58	0xbb647900	-0.003486216
59	0xbac908ff	-0.0015337764
60	0x3ab7b195	0.0014014716
61	0x3b05fa1e	0.002044327
62	0x3b236fe9	0.002493853
63	0xbaa9b1ee	-0.0012946704
64	0xba8bee0d	-0.0010675803
65	0x3b635d22	0.0034692963
66	0xbb2e037f	-0.0026552377
67	0xba2cde61	-0.00065944163
68	0x3932bc69	0.00017045591
69	0xbb4cb3e4	-0.0031235153
70	0x3ab9b7da	0.0014169172
71	0xbab5688e	-0.0013840364
72	0xbb14f9a8	-0.0022731815
73	0x3a134546	0.00056179275
74	0xbb26035b	-0.002533159
75	0xb9cdb3a1	-0.0003923448
76	0xba9f0098	-0.0012130914
77	0x3bb948d8	0.0056544356
78	0x3b0d185d	0.0021529414
79	0xb9aefd07	-0.00033376386
80	0xbb64986d	-0.0034880892
81	0x3ab15016	0.0013527896
82	0x3b18efe0	0.0023336336
83	0xbab736a5	-0.0013978077
84	0xbb1a8cbd	-0.0023582422
85	0xbb771b2f	-0.0037705412
86	0xbb33b24a	-0.00274195
87	0x3b040673	0.0020145446
88	0xbaf025bf	-0.0018321796
89	0xbb32bd1d	-0.0027273365
90	0x3be50093	0.006988594
91	0xbb3aa051	-0.0028476904
92	0x3bab9815	0.0052366355
93	0xbb04c046	-0.0020256205
94	0xbb41d859	-0.0029578416
95	0xbb4553b3	-0.0030109703
96	0xbb3b09bd	-0.002853974
97	0x39aa16a3	0.00032441792
98	0xbb5996d0	-0.0033201464
99	0x3ba634f4	0.0050722305
100	0xbb2d5381	-0.0026447477
101	0xbb5decba	-0.0033863024
102	0xba8cea80	-0.0010751039
103	0x3b925586	0.0044657616
104	0xbba3150a	-0.0049768733
105	0x3aa8211b	0.0012827249
106	0xbb40eba7	-0.0029437335
107	0xbaa34dc6	-0.0012459091
108	0x3aa2547a	0.0012384795
109	0xba185a9a	-0.00058118405
110	0xba237d09	-0.0006236588
111	0x3984f1df	0.0002535721
112	0xbadbdad7	-0.0016773593
113	0x3b304b63	0.0026900403
114	0xba45b121	-0.0007541348
115	0xba09112c	-0.0005228694
116	0x3ba0523c	0.0048926156
117	0x3b9f4306	0.0048602847
118	0xbaa7e516	-0.0012809362
119	0xbb35a988	-0.0027719457
120	0xb8c8ea96	-9.580438e-05
121	0xba9cf53c	-0.0011974941
122	0x3bcac0ea	0.006187548
123	0x3b109992	0.0022064191
124	0x3ac138e1	0.0014741683
125	0xbb9201f1	-0.004455798
126	0x3a0e1d0f	0.00054212
127	0x3a8d89de	0.0010798534

action_model._continuous_distribution.log_sigma f4 [1, 2]
0	0xbca8724f	-0.02056232
1	0xbb6d41e8	-0.0036202613

action_model._continuous_distribution.mu.weight f4 [2, 128]
0	0x3c4cb918	0.012495302
1	0xbce4b5e0	-0.027918756
2	0xbc028826	-0.007967031
3	0xbc172e23	-0.009227308
4	0xbc9df4e4	-0.019281812
5	0xbb550128	-0.003250191
6	0x3cd29b2a	0.025708754
7	0xbc4203ae	-0.011841698
8	0x3b80f896	0.0039358838
9	0x3cb84b0f	0.022496728
10	0xbca79560	-0.02045697
11	0xbcfb1a3b	-0.030652156
12	0xbaed808c	-0.0018119975
13	0xbcba0607	-0.022707952
14	0x3caa0f09	0.020759122
15	0x3b66af3d	0.0035199665
16	0x3ba2f930	0.004973553
17	0x3c4909cb	0.012270401
18	0x3c3e9a31	0.011633442
19	0xbc35fb1a	-0.011107231
20	0xbb7f734c	-0.0038978634
21	0x3acf4a0a	0.0015814912
22	0xbcea6eb3	-0.028617239
23	0xbc435d5e	-0.011924116
24	0x3b139dab	0.0022524397
25	0xbaf7457a	-0.001886531
26	0x3a6322b9	0.0008664537
27	0x3a69a2b1	0.00089124875
28	0x3b97d8e8	0.0046340115
29	0x3beb41fd	0.0071794973
30	0xbcb803b6	-0.022462707
31	0x3c39a3e7	0.011330581
32	0x3d5a90da	0.053360797
33	0xbc287ed1	-0.010284142
34	0xbd369ba7	-0.044582035
35	0x3c8ae3af	0.016954271
36	0x3d1047e1	0.0352248
37	0x3c2aba8e	0.010420455
38	0xbc62ce7a	-0.013843173
39	0x3c5fe1f0	0.013664708
40	0xbb6d123c	-0.0036174199
41	0x3b07f79b	0.002074695
42	0xbc98b2dd	-0.018639976
43	0x3c2bda4a	0.010489056
44	0x3cc08add	0.023503715
45	0xbbb8697c	-0.005627809
46	0xbad22cf0	-0.0016035121
47	0x3c20ab58	0.0098064765
48	0xbaa74d13	-0.0012764059
49	0x3c379641	0.011205257
50	0xbc7772ad	-0.015103024
51	0x3b3fb7a2	0.002925374
52	0x3c340d59	0.01098951
53	0x3c1bc17d	0.00950658
54	0x3d09d3e1	0.03364933
55	0xbbcba5a9	-0.0062148166
56	0xbb8c7407	-0.0042862925
57	0xbbb85943	-0.005625875
58	0x3b989863	0.004656838
59	0x3b4d9d6b	0.0031374346
60	0xbb8bedb5	-0.0042702802
61	0x3c9029aa	0.017597992
62	0x3bff205a	0.007785839
63	0x3c25a448	0.0101099685
64	0x3bec4433	0.0072102784
65	0x3a3b9922	0.00071563025
66	0xbce18aff	-0.027532099
67	0x3c7075d2	0.014676528
68	0x3c63d3b0	0.013905451
69	0x3a6d84fa	0.00090606476
70	0xba9afdbe	-0.0011824889
71	0x3c08fb40	0.008360684
72	0xb8a7dbbe	-8.004111e-05
73	0xbbea8869	-0.0071573746
74	0x3b313c36	0.0027043945
75	0xba91b4b4	-0.0011116476
76	0xbb1f7220	-0.0024329498
77	0x3b4650be	0.0030260528
78	0xbbf613f7	-0.007509704
79	0x3c3aa1dc	0.011391129
80	0x3b9d4806	0.0047998456
81	0xbc1bc56e	-0.00950752
82	0xbc28ccb9	-0.010302716
83	0x3c663449	0.014050552
84	0xbd200a95	-0.03907259
85	0xbc5adc0e	-0.013358129
86	0xbcaf8f93	-0.021430766
87	0x3c1d3f22	0.009597572
88	0x3c017807	0.007902152
89	0x3b902040	0.0043983757
90	0xbcab7a96	-0.020932477
91	0xbc98ddad	-0.01866039
92	0x3c0c54be	0.008565126
93	0xbc346eb2	-0.01101272
94	0xbba703af	-0.0050968747
95	0xbbc65a55	-0.006053249
96	0xb91aba0c	-0.00014755892
97	0x3a37c900	0.00070108473
98	0xbc6fef17	-0.014644406
99	0xba678463	-0.0008831678
100	0xbab8b2fa	-0.0014091425
101	0x3b90dd7e	0.004420935
102	0xbbc30e9e	-0.0059526702
103	0xbcfa4780	-0.030551672
104	0xbc04ceb6	-0.008105924
105	0x3acd2774	0.0015652017
106	0xbd1cd391	-0.038287703
107	0x3c145784	0.0090540685
108	0x3c780b68	0.015139438
109	0xbd168aca	-0.036753453
110	0x3c17467b	0.009233112
111	0xbc3caef0	-0.011516318
112	0x3be42e65	0.0069635385
113	0x3cd0ad65	0.025473306
114	0x3c99c2ab	0.018769583
115	0x3cb09613	0.021555936
116	0xbac4cb61	-0.0015014225
117	0xbcfc929c	-0.030831628
118	0x3c345308	0.011006124
119	0xbc8eb4c7	-0.017420186
120	0xbb8b93b5	-0.0042595514
121	0x3c890739	0.016727077
122	0x3c95efe1	0.01830286
123	0xbc8e2ca9	-0.01735528
124	0xbc940609	-0.018069284
125	0xbc2f9956	-0.0107177105
126	0xbc18e8a8	-0.009332813
127	0xbb170968	-0.0023046378
128	0xbcc6145b	-0.024179628
129	0x3ca9e464	0.020738788
130	0xbbe9bcf9	-0.007133123
131	0x3c13157e	0.008977292
132	0xbadaedb1	-0.0016702918
133	0x3c8ccd5f	0.017187772
134	0xbcaf0268	-0.021363452
135	0x3ccfcef3	0.025367236
136	0xba3671bd	-0.00069596973
137	0x3b5b0535	0.0033419852
138	0x3cc23c70	0.02371046
139	0xbccef5ce	-0.025263693
140	0x3c015412	0.007893579
141	0x3bf72193	0.007541844
142	0xbc170d22	-0.00921944
143	0xb9afe159	-0.00033546498
144	0xbc4c1330	-0.0124557465
145	0x3baff14e	0.005369342
146	0x3c73e216	0.014885446
147	0x3b4e1a4a	0.0031448775
148	0xbc73072a	-0.014833251
149	0xbcc2e56e	-0.023791041
150	0xbc1f8bdd	-0.009737936
151	0xbcd35359	-0.02579658
152	0x3cba0557	0.022707624
153	0xbbc2f994	-0.005950162
154	0x3c850f37	0.016242607
155	0x3c6f4450	0.014603689
156	0x3b130008	0.0022430439
157	0x3ce1b230	0.027550787
158	0xbb8c2bb6	-0.0042776717
159	0x3c9110fb	0.017708292
160	0xbc337db8	-0.010955267
161	0x3c3134e5	0.010815834
162	0xbb993582	-0.004675568
163	0xbd0471e9	-0.032335196
164	0x3c01a65b	0.007913197
165	0xbc34a766	-0.011026239
166	0x3cbf714c	0.023369454
167	0x3a507590	0.00079520885
168	0x3c9e1a04	0.019299515
169	0xbbb40d23	-0.00549473
170	0x3bce3742	0.0062932083
171	0xb79aefd4	-1.846991e-05
172	0xbc61751a	-0.013760829
173	0x3baa6b25	0.005200761
174	0xbc022b09	-0.007944831
175	0xbc7d3179	-0.01545369
176	0x3c9893f6	0.01862524
177	0x3cc7c303	0.024384981
178	0x3be59c20	0.007007137
179	0x3b5d3a17	0.0033756548
180	0xbbb63a6c	-0.0055611636
181	0x3aa35a5d	0.0012462843
182	0xbc0ad1de	-0.008472888
183	0xbd057b05	-0.032588024
184	0xbbf0d705	-0.007349851
185	0xbb6e14c6	-0.00363283
186	0x3c6dc4c2	0.014512243
187	0xbd76029d	-0.060061086
188	0x3d138537	0.036015715
189	0x3c91b4f1	0.017786475
190	0xbcac0250	-0.020997196
191	0xbc1dfee8	-0.009643294
192	0xbb915f23	-0.00443639
193	0x3c9b6ce8	0.018972829
194	0xba3ca146	-0.00071956625
195	0x3cf0bb03	0.02938605
196	0xbbedeecf	-0.007261134
197	0xbc027f30	-0.007964894
198	0xbca0f9c0	-0.01965034
199	0xbc127d9f	-0.008941083
200	0xbc97b875	-0.018520573
201	0x3c8f2529	0.017473774
202	0xbbf404b3	-0.0074468493
203	0xbc761ce7	-0.015021539
204	0x3b90217c	0.004398523
205	0x3ca2b7c8	0.019863024
206	0xbcbcf86b	-0.023067674
207	0xbd0df93f	-0.034661528
208	0x3aba1d97	0.0014199492
209	0xba96daf0	-0.001150934
210	0x3c82d014	0.01596836
211	0xbce178de	-0.027523454
212	0x3c055934	0.008138943
213	0xbba59da3	-0.005054192
214	0xbcc1e4f9	-0.023668753
215	0x3bbfc673	0.0058525144
216	0xbc9e053b	-0.019289603
217	0x3ca3327c	0.019921534
218	0x3c28d7c3	0.010305348
219	0xbbc51325	-0.006014245
220	0xbca6031b	-0.020265153
221	0xbc8b932d	-0.017037952
222	0x3bc9ee18	0.006162416
223	0xbce0235e	-0.027360614
224	0x3ad0c9c0	0.0015929267
225	0xbc849d3c	-0.016188256
226	0x3ceccb98	0.028905675
227	0xbbe55963	-0.006999181
228	0xbbb5d924	-0.005549567
229	0x3b91b585	0.0044466876
230	0x3c116504	0.008874182
231	0xbcd78b57	-0.02631156
232	0x3a7c549f	0.00096256466
233	0x3cc4f99e	0.024044808
234	0x3b5409c5	0.0032354456
235	0xbc0142f1	-0.007889495
236	0xba00cf89	-0.00049137376
237	0x3cfde0c1	0.03099096
238	0xbbfd3172	-0.0077268416
239	0xbc923217	-0.01784615
240	0xbc0dc8d6	-0.00865384
241	0xbc4fe57c	-0.012688991
242	0x3c004bcb	0.00783057
243	0xbc8f5fad	-0.017501676
244	0x3d06d895	0.032921392
245	0x3d123aa0	0.03570044
246	0xbc6be2eb	-0.014397363
247	0xbc60d331	-0.013722227
248	0x3cea663c	0.028613202
249	0xbcc988a8	-0.024601296
250	0xbc875815	-0.016521493
251	0xba3262f7	-0.0006804908
252	0x3c06d1d4	0.008228738
253	0x3c9ed634	0.01938925
254	0x3b63bf46	0.003475146
255	0x3bca7037	0.006177928

action_model._continuous_distribution.mu.bias f4 [2]
0	0x3b042fe9	0.0020170158
1	0x3b0b1d48	0.002122717

action_model._discrete_distribution.branches.0.weight f4 [1, 128]
0	0x3c804375	0.015657166
1	0xbc7b6fe7	-0.015346504
2	0x3b6481b2	0.0034867343
3	0x3b168d58	0.002297243
4	0xbbdac8ad	-0.0066767544
5	0x3c1c2719	0.009530806
6	0x3c1498bc	0.009069618
7	0xbabc5028	-0.001436715
8	0xbc8d63ec	-0.01725956
9	0x3bac2bbf	0.0052542384
10	0xb80479de	-3.158475e-05
11	0xbbc29083	-0.0059376373
12	0x3c39db54	0.011343796
13	0xbc0f72ae	-0.008755369
14	0xbb1591ed	-0.0022822574
15	0xbab1bc53	-0.0013560153
16	0xbb86d5a1	-0.004114822
17	0xbc2615ca	-0.010137031
18	0x3adc3ebb	0.0016803363
19	0x3afdce5a	0.0019363866
20	0xbbc0ebfd	-0.005887507
21	0x3b10921b	0.0022059742
22	0x3b32cd30	0.0027282946
23	0x3c1b0e39	0.00946384
24	0xbabe3a46	-0.0014513216
25	0xbc372b29	-0.011179724
26	0xba2515e8	-0.0006297515
27	0x39af6900	0.00033456832
28	0x3b3dacc7	0.0028942095
29	0xbbf128ca	-0.0073595988
30	0xbc96ddd8	-0.01841633
31	0x3c635008	0.013874061
32	0xbc02a399	-0.007973575
33	0x3ba447e4	0.005013453
34	0xbc3d4a41	-0.011553348
35	0x3c37d635	0.0112205045
36	0xbb00cca9	-0.0019653237
37	0xb8651115	-5.4613763e-05
38	0x3c1e680f	0.009668364
39	0xbc8813ab	-0.01661094
40	0xbbf9e0c5	-0.0076256716
41	0x3c3f8c2c	0.011691134
42	0xbb8cd49d	-0.0042978064
43	0xbc967e7a	-0.018370856
44	0x3bf6a513	0.0075270026
45	0xbbd5774f	-0.006514467
46	0xbc9ea384	-0.01936508
47	0x3cb46daf	0.022024957
48	0x3b83134f	0.0040001045
49	0x3c23769f	0.009977012
50	0xbc17384b	-0.00922973
51	0xbbe0149a	-0.0068383934
52	0x3c67baff	0.014143704
53	0xbb282ac7	-0.0025660263
54	0xbbbaa8ad	-0.0056963773
55	0xbc5b9b82	-0.013403775
56	0x3baf936e	0.005358151
57	0x39f597fa	0.00046843273
58	0x3b28a21c	0.002573139
59	0xbbd171e0	-0.006391749
60	0x3c4d3713	0.012525338
61	0x3c55a443	0.013039651
62	0x3beeecdf	0.007291421
63	0x3a74b882	0.0009335355
64	0x3b88f579	0.0041796532
65	0xbb6fc087	-0.003658326
66	0xbb85c015	-0.004081736
67	0x3c29cfd5	0.010364492
68	0xba61571b	-0.00085960486
69	0xba38f757	-0.00070558995
70	0x3b8ae3c8	0.0042385794
71	0x3c007f92	0.007842915
72	0x3adb0f83	0.0016712997
73	0xbaf8db3a	-0.0018986233
74	0x3b916b51	0.004437842
75	0xbc2bb198	-0.010479353
76	0x3baceda3	0.005277352
77	0xbb1fc0ed	-0.0024376467
78	0x3c558522	0.01303223
79	0xbbbfbe19	-0.005851519
80	0x3a323441	0.00067979476
81	0xbbaf5943	-0.005351217
82	0x3b63cb9b	0.003475881
83	0x3c23f53f	0.010007202
84	0x3bd14843	0.006386788
85	0xbc2d0462	-0.010560127
86	0x3a5bc10a	0.0008382952
87	0x3b8959cb	0.0041916124
88	0x3bc9423f	0.0061419304
89	0x3b1bb6e3	0.0023760132
90	0xbb1ee4a3	-0.0024245165
91	0xbc1d8dbb	-0.009616311
92	0x3b9ef90b	0.0048514656
93	0xbb93dc2f	-0.004512332
94	0x3b6315f0	0.0034650527
95	0xbabd257a	-0.0014430725
96	0xbc327d75	-0.010894169
97	0xbc481efb	-0.012214418
98	0xbbbfadd1	-0.005849578
99	0xbc84395d	-0.016140634
100	0x3c104425	0.008805309
101	0xbc80cd34	-0.015722848
102	0x3b2b868e	0.002617273
103	0x3b1b2cd6	0.0023677847
104	0x3ce55998	0.027996823
105	0xbbab332b	-0.0052246056
106	0x3c2db899	0.010603094
107	0xbb84aae5	-0.0040486925
108	0xbc5a777f	-0.013334154
109	0x3c9292ef	0.017892329
110	0xbbdfa7f2	-0.0068254406
111	0xb9e23608	-0.00043146336
112	0x3b303de7	0.0026892365
113	0xbb6ada0a	-0.0035835528
114	0xbb06b351	-0.0020553658
115	0xbc19331f	-0.009350567
116	0xbb3e0408	-0.0028994102
117	0x3c4d4dc2	0.012530746
118	0xbb00d35b	-0.0019657228
119	0xb984183f	-0.00025195067
120	0x3b8c84ed	0.004288307
121	0x3cb1a1d7	0.021683617
122	0x3a8f0810	0.0010912437
123	0x3bede1ad	0.0072595687
124	0xbba37d8b	-0.004989331
125	0x3ba4e30b	0.0050319484
126	0xbb21f75f	-0.0024714095
127	0xbca86a40	-0.020558476

critic.network_body.linear_encoder.seq_layers.0.weight f4 [128, 6]
0	0xbd36f937	-0.044671264
1	0xbe881cbf	-0.26584432
2	0x3e794e87	0.24346362
3	0xbed7e9f6	-0.42170686
4	0x3f1e5577	0.6184916
5	0x3edfecc7	0.43735334
6	0xbecc4827	-0.39898798
7	0xbde1955d	-0.11014817
8	0xbe61a9c2	-0.22037414
9	0xbeafcea3	-0.3433734
10	0x3f051751	0.51988703
11	0xbd07e652	-0.033178635
12	0x3ef66672	0.48125035
13	0xbf25d0f0	-0.6477194
14	0x3d35b186	0.044358753
15	0x3d1aada3	0.03776325
16	0x3e8afb08	0.27144647
17	0x3f191cdd	0.59809667
18	0x3c0867e4	0.008325551
19	0x3d130b0b	0.035899203
20	0x3d141a36	0.03615781
21	0xbe89281e	-0.2678842
22	0x3e2bc35c	0.16773742
23	0xbe0d2dd8	-0.13787019
24	0xbdbb93ae	-0.09159027
25	0x3f373252	0.7156116
26	0x3edf33c1	0.43594173
27	0xbf332328	-0.6997552
28	0x3e62cc53	0.22148256
29	0x3ddeeb0a	0.10884674
30	0xbe8c5992	-0.27412087
31	0xbdd32f3c	-0.103117436
32	0x3e97ea1b	0.29670796
33	0x3e0aa708	0.1354028
34	0xbdd7e199	-0.10541076
35	0xbe68951a	-0.22713128
36	0x3f112eee	0.56712234
37	0xbf25f0a3	-0.6482031
38	0x3d5fa876	0.054604016
39	0xbf0cdf7f	-0.5502853
40	0xbf39b586	-0.7254261
41	0xbdc0ace8	-0.09407979
42	0xbe93c48e	-0.28860897
43	0x3f5c1992	0.8597652
44	0xbebb6928	-0.36603665
45	0x3f52d16a	0.8235079
46	0xbf4a4969	-0.79018265
47	0xbecfbe7c	-0.40575016
48	0x3c95fd7b	0.018309345
49	0x3a6e6aa0	0.0009094868
50	0x3f1bb8d6	0.6082891
51	0xbe20383f	-0.15646456
52	0x3ea503c9	0.3222945
53	0x3dd92916	0.1060354
54	0xbea5d629	-0.32389954
55	0x3f3ef724	0.74595857
56	0xbecece20	-0.40391636
57	0x3e2bcd11	0.16777445
58	0xbea94f6c	-0.33068407
59	0xbe317ad2	-0.17332008
60	0x3e46f739	0.19430245
61	0x3ee1ec49	0.44125584
62	0x3e26b430	0.16279674
63	0x3f56a87b	0.8385083
64	0xbdc35fe7	-0.09539776
65	0x3e15bca0	0.14622736
66	0x3d928177	0.071536
67	0x3ed0538a	0.40688735
68	0x3e96c621	0.29448035
69	0xbd84fe76	-0.06493847
70	0x3e6d4631	0.23171307
71	0x3f3f2c8e	0.7467736
72	0x3e00d0da	0.1257967
73	0x3deaaec9	0.11459119
74	0x3e8ded8b	0.27720293
75	0xbd0943c5	-0.033511896
76	0xbf0809a0	-0.53139687
77	0xbe79abfa	-0.2438201
78	0x3eb18a89	0.34676006
79	0xbe275378	-0.16340435
80	0xbf2e0fac	-0.67992663
81	0x3f5bca83	0.85855883
82	0xbe923841	-0.28558543
83	0x3ec1a89a	0.37823945
84	0x3ec4821d	0.3838052
85	0x3dbf3e37	0.093380384
86	0x3d517dd0	0.051145375
87	0x3e90ee8f	0.28307006
88	0xbf260aa9	-0.64860016
89	0xbeffb076	-0.49939317
90	0x3d910ffc	0.07083127
91	0xbebe4b7e	-0.3716697
92	0xbeb9bdfd	-0.36277762
93	0x3daa3d2d	0.083124496
94	0xbebcf8c6	-0.3690855
95	0xbdbe3595	-0.09287564
96	0xbe71f71b	-0.2362942
97	0xbecfa22b	-0.40553412
98	0x3f598bc0	0.84978867
99	0xbf1ea1d9	-0.6196571
100	0xbe2ece8e	-0.17070982
101	0xbf3e7d7b	-0.7441022
102	0x3f02a23c	0.510288
103	0xbd3f2752	-0.04666836
104	0xbec8bb42	-0.39205366
105	0x3b45c9ec	0.003018017
106	0x3e8866dc	0.26640975
107	0x3f0f5a61	0.5599728
108	0xbf54d14a	-0.8313185
109	0x3e27d909	0.16391386
110	0x3f4ddca9	0.80414826
111	0x3ee92130	0.45533133
112	0x3e0f2bbc	0.13981527
113	0xbad2a228	-0.0016070055
114	0xbceeafac	-0.029136501
115	0x3eadac1d	0.33920375
116	0x3d9b742c	0.075905174
117	0xbe01d06c	-0.12677163
118	0xbf041683	-0.5159685
119	0x3df723cd	0.12067375
120	0x3cc37316	0.023858588
121	0x3eff350c	0.4984516
122	0xbddbd1f0	-0.10733402
123	0x3f0b7e2a	0.54489386
124	0xbe67b541	-0.22627737
125	0xbdd5b912	-0.1043569
126	0xbe63b6ec	-0.22237748
127	0x3de6ac83	0.11263373
128	0xbf1200aa	-0.57032263
129	0xbf510ff3	-0.8166496
130	0xbedcd558	-0.43131518
131	0x3f858ecb	1.0434202
132	0x3f84b400	1.0367432
133	0x3f30fac5	0.69132644
134	0xbd5e6c81	-0.054302696
135	0x3eecfc26	0.46286124
136	0x3e36d0d6	0.17853102
137	0x3e3356e2	0.17513612
138	0xbf02fd69	-0.51167923
139	0xbf20094b	-0.6251418
140	0x3ef7aae5	0.4837257
141	0x3e049dbb	0.12950794
142	0xbec2e108	-0.3806231
143	0xbe4bdcb6	-0.19908413
144	0x3f3be394	0.7339413
145	0xbf40051c	-0.75007796
146	0x3eb2924a	0.34877235
147	0xbdee429f	-0.11633801
148	0x3eb64927	0.35602686
149	0xbefe0bcc	-0.49618375
150	0xbddddbdf	-0.10832953
151	0xbbabc71c	-0.0052422415
152	0x3f00a3b8	0.50249815
153	0x3eac380e	0.33636516
154	0x3eef274a	0.46709663
155	0xbe64717d	-0.22308917
156	0xbbe9fd19	-0.0071407673
157	0xbe0fb9d6	-0.14035735
158	0x3e36f41a	0.17866555
159	0xbdca0adc	-0.098653525
160	0x3eab61f7	0.3347318
161	0xbeb90d70	-0.36143064
162	0xbe2b9fce	-0.1676018
163	0xbdd6c15a	-0.10486098
164	0xbe7c53bd	-0.24641319
165	0x3da8320d	0.082126714
166	0x3f13d6fb	0.5774991
167	0x3cd7e777	0.026355488
168	0x3e503e8c	0.2033636
169	0xbd72e538	-0.05930063
170	0x3ea1acd8	0.31577182
171	0xbf2edb56	-0.6830343
172	0xbee66584	-0.44999325
173	0xbf461eab	-0.77390546
174	0xbf05a0d4	-0.5219853
175	0xbd50b1dc	-0.05095087
176	0xbf118951	-0.56850153
177	0x3e7f9ab2	0.24961355
178	0xbeefffb2	-0.46874768
179	0xbebcee34	-0.36900485
180	0x3ee87556	0.4540202
181	0xbecb0bcb	-0.39657435
182	0x3d0087a7	0.03137937
183	0xbea06d11	-0.3133321
184	0xbe0a9ff0	-0.13537574
185	0x3e7d69ef	0.24747442
186	0xbeca722b	-0.39540228
187	0xbead3a1f	-0.33833405
188	0x3f1b792a	0.60731757
189	0x3ea61a1e	0.324418
190	0xbfa63d67	-1.2987489
191	0x3e59377b	0.2121257
192	0xbe823ad7	-0.25435516
193	0xbe9de017	-0.3083503
194	0xbe80d73d	-0.25164214
195	0x3ed7b300	0.42128754
196	0xbf7900ee	-0.97267044
197	0x3e47480a	0.19461074
198	0xbeca3897	-0.394963
199	0x3e1aba22	0.15110067
200	0x3e076f4c	0.1322605
201	0x3f42fc43	0.7616617
202	0xbe25fa3c	-0.16208738
203	0xbe0c1d42	-0.13683036
204	0x3d7531cd	0.059861947
205	0x3d77e0d8	0.060517162
206	0x3f7eb327	0.99492115
207	0x3ec5113c	0.3848971
208	0x3f02825a	0.5098015
209	0xbd571905	-0.052514095
210	0x3e25ebee	0.16203281
211	0x3e2fd794	0.1717208
212	0x3f495b71	0.78655154
213	0x3c444db4	0.0119814165
214	0xbe7cdd6d	-0.24693842
215	0xbf28b26d	-0.65897256
216	0x3d31dc9c	0.04342328
217	0xbea2650d	-0.3171772
218	0xbecb1c82	-0.39670187
219	0xbdffc37d	-0.12488458
220	0xbe010b5a	-0.12601987
221	0x3f2b2d3a	0.66865885
222	0x3dbb3be4	0.091422826
223	0xbf0560d4	-0.52100873
224	0xbd03d940	-0.032189608
225	0xbed1992e	-0.4093718
226	0x3f61e549	0.88240486
227	0x3ecc1da8	0.39866376
228	0xbe70a892	-0.23501804
229	0x3eac6423	0.33670148
230	0xbef8ee29	-0.48619202
231	0xbeaf0edd	-0.34191027
232	0xbeaa5116	-0.3326499
233	0x3f01ed01	0.50752264
234	0x3e7afe1b	0.24510996
235	0x3e187c06	0.14891061
236	0xbe1dc932	-0.15408781
237	0x3d4ab5d7	0.049489822
238	0x3dc5bf1b	0.09655591
239	0x3d04e960	0.032449126
240	0x3de7925a	0.11307211
241	0xbefc5213	-0.49281368
242	0xbd872f1f	-0.066007845
243	0xbe993629	-0.29924133
244	0x3d24a577	0.040196862
245	0xbe181325	-0.14851053
246	0x3e6c7826	0.23092708
247	0x3c488374	0.012238372
248	0xbe221930	-0.15829921
249	0xbf02adbf	-0.51046365
250	0xbe0e9dd8	-0.139274
251	0xbe8165ad	-0.25272885
252	0xbe8f191a	-0.27948838
253	0xbc9915cb	-0.01868715
254	0x3b331fa6	0.0027332096
255	0xbdda9742	-0.106733814

critic.network_body.linear_encoder.seq_layers.0.bias f4 [128]
0	0xba7af63c	-0.0009573435
1	0xb95a05ec	-0.00020792306
2	0xbaa055dc	-0.0012232619
3	0xba85f507	-0.0010220119
4	0xba73dd08	-0.00093026506
5	0x3abb4a88	0.001428918
6	0xba806d28	-0.0009798156
7	0x3a33f567	0.0006864876
8	0xbac03100	-0.0014663041
9	0x3995630a	0.00028493284
10	0xbae17603	-0.0017201308
11	0xba397b62	-0.00070755754
12	0x3b4f6a1b	0.0031648937
13	0x3a5e4f15	0.0008480412
14	0xbab9dc48	-0.0014180029
15	0x3c11f9c7	0.008909649
16	0xbb9b6b7c	-0.0047430377
17	0xba8b290a	-0.0010617089
18	0x3a4cd63f	0.00078139076
19	0x3800bfca	3.0696196e-05
20	0xbb322017	-0.0027179772
21	0xba8cd5c4	-0.001074486
22	0xbb490d8b	-0.0030678238
23	0xbadec137	-0.0016994838
24	0xbc0d20c7	-0.008613772
25	0x3aa2024d	0.0012360305
26	0x3910e3f5	0.00013817831
27	0x39c66c07	0.0003784599
28	0xbb016164	-0.0019741887
29	0xbaa313d0	-0.0012441818
30	0x39ee2107	0.00045419505
31	0x3a348d73	0.00068875327
32	0xba579eab	-0.00082252425
33	0xba70db0f	-0.0009187916
34	0xba5a6104	-0.00083304965
35	0xb94f6320	-0.00019777985
36	0xbb8b5d29	-0.004253049
37	0x3a0b890b	0.000532285
38	0xbab58cdb	-0.0013851182
39	0xba5381c1	-0.0008068346
40	0xba463a2a	-0.00075617677
41	0x3b05d4f9	0.002042113
42	0xba8c87a0	-0.0010721572
43	0xba8c15a3	-0.0010687601
44	0xbae85d2b	-0.0017727962
45	0x3aa3076c	0.0012438125
46	0x3a013de9	0.0004930185
47	0xba8a8f76	-0.0010571319
48	0xba28d88d	-0.000644096
49	0xba296871	-0.00064624014
50	0x38568143	5.114196e-05
51	0xb87e1082	-6.0573693e-05
52	0xbafd4259	-0.0019322141
53	0x39f30f8d	0.00046360158
54	0x3ab01b9c	0.0013435963
55	0xb9f303a5	-0.00046351287
56	0xba72e34d	-0.0009265438
57	0x3920dbda	0.0001534069
58	0xbb7302b1	-0.0037080462
59	0xba80fa9d	-0.0009840314
60	0x39d242c6	0.0004010407
61	0x3a40e190	0.000735783
62	0x3982b0d4	0.0002492728
63	0x3a8b5916	0.0010631408
64	0x39ff2fae	0.00048672914
65	0xbb2f1b64	-0.0026719207
66	0xba413dec	-0.0007371593
67	0xb9362af3	-0.00017372872
68	0xbb045a54	-0.0020195441
69	0xba8b4e9a	-0.0010628283
70	0x3a26c3fb	0.0006361601
71	0xb6e5ee5c	-6.8524805e-06
72	0xbb5f64b2	-0.0034087119
73	0x39f3d1f6	0.00046505005
74	0x39b953e9	0.00035348468
75	0xba9ccc98	-0.0011962829
76	0xba29b960	-0.00064744614
77	0xb9fba7eb	-0.0004799956
78	0xbab4cea7	-0.0013794497
79	0xba5ff1e8	-0.0008542822
80	0x3a1d3871	0.0005997485
81	0x3928daf0	0.00016103289
82	0x3a77d0e2	0.0009453428
83	0xbba8b6c4	-0.0051487405
84	0xba0894ef	-0.0005210181
85	0xba97a57c	-0.0011569704
86	0xbadcf4b9	-0.0016857601
87	0xba887818	-0.0010411767
88	0xba9fdbbc	-0.0012196223
89	0xba9ab1bb	-0.0011802235
90	0x3abbd222	0.0014329592
91	0x3a868c9c	0.0010265294
92	0xb9fd1f8c	-0.00048279425
93	0x3b632c79	0.003466396
94	0xbb3f7f8d	-0.0029220313
95	0xba4e7b28	-0.0007876628
96	0xba3ac320	-0.0007124413
97	0xbb1fff16	-0.0024413518
98	0xba8081c8	-0.0009804303
99	0x39ba1162	0.00035489636
100	0xba6e4376	-0.0009089032
101	0xbb77ae0c	-0.003779295
102	0xba862b56	-0.0010236304
103	0xbacaee99	-0.0015482485
104	0x3a12e142	0.0005603024
105	0xba6460ad	-0.00087119156
106	0x3a432d51	0.00074454123
107	0x3abbd158	0.0014329357
108	0xbb4014ea	-0.002930934
109	0x39c1fcb5	0.0003700011
110	0xb9b5433f	-0.00034573112
111	0xbae2efb4	-0.0017313869
112	0x3a1fe22e	0.0006099072
113	0xbadc0729	-0.0016786802
114	0xba63574f	-0.0008672373
115	0xba659446	-0.0008757751
116	0x397306b8	0.00023176789
117	0x39b6245b	0.00034740832
118	0x39a0f355	0.00030698875
119	0x39ea0f77	0.0004464348
120	0x398c904c	0.0002681039
121	0xba90b546	-0.0011040352
122	0xb9ce9d58	-0.00039408612
123	0xbb048513	-0.002022092
124	0xba372f6b	-0.0006987962
125	0x39330134	0.00017071218
126	0x3a117084	0.0005548077
127	0xbac54897	-0.0015051541

critic.network_body.linear_encoder.seq_layers.2.weight f4 [128, 128]
0	0x3d127e22	0.03576482
1	0x3d9f51fb	0.077793084
2	0xbb3c4c3e	-0.0028731967
3	0x3d48bce1	0.049008254
4	0xbdb5ff47	-0.08886581
5	0x3cdd3344	0.027001984
6	0xbdda0135	-0.106447615
7	0x3d2d40c6	0.0422981
8	0xbdcc12c4	-0.09964517
9	0xbcc13755	-0.023585955
10	0xbdf8b8fe	-0.121446595
11	0x3cd9cb9e	0.02658635
12	0xbce28469	-0.027651029
13	0x3e0c1841	0.13681127
14	0x3c763523	0.015027317
15	0x3d1e3be4	0.038631335
16	0xbdac7b59	-0.08421964
17	0x3dbae888	0.09126383
18	0xbb8e86a8	-0.0043495484
19	0x3d543c75	0.05181547
20	0x3c7b1090	0.015323773
21	0x3d1a5ff1	0.037689153
22	0xbc8ea46d	-0.017412389
23	0x3e48d802	0.1961365
24	0xbcf19239	-0.02948867
25	0x3ceef9b6	0.029171806
26	0xbd53f972	-0.05175156
27	0xbc6f8a1a	-0.014620328
28	0xbd9bb132	-0.07602157
29	0x3b374a0d	0.0027967722
30	0x3d42f08c	0.047592685
31	0x3d16d8d8	0.036827892
32	0xbc4957db	-0.012289013
33	0xbd8fe48a	-0.07026012
34	0xbda30d15	-0.079614796
35	0x3d4d81bb	0.05017255
36	0x3dc48d98	0.09597319
37	0xbdb13903	-0.08653452
38	0x3e4be839	0.19912805
39	0x3d044998	0.032296747
40	0xbdfcfb24	-0.12352589
41	0xbd9a3e3a	-0.075314
42	0x3e0995b7	0.13436018
43	0x3da16685	0.07880882
44	0xbc0363fd	-0.0080194445
45	0xbd0bfa0e	-0.034174018
46	0x3c48422d	0.012222809
47	0x3c93316e	0.017967906
48	0x3d38cfcb	0.04512004
49	0x3df8829e	0.12134288
50	0xbda31547	-0.07963043
51	0xbb9f2cee	-0.004857651
52	0x3d1e538e	0.038653903
53	0xbd5f6a6f	-0.054544862
54	0x3c1d1ab7	0.009588889
55	0xbcbce634	-0.023058988
56	0x3ac21606	0.0014807589
57	0x3dd0cf81	0.10195828
58	0x3c62c949	0.013841935
59	0x3a05a7fb	0.00050985784
60	0xbd5bfac1	-0.053705934
61	0x3d55c016	0.05218514
62	0xbcdebb1c	-0.02718883
63	0x3de34fba	0.11099191
64	0x3d9fad4c	0.07796726
65	0x3d71f818	0.05907449
66	0xbcfe6c0d	-0.031057382
67	0x3e2210ab	0.15826671
68	0x3e084a33	0.13309555
69	0xbd15ee70	-0.036604345
70	0x3dd64b0c	0.10463533
71	0x3b78a3c5	0.003793941
72	0x3e04858f	0.12941574
73	0x3b8cb1dd	0.004293664
74	0xbd46b055	-0.048508007
75	0x3c1ea569	0.009682992
76	0x3e1504cb	0.1455261
77	0xbd9405be	-0.07227658
78	0x3d9f6f5f	0.07784914
79	0xbdc65089	-0.096833296
80	0x3d8d5722	0.06901385
81	0x3cc3dc84	0.023908861
82	0x3d4c1264	0.049822226
83	0x3c1561e8	0.009117581
84	0x3e0b51fb	0.13605492
85	0xbcfac6af	-0.030612318
86	0x3cf55572	0.02994797
87	0x3d6ff85b	0.05858646
88	0x3d2630e8	0.040573984
89	0x3d9f05fd	0.07764814
90	0xbc3c97d1	-0.011510805
91	0x3d6f68de	0.05844962
92	0xbdaa44ea	-0.083139256
93	0x3d2fd84e	0.042930894
94	0xbe04d8ee	-0.12973377
95	0xbdddb19f	-0.10824894
96	0x3e2bc68d	0.1677496
97	0x3a9ea3d6	0.001210327
98	0x3d070442	0.032963045
99	0xbd35afdc	-0.044357166
100	0xbe387c1e	-0.18016097
101	0x3c5e29fe	0.013559816
102	0xbd264d94	-0.040601328
103	0xbdfd41d1	-0.12366069
104	0x3daa0639	0.08301968
105	0x3d63ba6f	0.05559772
106	0x3cd1e6be	0.025622722
107	0x3d8ef9ab	0.06981214
108	0xbe686ac4	-0.22696978
109	0xbdcc4e42	-0.09975864
110	0xbd7776b7	-0.06041595
111	0xbddbc341	-0.10730601
112	0x3e108b3d	0.14115615
113	0xbd0cb94b	-0.034356397
114	0xbd4c2a93	-0.04984529
115	0xbe3e5f86	-0.18591127
116	0xbd91abb2	-0.071128264
117	0xbe178dd2	-0.14800194
118	0xbbcdc921	-0.00628008
119	0x3e029764	0.12753063
120	0x3da4932c	0.08035883
121	0xbc25bf80	-0.010116458
122	0xbde6fa8d	-0.112782575
123	0xbd144214	-0.03619583
124	0x3e012a9d	0.12613912
125	0xbd311e09	-0.043241534
126	0x3e16c836	0.14724812
127	0xbda6ea56	-0.08150165
128	0x3c65c249	0.014023372
129	0x3e451b9f	0.19248818
130	0x3dbea476	0.09308712
131	0xbe60bb96	-0.21946558
132	0xbd9021a3	-0.07037666
133	0xbe3fd1aa	-0.18732324
134	0x3af8cd59	0.0018982097
135	0x3e332204	0.17493445
136	0x3bcaa848	0.0061846115
137	0x3d327d6e	0.04357665
138	0xbdddd095	-0.108307995
139	0xbb819c5c	-0.003955407
140	0x3cd55423	0.026041096
141	0xbcd800fa	-0.026367653
142	0x3d7625f7	0.0600948
143	0xbb6aa6cd	-0.0035804987
144	0x3e25c2e8	0.16187632
145	0x3d1dfbc6	0.038570188
146	0xbdc2e727	-0.09516745
147	0xbda3aaed	-0.07991586
148	0x3dfca9ae	0.12337051
149	0xbd87cd57	-0.06630962
150	0x3da952be	0.08267735
151	0x3e265ca6	0.1624628
152	0x3d99b50e	0.075052366
153	0x3d428677	0.047491517
154	0xbd2b3285	-0.041796226
155	0xbbc78f71	-0.0060900976
156	0x3d1a3263	0.03764571
157	0xbced6305	-0.02897788
158	0xbd0b3cdb	-0.033993583
159	0x3e26759a	0.16255799
160	0x3dbb28aa	0.091386154
161	0x3e1bb0d7	0.15204178
162	0x3de506e3	0.11182954
163	0x3d11ec83	0.035625946
164	0x3c7a5156	0.015278181
165	0x3e36041a	0.17775002
166	0xbd49d449	-0.049274717
167	0xbd600155	-0.05468877
168	0xbbfa5052	-0.0076389695
169	0x3d080525	0.03320803
170	0xbd8cecf9	-0.068811364
171	0xbd9f6bb4	-0.077842146
172	0x3ddeb467	0.10874253
173	0xbcab059f	-0.020876704
174	0x3d051cad	0.03249805
175	0xbd5e86dc	-0.05432783
176	0x3d6a3321	0.057177667
177	0x3b8494ec	0.004046073
178	0xbc006440	-0.007836401
179	0xbde013ff	-0.10941314
180	0xbca0ce98	-0.019629762
181	0xbcd46df0	-0.025931329
182	0x3d718120	0.058961034
183	0x3d64cb2a	0.055857815
184	0xbbaf5dc5	-0.0053517544
185	0xbc82906f	-0.015938012
186	0x39f95ac2	0.000475606
187	0x3e19ee99	0.15032424
188	0xbcad044a	-0.02112021
189	0x3d80584b	0.062668405
190	0x3e017f18	0.12646139
191	0x3db62995	0.0889465
192	0x3de69a2a	0.11259873
193	0xbdbf1f8f	-0.09332191
194	0x3d03d644	0.03218676
195	0xbd6f6e63	-0.058454882
196	0xbc96cb91	-0.018407615
197	0xbe5feab3	-0.21866874
198	0xbd9f1b2c	-0.077688545
199	0xbd3ea128	-0.04654041
200	0x3db5c2fc	0.08875081
201	0x3e10a7dd	0.14126535
202	0xbe0e8bd9	-0.13920535
203	0x3cd15c90	0.025556833
204	0x3d5245a3	0.051335942
205	0x3dbf0b1a	0.09328289
206	0x3d50d5e3	0.05098523
207	0xbd265449	-0.040607724
208	0x3d7bec01	0.061504368
209	0xbda6f879	-0.08152861
210	0x3e6c78f6	0.23093018
211	0xbdc6f9f7	-0.09715646
212	0x3d581285	0.052752037
213	0xbd403899	-0.046928976
214	0xbdd1477a	-0.10218711
215	0x3e1b0354	0.15137988
216	0x3ded2b50	0.11580527
217	0x3dba0ffa	0.090850785
218	0xbcce5a93	-0.025189674
219	0xbc2d13b3	-0.010563779
220	0x3dad1ae5	0.08452395
221	0x3c017269	0.007900813
222	0x3cb1b9a0	0.021694958
223	0xbcfa90bd	-0.030586595
224	0xbd2da9d8	-0.042398304
225	0x3e229b9c	0.15879673
226	0xbd0160b9	-0.031586383
227	0xbd0d6735	-0.034522254
228	0x3d3246b2	0.04352445
229	0xbc879727	-0.016551567
230	0xbdf2c846	-0.118546054
231	0xbcab6430	-0.020921797
232	0x3d195c1f	0.03744137
233	0xbd8c4cdd	-0.06850598
234	0xbd461bb8	-0.04836628
235	0xbbfce8a7	-0.007718164
236	0x3c527a34	0.012846518
237	0xbd0c4a8f	-0.034250792
238	0x3e06bf4c	0.13158911
239	0xbd5f1c00	-0.054470062
240	0x3b9736ed	0.004614702
241	0x3c8ac1a5	0.01693804
242	0xbdb1c7f0	-0.08680713
243	0x3d3e6e4b	0.046491902
244	0x3b53d568	0.0032323245
245	0x3ddad0c9	0.10684354
246	0x3d89441f	0.06702446
247	0x3d1e5ddd	0.038663734
248	0x3c28a97f	0.010294317
249	0xbd42db35	-0.047572333
250	0x3c7f00f7	0.015564195
251	0xbd261617	-0.04054841
252	0x3d146595	0.03622969
253	0x3e0a8366	0.13526687
254	0xbdd74090	-0.10510361
255	0x3da1c33b	0.078985654
