results/kickBall/HitTheBall/HitTheBall-49211.onnx (onnx, 74062 bytes, 8 tensors)

action_model._continuous_distribution.log_sigma f4 [1, 2]
-0.01748479 -0.0004917373
00000000: 433c 8fbc eee7 00ba

action_model._continuous_distribution.mu.bias f4 [2]
0.0013820205 -0.0005264389
00000000: ea24 b53a b700 0aba

action_model._continuous_distribution.mu.weight f4 [2, 128]
0.0017868212 -0.0007018773 -0.022454275 -0.0074823624 0.013438294 -0.01833785 -0.038511865 -0.014409101
0.008860542 0.0048330757 0.01781584 -0.00031834934 -0.0310693 0.0161009 -0.023041556 -0.027362015
-0.005182189 0.03168178 -0.018614007 -0.04129824 0.019865422 -0.010760731 -0.017824126 0.0036267834
-0.036360487 0.0087416805 -0.038920186 -0.025601303 -0.005342495 0.034736775 -0.013860344 0.02470306
0.017819954 -0.021885144 0.013921673 0.017301936 -0.015633378 -0.035576273 -0.049053367 -0.012389377
0.012472947 -0.007022951 -0.01145179 -0.022464812 -0.022704504 -0.0006473616 0.008676373 -0.029990235
-0.004017692 0.0032843384 0.003506324 0.02660754 -0.0074412124 0.003433032 -0.011916828 -0.005628334
0.016830923 -0.0140338745 -0.005694255 0.009120722 -0.033302035 -0.037815142 -0.019392867 0.01536586
0.043858666 0.012753103 0.041175116 0.0016627016 -0.006054584 -0.009492223 -0.008473585 0.015506602
0.015577393 -0.047148287 -0.021926198 0.010261427 0.0062179076 0.016572082 0.012183327 0.020329172
-0.014040571 -0.0105912 0.0025013506 0.0069454117 -0.03911482 0.0026599278 0.0077787032 -0.020383473
-0.013436422 0.031036185 0.0002647257 -0.032279443 0.038197994 -0.020204762 0.0064080986 -0.011555332
-0.0061806114 -0.003494651 0.0028607165 0.008489597 -0.011821297 -0.009260224 -0.01219117 0.011335316
-0.02904429 -0.0033115966 -0.010672477 0.030410934 -0.002247564 -0.0029521268 -0.015902275 0.0011638082
0.051166758 0.0050373334 -0.008755697 -0.04571328 -0.03441668 0.026967434 0.0005231614 -0.012406352
-0.0065514054 0.008504555 -0.028775543 0.011992353 -0.035726514 -0.028937904 -0.0342281 0.028631147
0.04016611 -0.008194331 0.0052117165 -0.023646059 -0.013469146 -0.016398087 0.003303208 0.022695279
0.032973707 0.0261351 0.02968207 0.0065888073 -0.0012283574 -0.014082085 0.018157978 0.020559886
0.0039595286 -0.0053744675 -0.0021425898 0.0018448825 -0.009408338 -0.0067453007 0.03158145 -0.0575732
-0.015247503 -0.009861811 -0.016298357 0.006300961 -0.018827438 0.009035478 -0.009028969 0.0122262025
0.0057058656 -0.028127857 -0.026711723 0.005679544 0.00093039917 0.011998324 -0.013161582 0.004768501
0.024516458 -0.019356223 0.014135808 0.009948817 0.031668283 0.047912028 -0.021230202 0.001883774
0.014624327 -0.0056395144 -0.00067267753 -0.021806674 0.003643269 0.026721478 0.0045305043 0.021757368
-0.012533798 -0.007697866 -0.016532464 -0.015775038 0.010679273 -0.019863483 -0.007885895 0.0070123556
-0.026758848 -0.023015324 0.027039986 -0.018997263 0.012942479 0.0111616915 -0.012068091 0.0056812475
0.007565373 0.012172079 0.009638451 -0.0023132511 -0.039302036 -0.032439966 -0.029092886 0.008376084
0.006311342 0.0136211 0.008855322 0.010741628 0.006188041 0.021929685 -0.0011341737 -0.011805174
0.0205885 -0.000861136 0.012306214 -0.0081037 0.031936146 0.010179016 -0.019509098 0.0052821795
-0.009237213 0.003908459 -0.019158842 -0.035762116 -0.011455504 0.010891429 -0.037440207 -0.0007767051
-0.00473169 0.01077995 0.002512983 -0.008792582 0.011724971 0.00097311294 -0.013620138 -0.03584933
-0.0070476546 0.034193333 0.01388738 0.010529789 -0.008929639 0.02193551 0.015157504 -0.024351735
-0.0006947736 0.012852699 -0.027491406 -0.0043233167 -0.010362276 0.007524238 0.01688983 0.013393696
00000000: c533 ea3a 30fe 37ba 07f2 b7bc 9b2e f5bb
00000010: 4a2c 5c3c 4239 96bc 9ebe 1dbd 2614 6cbc
00000020: cf2b 113c c75e 9e3b 86f2 913c 20e8 a6b9
00000030: 0b85 febc 09e6 833c a5c1 bcbc 4e26 e0bc
00000040: 5acf a9bb c1c4 013d 677c 98bc 5828 29bd
00000050: cfbc a23c c74d 30bc e703 92bc 54af 6d3b
00000060: bcee 14bd 4439 0f3c c66a 1fbd d3b9 d1bc
00000070: 1910 afbb 2648 0e3d 7f16 63bc 125e ca3c
00000080: 27fb 913c 7948 b3bc bb17 643c cabc 8d3c
00000090: 9211 80bc 6db8 11bd 2fec 48bd d0fc 4abc
000000a0: 555b 4c3c c820 e6bb 4aa0 3bbc 2008 b8bc
000000b0: ccfe b9bc b4b3 29ba 5927 0e3c 15ae f5bc
000000c0: d8a6 83bb 0e3e 573b 5bca 653b 0ef8 d93c
000000d0: 6ad5 f3bb b8fc 603b cd3e 43bc e36d b8bb
000000e0: 01e1 893c 56ee 65bc e096 babb 156f 153c
000000f0: b767 08bd 0de4 1abd cadd 9ebc 17c1 7b3c
00000100: 25a5 333d 64f2 503c 3da7 283d 02ef d93a
00000110: 8865 c6bb 4585 1bbc cbd4 0abc 670f 7e3c
00000120: 5238 7f3c 901e 41bd 929e b3bc 8b1f 283c
00000130: 97bf cb3b 2dc2 873c 949c 473c 5d89 a63c
00000140: 6c0a 66bc b686 2dbc b3ed 233b 5696 e33b
00000150: dd36 20bd 2f52 2e3b 7ee4 fe3b 3efb a6bc
00000160: 7024 5cbc 993f fe3c e2ca 8a39 7337 04bd
00000170: 8075 1c3d 7584 a5bc 07fb d13b 9352 3dbc
00000180: ba86 cabb 8406 65bb dc7a 3b3b f317 0b3c
00000190: 1dae 41bc 32b8 17bc 79bd 47bc c3b7 393c
000001a0: 4aee edbc 5f07 59bb 9ddb 2ebc 5a20 f93c
000001b0: de4b 13bb 7878 41bb 7d45 82bc ec8a 983a
000001c0: 3c94 513d 3710 a53b 0e74 0fbc d93d 3bbd
000001d0: 81f8 0cbd cfea dc3c c424 093a 0344 4bbc
000001e0: 2cad d6bb b056 0b3c b0ba ebbc 937b 443c
000001f0: f755 12bd 2f0f edbc c432 0cbd de8b ea3c
00000200: 3885 243d 8441 06bc 0cc7 aa3b 61b5 c1bc
00000210: b1ad 5cbc 4855 86bc a27a 583b 73eb b93c
00000220: 700f 073d 4719 d63c d027 f33c ece6 d73b
00000230: d600 a1ba 8cb8 66bc 0ac0 943c 356d a83c
00000240: efbe 813b 4d1c b0bb b16a 0cbb fccf f13a
00000250: 6e25 1abc af07 ddbb 8d5b 013d e0d1 6bbd
00000260: aad0 79bc 6f93 21bc 2284 85bc 4b78 ce3b
00000270: 003c 9abc 8b09 143c 3eee 13bc 6950 483c
00000280: 45f8 ba3b 646c e6bc 8bd2 dabc 781b ba3b
00000290: 08e6 733a 9e94 443c ada3 57bc 1641 9c3b
000002a0: bdd6 c83c f190 9ebc e099 673c 5d00 233c
000002b0: 9ab6 013d 673f 443d f6ea adbc f7e8 f63a
000002c0: e09a 6f3c adcb b8bb a056 30ba e9a3 b2bc
000002d0: e9c3 6e3b 00e7 da3c a074 943b 823c b23c
000002e0: 8f5a 4dbc 613e fcbb 176f 87bc a73a 81bc
000002f0: 1ef8 2e3c beb8 a2bc d733 01bc e7c7 e53b
00000300: 5f35 dbbc a28a bcbc f682 dd3c 26a0 9bbc
00000310: b10c 543c 87df 363c 3eb9 45bc c229 ba3b
00000320: f3e6 f73b 666d 473c 98ea 1d3c ea99 17bb
00000330: 2cfb 20bd c5df 04bd 3454 eebc d83b 093c
00000340: 60cf ce3b 092b 5f3c ea15 113c a7fd 2f3c
00000350: 0dc5 ca3b e2a5 b33c 8ea8 94ba 7d6a 41bc
00000360: 37a9 a83c dcbd 61ba 01a0 493c 62c5 04bc
00000370: 7acf 023d e3c5 263c 8bd1 9fbc 2216 ad3b
00000380: ae57 17bc 8812 803b 01f3 9cbc 4c7b 12bd
00000390: deaf 3bbc f771 323c e75a 19bd cc9b 4bba
000003a0: 4b0c 9bbb 639e 303c dcb0 243b c30e 10bc
000003b0: 181a 403c 8118 7f3a 0027 5fbc bfd6 12bd
000003c0: 03f0 e6bb 4f0e 0c3d e587 633c 2385 2c3c
000003d0: 9f4d 12bc 19b2 b33c 2e57 783c 4a7d c7bc
000003e0: 7821 36ba 2094 523c a835 e1bc 9caa 8dbb
000003f0: 89c6 29bc e28d f63b 8a5c 8a3c 3c71 5b3c

action_model._discrete_distribution.branches.0.weight f4 [1, 128]
0.010001144 0.0017010634 -0.0023530303 -0.001946478 0.0018173753 -0.015189918 -0.0049839653 -0.004926979
-0.008041111 -0.020597622 -0.0035104328 0.009457937 0.0032233715 0.0012954534 -0.0045466996 0.020556983
-0.007495028 0.0021323066 -0.008726994 -0.005404588 6.4821616e-05 0.0018502122 0.006586411 -0.008668722
0.00018826952 0.0068984753 -0.0055286256 0.0030922603 0.00049222016 -0.0027651389 -0.00916596 0.009789392
0.0040501244 0.010300292 0.008534554 0.00040614736 0.0028985315 0.011531301 0.0028313517 -0.0076761
0.0035665163 0.003911914 -0.009347215 -0.0066271587 -0.00092879415 0.014147008 0.007883098 -0.002851524
-0.021208499 -0.0023147645 -0.007391952 0.029707924 0.0041662036 0.0052374424 -0.0010242945 0.0012279431
0.008358571 0.010021322 -0.0018959917 0.0021727975 -9.549599e-05 0.011862709 -0.02086557 -0.0022623665
-0.0085478285 -8.406003e-05 0.01613253 0.0058378703 -0.008754573 -0.0008294564 5.9730322e-05 -0.0060457992
0.0032389506 0.009891092 0.006695652 0.00964429 0.013567119 0.009987902 -0.008160333 -0.0041036364
0.0063773594 0.01184743 -0.0017449342 -0.008794618 -0.006378577 0.005251828 0.00845286 0.009621612
-0.005804681 -0.00807676 -0.006772052 -0.019774472 0.004942053 0.010036657 0.018988132 0.00045580542
-0.002946509 0.00264376 0.005317107 -0.004114689 0.0009442507 0.00040808643 0.0012012935 0.023036426
-0.0011026723 8.8587294e-05 -0.0054123392 0.0002932797 -0.010900828 -0.018846447 -0.00012313528 0.022692656
0.009041685 0.017600782 0.0046063033 -0.0011441747 0.0105449045 0.0067391093 -0.0072151716 0.007955513
-0.00086587894 0.0122448085 0.0018384376 -0.006424449 -0.006070881 0.016506795 0.008362126 -0.010670791
00000000: d7db 233c 37f6 de3a 4c35 1abb f720 ffba
00000010: ff34 ee3a 22df 78bc 8850 a3bb 7f72 a1bb
00000020: ddbe 03bc 58bc a8bc 4a0f 66bb 77f5 1a3c
00000030: 333f 533b 34cc a93a 7bfc 94bb 1e67 a83c
00000040: da98 f5bb 2bbe 0b3b aafb 0ebc f818 b1bb
00000050: d7f0 8738 d282 f23a d2d2 d73b 4107 0ebc
00000060: 376a 4539 9b0c e23b 7929 b5bb 85a7 4a3b
00000070: 5608 013a 5537 35bb d32c 16bc b063 203c
00000080: e8b6 843b 8ec2 283c 84d4 0b3c 2df0 d439
00000090: 4af5 3d3b c8ed 3c3c 338e 393b cb87 fbbb
000000a0: 37bc 693b 832f 803b 1025 19bc a328 d9bb
000000b0: 527a 73ba dac8 673c 1c28 013c a2e0 3abb
000000c0: 72bd adbc 4eb3 17bb 3038 f2bb 085e f33c
000000d0: a684 883b da9e ab3b 9f41 86ba eff2 a03a
000000e0: 63f2 083c 7930 243c ed82 f8ba 7e65 0e3b
000000f0: 0545 c8b8 cf5b 423c 46ee aabc 3644 14bb
00000100: 310c 0cbc 6349 b0b8 5e28 843c 9b4b bf3b
00000110: 576f 0fbc e06f 59ba f286 7a38 d71b c6bb
00000120: 9344 543b 3f0e 223c 3367 db3b 1603 1e3c
00000130: 9f48 5e3c 4ca4 233c ebb2 05bc cc77 86bb
00000140: 2bf9 d03b b91b 423c 47b6 e4ba 4d17 10bc
00000150: 6203 d1bb 8717 ac3b dd7d 0a3c f7a3 1d3c
00000160: 3235 bebb 6354 04bc 17e8 ddbb 13fe a1bc
00000170: f2f0 a13b ca70 243c 008d 9b3c 2bf9 ee39
00000180: 381a 41bb ef42 2d3b 203b ae3b 83d4 86bb
00000190: 9887 773a 6ff4 d539 b974 9d3a e3b6 bc3c
000001a0: 8b87 90ba f1c7 b938 fe59 b1bb 56c3 9939
000001b0: 6399 32bc dd63 9abc e01d 01b9 f3e5 b93c
000001c0: 9323 143c 842f 903c 79f0 963b 22f8 95ba
000001d0: 89c4 2c3c bfd3 dc3b 3f6d ecbb d757 023c
000001e0: 27fc 62ba 739e 483c bbf7 f03a 2f84 d2bb
000001f0: 3eee c6bb 4239 873c 4c01 093c 8bd4 2ebc

network_body.linear_encoder.seq_layers.0.bias f4 [128]
0.010663246 -0.0017206965 0.001996696 0.00808146 -0.0050827703 -0.004648747 0.0001790038 -0.0021703239
-5.05969e-05 0.0011363248 -0.0013669425 -0.0002971112 0.001610534 5.077166e-05 0.003171169 -0.00076483324
-0.0042615794 0.009730996 0.00010881152 0.0071393955 0.0018029799 0.0023587982 -0.0023243877 0.0015528892
0.0012070078 -0.002289637 -0.0054620975 -6.4477324e-05 0.0007072694 -0.00088305277 0.008547796 -0.0019823133
0.0017285906 -0.0052705207 -0.0014335304 0.0006976719 -0.0046350015 -0.0033285068 -0.0051671057 -0.0018142029
-0.0036680275 0.0028122943 0.000669518 -0.00422735 0.0021160906 -0.0028977322 0.0008082403 -0.0021072358
0.0033337942 0.0004381585 0.00044155575 -0.0030597511 -0.01157275 0.001067109 0.003301511 0.0029156322
0.002244441 0.0028669336 -0.0045660804 0.0002032397 -0.0014175344 -0.0030394269 -0.0012532434 0.00024275437
0.006055502 -0.002220295 0.0016225172 0.005139663 -0.005852471 0.00035941167 0.004397293 0.0023923048
-0.00012452104 -0.0005908732 0.0012598172 0.0025630004 0.005598942 -0.0010622647 -0.0033744003 0.008634995
-0.0032066323 0.0016377708 -0.00055404415 -0.0045100627 -0.0023212251 -0.0019853266 -0.003882955 -0.0009238219
-0.0049386555 0.014130331 -0.00022519578 0.0050979485 -0.0004196864 -0.000959497 -0.00025592677 0.0014863726
-0.008978859 0.00033848808 0.0009790031 -0.0041142814 -0.002775168 -0.0017496779 -0.006426455 -0.0064638956
-0.00059779664 0.0035100628 0.0019603507 -0.00019689601 -0.005242209 0.0004859586 0.00035903693 0.0051044943
0.016454687 -0.00255133 -0.001396125 0.002272226 0.0024700065 -0.0016025323 0.0026025753 0.00018467674
-0.000987491 -0.0039825123 0.00030652306 0.0042615742 -0.0077715516 0.0017030077 0.0061042304 0.0007782542
00000000: e5b4 2e3c fe88 e1ba 00db 023b 1a68 043c
00000010: 5e8d a6bb 8454 98bb f7b2 3b39 fe3b 0ebb
00000020: 0238 54b8 bcf0 943a fb2a b3ba 97c5 9bb9
00000030: 8e18 d33a a8f3 5438 63d3 4f3b 177f 48ba
00000040: b8a4 8bbb c16e 1f3c bd31 e438 97f1 e93b
00000050: f751 ec3a 1196 1a3b c154 18bb 518a cb3a
00000060: 7634 9e3a bc0d 16bb 65fb b2bb 0038 87b8
00000070: 0c68 393a ab7c 67ba 0e0c 0c3c b3e9 01bb
00000080: e091 e23a 55b4 acbb 4ce5 bbba f8e3 363a
00000090: 36e1 97bb 1423 5abb d350 a9bb 8cca edba
000000a0: 4a63 70bb 784e 383b 9882 2f3a 9585 8abb
000000b0: 1cae 0a3b e1e7 3dbb 17e0 533a 8d19 0abb
000000c0: c97b 5a3b a3b8 e539 9c80 e739 1b86 48bb
000000d0: a29b 3dbc 3dde 8b3a 2a5e 583b 3114 3f3b
000000e0: 7917 133b 2ae3 3b3b 0f9f 95bb be1c 5539
000000f0: 90cc b9ba 1f31 47bb df43 a4ba e18b 7e39
00000100: 3c6d c63b 5e82 11bb a5aa d43a 9e6a a83b
00000110: 16c6 bfbb 6b6f bc39 2b17 903b 37c8 1c3b
00000120: dd91 02b9 d4e4 1aba 7320 a53a 03f8 273b
00000130: 5477 b73b b03b 8bba 0b25 5dbb cb79 0d3c
00000140: 5d26 52bb 78aa d63a 463d 11ba 26c9 93bb
00000150: b21f 18bb 411c 02bb 2d79 7ebb a32c 72ba
00000160: 72d4 a1bb e782 673c 8822 6cb9 b10c a73b
00000170: 5b09 dcb9 c186 7bba e92d 86b9 63d2 c23a
00000180: 101c 13bc 1a77 b139 e551 803a 18d1 86bb
00000190: 98df 35bb 7355 e5ba 0395 d2bb 16cf d3bb
000001a0: 74b5 1cba 1509 663b 3a79 003b df75 4eb9
000001b0: d6c6 abbb 42c8 fe39 1f3d bc39 9a43 a73b
000001c0: fbcb 863c 3734 27bb 2efe b6ba a0e9 143b
000001d0: d5df 213b 100c d2ba f88f 2a3b c9a5 4139
000001e0: b36e 81ba bc7f 82bb d4b4 a039 ada4 8b3b
000001f0: 80a8 febb 7537 df3a ff05 c83b c103 4c3a

network_body.linear_encoder.seq_layers.0.weight f4 [128, 6]
-0.44719946 -0.19540808 0.09920769 -0.39431542 0.46164617 -0.14505716 0.62200356 -0.18832521
-0.36498678 0.1382224 -0.99058443 0.14404821 -0.068843246 -0.13992657 -0.15436107 -0.04954578
-0.14772329 -0.49816954 -0.5412605 0.016552009 0.53387666 -0.33938542 -0.15043119 0.23414153
0.18114407 -0.232202 0.1576879 -0.32157287 0.22747505 -0.5253198 0.11824196 -0.18276179
-0.28395563 0.08347195 -0.08040543 -0.34389207 0.29439217 0.9034058 -0.25801918 -0.6037183
-0.01250121 -0.026039368 -0.11988707 0.058518257 0.5798757 0.39011022 0.835029 0.6130997
-0.4149698 0.5873642 -0.09162755 0.59468824 -0.3493951 0.31405526 -0.37667617 0.10332081
0.3591333 0.47990453 0.03906477 -0.13800672 0.64860404 0.09586426 0.1882151 -0.12399629
-0.0863568 -0.6983882 0.20427713 -0.09809114 0.12653905 0.27654126 -0.15333621 0.1611516
0.6740573 0.21435219 0.65440905 -0.32624274 -0.5573661 0.027331349 0.17702489 -0.5363478
0.057214495 0.48093027 -0.06313286 0.09247954 -0.304182 0.075238146 -0.18262778 -0.7242366
0.9247806 0.17559007 -0.021157533 -0.6737094 0.24680746 0.10487325 -0.45743287 0.28013563
-0.30010986 -0.03748935 -0.09315713 0.114322945 -0.52788293 0.06816459 -0.59533525 -0.39174598
0.14682466 0.61266154 -0.12101073 0.04192694 0.1569787 0.24208699 -0.04258087 0.39972073
-0.33113956 -0.41676754 0.5952489 -0.49087632 0.08761869 0.74530536 0.44270104 -0.77021176
-0.018151913 0.3317788 0.020942647 -0.5881293 -0.094839476 0.38643503 -0.038236123 0.07243135
-0.21931294 0.22149554 0.5165868 -0.1247389 -0.3116169 -0.37435097 0.17511877 0.27447745
-0.0037148856 -0.17809941 0.07072333 -0.50962263 0.41136992 0.08071134 -0.2600658 -0.20071657
0.11502643 -0.26388806 0.25266612 -0.3403042 0.011741298 0.06436406 -0.30840367 -0.023417784
0.09205839 0.0028470194 0.29866123 0.06556277 -0.38991904 0.3203309 -0.59792393 -0.18691708
-0.19102168 -0.027705228 -0.25172365 -0.9332684 0.31721723 0.03861553 0.3678311 -0.033235535
-0.8381423 0.5802596 -0.56801015 0.081632726 0.47363833 0.054605447 -0.20986737 -0.16372386
1.2339017 -0.061116643 -0.5091273 -0.90472746 -0.25281608 -0.12726471 -0.7161901 -0.26374125
0.45980546 -0.08074027 -0.8404761 -0.116654895 0.4404808 -0.16718274 -0.08397098 -0.20003796
0.0737763 0.59197855 -0.1565602 0.4558199 0.35032558 0.051843867 -0.4266499 -0.28581154
-0.26717752 0.50246066 -0.19892295 0.02600905 -0.48536137 -0.36603326 -0.48348853 -0.22745103
-0.7152489 0.54122776 -0.49607915 0.00030056312 0.027103178 0.61949253 0.13523176 -0.020859852
1.0410051 -0.21093653 0.20162329 -0.55383146 -0.1266969 -0.4749213 0.3740884 0.5353511
-0.20567256 -1.0115098 -0.11385168 -0.04116973 -0.36350957 -0.24974751 0.057621352 -0.29342908
0.46633476 -0.07226197 0.11581486 0.5344728 -0.5097576 -0.7296527 -0.2952337 0.35506675
0.09812056 0.48288977 -0.2144518 0.025063684 0.8114047 -0.7095165 -0.21039215 0.37399057
0.110122554 0.69819283 -0.12772296 -0.6760328 0.2970154 -0.84524655 0.34601697 0.12460036
00000000: 54f7 e4be 0e19 48be 672d cb3d b6e3 c9be
00000010: e35c ec3e dd89 14be a03b 1f3f 53d8 40be
00000020: 8cdf babe 2c8a 0d3e f196 7dbf 6081 133e
00000030: b0fd 8cbd e948 0fbe d410 1ebe 84f0 4abd
00000040: c644 17be 1410 ffbe 0c90 0abf 1498 873c
00000050: 24ac 083f edc3 adbe a20a 1abe ccc2 6f3e
00000060: d57d 393e 5cc6 6dbe f078 213e 33a5 a4be
00000070: 38ef 683e 5c7b 06bf d728 f23d e825 3bbe
00000080: a262 91be 57f3 aa3d 9aab a4bd 9f12 b0be
00000090: 92ba 963e 9a45 673f 171b 84be 488d 1abf
000000a0: e0d1 4cbc 8350 d5bc 5a87 f5bd d7b0 6f3d
000000b0: bc72 143f 87bc c73e 76c4 553f 1af4 1c3f
000000c0: ec76 d4be 805d 163f 3aa7 bbbd 7d3d 183f
000000d0: eae3 b2be dacb a03e b3db c0be dc99 d33d
000000e0: 52e0 b73e 0cb6 f53e 6102 203d a251 0dbe
000000f0: ea0a 263f 7b54 c43d 76bb 403e c4f1 fdbd
00000100: d5db b0bd 92c9 32bf 062e 513e 02e4 c8bd
00000110: 7493 013e d196 8d3e 2b04 1dbe ed04 253e
00000120: 058f 2c3f 247f 5b3e 5a87 273f 4a09 a7be
00000130: 8baf 0ebf fee5 df3c 0346 353e 174e 09bf
00000140: bf59 6a3d 7e3c f63e cd4b 81bd ea65 bd3d
00000150: bebd 9bbe 7516 9a3d c702 3bbe 9267 39bf
00000160: 6cbe 6c3f e2cd 333e 9052 adbc 3878 2cbf
00000170: 18bb 7c3e c9c7 d63d a434 eabe f06d 8f3e
00000180: 00a8 99be 6f8e 19bd 2ac9 bebd 2622 ea3d
00000190: 5623 07bf e099 8b3d e467 18bf ee92 c8be
000001a0: 3459 163e 63d7 1c3f 79d4 f7bd 95bb 2b3d
000001b0: 06bf 203e a7e5 773e 4769 2ebd 32a8 cc3e
000001c0: 208b a9be 8e62 d5be 3b62 183f 2454 fbbe
000001d0: 6e71 b33d 55cc 3e3f b6a9 e23e 992c 45bf
000001e0: 52b3 94bc e9de a93e ea8f ab3c a48f 16bf
000001f0: 333b c2bd d0da c53e 7b9d 1cbd e356 943d
00000200: 9293 60be bacf 623e 083f 043f 1c77 ffbd
00000210: 408c 9fbe eeaa bfbe 5652 333e 4f88 8c3e
00000220: 7075 73bb b15f 36be 65d7 903d a176 02bf
00000230: 149f d23e fd4b a53d 5827 85be a588 4dbe
00000240: fa92 eb3d 561c 87be 745d 813e 5a3c aebe
00000250: 935e 403c 4ed1 833d 16e7 9dbe a7d6 bfbc
00000260: 1c89 bc3d 0f95 3a3b 20ea 983e c645 863d
00000270: 78a3 c7be 6902 a43e 8b11 19bf 3167 3fbe
00000280: 309b 43be 13f6 e2bc ece1 80be aeea 6ebf
00000290: 4c6a a23e 512b 1e3d 5c54 bc3e fc21 08bd
000002a0: 7e90 56bf e58b 143f 1d69 11bf 0f2f a73d
000002b0: b980 f23e f6a9 5f3d 79e7 56be 3aa7 27be
000002c0: 7ef0 9d3f 7255 7abd 2b56 02bf 389c 67bf
000002d0: 1c71 81be ae51 02be 3c58 37bf 1809 87be
000002e0: 9f6b eb3e 285b a5bd 7129 57bf c3e8 eebd
000002f0: b386 e13e f431 2bbe faf8 abbd c0d6 4cbe
00000300: 0718 973d e88b 173f 5151 20be 3a61 e93e
00000310: e05d b33e 3c5a 543d db71 dabe e455 92be
00000320: 7ecb 88be 43a1 003f 75b2 4bbe ee10 d53c
00000330: 4981 f8be b668 bbbe cf8b f7be ece8 68be
00000340: 8d1a 37bf e78d 0a3f 16fe fdbe e694 9d39
00000350: 7c07 de3c 1097 1e3f 327a 0a3e 48e2 aabc
00000360: a83f 853f bfff 57be 5676 4e3e e6c7 0dbf
00000370: d5bc 01be e228 f3be 8488 bf3e c50c 093f
00000380: d49b 52be 2779 81bf 122b e9bd 97a1 28bd
00000390: ed1d babe d0bd 7fbe 5e04 6c3d 563c 96be
000003a0: 6ec3 ee3e 15fe 93bd 5730 ed3d 36d3 083f
000003b0: 797f 02bf 85ca 3abf df28 97be 4fcb b53e
000003c0: 6ff3 c83d 543d f73e 4199 5bbe 5b52 cd3c
000003d0: 38b8 4f3f e0a2 35bf 0a71 57be b17b bf3e
000003e0: ef87 e13d c4bc 323f cfc9 02be 7c10 2dbf
000003f0: 6712 983e 1462 58bf 2329 b13e 792e ff3d

network_body.linear_encoder.seq_layers.2.bias f4 [128]
0.00041502583 -0.00021192653 0.0015306716 0.007996774 0.0029230309 -0.0039550085 0.007225452 -0.0010878647
-0.001873534 0.0034760032 0.00086213625 -0.0012834773 -0.001590351 -0.0023482936 -0.0044512628 0.001269557
0.0006421564 -0.0014632056 -0.0025010281 0.0014398559 -0.0017866523 -0.0027424672 0.00415218 0.00019531015
-0.0016045346 0.000492755 0.006317115 0.0010746162 -0.00037854322 -0.0023818105 -0.0016422288 0.0014131044
0.0023463827 0.0008778861 0.0030329304 0.0010765003 0.008815669 0.003714821 0.0021349245 -0.002823548
0.0013276144 -0.0010929229 0.0006139313 0.002118085 -0.00084258814 -0.0014242558 0.00070565025 -0.0015163136
-0.00062120927 0.0018548493 -0.0001239252 0.0009924818 0.0076047494 -0.0009065038 -0.0018486404 -0.0008922127
0.0009617094 -0.0021059914 -0.00017690408 0.0031349994 -0.00058366515 0.0037111281 -0.0018895897 0.00086763187
0.0010189222 0.0021024328 0.0012280435 0.007509457 -0.00080768444 0.00029918583 -0.00016173626 0.0017062062
-0.0025141053 -0.0025359436 0.0035460747 0.0044056987 0.0035086854 0.0009685471 0.0014481101 0.0037955602
-0.001832856 -0.0007830076 -0.00088284427 0.00050604023 -0.0020894536 -0.0006169222 0.0007610204 -0.0016535654
-0.0022643495 -0.002978294 0.0003026658 0.0026228547 0.0011964598 0.0024442312 0.0014340385 -0.0015321283
-0.0024513612 -0.001686011 -0.0056609246 0.0010709144 -0.0021154268 0.0020120086 -0.0004254446 0.0009952129
0.0032633448 -0.00092352566 -0.0015262751 -0.0023520486 0.005422623 -0.0007666864 -0.00021633985 -0.0010476352
0.0021423195 -0.00052370626 -0.0025300975 0.00910571 0.007238356 0.0012059815 -0.0007385339 -0.0018753927
-0.00219925 -0.0024010113 -0.0017852753 0.00053209683 -0.0013816102 0.0028901559 -0.0013883566 0.0012460517
00000000: d397 d939 9838 5eb9 d1a0 c83a e704 033c
00000010: 5290 3f3b 0499 81bb 7cc3 ec3b af96 8eba
00000020: 5f91 f5ba a8cd 633b fc00 623a 5a3a a8ba
00000030: 5373 d0ba d4e5 19bb e6db 91bb 4467 a63a
00000040: 6356 283a 08c9 bfba 4ae8 23bb 8cb9 bc3a
00000050: 1a2e eaba f7ba 33bb 030f 883b 2bcc 4c39
00000060: 3f4f d2ba 3a2c 013a cdff ce3b 23da 8c3a
00000070: 3677 c6b9 2618 1cbb 0e40 d7ba ea37 b93a
00000080: c5c5 193b f021 663a 21c4 463b 5b19 8d3a
00000090: 996f 103c 5b74 733b 17ea 0b3b 460b 39bb
000000a0: 5903 ae3a 6840 8fba 3bf0 203a 92cf 0a3b
000000b0: 22e1 5cba 18ae baba 63fb 383a 0bbf c6ba
000000c0: a6d8 22ba 6a1e f33a ebf1 01b9 2a16 823a
000000d0: 4331 f93b 71a2 6dba 144e f2ba 61e3 69ba
000000e0: 3a1b 7c3a ac04 0abb 547f 39b9 9074 4d3b
000000f0: 1b01 19ba 6636 733b 1cac f7ba ca71 633a
00000100: 5b8d 853a f8c8 093b 4df6 a03a e411 f63b
00000110: c9ba 53ba 0bdc 9c39 bf97 29b9 c8a2 df3a
00000120: b0c3 24bb 1332 26bb 4365 683b ae5d 903b
00000130: f9f1 653b 18e6 7d3a 83ce bd3a efbe 783b
00000140: 713c f0ba c042 4dba ad6e 67ba c9a7 043a
00000150: 37ef 08bb f3b8 21ba 377f 473a 73bc d8ba
00000160: 7b65 14bb 7b2f 43bb 1eaf 9e39 33e4 2b3b
00000170: 87d2 9c3a 652f 203b 59f6 bb3a b2d1 c8ba
00000180: 04a7 20bb 24fd dcba 477f b9bb ed5d 8c3a
00000190: f9a2 0abb e7db 033b 350e dfb9 ce71 823a
000001a0: d7dd 553b c218 72ba 4b0d c8ba d424 1abb
000001b0: 42b0 b13b 74fb 48ba 49d9 62b9 ce50 89ba
000001c0: 2866 0c3b 5549 09ba fecf 25bb 1e30 153c
000001d0: bb2f ed3b 0612 9e3a 2c9a 41ba bdcf f5ba
000001e0: 4b21 10bb 495a 1dbb e6ff e9ba 6a7c 0b3a
000001f0: 2517 b5ba c568 3d3b 84f9 b5ba 8f52 a33a

network_body.linear_encoder.seq_layers.2.weight f4 [128, 128]
-0.024498312 0.08978546 -0.00029785535 -0.062378112 -0.07658247 0.06761795 0.052211594 -0.05687876
-0.13396117 0.044448946 -0.101838954 -0.014474713 -0.09905445 0.078553505 0.090897165 -0.09441162
0.0043903193 0.014391508 -0.0759338 0.12381484 0.03785541 -0.088184014 -0.017528703 0.09811714
0.034095664 0.12580748 0.04996687 0.058101207 -0.041530054 -0.033219296 -0.018498076 0.07427631
0.15886569 0.13651964 -0.07646804 0.04990222 -0.109477215 0.011196071 0.054463245 0.070442945
0.026038028 -0.042789765 -0.15074337 -0.018449996 -0.024145959 -0.069331735 -0.037203062 0.027401807
-0.003072416 0.1906089 -0.21063997 0.118165195 -0.14342289 0.11334709 0.005121106 -0.037934083
-0.03536409 0.059540648 -0.1282707 0.15610589 -0.08928686 -0.022301944 0.036431815 0.039180137
-0.013344111 0.17974472 -0.029320767 0.12032652 0.080308676 0.007435203 -0.13336644 0.081564926
-0.08428589 0.07482963 -0.05225324 0.027333971 -0.118782155 8.762602e-06 -0.050359935 0.10626906
-0.049090873 -0.01759963 0.02385232 -0.19835725 0.007947817 0.09595029 0.20065804 -0.039527077
0.07631155 -0.06256809 0.18621288 0.014960574 0.04335503 0.020606464 -0.04624215 0.05525673
-0.13655369 -0.08582638 0.088242255 -0.105772205 0.07284585 0.004466984 0.09772997 -0.061303712
-0.03223881 0.07766237 -0.028972562 -0.113565594 -0.012960391 0.040379334 0.08712973 -0.08094924
-0.027048433 -0.016592775 0.012154006 0.024738938 0.063155495 -0.17967945 -0.015997328 -0.020148687
0.073229074 0.048189897 0.005982969 -0.01572764 0.0925919 0.024900993 -0.085336365 0.082488
-0.07337446 0.0028643042 0.056585725 0.14229786 0.048038803 -0.041345786 -0.005798874 -0.021106757
-0.096881434 0.08524264 -0.038865764 0.15724121 0.17088117 -0.06267997 -0.022249814 0.092940025
-0.1566535 -0.08392955 0.0040170797 0.05477607 -0.02743542 -0.026120717 0.2813545 0.12605882
-0.11889219 0.006527022 -0.021891095 -0.047604676 -0.19561084 -0.029448476 -0.114999406 0.039208476
0.035516318 0.004460314 -0.085169405 0.006272916 -0.050245754 -0.070431136 -0.13277063 -0.074897915
0.060459875 0.07777917 0.0754193 0.1492164 0.13816218 -0.108520284 0.04104634 -0.13623142
0.060874995 0.0025257915 0.029319325 0.157016 0.05198807 0.17919375 -0.109367475 0.12750152
0.083610006 -0.107970856 -0.06323952 0.033438653 -0.03936485 0.069546334 -0.13497287 0.109236225
0.01269932 0.051685728 0.06778211 0.07563083 -0.014268513 -0.09607259 0.11572735 0.11238032
0.08477784 0.021036103 -0.020703783 0.12313232 0.07658071 0.14225176 0.051578075 -0.065171815
0.0130413575 0.037659537 -0.07060545 -0.072858036 -0.0035985888 -0.069025174 0.025169697 -0.015548123
-0.0072413087 -0.10044539 -0.11965551 -0.012949136 -0.023981633 0.07891476 -0.096342474 -0.03778004
-0.020516405 -0.056069955 -0.052020308 0.06974106 0.060040623 -0.081008665 -0.011948513 -0.046584494
-0.021681326 -0.090116404 0.13473126 0.0079140775 -0.008544496 -0.13045865 -0.012435574 -0.1610432
-0.14799564 -0.08455779 0.1345298 -0.09120805 0.007377259 -0.1128622 -0.05085871 -0.096873574
0.15156317 0.0038397852 0.1262419 0.022279289 -0.031385854 -0.04481725 -0.071957335 0.1465553
00000000: afb0 c8bc 70e1 b73d 7829 9cb9 3180 7fbd
00000010: 45d7 9cbd 487b 8a3d d3db 553d b4f9 68bd
00000020: 1e2d 09be 1910 363d f190 d0bd 5927 6dbc
00000030: 0fdd cabd a9e0 a03d 4b28 ba3d e15a c1bd
00000040: abdc 8f3b 5cca 6b3c 2e83 9bbd a392 fd3d
00000050: 460e 1b3d d299 b4bd 5b98 8fbc a4f1 c83d
00000060: e5a7 0b3d add3 003e 10aa 4c3d 88fb 6d3d
00000070: 6b1b 2abd f510 08bd 4789 97bc 2e1e 983d
00000080: b0ad 223e cecb 0b3e 479b 9cbd 4566 4c3d
00000090: 9735 e0bd ba6f 373c da14 5f3d 6444 903d
000000a0: b44d d53c 5244 2fbd 785c 1abe 7224 97bc
000000b0: bfcd c5bc ccfd 8dbd 3d62 18bd c179 e03c
000000c0: 965a 49bb fb2e 433e 01b2 57be 9800 f23d
000000d0: 73dd 12be 8522 e83d f3ce a73b c560 1bbd
000000e0: f0d9 10bd e5e0 733d 6559 03be 39da 1f3e
000000f0: 07dc b6bd 91b2 b6bc 8739 153d 5a7b 203d
00000100: 42a1 5abc 000f 383e 1b32 f0bc c06d f63d
00000110: e078 a43d 01a3 f33b 3691 08be 830b a73d
00000120: 159e acbd 4740 993d 7e07 56bd 7eeb df3c
00000130: 0f44 f3bd 1703 1337 3846 4ebd 98a3 d93d
00000140: 8313 49bd 192d 90bc f165 c33c 2a1e 4bbe
00000150: 9037 023c 9681 c43d 4d79 4d3e 25e7 21bd
00000160: 3b49 9c3d b323 80bd 97ae 3e3e 321d 753c
00000170: 0b95 313d e3ce a83c 6968 3dbd e254 623d
00000180: bbd4 0bbe bec5 afbd 5bb8 b43d 199f d8bd
00000190: 3430 953d c75f 923b a726 c83d 9a19 7bbd
000001a0: d80c 04bd 730d 9f3d de57 edbc 1495 e8bd
000001b0: d257 54bc cd64 253d 1271 b23d b7c8 a5bd
000001c0: ad94 ddbc 92ed 87bc 9921 473c 50a9 ca3c
000001d0: ab57 813d e4fd 37be d40c 83bc dc0e a5bc
000001e0: 20f9 953d c562 453d c80c c43b 40d7 80bc
000001f0: d2a0 bd3d 2bfd cb3c d5c4 aebd 78ef a83d
00000200: 5945 96bd 0db7 3b3b 6fc6 673d 88b6 113e
00000210: 56c4 443d 335a 29bd 7b04 bebb 14e8 acbc
00000220: c669 c6bd b193 ae3d b531 1fbd d703 213e
00000230: 79fb 2e3e 5b5e 80bd 3e45 b6bc 5757 be3d
00000240: c669 20be 42e3 abbd b5a1 833b df5c 603d
00000250: 3fc0 e0bc 1dfb d5bc b20d 903e 9015 013e
00000260: c07d f3bd a1e0 d53b f454 b3bc 1ffd 42bd
00000270: 354e 48be ee3d f1bc cf84 ebbd 1199 203d
00000280: 8f79 113d d327 923b 4c6d aebd 098d cd3b
00000290: 7ece 4dbd 333e 90bd 06f5 07be 1464 99bd
000002a0: c6a4 773d af4a 9f3d 6f75 9a3d 2fcc 183e
000002b0: 637a 0d3e e23f debd 3520 283d 4080 0bbe
000002c0: 0f58 793d c087 253b 152f f03c cdc8 203e
000002d0: 71f1 543d 917e 373e 0efc dfbd c28f 023e
000002e0: b93b ab3d d31f ddbd b983 81bd f8f6 083d
000002f0: 093d 21bd 4f6e 8e3d 5436 0abe 3eb7 df3d
00000300: cf10 503c 6ab4 533d 59d1 8a3d 56e4 9a3d
00000310: 7bc6 69bc b5c1 c4bd 7602 ed3d a727 e63d
00000320: 01a0 ad3d e853 ac3c fb9a a9bc cc2c fc3d
00000330: 59d6 9c3d 72aa 113e 8843 533d cd78 85bd
00000340: 6bab 553c e340 1a3d 9799 90bd 9836 95bd
00000350: 4dd6 6bbb 125d 8dbd ae30 ce3c 8ebd 7ebc
00000360: 8048 edbb 50b6 cdbd f30d f5bd 9d28 54bc
00000370: 2175 c4bc 109e a13d 344f c5bd 3ebf 1abd
00000380: 0512 a8bc 9ca9 65bd 3f13 55bd 67d4 8e3d
00000390: 28ed 753d dfe7 a5bd b2c3 43bc 62cf 3ebd
000003a0: 099d b1bc f38e b8bd fef6 093e 0caa 013c
000003b0: 37fe 0bbc f496 05be 94be 4bbc 82e8 24be
000003c0: 2b8c 17be a22c adbd 2ec2 093e 49cb babd
000003d0: efbc f13b 4c24 e7bd 3951 50bd a765 c6bd
000003e0: 6033 1b3e e8a4 7b3b 8e45 013e 0e83 b63c
000003f0: 748e 00bd 4b92 37bd 5e5e 93bd 9812 163e
