results/test2/HitTheBall.onnx (onnx, 74062 bytes, 8 tensors)

action_model._continuous_distribution.log_sigma f4 [1, 2]
0.0 0.0
00000000: 0000 0000 0000 0000

action_model._continuous_distribution.mu.bias f4 [2]
0.0 0.0
00000000: 0000 0000 0000 0000

action_model._continuous_distribution.mu.weight f4 [2, 128]
-0.018134303 0.0011612434 -0.00097239204 -0.0021480464 -0.032016307 0.01727551 -0.00192349 -0.0019636236
-0.0024678742 0.00070859503 0.012454039 -0.0145318955 -0.0050743255 0.004347759 0.00084291765 0.017423015
-0.025839377 -0.02992313 -0.011592572 -0.013040498 0.036583114 -0.021565579 -0.023703454 -0.012621676
-0.014444287 0.02147053 0.020597631 -0.020464651 0.017236935 0.022585584 -0.0024664747 -0.004289031
0.008668197 0.010417967 -0.0012223719 -0.005700938 -0.028054966 0.024000598 -0.017092232 0.011470542
0.033427667 0.0019890585 -0.006500881 0.027898876 0.0046043736 -0.0018064805 -0.0205602 -0.029454444
0.009573668 0.008870321 0.0023818645 -0.012407539 0.027373571 -0.005766765 0.04111209 0.027981216
-0.014488463 -0.0016144703 -0.027473321 -0.029770255 -0.0028062745 0.02077269 2.8283868e-05 -0.009161367
0.014283712 -0.0070796306 -0.0025930244 -0.014548919 -0.0001397948 0.0026276917 0.033029553 0.0014476281
0.025136037 -0.004351656 -0.0046870494 -0.00530311 0.006334503 -0.01178361 0.04702747 0.008663641
-0.00895126 0.0056623197 -0.023711087 0.023603683 -0.017514534 -0.008275249 -0.010084991 0.006592528
0.01534828 0.027557332 0.0023293837 -0.017426422 0.0090412 -0.024253272 -0.027170336 -0.025985895
-0.014956548 0.017467326 -0.011724258 0.0015721308 0.003294392 -0.0007251385 -0.03732591 0.009114675
-0.0093025 -0.0076464238 0.0010933958 0.001779098 0.013229363 0.027946657 0.04091444 -0.039707698
0.021770565 -0.030598277 0.021251962 -0.012974444 -0.010730291 0.0048476467 -0.0047265757 -0.018770652
-0.03267653 0.007380649 0.009906586 0.012561977 -0.0018893735 0.0020920527 0.022861084 0.012161503
0.012393037 0.037261713 -0.019736936 -0.031370748 -0.011477196 -0.0038257462 0.004621145 -0.015909499
-0.007257433 0.018456694 0.004259144 0.001256005 0.010027391 -0.006814701 -0.03783342 -0.013118932
0.005570462 0.008495945 -0.0014232872 0.016810758 0.022080489 0.015594566 -0.021949781 0.010183587
0.009811836 0.036949564 0.018773152 -0.0058755367 -0.009791527 -0.006610041 -0.022112707 -0.037657816
-0.0015353516 0.0037563704 0.027962206 0.033480488 0.018311702 0.013474606 0.015095182 0.0052013616
0.021553567 0.012689491 -0.015734745 -0.004356738 0.043008693 -0.018383201 -0.011593142 -0.0018656377
0.011156642 0.018848209 -0.012820507 0.0037622524 -0.018377881 0.01935259 0.023261564 0.000992658
0.01836905 -0.012241892 -0.010488201 0.012076804 -0.009275033 0.0019195008 0.01074011 0.026790766
0.014232556 0.018034609 0.019095069 0.014543316 0.010300765 -0.013236328 0.04234309 -0.008745286
-0.005566371 0.016464058 0.018614737 -0.004330983 0.010037287 0.024312392 0.016638469 -0.009090553
0.016814422 -0.010678659 0.004865305 0.019189818 -0.004781835 0.006120503 0.0027258464 -0.03292952
0.011071201 -0.008419632 0.02101108 -0.004845755 0.0046527265 -0.0003616923 0.032516222 -0.014226898
-0.016534518 0.034186702 -0.031412832 0.0027288082 -0.03298709 0.013818771 0.016292732 0.022846747
0.02885826 -0.008708387 -0.0063222945 -0.017242206 0.00093915866 0.0021168343 0.0057232906 0.0239837
0.0075903684 -0.013336137 -0.036383733 -0.014368369 0.027832894 -0.001194931 0.014470117 0.0070992685
-0.0010533583 0.0140179545 -0.01798299 0.00028690728 0.013201742 0.017680977 0.011384823 0.001527317
00000000: 648e 94bc dd34 983a 20e8 7eba 3dc6 0cbb
00000010: 8823 03bd 5f85 8d3c 9d1d fcba 23b0 00bb
00000020: 0fbc 21bb 02c1 393a 070c 4c3c 3017 6ebc
00000030: 8746 a6bb a577 8e3b 3ff7 5c3a b6ba 8e3c
00000040: 1aad d3bc 5a21 f5bc c5ee 3dbc d0a7 55bc
00000050: 2dd8 153d 4caa b0bc bf2d c2bc 25cb 4ebc
00000060: bba7 6cbc f7e2 af3c 5dbc a83c 7ca5 a7bc
00000070: 7934 8d3c 6705 b93c 94a4 21bb 008b 8cbb
00000080: 0e05 0e3c 1fb0 2a3c ff37 a0ba efce babb
00000090: 87d3 e5bc e79c c43c 0205 8cbc f1ee 3b3c
000000a0: 73eb 083d dd5a 023b 5805 d5bb 2f8c e43c
000000b0: 49e0 963b 6dc7 ecba dd6d a8bc 724a f1bc
000000c0: e0da 1c3c d354 113c 0e19 1c3b fe48 4bbc
000000d0: 8a3e e03c 22f7 bcbb 2765 283d dd38 e53c
000000e0: 0561 6dbc a29c d3ba bb0f e1bc c0e0 f3bc
000000f0: 79e9 37bb 7d2b aa3c 2543 ed37 8f19 16bc
00000100: 3b06 6a3c 3ffc e7bb bbef 29bb 975e 6ebc
00000110: e295 12b9 5a35 2c3b ff49 073d 57be bd3a
00000120: 17ea cd3c 5698 8ebb d295 99bb b6c5 adbb
00000130: aa91 cf3b 0b10 41bc e09f 403d f2f1 0d3c
00000140: 4ea8 12bc fb8a b93b c13d c2bc 835c c13c
00000150: a47a 8fbc e994 07bc 853b 25bc 2206 d83b
00000160: 5a77 7b3c eabf e13c 93a8 183b dbc1 8ebc
00000170: 8b21 143c ccae c6bc 5394 debc 5fe0 d4bc
00000180: 4f0c 75bc a317 8f3c 1a17 40bc f50f ce3a
00000190: bae6 573b 3917 3eba 0ee3 18bd b855 153c
000001a0: 8369 18bc da8e fabb 4650 8f3a 9f30 e93a
000001b0: f8bf 583c 63f0 e43c e695 273d 8aa4 22bd
000001c0: 2f58 b23c 3da9 fabc 9818 ae3c c392 54bc
000001d0: 1ace 2fbc 02d9 9e3b 64e1 9abb e9c4 99bc
000001e0: d3d7 05bd 5fd9 f13b 3c4f 223c c0d0 4d3c
000001f0: dba4 f7ba d21a 093b 2b47 bb3c 0a41 473c
00000200: 2a0c 4b3c bd9f 183d 5baf a1bc 9d7e 00bd
00000210: d90a 3cbc 5fb9 7abb f96c 973b a354 82bc
00000220: c3cf edbb 7e32 973c 4a90 8b3b 89a0 a43a
00000230: ed49 243c db4d dfbb 37f7 1abd caf0 56bc
00000240: 6c88 b63b 9332 0b3c 988d baba b7b6 893c
00000250: 24e2 b43c 5a80 7f3c 07d0 b3bc 0fd9 263c
00000260: d3c1 203c 6d58 173d 27ca 993c 9387 c0bb
00000270: a46c 20bc 0b99 d8bb b525 b5bc 153f 1abd
00000280: da3d c9ba 702d 763b ff10 e53c d622 093d
00000290: 6c02 963c 98c4 5c3c c851 773c 2f70 aa3b
000002a0: 1b91 b03c 95e7 4f3c 27e6 80bc f8c2 8ebb
000002b0: e229 303d 5e98 96bc 29f1 3dbc 6a88 f4ba
000002c0: 59ca 363c 8f67 9a3c 1b0d 52bc 1f90 763b
000002d0: 368d 96bc 5389 9e3c 098f be3c 131c 823a
000002e0: b17a 963c 3792 48bc b4d6 2bbc cadd 453c
000002f0: 4ff6 17bc c297 fb3a 49f7 2f3c 4f78 db3c
00000300: ab2f 693c 51bd 933c 436d 9c3c 1747 6e3c
00000310: 8ac4 283c 2fdd 58bc f36f 2d3d 6348 0fbc
00000320: 1b66 b6bb a2df 863c ef7d 983c ebea 8dbb
00000330: 6f73 243c c82a c73c 664d 883c 8bf0 14bc
00000340: 66be 893c 8bf5 2ebc 236d 9f3b f733 9d3c
00000350: f0b0 9cbb 808e c83b 1da4 323b 1be1 06bd
00000360: fc63 353c 7ff2 09bc 6e1f ac3c 24c9 9ebb
00000370: e675 983b 85a1 bdb9 bb2f 053d ef17 69bc
00000380: 6673 87bc 5b07 0c3d beaa 00bd ced5 323b
00000390: 791d 07bd 2068 623c 5678 853c 1a29 bb3c
000003a0: 2868 ec3c 9fad 0ebc 402b cfbb 873f 8dbc
000003b0: df31 763a 96ba 0a3b 718a bb3b 7779 c43c
000003c0: a0b8 f83b d07f 5abc 1c07 15bd 4f69 6bbc
000003d0: cf01 e43c 3b9f 9cba 1214 6d3c fba0 e83b
000003e0: d710 8aba 90ab 653c 1051 93bc 0b6c 9639
000003f0: 1f4c 583c b2d7 903c 6987 3a3c 4130 c83a

action_model._discrete_distribution.branches.0.weight f4 [1, 128]
-0.0018448597 0.0012403199 -0.0087470915 -0.013193101 0.007136567 -0.021067021 0.01064582 0.0061624194
-0.0024535882 0.0007103795 -0.0088649895 0.024247196 -0.033479556 -0.0040883413 -0.009124395 -0.004534192
0.0025985043 -0.008974146 0.0093163345 0.006075202 0.0080511635 0.0035048355 -0.003918828 0.018118946
0.01002325 0.014326774 -0.00037996078 -0.0054387185 -0.023020407 -0.0025390147 -0.009503743 0.0029326717
0.016223682 0.0072076865 0.0054417257 0.013633135 -0.0022157265 0.0031691813 0.0002441748 0.023381868
0.006809272 0.01263748 0.005169652 0.015121142 0.003337352 -0.007893409 0.002918568 0.0072492408
-0.020998633 -0.008705947 -0.0016786208 -0.011171176 0.011115818 -0.008863762 -0.0044584735 0.0024051245
0.010964358 -0.0029105865 0.0008800908 0.00214281 0.010780732 -0.006208709 0.0076531186 0.0058580018
-0.0068977675 0.004729799 -0.0041157375 0.00932655 -0.0040455526 -0.007966406 -0.0041404986 0.003246362
0.010240582 0.002936877 -0.015673533 0.004039895 0.0022705137 -0.004192631 0.0022692436 0.008768968
0.0065289135 0.0019081304 -0.0025562255 0.011974223 -0.006385067 -0.013083524 -0.022438282 -0.0037982378
-0.005661798 0.009194393 0.016444279 0.015701307 0.008649162 0.0006709418 0.0067035235 -0.008327264
-0.002822707 0.006913481 0.0008157307 -0.00060317764 -0.0122665195 0.013817921 -0.010023466 0.00073504914
-0.0019823655 0.0014081632 0.0005761969 -0.016092809 0.0042121136 0.002044174 0.0058252304 0.004405789
-0.002402269 -0.0013136176 -0.002102531 0.008784677 0.003381994 0.00026340605 -0.010640205 -0.0102248965
-0.0137533415 0.005032316 0.00216998 -0.0065868124 0.012794996 0.0058158343 -0.008814265 -0.00701968
00000000: 38cf f1ba 3b92 a23a f64f 0fbc e027 58bc
00000010: ddd9 e93b bf94 acbc ce6b 2e3c 1fee c93b
00000020: 61cc 20bb c338 3a3a 763e 11bc 0ea2 c63c
00000030: dc21 09bd 7ef7 85bb 7d7e 15bc 8f93 94bb
00000040: ab4b 2a3b 4c08 13bc 8aa3 183c 7d12 c73b
00000050: 07e9 033c 62b1 653b 8369 80bb 2f6e 943c
00000060: 8f38 243c d8ba 6a3c 7935 c7b9 4737 b2bb
00000070: 4b95 bcbc 9965 26bb 96b5 1bbc 1132 403b
00000080: 87e7 843c 752e ec3b 8150 b23b 835d 5f3c
00000090: b935 11bb 0ab2 4f3b 9604 8039 558b bf3c
000000a0: 5020 df3b 6f0d 4f3c 2f66 a93b abbe 773c
000000b0: 7ab7 5a3b 5b53 01bc 7245 3f3b 0a8b ed3b
000000c0: 5305 acbc 63a3 0ebc 2b05 dcba 4f07 37bc
000000d0: 1f1f 363c 5039 11bc 6318 92bb 4b9f 1d3b
000000e0: daa3 333c 8abf 3ebb e5b5 663a 636e 0c3b
000000f0: aba1 303c 6d72 cbbb 03c7 fa3b 7bf4 bf3b
00000100: ab06 e2bb 6efc 9a3b 4fdd 86bb 63ce 183c
00000110: 8e90 84bb 8785 02bc 05ad 87bb ebc0 543b
00000120: 1dc8 273c 9f78 403b c865 80bc 1861 843b
00000130: e6cc 143b 5762 89bb 97b7 143b b8ab 0f3c
00000140: 7ff0 d53b 3b1a fa3a 5986 27bb 882f 443c
00000150: d339 d1bb 475c 56bc 7dd0 b7bc dbeb 78bb
00000160: 9b86 b9bb 14a4 163c 27b6 863c 07a0 803c
00000170: 37b5 0d3c 24e2 2f3a 3ba9 db3b 146f 08bc
00000180: 2afd 38bb 7b8a e23b c3d6 553a 911e 1eba
00000190: 83f9 48bc 9064 623c 7739 24bc 50b0 403a
000001a0: 93ea 01bb 1e92 b83a eb0b 173a 11d5 83bc
000001b0: c505 8a3b 8cf7 053b 93e1 be3b 705e 903b
000001c0: 636f 1dbb b12d acba 9eca 09bb 9bed 0f3c
000001d0: 72a4 5d3b c319 8a39 4154 2ebc 5386 27bc
000001e0: b255 61bc 20e6 a43b 3936 0e3b 30d6 d7bb
000001f0: 1aa2 513c c192 be3b b569 10bc 5805 e6bb

network_body.linear_encoder.seq_layers.0.bias f4 [128]
0.0 0.0 0.0 0.0 0.0 0.0 0.0 0.0
0.0 0.0 0.0 0.0 0.0 0.0 0.0 0.0
0.0 0.0 0.0 0.0 0.0 0.0 0.0 0.0
0.0 0.0 0.0 0.0 0.0 0.0 0.0 0.0
0.0 0.0 0.0 0.0 0.0 0.0 0.0 0.0
0.0 0.0 0.0 0.0 0.0 0.0 0.0 0.0
0.0 0.0 0.0 0.0 0.0 0.0 0.0 0.0
0.0 0.0 0.0 0.0 0.0 0.0 0.0 0.0
0.0 0.0 0.0 0.0 0.0 0.0 0.0 0.0
0.0 0.0 0.0 0.0 0.0 0.0 0.0 0.0
0.0 0.0 0.0 0.0 0.0 0.0 0.0 0.0
0.0 0.0 0.0 0.0 0.0 0.0 0.0 0.0
0.0 0.0 0.0 0.0 0.0 0.0 0.0 0.0
0.0 0.0 0.0 0.0 0.0 0.0 0.0 0.0
0.0 0.0 0.0 0.0 0.0 0.0 0.0 0.0
0.0 0.0 0.0 0.0 0.0 0.0 0.0 0.0
00000000: 0000 0000 0000 0000 0000 0000 0000 0000
00000010: 0000 0000 0000 0000 0000 0000 0000 0000
00000020: 0000 0000 0000 0000 0000 0000 0000 0000
00000030: 0000 0000 0000 0000 0000 0000 0000 0000
00000040: 0000 0000 0000 0000 0000 0000 0000 0000
00000050: 0000 0000 0000 0000 0000 0000 0000 0000
00000060: 0000 0000 0000 0000 0000 0000 0000 0000
00000070: 0000 0000 0000 0000 0000 0000 0000 0000
00000080: 0000 0000 0000 0000 0000 0000 0000 0000
00000090: 0000 0000 0000 0000 0000 0000 0000 0000
000000a0: 0000 0000 0000 0000 0000 0000 0000 0000
000000b0: 0000 0000 0000 0000 0000 0000 0000 0000
000000c0: 0000 0000 0000 0000 0000 0000 0000 0000
000000d0: 0000 0000 0000 0000 0000 0000 0000 0000
000000e0: 0000 0000 0000 0000 0000 0000 0000 0000
000000f0: 0000 0000 0000 0000 0000 0000 0000 0000
00000100: 0000 0000 0000 0000 0000 0000 0000 0000
00000110: 0000 0000 0000 0000 0000 0000 0000 0000
00000120: 0000 0000 0000 0000 0000 0000 0000 0000
00000130: 0000 0000 0000 0000 0000 0000 0000 0000
00000140: 0000 0000 0000 0000 0000 0000 0000 0000
00000150: 0000 0000 0000 0000 0000 0000 0000 0000
00000160: 0000 0000 0000 0000 0000 0000 0000 0000
00000170: 0000 0000 0000 0000 0000 0000 0000 0000
00000180: 0000 0000 0000 0000 0000 0000 0000 0000
00000190: 0000 0000 0000 0000 0000 0000 0000 0000
000001a0: 0000 0000 0000 0000 0000 0000 0000 0000
000001b0: 0000 0000 0000 0000 0000 0000 0000 0000
000001c0: 0000 0000 0000 0000 0000 0000 0000 0000
000001d0: 0000 0000 0000 0000 0000 0000 0000 0000
000001e0: 0000 0000 0000 0000 0000 0000 0000 0000
000001f0: 0000 0000 0000 0000 0000 0000 0000 0000

network_body.linear_encoder.seq_layers.0.weight f4 [128, 6]
-0.33372694 0.21115665 0.26430485 0.23719956 -0.10165727 -0.21451062 -0.28075224 0.20707177
0.37243664 0.08519793 0.17686528 0.33175927 0.5173273 -0.48264456 -0.23847143 -0.5707994
0.33660302 -0.38900027 -0.21235564 -0.06922451 0.05508397 -0.46598104 0.6611745 0.2781773
-0.88940686 0.036018014 -0.018744899 0.20110817 0.3794152 -0.754247 0.13809736 0.21956128
-0.20476095 -0.8044733 -0.37739366 0.16820884 0.09138212 -0.074460834 0.11472545 0.21073206
-0.4158918 -1.0480754 -0.7889964 0.08225043 0.7917647 -0.01571761 0.51138496 -0.36177814
0.092561014 -0.30020875 -0.034512445 0.28297007 -0.30166486 0.041079804 0.07067346 0.46025503
0.34162876 -0.5793382 0.04036336 -0.05423479 -0.54724294 0.27358073 1.1437316 -0.03401666
-0.4605459 0.5387102 0.43685758 0.30513513 -0.005748673 0.7205981 -0.52441114 0.46364483
0.058620818 0.058450606 -0.5346264 -0.029525312 0.21812183 0.38066465 0.6617316 -0.29807895
0.054612923 -0.46012378 -0.35367078 0.24265137 -0.20087333 -0.4710206 0.040381666 0.13627325
0.048960093 -0.20994864 -0.23426853 -0.26317403 -0.40726128 -0.059391316 -0.22725195 0.30410373
-0.14149904 0.22782062 0.51669145 -0.15106124 -0.574458 0.0800613 0.4190209 0.6025666
-0.27859813 -0.17843401 -0.4136645 0.119266234 0.2756537 0.05308003 0.28782168 -1.117603
0.8481851 0.53679514 0.00054342125 -0.4137975 1.0874777 0.13895446 0.16552119 -0.15984057
0.78085434 -0.061770335 0.1867974 0.0043481356 0.8068074 0.74464035 0.5260947 0.1602131
0.18826883 -0.15651694 0.27597755 0.13145766 -0.17489144 -0.56788266 -0.005842534 0.7247259
0.05220668 -0.020164462 0.11602281 -0.010592257 -0.17468654 0.42784926 0.16564281 0.15099305
0.07320533 -0.70735264 -0.21614376 0.26914808 -0.016804963 -0.10742833 0.12063033 -0.54596716
-0.49538022 -0.4874052 0.07225908 -0.35914183 0.11269456 -0.5765488 0.6518596 -0.5487067
0.44259474 -0.5544093 -0.72456264 0.45351493 0.0041646017 -0.19226487 0.47573423 -0.7601446
0.3861176 -0.8271081 0.54422504 0.55356526 -0.30822557 0.6359327 0.06127482 0.03950373
0.6534711 -0.3679212 -0.1207201 0.20725422 0.06948089 -1.1124874 -0.16099375 -0.35991478
0.46941915 0.05401571 0.18796207 0.061405197 0.70097333 0.026161136 -0.3559734 -0.8430196
-0.66077214 -0.04839474 0.54567826 0.39508134 -0.055738766 0.4209276 0.25359055 0.0091793295
-0.8049473 0.40212363 0.30534816 -0.003480893 -0.22352642 -0.22580652 0.27131087 -0.33671597
-0.37895328 -0.17603333 0.18100375 0.029634587 0.31381887 0.13752498 0.10566077 0.070210114
0.6335833 0.6436386 -0.36907613 0.14071693 -0.3191782 0.9993123 -0.15419848 -0.46600088
0.33587158 -0.24406235 -0.16871126 -0.60469913 0.16031164 -0.47637668 -0.04927248 -0.11226242
0.19263779 -0.6017541 0.14816703 -0.008671699 -0.5564897 -0.015144734 0.11342269 -0.17208321
-0.1546512 0.4468025 -1.3802651 0.2908419 0.5918098 -0.72816235 0.663501 0.8279346
-0.40942115 0.32451805 0.24049331 -0.045704767 -0.45379516 0.3120594 0.56232625 0.12588485
00000000: 42de aabe 7339 583e f752 873e 71e4 723e
00000010: b031 d0bd aca8 5bbe c2be 8fbe 9f0a 543e
00000020: 04b0 be3e 417c ae3d 2c1c 353e 5adc a93e
00000030: 906f 043f 301d f7be db31 74be e91f 12bf
00000040: 3b57 ac3e 0b2b c7be c273 59be 94c5 8dbd
00000050: bb9f 613d 1195 eebe bb42 293f 416d 8e3e
00000060: 2bb0 63bf a087 133d e78e 99bc 4def 4d3e
00000070: b642 c23e 5516 41bf 6569 0d3e acd4 603e
00000080: dbac 51be f6f1 4dbf be39 c1be f03e 2c3e
00000090: 8d26 bb3d ec7e 98bd 2df5 ea3d 25ca 573e
000000a0: c5ef d4be 5627 86bf abfb 49bf ea72 a83d
000000b0: 17b1 4a3f 38c2 80bc 20ea 023f fc3a b9be
000000c0: a190 bd3d f6b4 99be ec5c 0dbd 74e1 903e
000000d0: d173 9abe 4c43 283d 3fbd 903d 8ca6 eb3e
000000e0: f7e9 ae3e 824f 14bf 0d54 253d 4d25 5ebd
000000f0: 1d18 0cbf c612 8c3e cc65 923f 0e55 0bbd
00000100: accc ebbe e9e8 093f ccab df3e ac3a 9c3e
00000110: 5d5f bcbb 1e79 383f cf3f 06bf db62 ed3e
00000120: 621c 703d e769 6f3d 47dd 08bf 11df f1bc
00000130: 545b 5f3e 7ae6 c23e 3e67 293f ce9d 98be
00000140: cdb1 5f3d 5895 ebbe 5614 b5be 9a79 783e
00000150: bdb1 4dbe 9d29 f1be 3f67 253d 378b 0b3e
00000160: 618a 483d c7fc 56be 17e4 6fbe bfbe 86be
00000170: 8d84 d0be 4f44 73bd bcb4 68be 7cb3 9b3e
00000180: 20e5 10be cf49 693e e445 043f ccaf 1abe
00000190: ae0f 13bf 2ef7 a33d e889 d63e ce41 1a3f
000001a0: 6aa4 8ebe 68b7 36be d5cb d3be db41 f43d
000001b0: 7b22 8d3e 726a 593d 5d5d 933e 9d0d 8fbf
000001c0: a922 593f 686b 093f 6274 0e3a 44dd d3be
000001d0: 7832 8b3f 144a 0e3e 637e 293e 3fad 23be
000001e0: 12e6 473f e402 7dbd d147 3f3e ce7a 8e3b
000001f0: ee8a 4e3f c0a0 3e3f 24ae 063f e70e 243e
00000200: 8bc9 403e fa45 20be ee4c 8d3e d69c 063e
00000210: be16 33be c260 11bf ba72 bfbb a387 393f
00000220: acd6 553d f12f a5bc 5e9d ed3d 258b 2dbc
00000230: 07e1 32be 0f0f db3e 459e 293e ec9d 1a3e
00000240: adec 953d 1015 35bf ca54 5dbe c7cd 893e
00000250: 90aa 89bc 6203 dcbd 090d f73d 81c4 0bbf
00000260: 7aa2 fdbe 2d8d f9be 92fc 933d 70e1 b7be
00000270: 68cc e63d b498 13bf 45e0 263f 0b78 0cbf
00000280: c79b e23e c5ed 0dbf f07c 39bf 1c33 e83e
00000290: 3677 883b 15e1 44be 7093 f33e d698 42bf
000002a0: 35b1 c53e 5bbd 53bf 5552 0b3f 74b6 0d3f
000002b0: becf 9dbe 7ccc 223f 4efb 7a3d aace 213d
000002c0: e249 273f 2b60 bcbe 1a3c f7bd 733a 543e
000002d0: ff4b 8e3d fd65 8ebf 8cdb 24be c046 b8be
000002e0: b557 f03e 943f 5d3d 2179 403e 0484 7b3d
000002f0: fd72 333f e14f d63c 2542 b6be 22d0 57bf
00000300: 5d28 29bf 9039 46bd 92b1 0b3f 1a48 ca3e
00000310: 554e 64bd d383 d73e 9fd6 813e e664 163c
00000320: 0711 4ebf 26e3 cd3e 9856 9c3e b21f 64bb
00000330: 1ce4 64be d339 67be 42e9 8a3e 0966 acbe
00000340: 2a06 c2be 1542 34be 0c59 393e 3cc4 f23c
00000350: deac a03e 59d3 0c3e ac64 d83d 52ca 8f3d
00000360: 8432 223f 80c5 243f 8cf7 bcbe 1918 103e
00000370: 536b a3be eed2 7f3f 35e6 1dbe ab97 eebe
00000380: 5cf7 ab3e 7beb 79be a5c2 2cbe 90cd 1abf
00000390: bc28 243e a5e7 f3be f1d1 49bd d7e9 e5bd
000003a0: d742 453e 8f0c 1abf 19b9 173e be13 0ebc
000003b0: 1c76 0ebf 9e21 78bc 284a e83d 9536 30be
000003c0: e25c 1ebe 4cc3 e43e 87ac b0bf 3be9 943e
000003d0: d980 173f d968 3abf 34db 293f 86f3 533f
000003e0: a69f d1be 3b27 a63e e143 763e ec34 3bbd
000003f0: d757 e8be 40c6 9f3e 9df4 0f3f f5e7 003e

network_body.linear_encoder.seq_layers.2.bias f4 [128]
0.0 0.0 0.0 0.0 0.0 0.0 0.0 0.0
0.0 0.0 0.0 0.0 0.0 0.0 0.0 0.0
0.0 0.0 0.0 0.0 0.0 0.0 0.0 0.0
0.0 0.0 0.0 0.0 0.0 0.0 0.0 0.0
0.0 0.0 0.0 0.0 0.0 0.0 0.0 0.0
0.0 0.0 0.0 0.0 0.0 0.0 0.0 0.0
0.0 0.0 0.0 0.0 0.0 0.0 0.0 0.0
0.0 0.0 0.0 0.0 0.0 0.0 0.0 0.0
0.0 0.0 0.0 0.0 0.0 0.0 0.0 0.0
0.0 0.0 0.0 0.0 0.0 0.0 0.0 0.0
0.0 0.0 0.0 0.0 0.0 0.0 0.0 0.0
0.0 0.0 0.0 0.0 0.0 0.0 0.0 0.0
0.0 0.0 0.0 0.0 0.0 0.0 0.0 0.0
0.0 0.0 0.0 0.0 0.0 0.0 0.0 0.0
0.0 0.0 0.0 0.0 0.0 0.0 0.0 0.0
0.0 0.0 0.0 0.0 0.0 0.0 0.0 0.0
00000000: 0000 0000 0000 0000 0000 0000 0000 0000
00000010: 0000 0000 0000 0000 0000 0000 0000 0000
00000020: 0000 0000 0000 0000 0000 0000 0000 0000
00000030: 0000 0000 0000 0000 0000 0000 0000 0000
00000040: 0000 0000 0000 0000 0000 0000 0000 0000
00000050: 0000 0000 0000 0000 0000 0000 0000 0000
00000060: 0000 0000 0000 0000 0000 0000 0000 0000
00000070: 0000 0000 0000 0000 0000 0000 0000 0000
00000080: 0000 0000 0000 0000 0000 0000 0000 0000
00000090: 0000 0000 0000 0000 0000 0000 0000 0000
000000a0: 0000 0000 0000 0000 0000 0000 0000 0000
000000b0: 0000 0000 0000 0000 0000 0000 0000 0000
000000c0: 0000 0000 0000 0000 0000 0000 0000 0000
000000d0: 0000 0000 0000 0000 0000 0000 0000 0000
000000e0: 0000 0000 0000 0000 0000 0000 0000 0000
000000f0: 0000 0000 0000 0000 0000 0000 0000 0000
00000100: 0000 0000 0000 0000 0000 0000 0000 0000
00000110: 0000 0000 0000 0000 0000 0000 0000 0000
00000120: 0000 0000 0000 0000 0000 0000 0000 0000
00000130: 0000 0000 0000 0000 0000 0000 0000 0000
00000140: 0000 0000 0000 0000 0000 0000 0000 0000
00000150: 0000 0000 0000 0000 0000 0000 0000 0000
00000160: 0000 0000 0000 0000 0000 0000 0000 0000
00000170: 0000 0000 0000 0000 0000 0000 0000 0000
00000180: 0000 0000 0000 0000 0000 0000 0000 0000
00000190: 0000 0000 0000 0000 0000 0000 0000 0000
000001a0: 0000 0000 0000 0000 0000 0000 0000 0000
000001b0: 0000 0000 0000 0000 0000 0000 0000 0000
000001c0: 0000 0000 0000 0000 0000 0000 0000 0000
000001d0: 0000 0000 0000 0000 0000 0000 0000 0000
000001e0: 0000 0000 0000 0000 0000 0000 0000 0000
000001f0: 0000 0000 0000 0000 0000 0000 0000 0000

network_body.linear_encoder.seq_layers.2.weight f4 [128, 128]
-0.01392855 -0.017272668 0.07759657 -0.042326402 -0.07269401 -0.014152461 -0.05864959 -0.007928417
0.17481604 -0.081099585 -0.012942106 -0.04587666 0.16496514 0.02351773 -0.11561045 -0.041293632
0.15118313 -0.2095706 -0.033020005 -0.084857896 0.0026311723 0.029053058 0.0082235765 -0.015031465
0.0028540574 0.06303739 0.063425735 -0.041309163 0.06997966 0.009520613 -0.023435213 0.16531439
0.108502805 -0.007995381 -0.016996307 -0.073614396 0.040226243 0.08373082 0.064951316 0.2296655
-0.0013763419 -0.17479141 0.08513323 0.010843288 -0.041777242 -0.014547705 0.19416945 0.0036085588
-0.063233994 0.03863232 0.123236954 -0.0028950693 -0.027120544 0.04447985 -0.03692983 -0.07601646
0.051947925 -0.14007086 -0.07491681 -0.17543791 0.0948046 -0.17432933 -0.10580792 0.10281361
0.056250162 0.040949125 -0.0302777 0.078687966 0.07715875 -0.043042757 -0.01909755 0.006142827
-0.06939379 -0.08463646 0.0077712387 0.029404601 0.03890236 0.009049999 -0.06182945 -0.10175505
0.06391156 0.013586603 -0.04122523 0.019506482 -0.047105372 0.0032824858 0.08224335 0.0010320565
0.008639962 0.039990023 0.11934563 -0.051631168 0.09104628 0.026291072 -0.0991929 0.16358602
0.044548865 0.041476283 -0.016991818 -0.034128696 0.10437445 0.02693314 -0.15424569 -0.029917229
0.2048051 -0.020404728 -0.073382296 0.03602821 -0.06939268 -0.07606757 -0.018522883 0.12694813
0.09599827 -0.036821038 0.04481582 -0.06681857 -0.009339241 0.087138504 -0.062357023 -0.030196847
0.024773763 0.009167368 0.03364461 0.009805818 -0.029488374 -0.12146588 -0.05541767 0.09921465
0.028302614 -0.07501981 0.077066004 -0.06262253 0.025200369 0.06249334 -0.07830847 -0.030560724
0.036978558 0.09714136 -0.13711832 -0.12820685 -0.07112615 0.015434074 0.095553756 -0.0078747105
-0.0028114074 0.088756576 0.016853027 0.011204074 -0.053597737 1.7325629e-05 0.043727957 0.20684192
0.05318786 0.033585846 0.067427084 -0.1379795 -0.049307756 0.05520628 -0.059006307 -0.053616885
0.06639222 0.08960835 0.12204199 0.03225877 0.036967665 0.13947262 -0.017777542 0.055892903
0.09724283 0.034010828 0.10969461 0.18609391 -0.12041054 -0.0155635215 -0.026442176 0.1317625
0.08081626 0.074861646 0.027903356 -0.19955838 -0.09696551 -0.039450504 0.01647618 0.05334802
0.010276899 0.09625673 -0.08443845 0.07906608 0.07564877 0.013280693 -0.16946505 0.0062591014
-0.10924638 0.016546836 0.058413103 -0.08111242 0.13184585 0.12509584 -0.015772576 0.076362014
-0.009185247 -0.00619738 0.00762251 -0.0006792564 -0.051784474 -0.06267049 -0.05769263 0.037051857
-0.11509514 -0.092970416 0.014283036 0.14136456 -0.12863494 0.08529679 -0.087894 -0.11715049
0.1626373 0.107139185 0.09231033 -0.14904372 -0.035406575 0.03258249 -0.032631613 -0.103045136
-0.067240156 0.12306843 -0.014657783 0.040965937 0.030241383 -0.122098334 -0.07276951 0.0028718954
0.16315864 0.20557131 -0.097918704 -0.11100956 -0.049886815 0.014478679 0.18162785 0.021491366
0.019757839 0.014511668 0.043560795 0.087315865 0.008907213 0.049951892 0.088206105 0.032106303
0.036608506 0.14695922 0.11607566 -0.03268196 -0.08857356 -0.026833989 -0.059156895 -0.2488017
00000000: 9334 64bc 697f 8dbc f3ea 9e3d 735e 2dbd
00000010: 99e0 94bd b9df 67bc 8d3a 70bd 31e6 01bc
00000020: fa02 333e 8a17 a6bd 210b 54bc 2ae9 3bbd
00000030: 9fec 283e 41a8 c03c 2cc5 ecbd 8323 29bd
00000040: c0cf 1a3e ad99 56be fc3f 07bd fac9 adbd
00000050: bf6f 2c3b ae00 ee3c 2ebc 063c 8946 76bc
00000060: 230b 3b3b bf19 813d 5ae5 813d cc33 29bd
00000070: 7f51 8f3d 58fc 1b3c 34fb bfbc 2d48 293e
00000080: b836 de3d 0fff 02bc d73b 8bbc 25c3 96bd
00000090: 46c4 243d 107b ab3d 3205 853d 6f2d 6b3e
000000a0: 5f66 b4ba 85fc 32be 555a ae3d 0ca8 313c
000000b0: 9d1e 2bbd 7f59 6ebc 5bd4 463e 927d 6c3b
000000c0: d380 81bd ec3c 1e3d a863 fc3d 34bb 3dbb
000000d0: e72b debc 8130 363d bc43 17bd 85ae 9bbd
000000e0: 59c7 543d bc6e 0fbe fc6d 99bd ffa5 33be
000000f0: ea28 c23d 6383 32be d3b1 d8bd f18f d23d
00000100: 9266 663d 45ba 273d f008 f8bc 2827 a13d
00000110: 6805 9e3d 9a4d 30bd 7772 9cbc c549 c93b
00000120: 551e 8ebd e155 adbd e0a5 fe3b ebe1 f03c
00000130: 1558 1f3d 7246 143c e140 7dbd f464 d0bd
00000140: 10e4 823d 589a 5e3c c9db 28bd 0fcc 9f3c
00000150: 90f1 40bd f91e 573b 346f a83d 1246 873a
00000160: a18e 0d3c 94cc 233d 7b6b f43d 347b 53bd
00000170: 7976 ba3d 6060 d73c a625 cbbd 1883 273e
00000180: df78 363d 09e3 293d 6d32 8bbc 88ca 0bbd
00000190: 46c2 d53d e3a2 dc3c 95f2 1dbe fa14 f5bc
000001a0: 6eb8 513e d127 a7bc 7549 96bd 5192 133d
000001b0: c01d 8ebd 50c9 9bbd 4dbd 97bc b1fe 013e
000001c0: be9a c43d a8d1 16bd cb90 373d 2dd8 88bd
000001d0: 9e03 19bc ac75 b23d 146a 7fbd 615f f7bc
000001e0: 59f2 ca3c ba32 163c eece 093d 95a8 203c
000001f0: 9a91 f1bc 1ac3 f8bd a4fd 62bd 0d31 cb3d
00000200: e2da e73c fca3 99bd c8d4 9d3d 3e40 80bd
00000210: 0171 ce3c 04f9 7f3d 3160 a0bd 7c5a fabc
00000220: d476 173d 0df2 c63d bf68 0cbe a848 03be
00000230: 96aa 91bd 33df 7c3c b0b1 c33d ee04 01bc
00000240: 973f 38bb 02c6 b53d 5c0f 8a3c 4b91 373c
00000250: 4d89 5bbd 8156 9137 161c 333d 5ece 533e
00000260: 83db 593d 5091 093d 3617 8a3d 804a 0dbe
00000270: eef6 49bd fb1f 623d 99b0 71bd 619d 5bbd
00000280: a5f8 873d 9584 b73d 27f1 f93d c621 043d
00000290: 686b 173d e9d1 0e3e 35a2 91bc f5ef 643d
000002a0: 4027 c73d f04e 0b3d 91a7 e03d 678f 3e3e
000002b0: cd99 f6bd 24fe 7ebc 439d d8bc c0ec 063e
000002c0: ff82 a53d 1051 993d 9495 e43c 0859 4cbe
000002d0: da95 c6bd da96 21bd 0ef9 863c 7483 5a3d
000002e0: 7060 283c 4022 c53d 11ee acbd 66ed a13d
000002f0: beed 9a3d 4497 593c 3f88 2dbe 2619 cd3b
00000300: 91bc dfbd 3b8d 873c 9442 6f3d 451e a6bd
00000310: 9902 073e 2019 003e 7d35 81bc b063 9c3d
00000320: b87d 16bc 6413 cbbb 40c6 f93b 2010 32ba
00000330: f51b 54bd 6359 80bd 1b4f 6cbd b0c3 173d
00000340: 00b7 ebbd 4667 bebd 6503 6a3c dfc1 103e
00000350: e1b8 03be 15b0 ae3d c501 b4bd 99ec efbd
00000360: 648a 263e ca6b db3d 330d bd3d eb9e 18be
00000370: 7c06 11bd 3875 053d baa8 05bd 5409 d3bd
00000380: 35b5 89bd 4d0b fc3d 3327 70bc e6cb 273d
00000390: c7bc f73c b10e fabd 2e08 95bd 6936 3c3b
000003a0: 0f13 273e 4981 523e 9a89 c8bd fb58 e3bd
000003b0: 1e56 4cbd fb37 6d3c a7fc 393e a90e b03c
000003c0: 31db a13c 59c2 6d3c ce6c 323d a9d2 b23d
000003d0: 8fef 113c 5b9a 4c3d 67a5 b43d e681 033d
000003e0: cdf2 153d 7a7c 163e 13b9 ed3d 85dd 05bd
000003f0: 0e66 b5bd f4d2 dbbc 804e 72bd dfc5 7ebe
