Assets/HitTheBall.onnx (onnx, 74062 bytes, 8 tensors)

action_model._continuous_distribution.log_sigma f4 [1, 2]
00000000: f01c bd3b caa2 ed3d
0.005771272 0.11603315

action_model._continuous_distribution.mu.bias f4 [2]
00000000: ae4f 07bf ea57 f3be
-0.52855957 -0.4752801

action_model._continuous_distribution.mu.weight f4 [2, 128]
00000000: dc11 1abd 8178 a83e 80a0 edbd cb77 f93d
00000010: 17d2 523f d646 bdbd 4668 233f 236a dbbd
00000020: d9e7 54be 9b6c d4bd d862 aa3c 5f13 54bc
00000030: bc6f f03d 1b51 a8bd e868 2fbb 52f9 e2bd
00000040: d0f8 443f 9309 a7bd e096 7d3f 295a 2d3e
00000050: bef9 4f3a 0ee1 b7bd 63be 46bc dcd0 813c
00000060: 6abf beba ac43 89bd e2f1 2a3d 9f11 103d
00000070: 6538 633f 58b2 e93e 1a52 83bd 18b8 813f
00000080: 3e17 9e3d d934 d1bd 5036 79be 1cba cc3e
00000090: 67de 83ba dc10 b9bd 4459 523f 42bd e2bd
000000a0: e974 203d ecf9 0e3e 8855 d43c 72f8 8abd
000000b0: ce79 f23d 37c2 d2bd 6345 4dbd 041c c93d
000000c0: 8b82 2abd e33e 953c a331 513e c3d4 f6bd
000000d0: fb86 003f 7c43 9d3d 5d41 ec3e 2305 8fbc
000000e0: 1c20 103d c6fd 523b 78e5 52bd ebb8 55bc
000000f0: 5a2e 4e3d 9284 dcbd 69fe 8bbe 8812 913e
00000100: 7cae 993d 5d36 043f c608 1c3f 7ee5 ed3c
00000110: 0e7f 04be b3a8 743e 4772 54bb b9dc 033d
00000120: fa62 443d 9c59 163d 76b5 ddbd 575a c2bd
00000130: d6e2 eabd e6ec 09be cdcf 2c3d 38fc 063e
00000140: 8036 0e3d 5e10 573e 6ad7 a53d 0e63 283e
00000150: b7f9 873b cda3 5a3f 56bd 15be 113f 3fbe
00000160: 5f6e 3fbb f5ce 203c 27a9 74bd 6448 d53e
00000170: 4930 9d3d 57ff 193e 9d42 e53c 0e81 5bbd
00000180: a1dc 4e3f ca5e f4bd 6c81 b7bd f70b 0abd
00000190: c10f a7bb 3736 97bb e3e9 523e ee36 45bd
000001a0: b288 d1bc 3aae 923d 7190 883b 99ec 6abc
000001b0: 7309 10bd 2861 d3bd bf05 e13c 1a2d 84be
000001c0: 4f67 2abd e35a cebd 8c97 f03d 1b94 563e
000001d0: eead 3a3d 1e33 c9bd 412b 06bd 6b33 9ebc
000001e0: 3b03 b23b c8c7 79bd 249c e1bd df78 253f
000001f0: 059d 8dbd 764b c43e a7b1 5e3d 90dc efbd
00000200: a5ea 23bd 221b 613e 90bb 93be 5125 b53e
00000210: 3bec b43e 192b 74be 8cde e03e 62b0 6dbe
00000220: 4b4f 21bd 4d93 7abe 22ae 923c f9fe 96bd
00000230: 833d 903d 3d09 9bbe 895a b3be e378 bcbe
00000240: 0b0c adbd a58a debe 8cd9 603e 61ac db3e
00000250: 6359 9dbe 813e a6be 8505 dbbe da6a 12bd
00000260: 630e 86bc a6cc 75be a0fb 94be c936 bbbe
00000270: 1a37 a03e bd09 813e 638c 83be 0fb8 863e
00000280: 3fe2 37bd 7bfc aabe a251 a63d 5da1 d9bd
00000290: 4e39 8cbb 5714 9abe 3f34 bc3d 5080 78be
000002a0: 2785 42be bfb0 3e3e 6240 ef3d d01f 8abe
000002b0: 2163 65bd 5c11 9dbe 6458 6bbe 114c cebd
000002c0: 129f 9dbe fb8b 5abd 3f55 af3d 8865 b0be
000002d0: 743a bebd d0b4 67bd 565c 3a3e e75d a2be
000002e0: c16e bcbd dc9a 0ebd 228d 9cbd 9df8 9dbe
000002f0: 057c 1f3d 2c79 a6be c29a 9cbd 13b3 1ebd
00000300: d0e3 9fbd 3e04 8fbe 8bb1 893e e75d e23d
00000310: 04ef 9bbe 6418 50bd c79a 8b3c 31e0 363e
00000320: ae34 88be 6343 beb9 33b2 a4be 3d48 85be
00000330: f6a1 afbe 07dd bcbe 9f7c eeba bc5e a03d
00000340: fc53 7a3d f22c 913d 9c01 7fbd 373e 223e
00000350: cd8f 393d 3588 b7bc 46cd abbe 12ef 033f
00000360: 0740 8fbe 80b1 b0bd 35d6 69be 5118 94be
00000370: 35b7 d0be ffa4 6abe 01a3 99be 2a4e eabe
00000380: c765 933e 7c55 b6be a656 90be 9bcd 95be
00000390: 964b 27bd cb43 a5be 4196 ba3d 5480 45be
000003a0: eaa9 25be 9adc 853e 12bb 09bc 7b89 9abe
000003b0: bf3d 303d e738 97be b688 a0be bd6d 323c
000003c0: 9cb0 87be 0c50 a3be a3fb 9c3e ac9f 833e
000003d0: 55af a3bb ba11 8fbe 8562 88be 8e33 a0be
000003e0: 8aad 25bd f14d 8cbe d565 a3be fd9b 003e
000003f0: b1b4 31be 2913 7f3e b5d9 82be cebe a6be
-0.03761469 0.32904437 -0.116028786 0.12181052 0.8235182 -0.092420265 0.63830984 -0.10713603
-0.20791568 -0.10372277 0.020799085 -0.012944072 0.11740062 -0.08218595 -0.002676541 -0.1108271
0.7694216 -0.08156123 0.9905834 0.16928925 0.0007933638 -0.08978473 -0.012130353 0.015846662
-0.0014552895 -0.067023605 0.041734584 0.035173055 0.88757926 0.45643878 -0.06412144 1.0134306
0.07719277 -0.10215158 -0.24337125 0.3998574 -0.0010060788 -0.09036419 0.8216746 -0.11071254
0.039173994 0.13962525 0.02591969 -0.067856684 0.11839639 -0.1029095 -0.050115 0.09819797
-0.0416284 0.018218463 0.20429091 -0.120523 0.50205964 0.07678887 0.46143618 -0.017458504
0.035186872 0.0032194718 -0.05148837 -0.013044576 0.050337173 -0.10767473 -0.27342537 0.2833445
0.075039834 0.5164545 0.6095089 0.029040094 -0.12939093 0.23892479 -0.0032416747 0.03219292
0.047945954 0.036706552 -0.108256266 -0.09489887 -0.11469047 -0.13469276 0.04219036 0.13182151
0.034719944 0.21002337 0.080977276 0.16444036 0.0041496414 0.8540619 -0.14623007 -0.18676402
-0.0029210073 0.009814967 -0.05973163 0.41656792 0.07675225 0.1503881 0.027985865 -0.053589873
0.80805403 -0.11932142 -0.08960232 -0.033702817 -0.0050983136 -0.004614617 0.20597033 -0.04814809
-0.025577877 0.07162137 0.0041676094 -0.014338636 -0.03516526 -0.103212655 0.02746856 -0.2581566
-0.04160243 -0.10075929 0.11747655 0.20954935 0.04557603 -0.09824203 -0.032756094 -0.019311627
0.005432514 -0.060981542 -0.110161096 0.6463756 -0.06914715 0.38338822 0.05436864 -0.11711991
-0.040018696 0.21983007 -0.28854036 0.35380033 0.3533648 -0.23844565 0.4391979 -0.23211816
-0.03938226 -0.24470253 0.017905299 -0.07372851 0.070429824 -0.30280486 -0.3503001 -0.3681098
-0.08449563 -0.43465152 0.21957988 0.42904952 -0.3073226 -0.32469562 -0.4277765 -0.035746433
-0.016364282 -0.24003848 -0.29098225 -0.36565235 0.3129204 0.25202742 -0.25693044 0.263123
-0.0448935 -0.33395752 0.08121039 -0.10626481 -0.004279292 -0.30093643 0.09189653 -0.24267697
-0.18996106 0.18622111 0.11682202 -0.26977396 -0.05600274 -0.30677307 -0.22982937 -0.10073102
-0.30785424 -0.053356152 0.08561181 -0.34452462 -0.09288493 -0.05656892 0.18199286 -0.31712267
-0.09200812 -0.034815654 -0.076441064 -0.3085374 0.038936634 -0.32514322 -0.07646705 -0.038744997
-0.07807124 -0.27932924 0.26893267 0.11053067 -0.30455792 -0.05080451 0.017041577 0.1785896
-0.2660269 -0.0003628983 -0.32167205 -0.26031676 -0.34303254 -0.3688738 -0.0018195099 0.07830569
0.06111525 0.07088651 -0.062257394 0.15844046 0.045303155 -0.022403816 -0.3355505 0.5153667
-0.27978536 -0.086276054 -0.2283562 -0.28924802 -0.40764776 -0.22914504 -0.30007175 -0.4576276
0.28788587 -0.35612094 -0.28191108 -0.29258427 -0.04084357 -0.32278284 0.0911069 -0.19287235
-0.16178098 0.26144868 -0.008406417 -0.30183014 0.043027636 -0.295356 -0.31354302 0.010890421
-0.2650193 -0.31897008 0.30660734 0.25707757 -0.0049952664 -0.27943212 -0.26637664 -0.31289333
-0.040448703 -0.27403215 -0.3191363 0.12559505 -0.17354085 0.24909653 -0.25556722 -0.32567447

action_model._discrete_distribution.branches.0.weight f4 [1, 128]
00000000: 0563 56bb 1d3e 08b7 af80 cf3a 0fc6 873a
00000010: be4a a1bb 2604 c33b ba8e fd3a af40 bcbb
00000020: 73cb 0e3c 1b7b 8d3a c339 45bc cf43 dbbb
00000030: b773 6dba c451 c33b ddf2 76bc a47d 893c
00000040: 961e 2c3b 77cc b8bb 6932 c9bb d395 dabb
00000050: b0be 61bb d768 e738 c39c 853c b440 18bc
00000060: 8db6 a8bb cc4b 82bb 415c 1d3c 7563 5fbc
00000070: d9a5 45bb 7780 e23b 487a 23bc a5c7 3abc
00000080: 88f4 e4bb 7b95 c43b 6d33 d13b b1cf 0fbc
00000090: 05b9 153c d8cc d5b9 1da7 0a3b cf3e b838
000000a0: 6e52 c2ba 8ee8 35bb 406d 40bc 1f52 e9bb
000000b0: 0530 503b 38bc 4bbc 72e3 033c 5a02 3f3b
000000c0: 9de1 59bb 670f 9cbb 976a 4bbb ed16 ac3b
000000d0: abf5 90bb 601e 5dbb f73d a6ba 819a 8cbb
000000e0: 572b 25bb 5272 48bc 7e3f 00bb 2240 073c
000000f0: 3bec a23b 6e18 28bb ffd7 b3bb 9966 83bb
00000100: 0b2d a43b 63d3 c839 0399 57bb aad4 5dbc
00000110: 242a 39bb 2c59 2fbc c214 c03b 3c35 00bc
00000120: d74f 913a 6f16 58bb 9708 98bb 07cb 64bc
00000130: 1f2b 85bc af70 76b8 6e76 81bb 05b4 4fbb
00000140: 4bf1 c2ba 3d10 ebb9 011f 873c c9ce 21ba
00000150: 294f 1bbb 23b6 5dbc 32d7 673b 7ad9 2e3b
00000160: 71fc 92bb 4afb e1bb 1bc1 06bb 991e 0b3b
00000170: 7328 683b 8fe3 393c da87 c6bb cb5c 36bb
00000180: 82f8 d13c ed8a 0abc 0384 82bb 33a0 babc
00000190: a873 03bc 3717 b6bb 9d4d 75bc 89e7 98bc
000001a0: 066c 83bc f2f0 653c 4d2e 6ebc cc41 143b
000001b0: 04bc 9b3b dd10 113b b1c4 cb3b d368 76bc
000001c0: 45d5 e43b 97ae 47b9 e3da dfb9 6828 3fbb
000001d0: ca43 42bb eaca 4d3b 833b bbbb d3bc 083c
000001e0: b449 9abb 6b8e 93bc afbb 38bc bbca 6cba
000001f0: bd28 9bbb 958e 0abb 3764 5a3b 2129 4c3b
-0.0032712829 -8.120694e-06 0.0015831197 0.0010358709 -0.00492224 0.0059514223 0.0019344904 -0.0057450156
0.008715498 0.0010794135 -0.012037697 -0.006691433 -0.00090580754 0.005960675 -0.015072552 0.016783543
0.0026263348 -0.0056396085 -0.0061400426 -0.0066706925 -0.0034445934 0.00011034466 0.016310101 -0.00929277
-0.005148715 -0.003976321 0.009604515 -0.013634552 -0.0030158667 0.006912287 -0.009977885 -0.011400138
-0.006987158 0.005999265 0.0063843043 -0.008777545 0.00913835 -0.00040779146 0.0021156736 8.785503e-05
-0.0014825591 -0.0027757022 -0.011744797 -0.0071203853 0.0031766903 -0.012435012 0.008049833 0.0029145689
-0.0033246048 -0.0047625783 -0.0031038874 0.0052517564 -0.004423817 -0.0033740029 -0.0012683262 -0.0042908792
-0.0025202835 -0.012234287 -0.0019569094 0.008255037 0.0049720085 -0.0025649327 -0.005488395 -0.0040100333
0.0050102524 0.00038304468 -0.0032897599 -0.013539473 -0.0028253878 -0.010702413 0.0058618495 -0.007825192
0.0011086416 -0.0032972356 -0.004639696 -0.013964421 -0.016255913 -5.8755915e-05 -0.0039508855 -0.0031692993
-0.0014872936 -0.0004483479 0.016494276 -0.0006172476 -0.0023698306 -0.013532194 0.003537607 0.002667992
-0.0044856598 -0.006896411 -0.0020561877 0.0021227954 0.00354245 0.011345758 -0.0060586752 -0.0027826305
0.025631193 -0.008455974 -0.003983022 -0.022781467 -0.00802318 -0.0055569666 -0.014972118 -0.018665092
-0.01604272 0.014034497 -0.014537406 0.0022622226 0.004752638 0.0022135295 0.006218516 -0.0150396405
0.0069834315 -0.00019043159 -0.00042696958 -0.002916837 -0.0029642456 0.0031401464 -0.0057138815 0.0083458
-0.004708493 -0.018012246 -0.011275216 -0.0009032895 -0.004735081 -0.0021142114 0.0033323893 0.0031152444

network_body.linear_encoder.seq_layers.0.bias f4 [128]
00000000: 7246 e2be 48ef fdbe 3942 04be 5f34 89be
00000010: 2440 9cbe d268 51be e8df 4abd 69ef afbe
00000020: 6fe6 6fbe 4124 863e fded 29be 6ccf 60be
00000030: 90c1 6abe f291 b13e 9e9a 103d 2efd 04be
00000040: 6a5b 9d3b fd99 8cbe 4c91 093e 22a6 d2be
00000050: efda e2be 726e 513e e89e d1be fa4c 54be
00000060: 24c9 acbd d5fb 103e 6370 09bf 256b e1be
00000070: 65a0 a43d 583d 63be 95d0 b33c 649e ebbe
00000080: 9341 00bf 7aa4 08bd 4484 e83e 1898 26bf
00000090: fb9f b7be 078a 013d 7421 0abf 2df5 c2be
000000a0: 8647 e0bd f541 87be b15f 80be e796 5cbe
000000b0: 477a 33be 7a9b a93c a386 d1bd ab2f c6be
000000c0: d804 31bf d62a 24bf bc55 24be 6b24 7a3d
000000d0: 7e5c c1be 525f 3ebf 0859 e1be 58e3 88be
000000e0: e7fb 9b3d a82e 41be 96ad 043e 6aa3 89be
000000f0: eaeb 4bbd e3c2 abbd 00ad 5dbe 204b c1bb
00000100: e552 1bbf 7fc7 02be 371b 75be df17 843e
00000110: 8652 10bf 393a 83be 1107 1bbd fe4e 58bd
00000120: ecde c8be a1d7 d8be dffc 493e 1126 aa3e
00000130: 887a cebd c004 00bd 4211 3cbe 0ced 53be
00000140: f796 6abe 806f 08be a51d 0dbf c537 59bf
00000150: 783f 13bf dd0d e5bd 5a71 dfbe cac4 26be
00000160: 73ee f9be 6d37 543d ed82 e7be d9a4 a2bd
00000170: 2205 de3c 4f8b c7be aef9 13be d06e 823e
00000180: 8338 1abe bdb1 18bd 7a96 4ebe 9c91 06be
00000190: c766 91be 7298 fcbe f72a a1be c769 aebe
000001a0: 4913 18be 6674 c1be 9aa4 24bf d83f 7fbe
000001b0: 6d55 d1be 0d76 b13e ee0d 25be a6fd 01bf
000001c0: beb3 20be 3a78 163e 901b a2bd 146b d0bb
000001d0: 00fa 443e b7f9 c9bd 3bc9 35be 11ac bd3d
000001e0: 8cd7 efbe c811 17bf dd43 87be 3bed 0ebf
000001f0: 50ce 483e ffd2 9ebe a43d 093e d1d2 fabe
-0.4419437 -0.4959662 -0.12915887 -0.26797768 -0.30517685 -0.20450142 -0.04952994 -0.34362343
-0.23427747 0.26199535 -0.16594692 -0.21954125 -0.229254 0.3468166 0.035303704 -0.12987205
0.004802157 -0.27461234 0.13434333 -0.41142374 -0.44307658 0.20452288 -0.40941548 -0.20732489
-0.08436802 0.14158566 -0.53687114 -0.44027057 0.08038405 -0.2219137 0.021950046 -0.4601928
-0.5010006 -0.033359982 0.4541341 -0.65075827 -0.35864243 0.031625774 -0.53957295 -0.3807768
-0.10951142 -0.2641751 -0.25073007 -0.2154194 -0.17527114 0.02070402 -0.10230758 -0.38708243
-0.69148016 -0.6412786 -0.1604833 0.061069887 -0.37765878 -0.743642 -0.44013238 -0.2673595
0.07616406 -0.18865454 0.12956843 -0.26882488 -0.049785532 -0.08386781 -0.21648026 -0.005898848
-0.6067336 -0.12771414 -0.23936163 0.25799462 -0.5637592 -0.25630358 -0.037848536 -0.052809708
-0.39232576 -0.42352012 0.19725369 0.33232167 -0.10081965 -0.03125453 -0.18365958 -0.20695895
-0.22909151 -0.13323784 -0.5512336 -0.8485072 -0.5751872 -0.11184285 -0.43641168 -0.16286007
-0.48814735 0.05181067 -0.45217076 -0.079415984 0.027102057 -0.38973472 -0.14450714 0.25475168
-0.1506062 -0.03727888 -0.2017459 -0.13141483 -0.28398725 -0.49335057 -0.31478092 -0.34065077
-0.14851107 -0.37784117 -0.6431366 -0.24926698 -0.40885487 0.34660378 -0.16118595 -0.5077766
-0.15693566 0.146943 -0.079154134 -0.006360421 0.19235992 -0.098620825 -0.17752545 0.09261335
-0.46844137 -0.5901151 -0.26418963 -0.55830735 0.19609952 -0.31020352 0.1340242 -0.48988965

network_body.linear_encoder.seq_layers.0.weight f4 [128, 6]
00000000: ad14 903e 0773 b1bd 85ed 4a3d 459f 6b3f
00000010: 7d71 003e 4da3 0bbf c153 503e 503d 17bf
00000020: ecc7 1cbc e42d 663f bcfa 1c3f d3eb 95be
00000030: 48e1 42bc 259c e7bd 94c7 4bbf c9f5 1bbd
00000040: c865 613d 17cf 46be e9cc 0dbc 10a7 d3be
00000050: 4366 34bf 3842 1f3e 3f61 7fbd 318d 41bf
00000060: fc22 4e3e 32c4 56be 73e7 383e 60e7 87be
00000070: 7dbf 04bf e002 6ebe a223 e23d a995 8f3e
00000080: 0ee1 133f cf7e 143e 0c49 3c3d b255 87bd
00000090: eb99 6c3e 730a b7bd 5933 b63e 863f f9bd
000000a0: 473e 2d3e 1749 ebbe 4d12 bb3e 287a 8fbd
000000b0: 69d2 b7be 2625 963e 88de 3ebf 1021 99bf
000000c0: 1535 313e 8cc9 a5bf 7e5c c83d 7398 bfbe
000000d0: 6b02 4abf ce3e 2cbd b3f6 37bf 422b d03e
000000e0: 5abf 8abf 8c79 1e3f fe32 cf3e 882c 7e3f
000000f0: e722 373e d418 0fbf e1d8 06bf 4832 043f
00000100: faa0 04be edfd ffbd 357c fabe 6180 18bf
00000110: e1bf 8abf cc90 ab3d 1717 2cbe 8636 9bbe
00000120: c58d d9be e6cc 663d ae36 fcbd b52f 253f
00000130: 7c1c 00bf bb91 d7bd f5e5 213e 158d b0bd
00000140: 2080 863f 5ea1 8d3b 92e6 a63e e62f 8abd
00000150: 0a2f 67bb 8d0b 89bd ad91 483f 3695 343e
00000160: 9f2d dc3e b252 493e 54ad 1b3e f784 cebd
00000170: d97e ec3e 88fb 05bf a669 093e a62e 5cbe
00000180: 3093 873e 09a4 2ebf eb27 153f e0f5 0dbe
00000190: 5b4b 25be 15e5 a63e 0e43 d0bc 3187 19bf
000001a0: dfd7 d3be 5e3a 18be 1ba1 983d 3d57 5f3d
000001b0: 8b7f aabd 00fd 123f a555 493f 558b 743e
000001c0: 03ba b43d cf0b c83d 4beb eebe 892d 353e
000001d0: 38c9 84bc f066 823f a2da ea3d 1a42 18bf
000001e0: a3e2 aebe cb84 0fbd ed97 95bf f381 85be
000001f0: e8d9 a1be b3fa 1e3e 5408 b03c bb64 f73e
00000200: 16d6 453f 8afd 8b3c 62a3 833e 5c0a 6ebe
00000210: de4f f1be 55b9 bcbe 176f ce3b 040b c73e
00000220: 666a 4cbf f4ec aabc a452 77be dd14 0dbf
00000230: aeb7 70bf 548c b6bd 3f6a d8be f0fb b03c
00000240: ff01 5d3e 7364 9dbd 0668 253f 850e 873a
00000250: d820 893e 7e32 6e3e 57dd acbc e98f 023f
00000260: 9234 053f 0b3f ffbd 3ad3 dbbe 2dcf 86be
00000270: 92a0 143f f53c 35bf 6c0c 1bbf ea17 a7be
00000280: e105 6abf 27ed 27bf d8d1 c23e eba7 7dbf
00000290: 678a 643e 5f2d 183f 1c5d 96bf 3e97 d9be
000002a0: 24eb ecbd 866a 28bf 4a3e 1cbf 7160 a6bd
000002b0: a4da 35bf 97b6 973d 3699 4e3e 6465 aebe
000002c0: eb4c 54bf f9e8 a23e bbf1 c63e 8007 92bf
000002d0: 6ce6 e2be 8d23 d83e 77c4 d3be ccc3 fa3e
000002e0: af47 3fbd 93f8 c03d 7226 303e 9856 46bd
000002f0: 0316 823e 9ee2 373f 14c2 4cbf e20a 643e
00000300: 5bf4 283f a91b 3fbf ed7c 1a3e d59a 983f
00000310: 679b e4be 2816 4bbf 97cb 663d d4c0 0fbf
00000320: eb43 453f 74bc d83d 54e3 e63e 2e26 933e
00000330: b44a 88bd 8c1b 0a3f da4b 9c3f 7418 31bf
00000340: b371 ab3c bdfb 56bd be5d 993e d829 8fbf
00000350: 2cc2 58be e4f7 553f 4713 113e 4813 32bf
00000360: d2d0 05be 92ed e7bd 6a09 2cbf 7824 1b3e
00000370: 99a0 9cbe 31f6 efbe 5496 b2bd 3a99 b5be
00000380: 7274 52bf 81cc dcbc 8c3d dc3e 6c88 193e
00000390: 1a4b a7be 563f cbbe fb66 88bf 9695 bebd
000003a0: 876e 93be c92c 8fbe c09c adbe bffa 51bf
000003b0: 4f84 93bf ef40 1fbe 391c c5be f8db ef3e
000003c0: cd0d a13d e631 d9be 362d f53e d722 0ebf
000003d0: 02cf 883d ac6c 65be bf1e 803e b132 03bf
000003e0: 0adf 403e e6e9 7a3f 10fa 503f 7a97 12bf
000003f0: 38db 653e 2c98 00bf 8e2b e23e c4af bebe
0.28140774 -0.08664518 0.049542923 0.920399 0.12543292 -0.5454605 0.2034445 -0.5907793
-0.009569149 0.89913774 0.6132009 -0.29281482 -0.011894532 -0.11309079 -0.7960141 -0.038076196
0.055028707 -0.19414936 -0.008654811 -0.41338396 -0.7046854 0.15552604 -0.0623486 -0.75606066
0.20130533 -0.2097328 0.18057041 -0.26543713 -0.5185469 -0.23243284 0.11041953 0.2804387
0.5776528 0.14501499 0.0459681 -0.06608142 0.2310559 -0.0893754 0.3558605 -0.12170319
0.16918288 -0.459542 0.365374 -0.07005721 -0.35902718 0.29325217 -0.74558306 -1.1963215
0.17305405 -1.2952132 0.097832665 -0.37420997 -0.7890994 -0.042052083 -0.7186081 0.40658003
-1.0839646 0.61904216 0.4046859 0.992867 0.17884408 -0.5589726 -0.5267468 0.51639223
-0.12952033 -0.124996044 -0.48922887 -0.5957089 -1.0839807 0.08377227 -0.16805683 -0.30315036
-0.42490974 0.05634775 -0.12315117 0.6452592 -0.50043464 -0.10525843 0.15810378 -0.08620659
1.0507851 0.004322215 0.32597786 -0.06747417 -0.003527584 -0.06691656 0.78347284 0.17635044
0.43003556 0.19660452 0.15202838 -0.10083955 0.46190527 -0.5233693 0.13419208 -0.2150217
0.26479483 -0.6821905 0.58264035 -0.13863325 -0.16142027 0.3259665 -0.0254226 -0.5997191
-0.41375634 -0.14866015 0.074526034 0.054526556 -0.08325108 0.574173 0.7864631 0.23881276
0.088245414 0.09767877 -0.4666389 0.17693152 -0.01620923 1.0187664 0.11467482 -0.5947586
-0.34157285 -0.03503875 -1.1686989 -0.26075706 -0.31611562 0.15525322 0.021488346 0.4831904
0.77279794 0.01708867 0.2571059 -0.2324614 -0.47131246 -0.36860147 0.006299864 0.38875592
-0.7984985 -0.020864941 -0.24152619 -0.5510996 -0.9403027 -0.08913484 -0.4226856 0.021604508
0.21582793 -0.07685175 0.6461185 0.001030401 0.2678287 0.23261449 -0.021101637 0.5100084
0.5203334 -0.12463196 -0.4293459 -0.26329938 0.5805751 -0.7079614 -0.6056583 -0.32635432
-0.9141522 -0.6559624 0.38050723 -0.9908435 0.22318421 0.5944423 -1.1747165 -0.424982
-0.11568287 -0.6578754 -0.61032546 -0.081238635 -0.71036744 0.07407873 0.20175633 -0.3406173
-0.8292987 0.3181837 0.388563 -1.1408539 -0.44316423 0.42214623 -0.41360828 0.48977506
-0.046699222 0.09422412 0.17202166 -0.048422426 0.2540742 0.71830165 -0.7998364 0.22269776
0.65997857 -0.7465158 0.15086718 1.1922251 -0.44649813 -0.7933068 0.056346502 -0.5615361
0.7705676 0.105828196 0.45095313 0.28740066 -0.066548735 0.53948283 1.2210648 -0.6917794
0.02092824 -0.05248617 0.29954332 -1.1184645 -0.2116782 0.83581376 0.1416751 -0.6956067
-0.1306794 -0.1132461 -0.67201865 0.1515063 -0.30591276 -0.46867517 -0.08720079 -0.35468465
-0.8220893 -0.026952984 0.43015707 0.14993447 -0.32674485 -0.3969676 -1.0656427 -0.09305875
-0.28795263 -0.27963856 -0.33908653 -0.82023233 -1.1524752 -0.15552114 -0.38498095 0.4684751
0.078639604 -0.42420882 0.47886056 -0.5552191 0.066801086 -0.22404736 0.25023457 -0.51249224
0.18835083 0.9801315 0.81631565 -0.57262385 0.22446907 -0.50232196 0.44173855 -0.37243474

network_body.linear_encoder.seq_layers.2.bias f4 [128]
00000000: e81d cdbe fcc2 68be ac01 91be 4536 69be
00000010: a28a 40be 5459 28be efcb 3bbe 2578 a7be
00000020: b255 8cbe 1c3b dfbd a0f1 0cbf 160d e5be
00000030: 5af4 99be cfbf 83be 961a 5abd 2e0e 65be
00000040: a19e ccbd ae88 edbd a8ff dfbd 4803 d0be
00000050: 4ae2 9ebd 34ea 49be 65ab ebbd e544 1abe
00000060: 6ca6 2bbe e46d a9be a42a bebd 8ded 9abc
00000070: 3bf9 73be c7e3 61be 5610 96be fa84 bebe
00000080: d11a 89be 16d3 7abe 5359 37be b916 53bd
00000090: fcd8 c9be cd1c 62be dfbc 6abe 0bd5 99be
000000a0: fb9e 74be 9297 d5be c536 a8be 4f69 9fbd
000000b0: eda9 efbe 1e5e 95be b608 43be 01be 0ebf
000000c0: 3c45 43be 30eb 36be 364f fbbe 069f 3fbe
000000d0: 288d 95bd 02c6 eabe 2202 0cbe b7ae db3b
000000e0: e1ec a6be 4a54 0fbf 1c0d d5be ed27 f6bd
000000f0: 715f 58be da7f 86be 2741 f1bd 8cc1 d5bc
00000100: ca7e f4be e08f 92be f0da a6bd 8f50 e6be
00000110: 35c2 6fbe 7105 6dbc 9e85 aebe fec7 ecbe
00000120: c2c2 0f3e d5c5 a7be fc59 ebbd dd34 b0bd
00000130: 38d9 0abe ea10 88bd cef1 d1be 1b0c b3be
00000140: 78dc 10bf ab30 09bf 1a57 83be c9fa ffbd
00000150: fc9c a7be ba50 08be b77f a4bd 1c31 b93e
00000160: 36d8 7cbd fe5d 23bf 4bfa 753c 16f7 5d3c
00000170: e910 28bd 2b72 eabd c9ee d3bc f379 13be
00000180: 7c0c 34be 0fa7 76be a6b2 86be 6380 e83b
00000190: c002 40be cbdd 82bd e980 a4be 3c61 17be
000001a0: d834 8abe 3ea8 a2be c863 06bf 0c33 e5bd
000001b0: 64b2 f0be 9cc2 8ebe 3f11 84bd e278 b8bd
000001c0: 2b42 0dbd e7b8 76be 5b93 15be 4e32 c6be
000001d0: 4dda d1be d99d bbbd 7f74 6fbe 4987 acbd
000001e0: 90c3 b1be 7f60 49be 7103 97be 4b0b 56be
000001f0: 6173 8fbe 7746 61be 2c71 65be 1473 76be
-0.4006188 -0.2273063 -0.28321588 -0.22774608 -0.18802884 -0.16440326 -0.18339513 -0.3270885
-0.2740913 -0.10899946 -0.5505619 -0.44736546 -0.30069238 -0.25732276 -0.05324801 -0.2236869
-0.099911936 -0.11598335 -0.109374344 -0.40627503 -0.07758005 -0.19718248 -0.115073 -0.15065344
-0.16762704 -0.33091652 -0.09285477 -0.018912101 -0.23825543 -0.22059546 -0.29309338 -0.37210828
-0.26778272 -0.24494585 -0.17905168 -0.051535342 -0.39423358 -0.22081299 -0.22923611 -0.3004535
-0.23888771 -0.417172 -0.32854286 -0.07783758 -0.4680933 -0.29173368 -0.19046292 -0.5575867
-0.1906938 -0.17863154 -0.4908387 -0.18713006 -0.07302314 -0.45854193 -0.13672689 0.0067041772
-0.326026 -0.5598799 -0.41611564 -0.12019334 -0.21130158 -0.26269418 -0.11780005 -0.026093267
-0.47752982 -0.28625393 -0.08147228 -0.44983336 -0.23413928 -0.014466629 -0.34086317 -0.46246332
0.14039138 -0.3276812 -0.114917725 -0.08603833 -0.13559425 -0.06643851 -0.41004795 -0.34970173
-0.5658641 -0.53589886 -0.2565239 -0.12499005 -0.32736957 -0.13312045 -0.08032172 0.3617028
-0.061729632 -0.63815296 0.015013288 0.013547679 -0.04103175 -0.11447557 -0.025870698 -0.14401989
-0.17582887 -0.24087165 -0.26308173 0.007095383 -0.18751049 -0.0638996 -0.321296 -0.14783186
-0.26993442 -0.31768984 -0.52496004 -0.11191377 -0.470111 -0.2788285 -0.06448602 -0.090074316
-0.03448693 -0.24093972 -0.14606993 -0.38710254 -0.40986863 -0.091609664 -0.23384283 -0.08424241
-0.34719515 -0.19665717 -0.29494813 -0.20902745 -0.28017715 -0.21999536 -0.22406453 -0.24067336

network_body.linear_encoder.seq_layers.2.weight f4 [128, 128]
00000000: 4a72 013f b798 d23e 8b6b 4bbd 8bc2 20bd
00000010: 9730 d0bd 2e68 4abe 5fe4 9dbe eb17 bb3e
00000020: 6b0c cfbd 3799 c53d 847e ac3d de64 f63d
00000030: 052c c33e 6241 67bd 986a 553d a010 0fbe
00000040: 7429 2dbd b401 49be c2f7 0d3e 8fb4 bc3e
00000050: 23ef c5be 04a5 58be ccb3 3e3e 971c ec3d
00000060: 3059 1ebe b54f 27bd 860b 09bd a349 793e
00000070: d1e6 5fbb f878 1ebd b4fa 683e 1572 f43e
00000080: 07ee babd c941 eb3d 8a0f b5bd 2789 6b3d
00000090: 0ef0 d8bd d41b f3bd 3f57 32bd 27fa adbe
000000a0: e3d2 b9be c41c a43e 2f3a e5be c7d8 36be
000000b0: 4545 abbe 1360 bc3e f016 85be e87d a43e
000000c0: d9f2 033f ae99 9a3e eea0 a3be 88dd 26be
000000d0: 38b8 f03d 0cea a33e 54c9 323a 6c1d 96bd
000000e0: d73f 72be 3fbb bb3e 827f d7bd 6adb 3b3e
000000f0: bc82 0d3d 411d e9bd e04c 4bbd 2a5c 503e
00000100: 0a99 273e bffd 66be c02e 933e 7629 9bbe
00000110: 9bd8 123e 424d e33d a125 a43e 5fe4 ae3e
00000120: 9282 f83e d957 05be f781 aa3e 4426 88be
00000130: d674 b0bd b6b3 f9bd f6eb 7e3e f241 703e
00000140: f893 bfbd 3314 8cbe 91db 943e 6c71 833b
00000150: 7734 6c3e c7fa f73d 10f3 ddbd 3300 3e3e
00000160: 861e 6c3e 979a 3a3e ca92 a13e a3c3 76be
00000170: 4bb5 b8bc f0bb b6bd 6c31 aabd b951 46be
00000180: f02e 983d 7bd1 ac3e 0493 da3d 49d1 933e
00000190: 7889 56bc f21e 6fbd 0e89 e23e 7d8d 3c3e
000001a0: 88fe d43d 6c93 79be dc4d 903e ad4d ae3d
000001b0: e116 0e3f 9f03 80bd 1f4c 123e 7a79 7a3e
000001c0: 0229 153e 7122 29bd 7baf d33d 15c1 67be
000001d0: 7052 9dbd bdce 303d d61f 04be 37dc a4be
000001e0: 4cdd 38be 16e0 9cbe f003 9cbe ce0b de3d
000001f0: c297 53be ef73 94be d5d7 053c 47f9 b83a
00000200: 1abd 243e 8771 503e 6752 1d3e 1d39 8ebd
00000210: c392 8bbe 5b25 33be 2e0d 813e e4d1 b9bd
00000220: e2f4 c4be 7d74 25bc a587 f83d e4d6 e8bd
00000230: f965 1d3e 722e 05bf 297b 2abd 7389 3fbe
00000240: 589a 90be 3214 5abe b694 b63c 0222 b2bd
00000250: dd0d 62be 6eb8 28be f86d 2fbd 6802 c3bb
00000260: ca08 91be c4f1 da3c 8adf 233e 984d d63b
00000270: 3dbd 6f3e 9486 93be b2e8 83bc 0a7a bb3d
00000280: 1dfd cf3c 4db8 06bf f807 69be 98ec 41be
00000290: f1a8 32be fd21 db3d 4522 0dbe 7003 9fbd
000002a0: 4631 a2be a987 ee3d db37 ba3d 6777 bdbe
000002b0: 5173 cebe 384c 333e 7a88 f53d abfe 31be
000002c0: 0383 3a3e 5065 39be 2aa1 0c3c ac5b 4c3e
000002d0: ac15 4c3d b390 a73d 8268 a73b 48f2 7bbe
000002e0: 62c5 40be fcbe 843e e84a 35be 45b3 843e
000002f0: 7820 503e a5ef 883e 2221 cfbe 53dc 63bd
00000300: 7918 a83d a549 b2be 0f30 3d3c 0ca3 4f3e
00000310: 8f44 18bd 7919 e2bd a957 e73d dd36 c53c
00000320: d655 4f3e 8010 1dbe 73f5 e4bc 4cef b0be
00000330: 98cd 6b3d 2fff 613e d9c1 dabd 85fb 083d
00000340: 4ec1 09bf df00 1abe ffc5 ac3d 06eb f3bd
00000350: 4672 3c3c 5dee 0b3e ad69 b3be 1b19 3ebe
00000360: db2e b9bd b1d8 a1bd 0eab 7cbd c0ca 1fbd
00000370: d2ec 49bd 07ff 6abe eecf 15be a9e5 02be
00000380: 3ab5 383e 13b5 29be eb18 01be f6ea f4bd
00000390: ac8b e33d da0f 08bf d67a 753e f266 90be
000003a0: 0d6e a2be 270d 03be 3003 f83d bd4b a13d
000003b0: 7da7 1cbe b5cb 2dbf d59d adbe 1363 0cbc
000003c0: 4dc9 8bbd 093c d1be 49ca 89be 3867 493d
000003d0: 4019 c6bc 66e5 92bd 875f cdbc 4967 243d
000003e0: ef79 36be 8dd4 89be 1166 433d 0568 7bbe
000003f0: 1324 01be 9172 25bd 30b8 c43e 75bb 463d
0.50565016 0.41132137 -0.049663108 -0.03924803 -0.10165518 -0.19766304 -0.30838296 0.36541685
-0.101097904 0.09648364 0.084225684 0.12030958 0.38119522 -0.05645884 0.05210361 -0.13971186
-0.04227586 -0.19629556 0.13864043 0.36856505 -0.3865901 -0.21156698 0.18623275 0.115288906
-0.1546371 -0.0408475 -0.033458255 0.24344496 -0.0034164677 -0.038689584 0.22751886 0.47743288
-0.09127431 0.11487157 -0.088408545 0.057503846 -0.10592662 -0.11870542 -0.043540236 -0.33979914
-0.36293706 0.32053196 -0.44770953 -0.17856131 -0.33451286 0.3679205 -0.25994062 0.3212731
0.5154243 0.30195373 -0.31958717 -0.16295445 0.11753887 0.320145 0.00068201614 -0.073298305
-0.23657165 0.36666295 -0.10522367 0.18345419 0.034548506 -0.11382533 -0.04963386 0.20347658
0.16366974 -0.22557734 0.28746605 -0.3030507 0.14340441 0.1109872 0.3205996 0.34158608
0.48537117 -0.13021792 0.3330228 -0.26591694 -0.08616035 -0.1219248 0.248947 0.23462656
-0.09354395 -0.2735916 0.29073766 0.0040113237 0.23066889 0.12108379 -0.10837376 0.18554763
0.23058519 0.18223034 0.31557304 -0.24098067 -0.022547385 -0.08922565 -0.08310208 -0.19367112
0.074308276 0.3375357 0.10672572 0.2887061 -0.013094299 -0.05837912 0.4424519 0.18413348
0.104001105 -0.24372643 0.28184402 0.08510909 0.5550366 -0.06250691 0.1428685 0.24460402
0.14566424 -0.04129261 0.103362046 -0.22632249 -0.07681739 0.04316591 -0.1290277 -0.3219926
-0.18053168 -0.30639714 -0.30471754 0.10842095 -0.2066336 -0.289947 0.008169134 0.0014112376
0.16087762 0.20355807 0.15363465 -0.06944487 -0.27260408 -0.17494719 0.25205368 -0.090732366
-0.3846808 -0.010098574 0.12135247 -0.11369112 0.1537093 -0.52023995 -0.04162136 -0.18704776
-0.28242755 -0.21296766 0.022287708 -0.08697893 -0.22075601 -0.16476604 -0.042829484 -0.0059512146
-0.28327018 0.026726611 0.16003242 0.0065400116 0.23412032 -0.28813612 -0.016102169 0.091541365
0.025389249 -0.5262497 -0.22756946 -0.1893791 -0.17447259 0.10699842 -0.13782604 -0.077643275
-0.31678218 0.11646969 0.09092685 -0.3700516 -0.40322354 0.17509544 0.119889215 -0.17382304
0.1821404 -0.18105054 0.008583346 0.19956845 0.049825355 0.08181896 0.005108894 -0.24604142
-0.18825296 0.2592696 -0.17704356 0.25918022 0.20324886 0.26745334 -0.40454966 -0.05563004
0.08207793 -0.3482181 0.011547103 0.20277041 -0.037174758 -0.11040015 0.11296017 0.024074012
0.20247588 -0.15338326 -0.02794907 -0.3455757 0.057569116 0.22070001 -0.10681505 0.033442993
-0.53810585 -0.15039395 0.08436202 -0.119100615 0.011501854 0.13665147 -0.35041562 -0.18564264
-0.0904214 -0.07902659 -0.061686568 -0.039011717 -0.049298115 -0.22948848 -0.146301 -0.12782921
0.18037882 -0.1657298 -0.12607162 -0.11958878 0.11110625 -0.5314919 0.2397264 -0.2820354
-0.31724587 -0.12797986 0.12109983 0.07875774 -0.15298267 -0.6788896 -0.3390948 -0.008568543
-0.068255045 -0.40866116 -0.26912144 0.049170703 -0.024181962 -0.071726605 -0.025069965 0.040137563
-0.17819951 -0.26919976 0.04770476 -0.24551399 -0.12611417 -0.040392462 0.38421774 0.048518617
