results/test5/HitTheBall/checkpoint.pt (torch, 150559 bytes, 13 tensors)

network_body.linear_encoder.seq_layers.0.weight f4 [128, 6]
0.8869575 -0.37640497 -0.4073215 0.5482596 0.48928455 0.06537456 -0.38797292 0.36924118
0.4627985 -0.29803863 0.19856334 -0.06732265 -0.45465598 -0.5196307 0.021891903 0.54356164
-0.39207652 0.51296335 0.16720457 -0.5252026 0.35339254 0.013379647 0.42794818 -0.08270301
0.2676478 0.38314727 0.192375 -0.73218584 0.44149044 -0.3532788 -0.1623 0.5746975
-0.65860415 0.10417761 0.2050134 -0.05208036 -0.18885563 0.19897932 -0.68327206 0.13956362
-0.4185636 0.90698016 0.16813491 -0.05356221 -0.17454024 -0.2005647 -0.22432536 0.31823295
-0.42679346 -0.5214649 -0.6512503 0.4027371 0.7900083 -0.07984908 -0.08868177 -0.32048285
-0.2636829 -0.25479448 0.41445974 -0.37332556 -0.40890715 0.010769824 0.45074797 0.16498648
-0.77671164 -0.0423625 0.25022554 0.12531936 0.14133632 0.28596535 0.77970695 -0.0641893
-0.52602476 0.3303224 -0.041674055 0.5996958 -0.3955073 -0.5537298 -0.096557744 0.19223112
0.33278248 -0.2969268 0.108479485 -0.312886 0.6355195 0.1637404 0.23592098 0.07367322
-0.1674027 -0.42988744 -0.17839904 0.38144663 0.28479865 -0.26749212 -0.3455455 -0.58472145
0.33951268 0.0878061 0.3936332 -0.08822062 -0.35481462 -0.49118814 0.44775164 0.010143027
-0.06288954 -0.25293645 0.21649839 -0.053122595 0.17477016 0.18129073 0.71908975 -0.37096888
0.04974359 0.56299835 -0.13926813 0.69920915 -0.08255488 -0.7167114 -1.0125142 -0.1329538
1.1176994 -0.57733864 0.48094267 0.15872419 0.2593638 0.23781298 -0.09118816 0.28652412
0.2687843 -0.45093417 0.029209055 0.39038172 0.2773285 0.021296252 0.17176203 0.453808
0.121881515 0.6758142 -0.46604455 -0.32030225 -0.31083283 -0.06612776 0.4445974 0.2559141
-0.41714945 0.38251758 -0.24022906 -0.35532922 0.13901481 0.3974702 -0.26856527 0.2016082
-0.11402925 0.3725365 -0.43588167 0.11121955 -0.09257572 -0.507628 -0.5676706 -0.4189021
0.18852182 -0.3275726 0.1164006 0.30722737 0.708649 -0.24701804 -0.30035612 0.13082352
-0.263593 -0.023464236 0.16940711 0.16773012 -0.07679382 -0.12996337 -0.08202675 0.4301426
-0.2580342 -0.37121868 0.55928916 0.013723152 -0.5780532 0.6135995 -0.39291307 0.6668844
-0.27126387 -0.12938234 0.7092431 0.11071252 0.4018339 -0.1853232 0.15871727 0.9665932
-0.18063757 0.124521635 -0.16914952 -0.28915945 -0.5219055 -0.44692066 0.061338834 0.60611933
-0.007724585 0.8305802 -0.17308259 0.06916918 0.17547266 0.54705 -0.6470754 0.47596112
-0.0056033414 0.30384764 -0.5815439 0.09405987 -0.35730177 0.4713074 0.10587277 -0.5724151
0.05644433 -0.23672047 0.1360365 -0.21743253 -0.49845672 0.48488578 0.1969867 0.15136419
-0.076306604 -0.36435354 0.40732118 -0.2410422 0.13735546 0.6220231 0.29798716 0.30553332
-0.08052593 -0.47938076 0.2516396 0.26247227 -0.34333485 0.4421419 0.12778994 -0.10966232
-0.35583624 -0.03358248 0.52430826 0.5816036 0.14626831 -0.60510224 -0.098188266 0.13742876
-0.31580207 0.31638908 0.14342384 0.6211534 -0.6326336 0.37829953 -0.32787368 0.0145355575
00000000: a60f 633f 27b8 c0be 728c d0be be5a 0c3f
00000010: 8183 fa3e 19e3 853d 63a4 c6be 2e0d bd3e
00000020: edf3 ec3e 8598 98be 3054 4b3e 75e0 89bd
00000030: abc8 e8be 8406 05bf a656 b33c db26 0b3f
00000040: 41be c8be 9151 033f ad37 2b3e ad73 06bf
00000050: deef b43e 4f36 5b3c 061c db3e 3260 a9bd
00000060: 2209 893e e12b c43e f4fd 443e 8870 3bbf
00000070: 090b e23e f5e0 b4be f931 26be 601f 133f
00000080: 489a 28bf 125b d53d 08ef 513e 3752 55bd
00000090: 5f63 41be 3cc1 4b3e ebea 2ebf c4e9 0e3e
000000a0: f84d d6be da2f 683f 8f2b 2c3e 0c64 5bbd
000000b0: adba 32be d560 4dbe 8cb5 65be 6eef a23e
000000c0: ac84 dabe b97e 05bf 57b8 26bf 8f33 ce3e
000000d0: fc3d 4a3f ea87 a3bd ca9e b5bd 5416 a4be
000000e0: 7201 87be 6c74 82be 1134 d43e 8724 bfbe
000000f0: 475c d1be ea73 303c 70c8 e63e 37f2 283e
00000100: 93d6 46bf 4d84 2dbd 901d 803e b853 003e
00000110: 78ba 103e 0d6a 923e e09a 473f ae75 83bd
00000120: 8fa9 06bf 0520 a93e 6ab2 2abd aa85 193f
00000130: ef7f cabe 3cc1 0dbf 11c0 c5bd 3cd8 443e
00000140: 7762 aa3e ca06 98be 7e2a de3d 9832 a0be
00000150: 68b1 223f 90ab 273e 4595 713e fce1 963d
00000160: 9d6b 2bbe 351a dcbe 3dae 36be f94c c33e
00000170: 21d1 913e baf4 88be 57eb b0be 4eb0 15bf
00000180: 9bd4 ad3e afd3 b33d 4a8a c93e 03ad b4bd
00000190: 43aa b5be 037d fbbe b43f e53e f02e 263c
000001a0: 3bcc 80bd e380 81be c1b1 5d3e 1497 59bd
000001b0: f3f6 323e 47a4 393e 4416 383f a2ef bdbe
000001c0: efbf 4b3d a920 103f 4e9c 0ebe 5fff 323f
000001d0: 8812 a9bd 667a 37bf 119a 81bf 0a25 08be
000001e0: c610 8f3f 77cc 13bf 1e3e f63e 9888 223e
000001f0: 55cb 843e 3f85 733e dcc0 babd 4ab3 923e
00000200: 199e 893e d8e0 e6be d447 ef3c 1de0 c73e
00000210: 00fe 8d3e 7a75 ae3c 63e2 2f3e 8659 e83e
00000220: 049d f93d 2902 2d3f 649d eebe a8fe a3be
00000230: 7b25 9fbe fe6d 87bd 45a2 e33e 2c07 833e
00000240: 9d94 d5be 58d9 c33e 9bfe 75be b6ed b5be
00000250: e659 0e3e 3781 cb3e 6381 89be 6172 4e3e
00000260: 2b88 e9bd 1bbd be3e e22b dfbe 13c7 e33d
00000270: 5798 bdbd e9f3 01bf dc52 11bf 567a d6be
00000280: dd0b 413e 99b7 a7be 7063 ee3d e84c 9d3e
00000290: 056a 353f 4cf2 7cbe 47c8 99be 9af6 053e
000002a0: a9f5 86be 1238 c0bc 0f79 2d3e 72c1 2b3e
000002b0: 1446 9dbd 1e15 05be a4fd a7bd a73b dc3e
000002c0: 0f1d 84be 6010 bebe 932d 0f3f 12d7 603c
000002d0: 4bfb 13bf db14 1d3f e72b c9be f0b8 2a3f
000002e0: 19e3 8abe ce7c 04be f590 353f 3fbd e23d
000002f0: 2cbd cd3e 5dc5 3dbe c886 223e a772 773f
00000300: 0ef9 38be 3305 ff3d 8835 2dbe b50c 94be
00000310: 999b 05bf c9d2 e4be 6e3e 7b3d a32a 1b3f
00000320: 841e fdbb e7a0 543f 903c 31be 92a8 8d3d
00000330: 1baf 333e 780b 0c3f bca6 25bf 2db1 f33e
00000340: 3c9c b7bb eb91 9b3e 10e0 14bf 76a2 c03d
00000350: 42f0 b6be 344f f13e d3d3 d83d cc89 12bf
00000360: 2b32 673d da66 72be 274d 0b3e a2a6 5ebe
00000370: b835 ffbe f342 f83e e2b6 493e 37ff 1a3e
00000380: a346 9cbd 8c8c babe 678c d03e c4d3 76be
00000390: e9a6 0c3e e83c 1f3f c691 983e dd6e 9c3e
000003a0: c7ea a4bd 6571 f5be e8d6 803e c462 863e
000003b0: 96c9 afbe 6c60 e23e 5edb 023e a396 e0bd
000003c0: 2b30 b6be c88d 09bd 1139 063f f9e3 143f
000003d0: 5cc7 153e fbe7 1abf ee16 c9bd 20ba 0c3e
000003e0: cfb0 a1be c0fd a13e b3dd 123e e903 1f3f
000003f0: 47f4 21bf 7ab0 c13e 0fdf a7be 8c26 6e3c

network_body.linear_encoder.seq_layers.0.bias f4 [128]
0.0 0.0 0.0 0.0 0.0 0.0 0.0 0.0
0.0 0.0 0.0 0.0 0.0 0.0 0.0 0.0
0.0 0.0 0.0 0.0 0.0 0.0 0.0 0.0
0.0 0.0 0.0 0.0 0.0 0.0 0.0 0.0
0.0 0.0 0.0 0.0 0.0 0.0 0.0 0.0
0.0 0.0 0.0 0.0 0.0 0.0 0.0 0.0
0.0 0.0 0.0 0.0 0.0 0.0 0.0 0.0
0.0 0.0 0.0 0.0 0.0 0.0 0.0 0.0
0.0 0.0 0.0 0.0 0.0 0.0 0.0 0.0
0.0 0.0 0.0 0.0 0.0 0.0 0.0 0.0
0.0 0.0 0.0 0.0 0.0 0.0 0.0 0.0
0.0 0.0 0.0 0.0 0.0 0.0 0.0 0.0
0.0 0.0 0.0 0.0 0.0 0.0 0.0 0.0
0.0 0.0 0.0 0.0 0.0 0.0 0.0 0.0
0.0 0.0 0.0 0.0 0.0 0.0 0.0 0.0
0.0 0.0 0.0 0.0 0.0 0.0 0.0 0.0
00000000: 0000 0000 0000 0000 0000 0000 0000 0000
00000010: 0000 0000 0000 0000 0000 0000 0000 0000
00000020: 0000 0000 0000 0000 0000 0000 0000 0000
00000030: 0000 0000 0000 0000 0000 0000 0000 0000
00000040: 0000 0000 0000 0000 0000 0000 0000 0000
00000050: 0000 0000 0000 0000 0000 0000 0000 0000
00000060: 0000 0000 0000 0000 0000 0000 0000 0000
00000070: 0000 0000 0000 0000 0000 0000 0000 0000
00000080: 0000 0000 0000 0000 0000 0000 0000 0000
00000090: 0000 0000 0000 0000 0000 0000 0000 0000
000000a0: 0000 0000 0000 0000 0000 0000 0000 0000
000000b0: 0000 0000 0000 0000 0000 0000 0000 0000
000000c0: 0000 0000 0000 0000 0000 0000 0000 0000
000000d0: 0000 0000 0000 0000 0000 0000 0000 0000
000000e0: 0000 0000 0000 0000 0000 0000 0000 0000
000000f0: 0000 0000 0000 0000 0000 0000 0000 0000
00000100: 0000 0000 0000 0000 0000 0000 0000 0000
00000110: 0000 0000 0000 0000 0000 0000 0000 0000
00000120: 0000 0000 0000 0000 0000 0000 0000 0000
00000130: 0000 0000 0000 0000 0000 0000 0000 0000
00000140: 0000 0000 0000 0000 0000 0000 0000 0000
00000150: 0000 0000 0000 0000 0000 0000 0000 0000
00000160: 0000 0000 0000 0000 0000 0000 0000 0000
00000170: 0000 0000 0000 0000 0000 0000 0000 0000
00000180: 0000 0000 0000 0000 0000 0000 0000 0000
00000190: 0000 0000 0000 0000 0000 0000 0000 0000
000001a0: 0000 0000 0000 0000 0000 0000 0000 0000
000001b0: 0000 0000 0000 0000 0000 0000 0000 0000
000001c0: 0000 0000 0000 0000 0000 0000 0000 0000
000001d0: 0000 0000 0000 0000 0000 0000 0000 0000
000001e0: 0000 0000 0000 0000 0000 0000 0000 0000
000001f0: 0000 0000 0000 0000 0000 0000 0000 0000

network_body.linear_encoder.seq_layers.2.weight f4 [128, 128]
-0.05527873 0.113939725 0.04332275 -0.06829607 0.09350092 0.24490319 -0.15465763 0.07046594
0.0502814 -0.1309298 0.070570804 0.057971925 0.009290505 0.17504907 0.014772657 -0.09019627
-0.016081026 0.040516432 -0.016288944 0.002883551 -0.08240738 0.090553895 -0.17306712 0.013584082
0.086353034 0.0048910608 -0.13687521 0.10864328 0.04705525 -0.02334185 -0.11787532 0.043759763
-0.031053998 0.11048773 0.038978923 -0.29912847 -0.17299107 0.022621306 -0.16544773 0.20883583
-0.05264299 0.12701218 -0.060793374 -0.007286151 -0.045043923 -0.06029843 -0.13726182 0.08513155
-0.096259356 -0.1090758 0.06928478 -0.06424279 -0.011767564 -0.08446223 0.02957783 -0.00609959
-0.033385232 0.016796118 -0.015209152 0.08847984 -0.09257997 0.15200518 -0.20838228 0.114649385
0.08812769 -0.041555475 0.17817527 0.033751186 -0.03502437 0.08505148 0.11444382 -0.026750749
0.30874214 0.17788467 0.04115027 -0.021045798 0.0111503955 -0.04285765 0.14321257 0.10149185
-0.18196443 0.05938052 -0.0026781028 0.057317697 0.20169115 -0.090257265 -0.022805199 0.041141868
0.01190009 0.10408725 -0.03892837 0.06901074 4.8040107e-05 0.075270526 0.04217834 0.14302443
-0.0018992252 -0.00531678 0.026626429 -0.0044212015 -0.065546304 0.16437969 -0.19034229 -0.03784236
0.07639885 -0.04848155 0.02127694 -0.016862199 -0.13793495 0.044102173 -0.034304503 0.042216703
-0.17144032 0.26517552 -0.025804233 0.041069284 0.007411414 0.0023464353 0.062754646 0.08994102
-0.016090067 0.086061426 0.026386574 -0.07896052 -0.13526021 0.0388684 0.060269393 -0.030756319
-0.13198817 -0.05483424 0.0071785524 0.0659251 0.112046055 -0.10391155 0.08495666 0.023991834
0.011339375 -0.057623796 0.12446582 0.12320441 0.008077923 -0.10238103 -7.403834e-05 0.05519703
0.06070798 0.028793035 0.08223705 -0.16364898 -0.16104774 0.07652569 -0.05019708 -0.018806897
-0.027906563 0.1593218 0.07466332 0.0043320744 0.071641915 0.040377315 0.011681412 0.17788924
0.16091411 -0.025784688 0.13791959 0.03476121 -0.009299212 0.08303923 0.032840174 -0.23407727
0.059174944 -0.029747011 0.0144402 0.035090305 -0.01661396 -0.1443246 -0.11582277 -0.08874303
-0.11407983 -0.03732405 0.092179336 0.05816954 0.05249085 -0.063116394 -0.076379664 0.0565037
0.07725436 -0.017529758 0.020763502 -0.0040986296 -0.03233117 0.09503776 -0.06446232 0.16178441
0.025644952 0.1426161 0.05388528 0.14166984 -0.010024571 0.1414962 -0.07899874 -0.043854665
0.101742566 -0.13595319 -0.115170024 -0.008649365 0.028011864 -0.0008070679 -0.07860983 0.12916295
-0.0587902 0.07782964 0.1769339 0.00093080883 -0.03983742 -0.07633188 0.048859324 -0.07048125
0.025838163 0.019022785 -0.061574534 -0.014258198 -0.004207353 0.024573755 0.032141972 -0.01095345
0.11591866 0.024980169 -0.093917824 -0.07280702 -0.14436899 0.04928882 0.06297656 0.053605933
0.045758106 0.06022026 -0.10269633 0.0036456229 -0.08349035 0.13264251 -0.0024670074 -0.012516823
-0.10907638 -0.056121573 -0.21356349 -0.03716655 0.068768375 0.17909099 -0.08892185 -0.078166954
-0.064423524 -0.13527952 0.011432341 -0.007624527 -0.059693377 -0.040963046 -0.06128939 0.0058067814
00000000: f36b 62bd 3b59 e93d 3273 313d cfde 8bbd
00000010: 697d bf3d e7c7 7a3e 925e 1ebe 7250 903d
00000020: dff3 4d3d 7612 06be 6d87 903d f873 6d3d
00000030: 3437 183c 1040 333e 0409 723c d2b8 b8bd
00000040: 5bbc 83bc 8ff4 253d 6470 85bc f5f9 3c3b
00000050: 33c5 a8bd 5274 b93d 8238 31be c58f 5e3c
00000060: dcd9 b03d 3145 a03b 0429 0cbe 5e80 de3d
00000070: 01bd 403d 6837 bfbc 9e68 f1bd 703d 333d
00000080: f464 febc 6447 e23d 5da8 1f3d 5e27 99be
00000090: 9224 31be 5150 b93c 216b 29be 0fd9 553e
000000a0: 2da0 57bd 7b0f 023e 7902 79bd aac0 eebb
000000b0: fa7f 38bd 7dfb 76bd 5d8e 0cbe 7359 ae3d
000000c0: a023 c5bd 2263 dfbd 2ee5 8d3d b991 83bd
000000d0: becc 40bc 89fa acbd 354d f23c 12df c7bb
000000e0: f4be 08bd 0398 893c cf2f 79bc eb34 b53d
000000f0: 919a bdbd 3fa7 1b3e 2a62 55be 4ccd ea3d
00000100: 4a7c b43d 1336 2abd 9473 363e af3e 0a3d
00000110: b775 0fbd 782f ae3d 8661 ea3d 6324 dbbc
00000120: 7313 9e3e 6627 363e 2f8d 283d 3d68 acbc
00000130: 26b0 363c 818b 2fbd 51a6 123e f6da cf3d
00000140: e254 3abe fd38 733d 1c83 2fbb f6c5 6a3d
00000150: 2088 4e3e cdd8 b8bd f8d1 babc 6084 283d
00000160: 98f8 423c b22b d53d 5b73 1fbd 8155 8d3d
00000170: ac7e 4938 6f27 9a3d 32c3 2c3d ff74 123e
00000180: 6cef f8ba 6238 aebb ab1f da3c badf 90bb
00000190: 243d 86bd 2653 283e 17e9 42be 9700 1bbd
000001a0: 0077 9c3d 9794 46bd fa4c ae3c 9822 8abc
000001b0: d23e 0dbe 7ba4 343d e182 0cbd 6ceb 2c3d
000001c0: 0d8e 2fbe 16c5 873e 6663 d3bc 4438 283d
000001d0: 72db f23b a7c6 193b 8285 803d ff32 b83d
000001e0: 51cf 83bc f940 b03d a828 d83c 0eb6 a1bd
000001f0: a781 0abe 7934 1f3d 0add 763d adf4 fbbc
00000200: e827 07be de99 60bd 103a eb3b bd03 873d
00000210: 6778 e53d 94cf d4bd c2fd ad3d 868a c43c
00000220: c9c8 393c ee06 6cbd f0e7 fe3d 9852 fc3d
00000230: 4459 043c 25ad d1bd 0845 9bb8 4816 623d
00000240: eea8 783d 5fdf eb3c e66b a83d 9993 27be
00000250: b3e9 24be 80b9 9c3d 749b 4dbd ec10 9abc
00000260: 4e9c e4bc 4125 233e 15e9 983d 13f4 8d3b
00000270: ffb8 923d af62 253d 6563 3f3c 9928 363e
00000280: abc6 243e 693a d3bc cb3a 0d3e c561 0e3d
00000290: b95b 18bc 7910 aa3d 6b83 063d f4b1 6fbe
000002a0: 6d61 723d 01b0 f3bc 9796 6c3c daba 0f3d
000002b0: 001a 88bc d4c9 13be 7d34 edbd e8be b5bd
000002c0: b0a2 e9bd 1ae1 18bd 85c8 bc3d 2f43 6e3d
000002d0: a500 573d 2b43 81bd f16c 9cbd 6c70 673d
000002e0: 8937 9e3d 919a 8fbc 3818 aa3c cc4d 86bb
000002f0: b06d 04bd 28a3 c23d d204 84bd d0aa 253e
00000300: 5d15 d23c f409 123e d0b6 5c3d e611 113e
00000310: 193e 24bc 61e4 103e 17ca a1bd f3a0 33bd
00000320: 685e d03d 5037 0bbe 43de ebbd 11b6 0dbc
00000330: 2379 e53c 6991 53ba 31fe a0bd 4b43 043e
00000340: fecd 70bd 2565 9f3d 292e 353e 8601 743a
00000350: 902c 23bd e453 9cbd b720 483d 7958 90bd
00000360: 8eaa d33c acd5 9b3c 9435 7cbd 389b 69bc
00000370: d6dd 89bb e64e c93c 4da7 033d 1976 33bc
00000380: c366 ed3d 36a3 cc3c fd57 c0bd d91b 95bd
00000390: 77d5 13be 13e3 493d dbf9 803d e591 5b3d
000003a0: da6c 3b3d 85a9 763d 7452 d2bd 67eb 6e3b
000003b0: fdfc aabd 70d3 073e 84ad 21bb 5c13 4dbc
000003c0: 7063 dfbd bcdf 65bd 63b0 5abe f43b 18bd
000003d0: 6fd6 8c3d a163 373e a91c b6bd ff15 a0bd
000003e0: 7bf0 83bd b786 0abe b74e 3b3c 2bd7 f9bb
000003f0: 0b81 74bd dec8 27bd 950a 7bbd d046 be3b

network_body.linear_encoder.seq_layers.2.bias f4 [128]
0.0 0.0 0.0 0.0 0.0 0.0 0.0 0.0
0.0 0.0 0.0 0.0 0.0 0.0 0.0 0.0
0.0 0.0 0.0 0.0 0.0 0.0 0.0 0.0
0.0 0.0 0.0 0.0 0.0 0.0 0.0 0.0
0.0 0.0 0.0 0.0 0.0 0.0 0.0 0.0
0.0 0.0 0.0 0.0 0.0 0.0 0.0 0.0
0.0 0.0 0.0 0.0 0.0 0.0 0.0 0.0
0.0 0.0 0.0 0.0 0.0 0.0 0.0 0.0
0.0 0.0 0.0 0.0 0.0 0.0 0.0 0.0
0.0 0.0 0.0 0.0 0.0 0.0 0.0 0.0
0.0 0.0 0.0 0.0 0.0 0.0 0.0 0.0
0.0 0.0 0.0 0.0 0.0 0.0 0.0 0.0
0.0 0.0 0.0 0.0 0.0 0.0 0.0 0.0
0.0 0.0 0.0 0.0 0.0 0.0 0.0 0.0
0.0 0.0 0.0 0.0 0.0 0.0 0.0 0.0
0.0 0.0 0.0 0.0 0.0 0.0 0.0 0.0
00000000: 0000 0000 0000 0000 0000 0000 0000 0000
00000010: 0000 0000 0000 0000 0000 0000 0000 0000
00000020: 0000 0000 0000 0000 0000 0000 0000 0000
00000030: 0000 0000 0000 0000 0000 0000 0000 0000
00000040: 0000 0000 0000 0000 0000 0000 0000 0000
00000050: 0000 0000 0000 0000 0000 0000 0000 0000
00000060: 0000 0000 0000 0000 0000 0000 0000 0000
00000070: 0000 0000 0000 0000 0000 0000 0000 0000
00000080: 0000 0000 0000 0000 0000 0000 0000 0000
00000090: 0000 0000 0000 0000 0000 0000 0000 0000
000000a0: 0000 0000 0000 0000 0000 0000 0000 0000
000000b0: 0000 0000 0000 0000 0000 0000 0000 0000
000000c0: 0000 0000 0000 0000 0000 0000 0000 0000
000000d0: 0000 0000 0000 0000 0000 0000 0000 0000
000000e0: 0000 0000 0000 0000 0000 0000 0000 0000
000000f0: 0000 0000 0000 0000 0000 0000 0000 0000
00000100: 0000 0000 0000 0000 0000 0000 0000 0000
00000110: 0000 0000 0000 0000 0000 0000 0000 0000
00000120: 0000 0000 0000 0000 0000 0000 0000 0000
00000130: 0000 0000 0000 0000 0000 0000 0000 0000
00000140: 0000 0000 0000 0000 0000 0000 0000 0000
00000150: 0000 0000 0000 0000 0000 0000 0000 0000
00000160: 0000 0000 0000 0000 0000 0000 0000 0000
00000170: 0000 0000 0000 0000 0000 0000 0000 0000
00000180: 0000 0000 0000 0000 0000 0000 0000 0000
00000190: 0000 0000 0000 0000 0000 0000 0000 0000
000001a0: 0000 0000 0000 0000 0000 0000 0000 0000
000001b0: 0000 0000 0000 0000 0000 0000 0000 0000
000001c0: 0000 0000 0000 0000 0000 0000 0000 0000
000001d0: 0000 0000 0000 0000 0000 0000 0000 0000
000001e0: 0000 0000 0000 0000 0000 0000 0000 0000
000001f0: 0000 0000 0000 0000 0000 0000 0000 0000

action_model._continuous_distribution.log_sigma f4 [1, 2]
0.0 0.0
00000000: 0000 0000 0000 0000

action_model._continuous_distribution.mu.weight f4 [2, 128]
-0.021303548 0.013814404 -0.031461433 0.0012550913 -0.0049837288 -0.018309446 -0.009984786 -0.00850512
-0.023461161 0.01675552 0.013178388 -0.0024285947 -0.002155164 0.021868682 -2.7005988e-05 0.024815023
0.025250692 -0.014540352 -0.007332278 0.0046528466 0.041346233 0.014539058 0.014683837 0.008894074
-0.009685336 0.009834568 0.014500654 0.006107564 0.0019022899 0.021929743 -0.027321024 0.02577344
0.01235122 0.037004706 -0.0019588312 0.020232104 0.01166598 0.020596005 -0.00694498 -0.020740665
-0.0035145525 0.010291954 0.0036032002 0.0061685084 -0.042623583 0.028567506 0.030440569 -0.013414239
-0.0010814978 -0.018375965 -0.007458888 -0.018108496 -0.014520836 0.013743164 -0.019011738 -0.0008334247
0.006816596 0.013026075 0.030343091 -0.028271962 -0.004079195 -0.005198426 -0.016105946 0.023152078
0.028339261 -0.02705274 -0.00037424074 -0.00061181607 -0.00093690556 -0.04776938 -0.041907176 -0.00040546688
0.008863358 0.0016561328 0.017540425 0.012586221 0.010850903 -0.018322323 -0.026665688 0.015586751
-0.0050313645 -0.010206006 0.009683663 7.1148446e-05 -0.012834509 0.0071421377 -0.0052757687 0.007965361
-0.0007984671 -0.012334897 -0.0027135413 -0.020234335 0.011374123 -0.0026956287 0.013913527 0.0062980168
0.02580956 -0.011168863 0.019326815 0.0039048702 0.021413235 -0.03312553 -0.007508091 0.011553105
-0.027579248 0.022648653 0.019570956 -0.012387892 -0.0036425602 0.0022194076 -0.00249204 -0.0040616174
-0.028959611 0.007370499 -0.008606981 0.012501361 0.01921462 -0.0039307675 0.024674779 -0.023267593
-0.02353066 0.014822694 0.01045509 0.019065304 0.030759359 -0.04140593 -0.0054747723 0.015619001
0.013780358 -0.015083416 -0.043335196 0.022962218 0.0032061432 0.00061100343 0.015262551 -0.015988654
0.027870847 0.0040879366 -0.036200225 -0.0088193985 0.002145564 0.0058076447 0.0073580393 -0.027331132
-0.013668159 0.0019121822 0.0014314026 -0.010926261 0.010893848 0.0019121701 -0.020595236 -0.028920596
0.025561953 0.009260219 0.0063717933 0.017505342 -0.01815692 0.022717375 0.008075214 -0.008090197
-0.011222267 0.02260851 0.027204012 -0.0014657093 -0.012181702 -0.005796149 0.031100178 0.02009446
-0.012305371 -0.05082689 -0.015633779 -0.0008851613 -0.0008378626 0.04163825 0.0011866599 0.020126142
0.009940366 -0.017520523 -0.050884258 0.020878049 -0.008804595 0.03603522 -0.011433961 0.011686404
-0.0037587842 -0.011259003 -0.01649811 -0.007895812 -0.021475788 0.026157636 0.013171929 -0.007186759
0.009693327 -0.011701583 -0.033448108 -0.016901923 0.022342732 0.00131314 -0.008636448 0.0011463792
-0.016562438 0.009943451 0.0025795011 0.02499525 0.008823841 0.01219785 0.0066768522 -0.031889062
0.015962321 0.013692302 0.005061513 0.0022237177 -0.03296002 -0.031537652 -0.02281276 0.035021268
-0.0035895437 -0.009209907 0.02252708 -0.0112468265 0.015610136 0.008509713 -0.02375765 -0.03117076
-0.0040023667 -0.007465526 -0.0038124823 0.019984296 0.02710609 -0.0008570224 0.012768186 -0.043532383
0.0116251195 0.016028713 0.012870631 -0.008787549 -0.011700385 0.0099139465 0.013442422 -0.012906413
-0.040558018 -0.01148017 -0.0065008164 0.008578001 -0.0137009425 -0.005605008 0.014910444 0.0052914773
-0.013842297 0.0033858605 0.008028346 -0.019139111 -0.009144197 0.030377476 -0.03722502 -0.033252846
00000000: c784 aebc cf55 623c b4dd 00bd e081 a43a
00000010: 8c4e a3bb b1fd 95bc 3a97 23bc 0f59 0bbc
00000020: 9f31 c0bc df42 893c 2aea 573c 0f29 1fbb
00000030: a73d 0dbb f325 b33c eb8a e2b7 e048 cb3c
00000040: 8ada ce3c a83a 6ebc 9b43 f0bb e876 983b
00000050: ab5a 293d 3b35 6e3c 7a94 703c 73b8 113c
00000060: 3eaf 1ebc 2b21 213c 2794 6d3c f621 c83b
00000070: 4256 f93a 01a6 b33c 57d0 dfbc d222 d33c
00000080: c55c 4a3c 3f92 173d bc5f 00bb ccbd a53c
00000090: ab22 3f3c f4b8 a83c b792 e3bb 54e8 a9bc
000000a0: 6854 66bb 959f 283c ab23 6c3b 3321 ca3b
000000b0: 1196 2ebd 6706 ea3c 805e f93c 65c7 5bbc
000000c0: 0bc1 8dba 3189 96bc b069 f4bb 4558 94bc
000000d0: cde8 6dbc 022b 613c 81be 9bbc 2f7a 5aba
000000e0: c05d df3b 526b 553c 1392 f83c 9a9a e7bc
000000f0: c5aa 85bb 8f57 aabb 9ef0 83bc 6da9 bd3c
00000100: bd27 e83c b59d ddbc be35 c4b9 4862 20ba
00000110: ab9a 75ba d3a9 43bd dca6 2bbd d894 d4b9
00000120: 9e37 113c 9812 d93a f0b0 8f3c 7036 4e3c
00000130: fcc7 313c b218 96bc 0072 dabc 925f 7f3c
00000140: 25de a4bb 1737 27bc 3aa8 1e3c 8835 9538
00000150: d547 52bc 9808 ea3b 5be0 acbb 2581 023c
00000160: 3850 51ba 4f18 4abc abd5 31bb 7ac2 a5bc
00000170: 885a 3a3c 25a9 30bb 90f5 633c 985f ce3b
00000180: 926e d33c 9bfd 36bc 4553 9e3c dae8 7f3b
00000190: cf6a af3c a3ae 07bd 6f06 f6bb 3c49 3d3c
000001a0: e0ed e1bc ab89 b93c 4553 a03c 96f6 4abc
000001b0: 05b8 6ebb 7b73 113b 7e51 23bb 5117 85bb
000001c0: b53c edbc 3a84 f13b 4b04 0dbc 82d2 4c3c
000001d0: fb67 9d3c abcd 80bb c322 ca3c ae9b bebc
000001e0: 5fc3 c0bc e2da 723c d34b 2b3c d72e 9c3c
000001f0: 0dfb fb3c 4499 29bd b865 b3bb d7e6 7f3c
00000200: 03c7 613c 6f20 77bc 3f80 31bd 431b bc3c
00000210: 281e 523b bf2b 203a c70f 7a3c a3fa 82bc
00000220: 6751 e43c 19f4 853b b046 14bd 3d7f 10bc
00000230: 979c 0c3b 0e4e be3b b51b f13b 8ae5 dfbc
00000240: 6af0 5fbc 30a2 fa3a e79d bb3a 0f04 33bc
00000250: 1c7c 323c c8a1 fa3a 57b7 a8bc e3ea ecbc
00000260: 4d67 d13c 2cb8 173c 7aca d03b 5d67 8f3c
00000270: d2bd 94bc ca19 ba3c e74d 043c bf8c 04bc
00000280: 99dd 37bc 7b35 b93c f3da de3c 0b1d c0ba
00000290: c395 47bc 9fed bdbb cdc5 fe3c 239d a43c
000002a0: 789c 49bc db2f 50bd 6912 80bc 2b0a 68ba
000002b0: 02a4 5bba df8c 2a3d b389 9b3a 94df a43c
000002c0: ebdc 223c 3387 8fbc 036c 50bd 7108 ab3c
000002d0: 2641 10bc ab99 133d 8255 3bbc 5578 3f3c
000002e0: ef55 76bb ae77 38bc 0b27 87bc 705d 01bc
000002f0: feed afbc 8a48 d63c 13cf 573c e77e ebbb
00000300: c3d0 1e3c ffb7 3fbc e200 09bd e775 8abc
00000310: 1b08 b73c ab1d ac3a e37f 0dbc 1a42 963a
00000320: f3ad 87bc dbe9 223c d90c 293b d7c2 cc3c
00000330: df91 103c 7ed9 473c 7fc9 da3b 1b9e 02bd
00000340: 6ac3 823c ad55 603c 0cdb a53b cbbb 113b
00000350: 1601 07bd a02d 01bd d3e1 babc 7672 0f3d
00000360: 8d3e 6bbb 26e5 16bc b68a b83c 9c44 38bc
00000370: a8c1 7f3c 536c 0b3c 679f c2bc d259 ffbc
00000380: 4926 83bb 5fa1 f4bb d7da 79bb 1bb6 a33c
00000390: 970d de3c cda9 60ba a731 513c 034f 32bd
000003a0: 4977 3e3c a64e 833c 57df 523c a7f9 0fbc
000003b0: f9b2 3fbc 1b6e 223c 9b3d 5c3c 6b75 53bc
000003c0: 2a20 26bd 5317 3cbc cd04 d5bb be8a 0c3c
000003d0: eb79 60bc 37aa b7bb ef4a 743c 2164 ad3b
000003e0: cdca 62bc 50e5 5d3b 5389 033c a0c9 9cbc
000003f0: 8bd1 15bc 2fda f83c 4379 18bd 2334 08bd

action_model._continuous_distribution.mu.bias f4 [2]
0.0 0.0
00000000: 0000 0000 0000 0000

action_model._discrete_distribution.branches.0.weight f4 [1, 128]
-0.007681932 0.00084020867 -0.007940947 -0.00087196863 -0.02570082 -0.0026970638 0.00046225367 0.0041318536
0.0013982748 -0.01622121 -0.008584849 -0.0031497763 0.012101548 -0.0012714464 -0.008606157 0.012034526
-0.0065256245 0.011781355 0.0082706455 0.0041985344 0.011270228 0.003234508 -0.018485108 -0.004869319
0.004339844 0.015789483 0.0020512259 -0.005257275 -0.004132494 0.0017083811 -0.0012840739 -0.014432705
-0.0031131634 0.010720169 0.0013115889 0.0019450396 0.0046867426 0.0011594867 -0.009399592 -0.0032690146
-0.0005435801 0.0057902997 -0.0032474317 0.015635816 0.008049018 0.013627166 -0.011597632 -0.0075818026
0.013951554 0.0016934465 0.005433763 -0.00664958 -0.018057402 -0.011335229 0.004602033 -0.0011477667
0.0061954353 -0.014576097 -0.0021401893 -0.013117212 0.0046992297 0.0021375436 0.00047472568 -0.0043199062
-0.012417874 -0.008978383 -0.002020615 -0.011188458 -0.013113986 0.010486214 -0.0027142584 0.006800639
0.006554324 -0.0074804835 0.00040353258 -0.016283398 0.0027739527 -0.0033737633 0.006520507 0.0032267005
-0.013235054 0.017608734 -2.0727422e-05 0.009525994 0.012922019 -0.00038861332 0.0016432668 0.003635366
-0.007943536 -0.004908566 -0.010441693 -0.0047928835 -0.0072426535 -0.0035119534 0.0061857714 0.005332464
-0.0032363676 0.00463308 -0.0066990317 -0.0032788832 -0.0020151127 -0.0025243429 -0.008339991 -0.008459136
0.000811281 -0.009902137 -0.006104118 0.01327162 0.0023190815 0.0048277653 5.9173315e-05 0.012461732
0.005107919 0.0013486596 -0.023587331 -0.0053777713 -0.009497009 0.00021755589 0.0065781414 0.016695542
0.005464611 -0.004605615 -0.002194557 0.008599884 0.00854323 0.01874689 -0.0007241754 0.0036222574
00000000: b7b8 fbbb 7341 5c3a bf1a 02bc d394 64ba
00000010: 878a d2bc 39c1 30bb a35a f239 8064 873b
00000020: 5146 b73a 58e2 84bc 77a7 0cbc 7a6c 4ebb
00000030: 9245 463c a9a6 a6ba d700 0dbc 762c 453c
00000040: e8d4 d5bb 9606 413c 9a81 073c dc93 893b
00000050: c3a6 383c 0afa 533b 156e 97bc cf8e 9fbb
00000060: 4035 8e3b f258 813c dc6d 063b 3845 acbb
00000070: df69 87bb c2eb df3a 5f4e a8ba 2777 6cbc
00000080: 3706 4cbb a6a3 2f3c 9fe9 ab3a b3f0 fe3a
00000090: 3f93 993b ebf9 973a bf00 1abc f73c 56bb
000000a0: 0b7f 0eba 8ebc bd3b ddd2 54bb af16 803c
000000b0: 07e0 033c 7a44 5f3c ff03 3ebc c570 f8bb
000000c0: 0f95 643c a3f6 dd3a b50d b23b b8e4 d9bb
000000d0: 1eed 93bc 65b7 39bc a7cc 963b a970 96ba
000000e0: 1403 cb3b 95d0 6ebc 6b42 0cbb 93e9 56bc
000000f0: fffb 993b 0816 0c3b 9ae4 f839 008e 8dbb
00000100: 5774 4bbc 111a 13bc 4b6c 04bb cb4f 37bc
00000110: 0bdc 56bc 5fce 2b3c b3e1 31bb e5d7 de3b
00000120: a8c5 d63b d81e f5bb 3a91 d339 c364 85bc
00000130: 34cb 353b 5b1a 5dbb faa9 d53b 0d77 533b
00000140: d7d7 58bc 3140 903c cddf adb7 ea12 1c3c
00000150: e0b6 533c ccbe cbb9 e262 d73a 523f 6e3b
00000160: 9b25 02bc 09d8 a0bb a213 2bbc 9f0d 9dbb
00000170: c853 edbb cd28 66bb 03b2 ca3b f3bb ae3b
00000180: 3d19 54bb 18d1 973b 8d83 dbbb 88e2 56bb
00000190: fb0f 04bb 726f 25bb 75a4 08bc 3098 0abc
000001a0: 25ac 543a 933c 22bc 0e05 c8bb 3571 593c
000001b0: bbfb 173b 3b32 9e3b dd30 7838 4b2c 4c3c
000001c0: 5560 a73b 82c5 b03a 383a c1bc 0438 b0bb
000001d0: 5899 1bbc b71f 6439 738d d73b 17c5 883c
000001e0: 7b10 b33b b3ea 96bb 8fd2 0fbb 87e6 0c3c
000001f0: e7f8 0b3c 1493 993c 97d6 3dba 6563 6d3b

critic.network_body.linear_encoder.seq_layers.0.weight f4 [128, 6]
-0.03309367 0.092824206 0.5724735 -0.21244025 -0.09563706 -0.71422076 -0.23980221 -0.70549184
-0.08098105 0.93442005 -0.25784704 0.32650262 -0.08239267 -0.040032644 0.43209684 -0.08442871
-0.1469299 0.5767506 -0.04986036 0.6894443 -0.0044248174 -0.13235503 -0.3152945 -0.21305713
0.0050985264 -0.07992766 -0.735823 -0.9069096 -0.7795879 -0.29409567 0.15125783 -0.03332389
0.30515954 -0.36927688 -0.29250875 -0.5847292 0.22185281 -0.4266943 -0.19544557 0.67725176
-0.27767387 -0.1713231 -0.21948817 -0.16881727 0.3643926 -0.35493416 -0.21261679 0.36184505
-0.11378962 -0.001969362 0.34480608 0.5857759 0.08782915 0.38923985 -0.0059149554 0.7773289
0.13498616 0.3806345 -0.24304558 -0.8572434 0.670962 0.65003234 0.29876098 -0.17708758
1.1972296 -0.431684 0.5709287 0.04315061 0.6774987 -0.08592225 -0.08282748 0.020973915
-0.7197039 -0.3699217 -0.032938212 -0.98692375 -0.06808411 -0.29793495 -0.2414577 -0.08208548
0.17060933 0.5169915 0.16944778 -0.042336356 0.6022596 -0.11387886 -0.34827518 0.05225312
0.25217834 -0.22475141 0.13053502 0.19621858 0.3421138 -0.29617116 0.34566906 0.2841697
0.2730695 0.5615251 0.46085018 -0.76467204 -0.07034216 -0.23599295 -0.08016464 0.6850448
0.2056021 0.14422117 -0.4924418 0.11898219 -0.8329979 -0.21639924 0.75664806 0.3748561
-0.03607391 -0.057382554 0.16127388 0.09100582 -0.3059826 0.046862215 0.2007038 -0.27276862
-0.13362145 -0.47096795 -0.16196583 0.084418945 0.10577931 -0.49650064 0.069136515 -0.1616222
-0.2019486 -0.18645792 -0.7925213 -0.34923717 1.0337626 0.49099943 -0.29960355 0.46015516
0.25057858 0.61863714 -0.04993301 -0.15927354 -0.5243482 -0.17063037 -0.40671834 0.8312236
0.12335453 0.05138406 -0.4676861 0.2968237 0.2840238 -0.3105107 -0.41166496 -0.36779553
0.6782863 -0.29449517 -0.4341735 0.35475352 -0.12722239 -0.3792698 0.026860224 -0.45587352
0.14281034 -0.21511847 0.15691714 -0.12951553 0.03592813 0.08636748 -0.5064991 -0.06848239
0.2161428 0.687718 -0.66008836 0.17544664 -0.23568511 0.18185484 -0.73967636 -0.14997478
-0.44134313 -0.13326532 -0.01112666 0.057992462 0.558532 -0.19282039 -0.4922526 -0.09879748
0.28848115 0.31093976 0.060775794 -0.2331424 -0.093135945 0.0010584983 -0.34307995 0.2111463
-0.0400033 0.4015022 -0.5006053 -0.548717 0.15220556 0.23174949 0.43101916 0.36434904
-0.46251026 0.48155913 -0.050866973 -0.5222792 0.63633037 -0.029178841 0.079790436 -0.39109805
0.14275864 -0.7237117 0.11727235 0.47153285 0.029272556 0.07988937 -0.019782128 -0.39709747
-0.53408533 0.12665465 0.2321333 -0.1682574 0.046107553 0.22122797 -0.416864 -0.07663607
0.63815075 -0.54366904 -0.0029996831 0.27068508 -0.18181947 0.024492664 -1.05129 0.011593263
-0.70819926 0.21477643 -0.9132973 -0.42910838 -0.38160598 0.48289758 -0.13359615 0.17249438
-0.35517135 -0.76345044 -0.3195707 -0.29967198 0.234338 -0.6165036 0.17681131 0.38907534
-0.4302856 0.15409723 -0.040268578 -0.30686516 -0.40449095 0.12065215 0.6386358 0.14963633
00000000: 3a8d 07bd 9e1a be3d a08d 123f f089 59be
00000010: 5ddd c3bd 2cd7 36bf b68e 75be 1d9b 34bf
00000020: 65d9 a5bd 2736 6f3f 8704 84be 5a2b a73e
00000030: 7dbd a8bd 45f9 23bd cc3b dd3e f6e8 acbd
00000040: cb74 16be eda5 133f 603a 4cbd 6c7f 303f
00000050: 0ffe 90bb 1488 07be 486e a1be a62b 5abe
00000060: 8a11 a73b 1db1 a3bd e55e 3cbf 3a2b 68bf
00000070: 1393 47bf b593 96be 55e3 1a3e a27e 08bd
00000080: df3d 9c3e dc11 bdbe b5c3 95be d0b0 15bf
00000090: 622d 633e ad77 dabe e222 48be 5f60 2d3f
000000a0: 452b 8ebe 536f 2fbe 82c1 60be 6fde 2cbe
000000b0: ab91 ba3e eeb9 b5be 37b8 59be c143 b93e
000000c0: 880a e9bd 6910 01bb 6c8a b03e 69f5 153f
000000d0: c5df b33d 724a c73e 3ed2 c1bb 07ff 463f
000000e0: d039 0a3e 86e2 c23e f1e0 78be 4e74 5bbf
000000f0: 2ac4 2b3f 8568 263f 33f7 983e 7256 35be
00000100: d23e 993f af05 ddbe 6228 123f b2be 303d
00000110: 8e70 2d3f 01f8 afbd 74a1 a9bd 7dd1 ab3c
00000120: 843e 38bf 6166 bdbe 38ea 06bd 09a7 7cbf
00000130: af6f 8bbd ee8a 98be b040 77be 6f1c a8bd
00000140: 36b4 2e3e 8e59 043f b883 2d3e e368 2dbd
00000150: af2d 1a3f 5239 e9bd 2051 b2be 5e07 563d
00000160: 851d 813e 3c25 66be f9aa 053e 86ed 483e
00000170: 8a29 af3e bfa3 97be 89fb b03e b17e 913e
00000180: c4cf 8b3e 1cc0 0f3f 8ef4 eb3e 8cc1 43bf
00000190: 8d0f 90bd 23a8 71be 5c2d a4bd 195f 2f3f
000001a0: 5b89 523e b7ae 133e 5521 fcbe efac f33d
000001b0: 5a3f 55bf c397 5dbe b0b3 413f 24ed bf3e
000001c0: 3cc2 13bd f809 6bbd fb24 253e 4261 ba3d
000001d0: c0a9 9cbe 98f2 3f3d 4c85 4d3e 54a8 8bbe
000001e0: 10d4 08be b622 f1be 5fda 25be d7e3 ac3d
000001f0: d3a2 d83d 5535 febe 7297 8d3d 4a80 25be
00000200: 9dcb 4ebe d3ee 3ebe ade2 4abf 37cf b2be
00000210: 5552 843f 4764 fb3e a365 99be 7599 eb3e
00000220: d64b 803e 015f 1e3f 8e86 4cbd 9a18 23be
00000230: af3b 06bf bab9 2ebe 633d d0be 12cb 543f
00000240: 4da1 fc3d 1878 523d 8d74 efbe 47f9 973e
00000250: 916b 913e 42fb 9ebe c0c5 d2be b24f bcbe
00000260: 2ca4 2d3f 12c8 96be fd4b debe 41a2 b53e
00000270: 9646 02be a72f c2be f909 dc3c 4168 e9be
00000280: e03c 123e 0448 5cbe e3ae 203e b89f 04be
00000290: 6029 133d 6fe1 b03d eda9 01bf 7f40 8cbd
000002a0: 8a54 5d3e 490e 303f 8dfb 28bf 49a8 333e
000002b0: 7057 71be 2838 3a3e 6e5b 3dbf fd92 19be
000002c0: baf7 e1be b476 08be 984c 36bc 8189 6d3d
000002d0: f4fb 0e3f b572 45be 8808 fcbe 5556 cabd
000002e0: cdb3 933e 7f33 9f3e 0af0 783d e2bc 6ebe
000002f0: 0fbe bebd 4fbd 8a3a 2da8 afbe bc36 583e
00000300: 80da 23bd b291 cd3e ab27 00bf b878 0cbf
00000310: c6db 1b3e bd4f 6d3e 8bae dc3e f58b ba3e
00000320: 25ce ecbe eb8e f63e e359 50bd 17b4 05bf
00000330: 8ce6 223f 7708 efbc 2b69 a33d 013e c8be
00000340: 522f 123e 2c45 39bf 7c2c f03d c16c f13e
00000350: 00cd ef3c 0a9d a33d 210e a2bc 5c50 cbbe
00000360: d1b9 08bf c2b1 013e 5ab4 6d3e ab4b 2cbe
00000370: 46db 3c3d 9689 623e 336f d5be 5ff3 9cbd
00000380: d95d 233f e52d 0bbf 5596 44bb 3c97 8a3e
00000390: e22e 3abe d7a4 c83c ac90 86bf abf1 3d3c
000003a0: 8c4c 35bf 5aee 5b3e dacd 69bf 18b4 dbbe
000003b0: dc61 c3be 5a3e f73e 6ecd 08be 5ea2 303e
000003c0: 05d9 b5be 7d71 43bf c59e a3be 9b6e 99be
000003d0: 4df6 6f3e 2ed3 1dbf 060e 353e e234 c73e
000003e0: 654e dcbe aacb 1d3e aaf0 24bd 6e1d 9dbe
000003f0: 7019 cfbe 7918 f73d a37d 233f 443a 193e

critic.network_body.linear_encoder.seq_layers.0.bias f4 [128]
0.0 0.0 0.0 0.0 0.0 0.0 0.0 0.0
0.0 0.0 0.0 0.0 0.0 0.0 0.0 0.0
0.0 0.0 0.0 0.0 0.0 0.0 0.0 0.0
0.0 0.0 0.0 0.0 0.0 0.0 0.0 0.0
0.0 0.0 0.0 0.0 0.0 0.0 0.0 0.0
0.0 0.0 0.0 0.0 0.0 0.0 0.0 0.0
0.0 0.0 0.0 0.0 0.0 0.0 0.0 0.0
0.0 0.0 0.0 0.0 0.0 0.0 0.0 0.0
0.0 0.0 0.0 0.0 0.0 0.0 0.0 0.0
0.0 0.0 0.0 0.0 0.0 0.0 0.0 0.0
0.0 0.0 0.0 0.0 0.0 0.0 0.0 0.0
0.0 0.0 0.0 0.0 0.0 0.0 0.0 0.0
0.0 0.0 0.0 0.0 0.0 0.0 0.0 0.0
0.0 0.0 0.0 0.0 0.0 0.0 0.0 0.0
0.0 0.0 0.0 0.0 0.0 0.0 0.0 0.0
0.0 0.0 0.0 0.0 0.0 0.0 0.0 0.0
00000000: 0000 0000 0000 0000 0000 0000 0000 0000
00000010: 0000 0000 0000 0000 0000 0000 0000 0000
00000020: 0000 0000 0000 0000 0000 0000 0000 0000
00000030: 0000 0000 0000 0000 0000 0000 0000 0000
00000040: 0000 0000 0000 0000 0000 0000 0000 0000
00000050: 0000 0000 0000 0000 0000 0000 0000 0000
00000060: 0000 0000 0000 0000 0000 0000 0000 0000
00000070: 0000 0000 0000 0000 0000 0000 0000 0000
00000080: 0000 0000 0000 0000 0000 0000 0000 0000
00000090: 0000 0000 0000 0000 0000 0000 0000 0000
000000a0: 0000 0000 0000 0000 0000 0000 0000 0000
000000b0: 0000 0000 0000 0000 0000 0000 0000 0000
000000c0: 0000 0000 0000 0000 0000 0000 0000 0000
000000d0: 0000 0000 0000 0000 0000 0000 0000 0000
000000e0: 0000 0000 0000 0000 0000 0000 0000 0000
000000f0: 0000 0000 0000 0000 0000 0000 0000 0000
00000100: 0000 0000 0000 0000 0000 0000 0000 0000
00000110: 0000 0000 0000 0000 0000 0000 0000 0000
00000120: 0000 0000 0000 0000 0000 0000 0000 0000
00000130: 0000 0000 0000 0000 0000 0000 0000 0000
00000140: 0000 0000 0000 0000 0000 0000 0000 0000
00000150: 0000 0000 0000 0000 0000 0000 0000 0000
00000160: 0000 0000 0000 0000 0000 0000 0000 0000
00000170: 0000 0000 0000 0000 0000 0000 0000 0000
00000180: 0000 0000 0000 0000 0000 0000 0000 0000
00000190: 0000 0000 0000 0000 0000 0000 0000 0000
000001a0: 0000 0000 0000 0000 0000 0000 0000 0000
000001b0: 0000 0000 0000 0000 0000 0000 0000 0000
000001c0: 0000 0000 0000 0000 0000 0000 0000 0000
000001d0: 0000 0000 0000 0000 0000 0000 0000 0000
000001e0: 0000 0000 0000 0000 0000 0000 0000 0000
000001f0: 0000 0000 0000 0000 0000 0000 0000 0000

critic.network_body.linear_encoder.seq_layers.2.weight f4 [128, 128]
-0.016202811 0.11521388 -0.014083138 -0.07921011 0.15858796 -0.019914376 0.13359322 -0.16697785
-0.009174277 -0.1842835 -0.033452675 -0.17240404 -0.08568565 -0.19059709 -0.023910644 -0.035634123
0.1482426 -0.11499735 -0.079611726 -0.12315628 0.024029665 0.11033096 -0.020000648 -0.040553816
-0.028468264 0.009602715 0.07549092 0.036713947 0.034028847 0.09890644 -0.10361788 0.052284524
-0.012435376 0.11635775 0.11564465 0.052647408 0.100130156 -0.0067185517 -0.21416299 -0.16148682
0.097952306 -0.044741597 0.0060775676 0.13619745 0.05256331 0.002436436 0.09674492 -0.08677544
0.019224 -0.124231376 0.10844898 -0.083075024 0.033177286 0.14444974 -0.12862377 0.027534958
-0.102295786 -0.0927181 0.016956357 -0.135343 -0.043540485 -0.06821104 0.029943125 -0.0871436
-0.08903559 0.08218267 -0.09832649 0.08249165 -0.1545097 0.06056746 -0.014289162 -0.04213687
-0.040587276 -0.0054818783 -0.033345938 0.051875364 0.002307284 0.045348037 -0.002292608 0.03215698
0.0447931 -0.1406072 -0.12645194 -0.1489063 0.09519384 -0.014308864 0.09693318 -0.17027716
0.041853555 0.119552866 0.17617434 -0.059001684 -0.035380345 0.09252559 -0.008701905 -0.035491213
0.14937037 0.19080295 -0.06949126 0.11967502 -0.08520563 0.121793546 -0.0073312125 -0.022090372
0.18033458 -0.074023165 0.08486084 0.021396166 -0.12046331 0.09930267 0.011675523 0.030754363
0.010188646 -0.16869731 -0.11038388 0.08378486 -0.07417858 0.0024031943 -0.00012055809 -0.056169856
0.050684582 -0.07153931 0.061021566 -0.02598867 -0.032323178 0.058438133 0.05804349 -0.06543697
0.07488934 0.11951395 -0.09548684 0.009424036 0.011790871 -0.059802175 0.09408982 0.07056911
-0.08207421 -0.115904436 -0.0796434 0.028628122 -0.04274748 -0.005597052 -0.102242544 -0.072278015
0.010281166 0.02635033 0.0075648283 0.12075814 -0.087175734 -0.18511796 0.04192635 0.0089102825
0.011378171 0.11434818 -0.021895617 0.011972733 -0.01178536 0.11251282 0.07308105 -0.03750699
-0.08908295 -0.07438773 0.1419945 0.047028564 0.15430894 -0.09025732 0.022776257 -0.08264332
0.01248021 -0.0407353 -0.04556161 -0.024455247 0.069452524 0.14465927 0.027986757 0.020845233
-0.05618797 0.097129054 0.0019854112 -0.053659845 0.22248033 -0.10064376 0.034296695 0.049957953
-0.12192343 -0.0558036 -0.01897375 -0.016309658 -0.002028823 0.05291449 0.01384814 -0.10068355
0.081734926 0.032738555 -0.124123394 -0.0017715071 0.1873215 -0.04983143 0.10915039 0.106146246
0.025022537 0.0047276895 0.035061948 0.046285525 0.054055076 0.07454461 -0.008746437 -0.03398641
-0.008462149 0.089648135 -0.088715635 0.011885293 -0.012325398 -0.07155148 0.17464814 0.024026709
-0.16361941 0.008586812 -0.13390051 0.009146259 -0.047455598 -0.02223824 0.15066382 -0.02691364
-0.0014203258 0.0852678 0.07854842 -0.008386698 0.03290002 -0.022247633 0.12308639 0.0976968
0.03214744 -0.17026526 -0.037660033 0.008613369 0.16425481 -0.0721488 0.05636829 0.0270111
0.009215414 0.019124797 -0.05138214 -0.069799356 -0.05518884 0.22957736 -0.10330325 -0.011406937
0.004445039 -0.11808766 -0.05150765 -0.109668 -0.090903126 -0.06320582 -0.114209235 -0.019317485
00000000: c2bb 84bc 41f5 eb3d f6bc 66bc e938 a2bd
00000010: e264 223e 7923 a3bc a9cc 083e 3efc 2abe
00000020: b54f 16bc d0b4 3cbe ac05 09bd af8a 30be
00000030: f57b afbd e22b 43be 41e0 c3bc 16f5 11bd
00000040: e8cc 173e bb83 ebbd 790b a3bd 5c39 fcbd
00000050: dcd9 c43c 33f5 e13d 66d8 a3bc c21b 26bd
00000060: 4736 e9bc b554 1d3c fc9a 9a3d 5d61 163d
00000070: d561 0b3d 768f ca3d 9c35 d4bd 4c28 563d
00000080: bfbd 4bbc f94c ee3d 1ad7 ec3d cfa4 573d
00000090: 0a11 cd3d 4c27 dcbb 8b4d 5bbe cd5c 25be
000000a0: 389b c83d f742 37bd 5526 c73b 5877 0b3e
000000b0: a04c 573d 9dac 1f3b 3322 c63d 52b7 b1bd
000000c0: a67b 9d3c 056d febd 801a de3d 3d23 aabd
000000d0: e8e4 073d a2ea 133e f3b5 03be fe90 e13c
000000e0: 7480 d1bd fde2 bdbd 0fe8 8a3c 5b97 0abe
000000f0: 8257 32bd 3bb2 8bbd 494b f53c 5878 b2bd
00000100: 4b58 b6bd 634f a83d 665f c9bd 62f1 a83d
00000110: ca37 1ebe 9615 783d 171d 6abc b697 2cbd
00000120: d83e 26bd 54a1 b3bb c095 08bd 437b 543d
00000130: cd35 173b ddbe 393d 943f 16bb 0ab7 033d
00000140: f878 373d 55fb 0fbe 9e7c 01be e57a 18be
00000150: fdf4 c23d ba6f 6abc e784 c63d 235d 2ebe
00000160: a26e 2b3d 22d8 f43d 0c67 343e c0ab 71bd
00000170: fbea 10bd 0e7e bd3d 6f92 0ebc 3c5f 11bd
00000180: 8cf4 183e d961 433e 6f51 8ebd 2d18 f53d
00000190: 4a80 aebd e56e f93d ab3a f0bb def6 b4bc
000001a0: a1a9 383e 7599 97bd 85cb ad3d 0347 af3c
000001b0: 78b5 f6bd 335f cb3d b14a 3f3c 93f0 fb3c
000001c0: 47ee 263c fdbe 2cbe f210 e2bd 6697 ab3d
000001d0: f0ea 97bd e97e 1d3b 22d4 fcb8 5d12 66bd
000001e0: a39a 4f3d 3483 92bd c0f1 793d 31e6 d4bc
000001f0: 4f65 04bd d35c 6f3d 03bf 6d3d d103 86bd
00000200: 955f 993d bbc3 f43d 9b8e c3bd 4667 1a3c
00000210: 7f2e 413c 20f3 74bd 2ab2 c03d 8a86 903d
00000220: 8616 a8bd 4e5f edbd 141c a3bd 8685 ea3c
00000230: fb17 2fbd 7a67 b7bb 8a64 d1bd 7f06 94bd
00000240: 5672 283c a6dc d73c 61e2 f73b 0b50 f73d
00000250: 3189 b2bd 908f 3dbe f7ba 2b3d 6ffc 113c
00000260: 826b 3a3c 612f ea3d 705e b3bc 4829 443c
00000270: 6217 41bc 1f6d e63d 84ab 953d eea0 19bd
00000280: 1f71 b6bd 9858 98bd 0267 113e 06a1 403d
00000290: 2a03 1e3e d4d8 b8bd 4695 ba3c e740 a9bd
000002a0: cb79 4c3c 0fda 26bd d09e 3abd 5f56 c8bc
000002b0: 203d 8e3d 8f21 143e 7c44 e53c 9fc3 aa3c
000002c0: 5b25 66bd 99eb c63d ac1d 023b 6dca 5bbd
000002d0: e2d1 633e 511e cebd b17a 0c3d b6a0 4c3d
000002e0: feb2 f9bd 5192 64bd d66e 9bbc d59b 85bc
000002f0: 00f6 04bb ddbc 583d 4fe3 623c 2d33 cebd
00000300: a464 a73d dd18 063d 6834 febd ea31 e8ba
00000310: 35d1 3f3e 0b1c 4cbd 3d8a df3d 3463 d93d
00000320: 10fc cc3c bcea 9a3b 1e9d 0f3d e495 3d3d
00000330: db68 5d3d d8aa 983d 374d 0fbc 5535 0bbd
00000340: d3a4 0abc 7199 b73d 8bb0 b5bd 88ba 423c
00000350: 77f0 49bc 9589 92bd f6d6 323e a9d3 c43c
00000360: d98b 27be b3af 0c3c 371d 09be 31da 153c
00000370: cd60 42bd f82c b6bc 9e47 1a3e fe79 dcbc
00000380: 3a2a baba e2a0 ae3d fedd a03d 5c68 09bc
00000390: 2cc2 063d ab40 b6bc b814 fc3d 4315 c83d
000003a0: 09ad 033d 045a 2ebe 6841 1abd 171f 0d3c
000003b0: 6a32 283e c0c2 93bd 70e2 663d 6246 dd3c
000003c0: 3ffc 163c 9bab 9c3c 1476 52bd f7f2 8ebd
000003d0: b10d 62bd 5416 6b3e a890 d3bd 29e4 3abc
000003e0: b1a7 913b f1d7 f1bd b0f9 52bd 9e99 e0bd
000003f0: 6b2b babd 0e72 81bd 88e6 e9bd b43f 9ebc

critic.network_body.linear_encoder.seq_layers.2.bias f4 [128]
0.0 0.0 0.0 0.0 0.0 0.0 0.0 0.0
0.0 0.0 0.0 0.0 0.0 0.0 0.0 0.0
0.0 0.0 0.0 0.0 0.0 0.0 0.0 0.0
0.0 0.0 0.0 0.0 0.0 0.0 0.0 0.0
0.0 0.0 0.0 0.0 0.0 0.0 0.0 0.0
0.0 0.0 0.0 0.0 0.0 0.0 0.0 0.0
0.0 0.0 0.0 0.0 0.0 0.0 0.0 0.0
0.0 0.0 0.0 0.0 0.0 0.0 0.0 0.0
0.0 0.0 0.0 0.0 0.0 0.0 0.0 0.0
0.0 0.0 0.0 0.0 0.0 0.0 0.0 0.0
0.0 0.0 0.0 0.0 0.0 0.0 0.0 0.0
0.0 0.0 0.0 0.0 0.0 0.0 0.0 0.0
0.0 0.0 0.0 0.0 0.0 0.0 0.0 0.0
0.0 0.0 0.0 0.0 0.0 0.0 0.0 0.0
0.0 0.0 0.0 0.0 0.0 0.0 0.0 0.0
0.0 0.0 0.0 0.0 0.0 0.0 0.0 0.0
00000000: 0000 0000 0000 0000 0000 0000 0000 0000
00000010: 0000 0000 0000 0000 0000 0000 0000 0000
00000020: 0000 0000 0000 0000 0000 0000 0000 0000
00000030: 0000 0000 0000 0000 0000 0000 0000 0000
00000040: 0000 0000 0000 0000 0000 0000 0000 0000
00000050: 0000 0000 0000 0000 0000 0000 0000 0000
00000060: 0000 0000 0000 0000 0000 0000 0000 0000
00000070: 0000 0000 0000 0000 0000 0000 0000 0000
00000080: 0000 0000 0000 0000 0000 0000 0000 0000
00000090: 0000 0000 0000 0000 0000 0000 0000 0000
000000a0: 0000 0000 0000 0000 0000 0000 0000 0000
000000b0: 0000 0000 0000 0000 0000 0000 0000 0000
000000c0: 0000 0000 0000 0000 0000 0000 0000 0000
000000d0: 0000 0000 0000 0000 0000 0000 0000 0000
000000e0: 0000 0000 0000 0000 0000 0000 0000 0000
000000f0: 0000 0000 0000 0000 0000 0000 0000 0000
00000100: 0000 0000 0000 0000 0000 0000 0000 0000
00000110: 0000 0000 0000 0000 0000 0000 0000 0000
00000120: 0000 0000 0000 0000 0000 0000 0000 0000
00000130: 0000 0000 0000 0000 0000 0000 0000 0000
00000140: 0000 0000 0000 0000 0000 0000 0000 0000
00000150: 0000 0000 0000 0000 0000 0000 0000 0000
00000160: 0000 0000 0000 0000 0000 0000 0000 0000
00000170: 0000 0000 0000 0000 0000 0000 0000 0000
00000180: 0000 0000 0000 0000 0000 0000 0000 0000
00000190: 0000 0000 0000 0000 0000 0000 0000 0000
000001a0: 0000 0000 0000 0000 0000 0000 0000 0000
000001b0: 0000 0000 0000 0000 0000 0000 0000 0000
000001c0: 0000 0000 0000 0000 0000 0000 0000 0000
000001d0: 0000 0000 0000 0000 0000 0000 0000 0000
000001e0: 0000 0000 0000 0000 0000 0000 0000 0000
000001f0: 0000 0000 0000 0000 0000 0000 0000 0000

critic.value_heads.value_heads.extrinsic.weight f4 [1, 128]
-0.19424386 0.19323447 0.2080904 -0.022293076 0.19166431 0.16395983 0.17665082 -0.08535847
0.15110686 -0.114899166 0.00402683 -0.0788005 0.03350112 0.20878032 -0.10986278 -0.21509498
-0.011327118 0.1305264 0.0012388229 0.03374186 -0.042238563 0.14835146 -0.17539278 -0.12241724
0.013608009 -0.02819641 -0.14651152 0.09484732 -0.15966421 -0.1617769 0.18650058 -0.052566543
0.14140153 0.09068796 0.13707075 -0.13310364 -0.089845166 -0.04516387 -0.13399462 -0.13498062
-0.18139423 0.1559639 -0.20238611 0.095247656 -0.0083782375 -0.07538718 -0.18400528 -0.105427384
0.078290105 0.18569788 -0.02938667 -0.039421514 0.046222955 0.16966683 0.1871588 0.051375777
0.16191486 -0.090705805 -0.12463473 -0.20142224 -0.058655545 -0.06400308 -0.12733886 0.09146431
-0.076012656 0.13516113 -0.027558252 -0.14722729 -0.14165042 0.21543247 -0.10444225 0.014826119
0.13580951 0.18295455 0.031906396 -0.19968748 0.056813568 0.015295312 0.19676316 -0.0049856305
-0.08149366 -0.06318432 -0.07472977 -0.19926862 0.052832842 0.0052001774 0.15783182 -0.1410991
-0.1038305 -0.17398316 0.16624677 0.018934831 0.011198312 0.041967124 0.16197261 -0.1530692
0.21545297 0.045387387 0.07975474 0.0039948523 0.029178113 0.083266884 -0.11039723 -0.19094229
0.16665655 -0.154524 -0.04970874 -0.018759325 -0.13852361 0.0024136156 -0.040239796 -0.16090222
-0.17617372 0.12672785 -0.045548484 -0.17571393 -0.19498868 -0.08691414 0.11973199 -0.15344088
-0.12460349 0.027732283 -0.07673065 0.21554282 0.10962558 0.032348573 0.20515394 0.1260756
00000000: dde7 46be 42df 453e a615 553e f89f b6bc
00000010: a643 443e 16e5 273e f4e3 343e 6cd0 aebd
00000020: c2bb 1a3e 4150 ebbd 80f3 833b 2862 a1bd
00000030: 7838 093d 82ca 553e bdff e0bd dc41 5cbe
00000040: 6095 39bc b6a8 053e 0060 a23a e834 0a3d
00000050: 5802 2dbd 72e9 173e 2a9a 33be e4b5 fabd
00000060: 20f4 5e3c 28fc e6bc 1e07 16be 503f c23d
00000070: 047f 23be d8a8 25be 02fa 3e3e 0450 57bd
00000080: 90cb 103e 9cba b93d 465c 0c3e 524c 08be
00000090: be00 b8bd c0fd 38bd e335 09be 5c38 0abe
000000a0: 69bf 39be 00b5 1f3e 4e3e 4fbe 3411 c33d
000000b0: e044 09bc 9864 9abd e16b 3cbe 50ea d7bd
000000c0: 9056 a03d 9627 3e3e 50bc f0bc 7478 21bd
000000d0: 4854 3d3d 24bd 2d3e 8ea6 3f3e 686f 523d
000000e0: 02cd 253e f7c3 b9bd 7e40 ffbd a241 4ebe
000000f0: cc40 70bd 0c14 83bd 1e65 02be a451 bb3d
00000100: 86ac 9bbd ae67 0a3e d8c1 e1bc c0c2 16be
00000110: cf0c 11be 549a 5c3e d2e5 d5bd 40e9 723c
00000120: a611 0b3e 7058 3b3e 48b0 023d e07a 4cbe
00000130: 58b5 683d 3099 7a3c 487c 493e 805e a3bb
00000140: 26e6 a6bd c866 81bd ec0b 99bd 130d 4cbe
00000150: 4067 583d 4066 aa3b aa9e 213e 487c 10be
00000160: 16a5 d4bd a428 32be 983c 2a3e 381d 9b3c
00000170: 2079 373c b8e5 2b3d 26dc 253e 2cbe 1cbe
00000180: b49f 5c3e 20e8 393d 7456 a33d 40e7 823b
00000190: f006 ef3c d487 aa3d f117 e2bd 6086 43be
000001a0: 04a8 2a3e 8a3b 1ebe 649b 4bbd 28ad 99bc
000001b0: 22d9 0dbe c02d 1e3b 7cd2 24bd 8dc3 24be
000001c0: e266 34be f2c4 013e 0c91 3abd 5aee 33be
000001d0: 1dab 47be 0a00 b2bd 0c36 f53d 9b1f 1dbe
000001e0: 1d30 ffbd d02e e33c f624 9dbd 42b7 5c3e
000001f0: 6083 e03d f07f 043d e013 523e f619 013e
