results/dajGoal3/HitTheBall/HitTheBall-50248.pt (torch, 442191 bytes, 39 tensors)

network_body.linear_encoder.seq_layers.0.weight f4 [128, 6]
-0.40997404 0.44424018 -0.08457452 -0.4120885 0.29088652 -0.45444226 0.3839382 -0.5644823
-0.669537 -0.18543884 -0.55662036 -0.5701586 -0.13917446 0.604617 -0.3459117 -0.15206784
0.7893089 0.66413975 0.5319856 -0.19633375 -0.62427807 0.162014 0.13901623 0.14874305
-0.060723323 -0.7754189 0.3572638 -0.1172085 0.25276327 -0.36534035 0.32734132 0.00359176
0.43963185 0.24923989 0.20898114 -0.13098286 -0.09118076 -0.40676847 -1.0074478 -0.24872439
-0.35737914 -0.5791777 0.24877375 -0.42043307 0.36440042 -0.6387504 0.059058543 0.2481728
-0.67340714 -0.53076184 0.6190335 -0.42437884 -0.0549763 0.42185113 -0.33891413 0.10007726
0.050110828 0.042874042 0.13408265 -0.09008022 0.07788811 0.45442572 -0.13950974 -0.3383125
0.41804034 0.4351374 0.27479205 0.3647555 -0.12130272 0.06684121 0.55290604 0.18464117
0.09637472 0.2908286 0.09177707 -0.22323161 0.33628204 0.12855631 0.13669157 -0.2488343
-0.12957571 -0.4134602 -0.5667826 -0.050242383 0.06290836 -0.5635406 0.023792027 -0.025880085
-0.71160054 -0.42045164 -0.07238034 -0.37483466 0.40201756 0.5802209 0.45120215 0.11839329
0.50151545 0.17167538 0.32199982 -0.062144984 0.22193217 0.19294262 0.6711024 0.2064709
0.16901338 0.060620673 -0.30943453 -0.06565469 -0.45186895 0.5136772 0.225439 -0.33672935
-0.15360966 0.08653955 -0.024805764 -0.23073225 -0.23845677 0.72488874 0.82293344 0.22737803
0.07454408 -0.22081353 0.96836764 0.40713832 0.25975934 -0.13253754 -0.12887369 -0.14719965
-0.08970782 -0.42630184 0.1664969 -0.41577724 0.04563073 -0.104091406 0.89763755 0.6404251
-0.08381081 0.4367539 -0.36575988 -0.5545196 0.4209251 0.879541 -0.094307035 0.53812045
0.27806884 0.24050082 -0.26813456 0.21338385 -0.16253677 0.49990672 -0.38879856 -0.7299448
-0.02733899 -0.5405282 0.25079054 -0.32857206 0.45346963 0.41229528 0.11044379 -0.2448477
0.15517144 -0.41877136 0.016681926 0.20002487 -0.12564002 -0.6691721 0.37512395 -0.4167667
-0.4071129 0.6901408 -0.022524217 0.58748746 0.87108415 -0.06607379 -0.15126932 0.1667244
0.266104 0.6370919 0.2290362 0.23342556 -0.06372739 -0.3097386 -0.18599191 0.36410034
-0.42785922 0.19297029 0.5867179 -0.59769124 -0.74509054 -0.33419585 0.2579654 0.9310103
-0.2638041 0.8410088 -0.3294649 -0.19140686 0.112965375 -0.43735307 -0.61102444 0.094105504
0.618793 0.005817392 -0.41262788 -0.20231369 0.81654274 -0.66168857 -0.23331113 -0.37652108
-0.009773129 0.4603197 -0.21844015 0.5365296 -0.22446156 -0.23678766 -0.10461825 -0.2616384
-0.26271215 0.1397228 0.43767872 0.8104255 -0.047439307 -0.41792077 -0.37010247 -0.3689678
0.04220591 0.14302604 -0.45756036 0.0026156106 -0.26782995 -0.6322543 -0.03470836 0.93868893
0.24015173 -0.056804262 -0.34893292 0.5629493 0.33786273 -0.25127032 -0.14609975 0.047748517
-0.39112094 0.022191547 -0.3655484 -0.13018113 -0.5558062 -0.41220918 -0.72448695 0.0063073887
-0.49772245 -0.204787 0.0566046 0.50602734 -0.14718471 0.17491801 -0.02079617 -0.1602157
00000000: 1ee8 d1be 7373 e33e 6835 adbd 44fd d2be
00000010: 14ef 943e a8ac e8be 8c93 c43e e981 10bf
00000020: c766 2bbf aee3 3dbe ac7e 0ebf eaf5 11bf
00000030: c083 0ebe 2ec8 1a3f 571b b1be acb7 1bbe
00000040: 2610 4a3f 1005 2a3f 3530 083f b70b 49be
00000050: b0d0 1fbf ffe6 253e 455a 0e3e 1950 183e
00000060: 05b9 78bd da81 46bf 48eb b63e 030b f0bd
00000070: 306a 813e e40d bbbe 4899 a73e bc63 6b3b
00000080: 6d17 e13e be38 7f3e 27ff 553e 5f20 06be
00000090: fabc babd f543 d0be 0df4 80bf 9bb1 7ebe
000000a0: 66fa b6be fd44 14bf 8cbe 7e3e 0143 d7be
000000b0: b192 ba3e 2585 23bf 5fe7 713d 0321 7e3e
000000c0: 6964 2cbf 02e0 07bf fb78 1e3f 2f48 d9be
000000d0: d42e 61bd dffc d73e 2786 adbe 4ef5 cc3d
000000e0: 0341 4d3d b19c 2f3d f64c 093e fa7b b8bd
000000f0: cd83 9f3d 7daa e83e a4db 0ebe 4c37 adbe
00000100: 6209 d63e 54ca de3e 8bb1 8c3e 3cc1 ba3e
00000110: 8f6d f8bd 0be4 883d 408b 0d3f 9312 3d3e
00000120: 1c60 c53d 7ce7 943e 9ef5 bb3d d496 64be
00000130: 292d ac3e 44a4 033e e0f8 0b3e 6bce 7ebe
00000140: 7faf 04be 0eb1 d3be aa18 11bf f5ca 4dbd
00000150: 19d6 803d 3244 10bf 7fe7 c23c 7902 d4bc
00000160: 742b 36bf 7045 d7be 253c 94bd 54ea bfbe
00000170: 3fd5 cd3e 5b89 143f f803 e73e 2e78 f23d
00000180: 5163 003f accb 2f3e 29dd a43e bd8b 7ebd
00000190: 3042 633e c092 453e 5ecd 2b3f 1c6d 533e
000001a0: d811 2d3e 624d 783d 346e 9ebe f775 86bd
000001b0: 5e5b e7be 5980 033f 7bd9 663e ca67 acbe
000001c0: da4b 1dbe a63b b13d 7535 cbbc 1345 6cbe
000001d0: 032e 74be 4f92 393f c4ab 523f c9d5 683e
000001e0: 91aa 983d f11c 62be f1e6 773f 6f74 d03e
000001f0: 2dff 843e ecb7 07be 77f7 03be 81bb 16be
00000200: bcb8 b7bd 3c44 dabe 2a7e 2a3e c1e0 d4be
00000210: 4ae7 3a3d e02d d5bd 93cb 653f e6f2 233f
00000220: 01a5 abbd 359e df3e e144 bbbe fff4 0dbf
00000230: 7f83 d73e 9929 613f 0c24 c1bd 43c2 093f
00000240: 0a5f 8e3e d945 763e ef48 89be 4c81 5a3e
00000250: 0a70 26be c6f3 ff3e 9b10 c7be aadd 3abf
00000260: 04f6 dfbc 0e60 0abf 9e67 803e 993a a8be
00000270: 2c2d e83e 5e18 d33e 5b30 e23d 5bb9 7abe
00000280: 43e5 1e3e 3369 d6be 89a8 883c 52d3 4c3e
00000290: c7a7 00be dd4e 2bbf 3f10 c03e 7262 d5be
000002a0: 1a71 d0be 11ad 303f b584 b8bc 9465 163f
000002b0: 5fff 5e3f b251 87bd 58e6 1abe cdb9 2a3e
000002c0: c93e 883e 7418 233f 7788 6a3e 1c07 6f3e
000002d0: 8183 82bd 0f96 9ebe aa74 3ebe 5c6b ba3e
000002e0: 5d10 dbbe 019a 453e 2533 163f 4b02 19bf
000002f0: 41be 3ebf b81b abbe 0a14 843e b156 6e3f
00000300: 5511 87be 5a4c 573f a0af a8be 2900 44be
00000310: 645a e73d beec dfbe 196c 1cbf 63ba c03d
00000320: 3869 1e3f d29f be3b f643 d3be 522b 4fbe
00000330: f208 513f 6c64 29bf 1de9 6ebe 5fc7 c0be
00000340: 791f 20bc 06af eb3e c6ae 5fbe 015a 093f
00000350: 40d9 65be 7778 72be 1842 d6bd 78f5 85be
00000360: 3582 86be 7e13 0f3e 6d17 e03e 0c78 4f3f
00000370: b84f 42bd b6f9 d5be 127e bdbe 59e9 bcbe
00000380: 1be0 2c3d 6b75 123e 5a45 eabe aa6a 2b3b
00000390: 0221 89be 6bdb 21bf 5a2a 0ebd eb4d 703f
000003a0: 56ea 753e 96ab 68bd 56a7 b2be 721d 103f
000003b0: 58fc ac3e 81a6 80be 2c9b 15be f393 433d
000003c0: 0141 c8be 0ccb b53c 2929 bbbe 344e 05be
000003d0: 5149 0ebf 150d d3be fa77 39bf 36ae ce3b
000003e0: 7ad5 febe afb3 51be 3ada 673d 028b 013f
000003f0: 97b7 16be b51d 333e bb5c aabc 960f 24be

network_body.linear_encoder.seq_layers.0.bias f4 [128]
0.0016870736 0.0074993703 0.0020804242 -0.0030744644 0.014213042 0.004624545 0.0007014647 -0.0010543483
0.0031469457 0.0072695347 -0.0010936895 0.0036061201 0.0011329551 -0.00053418946 -0.0025879268 0.005949207
-0.0014379312 0.0109177455 -0.0010198537 0.00349988 0.0075311232 -0.0022317255 0.0022064513 -0.0050421506
-0.003994607 0.0019117804 -0.005497477 0.0016805149 0.01081667 -0.015206532 0.0036044985 -0.006683121
-0.0011001895 -0.006545423 0.0039974893 0.0060589886 0.002239461 -0.004392794 -0.005125935 0.0044232425
-0.0030222842 -0.0037673751 -7.507115e-05 0.008395986 0.0087923445 -0.0028595668 8.226672e-05 -0.005105533
-0.0024097967 0.0017450539 0.0010305167 -0.0011336663 -0.0006807704 0.0029544833 -0.0027744859 -0.00036675984
-0.0015661466 -0.00663905 -0.009301036 -0.0036024447 -0.0010094309 -0.002845091 -0.009669839 0.0031487413
0.012915543 0.0047156448 0.003041051 0.003190646 0.009801521 0.0024936986 -0.0021682836 -0.0037604652
-0.0014469293 0.019246522 0.0005308002 -0.0017154356 -0.005236659 0.0031330255 -0.007635377 0.018640744
0.0010323297 0.00018678747 0.0066977693 0.0018002412 0.008231567 -0.001023659 -0.0016514844 -0.0054636043
-0.001276787 0.0017988421 0.006020961 -0.003007759 0.0031897442 -0.0010127227 -0.00010500976 -0.00010484694
-0.0018507624 -0.010879904 0.005925657 0.0019900792 -0.0033314126 -0.01347297 6.8426198e-06 -0.00019373208
-0.0019794218 0.0019573914 0.0017505136 -0.007034492 0.002756792 -0.0004470218 0.0094308825 -0.00025525608
-0.00068253884 0.0013568939 -0.0029692864 -0.00079198525 -0.0017535456 -0.002409686 0.0040830565 0.0017640316
0.0012946414 0.003685085 0.0031599533 -0.0012937074 -0.0013315857 -0.0035319286 0.007394051 0.0024684726
00000000: cc20 dd3a 47bd f53b ba57 083b f47c 49bb
00000010: d2dd 683c 7f89 973b 80e2 373a 0f32 8aba
00000020: fd3c 4e3b 4735 ee3b 215a 8fba a854 6c3b
00000030: aa7f 943a d908 0cba 359a 29bb 91f1 c23b
00000040: f778 bcba 58e0 323c 9dac 85ba 3e5e 653b
00000050: a4c7 f63b 2442 12bb 1c9a 103b a038 a5bb
00000060: 31e5 82bb b594 fa3a 2e24 b4bb b944 dc3a
00000070: 6738 313c d124 79bc 7339 6c3b 15fe dabb
00000080: 3c34 90ba fd7a d6bb 5ffd 823b 7b8a c63b
00000090: ecc3 123b 6df1 8fbb 76f7 a7bb d9f0 903b
000000a0: 8411 46bb 11e6 76bb 846f 9db8 518f 093c
000000b0: c40d 103c 9267 3bbb 9c86 ac38 514c a7bb
000000c0: aeed 1dbb 4bba e43a 6712 873a 8797 94ba
000000d0: ba75 32ba 01a0 413b 26d4 35bb ac49 c0b9
000000e0: 2947 cdba 638c d9bb 5f63 18bc fe16 6cbb
000000f0: e14e 84ba b574 3abb 3f6e 1ebc 1d5b 4e3b
00000100: b79b 533c b285 9a3b 5f4c 473b 281a 513b
00000110: 8f96 203c 526d 233b c319 0ebb 2372 76bb
00000120: e4a6 bdba e2aa 9d3c 6625 0b3a 78d8 e0ba
00000130: 4898 abbb 7253 4d3b 2f32 fabb 79b4 983c
00000140: 3d4f 873a 61dc 4339 f678 db3b 12f6 eb3a
00000150: b2dd 063c 4c2c 86ba 9f76 d8ba 0908 b3bb
00000160: dd59 a7ba 20c7 eb3a 7b4b c53b d31d 45bb
00000170: 070b 513b 56bd 84ba b038 dcb8 46e1 dbb8
00000180: 4895 f2ba a041 32bc 042c c23b fd6b 023b
00000190: d453 5abb bbbd 5cbc a899 e536 8f24 4bb9
000001a0: 30b9 01bb 9447 003b 7d71 e53a 9981 e6bb
000001b0: 4bab 343b 405e eab9 fd83 1a3c e4d3 85b9
000001c0: 68ec 32ba ced9 b13a 5c98 42bb 3b9d 4fba
000001d0: 3ad7 e5ba d3eb 1dbb 29cb 853b 1437 e73a
000001e0: f5b0 a93a 7881 713b 3817 4f3b 9e91 a9ba
000001f0: 9a88 aeba ee77 67bb cc49 f23b 19c6 213b

network_body.linear_encoder.seq_layers.2.weight f4 [128, 128]
-0.025108255 0.0140201375 0.096242644 -0.05934794 -0.21561463 -0.030088808 0.03860517 -0.11909852
-0.07433992 -0.17942384 -0.05183452 0.027811253 -0.04396879 0.11612048 0.07706807 -0.107098676
-0.019722492 -0.038505863 0.039014682 0.103601746 -0.13623244 0.07024565 -0.008375475 0.028465493
0.107461564 -0.20347059 -0.017092066 0.00876154 -0.040018544 -0.13602911 -0.10288721 -0.094509
0.030477887 0.033245552 0.016605813 0.061987184 0.049683172 -0.06636083 0.05975797 -0.1267539
-0.21425934 -0.022552393 0.05144748 -0.20665017 0.03831521 -0.014298934 0.15269953 -0.03490435
0.020146228 0.079065226 0.014375952 0.07053195 0.22722287 0.16385292 -0.12061054 -0.037661064
-0.05556492 -0.13616924 0.083648644 0.0018406329 0.11310002 0.14735556 -0.014352841 0.055080846
0.052542504 0.03698942 0.02902417 0.052041564 0.07376685 0.06781408 0.11386654 -0.054362606
-0.050348572 0.0012011796 0.14618668 -0.16529888 -0.004964652 -0.00590975 0.17347172 -0.07964108
0.01992964 0.0020882485 -0.0986973 0.06896376 0.18816166 0.003141441 -0.109039746 -0.009194931
0.0140321925 0.035104346 0.0013143468 0.091201685 -0.16818587 0.04651473 -0.040813778 0.05616426
-0.09157165 -0.009414293 -0.16450605 0.17622505 0.0059856134 -0.01996727 -0.078670755 -0.013457856
0.063963175 -0.047425065 0.031859495 -0.005772217 -0.034378394 -0.14171784 -0.11639739 0.011202995
-0.08007887 -0.049525067 -0.13636322 -0.16397588 -0.05896764 -0.081078224 -0.06958384 -0.05591411
-0.05308968 -0.03345028 0.15763895 -0.14802316 0.102770574 0.059237868 0.083694726 0.08849649
-0.13767587 0.054497544 -0.13276912 -0.06302011 -0.09621255 -0.061530452 -0.07076522 0.09767545
0.036749166 0.021602085 0.022866435 -0.0354937 -0.03877773 -0.1275289 -0.16072132 -0.035492886
-0.062254336 0.048265163 -0.09504612 0.015608677 -0.017170852 -0.03829175 -0.042932943 0.01307667
0.008794751 -0.038642697 0.018205225 -0.08469512 -0.016812138 0.041287243 -0.030404555 -0.08944128
0.10499832 0.18759446 -0.105932795 -0.051324494 -0.09705838 -0.12800352 -0.16065809 -0.030632991
0.09985128 -0.05180368 0.16777557 0.105784975 0.07928486 -0.10920985 -0.06701142 0.0554261
-0.022480307 -0.010696045 0.09248952 0.041919082 -0.13386174 0.011707028 -0.056501243 -0.114794575
-0.13559602 0.08684843 0.010685802 -0.05558781 -0.14566028 -0.02545244 0.071491204 0.013893135
-0.058137856 -0.12844145 0.14221482 -0.07738422 0.0077270856 -0.19848771 -0.10704796 -0.17041549
0.15423615 0.07893293 0.092249 0.07490227 -0.0729691 0.14876923 0.1370308 0.043324966
0.08845187 -0.05829776 0.016943721 0.054497283 -0.0064999717 -0.12722318 0.034769133 -0.06295083
-0.0751117 -0.028223528 0.10286057 0.022177381 0.19433065 0.19337447 0.0032491072 -0.06549416
-0.17464058 0.15834221 -0.04878399 0.14778973 0.067438476 -0.0076050553 -0.06262541 0.03828273
0.013471127 0.1374787 -0.20071638 -0.07177167 0.07524769 -0.07255146 -0.07272662 -0.09304199
0.007965452 -0.075902045 -0.02175023 -0.033880517 -0.022184288 0.10419197 0.027915906 0.05408146
-0.047792416 0.0019803245 0.105482526 0.062499654 0.044098012 -0.031134326 -0.12551165 0.0011535521
00000000: d4af cdbc b8b4 653c dd1a c53d d316 73bd
00000010: 15ca 5cbe ce7c f6bc 7420 1e3d ede9 f3bd
00000020: 873f 98bd e2ba 37be 6f50 54bd 6dd4 e33c
00000030: 9e18 34bd 93d0 ed3d ddd5 9d3d 8d56 dbbd
00000040: 1091 a1bc 53b8 1dbd dccd 1f3d 272d d43d
00000050: 8480 0bbe f4dc 8f3d 4a39 09bc 7730 e93c
00000060: cf14 dc3d 985a 50be a904 8cbc 908c 0f3c
00000070: 7cea 23bd 374b 0bbe 88b6 d2bd ef8d c1bd
00000080: c3ac f93c 7d2c 083d ea08 883c 46e6 7d3d
00000090: 9580 4b3d 30e8 87bd c6c4 743d c6cb 01be
000000a0: cd66 5bbe ccbf b8bc 98ba 523d 1a9c 53be
000000b0: 69f0 1c3d 1346 6abc 445d 1c3e ddf7 0ebd
000000c0: b409 a53c f3ec a13d 1d89 6b3c 0e73 903d
000000d0: 1dad 683e 0fc9 273e a902 f7bd 7d42 1abd
000000e0: 0b98 63bd f36f 0bbe fb4f ab3d 6441 f13a
000000f0: fca0 e73d 60e4 163e 2e28 6bbc 749c 613d
00000100: cf36 573d 3882 173d 19c4 ed3c 8929 553d
00000110: 1313 973d 1ce2 8a3d dc32 e93d 53ab 5ebd
00000120: 4e3a 4ebd e670 9d3a f6b1 153e 1c44 29be
00000130: 85ae a2bb 93a6 c1bb 92a2 313e dd1a a3bd
00000140: 7c43 a33c ffda 083b cf21 cabd df3c 8d3d
00000150: 73ad 403e a2e0 4d3b 3b50 dfbd 56a6 16bc
00000160: 48e7 653c 93c9 0f3d 2946 ac3a f3c7 ba3d
00000170: eb38 2cbe 3b86 3e3d 592c 27bd 7f0c 663d
00000180: eb89 bbbd 683e 1abc 4674 28be 5774 343e
00000190: f722 c43b 6692 a3bc 221e a1bd 577e 5cbc
000001a0: 20ff 823d c940 42bd 1a7f 023d de24 bdbb
000001b0: 5cd0 0cbd 7b1e 11be c161 eebd c48c 373c
000001c0: 6400 a4bd ccda 4abd cda2 0bbe 4be9 27be
000001d0: 0d88 71bd 570c a6bd f981 8ebd 3206 65bd
000001e0: 9074 59bd 2903 09bd 1b6c 213e 6293 17be
000001f0: 6179 d23d 68a3 723d 2468 ab3d a63d b53d
00000200: e7fa 0cbe d138 5f3d a1f4 07be b010 81bd
00000210: 160b c5bd 5b07 7cbd 5bed 90bd 110a c83d
00000220: 4b86 163d dbf6 b03c 6452 bb3c d861 11bd
00000230: 66d5 1ebd f096 02be 2194 24be fd60 11bd
00000240: 67fe 7ebd b1b1 453d 8aa7 c2bd 89bb 7f3c
00000250: e3a9 8cbc cfd7 1cbd 74da 2fbd 873f 563c
00000260: dc17 103c ce47 1ebd 2023 953c a374 adbd
00000270: 9cb9 89bc d01c 293d f912 f9bc fd2c b7bd
00000280: 5c09 d73d c318 403e 4bf3 d8bd a239 52bd
00000290: 8bc6 c6bd 5b13 03be 8e83 24be 0af2 fabc
000002a0: d47e cc3d 1830 54bd 5ccd 2b3e cba5 d83d
000002b0: 1a60 a23d 6aa9 dfbd 493d 89bd 7a06 633d
000002c0: 9f28 b8bc 773e 2fbc 256b bd3d 58b3 2b3d
000002d0: 0d13 09be d6ce 3f3c d96d 67bd 6b19 ebbd
000002e0: afd9 0abe 97dd b13d 8113 2f3c 0bb0 63bd
000002f0: f827 15be a381 d0bc fb69 923d 08a0 633c
00000300: f621 6ebd 2886 03be c3a0 113e 9e7b 9ebd
00000310: 7e33 fd3b 5d40 4bbe f63b dbbd 6681 2ebe
00000320: 15f0 1d3e 97a7 a13d 0bed bc3d 5d66 993d
00000330: d370 95bd f656 183e cd51 0c3e 8575 313d
00000340: 4126 b53d a2c9 6ebd 8fcd 8a3c 8b38 5f3d
00000350: b7fd d4bb cb46 02be 146a 0e3d 5dec 80bd
00000360: 2ad4 99bd 0735 e7bc 90a8 d23d 57ad b53c
00000370: 9dfe 463e f503 463e f9ee 543b cd21 86bd
00000380: fbd4 32be 7624 223e b9d1 47bd 3156 173e
00000390: 2f1d 8a3d d433 f9bb c041 80bd 5ace 1c3d
000003a0: 00b6 5c3c 37c7 0c3e 9888 4dbe 06fd 92bd
000003b0: 761b 9a3d dc95 94bd b2f1 94bd cd8c bebd
000003c0: 8781 023c 8872 9bbd 8a2d b2bc 4cc6 0abd
000003d0: d3bb b5bc 9962 d53d e6af e43c 8584 5d3d
000003e0: fbc1 43bd 55c8 013b 3907 d83d a3ff 7f3d
000003f0: 1ea0 343d 6a0d ffbc 2086 00be c932 973a

network_body.linear_encoder.seq_layers.2.bias f4 [128]
-0.00016280133 0.00078165584 0.0065978183 0.001688476 -0.0017854113 -0.004790654 7.9618374e-05 0.0011350733
-0.0053504915 -0.0029737037 -0.0049990606 0.0023481753 0.0034484756 -0.0022221864 0.0005848086 -0.0061833723
0.0026425272 -0.002632573 0.0013750872 0.0051826355 0.0024034472 -0.0010863874 -0.005038512 -0.010082747
-0.0053928373 -0.0024889566 -0.0029999588 -0.002227023 0.0049235327 0.007665003 0.0017765544 0.008884521
0.0078044673 0.0003078996 -0.009935842 0.0108818 -0.0024229344 -0.002472596 0.0009651647 0.0016672125
-0.0020613987 -0.0037844297 -0.009732906 0.0039402293 0.0029701486 0.008084097 -0.000250552 0.001550935
0.00030178524 -0.003336122 0.001305544 -0.006854146 -5.8382437e-05 -0.0011903807 -0.002028877 0.0011479545
-0.0026038657 -0.0019954252 -0.0017612131 -0.0030561993 -0.006233602 -0.0059046745 -0.0012450659 -0.0019579371
-0.0023265542 0.0033011483 -0.0012141392 -0.0016404453 0.0016167889 -0.004097088 0.0046057543 0.00489749
0.004761515 0.0016768352 0.0019568983 -0.001902568 -0.0050870734 -0.0011806547 0.0029729735 0.0022632068
-0.0020225113 -0.00093289796 -0.0026636338 0.0011173974 0.0059976303 0.001594922 0.002096661 -0.00069489516
-0.0017090249 0.0015861157 0.005780549 -0.0026191047 -0.0037753165 -9.2829345e-05 -0.006366812 -0.001960507
-0.0008336887 -0.0023124982 -0.0021481426 0.002261958 -0.008161252 -0.001203999 0.006987455 -0.0005633696
0.005770294 0.0015465867 -0.0010114284 -0.001542906 -0.0021436277 0.0025965516 0.00081512483 0.0035972074
0.0065265377 -0.009860736 -0.0026351456 0.0029710587 -0.0013883858 0.001764917 0.002798077 -0.0077782935
0.002661268 -0.0024857468 -0.004413672 -0.0055836556 0.001592314 0.0003459897 0.0021028246 0.0073894486
00000000: a6b5 2ab9 09e8 4c3a 8332 d83b da4f dd3a
00000010: 7604 eaba ebfa 9cbb caf8 a638 bdc6 943a
00000020: 2d53 afbb 78e2 42bb 29cf a3bb d8e3 193b
00000030: d2ff 613b 1aa2 11bb d74d 193a e39d cabb
00000040: 402e 2d3b 3f87 2cbb 453c b43a 19d3 a93b
00000050: 2783 1d3b 1d65 8eba 1a1a a5bb 1b32 25bc
00000060: 66b6 b0bb c31d 23bb f59a 44bb 3ff3 11bb
00000070: 9655 a13b b52a fb3b 46db e83a 6290 113c
00000080: 9ebc ff3b 966d a139 f1c9 22bc 9449 323c
00000090: 18ca 1ebb 470b 22bb 1b03 7d3a 5e86 da3a
000000a0: 8818 07bb 3204 78bb c476 1fbc 0a1d 813b
000000b0: d3a6 423b 2973 043c 855c 83b9 be48 cb3a
000000c0: ee38 9e39 d7a2 5abb ca1e ab3a be98 e0bb
000000d0: aadf 74b8 8c06 9cba e8f6 04bb f676 963a
000000e0: 9ea5 2abb aec5 02bb 81d8 e6ba 844a 48bb
000000f0: 3e43 ccbb 007c c1bb 7b31 a3ba bc50 00bb
00000100: 1a79 18bb 1458 583b c023 9fba 3604 d7ba
00000110: 6fea d33a dd40 86bb deeb 963b 207b a03b
00000120: 7c06 9c3b 41c9 db3a 4e3f 003b 975f f9ba
00000130: 77b1 a6bb 33c0 9aba 38d6 423b 4f52 143b
00000140: 1c8c 04bb b98d 74ba 5c90 2ebb a375 923a
00000150: c587 c43b b40c d13a 2268 093b a029 36ba
00000160: 5c01 e0ba 36e5 cf3a c26a bd3b 49a5 2bbb
00000170: 4d6b 77bb 60ad c2b8 b1a0 d0bb d97b 00bb
00000180: e78b 5aba 488d 17bb dac7 0cbb 5c3d 143b
00000190: c6b6 05bc 81cf 9dba 05f7 e43b 18af 13ba
000001a0: bc14 bd3b d7b6 ca3a e891 84ba 563b caba
000001b0: 1b7c 0cbb e82a 2a3b 1aae 553a 20bf 6b3b
000001c0: 91dc d53b ed8e 21bc 68b2 2cbb 18b6 423b
000001d0: 7ffa b5ba ca54 e73a f15f 373b 0ee1 febb
000001e0: ab68 2e3b e9e7 22bb 90a0 90bb 19f7 b6bb
000001f0: 31b5 d03a f465 b539 8bcf 093b 3023 f23b

action_model._continuous_distribution.log_sigma f4 [1, 2]
0.002313907 -0.025796942
00000000: eba4 173b 1c54 d3bc

action_model._continuous_distribution.mu.weight f4 [2, 128]
0.041907165 0.005134623 -0.04036629 0.02279173 0.006853425 0.021364784 -0.02339747 0.025570687
0.012984103 -0.04216169 0.025871966 0.022517066 0.0093378145 -0.010066539 -0.015829023 -0.027245522
-0.018503431 0.014008813 -0.000976633 0.06823422 -0.0005985701 0.032828625 -0.0005420967 -0.0027434214
0.010379711 -0.012638966 0.011956639 -0.013508193 -0.011351002 -0.032151315 0.016267428 0.018957108
-0.026014546 -0.008777184 0.0030475552 -0.017287359 -0.013799128 -0.007886123 -0.025959687 -0.007556295
-0.01687782 -0.0027533656 0.01695769 -0.04131968 0.0010909446 -0.03447216 -0.027717557 0.010742659
0.005244588 0.00715891 0.013001561 0.0058954083 0.00982292 -0.01174176 -0.027704922 0.012210341
-0.020343674 -0.0016013118 0.013495986 -0.011669998 0.0075509534 0.016344965 -0.010908937 -0.038453415
0.014457356 -0.03799589 -0.0004171447 0.001601843 -0.03830958 0.042175367 -0.020552723 -0.05017168
-0.0023572 0.034901135 0.011005776 -0.013423485 -0.0018021578 0.0040071667 -0.029682739 -0.0124802925
0.014883562 -0.022105442 0.015250625 -0.020746183 0.053939 0.026663555 0.019622875 0.03420624
-0.028466685 -0.01876803 0.011880168 0.009508137 -0.020387739 -0.0108174635 -0.013416505 -0.027572175
0.028767465 0.0051541785 -0.01785441 -0.021563541 -0.01112652 0.018621821 0.009065264 0.035059042
-0.014910582 0.00272195 0.0064567695 0.0063020186 -0.010070909 0.0045631295 0.026602633 0.025066176
0.0301838 0.006505697 -0.019033538 0.024977269 0.0046261866 0.009278771 -0.0031438756 0.005448969
0.03889595 -0.010933565 -0.0090200305 -0.004380891 0.0039439574 -0.0071347975 0.0140751405 -0.012342495
-0.024299255 0.0015376768 -0.0272814 0.027814265 -0.011153409 0.025902702 -0.00813038 -0.016233576
0.0077563524 -0.026734168 -0.015858814 0.0033159056 0.01216568 -0.0008977508 0.025114777 0.013177087
0.04511232 -0.01381884 0.014770583 -0.005813578 0.010412756 -0.0116756195 -0.026040617 0.016970653
0.0017228372 -0.0032792452 0.0035929247 -0.0014111012 -0.012044292 -0.030011293 0.020783119 -0.030725898
0.008388788 0.004646858 0.0073569976 -0.018255176 -0.028886536 0.0038263132 0.00505633 0.017557938
-0.023676649 -0.03906629 0.0024775052 0.0053586774 -0.015930349 -0.013734641 -0.023387553 0.0047625066
-0.014369182 -0.017682372 0.0037793422 0.018972827 -0.009991222 0.008237804 -0.0012700914 -0.0034881167
-0.018911256 -0.027499737 -0.013650936 0.0049878466 -0.0038113287 -0.009774731 0.00262363 0.009601676
-0.022976346 0.00096820144 0.0026852677 -0.03615334 -0.0025920365 0.022021545 -0.014465298 0.020510139
-0.006576817 0.02221714 -0.03197923 -0.02320236 -0.00052703195 -0.00095320924 -0.019163081 0.016804116
0.013097471 -0.017793292 -0.0039006022 -0.0074328524 -0.04073122 0.0069061285 -0.028093755 0.023833698
-0.0032810713 0.0075387624 -0.005068351 -0.0010012505 0.012932828 0.009795819 -0.014979676 0.013315743
0.0150631415 0.0016456408 -0.014415117 0.03265473 0.0060128816 -0.021139294 -0.01744682 0.012837019
-0.017308524 0.041427255 0.0016925595 -0.019249838 0.017518397 -0.00721092 -0.005215143 -0.015054935
-0.019950151 0.031477552 -0.0050465004 -0.01504107 0.00017854117 0.0019862636 -0.022488525 0.029880073
0.015347377 -0.009803035 -0.0039222073 -0.006786334 0.03532594 0.010735158 -0.023320405 -0.032332733
00000000: d9a6 2b3d 5740 a83b 1f57 25bd b9b5 ba3c
00000010: b292 e03b 3305 af3c 0dac bfbc 9e79 d13c
00000020: 46bb 543c bcb1 2cbd 72f1 d33c b675 b83c
00000030: a2fd 183c 20ee 24bc deab 81bc 0032 dfbc
00000040: 8294 97bc 3885 653c 5e02 80ba 62be 8b3d
00000050: 5ce9 1cba 4f77 063d 7e1b 0eba f9ca 33bb
00000060: aa0f 2a3c aa13 4fbc c7e5 433c 7851 5dbc
00000070: 8ef9 39bc 19b1 03bd 4543 853c f04b 9b3c
00000080: 751c d5bc 2ece 0fbc 7eb9 473b 389e 8dbc
00000090: bd15 62bc cc34 01bc 69a9 d4bc cc9a f7bb
000000a0: 5b43 8abc cf71 34bb daea 8a3c d33e 29bd
000000b0: 07fe 8e3a ae32 0dbd ee0f e3bc fa01 303c
000000c0: cbda ab3b 4a95 ea3b 8004 553c 452e c13b
000000d0: 50f0 203c 8360 40bc 6ff5 e2bc e20d 483c
000000e0: c7a7 a6bc 1ce3 d1ba 451e 5d3c 8533 3fbc
000000f0: fd6d f73b e0e5 853c 66bb 32bc 5481 1dbd
00000100: 8cde 6c3c 94a1 1bbd 37b4 dab9 eff4 d13a
00000110: 82ea 1cbd 14c0 2c3d 2f5e a8bc d280 4dbd
00000120: 417b 1abb 7ef4 0e3d 9251 343c 2dee 5bbc
00000130: 6236 ecba 8d4e 833b 3729 f3bc 247a 4cbc
00000140: 2fda 733c 7916 b5bc c2dd 793c e6f3 a9bc
00000150: 24ef 5c3d 876d da3c 27c0 a03c d81b 0c3d
00000160: f732 e9bc 69bf 99bc 09a5 423c 04c8 1b3c
00000170: 3004 a7bc bb3b 31bc e7d0 5bbc 0bdf e1bc
00000180: bfa9 eb3c 62e4 a83b 6943 92bc 06a6 b0bc
00000190: 024c 36bc ca8c 983c 7986 143c 129a 0f3d
000001a0: 844b 74bc be62 323b 4f93 d33b 2a81 ce3b
000001b0: 7400 25bc 4e86 953b c4ed d93c 9557 cd3c
000001c0: 0444 f73c be2d d53b 39ec 9bbc 219d cc3c
000001d0: 4497 973b fc05 183c 7b09 4ebb 448d b23b
000001e0: 5c51 1f3d b222 33bc c0c8 13bc 948d 8fbb
000001f0: 503c 813b 05cb e9bb 6b9b 663c 2d38 4abc
00000200: 3b0f c7bc df8b c93a 3e7d dfbc beda e33c
00000210: cabc 36bc e731 d43c 4935 05bc 47fc 84bc
00000220: 0029 fe3b 9d01 dbbc 58ea 81bc aa4f 593b
00000230: 8f52 473c 0957 6bba 81bd cd3c b5e4 573c
00000240: b2c7 383d 6a68 62bc 5100 723c d47f bebb
00000250: 449a 2a3c 194b 3fbc 2253 d5bc 0a06 8b3c
00000260: d3d0 e13a 9be8 56bb 4677 6b3b b3f4 b8ba
00000270: 6c55 45bc 3eda f5bc 5c41 aa3c e1b4 fbbc
00000280: 2171 093c ac44 983b f812 f13b e18b 95bc
00000290: 75a3 ecbc e2c2 7a3b 92af a53b aad5 8f3c
000002a0: 88f5 c1bc f903 20bd a45d 223b d897 af3b
000002b0: 5d80 82bc 4207 61bc 4197 bfbc cd0e 9c3b
000002c0: b86c 6bbc 9fda 90bc d7ae 773b e76c 9b3c
000002d0: 39b2 23bc dbf7 063c 3279 a6ba e398 64bb
000002e0: c7eb 9abc 2147 e1bc 2da8 5fbc 1771 a33b
000002f0: 7cc7 79bb 3126 20bc 35f1 2b3b 5950 1d3c
00000300: e438 bcbc e6ce 7d3a 51fb 2f3b 8615 14bd
00000310: 28df 29bb 8766 b43c dbff 6cbc e104 a83c
00000320: 5782 d7bb b800 b63c a7fc 02bd e012 bebc
00000330: 8428 0aba cae0 79ba e5fb 9cbc c9a8 893c
00000340: c696 563c 3dc3 91bc 3fa1 7fbb 498f f3bb
00000350: c8d5 26bd ce4c e23b e024 e6bc e33e c33c
00000360: 3e07 57bb b907 f73b 6914 a6bb 643c 83ba
00000370: 36e4 533c a57e 203c 516d 75bc 462a 5a3c
00000380: 65cb 763c 8bb2 d73a 622d 6cbc f7c0 053d
00000390: b507 c53b 502c adbc a2ec 8ebc 5c52 523c
000003a0: 9bca 8dbc a0af 293d dfd8 dd3a d6b1 9dbc
000003b0: be82 8f3c 9549 ecbb cae3 aabb f9a8 76bc
000003c0: 806e a3bc 9bee 003d 1d5d a5bb d26e 76bc
000003d0: c836 3b39 f92b 023b db39 b8bc 0ec7 f43c
000003e0: 9173 7b3c e99c 20bc dc85 80bb e55f debb
000003f0: efb1 103d 84e2 2f3c 6f0a bfbc 546f 04bd

action_model._continuous_distribution.mu.bias f4 [2]
0.001552532 0.0015783049
00000000: 547e cb3a 20df ce3a

action_model._discrete_distribution.branches.0.weight f4 [1, 128]
0.006568639 -0.0012773301 0.007202917 -0.0006681228 -0.003709472 -0.0077335313 0.0010887989 0.0029667877
-0.01043219 -0.016643832 -0.011323463 0.0005416607 0.0013406726 -0.014975597 -0.009424758 -0.00082672463
0.0041988054 0.0011620441 -0.015891192 -0.0069408403 0.022439737 0.0010187917 0.01271947 -0.007006419
0.010613809 0.01808466 0.004080185 0.0045610964 -0.005211161 -0.008662713 -0.010368325 0.0043744585
-0.008659796 0.013220526 0.012483479 -0.0028355129 0.004162705 -0.0050977427 -0.0032617112 -0.0051825615
0.013943694 0.0035297622 0.0009063979 -0.007647226 0.0083274385 -0.0016118981 0.008094483 -0.008462266
-0.007087809 -0.011661432 -0.0020366833 0.0029135856 0.0031725802 -0.008373777 -0.016999299 0.006764771
-0.00062348536 0.010023532 -0.0028666619 0.0006680541 0.015598659 -0.00037019036 0.00598515 -0.01486589
-0.008755828 -0.0017390613 -0.0046721376 -0.0047596185 0.009018841 0.0017443713 -0.002420474 0.01187234
-0.0044252826 0.01151052 0.010288342 0.0095496625 -0.007921588 -0.013350724 -0.0051209754 0.0077505126
0.022998467 0.0004938017 0.010010381 -0.0149850845 0.0063556256 -0.0075364145 -0.0015663056 -0.007859223
0.0016651143 0.009724936 0.005112959 0.0033329416 -0.009417178 0.0065209228 0.004348939 -0.0012042869
0.00037085376 0.0014863799 0.010397637 0.0029053444 -0.008719168 -0.010622353 -0.00939441 -0.004307249
-0.0073456042 0.003155384 0.005632524 -0.0121897785 0.01729834 0.01142515 0.019416012 -0.0141461
-0.00068226876 -0.0011176555 -0.005734054 0.004760874 -0.0092391325 0.0093565425 0.0066463025 -0.013203057
-0.00090161414 -0.002839468 0.002057323 -0.0091008125 -0.005223206 -0.0060042455 -0.0021112016 -0.010868432
00000000: bd3d d73b 166c a7ba 7206 ec3b f624 2fba
00000010: 9d1a 73bb 9069 fdbb 07b6 8e3a 706e 423b
00000020: c7eb 2abc a558 88bc 0c86 39bc 3cfe 0d3a
00000030: 82b9 af3a 355c 75bc 4d6a 1abc 8db8 58ba
00000040: 2296 893b bb4f 983a 3f2e 82bc fd6f e3bb
00000050: 8ad3 b73c fa88 853a 5365 503c 1a96 e5bb
00000060: 8be5 2d3c 4826 943c 13b3 853b 4075 953b
00000070: 63c2 aabb 0dee 0dbc e8df 29bc 9e57 8f3b
00000080: d1e1 0dbc e89a 583c 8287 4c3c 03d4 39bb
00000090: 4d67 883b f70a a7bb 6fc2 55bb 7ad2 a9bb
000000a0: 1774 643c 9553 673b 559b 6d3a 9595 fabb
000000b0: cf6f 083c 5346 d3ba b99e 043c 51a5 0abc
000000c0: da40 e8bb 970f 3fbc e079 05bb dbf1 3e3b
000000d0: 10eb 4f3b 2b32 09bc 1d42 8bbc 03ab dd3b
000000e0: 6571 23ba be39 243c 9bde 3bbb 5a20 2f3a
000000f0: 8591 7f3c 1c16 c2b9 141f c43b 1090 73bc
00000100: 9b74 0fbc 37f1 e3ba bb18 99bb 93f6 9bbb
00000110: c3c3 133c 63a3 e43a d1a0 1ebb 3484 423c
00000120: f601 91bb 9f96 3c3c 6f90 283c 3076 1c3c
00000130: 8cc9 01bc ffbc 5abc dbcd a7bb 03f8 fd3b
00000140: 4867 bc3c 7972 013a 9502 243c 0084 75bc
00000150: da42 d03b 07f4 f6bb 7f4c cdba f8c3 00bc
00000160: f73f da3a 5755 1f3c 9c8a a73b 7b6d 5a3b
00000170: 824a 1abc 77ad d53b 8b81 8e3b 2ad9 9dba
00000180: 266f c239 a2d2 c23a da5a 2a3c 9767 3e3b
00000190: d7da 0ebc 6109 2ebc 03eb 19bc d323 8dbb
000001a0: 65b3 f0bb 8fca 4e3b 0991 b83b a3b7 47bc
000001b0: 40b5 8d3c 8d30 3b3c 540e 9f3c 0bc5 67bc
000001c0: 48da 32ba 4c7e 92ba bbe4 bbbb 1b01 9c3b
000001d0: bb5f 17bc 2f4c 193c 3ac9 d93b a351 58bc
000001e0: 4d5a 6cba 5e16 3abb 27d4 063b 931b 15bc
000001f0: 6d27 abbb 43bf c4bb 165c 0abb 8211 32bc

critic.network_body.linear_encoder.seq_layers.0.weight f4 [128, 6]
-0.008444635 0.5508835 0.25773677 0.38864315 -0.16033365 -0.023390276 -0.12402567 -0.34541032
-1.0016788 0.22184242 -0.13779049 0.14584991 -0.2326237 0.15227878 0.39638785 1.2235428
0.7223583 0.37054852 0.87226415 -0.13805002 0.46197578 -0.027663289 0.1175584 -0.6580156
-0.5924253 -0.60702175 0.00025658542 0.671049 -0.12259398 -0.5151964 0.057671472 -0.86631423
0.27730837 1.155622 0.108483836 0.7268368 -0.36293346 -0.42456993 -0.40562803 -0.0066583864
0.15485354 0.43371496 -0.21616352 0.038008455 0.5827948 -0.4669503 -0.22675987 0.1217293
-0.07541714 0.3014942 -0.20299852 0.26140955 -0.3374099 0.30222458 -0.26320645 -0.50392914
-0.2975834 -0.34920937 -0.34828576 0.27385864 0.037700854 0.11946909 0.84525305 -0.49850225
0.1073628 0.3865798 -0.48118803 -0.7100048 -0.427658 0.35114536 0.052384026 -0.18434489
0.26035526 -0.42061788 0.15281464 0.47495544 -1.1273985 0.35148895 0.11663046 0.24128622
-0.22325341 -0.11883352 0.15804467 -0.51649 0.3784872 0.063129514 -0.22418548 0.2190037
-0.1792723 -0.2871717 0.55317074 0.61128837 -0.020438958 0.46449158 -0.76199096 -0.19053803
-0.07594778 -0.031031651 -0.14101984 -0.35495958 0.4922496 -0.14272799 0.27378014 0.9766671
0.11516337 0.42118952 0.28020373 0.15910095 0.5014199 -0.20836323 0.6671591 0.35888642
-0.053780325 0.423701 -0.44003218 0.07455045 0.11227266 -0.64570874 -0.31852877 0.004091414
-0.38735104 0.35403845 0.029752003 0.45598093 0.047484767 -0.09718471 0.26369885 0.7114388
0.14593033 0.20176487 0.08392313 0.576074 -0.47196153 0.04528442 0.76934946 0.38515636
0.37225428 -0.40046534 -0.44874164 -0.5083005 -0.34427953 0.71530503 -0.60267186 -0.30871764
-0.0045920415 0.49830642 -0.08133081 -0.12326314 -0.14227861 -0.012799523 0.14518017 0.27271783
0.47512037 0.65856946 -0.24952641 0.15388158 -0.32878855 -0.32726917 -0.39143088 -0.22592612
0.20528224 -0.52452147 0.13042486 0.21674037 0.26467428 -0.32030153 -0.14657779 0.6910159
0.29322994 -0.40329143 0.14215443 0.056423508 -0.0726903 -1.1753113 -0.49976704 -0.36540917
1.0675828 -0.065718025 -0.5059889 -0.6291792 0.058773335 -0.0764925 -0.19983067 0.07503499
0.13232477 0.3332215 -0.7780711 0.18679038 0.2075165 0.035596468 -0.47267026 0.030363249
-0.5747604 -0.23533735 -0.39895877 -0.099806726 0.3889407 0.2577368 -0.71239287 0.13332848
0.18162127 0.0382454 0.031168729 -0.34273234 -0.1480323 -0.42123762 -0.9563693 0.0993039
-0.40883026 0.511167 0.38178718 0.41459346 -0.29778782 0.15782629 -0.4997376 0.015383853
0.28525275 0.70900553 0.4386735 -0.41872647 -0.07756565 0.580524 0.5409356 0.22635354
0.44508526 -0.26655155 -0.22173402 0.25282404 0.1361637 0.41922012 0.42157778 0.11769189
-0.5557167 -0.018289767 0.25504923 0.32243353 -0.14123645 0.3289303 -0.62722826 0.672371
0.24644125 0.56861466 -0.10516869 -0.6118142 -0.22192897 0.5319223 -0.30718115 0.4393428
-0.28852922 0.25643942 0.021802127 -0.019413348 -0.32635397 -0.4235448 -0.14942901 -0.70679754
00000000: 5e5b 0abc b306 0d3f 13f6 833e 3cfc c63e
00000010: 812e 24be f79c bfbc 2c01 febd 9fd9 b0be
00000020: 0337 80bf a92a 633e f318 0dbe ae59 153e
00000030: e834 6ebe f8ee 1b3e 59f3 ca3e 0d9d 9c3f
00000040: 79ec 383f 89b8 bd3e b44c 5f3f fc5c 0dbe
00000050: 1788 ec3e 1f9e e2bc 75c2 f03d b673 28bf
00000060: 2fa9 17bf c765 1bbf 5086 8639 dec9 2b3f
00000070: 8d12 fbbd e9e3 03bf ec38 6c3d c5c6 5dbf
00000080: 5dfb 8d3e 6ceb 933f c62c de3d fa11 3a3f
00000090: 6ad2 b9be 3b61 d9be 7aae cfbe 982e dabb
000000a0: ed91 1e3e e30f de3e f859 5dbe c1ae 1b3d
000000b0: 0a32 153f 1c14 efbe bd33 68be 364d f93d
000000c0: 4d74 9abd 735d 9a3e d8de 4fbe 79d7 853e
000000d0: fec0 acbe 2ebd 9a3e ffc2 86be 8001 01bf
000000e0: da5c 98be 92cb b2be 8352 b2be 3337 8c3e
000000f0: 366c 1a3d 36ac f43d 8162 583f b03b ffbe
00000100: 07e1 db3d caed c53e 475e f6be e0c2 35bf
00000110: fdf5 dabe 53c9 b33e a290 563d e8c4 3cbe
00000120: 494d 853e 3a5b d7be 717b 1c3e 5c2d f33e
00000130: 984e 90bf 5cf6 b33e f3db ee3d bc13 773e
00000140: 8b9c 64be fd5e f3bd 76d6 213e b038 04bf
00000150: 13c9 c13e 0c4a 813d e190 65be 8242 603e
00000160: 2893 37be 2b08 93be 999c 0d3f 657d 1c3f
00000170: 9a6f a7bc d7d1 ed3e d711 43bf 671c 43be
00000180: 828a 9bbd 1736 febc 8167 10be 43bd b5be
00000190: 2408 fc3e 4927 12be e92c 8c3e db06 7a3f
000001a0: c6da eb3d 27a6 d73e dd76 8f3e 5ceb 223e
000001b0: 0e5d 003f 2c5d 55be f0ca 2a3f f6bf b73e
000001c0: c248 5cbd 56ef d83e e64b e1be e8ad 983d
000001d0: 35ef e53d 2b4d 25bf 3416 a3be 4511 863b
000001e0: e052 c6be 8744 b53e 79ba f33c 5576 e93e
000001f0: 637f 423d c708 c7bd 8903 873e da20 363f
00000200: c36e 153e 739b 4e3e e4df ab3d 9679 133f
00000210: f1a4 f1be 287c 393d 16f4 443f 3733 c53e
00000220: 1d98 be3e cb09 cdbe 77c1 e5be fb1f 02bf
00000230: 6845 b0be 3b1e 373f b448 1abf 3d10 9ebe
00000240: d678 96bb 0522 ff3e c590 a6bd 6371 fcbd
00000250: 7cb1 11be 17b5 51bc 1caa 143e aca1 8b3e
00000260: fa42 f33e 0298 283f da83 7fbe 2293 1d3e
00000270: f956 a8be d38f a7be a169 c8be 2d59 67be
00000280: 8235 523e 0a47 06bf 188e 053e 30f1 5d3e
00000290: 6383 873e 90fe a3be 7d18 16be 6be6 303f
000002a0: 3c22 963e 377c cebe ee90 113e 561c 673d
000002b0: a7de 94bd 9a70 96bf 77e1 ffbe e916 bbbe
000002c0: 8ea6 883f 2c97 86bd 7d88 01bf e311 21bf
000002d0: 4fbc 703d 1aa8 9cbd 69a0 4cbe f2ab 993d
000002e0: 2580 073e 029c aa3e ab2f 47bf fa45 3f3e
000002f0: 357f 543e 9acd 113d d601 f2be 59bc f83c
00000300: 7f23 13bf 46fc 70be 5344 ccbe 7867 ccbd
00000310: 3c23 c73e 14f6 833e 615f 36bf 4387 083e
00000320: edfa 393e 35a7 1c3d 9055 ff3c 9d7a afbe
00000330: c795 17be 75ac d7be 9ed4 74bf d85f cb3d
00000340: 3352 d1be d7db 023f 9c79 c33e 9845 d43e
00000350: a577 98be 379d 213e 9bdd ffbe 8e0c 7c3c
00000360: a60c 923e 6381 353f d099 e03e 5163 d6be
00000370: bdda 9ebd 399d 143f c17a 0a3f 39c9 673e
00000380: 37e2 e33e 7279 88be 3e0e 63be 2772 813e
00000390: 7f6e 0b3e 05a4 d63e 0bd9 d73e 7208 f13d
000003a0: 7343 0ebf 6cd4 95bc d095 823e 0216 a53e
000003b0: 4aa0 10be 8d69 a83e 0892 20bf 8120 2c3f
000003c0: 185b 7c3e bb90 113f af62 d7bd db9f 1cbf
000003d0: 5941 63be 0f2c 083f d946 9dbe 8af1 e03e
000003e0: 1aba 93be 074c 833e 609a b23c be08 9fbc
000003f0: de17 a7be ddda d8be eb03 19be aff0 34bf

critic.network_body.linear_encoder.seq_layers.0.bias f4 [128]
0.0019022073 -0.002679907 0.0005909432 -0.005608846 -0.0009497797 0.0004884569 -0.00030391905 -0.0009759574
-0.0005564604 0.0004512613 0.0003776579 -0.0022731032 -0.00031004837 -0.00063863257 0.0009122911 -0.00030193443
-0.0010181834 0.00068034546 -0.0005245905 -7.585346e-05 0.0016108546 0.00031230142 0.0086054485 -0.0013118179
-0.001571144 -0.0005776107 -0.00060990953 5.6208475e-05 -0.0018154522 0.009969638 -0.00076654303 -0.0012253412
-0.0022851161 -0.00065850955 0.012106117 -0.00197829 0.00054489175 -0.0019492444 -0.00045434802 0.0071207737
-0.00016630927 0.004626627 0.00023038287 -0.00046854583 -0.0003288908 -0.00036751517 2.6314143e-05 -0.0006580759
3.5424095e-05 0.00138574 -0.00063915853 -0.00034447148 0.0028030742 -0.00011628269 0.0027481325 0.0011602232
-0.00035860046 -0.00040658598 -0.0006602029 0.0001850355 -0.0011369457 0.00032908635 -0.0037644936 -0.0026504446
-0.0003208932 -0.0048821983 -0.00057388766 -0.00033867196 -0.00022085723 0.00084736216 -0.0033277865 -0.0010705993
0.00048096763 -0.0030915646 -0.003596445 0.00012365924 0.0005221781 -0.0003780032 -0.000782309 0.003889272
2.1800952e-05 -0.00035892896 -0.0005975024 0.0014133925 -0.0006229983 -0.0011176392 -0.0013437285 1.4561099e-05
-0.0010803348 -0.0053901416 0.00011551586 -0.0004509008 -0.0021052537 0.0027360774 0.00054206426 -0.009074645
-0.00018463493 -0.0011701016 -0.0013108865 0.00020340299 -5.275695e-06 -0.0059423107 -0.00073187525 -0.00024163646
0.00048092485 -0.0010491966 -7.8343655e-06 -0.001040914 -0.0069419527 0.00028274764 -0.009044505 0.00041549915
-0.0002928669 -0.00052797724 0.0010704648 0.00012675468 -0.0004631516 -0.001125132 -0.00025849242 -0.0008926791
0.0017918834 0.00091970526 -0.0058584604 -0.00048416245 0.00064203196 -0.00016383367 0.0019698702 0.001538965
00000000: 7c53 f93a 61a1 2fbb 87e9 1a3a 69ca b7bb
00000010: a3fa 78ba ca0b 003a 5357 9fb9 64d7 7fba
00000020: 6ddf 11ba 4497 ec39 6300 c639 58f8 14bb
00000030: fd8d a2b9 e869 27ba d226 6f3a f44c 9eb9
00000040: 9174 85ba 3659 323a ac84 09ba 8413 9fb8
00000050: 5023 d33a 63bc a339 defd 0c3c 4ef1 abba
00000060: d8ee cdba cc6a 17ba 56e2 1fba 64c1 6b38
00000070: 78f4 edba b157 233c d5f1 48ba a19b a0ba
00000080: e3c1 15bb d49f 2cba bc58 463c 33a6 01bb
00000090: 11d7 0e3a ca7d ffba 8f35 eeb9 6155 e93b
000000a0: 4e63 2eb9 f69a 973b ee92 7139 28a7 f5b9
000000b0: fa6e acb9 0daf c0b9 31bd dc37 ba82 2cba
000000c0: 5594 1438 b8a1 b53a 348d 27ba 2e9a b4b9
000000d0: c8b3 373b cbdc f3b8 031a 343b a112 983a
000000e0: 8a02 bcb9 0c2b d5b9 7711 2dba 1706 4239
000000f0: 9105 95ba 3989 ac39 b9b5 76bb 15b3 2dbb
00000100: 8e3d a8b9 d9fa 9fbb f370 16ba c88f b1b9
00000110: e995 67b9 8321 5e3a fe16 5abb 5a53 8cba
00000120: 622a fc39 d99b 4abb 56b2 6bbb 86aa 0139
00000130: c7e2 083a bb2e c6b9 de13 4dba 28e3 7e3b
00000140: 30e1 b637 a12e bcb9 b5a1 1cba 9541 b93a
00000150: b550 23ba c07d 92ba 0c20 b0ba 724b 7437
00000160: 059a 8dba c99f b0bb 1b41 f238 e266 ecb9
00000170: 4cf8 09bb c34f 333b 5119 0e3a d2ad 14bc
00000180: 909a 41b9 185e 99ba 0dd2 abba 9348 5539
00000190: e005 b1b6 b7b7 c2bb 51db 3fba cb5f 7db9
000001a0: a424 fc39 3285 89ba 5870 03b7 476f 88ba
000001b0: 5279 e3bb bf3d 9439 672f 14bc 5ad7 d939
000001c0: ee8b 99b9 f467 0aba d74e 8c3a 73e9 0439
000001d0: 28d3 f2b9 2a79 93ba 4486 87b9 ae02 6aba
000001e0: a1dd ea3a 6018 713a 54f8 bfbb 2fd7 fdb9
000001f0: 094e 283a c4ca 2bb9 f018 013b 19b7 c93a

critic.network_body.linear_encoder.seq_layers.2.weight f4 [128, 128]
0.092245385 -0.09703275 -0.2060979 0.11936172 -0.020976467 -0.011808874 0.06778497 0.12026959
-0.14461365 -0.02478119 0.1675292 -0.045310274 0.12565911 -0.09150277 0.15667272 -0.044050276
-0.07037067 -0.053552058 -0.18397896 0.13224235 -0.0033171086 0.0028137895 0.05236976 -0.09447936
0.044152357 0.13020588 0.09806918 -0.050059374 0.05059628 -0.07033344 -0.16828512 0.1443481
-0.123692654 -0.044088926 0.013516754 -0.051534332 -0.022783924 -0.07718463 0.0028444985 0.03273867
0.12961832 0.023335474 -0.0649637 -0.083287604 0.164027 0.21787244 0.08093374 -0.04542281
0.09524833 -0.22844821 0.025082083 -0.06476711 -0.028939696 -0.031668372 0.009552954 -0.10545837
-0.15823445 0.0717279 -0.08464435 -0.07481501 -0.18039997 0.09471615 0.0066320137 0.032506008
0.024859315 0.03994747 -0.037992984 0.038027216 -0.06350795 0.0039631855 -0.024073401 -0.058942653
0.08569168 0.0007742325 0.09925811 0.039378908 -0.032185677 -0.036182065 -0.047401488 -0.008555053
0.051708497 -0.022310767 0.12563933 0.0028782429 0.1347656 -0.10154538 0.1147275 0.03078356
-0.068456694 -0.24274138 0.070912704 -0.13296881 0.025494387 -0.15774818 0.023409575 -0.047024455
0.24655512 -0.02410657 -0.03185185 -0.054682307 -0.084622696 0.0053725443 -0.14453928 0.0027671913
-0.117014036 0.17192133 0.018348664 -0.095642924 0.13509265 -0.065256655 -0.047239732 0.046891548
-0.056924403 -0.050972793 0.15630308 0.044818144 0.12274832 -0.0021081301 -0.19848141 0.09598454
0.06750223 0.05466505 0.07113562 0.059104953 0.043978877 -0.120764114 -0.07536108 -0.017430086
-0.015599049 0.09544477 -0.064502575 0.02389203 -0.11950796 -0.002170202 -0.017940031 -0.008720261
-0.002704294 0.062457945 -0.116677225 -0.051950064 -0.019666685 -0.15818651 0.029343752 0.03166031
-0.023686862 0.12866445 0.01986692 0.053023744 0.08596527 0.028940866 -0.03855043 0.10985585
0.04415674 0.009135399 0.0975006 0.01868904 0.048669178 0.13351552 0.033965845 0.003948742
0.13734736 -0.09856958 0.098950386 -0.08563051 0.017398432 -0.005666198 -0.13787234 -0.048979875
0.0052492335 -0.09411333 0.106157824 -0.017190134 -0.054669674 0.009769866 -0.1527077 -0.07316994
0.11968613 0.056270793 0.110329285 0.047128033 0.08903535 0.13820133 0.050471824 0.03946185
0.11722408 0.03276651 0.18430856 -0.056126263 -0.1329139 -0.054172587 0.055832166 0.010433949
-0.06304892 -0.16243427 -0.08143059 0.021668175 -0.040046584 0.013353193 0.06864478 -0.048110034
0.002105893 0.053964727 0.020459672 -0.07194495 0.07327863 0.06915729 0.14235747 -0.07024799
0.109207846 0.15756297 -0.022055676 -0.048270814 0.05498718 0.119467326 0.12509201 0.021015627
-0.18415995 -0.16532372 0.056717496 -0.0013361333 -0.099025965 0.033320803 -0.015788842 0.14468239
0.06305868 0.11398175 0.12864573 -0.003060388 -0.06362052 -0.096311145 -0.040082835 -0.007196046
0.24775264 -0.016843393 0.029307531 0.0002135903 -0.16109635 0.021888813 -0.034665305 -0.15180282
0.014520866 -0.0015125718 -0.19282123 0.1935977 0.017115697 -0.067088716 0.10721211 0.02659639
0.067374974 0.1644044 -0.060448516 0.01961533 0.046713963 -0.01562961 0.024241522 0.10919476
00000000: 26eb bc3d 1bb9 c6bd 540b 53be eb73 f43d
00000010: d7d6 abbc 027a 41bc d9d2 8a3d e74f f63d
00000020: 9a15 14be ec01 cbbc c68c 2b3e 4497 39bd
00000030: c8ac 003e ce65 bbbd d06e 203e 106e 34bd
00000040: 7f1e 90bd 6759 5bbd fb64 3cbe 8a6a 073e
00000050: d963 59bb 8e67 383b ac81 563d 657e c1bd
00000060: 1ad9 343d b154 053e 7fd8 c83d 0f0b 4dbd
00000070: 0b3e 4f3d fb0a 90bd ef52 2cbe fdcf 133e
00000080: 9352 fdbd 9796 34bd 6075 5d3c aa15 53bd
00000090: 5aa5 babc fa12 9ebd c46a 3a3b fc18 063d
000000a0: aaba 043e 092a bf3c b00b 85bd b192 aabd
000000b0: b2f6 273e f419 5f3e 97c0 a53d 450d 3abd
000000c0: 8e11 c33d 54ee 69be f178 cd3c 9ea4 84bd
000000d0: f112 edbc b2b6 01bd fe83 1c3c 8ffa d7bd
000000e0: 3608 22be 14e6 923d 045a adbd 9d38 99bd
000000f0: c5ba 38be 8afa c13d 5d51 d93b 0525 053d
00000100: c3a5 cb3c f59f 233d 889e 1bbd 6dc2 1b3d
00000110: 7510 82bd 9cdd 813b 9535 c5bc da6d 71bd
00000120: 1f7f af3d ddf5 4a3a d647 cb3d c74b 213d
00000130: 21d5 03bd a533 14bd 1028 42bd 7e2a 0cbc
00000140: 4acc 533d 12c5 b6bc 99a7 003e e7a0 3c3b
00000150: feff 093e 06f7 cfbd 40f6 ea3d ce2d fc3c
00000160: 0633 8cbd 3291 78be ae3a 913d fa28 08be
00000170: 9bd9 d03c bd88 21be 70c5 bf3c b79c 40bd
00000180: f278 7c3e 247b c5bc 1677 02bd 8efa 5fbd
00000190: aa4e adbd 2b0c b03b 1b02 14be c459 353b
000001a0: 0ea5 efbd 250c 303e f04f 963c 70e0 c3bd
000001b0: ba55 0a3e 48a5 85bd 737e 41bd 5a11 403d
000001c0: 9029 69bd d9c8 50bd ea0d 203e 3b93 373d
000001d0: 7963 fb3d 8e28 0abb b63e 4bbe 8b93 c43d
000001e0: 9c3e 8a3d 76e8 5f3d 8daf 913d 0918 723d
000001f0: 3223 343d 2d53 f7bd e956 9abd 8ac9 8ebc
00000200: 2793 7fbc 8c78 c33d ed19 84bd 38b9 c33c
00000210: 97c0 f4bd f339 0ebb f9f6 92bc 6ddf 0ebc
00000220: 863a 31bb e7d3 7f3d 78f4 eebd 97c9 54bd
00000230: 071c a1bc a5fb 21be 4f62 f03c 3eae 013d
00000240: f30a c2bc 9dc0 033e f3bf a23c 6d2f 593d
00000250: 8f0e b03d 6515 ed3c 0ee7 1dbd 1bfc e03d
00000260: b3dd 343d a4ac 153c 65ae c73d c219 993c
00000270: 5559 473d 4bb8 083e c51f 0b3d 7364 813b
00000280: c9a4 0c3e d9de c9bd 80a6 ca3d 0c5f afbd
00000290: 2887 8e3c 84ab b9bb 682e 0dbe 1f9f 48bd
000002a0: c301 ac3b 7dbe c0bd 4669 d93d 53d2 8cbc
000002b0: 4fed 5fbd ca11 203c 685f 1cbe 1fda 95bd
000002c0: 001e f53d 347c 663d 52f4 e13d 5309 413d
000002d0: 2a58 b63d a684 0d3e 8bbb 4e3d c0a2 213d
000002e0: 2e13 f03d 2d36 063d 62bb 3c3e a7e4 65bd
000002f0: 951a 08be 13e4 5dbd 45b0 643d 27f3 2a3c
00000300: cb1f 81bd 2b55 26be 15c5 a6bd 7581 b13c
00000310: e307 24bd 5ac7 5a3c a295 8c3d 070f 45bd
00000320: 0603 0a3b 1e0a 5d3d 0b9b a73c e057 93bd
00000330: 1b13 963d 56a2 8d3d 28c6 113e 2ede 8fbd
00000340: 5da8 df3d 3058 213e 1bae b4bc 9eb7 45bd
00000350: 3d3a 613d 49ab f43d 1f18 003e f728 ac3c
00000360: 6d94 3cbe 9f4a 29be 9b50 683d 3221 afba
00000370: 20ce cabd 657b 083d 9a57 81bc 9f27 143e
00000380: e924 813d 446f e93d b5bb 033e ca90 48bb
00000390: 7a4b 82bd c73e c5bd e62d 24bd cfcc ebbb
000003a0: deb2 7d3e 28fb 89bc 5916 f03c 36f7 5f39
000003b0: 71f6 24be 2b50 b33c 35fd 0dbd 3372 1bbe
000003c0: ede8 6d3c 7d41 c6ba ee72 45be 7a3e 463e
000003d0: 3836 8c3c cf65 89bd 0692 db3d ace0 d93c
000003e0: e4fb 893d a159 283e dd98 77bd 54b0 a03c
000003f0: 2457 3f3d ab09 80bc 2896 c63c 81a1 df3d

critic.network_body.linear_encoder.seq_layers.2.bias f4 [128]
0.00035986528 0.00034588622 -0.004382899 0.00026383606 -0.0016990295 -0.00043146263 -0.0044984925 -0.0002612697
-0.00041993303 0.0006803646 0.00049480825 0.00036255567 0.00029804598 -0.00034514364 -0.00046983425 -0.0006140181
0.0003825229 0.0004967517 -0.001300303 -0.0003386009 5.3631302e-05 -0.00046740833 0.00072159123 -0.0005496061
-0.00030992547 0.0010645747 -0.0011720393 -0.0004300728 -0.00012048207 -0.00035463658 -0.0006836675 -0.00038306255
0.0005854328 -0.0006531981 -0.0003297927 -0.0006973592 0.00035185716 1.3603572e-05 4.6798225e-05 -0.0020679184
-0.0005647932 -0.00033405912 -0.00039854366 0.00041852184 -0.003102545 -0.00045871065 0.00034779645 0.00031207537
-0.00082602067 -0.00048061478 0.0006088912 -0.00040448224 -0.0012234403 0.00031560977 0.00022093729 0.00013564655
-0.00015483118 -0.0013106364 -0.0006400157 -0.0011664053 0.00033547395 -0.0010401364 -0.0019266597 -0.00040574282
-0.002188934 0.00044651228 -0.00055510696 -0.00079146936 -0.0003846295 -0.00015344255 0.0004641885 -0.000474704
-0.00048155623 0.00063447916 -0.0022089346 -0.0043982263 -0.00016216241 0.00035445788 0.008847598 0.0013614477
0.0064108386 -0.0039151413 -0.00036620445 -0.0023607567 -0.0019238207 -0.00074662874 -0.00034011208 0.00026549972
0.0003425518 0.0003196424 -0.0004998026 0.0014752994 -0.0003458029 -0.0005219858 -0.00027086737 0.00035751093
-8.109358e-05 0.00038150977 0.00047236384 -0.00022265426 0.00033066032 -0.0023330688 0.0005588498 0.0007825026
0.00028414876 -0.0015835984 -0.00031578998 0.00018185035 0.00036609895 -3.126783e-05 -0.00026152283 -0.00014082657
0.0009777587 0.00023297599 -0.00013670862 0.0002599347 -0.0005875528 0.00030950658 8.577334e-06 0.00012399128
0.0009688253 -0.00044754613 0.00030012385 -0.00024319522 0.00035833663 -0.00035814 0.00019839467 -0.00037354676
00000000: 4dac bc39 1058 b539 6c9e 8fbb 7a53 8a39
00000010: f8b1 deba ef35 e2b9 1768 93bb 07fb 88b9
00000020: 752a dcb9 7f5a 323a 05b6 013a 6615 be39
00000030: 0e43 9c39 65f4 b4b9 1654 f6b9 0ff6 20ba
00000040: 5b8d c839 7138 023a ee6e aaba 3e86 b1b9
00000050: 2cf2 6038 7c0e f5b9 2b29 3d3a 7113 10ba
00000060: 7e7d a2b9 3389 8b3a 1d9f 99ba 657b e1b9
00000070: 52ab fcb8 84ee b9b9 2638 33ba c9d5 c8b9
00000080: bb77 193a 623b 2bba 07e8 acb9 fcce 36ba
00000090: 7879 b839 e63a 6437 3649 4438 ea85 07bb
000000a0: a10e 14ba a824 afb9 a0f3 d0b9 0d6d db39
000000b0: 1154 4bbb 1a7f f0b9 7358 b639 0c9e a339
000000c0: 4f89 58ba 06fb fbb9 ff9d 1f3a b010 d4b9
000000d0: d85b a0ba 6d78 a539 67ab 6739 583c 0e39
000000e0: 2e5a 22b9 a9c9 abba bac6 27ba 11e2 98ba
000000f0: 8de2 af39 3055 88ba f987 fcba e1b9 d4b9
00000100: 3874 0fbb dd19 ea39 9984 11ba 9c7a 4fba
00000110: 19a8 c9b9 6ce5 20b9 535e f339 b1e1 f8b9
00000120: 6279 fcb9 2d53 263a c6c3 10bb ff1e 90bb
00000130: 240a 2ab9 88d6 b939 84f5 103c 9b72 b23a
00000140: 0312 d23b 964a 80bb 21ff bfb9 edb6 1abb
00000150: b628 fcba 68b9 43ba 1251 b2b9 c532 8b39
00000160: 8698 b339 ad95 a739 2f05 03ba d55e c13a
00000170: e14c b5b9 e0d5 08ba 3403 8eb9 4e70 bb39
00000180: c910 aab8 6005 c839 9aa7 f739 4c78 69b9
00000190: 7a5c ad39 66e6 18bb c67f 123a dc20 4d3a
000001a0: cdf9 9439 bf90 cfba 9d90 a5b9 15af 3e39
000001b0: f8f0 bf39 9425 03b8 001d 89b9 d8aa 13b9
000001c0: 2328 803a 044b 7439 7159 0fb9 d847 8839
000001d0: 0006 1aba 4545 a239 5ee7 0f37 a803 0239
000001e0: c4f8 7d3a a0a4 eab9 f159 9d39 3802 7fb9
000001f0: 21df bb39 bdc4 bbb9 2a08 5039 99d8 c3b9
