results/RandomTest6/HitTheBall/checkpoint.pt (torch, 150559 bytes, 13 tensors)

network_body.linear_encoder.seq_layers.0.weight f4 [128, 6]
0	0xbdb6ffeb	-0.08935531
1	0x3ecf3fc7	0.40478346
2	0xbd5752d6	-0.052569233
3	0xbf0d7dbe	-0.5526999
4	0xbcf75cdb	-0.030195644
5	0x3e3eb85f	0.1862502
6	0x3e973fa8	0.29540753
7	0x3e17b2e3	0.14814334
8	0xbe9e3234	-0.30897677
9	0xbeb7acf1	-0.3587413
10	0xbf2871ca	-0.6579863
11	0xbe548931	-0.2075546
12	0xbe5e0f11	-0.21685435
13	0xbd02ac22	-0.03190244
14	0xbde5d29f	-0.112218134
15	0xbe081f5c	-0.13293213
16	0xbe5cadfb	-0.21550743
17	0xbf64375d	-0.8914698
18	0xbe7b3557	-0.24532066
19	0xbf0ced09	-0.55049187
20	0x3e8873bd	0.266508
21	0x3e813a1c	0.25239646
22	0xbda14842	-0.0787511
23	0x3e458d42	0.19292167
24	0xbe83e499	-0.25760344
25	0xbea37bd8	-0.31930423
26	0xbea0dc2d	-0.3141798
27	0x3ec89780	0.39178085
28	0x3d88483d	0.06654403
29	0x3f52437f	0.8213424
30	0xbdaab0f6	-0.08334534
31	0x3e521018	0.20513952
32	0x3e9860ff	0.29761502
33	0xbe99e4f2	-0.30057484
34	0x3f29cace	0.6632508
35	0xbdd6df3b	-0.104917966
36	0xbcc974e4	-0.02459187
37	0xbda2edfb	-0.079555474
38	0x3efe9358	0.4972179
39	0x3e97fcfd	0.29685202
40	0xbf02d6a8	-0.5110879
41	0xbbf25d60	-0.007396385
42	0xbe275840	-0.16342258
43	0x3cadfd1d	0.021238858
44	0xbd9993c9	-0.07498891
45	0x3ca51b71	0.020154687
46	0xbec49de1	-0.38401702
47	0x3e802a66	0.25032347
48	0x3f8a8830	1.0822811
49	0xbde0bea3	-0.10973861
50	0xbee5d7e2	-0.44891268
51	0xbf808519	-1.0040618
52	0xbdf42be8	-0.11922437
53	0xbf0e0a4e	-0.55484474
54	0xbe1818a4	-0.1485315
55	0x3d926c6a	0.071495846
56	0x3e08e656	0.13369116
57	0x3e781744	0.24227625
58	0xbe5cc045	-0.2155772
59	0xbe0268ff	-0.12735365
60	0x3c3d26db	0.011544908
61	0xbd7e39bd	-0.062066782
62	0x3f0ab95b	0.5418908
63	0xbed75da4	-0.4206363
64	0x3e518aec	0.2046315
65	0xbdc75617	-0.09733217
66	0xbefafffd	-0.4902343
67	0xbe58127b	-0.211008
68	0xbe8a3062	-0.26990038
69	0x3f20eebc	0.6286428
70	0xbd8d5b39	-0.06902165
71	0xbd85f9da	-0.06541796
72	0x3f80f987	1.007615
73	0xbe02ac59	-0.12761058
74	0xbeb1d4cc	-0.34732664
75	0xbec8b298	-0.39198756
76	0xbf0495ed	-0.5179127
77	0x3e866179	0.2624624
78	0x3eaaa46d	0.33328572
79	0x3cc821f1	0.024430247
80	0xbe052991	-0.13004138
81	0xbe8fda71	-0.28096345
82	0xbe66e20e	-0.2254717
83	0x3eb7095a	0.35749322
84	0xbe509b7f	-0.20371817
85	0xbbbb6af0	-0.005719535
86	0xbe27a583	-0.16371731
87	0x3f2c69b8	0.67348814
88	0x3e4a8a1d	0.19779249
89	0x3e8aca71	0.27107576
90	0x3f11f359	0.57011944
91	0xbe5f9cf3	-0.21837215
92	0x3e475696	0.19466624
93	0x3e000231	0.12500836
94	0x3e209895	0.15683205
95	0x3ece2109	0.4025958
96	0x3e8da3af	0.27663943
97	0x3e51b62d	0.20479651
98	0xbd0dfa54	-0.03466256
99	0xbe8c37e6	-0.27386397
100	0xbea6dde4	-0.32591164
101	0xbdac427a	-0.08411117
102	0xbcc41116	-0.023933928
103	0x3e511469	0.20417942
104	0x3eb2fc7b	0.34958252
105	0xbe6b0c0e	-0.22953817
106	0xbee90472	-0.45511204
107	0x3ece60df	0.40308282
108	0xbea78bcf	-0.32723853
109	0x3e0881cf	0.13330768
110	0xbe265af2	-0.1624563
111	0xbe945857	-0.28973648
112	0x3c2fade6	0.010722613
113	0xbd2e39e4	-0.042535678
114	0x3e9d80e0	0.30762386
115	0xbe5aa64a	-0.21352497
116	0xbd56f791	-0.05248219
117	0x3dd17dc0	0.10229063
118	0xbe918bec	-0.28427064
119	0xbe91c0ea	-0.28467494
120	0x3db2f0ba	0.08737321
121	0xbe0e419b	-0.13892214
122	0xbf14a8cf	-0.5807008
123	0x3dac0543	0.08399441
124	0xbf57134b	-0.84013814
125	0x3dcc568f	0.09977447
126	0x3d80e9fe	0.062946305
127	0x3e99d82d	0.30047742
128	0x3e990b57	0.29891464
129	0x3f1d6391	0.6148005
130	0xbeedde41	-0.4645863
131	0xbe957174	-0.2918812
132	0xbea11d4f	-0.31467673
133	0x3e0a0625	0.13478906
134	0xbdeca822	-0.11555506
135	0xbf899251	-1.0747777
136	0x3e89ad89	0.2689021
137	0x3ce36c30	0.027761549
138	0xbe18027d	-0.14844699
139	0x3e92e6c7	0.28691694
140	0x3e91ac34	0.28451693
141	0x3eb6dd05	0.357155
142	0x3e8acf38	0.2711122
143	0x3f344159	0.7041221
144	0x3efc7a72	0.49312168
145	0x3f04b950	0.51845264
146	0x3f664f1d	0.8996447
147	0x3ec95c15	0.39328066
148	0xbeca7e8e	-0.3954968
149	0x3ec8c09f	0.39209458
150	0x3e288b63	0.16459422
151	0x3dfbf60c	0.12302789
152	0x3d8f99db	0.070117675
153	0x3ed9c58f	0.42533538
154	0xbc394381	-0.011307598
155	0xbf1346dd	-0.57530004
156	0x3ef88325	0.48537555
157	0x3d468c35	0.048473556
158	0x3d2b28e1	0.041787032
159	0xbea30d60	-0.31846142
160	0x3e72c227	0.23706876
161	0x3e8ed9cc	0.2790054
162	0xbf1afcb5	-0.6054185
163	0x3e907293	0.28212413
164	0x3dcb60c8	0.09930569
165	0x3f33374e	0.70006263
166	0x3e05de82	0.13073161
167	0x3f44a4cc	0.7681396
168	0x3ce672f0	0.028130978
169	0x3e5612ae	0.20905563
170	0x3ea629a8	0.32453656
171	0x3e315763	0.17318492
172	0xbd4cfc11	-0.050045077
173	0x3e04f8e3	0.12985568
174	0xbe4ced50	-0.20012403
175	0x3e191ea1	0.1495309
176	0x3eb673b6	0.35635155
177	0xbda4d037	-0.08047526
178	0x3ea2d9db	0.31806836
179	0xbd48046c	-0.048832342
180	0xbebb8cae	-0.36630768
181	0xbdb6995a	-0.08915968
182	0x3dc114cd	0.094277956
183	0x3eb3f6df	0.35149285
184	0x3f5b2e75	0.8561776
185	0xbf460b3d	-0.773609
186	0xbea5eb6a	-0.3240617
187	0x3d1aa055	0.03775056
188	0x3eefcdb0	0.46836615
189	0x3d997411	0.07492841
190	0x3ea130cb	0.3148254
191	0xbe1b9e58	-0.15197122
192	0x3e70fbeb	0.23533599
193	0xbeb570b4	-0.35437548
194	0x3df0bf1f	0.117552035
195	0x3f16a18d	0.58840257
196	0xbe621991	-0.22080065
197	0xbf109c3e	-0.56488407
198	0x3e8beb50	0.27327967
199	0x3e647cb7	0.223132
200	0x3eabf1dd	0.33582965
201	0x3e17eaa7	0.14835607
202	0xbda74472	-0.08167352
203	0x3ddcd2ed	0.107824184
204	0x3da3cc12	0.07997908
205	0xbee445a3	-0.4458438
206	0x3e9f761e	0.31144804
207	0xbdf21abd	-0.11821506
208	0x3e0f488d	0.1399252
209	0x3f244c7b	0.641792
210	0xbef804c8	-0.48441148
211	0x3eb2276e	0.34795707
212	0x3eff57a9	0.49871567
213	0x3f35dc1f	0.71039003
214	0xbf4605d9	-0.7735267
215	0xbd9701c2	-0.07373382
216	0x3e8e22b1	0.27760842
217	0xbd6b4188	-0.057435542
218	0x3de6f25e	0.112766966
219	0x3e931889	0.28729656
220	0x3e0ecba8	0.13944876
221	0xbef9c615	-0.48783937
222	0x3e8d1051	0.2755151
223	0xbefe802e	-0.49707168
224	0xbedf0911	-0.43561605
225	0xbeaa0c4b	-0.33212504
226	0xbeaf6e21	-0.3426371
227	0xbe99b727	-0.30022547
228	0xbf8d8baf	-1.1058253
229	0x3f4d301d	0.8015154
230	0x3bc5a26a	0.006031324
231	0x3e3a61b4	0.18201333
232	0xbf809d82	-1.0048068
233	0xbeada0cc	-0.3391174
234	0x3e3bbc25	0.1833349
235	0x3e8b085a	0.2715481
236	0x3d217964	0.039422408
237	0x3e2f6682	0.17128947
238	0x3cdcc4ad	0.026949251
239	0xbf005685	-0.5013202
240	0xbd8e0eca	-0.069364145
241	0xbe17aa2a	-0.14811006
242	0xbf11f1ee	-0.5700978
243	0x3d13e075	0.03610273
244	0xbec2fc3a	-0.3808306
245	0xbea7a629	-0.32743958
246	0x3ec41419	0.38296583
247	0xbea73fe0	-0.3266592
248	0x3efa1d9d	0.48850718
249	0x3eb6ad99	0.3567932
250	0xbec5a1ec	-0.386001
251	0x3d4ddfc6	0.050262235
252	0xbf22f2b6	-0.636516
253	0x3dca6157	0.09881847
254	0xbec907b4	-0.3926369
255	0xbd0b2dda	-0.033979274

network_body.linear_encoder.seq_layers.0.bias f4 [128]
0	0x00000000	0.0
1	0x00000000	0.0
2	0x00000000	0.0
3	0x00000000	0.0
4	0x00000000	0.0
5	0x00000000	0.0
6	0x00000000	0.0
7	0x00000000	0.0
8	0x00000000	0.0
9	0x00000000	0.0
10	0x00000000	0.0
11	0x00000000	0.0
12	0x00000000	0.0
13	0x00000000	0.0
14	0x00000000	0.0
15	0x00000000	0.0
16	0x00000000	0.0
17	0x00000000	0.0
18	0x00000000	0.0
19	0x00000000	0.0
20	0x00000000	0.0
21	0x00000000	0.0
22	0x00000000	0.0
23	0x00000000	0.0
24	0x00000000	0.0
25	0x00000000	0.0
26	0x00000000	0.0
27	0x00000000	0.0
28	0x00000000	0.0
29	0x00000000	0.0
30	0x00000000	0.0
31	0x00000000	0.0
32	0x00000000	0.0
33	0x00000000	0.0
34	0x00000000	0.0
35	0x00000000	0.0
36	0x00000000	0.0
37	0x00000000	0.0
38	0x00000000	0.0
39	0x00000000	0.0
40	0x00000000	0.0
41	0x00000000	0.0
42	0x00000000	0.0
43	0x00000000	0.0
44	0x00000000	0.0
45	0x00000000	0.0
46	0x00000000	0.0
47	0x00000000	0.0
48	0x00000000	0.0
49	0x00000000	0.0
50	0x00000000	0.0
51	0x00000000	0.0
52	0x00000000	0.0
53	0x00000000	0.0
54	0x00000000	0.0
55	0x00000000	0.0
56	0x00000000	0.0
57	0x00000000	0.0
58	0x00000000	0.0
59	0x00000000	0.0
60	0x00000000	0.0
61	0x00000000	0.0
62	0x00000000	0.0
63	0x00000000	0.0
64	0x00000000	0.0
65	0x00000000	0.0
66	0x00000000	0.0
67	0x00000000	0.0
68	0x00000000	0.0
69	0x00000000	0.0
70	0x00000000	0.0
71	0x00000000	0.0
72	0x00000000	0.0
73	0x00000000	0.0
74	0x00000000	0.0
75	0x00000000	0.0
76	0x00000000	0.0
77	0x00000000	0.0
78	0x00000000	0.0
79	0x00000000	0.0
80	0x00000000	0.0
81	0x00000000	0.0
82	0x00000000	0.0
83	0x00000000	0.0
84	0x00000000	0.0
85	0x00000000	0.0
86	0x00000000	0.0
87	0x00000000	0.0
88	0x00000000	0.0
89	0x00000000	0.0
90	0x00000000	0.0
91	0x00000000	0.0
92	0x00000000	0.0
93	0x00000000	0.0
94	0x00000000	0.0
95	0x00000000	0.0
96	0x00000000	0.0
97	0x00000000	0.0
98	0x00000000	0.0
99	0x00000000	0.0
100	0x00000000	0.0
101	0x00000000	0.0
102	0x00000000	0.0
103	0x00000000	0.0
104	0x00000000	0.0
105	0x00000000	0.0
106	0x00000000	0.0
107	0x00000000	0.0
108	0x00000000	0.0
109	0x00000000	0.0
110	0x00000000	0.0
111	0x00000000	0.0
112	0x00000000	0.0
113	0x00000000	0.0
114	0x00000000	0.0
115	0x00000000	0.0
116	0x00000000	0.0
117	0x00000000	0.0
118	0x00000000	0.0
119	0x00000000	0.0
120	0x00000000	0.0
121	0x00000000	0.0
122	0x00000000	0.0
123	0x00000000	0.0
124	0x00000000	0.0
125	0x00000000	0.0
126	0x00000000	0.0
127	0x00000000	0.0

network_body.linear_encoder.seq_layers.2.weight f4 [128, 128]
0	0xbd058044	-0.032593027
1	0x3dc285ca	0.094981745
2	0x3e05fc9d	0.13084646
3	0x3d786684	0.06064464
4	0xbd570d65	-0.05250301
5	0xbe6a47b4	-0.22878915
6	0xbc15d02a	-0.009143868
7	0x3d4711b0	0.048600852
8	0x3e15580b	0.14584367
9	0xbe4317aa	-0.19051996
10	0xbe25d68b	-0.16195123
11	0x3c95e793	0.0182989
12	0x3dd7d26e	0.10538183
13	0x3d39a5f2	0.045324273
14	0xba14f657	-0.00056824595
15	0x3cfb1a80	0.030652285
16	0x3dd990ac	0.10623297
17	0xbc93acbb	-0.0180267
18	0x3da89e37	0.08233302
19	0xbda137df	-0.07871985
20	0x3d074cef	0.033032354
21	0xbd645265	-0.05574264
22	0xbc9e4ee7	-0.019324733
23	0xbdcee968	-0.101031125
24	0xbd419994	-0.047265604
25	0xbdbec119	-0.09314174
26	0xbd2c450e	-0.042058043
27	0x3e130479	0.14357175
28	0x3d3fdfd8	0.046844333
29	0x3bab00ae	0.005218587
30	0x3e284df2	0.16435984
31	0x3e4169bd	0.18887992
32	0x3e44c00e	0.19213888
33	0x3e29d1ba	0.1658391
34	0x3e43e3d9	0.19129886
35	0xbd0fac90	-0.035076678
36	0xbbb785f0	-0.0056006834
37	0x3de4eb76	0.11177723
38	0xbe08a03c	-0.13342375
39	0xbd68bae5	-0.05681886
40	0x3bf8692c	0.007580897
41	0xbd654d4b	-0.055981915
42	0x3dc13b02	0.09435083
43	0x3ca33d1d	0.019926602
44	0xbca45cb1	-0.02006373
45	0xbdb50831	-0.08839453
46	0x3dcfc999	0.101458736
47	0x3d78c1e4	0.060731784
48	0x3e0391a7	0.1284853
49	0x3de04126	0.10949926
50	0x3b88f4fe	0.004179596
51	0xbd07e61d	-0.033178438
52	0x3dfebe75	0.124386705
53	0x3dbbfadd	0.09178708
54	0xbdfb9058	-0.12283391
55	0xbd6e592f	-0.05819052
56	0x3dbf473b	0.09339758
57	0x3d3cfc20	0.046138883
58	0xbbaac1ee	-0.0052111065
59	0xbd99b945	-0.075060405
60	0x3d802189	0.06256396
61	0xbc64e4a8	-0.0139705315
62	0xbdcd5279	-0.10025496
63	0xbd89073e	-0.066908345
64	0xbda1584c	-0.078781694
65	0x3caefd6b	0.021361073
66	0xbdb5ed36	-0.08883135
67	0x3dd3342a	0.10312684
68	0xbdda322e	-0.10654102
69	0xbb8c12d3	-0.004274705
70	0x3cf033f9	0.029321657
71	0xbb06f1df	-0.0020590944
72	0xbcc41948	-0.023937836
73	0x3dbfb900	0.09361458
74	0x3d17ec50	0.0370906
75	0xbd7df423	-0.062000405
76	0x3d53dbec	0.051723406
77	0xbd804339	-0.06262822
78	0x3cbe49d8	0.02322857
79	0x3ceba2d0	0.028764158
80	0xbc83ad85	-0.016073951
81	0x3daa0d71	0.08303345
82	0x3d312a0f	0.043253
83	0xbb6b4399	-0.0035898446
84	0x3d2586bb	0.040411692
85	0xbe045ced	-0.12926073
86	0xbe26cb7d	-0.16288562
87	0xbd8f448e	-0.06995498
88	0xbd023483	-0.03178836
89	0x3c48647e	0.01223099
90	0xbcad9c36	-0.021192651
91	0x3dceb823	0.10093715
92	0xbe768d7a	-0.24077407
93	0x3d821dc3	0.06353333
94	0xbc51e8fa	-0.012811894
95	0x3e16d001	0.14727785
96	0xbb26d31b	-0.0025455419
97	0x3e199ad1	0.15000464
98	0xbe4c8c1a	-0.1997532
99	0xbb8607a5	-0.004090267
100	0xbe63e7a5	-0.22256334
101	0xbe6db388	-0.23213017
102	0xbdd97379	-0.10617728
103	0x3cbd2890	0.02309063
104	0x3df7d50d	0.12101183
105	0xbb685545	-0.0035451215
106	0x3dec133f	0.115271084
107	0xbe004f77	-0.12530313
108	0xbd21089b	-0.039314847
109	0xbc67560c	-0.014119636
110	0xbaf2440e	-0.0018483417
111	0x3df524ae	0.11969887
112	0x3e141158	0.14459741
113	0xbd01d4d4	-0.03169711
114	0xbd879024	-0.066192895
115	0xbdedd849	-0.11613519
116	0x3c9dd38f	0.019265918
117	0xbdaef135	-0.085421
118	0x3d02854b	0.0318654
119	0x3da7a04d	0.08184872
120	0x3e4e252a	0.20131364
121	0x3d8405bf	0.064464085
122	0x3d50a51c	0.05093871
123	0xbd782964	-0.06058635
124	0x3cffbad0	0.031217009
125	0xbdddb51d	-0.1082556
126	0x3e10b79a	0.14132538
127	0x3e42ddb7	0.1902989
128	0x3de2c3c8	0.110724986
129	0xbddeb880	-0.10875034
130	0xbc5e2110	-0.013557687
131	0xbc599c0f	-0.013281836
132	0x3d326759	0.04355559
133	0xbd0a4869	-0.033760462
134	0x3e01a7db	0.12661688
135	0xbde0801c	-0.10961935
136	0xbd075882	-0.033043392
137	0x3bb8d39e	0.005640461
138	0x3db7ea81	0.08980275
139	0x3e0f15e7	0.13973199
140	0x3d1c8c91	0.038219992
141	0x3d945ee9	0.07244665
142	0xbdd7f793	-0.10545268
143	0x3d084aef	0.033274587
144	0xbc81a79f	-0.015826998
145	0x3d5d3afd	0.054011334
146	0xbe089a78	-0.13340175
147	0x3ce47e8d	0.027892375
148	0x3a7b2a10	0.0009581158
149	0x3e384876	0.17996392
150	0x3e679101	0.22613908
151	0x3dce5bb3	0.10076084
152	0xbcfc93e0	-0.030832231
153	0x3dd83ab4	0.10558072
154	0x3e09ed13	0.13469343
155	0x3d69d8e1	0.057091597
156	0x3d625f8f	0.055266913
157	0xbdd316a0	-0.1030705
158	0x3d854539	0.06507344
159	0xbe7a2171	-0.2442682
160	0xbcf2b4b8	-0.029627189
161	0x3d022d1c	0.0317813
162	0xbe123e8d	-0.14281674
163	0x3e17f7ed	0.1484067
164	0x3db45928	0.08806068
165	0xbd2d8397	-0.042361822
166	0x3d8193c5	0.06327013
167	0x3cafc844	0.021457799
168	0xbe3e9bc8	-0.18614113
169	0xbc7c7b86	-0.01541031
170	0x3db11734	0.08647004
171	0x3df37a10	0.11888516
172	0xbcae09cd	-0.021244908
173	0xbc7011ba	-0.014652664
174	0x3cca9f4b	0.02473416
175	0xbcb6f799	-0.02233486
176	0x3d878b42	0.06618358
177	0xbdc9ec13	-0.09859481
178	0x3d57f1de	0.052720897
179	0xbb5f450e	-0.003406826
180	0x3d2a0943	0.04151274
181	0xbe438e2a	-0.190972
182	0xbd99f049	-0.07516534
183	0xbdcd2924	-0.100176126
184	0xbd7811a0	-0.060563684
185	0x3c1cdb59	0.009573781
186	0x3dc808fe	0.0976734
187	0x3d17143e	0.03688454
188	0xbda7499f	-0.08168339
189	0xbd68bb1b	-0.056819063
190	0x3cf1df23	0.029525345
191	0x3e0f756d	0.14009638
192	0xbd777a74	-0.060419515
193	0xbd2df78f	-0.04247242
194	0xbdcad3b5	-0.09903661
195	0x3d8c0a73	0.068379305
196	0x3d87c1d2	0.06628765
197	0xbd201149	-0.039078984
198	0xbafe40ee	-0.0019398013
199	0x3d23e7cf	0.04001599
200	0x3cb5c015	0.022186318
201	0x3d07c7de	0.033149593
202	0x3e1f2cc5	0.15544422
203	0x3c31e441	0.010857643
204	0xbde98563	-0.114023946
205	0x3dc5d824	0.09660366
206	0x3e312188	0.17297947
207	0x3cc9294e	0.024555828
208	0x3d055bbb	0.032558184
209	0x3dc3d3ad	0.09561858
210	0x3df8d758	0.121504486
211	0xbe371d21	-0.17882206
212	0x3de65f5d	0.11248658
213	0xbe4da9e9	-0.20084347
214	0xbd466e53	-0.048445057
215	0x3d9cb2ab	0.07651266
216	0xbd3becab	-0.04588
217	0xbdb33586	-0.08750443
218	0x3c0e6569	0.00869117
219	0xbd4dd783	-0.050254356
220	0xbd24da99	-0.040247533
221	0xbcf02025	-0.029312203
222	0x3e5d72ef	0.21625875
223	0xbdc1b840	-0.09458971
224	0x3ddb58a1	0.10710264
225	0x3d239e86	0.0399461
226	0x3db7a348	0.0896669
227	0xbd4b49c0	-0.04963088
228	0xbd82b667	-0.06382447
229	0x3e0ee0a6	0.13952884
230	0xbdb38f0a	-0.08767517
231	0xbd0beba2	-0.034160264
232	0x3d89120b	0.066928945
233	0x3e231d86	0.15929231
234	0x3d8cd509	0.06876571
235	0xbe1df937	-0.15427099
236	0x3d18c202	0.037294395
237	0xbe7d762b	-0.24752109
238	0xbd54eb9e	-0.051982515
239	0xbc658107	-0.014007813
240	0xbdc284e9	-0.09498007
241	0x3e400a32	0.18753889
242	0x3d142928	0.036172062
243	0x3d86c5ca	0.06580694
244	0xbd0c0789	-0.034186874
245	0x3deade95	0.114682354
246	0x3d350af6	0.044199906
247	0xbe100d09	-0.14067473
248	0xbc3e0144	-0.011596981
249	0xbe09edaa	-0.13469568
250	0xbe2b54c1	-0.1673155
251	0xbe0b4acd	-0.13602753
252	0xbdec6f43	-0.11544659
253	0x3c701273	0.014652836
254	0xbdcd5ba0	-0.10027242
255	0x3e19784d	0.14987297

network_body.linear_encoder.seq_layers.2.bias f4 [128]
0	0x00000000	0.0
1	0x00000000	0.0
2	0x00000000	0.0
3	0x00000000	0.0
4	0x00000000	0.0
5	0x00000000	0.0
6	0x00000000	0.0
7	0x00000000	0.0
8	0x00000000	0.0
9	0x00000000	0.0
10	0x00000000	0.0
11	0x00000000	0.0
12	0x00000000	0.0
13	0x00000000	0.0
14	0x00000000	0.0
15	0x00000000	0.0
16	0x00000000	0.0
17	0x00000000	0.0
18	0x00000000	0.0
19	0x00000000	0.0
20	0x00000000	0.0
21	0x00000000	0.0
22	0x00000000	0.0
23	0x00000000	0.0
24	0x00000000	0.0
25	0x00000000	0.0
26	0x00000000	0.0
27	0x00000000	0.0
28	0x00000000	0.0
29	0x00000000	0.0
30	0x00000000	0.0
31	0x00000000	0.0
32	0x00000000	0.0
33	0x00000000	0.0
34	0x00000000	0.0
35	0x00000000	0.0
36	0x00000000	0.0
37	0x00000000	0.0
38	0x00000000	0.0
39	0x00000000	0.0
40	0x00000000	0.0
41	0x00000000	0.0
42	0x00000000	0.0
43	0x00000000	0.0
44	0x00000000	0.0
45	0x00000000	0.0
46	0x00000000	0.0
47	0x00000000	0.0
48	0x00000000	0.0
49	0x00000000	0.0
50	0x00000000	0.0
51	0x00000000	0.0
52	0x00000000	0.0
53	0x00000000	0.0
54	0x00000000	0.0
55	0x00000000	0.0
56	0x00000000	0.0
57	0x00000000	0.0
58	0x00000000	0.0
59	0x00000000	0.0
60	0x00000000	0.0
61	0x00000000	0.0
62	0x00000000	0.0
63	0x00000000	0.0
64	0x00000000	0.0
65	0x00000000	0.0
66	0x00000000	0.0
67	0x00000000	0.0
68	0x00000000	0.0
69	0x00000000	0.0
70	0x00000000	0.0
71	0x00000000	0.0
72	0x00000000	0.0
73	0x00000000	0.0
74	0x00000000	0.0
75	0x00000000	0.0
76	0x00000000	0.0
77	0x00000000	0.0
78	0x00000000	0.0
79	0x00000000	0.0
80	0x00000000	0.0
81	0x00000000	0.0
82	0x00000000	0.0
83	0x00000000	0.0
84	0x00000000	0.0
85	0x00000000	0.0
86	0x00000000	0.0
87	0x00000000	0.0
88	0x00000000	0.0
89	0x00000000	0.0
90	0x00000000	0.0
91	0x00000000	0.0
92	0x00000000	0.0
93	0x00000000	0.0
94	0x00000000	0.0
95	0x00000000	0.0
96	0x00000000	0.0
97	0x00000000	0.0
98	0x00000000	0.0
99	0x00000000	0.0
100	0x00000000	0.0
101	0x00000000	0.0
102	0x00000000	0.0
103	0x00000000	0.0
104	0x00000000	0.0
105	0x00000000	0.0
106	0x00000000	0.0
107	0x00000000	0.0
108	0x00000000	0.0
109	0x00000000	0.0
110	0x00000000	0.0
111	0x00000000	0.0
112	0x00000000	0.0
113	0x00000000	0.0
114	0x00000000	0.0
115	0x00000000	0.0
116	0x00000000	0.0
117	0x00000000	0.0
118	0x00000000	0.0
119	0x00000000	0.0
120	0x00000000	0.0
121	0x00000000	0.0
122	0x00000000	0.0
123	0x00000000	0.0
124	0x00000000	0.0
125	0x00000000	0.0
126	0x00000000	0.0
127	0x00000000	0.0

action_model._continuous_distribution.log_sigma f4 [1, 2]
0	0x00000000	0.0
1	0x00000000	0.0

action_model._continuous_distribution.mu.weight f4 [2, 128]
0	0xbb905429	-0.004404564
1	0x3c33e05d	0.010978785
2	0xbc840e61	-0.016120138
3	0xbcc7bbfe	-0.024381634
4	0x3d31b758	0.04338774
5	0xbd1db763	-0.03850497
6	0x3c5ef150	0.013607338
7	0x3bf5b947	0.0074988934
8	0x3a3529b3	0.0006910816
9	0x3c0764f5	0.008263816
10	0xbb14812c	-0.002266
11	0xbc5ac90d	-0.013353598
12	0x3c413e01	0.011794568
13	0x3d3c1073	0.045914125
14	0x3d436857	0.047706928
15	0x3ba0cc17	0.004907142
16	0xbadd6c93	-0.001689332
17	0xbbd60c0a	-0.006532197
18	0x3bfd7460	0.0077348202
19	0x3cc6de73	0.024275994
20	0xbbbb9464	-0.0057244767
21	0x3c6de353	0.01451953
22	0xbba49ecb	-0.0050238124
23	0x3b48dfeb	0.0030651044
24	0x3c47538d	0.012165916
25	0x3ba2a9cf	0.0049640904
26	0x3b59ed5b	0.0033253047
27	0x3c67bcc2	0.014144124
28	0x3ba96e27	0.005170602
29	0x3c2541cb	0.010086487
30	0xbd1e837c	-0.038699612
31	0xb9efb987	-0.0004572386
32	0x3c293adf	0.010328977
33	0xbc166ec9	-0.009181687
34	0xbaae8700	-0.001331538
35	0xbbcf6783	-0.006329478
36	0x399e78f6	0.0003022623
37	0x3c05b7ad	0.0081614675
38	0x3d14a973	0.036294412
39	0x3cd75fd3	0.02629081
40	0xbbbe7bf7	-0.0058131176
41	0x3967d5eb	0.00022109567
42	0xbcb2edb1	-0.021841856
43	0xbc6d3a0d	-0.014479172
44	0x3c0787ff	0.00827217
45	0x3ccb78a5	0.024837801
46	0x3c9fa504	0.019487865
47	0xbc24dd0c	-0.010062467
48	0xbc8ac95f	-0.016941724
49	0x3ca1a6b7	0.019732816
50	0x3b75fe5f	0.003753565
51	0x3c8f7d47	0.017515792
52	0x3d10e2f3	0.035372686
53	0x3c94d65f	0.018168626
54	0x3b906312	0.0044063414
55	0x3c93ae4e	0.01802745
56	0x3c215daf	0.009848996
57	0xbcfb5a92	-0.030682836
58	0xbc98b651	-0.018641623
59	0x3ca24982	0.019810442
60	0xbc146d21	-0.0090592215
61	0xbcd9de77	-0.026595337
62	0xbc7c6da3	-0.015406999
63	0x3d0240ad	0.03179996
64	0xbba345f6	-0.004982705
65	0x3d51a305	0.05118086
66	0xbb47eb6d	-0.0030505315
67	0xbca0e9bc	-0.019642703
68	0xbd1c5820	-0.03816998
69	0x3cb4e0f7	0.022079928
70	0xbc0fe5a7	-0.008782781
71	0x3cf0d8a2	0.029400174
72	0xbce5af8f	-0.028037814
73	0x3baf959b	0.0053584105
74	0x3c1a0c55	0.009402354
75	0xbc86e1a8	-0.016465023
76	0x3c45faa7	0.012083686
77	0x3bc8fdfe	0.006133794
78	0x3c9306e9	0.017947631
79	0xba0464af	-0.00050504034
80	0xbc497314	-0.012295503
81	0x3c0409e7	0.0080590015
82	0x3c8cbe0b	0.017180463
83	0x3c7fb0f8	0.0156061575
84	0xbd46e5ef	-0.048559126
85	0x3c4c7657	0.012479386
86	0xbc80ce25	-0.015723297
87	0xbc57c925	-0.013170515
88	0x3bcd4922	0.0062648216
89	0xbcc9a8fc	-0.02461671
90	0x3ce21d42	0.027601842
91	0x3c07e8b0	0.008295223
92	0x3d06e210	0.032930434
93	0x3a2e51f3	0.00066497846
94	0x3c8ada0b	0.016949674
95	0x3c11645f	0.008874028
96	0xbc597d33	-0.013274479
97	0x3a837040	0.001002796
98	0x3c0cd325	0.008595263
99	0xbbde5ebd	-0.006786196
100	0xbb78895a	-0.0037923665
101	0xbc1ade0b	-0.009452353
102	0xbc7fe602	-0.015618803
103	0x3cec712d	0.02886256
104	0x3d02c55a	0.03192649
105	0xbc7ad41b	-0.015309359
106	0x3c6af5d0	0.014340833
107	0x3b688c87	0.0035484151
108	0xbc8f7837	-0.017513378
109	0xba8e2057	-0.0010843378
110	0x3c759447	0.014988965
111	0xbd2ed5f7	-0.04268452
112	0x3a50ee30	0.0007970063
113	0xbc48b9ec	-0.0122513585
114	0x3b9d401e	0.004798903
115	0x3b94166b	0.004519274
116	0xbc2b2eb3	-0.010448146
117	0xbb3f8cd3	-0.0029228225
118	0x3beda17d	0.007251917
119	0x3c270afc	0.01019549
120	0xbd19e782	-0.0375743
121	0xbc83f16f	-0.016106335
122	0x3bef37b7	0.007300343
123	0x3cea2f33	0.02858696
124	0x3b9ddff6	0.004817958
125	0x3c0a6300	0.008446455
126	0x3c257b57	0.010100207
127	0xbd0de16f	-0.03463882
128	0xbcd13203	-0.025536543
129	0x3c33ae05	0.010966782
130	0x3c32ce2e	0.010913415
131	0x3c0e1f64	0.008674476
132	0xbca15679	-0.019694554
133	0xbd38b4eb	-0.04509441
134	0xbc62c34f	-0.0138405105
135	0xbba22a68	-0.004948903
136	0xbc0d2eec	-0.008617144
137	0xbc688cfa	-0.014193768
138	0x3c92b083	0.017906433
139	0xbcfccdad	-0.030859793
140	0xbcc5c751	-0.024142893
141	0x3cb5bdc7	0.02218522
142	0x3c787b73	0.015166151
143	0xbc8b75b3	-0.017023897
144	0x3a49af13	0.00076936296
145	0xbc5fcff3	-0.013660419
146	0x3b83084d	0.0039987923
147	0x3cda1b2d	0.026624287
148	0xbcc3f859	-0.023922132
149	0xbc3d6e29	-0.011561909
150	0xbcfc21b5	-0.030777792
151	0x3c95a683	0.018267876
152	0xbb08db59	-0.0020882695
153	0xbaea2e30	-0.0017866548
154	0xbc81e10c	-0.015854381
155	0xbbb114dc	-0.005404098
156	0x3ad230da	0.0016036287
157	0x3bfcea3b	0.007718352
158	0x3c29aea3	0.010356578
159	0x3d4f4dc7	0.050611284
160	0x3c2211fa	0.009891981
161	0xbc67cf35	-0.014148523
162	0x3c98136a	0.018563945
163	0x3a38d326	0.00070505065
164	0x3c3ace0c	0.0114016645
165	0x3be4bbb3	0.0069803833
166	0xbcfff048	-0.031242505
167	0xbc7f9e97	-0.015601776
168	0xbbdf008d	-0.0068054856
169	0xbc3b0019	-0.0114135975
170	0xbac5658e	-0.0015060173
171	0x3b8ab2fb	0.004232762
172	0xbb2d273f	-0.0026421098
173	0xbb36bdfc	-0.0027884236
174	0xbc9dcf40	-0.019263864
175	0x3bfbb16d	0.007681063
176	0x3b3ff1c8	0.00292884
177	0xbd082e64	-0.033247367
178	0x3b702348	0.0036642123
179	0x3cc1fc48	0.023679867
180	0xbcce672d	-0.025195682
181	0x3b9bbd0f	0.004752762
182	0x3c085c0d	0.008322728
183	0xbd1ef0a7	-0.038803723
184	0xbafbea02	-0.001921952
185	0x3ca96274	0.020676829
186	0xbc811f43	-0.015761977
187	0xbc87c26b	-0.016572198
188	0x3b82087c	0.0039682966
189	0xbb928761	-0.004471705
190	0x3cabe240	0.020981908
191	0xbd419b67	-0.047267344
192	0x3c4c40d7	0.012466631
193	0xbd36d3b3	-0.044635486
194	0x3cfc3e63	0.030791467
195	0xbcbf58b5	-0.023357728
196	0x3c9b44f3	0.018953776
197	0x3b0304e2	0.0019991924
198	0x3cc771df	0.02434629
199	0xbbe883e7	-0.007095802
200	0x3cc57704	0.024104603
201	0xbc8954a7	-0.016763998
202	0xbc38d129	-0.011280336
203	0xbd0714cf	-0.03297883
204	0xbc1a846e	-0.009430988
205	0x3c35f6d9	0.011106216
206	0x3b1036c9	0.002200531
207	0xbcb43ec2	-0.022002582
208	0x3c325eab	0.010886828
209	0x3d76dcb3	0.06026907
210	0xbcd4a035	-0.025955299
211	0x3c82c21f	0.015961705
212	0xbc05f1d8	-0.008175336
213	0xbc7bcda7	-0.015368856
214	0x3bbece3b	0.0058229244
215	0x3d286fc8	0.041122228
216	0xbb809f0f	-0.0039252113
217	0x3c810766	0.015750598
218	0xbcdfb488	-0.027307764
219	0x3c47b983	0.0121902255
220	0xba90b67d	-0.0011040714
221	0x3b9f7c36	0.004867102
222	0xbbd20b30	-0.006410025
223	0x3bea2b1a	0.0071462514
224	0x3cc68ae6	0.024236154
225	0xbc0a8942	-0.008455576
226	0x3c63cfa7	0.013904489
227	0x3b2ca683	0.0026344366
228	0xbca3784b	-0.019954821
229	0xbbef5875	-0.007304246
230	0xbd143184	-0.036180034
231	0xbb8d6703	-0.0043152585
232	0xbc4119eb	-0.0117859645
233	0xbc820c85	-0.01587511
234	0x3be7344a	0.007055794
235	0x3cd991b8	0.026558742
236	0xbd16ea40	-0.036844492
237	0xbc0817f7	-0.008306495
238	0xbcf0dd6b	-0.029402455
239	0x3d0954bf	0.033528086
240	0xbb31fdb7	-0.0027159282
241	0xb9b38715	-0.00034242184
242	0x3d09d79e	0.033652894
243	0xbc803968	-0.015652373
244	0xbbcea407	-0.0063061747
245	0x3ce76e17	0.028250737
246	0x3c3f6f1a	0.0116842035
247	0x3c29ed2b	0.010371487
248	0x3c09bae5	0.008406376
249	0x3b5dbec8	0.0033835638
250	0x3889a704	6.563778e-05
251	0xbc04bb52	-0.008101301
252	0xbb635fdd	-0.003469459
253	0x3b1657be	0.0022940482
254	0x3cbcc0be	0.023041125
255	0xbb91508f	-0.004434652

action_model._continuous_distribution.mu.bias f4 [2]
0	0x00000000	0.0
1	0x00000000	0.0

action_model._discrete_distribution.branches.0.weight f4 [1, 128]
0	0xbb5c5e02	-0.003362537
1	0x3b09478b	0.0020947184
2	0xbc3d7338	-0.011563115
3	0x3c185db6	0.009299686
4	0xbc525498	-0.0128375515
5	0x3bed8ea5	0.0072496706
6	0x3a9ef973	0.0012128785
7	0xbbd72d50	-0.006566681
8	0xbbed393f	-0.0072394903
9	0xbc98235b	-0.018571546
10	0x3bfaf8f0	0.00765907
11	0xbb621588	-0.0034497697
12	0xbbf8b672	-0.0075901086
13	0x3c33853f	0.010957061
14	0xbb63ea40	-0.0034777075
15	0x3c27dbab	0.010245244
16	0x3c1e1ab9	0.009649926
17	0xbb266828	-0.0025391672
18	0xbbf0054b	-0.0073248497
19	0x3be1659d	0.0068785683
20	0x3c89d593	0.016825473
21	0x3b96e150	0.004604496
22	0x3c8841ef	0.016633002
23	0xbc39023a	-0.011292035
24	0x377af50a	1.4958214e-05
25	0xbc152029	-0.009101906
26	0x3bce7bc2	0.006301374
27	0x3c26aaa1	0.010172517
28	0x3afa0e02	0.0019077661
29	0xbbb656fd	-0.005564569
30	0x3ba41cf0	0.0050083324
31	0x3abed1e9	0.0014558408
32	0x3aa4a85d	0.0012562383
33	0x3bc94ac6	0.006142947
34	0x3be46b4f	0.0069708
35	0xbc2a0838	-0.010377936
36	0xbbb3a29f	-0.0054820324
37	0xbb6d829f	-0.0036241186
38	0x3b7e815f	0.0038834435
39	0xba1da0d0	-0.00060130376
40	0x3c4a5897	0.012350223
41	0xbbba113f	-0.0056783254
42	0xbc3b0e5a	-0.011416996
43	0xbb9601e1	-0.0045778607
44	0x3b834d7f	0.004007041
45	0x3c74c8db	0.014940466
46	0x3aab973e	0.0013091338
47	0x3c161763	0.009160849
48	0xbc97281d	-0.018451745
49	0x3ba851f8	0.0051367246
50	0xbc0a15bb	-0.0084280325
51	0xbc5c89a8	-0.013460554
52	0xbb8475f3	-0.004042381
53	0x3ad37a47	0.0016134464
54	0x3b8d01ea	0.0043032067
55	0x3c40139f	0.011723428
56	0xbb230e48	-0.0024880338
57	0x3c81ff8c	0.015868925
58	0x3c3ab0d4	0.011394698
59	0xbb89c58d	-0.004204458
60	0xbb0f09a0	-0.0021825805
61	0x3abd8427	0.001445894
62	0x3b4f89f8	0.003166793
63	0xbb04b5a8	-0.0020249877
64	0xbbf4f650	-0.007475652
65	0xbbf1d8ef	-0.007380597
66	0xbc0176cc	-0.007901859
67	0x3c9288b4	0.01788745
68	0x3b814161	0.0039445614
69	0x3b904458	0.0044026785
70	0xba521cb8	-0.00080151437
71	0x3bfd09c3	0.007722111
72	0xbbc30e03	-0.005952598
73	0x3b9ccd98	0.004785251
74	0x3aa1a56f	0.0012332628
75	0xbc5a2e9a	-0.013316775
76	0xbc681d65	-0.014167164
77	0x3b332cf3	0.0027340024
78	0xbaa1e441	-0.001235135
79	0x3b9a2778	0.004704412
80	0x3c2fdaed	0.010733348
81	0xba1747b4	-0.00057708775
82	0xbb1f38b3	-0.002429527
83	0x3c1ac9a2	0.009447487
84	0x37ac5b2e	2.0546457e-05
85	0x3c3f1293	0.011662143
86	0xbb616f72	-0.0034398702
87	0x3bd7166f	0.0065639536
88	0xb94990a6	-0.0001922274
89	0xbb92faec	-0.0044854786
90	0xbb685355	-0.003545006
91	0x3c316d8c	0.010829341
92	0xbc1cfc67	-0.009581662
93	0x3a8a5d9d	0.0010556463
94	0xbb911671	-0.004427724
95	0xbab9e2aa	-0.0014181931
96	0xbbc35793	-0.0059613674
97	0xbaa4eb0f	-0.001258226
98	0xbbfadb70	-0.0076555535
99	0xbc800381	-0.01562667
100	0x3c2fc3f3	0.01072787
101	0xbb55173f	-0.0032515076
102	0xbb862d56	-0.00409476
103	0x3b8c1d70	0.00427597
104	0xbc343da8	-0.011001028
105	0xbc981048	-0.018562451
106	0x3b8b5897	0.004252504
107	0x3a49f543	0.00077040883
108	0xbc0f9b17	-0.008765004
109	0xbc083e80	-0.008315682
110	0x3b4c9b6b	0.0031220566
111	0x3c7884ef	0.015168413
112	0xbc24a5fb	-0.010049338
113	0x3aec9efb	0.0018052751
114	0xbc8c15cc	-0.017100237
115	0xbc7cc57a	-0.015427941
116	0xbb859257	-0.004076283
117	0x3bdaf5b3	0.0066821217
118	0x3bfe9fb2	0.007770502
119	0x3c54b127	0.01298169
120	0xbbb074c0	-0.0053850114
121	0xbad90fc3	-0.0016560483
122	0x3c38d87d	0.011282084
123	0x3c128d63	0.008944842
124	0xbbf5c275	-0.0074999877
125	0xbb6262ba	-0.003454371
126	0xbc33ac3a	-0.010966355
127	0x3c027ff1	0.007965074

critic.network_body.linear_encoder.seq_layers.0.weight f4 [128, 6]
0	0x3f105390	0.56377506
1	0xbda65eda	-0.0812356
2	0x3d9448e4	0.07240465
3	0x3e3f4526	0.18678722
4	0xbe6138a2	-0.2199426
5	0x3f5cedad	0.86300164
6	0xbdcc4083	-0.09973242
7	0xbebcddbe	-0.36887926
8	0xbe918181	-0.28419116
9	0xbe197b3b	-0.14988415
10	0xbe7fb713	-0.24972181
11	0x3dfb4a35	0.12270013
12	0x3e757991	0.23972155
13	0xbeb66438	-0.35623336
14	0x3e0f2bf4	0.1398161
15	0xbe060195	-0.13086541
16	0x3e4198c6	0.18905935
17	0xbf4aa0b4	-0.79151464
18	0xbdf57500	-0.119852066
19	0x3eb62dad	0.35581723
20	0x3dacb2f0	0.08432567
21	0xbe087532	-0.13325956
22	0xbe2db2d5	-0.1696275
23	0xbe408502	-0.18800738
24	0x3e82055c	0.25394714
25	0xbefab184	-0.4896356
26	0xbe26e2ad	-0.16297407
27	0xbcf76341	-0.030198695
28	0x3ed10918	0.4082725
29	0xbee22346	-0.44167536
30	0x3f0e88d9	0.5567756
31	0xbefe10fa	-0.49622327
32	0x3e373948	0.17892945
33	0x3ec1ee28	0.3787701
34	0x3efca9ee	0.49348396
35	0x3f73af26	0.9518913
36	0xbda40db3	-0.080104254
37	0x3f1ff6f3	0.6248619
38	0x3e88aec4	0.26695836
39	0x3ec11da6	0.37717932
40	0xbe267663	-0.16256098
41	0x3e8efe86	0.2792856
42	0xbcc465f6	-0.0239744
43	0x3d2dc5e4	0.04242505
44	0xbec2d7f4	-0.38055384
45	0x3f286bef	0.65789694
46	0xbd32f06d	-0.04368632
47	0x3eb8763b	0.36027703
48	0x3e026a46	0.12735853
49	0xbb984a33	-0.004647517
50	0xbe43d75f	-0.19125126
51	0xbf3b0a06	-0.7306217
52	0xbf13c48c	-0.5772178
53	0xbddc4237	-0.10754817
54	0xbf1f627f	-0.6225967
55	0x3e162420	0.14662218
56	0xbec2b35a	-0.3802746
57	0xbd67c0a1	-0.05658019
58	0x3e7506b5	0.2392834
59	0xbf0ec27f	-0.5576553
60	0xbddf9740	-0.109175205
61	0xbd2cc908	-0.042183906
62	0xbe435e28	-0.19078887
63	0xbec5ab2b	-0.38607153
64	0xbf08a2d7	-0.53373474
65	0x3e57a8a3	0.21060424
66	0x3e76aba8	0.24088919
67	0x3d385926	0.045006894
68	0xbf6afe2b	-0.9179408
69	0x3f10695f	0.56410784
70	0xbe3b54f7	-0.1829413
71	0xbecc0d19	-0.39853743
72	0xbf48be90	-0.78415775
73	0xbe2eb9da	-0.17063084
74	0xbdb3e81c	-0.08784506
75	0x3daf2ff3	0.085540675
76	0x3ef67b0e	0.48140758
77	0xbe9c9bd3	-0.30587634
78	0x3d3bb4c9	0.045826707
79	0xbece268f	-0.40263793
80	0x3ea2b0e8	0.31775594
81	0xbe460a33	-0.19339828
82	0x3de2650f	0.11054432
83	0xbf7c248b	-0.9849326
84	0xbe532f3b	-0.20623486
85	0x3d235d4a	0.03988389
86	0xbe610538	-0.21974647
87	0x3ed4eab6	0.4158532
88	0xbe000f7e	-0.1250591
89	0x3e5025b9	0.2032689
90	0x3f2da7d3	0.67834204
91	0x3ef80d50	0.48447657
92	0x3e3d4952	0.18485
93	0xbe635d21	-0.22203495
94	0xbe34a02c	-0.17639226
95	0xbee02033	-0.43774566
96	0xbceb8fd0	-0.028755099
97	0xbde49499	-0.11161155
98	0xbd53627d	-0.051607598
99	0x3f3c8d95	0.7365354
100	0xbd1d8e34	-0.038465694
101	0x3ea20f29	0.3165219
102	0x3f10fce0	0.56635857
103	0xbe09c0cf	-0.13452457
104	0x3ec6cf5b	0.38830075
105	0x3e15ef9c	0.14642185
106	0x3e8fcde5	0.28086773
107	0x3f00cc8c	0.50312114
108	0xbe87668d	-0.26445428
109	0x3e6ef662	0.23336175
110	0xbf75f39f	-0.9607486
111	0x3f3361e0	0.7007122
112	0x3e6254e9	0.22102703
113	0x3f021bdf	0.5082378
114	0x3e848256	0.25880688
115	0xbe789487	-0.24275409
116	0xbf227d6a	-0.63472617
117	0xbf0da222	-0.5532552
118	0xbf14b690	-0.5809107
119	0x3e247959	0.16061915
120	0xbe07496b	-0.132116
121	0x3f72a1f6	0.9477838
122	0xbd1d74da	-0.038441516
123	0xbf41af16	-0.75657785
124	0x3ecd1d2f	0.40061328
125	0xbf163884	-0.58679986
126	0x3f01502d	0.50512964
127	0xbe1b042d	-0.15138312
128	0xbe748c32	-0.23881605
129	0xbeb8afc2	-0.36071593
130	0x3dfb1117	0.12259119
131	0x3eb8ddb2	0.3610664
132	0x3edcaeee	0.4310221
133	0x3e3e93a6	0.18611011
134	0xbe9213ca	-0.28530723
135	0x3e68e4f1	0.22743584
136	0x3f29a458	0.66266394
137	0x3e6b89f1	0.23001839
138	0xbf03926a	-0.51395285
139	0x3e101822	0.14071706
140	0xbef030aa	-0.46912128
141	0xbf808920	-1.0041847
142	0xbece6b35	-0.40316167
143	0xbf146884	-0.5797198
144	0x3f10cb97	0.56560653
145	0xbeb9dfab	-0.36303458
146	0x3e506a3c	0.20353025
147	0x3d99e614	0.07514587
148	0xbf1c5f1a	-0.61082613
149	0xbe70b15f	-0.23505162
150	0x3f079a20	0.5296955
151	0xbdbb7189	-0.091525145
152	0x3eef1d3c	0.46701992
153	0xbf0be427	-0.5464501
154	0x3e291451	0.16511656
155	0xbce0abd8	-0.027425691
156	0x3d5a06cc	0.05322914
157	0x3e1a7946	0.15085325
158	0xbe1a7bc3	-0.15086274
159	0xbebbe41b	-0.36697468
160	0x3ea5cdc0	0.32383537
161	0x3ee6082c	0.4492811
162	0xbd827d87	-0.06371599
163	0xbeb8da7b	-0.36104187
164	0xbed64b1b	-0.41854176
165	0xbe663772	-0.22482088
166	0xbeac9e54	-0.33714545
167	0x3d349e69	0.044096384
168	0x3d72f589	0.05931619
169	0x39c90b6c	0.00038346217
170	0xbd41897d	-0.04725026
171	0xbdc00817	-0.09376543
172	0x3ee04eeb	0.4381021
173	0xbf07d6a1	-0.5306187
174	0x3f036f40	0.5134163
175	0xbf79f67e	-0.9764174
176	0xbda7a558	-0.08185834
177	0xbe95a7c4	-0.29229558
178	0x3ea5b1a6	0.32362098
179	0x3dcfa537	0.10138934
180	0xbf4d8de7	-0.8029465
181	0x3f14feef	0.582015
182	0x3e00b27f	0.12568091
183	0xbd6167b2	-0.055030532
184	0x3f1d033c	0.6133306
185	0xbc2f679d	-0.010705856
186	0xbdf169e9	-0.11787779
187	0x3deaea41	0.11470462
188	0x3f12c477	0.5733103
189	0xbdf52e50	-0.11971724
190	0xbdf5e52f	-0.12006604
191	0xbf207b4a	-0.62688124
192	0xbee37813	-0.44427547
193	0xbeccce33	-0.40001068
194	0x3ed2f5f6	0.41203278
195	0xbed9f230	-0.42567587
196	0x3e49b871	0.19699265
197	0xbda5451f	-0.080698244
198	0x3e0d68ba	0.13809481
199	0xbeda30c0	-0.42615318
200	0xbc3dd6eb	-0.011586885
201	0xbefae205	-0.49000564
202	0xbdb96321	-0.090521105
203	0xbd21d08f	-0.039505538
204	0xbdfafeee	-0.12255655
205	0x3f52034c	0.8203628
206	0x3e79444f	0.24342464
207	0x3e29336e	0.16523525
208	0xbe6741b0	-0.22583652
209	0x3ee0f3d3	0.43936023
210	0xbef41d1a	-0.47678453
211	0x3e05626d	0.13025828
212	0x3edf8710	0.43657732
213	0xbe6575db	-0.2240824
214	0xbe374c90	-0.179003
215	0x3e0c8c8a	0.13725486
216	0x3ec59235	0.3858811
217	0xbe74be45	-0.23900707
218	0x3ea58f64	0.3233596
219	0xbdbf3d95	-0.09337918
220	0x3dc2fa14	0.09520355
221	0x3f05076f	0.5196447
222	0xbe371f6d	-0.17883082
223	0x3e33564d	0.1751339
224	0xbcdeda20	-0.02720362
225	0xbe68986d	-0.22714396
226	0xbf7bb46f	-0.98322195
227	0xbde6a0e7	-0.112611584
228	0x3e77f1bd	0.2421331
229	0x3eaafeef	0.33397624
230	0x3cd561cc	0.02604761
231	0x3e43632a	0.19080797
232	0x3e564a23	0.20926718
233	0xbf0ae9f3	-0.5426323
234	0xbda920f5	-0.08258239
235	0xbee737b9	-0.451597
236	0xbe0b353b	-0.13594525
237	0xbddcc18c	-0.10779104
238	0xbe70b1d7	-0.2350534
239	0x3f1e198f	0.6175775
240	0xbdf65cc2	-0.12029411
241	0x3f480191	0.7812739
242	0xbe7888eb	-0.2427098
243	0xbe92b23c	-0.28651607
244	0x3d6dc5db	0.058050018
245	0x3efb2dd5	0.49058405
246	0xbf20b967	-0.627829
247	0x3f41f666	0.757666
248	0x3f618b2a	0.8810297
249	0xbe327b54	-0.17429858
250	0xbe8ba9b4	-0.2727791
251	0x3fa8c6eb	1.3185705
252	0xbe933154	-0.28748572
253	0xbec66078	-0.38745475
254	0x3ebfc863	0.3745757
255	0x3f513643	0.8172342

critic.network_body.linear_encoder.seq_layers.0.bias f4 [128]
0	0x00000000	0.0
1	0x00000000	0.0
2	0x00000000	0.0
3	0x00000000	0.0
4	0x00000000	0.0
5	0x00000000	0.0
6	0x00000000	0.0
7	0x00000000	0.0
8	0x00000000	0.0
9	0x00000000	0.0
10	0x00000000	0.0
11	0x00000000	0.0
12	0x00000000	0.0
13	0x00000000	0.0
14	0x00000000	0.0
15	0x00000000	0.0
16	0x00000000	0.0
17	0x00000000	0.0
18	0x00000000	0.0
19	0x00000000	0.0
20	0x00000000	0.0
21	0x00000000	0.0
22	0x00000000	0.0
23	0x00000000	0.0
24	0x00000000	0.0
25	0x00000000	0.0
26	0x00000000	0.0
27	0x00000000	0.0
28	0x00000000	0.0
29	0x00000000	0.0
30	0x00000000	0.0
31	0x00000000	0.0
32	0x00000000	0.0
33	0x00000000	0.0
34	0x00000000	0.0
35	0x00000000	0.0
36	0x00000000	0.0
37	0x00000000	0.0
38	0x00000000	0.0
39	0x00000000	0.0
40	0x00000000	0.0
41	0x00000000	0.0
42	0x00000000	0.0
43	0x00000000	0.0
44	0x00000000	0.0
45	0x00000000	0.0
46	0x00000000	0.0
47	0x00000000	0.0
48	0x00000000	0.0
49	0x00000000	0.0
50	0x00000000	0.0
51	0x00000000	0.0
52	0x00000000	0.0
53	0x00000000	0.0
54	0x00000000	0.0
55	0x00000000	0.0
56	0x00000000	0.0
57	0x00000000	0.0
58	0x00000000	0.0
59	0x00000000	0.0
60	0x00000000	0.0
61	0x00000000	0.0
62	0x00000000	0.0
63	0x00000000	0.0
64	0x00000000	0.0
65	0x00000000	0.0
66	0x00000000	0.0
67	0x00000000	0.0
68	0x00000000	0.0
69	0x00000000	0.0
70	0x00000000	0.0
71	0x00000000	0.0
72	0x00000000	0.0
73	0x00000000	0.0
74	0x00000000	0.0
75	0x00000000	0.0
76	0x00000000	0.0
77	0x00000000	0.0
78	0x00000000	0.0
79	0x00000000	0.0
80	0x00000000	0.0
81	0x00000000	0.0
82	0x00000000	0.0
83	0x00000000	0.0
84	0x00000000	0.0
85	0x00000000	0.0
86	0x00000000	0.0
87	0x00000000	0.0
88	0x00000000	0.0
89	0x00000000	0.0
90	0x00000000	0.0
91	0x00000000	0.0
92	0x00000000	0.0
93	0x00000000	0.0
94	0x00000000	0.0
95	0x00000000	0.0
96	0x00000000	0.0
97	0x00000000	0.0
98	0x00000000	0.0
99	0x00000000	0.0
100	0x00000000	0.0
101	0x00000000	0.0
102	0x00000000	0.0
103	0x00000000	0.0
104	0x00000000	0.0
105	0x00000000	0.0
106	0x00000000	0.0
107	0x00000000	0.0
108	0x00000000	0.0
109	0x00000000	0.0
110	0x00000000	0.0
111	0x00000000	0.0
112	0x00000000	0.0
113	0x00000000	0.0
114	0x00000000	0.0
115	0x00000000	0.0
116	0x00000000	0.0
117	0x00000000	0.0
118	0x00000000	0.0
119	0x00000000	0.0
120	0x00000000	0.0
121	0x00000000	0.0
122	0x00000000	0.0
123	0x00000000	0.0
124	0x00000000	0.0
125	0x00000000	0.0
126	0x00000000	0.0
127	0x00000000	0.0

critic.network_body.linear_encoder.seq_layers.2.weight f4 [128, 128]
0	0xbd82f5a1	-0.06394506
1	0xbcec56e2	-0.028850023
2	0xbbe0e41c	-0.0068631303
3	0x3b8fa6c0	0.004383892
4	0x3c7d4e58	0.015460573
5	0xbd1b1bca	-0.0378683
6	0xbcf08eb8	-0.029364929
7	0x3a335abb	0.0006841828
8	0xbe01badd	-0.12668939
9	0xbc9037b5	-0.017604688
10	0xbd8daf5c	-0.06918213
11	0xbd9af8b1	-0.07566965
12	0xbd4ee12a	-0.050507702
13	0x3e363a12	0.1779559
14	0xbc8caee8	-0.017173246
15	0xbce58a9a	-0.028020192
16	0xbda881d7	-0.0822789
17	0x3a48d8c7	0.0007661697
18	0xbcbfb789	-0.023402946
19	0x3e08d56c	0.13362664
20	0x3d5117a7	0.051047947
21	0xbda58f7e	-0.080840096
22	0xbcc0612b	-0.023483833
23	0x3df01e50	0.11724532
24	0xbd36dd13	-0.044644427
25	0xbccfb371	-0.025354119
26	0xbe625810	-0.22103906
27	0x3e0d6c40	0.13810825
28	0xbd1d0f4e	-0.038344674
29	0x3e736d27	0.23772107
30	0xbd4a0c30	-0.04932803
31	0x3da7e03c	0.08197066
32	0xbdb8d74b	-0.09025439
33	0x3c6e8f7e	0.014560578
34	0x3d80ad9d	0.06283114
35	0x3c771361	0.015080304
36	0xbcd63191	-0.026146682
37	0x3d3e358a	0.046437778
38	0xbd43acc9	-0.047772203
39	0xbbb66209	-0.005565886
40	0xbd91385a	-0.07090826
41	0x3b2e8b17	0.0026633197
42	0xbcc6fedb	-0.024291446
43	0xbdb88299	-0.090092845
44	0xbd4967e5	-0.049171347
45	0xbd323519	-0.04350767
46	0xbd15da3f	-0.03658509
47	0xbcd5706b	-0.026054582
48	0x3dc56f12	0.096403256
49	0x3d6b7498	0.05748424
50	0x3d9de118	0.07708949
51	0xbcec1428	-0.028818205
52	0x3de72315	0.11285988
53	0x3e01fb81	0.12693597
54	0x3cf0c22c	0.029389463
55	0xbe0448c9	-0.1291839
56	0x3d37de3a	0.044889666
57	0x3e24a166	0.16077194
58	0x3b0c977f	0.0021452603
59	0xbda28bbe	-0.0793681
60	0x3c95b5c2	0.018275145
61	0xbd298868	-0.041389853
62	0xbdae0150	-0.08496344
63	0x3d7f6e02	0.06236077
64	0xbcdc23e8	-0.02687259
65	0x3d128c9a	0.03577862
66	0x3dc181fc	0.09448621
67	0x3de36754	0.11103693
68	0x3df3ff1f	0.11913895
69	0xbc360b18	-0.011111043
70	0xbdeddebb	-0.11614748
71	0x396c7b44	0.00022552634
72	0xbd3dc3f5	-0.046329457
73	0x3d824627	0.06361037
74	0xbd7a974a	-0.061179437
75	0x3d7b3c71	0.06133694
76	0xbe05a205	-0.13050087
77	0xbd8136ec	-0.06309304
78	0x3d29dd1a	0.041470625
79	0x3db43ab7	0.088002615
80	0xbd08fd0f	-0.03344446
81	0xbdb269e5	-0.08711604
82	0xbdbb0b94	-0.09133068
83	0x3d6b71a3	0.05748142
84	0xbe222180	-0.15833092
85	0x3d0546f9	0.032538388
86	0xbdd48a30	-0.1037792
87	0x3d91e92d	0.07124553
88	0x3e408778	0.18801677
89	0xbe035904	-0.12826926
90	0x3cc855dd	0.024455005
91	0x3bb06797	0.0053834426
92	0xbe300a47	-0.1719142
93	0xbd14a64c	-0.036291406
94	0xbd86eda5	-0.06588296
95	0x3dcd24ee	0.100168094
96	0x3c85e2d6	0.016343515
97	0x3e209d41	0.15684988
98	0x3e1d6d3a	0.15373698
99	0xbe1c19da	-0.15244237
100	0xbde10e3b	-0.10989042
101	0xbd934f32	-0.0719284
102	0xbd7e992a	-0.062157787
103	0x3cd38dc5	0.025824437
104	0x3d8604ab	0.06543859
105	0x3c9a3da5	0.018828223
106	0xbde6384e	-0.11241208
107	0x3d89c0a8	0.067261994
108	0x3c86c51f	0.016451417
109	0x3d19654c	0.03745012
110	0x3d1a83f5	0.0377235
111	0x3c546f7e	0.012966035
112	0x3e54a1b4	0.2076481
113	0xbe020a85	-0.12699325
114	0x3dcbf62c	0.09959063
115	0xbcf55a27	-0.029950215
116	0x3d318cbb	0.0433471
117	0xbde4189f	-0.111375086
118	0xbb2aa297	-0.0026036853
119	0xbdbe202b	-0.09283479
120	0x39945e34	0.00028298947
121	0x3d65d4ec	0.05611126
122	0xbcdea50b	-0.027178308
123	0x3d95f17c	0.0732145
124	0x3e15209f	0.14563225
125	0xbd85a02f	-0.06524693
126	0xbde67a8d	-0.112538435
127	0x3c3db1dc	0.0115780495
128	0xbda47a9e	-0.080312
129	0x3e1019f6	0.14072403
130	0x3ca5a09c	0.020218186
131	0x3c6c7db2	0.014434265
132	0x3da81cde	0.08208631
133	0x3e3a4f65	0.18194349
134	0xbd84c16d	-0.064822055
135	0x3dcf51c0	0.101230145
136	0x3d8c69a9	0.068560906
137	0x3cf37d54	0.029722847
138	0x3e38f21b	0.18061106
139	0xbd16b76c	-0.03679602
140	0xbd4ff20d	-0.050767947
141	0x3c1470d1	0.009060101
142	0xbd274117	-0.04083356
143	0x3d7d2711	0.061804835
144	0xbe45489d	-0.19265981
145	0xbc859aa8	-0.016309097
146	0x3dd1b1ed	0.10239015
147	0xbe583342	-0.21113303
148	0xbdaecf25	-0.085356034
149	0xbdbebec4	-0.093137294
150	0x3d9866d9	0.07441492
151	0x3d297e26	0.04138007
152	0x3d8956ee	0.06706034
153	0xbdb3a61f	-0.087719195
154	0x3da99cb3	0.08281841
155	0x3c7ecd76	0.015551915
156	0xbcef424c	-0.029206418
157	0xbd83c976	-0.0643491
158	0x3d9f6622	0.07783152
159	0x3bf762b5	0.0075496086
160	0xbd724c79	-0.05915496
161	0x3d809592	0.06278528
162	0x3d6fe88e	0.05857139
163	0xbdf4bf5a	-0.1195056
164	0xbdeecdc1	-0.11660338
165	0xbd98c979	-0.07460303
166	0x3d2e8dbd	0.04261564
167	0xbca5f900	-0.020260334
168	0x3e07ef90	0.1327498
169	0xbd9a4bda	-0.07533999
170	0xb9169b1b	-0.00014362896
171	0xbb92d8a4	-0.004481392
172	0x3e1e2041	0.15441991
173	0xbc9a2ae3	-0.018819278
174	0xbe01035d	-0.12598939
175	0x3dbd58c4	0.09245446
176	0xbe18c2e4	-0.14918095
177	0xbddeab27	-0.108724885
178	0x3a9c7219	0.0011935859
179	0x3dbd0c63	0.09230878
180	0x3e2b171c	0.16708034
181	0xbda8a13c	-0.08233878
182	0xbc93c44d	-0.01803794
183	0x3d9731e2	0.07382561
184	0xbcb0c959	-0.021580385
185	0x3dd8c379	0.105841585
186	0xbd3d63d6	-0.04623779
187	0xbdb56c53	-0.08858552
188	0xbcbc00d4	-0.022949614
189	0x3de8f500	0.11374855
190	0x3da5dbc8	0.080985606
191	0x3e8923b7	0.2678506
192	0x3d2ec24e	0.042665772
193	0xbe346a4b	-0.17618673
194	0x3d0dbcae	0.034603767
195	0x3c4b6b6b	0.012415747
196	0xbd7d65f7	-0.06186482
197	0x3c2b85e9	0.010468938
198	0x3deabbac	0.11461577
199	0x3c7f630f	0.015587582
200	0x3c89801f	0.016784726
201	0x3c894fb7	0.016761644
202	0xbb5ffd4b	-0.0034178074
203	0x3cf59188	0.029976621
204	0x3c7e0d62	0.01550612
205	0xbdd89876	-0.105759546
206	0xbdb7c711	-0.08973516
207	0x3d999a4a	0.075001314
208	0xbd827d94	-0.063716084
209	0x3d1375c7	0.036000993
210	0x3d4a2f63	0.049361598
211	0xbc598cf6	-0.013278237
212	0x3d9e3aa3	0.07726028
213	0x3d9e19c1	0.07719756
214	0xbd1063c6	-0.0352514
215	0x3d874cb9	0.066064306
216	0xbd523e9d	-0.051329244
217	0x3cf8f70a	0.030391235
218	0xbe0893e1	-0.13337661
219	0xbe159d2f	-0.14610742
220	0x3de074c9	0.10959775
221	0x3ddb6175	0.10711948
222	0x3dab8d42	0.08376552
223	0xbda569cc	-0.0807682
224	0x3ddd5476	0.10807125
225	0xbd85e767	-0.06538277
226	0xbd367fea	-0.044555582
227	0x3d7f7150	0.062363923
228	0x3cc96d45	0.024588237
229	0xbcde052d	-0.027102077
230	0x3d65b3d5	0.056079704
231	0xbdea9c77	-0.114556246
232	0x3d8c1e27	0.068416886
233	0x3cd9e0c4	0.026596434
234	0x3c9d6bd1	0.01921645
235	0x3dd5677f	0.10420131
236	0xbd419194	-0.047257975
237	0xbd11afa0	-0.03556788
238	0x3d21155e	0.039327018
239	0xbc1a4025	-0.009414707
240	0x3d89074d	0.06690846
241	0x3dbc9a49	0.09209115
242	0xbc3d6dcf	-0.011561825
243	0x3d4b01aa	0.049562134
244	0x3d77db8a	0.060512103
245	0x3c456cd4	0.012049872
246	0x3de85752	0.1134478
247	0xbe6e6fab	-0.23284785
248	0x3d1e3889	0.038628135
249	0xbd1f5889	-0.038902793
250	0xbd87cbd2	-0.066306725
251	0xbdb91a9f	-0.09038281
252	0x3d732d04	0.059369102
253	0xbd09d034	-0.033645824
254	0xbdb43dcd	-0.0880085
255	0x3e5ad001	0.2136841

critic.network_body.linear_encoder.seq_layers.2.bias f4 [128]
0	0x00000000	0.0
1	0x00000000	0.0
2	0x00000000	0.0
3	0x00000000	0.0
4	0x00000000	0.0
5	0x00000000	0.0
6	0x00000000	0.0
7	0x00000000	0.0
8	0x00000000	0.0
9	0x00000000	0.0
10	0x00000000	0.0
11	0x00000000	0.0
12	0x00000000	0.0
13	0x00000000	0.0
14	0x00000000	0.0
15	0x00000000	0.0
16	0x00000000	0.0
17	0x00000000	0.0
18	0x00000000	0.0
19	0x00000000	0.0
20	0x00000000	0.0
21	0x00000000	0.0
22	0x00000000	0.0
23	0x00000000	0.0
24	0x00000000	0.0
25	0x00000000	0.0
26	0x00000000	0.0
27	0x00000000	0.0
28	0x00000000	0.0
29	0x00000000	0.0
30	0x00000000	0.0
31	0x00000000	0.0
32	0x00000000	0.0
33	0x00000000	0.0
34	0x00000000	0.0
35	0x00000000	0.0
36	0x00000000	0.0
37	0x00000000	0.0
38	0x00000000	0.0
39	0x00000000	0.0
40	0x00000000	0.0
41	0x00000000	0.0
42	0x00000000	0.0
43	0x00000000	0.0
44	0x00000000	0.0
45	0x00000000	0.0
46	0x00000000	0.0
47	0x00000000	0.0
48	0x00000000	0.0
49	0x00000000	0.0
50	0x00000000	0.0
51	0x00000000	0.0
52	0x00000000	0.0
53	0x00000000	0.0
54	0x00000000	0.0
55	0x00000000	0.0
56	0x00000000	0.0
57	0x00000000	0.0
58	0x00000000	0.0
59	0x00000000	0.0
60	0x00000000	0.0
61	0x00000000	0.0
62	0x00000000	0.0
63	0x00000000	0.0
64	0x00000000	0.0
65	0x00000000	0.0
66	0x00000000	0.0
67	0x00000000	0.0
68	0x00000000	0.0
69	0x00000000	0.0
70	0x00000000	0.0
71	0x00000000	0.0
72	0x00000000	0.0
73	0x00000000	0.0
74	0x00000000	0.0
75	0x00000000	0.0
76	0x00000000	0.0
77	0x00000000	0.0
78	0x00000000	0.0
79	0x00000000	0.0
80	0x00000000	0.0
81	0x00000000	0.0
82	0x00000000	0.0
83	0x00000000	0.0
84	0x00000000	0.0
85	0x00000000	0.0
86	0x00000000	0.0
87	0x00000000	0.0
88	0x00000000	0.0
89	0x00000000	0.0
90	0x00000000	0.0
91	0x00000000	0.0
92	0x00000000	0.0
93	0x00000000	0.0
94	0x00000000	0.0
95	0x00000000	0.0
96	0x00000000	0.0
97	0x00000000	0.0
98	0x00000000	0.0
99	0x00000000	0.0
100	0x00000000	0.0
101	0x00000000	0.0
102	0x00000000	0.0
103	0x00000000	0.0
104	0x00000000	0.0
105	0x00000000	0.0
106	0x00000000	0.0
107	0x00000000	0.0
108	0x00000000	0.0
109	0x00000000	0.0
110	0x00000000	0.0
111	0x00000000	0.0
112	0x00000000	0.0
113	0x00000000	0.0
114	0x00000000	0.0
115	0x00000000	0.0
116	0x00000000	0.0
117	0x00000000	0.0
118	0x00000000	0.0
119	0x00000000	0.0
120	0x00000000	0.0
121	0x00000000	0.0
122	0x00000000	0.0
123	0x00000000	0.0
124	0x00000000	0.0
125	0x00000000	0.0
126	0x00000000	0.0
127	0x00000000	0.0

critic.value_heads.value_heads.extrinsic.weight f4 [1, 128]
0	0x3d3b33c0	0.04570365
1	0x3dae3168	0.08505517
2	0x3e2e86bc	0.17043585
3	0x3e1e2ee4	0.15447575
4	0x3dced648	0.10099465
5	0xbbb12820	-0.0054063946
6	0xbde33fa6	-0.11096124
7	0x3dffd1b4	0.124911696
8	0xbe1c82f4	-0.1528433
9	0x3de5c7f4	0.11219779
10	0x3ca22758	0.019794151
11	0xbdf4b7cf	-0.11949121
12	0xbdcbfd1f	-0.099603884
13	0x3d51e218	0.05124101
14	0xbc034ad0	-0.008013442
15	0x3d7588a8	0.05994478
16	0x3e21c6b4	0.15798455
17	0xbd4f0c9c	-0.050549135
18	0x3e44b42e	0.19209358
19	0x3e2730d0	0.16327214
20	0xbe37b780	-0.17941093
21	0x3e250a60	0.16117239
22	0xbd79ac94	-0.0609556
23	0x3c60e230	0.013725802
24	0xbe5cc333	-0.21558838
25	0xbe144e22	-0.1448293
26	0xbe2ab5b4	-0.16670877
27	0x3dfccc74	0.12343684
28	0xbe32ef96	-0.17474207
29	0xbdd56408	-0.1041947
30	0x3d2657e0	0.040611148
31	0x3ceab8b0	0.028652519
32	0xbe3589b4	-0.17728311
33	0xbdd8aacf	-0.10579454
34	0x3e2ed89e	0.1707482
35	0x3dbfe72c	0.093702644
36	0xbd8082cc	-0.062749475
37	0xbe3e46bf	-0.18581675
38	0xbe2cd4d0	-0.16878057
39	0x3d93957c	0.07206246
40	0x3e3aef7c	0.18255419
41	0x3df3ee54	0.11910692
42	0x3e5a44c0	0.21315289
43	0x3d1eb2e0	0.038744807
44	0x3e070762	0.1318641
45	0x3d6f2ee0	0.058394313
46	0xbc121f60	-0.008918613
47	0xbd632cc0	-0.0554626
48	0xbdf2b694	-0.1185123
49	0xbe1089ef	-0.14115117
50	0x3d0a97d8	0.033836216
51	0xbe1ffb15	-0.15623124
52	0x3e282e68	0.16423953
53	0x3e3e893e	0.18607041
54	0x3dab3824	0.08360317
55	0x3c37bc40	0.011214316
56	0xbe3b07ca	-0.1826469
57	0x3dc409d4	0.09572187
58	0xbdd29633	-0.102825545
59	0xbe4701b2	-0.1943424
60	0xbd908e56	-0.070583984
61	0xbdf4cc04	-0.119529754
62	0xbe192a56	-0.14957556
63	0xbd1bba58	-0.038019508
64	0x3d8f4574	0.06995669
65	0xbe4ba66e	-0.19887707
66	0xbc80bb98	-0.015714452
67	0xbd918df4	-0.071071535
68	0xbdfb4659	-0.12269277
69	0xbd604690	-0.054754794
70	0x3d160d00	0.03663349
71	0x3d53a2a8	0.051668793
72	0xbdffeefa	-0.12496753
73	0x3e396398	0.18104398
74	0x3cf0f8e0	0.029415548
75	0xbd2b1c18	-0.04177484
76	0x3db50eb8	0.08840698
77	0x3c8a6c70	0.01689741
78	0xbd7720fc	-0.06033419
79	0xbdb40aaa	-0.087910965
80	0xbe3f3def	-0.1867597
81	0xbe1cb72c	-0.1530425
82	0x3e0161dc	0.12634987
83	0xbe185230	-0.14875102
84	0xbe4b22d6	-0.19837508
85	0x3deffbbc	0.117179364
86	0xbdd296b3	-0.1028265
87	0x3e59a7c4	0.21255404
88	0xbe0006fc	-0.12502664
89	0xbc9d25c8	-0.019183055
90	0xbdfd7103	-0.12375071
91	0xbd211ff4	-0.039337113
92	0xbdbd48a0	-0.09242368
93	0xbd56441c	-0.052311048
94	0xbd4d95f0	-0.05019182
95	0x3dde14ec	0.10843834
96	0x3df6d6e4	0.12052706
97	0x3d24eb50	0.040263474
98	0xbdee6609	-0.116405554
99	0xbdd478a5	-0.103745736
100	0xbd929b14	-0.07158485
101	0xbd80e21e	-0.062931284
102	0x3d550338	0.052005023
103	0xbd56d7a4	-0.052451745
104	0x3e22df9a	0.1590561
105	0xbe210f9a	-0.15728608
106	0xbe1692b0	-0.14704394
107	0xbd90db7a	-0.07073112
108	0x3e225b66	0.15855178
109	0xbb5e9900	-0.0033965707
110	0xbda7a354	-0.08185449
111	0x3c99c268	0.018769458
112	0xbe1ae9e2	-0.15128282
113	0xbdd39e8d	-0.103329755
114	0x3d833ee8	0.06408483
115	0xbd6c9708	-0.057761222
116	0x3d6cc018	0.057800382
117	0xbd639948	-0.055566102
118	0xbd2af868	-0.041740805
119	0xbe42d0a8	-0.19024909
120	0x3e4db854	0.20089847
121	0x3da0ed34	0.07857743
122	0xbe582ee6	-0.2111164
123	0xbdc0e872	-0.094193354
124	0x3e12c230	0.14331889
125	0x3e2d6226	0.16931972
126	0xbe05d48e	-0.13069364
127	0x3bac3460	0.005255267
