results/dajGoal1/HitTheBall.onnx (onnx, 74062 bytes, 8 tensors)

action_model._continuous_distribution.log_sigma f4 [1, 2]
00000000: ecfc 95bb ad19 dcbb
-0.00457727 -0.006716928

action_model._continuous_distribution.mu.bias f4 [2]
00000000: e4f9 57ba 8994 1c3a
-0.0008238836 0.0005973061

action_model._continuous_distribution.mu.weight f4 [2, 128]
00000000: 5af6 f0bc 220b 9dbc 0293 74ba 0bfc f5bb
00000010: eca0 6bbb a2f8 923b 40f8 a13c 0357 f1ba
00000020: 48d9 d3bb b8fa b6bc 8db7 c6bc b9e9 52bc
00000030: 0557 eebb ddb3 23bd fab2 0abb cb93 8b3c
00000040: 9978 e6bc fe2b f23b b631 33bc e7f4 233c
00000050: 5e1e d03b 2e20 013d 7bbe 12ba 91cf 233c
00000060: 1ea8 2e3c 40f6 953b 7f88 aebc 98a4 1b3b
00000070: 48c3 c8ba 6a64 03bd bd6a f33c b6a1 af3c
00000080: edd9 c73b da6f 9fbb eebb b2bb cc2f a03c
00000090: 7532 a83c 8ade e73b 5d6d 99bc 137d 413c
000000a0: 4081 c33b da25 a7bc 8db1 a9bb f19d 99bc
000000b0: aca6 aabb 16c3 c43b 9786 5abc f158 c7bc
000000c0: 791e 3ebd e2db be3c ca18 763c cee1 9b3c
000000d0: 1e16 a7bb be61 aa3b d2d8 773c 2165 f03b
000000e0: 7710 79bc 5261 0f3c c207 9cbb 01bf 8f3c
000000f0: 9651 37bc 66a4 cfbb 9f47 fcbc 97b1 603c
00000100: 87f6 ae3c f9f0 3dbb 4f74 a93c 5cae a73c
00000110: 6fca 8a3c 0200 ed3a 5e52 263c 5814 3c3c
00000120: 3501 9a3b 2ea0 a7bb fdaa 093c 427d 90bb
00000130: 251c bebc b78f d43c af09 223d a7f9 61bb
00000140: 35f7 d63c f1ab 1a3d 1216 6e3b da1f 08b8
00000150: 5b44 d03c b3e9 09bb c636 8f3c 9ac0 f53b
00000160: 48ab acbc 750f bfbc 08be 0e3d 1ff9 0e3a
00000170: c5b9 863c e983 59bc ca01 d03b 3a01 bfbb
00000180: 7208 e23b ba4e 44bb 236a d5bb d854 2dbb
00000190: bf5b 243c a7c7 b7bb 7004 043b 1439 0bbd
000001a0: dbb7 ab3a f891 ea3b dff6 3e3c e66c a3bc
000001b0: f85e 563c 8dd9 d5bc 0b97 553c 4f36 533c
000001c0: cd96 8ebb 0c97 733a 492f e73c 2b73 babc
000001d0: bdf7 c7bb 4005 2c3c 6026 0d3c a5b9 853c
000001e0: 61ee 05bc 32d5 21bd 9fdf 80bb 101f b8bc
000001f0: 16a3 183c 7ae7 ff3c 8ef8 303c c90c 3bbb
00000200: e241 a43c 2fc5 fcba c9a7 713c d0ce eabc
00000210: da3a d73c 2e15 26bd 33d9 ffbc f474 37bb
00000220: 86d2 5cbb 77af d43c 73af 5e3c f6a5 d6bc
00000230: 587b 9fbb fba2 29bc 268c a93c c0bd 73bc
00000240: 1263 25bc 6e2a a33c bffb 5e3b 8e92 79bc
00000250: 191e cfbb 38e4 cb3b f0a9 1f3d 6b0e 083b
00000260: 6f39 e5b9 8790 5f3c e26e 1f38 c8a4 63bc
00000270: 97fe 7cbc 46d4 f5bc 8c08 be3a 3568 f4bb
00000280: 9ed6 8dba fc95 343a 132a 61bb 5690 8cba
00000290: 3a18 89bd be69 e2bc 3deb 8cbb c1ac ed3c
000002a0: 3d23 2cbc 80e8 ddbc 158b 33bb be08 07bd
000002b0: c9cf 56bb aef7 2eba 864f 89bb 1f18 083d
000002c0: 9d4d 26ba c9fd f738 c49e bb3c 6849 84bc
000002d0: 8f22 f2bc 062d 85bc 4f42 e5bb 3946 b53c
000002e0: 949a 63bc 5a01 61bb c5e6 eabb 7dcd bcbc
000002f0: 7dbf 963b 9ced 24bc bd2e bdbb cac9 1bbc
00000300: 13f2 623c 5f2d 283c b621 71bb bc6f 0ebc
00000310: c051 9f3c 8a93 7b3c 1c6f 063d 1f5e ab3c
00000320: 04d1 363c 82d0 e6bb 06b5 d63b f4ff 21bc
00000330: 2fc6 a4bc 07a0 c6bc 6829 1b3d 67b0 d4ba
00000340: 41bf 863b 6e5f ac3b 693a 84bb 1d7b 8b3b
00000350: f7cd 803c c0df afbb a9cb 3b3c 72f7 303b
00000360: 370d 9c3b 8877 5abc cfd3 3f3b 97e0 383c
00000370: f14e b43b ea1c 0fbc bbe0 453c c0dd 1c3c
00000380: 3528 863b 8fad 293c 2759 133d c4ae ba3b
00000390: c6a6 a7bb 8852 96bc 3f52 d13b 8065 c13c
000003a0: 9e95 28bb 3544 aebc 7679 6e3c 6a8f a1bc
000003b0: 4913 1abc 3bdc c43c 63f8 b33c 23cf 3bbc
000003c0: 1488 6dbc 4193 753c 0a74 c43b 4b95 3cbc
000003d0: 4ecb b4bc c789 38bb ca42 b1bc 95c6 8f3c
000003e0: 0938 f13c 6a38 7aba 25a1 84bc 37d9 0c3c
000003f0: b4b8 b9bc 37f3 dcbb 01eb 16bc b0d2 e03b
-0.029414345 -0.019170348 -0.0009329767 -0.0075068525 -0.0035954071 0.0044852057 0.019771695 -0.0018412772
-0.006465111 -0.022336349 -0.024257446 -0.012873107 -0.007273557 -0.039966453 -0.0021163807 0.017038247
-0.028133677 0.007390498 -0.010937145 0.01000712 0.0063512763 0.03152483 -0.0005597842 0.009998218
0.010660199 0.0045764744 -0.02130532 0.0023749229 -0.0015316987 -0.032078184 0.029713983 0.021439414
0.006098977 -0.0048656287 -0.005454532 0.019554041 0.020531872 0.0070760893 -0.018728906 0.011809605
0.0059663355 -0.020403791 -0.0051786364 -0.01875207 -0.005207857 0.0060047014 -0.013337753 -0.024334403
-0.04641578 0.023298208 0.015020559 0.01902857 -0.005099072 0.00519964 0.015127378 0.0073362743
-0.015201679 0.00875123 -0.004761667 0.017547132 -0.011188885 -0.0063367365 -0.03079587 0.013714216
0.021357788 -0.0028982742 0.020685343 0.020468883 0.016942231 0.0018081667 0.010151474 0.01147946
0.004699851 -0.0051155305 0.008402583 -0.004409463 -0.02320678 0.025947435 0.039560016 -0.003448108
0.026240924 0.037761632 0.0036329073 -3.245459e-05 0.02542322 -0.0021043837 0.017482173 0.0074997665
-0.021077767 -0.0233228 0.034849197 0.0005453992 0.016446004 -0.013276079 0.0063478695 -0.0058290036
0.0068979794 -0.0029954151 -0.0065128966 -0.0026448276 0.01003164 -0.005608517 0.0020144247 -0.03398998
0.0013101058 0.007158514 0.011655538 -0.019949388 0.013084166 -0.026104713 0.0130365 0.012891366
-0.004351473 0.0009292222 0.02822079 -0.022759994 -0.0061025308 0.010499299 0.008615106 0.016323874
-0.00817451 -0.03950996 -0.0039329077 -0.02247575 0.0093162265 0.031238306 0.010801448 -0.0028541556
0.020050947 -0.001928484 0.014749476 -0.028663069 0.02627318 -0.040547542 -0.031231498 -0.0027993293
-0.0033694818 0.025962574 0.013591635 -0.026202183 -0.0048669986 -0.010353799 0.02069671 -0.014876783
-0.010094421 0.019917693 0.0034024564 -0.015232695 -0.0063207266 0.006222274 0.038980424 0.0020760547
-0.00043721075 0.013645298 3.801182e-05 -0.013894267 -0.015441558 -0.030008446 0.0014498397 -0.0074587115
-0.0010821407 0.00068888045 -0.0034357354 -0.0010724168 -0.06694074 -0.027638312 -0.0043005035 0.02901304
-0.010506448 -0.027088404 -0.0027396132 -0.03296732 -0.0032777658 -0.00066744804 -0.004190388 0.03322613
-0.0006343963 0.00011825149 0.022902854 -0.016148284 -0.029557494 -0.01625682 -0.00699643 0.022128211
-0.013891835 -0.003433308 -0.007168623 -0.023047203 0.004600464 -0.010066416 -0.005773394 -0.0095085595
0.01385166 0.010264724 -0.0036793775 -0.008693632 0.019448161 0.015355 0.032820806 0.020918904
0.011158232 -0.007043899 0.0065523414 -0.009887684 -0.020114033 -0.024246229 0.037881285 -0.0016226888
0.0041121547 0.0052603995 -0.0040352833 0.0042566196 0.015723212 -0.0053672493 0.011462131 0.0027002958
0.0047623175 -0.0133341625 0.0029270535 0.011284015 0.0055025746 -0.008734921 0.012077506 0.009574354
0.0040941485 0.010356321 0.035973694 0.005697103 -0.0051163165 -0.0183499 0.0063879783 0.02360797
-0.0025723944 -0.021272758 0.014555326 -0.019721705 -0.009404012 0.024030795 0.021969026 -0.011462959
-0.014497776 0.014988721 0.0059952782 -0.011510204 -0.0220696 -0.0028158294 -0.021638293 0.017550746
0.029445665 -0.00095451495 -0.016190121 0.00859671 -0.022671081 -0.0067428607 -0.009211303 0.0068610534

action_model._discrete_distribution.branches.0.weight f4 [1, 128]
00000000: deca 1dbb 0d6d f03b a1af b93b 707a 6d3c
00000010: abc0 00bc dba6 c6bb dbad 403b 90e4 b6bb
00000020: 5bb1 133c 542e 8cba 0d38 7dbb e6d5 233c
00000030: b422 96bc 302d f239 0fcd 18bb 673c e43b
00000040: ec32 8239 afeb bb37 656f 1bbc 33c3 683c
00000050: b23a b9bb 6f20 94bc 2eb5 0c3c d1d8 913b
00000060: 1b56 673c f94b 483c e881 fabb 4c4d 993b
00000070: aa6b 4ebb 23a7 88bb 06e6 1bbb 368b 0bbb
00000080: 78cf 4d3c 330e ccbb abd0 50bb 7bb7 a53c
00000090: 6218 19bb fc2a 9fba f7ad 843b a771 343b
000000a0: 29e9 913b ba51 58bc 05f8 28bc cb11 0bbb
000000b0: 636e 86ba 2d60 7bbc 2962 24bb 0274 eebb
000000c0: 662e b9bb 1b8a 1b3b 5a94 e83b 0b0b 083c
000000d0: ed98 543c e572 ee3a 0b6a c3b8 c54c cfbb
000000e0: 42b5 c8bb 9c00 94ba aaaf cd3a ff25 8f3b
000000f0: bc68 96bc 2018 0c3c e8ed d5bb 5fb7 5f3b
00000100: 05a4 903b d7b3 32bc 2289 573c 97d9 0e3c
00000110: 9e02 3a3c 5a9f a0bb 8a7f 593c a48f 203c
00000120: 3d6b 70b8 4358 07bc 8ff3 a53c 510a a0bb
00000130: 7b25 f93b a366 a0bc 9ffd 01bb dd05 f33b
00000140: 62da cdbb 751c be3a 724d 4d3c d558 063c
00000150: 3769 193b 936f 583c 53f5 873a 90dc 5ab9
00000160: d6d7 b73b f887 9abc 677e 143c 3b79 8ab9
00000170: ed9d 4fbc 2a2b ec3b 8b1f 3c3c 0854 803b
00000180: 5b9d 8439 06ad 47bb 809f 0fbb 405f 4f3b
00000190: 53c8 03bc f0b0 e23b 5ad2 663c 38bc 0e3a
000001a0: 0732 3bbc da00 66bc 852b fc38 4770 16bc
000001b0: 3032 6e3b af41 5e3a b21f da3b ae2d ca3a
000001c0: d743 e13b 5326 473c c2f8 dcba 6368 1d3c
000001d0: e51e 0c3c 3342 2abc 7f34 923b 7095 4ebb
000001e0: 2cd6 c2ba 8a0d 9dbc 86db a8bb cf11 aabc
000001f0: 8b68 853b 227c d4ba df84 09bc 18c8 04ba
-0.0024077217 0.0073372186 0.0056666886 0.014494523 -0.007858436 -0.006062371 0.00294005 -0.005581446
0.009014453 -0.0010694959 -0.0038638145 0.009999728 -0.018327095 0.00046191504 -0.0023315584 0.0069652083
0.00024833472 2.2401886e-05 -0.009487008 0.014206695 -0.005652749 -0.018081872 0.0085881185 0.0044508954
0.01411965 0.012225145 -0.0076448806 0.004678404 -0.0031497278 -0.004170315 -0.0023788228 -0.0021292693
0.012561671 -0.0062272786 -0.0031862657 0.020229092 -0.002336048 -0.0012143548 0.0040490585 0.0027533562
0.0044528437 -0.013203079 -0.010313039 -0.0021220322 -0.0010256286 -0.015342754 -0.0025082922 -0.007277013
-0.005651283 0.002373344 0.007097763 0.008303414 0.0129759135 0.00181922 -9.3180766e-05 -0.0063262903
-0.0061251232 -0.0011291686 0.0015692611 0.004368543 -0.018360488 0.008550674 -0.006528605 0.0034136397
0.004414084 -0.010907135 0.013155254 0.00871887 0.011353163 -0.0049018087 0.013275037 0.009799872
-5.7320332e-05 -0.008260789 0.02025774 -0.0048840423 0.007603345 -0.019580191 -0.0019835008 0.0074164704
-0.006282137 0.001450433 0.012530671 0.00819989 0.002340866 0.013210195 0.0010372795 -0.00020872266
0.0056104464 -0.018863663 0.00906334 -0.00026411735 -0.01267193 0.007207294 0.01148213 0.0039162673
0.0002529424 -0.003046812 -0.0021915138 0.0031642467 -0.0080433665 0.0069180652 0.014088238 0.0005444917
-0.011425502 -0.014038289 0.000120244025 -0.009182042 0.0036345832 0.00084784155 0.0066566104 0.001542499
0.006874542 0.012155133 -0.0016858804 0.009607407 0.008552288 -0.01039176 0.0044618244 -0.0031522177
-0.0014864854 -0.019171495 -0.0051531224 -0.020760445 0.0040713004 -0.0016211311 -0.008393495 -0.00050652167

network_body.linear_encoder.seq_layers.0.bias f4 [128]
00000000: 221a 3ebb b851 38ba 333f b73b 2ca9 7ebb
00000010: 43eb 0f3b 9922 813a d1f6 0eba fc28 a2b8
00000020: e5e9 f63a 1881 783a e572 fcba 0666 64ba
00000030: 1402 b138 e8c4 0abb 4449 8db9 be3f 673a
00000040: 4c5a 323c a60e 5c3a 013f 6d3a 4117 47ba
00000050: fe27 5bbb e9cf bcb6 203e f239 bbf9 3a37
00000060: 8b9b 373b 26f0 eab8 c0ff e63a 0e18 c4ba
00000070: a76b cfb7 2c19 293a 1aa5 f8b9 aa2d 1ebb
00000080: b245 d339 a7ca 1cbb 7adc afba b038 e939
00000090: 1d76 33bb eec7 36bb b21b 473a 84e2 98bb
000000a0: db3f 74bb 8bb2 243c ab1b 21b9 5d20 63b9
000000b0: 0ea8 87ba 3378 42bb a414 b2bb c61c 06bb
000000c0: 85ca d3ba b84e 6bba 4fea 99ba 7ed8 303b
000000d0: 9e06 5d3b eb6b 64ba 5914 edba 8f4a 88b8
000000e0: 3736 c539 c40a b3b9 7d9e 0f3c 548e b7ba
000000f0: 386a 0fbb 2f1e 5cbb f8d3 f43b 7c70 8cba
00000100: 9a99 99b8 1bbf 193a cfa3 56bc 44eb fbba
00000110: d28a 10ba d100 aa3a 5d5e 04ba af02 84bb
00000120: 9905 cf3a 8cfc 97bb e11b 143a 2587 35b9
00000130: 5da8 843c f158 00bb 22f0 48ba e158 b3ba
00000140: 5e80 7fbb 0495 af38 bf81 863b 1506 69bb
00000150: c052 db3b ee30 bdbb e907 12bc 4bcd 35bb
00000160: f17b c3ba 7b4f b1ba ab0d b8ba 63f9 0eba
00000170: 7a3c 083a 2ea8 9b39 f503 bcb9 0017 09b9
00000180: 0085 76ba fe5e df36 5bad a5ba 2ecb 163b
00000190: f71e c23a c476 163a 111c ad39 efba 8a3a
000001a0: 8939 eab9 c766 213b 0f66 36bb 0b5c 9db7
000001b0: 7909 0bbb bbae 5dbb bc3d 8abb 88dd 31bb
000001c0: 7f38 5d3a 36f1 2e39 a9b2 0bbb e6ad 7e38
000001d0: 43a7 dfba 3da0 82ba 9daa d53a 0565 e9ba
000001e0: b220 9aba 4483 983b 1f07 10bc c693 dcba
000001f0: 2942 353a 3f90 37ba 5dc2 b0ba 7863 ba39
-0.0029007276 -0.000703122 0.0055922507 -0.0038858159 0.0021960295 0.000985223 -0.00054536486 -7.732396e-05
0.0018838017 0.00094796857 -0.0019260315 -0.00087127124 8.440405e-05 -0.0021174494 -0.00026948203 0.0008821449
0.010885786 0.0008394517 0.0009050221 -0.00075947127 -0.0033440585 -5.6270405e-06 0.00046204124 1.1144609e-05
0.0028016295 -0.000112027206 0.0017623827 -0.0014960782 -2.4726452e-05 0.0006450589 -0.00047425256 -0.0024136105
0.00040296983 -0.00239245 -0.0013417148 0.0004448346 -0.0027383633 -0.0027890163 0.00075953745 -0.0046656746
-0.0037269506 0.010052334 -0.00015364464 -0.00021660463 -0.0010349767 -0.0029673695 -0.0054345895 -0.0020463928
-0.0016158378 -0.00089762686 -0.0011742803 0.0026984508 0.0033725868 -0.0008713591 -0.0018087729 -6.498873e-05
0.0003761516 -0.00034149562 0.008765814 -0.0014004209 -0.002188338 -0.0033587327 0.0074715577 -0.0010714675
-7.324219e-05 0.0005864964 -0.013100578 -0.0019219895 -0.000551385 0.0012970214 -0.00050494616 -0.00402864
0.0015794515 -0.00463826 0.0005649906 -0.0001731185 0.016193563 -0.0019584263 -0.0007665177 -0.0013683104
-0.0038986425 8.3724066e-05 0.0041048224 -0.0035556604 0.006693214 -0.005773655 -0.008913019 -0.0027740772
-0.0014914257 -0.0013527715 -0.0014042159 -0.00054540316 0.0005197 0.00029689207 -0.00035861103 -0.00013073906
-0.0009403974 6.6569764e-06 -0.0012640165 0.0023009288 0.0014810254 0.00057397434 0.00033018042 0.0010584275
-0.00044674825 0.002462791 -0.0027831828 -1.875872e-05 -0.0021215363 -0.0033826071 -0.004218785 -0.00271401
0.00084388995 0.00016683791 -0.0021316207 6.0720275e-05 -0.0017063398 -0.0009965968 0.0016301457 -0.0017806595
-0.0011759012 0.00465432 -0.00879076 -0.0016828708 0.00069144607 -0.00070023903 -0.0013485659 0.00035550795

network_body.linear_encoder.seq_layers.0.weight f4 [128, 6]
00000000: 157c 873e 5d1e 35be 154d af3e bee5 aa3d
00000010: 6898 3c3f 1a8c 17bf f336 c1bd 52ae 483e
00000020: d32f 4f3d ded4 0abf e619 a83e 3e65 8fbe
00000030: 0add d4bd 1506 023f ffd3 70be 3b47 0f3f
00000040: 7c7c 2d3f c246 813e e7fa 2cbf 2283 8d3d
00000050: 2e69 8fbf b626 ef3e 477a a0be a25b e1bd
00000060: bd2a 3abe bfbe 39bc 46a1 d23e 70a7 5d3d
00000070: 2c78 333f 1a26 63bc 3c2b a4be fb27 fd3b
00000080: f7ab 213f 371b 81be 2ce2 0dbf 7857 4dbe
00000090: c9ab 15be 016b 50be c483 7cbe 4ce0 72be
000000a0: b93e 8b3e b431 47bd e06b 52bd a9a3 c2be
000000b0: f92b 5fbe 6333 6abe 50b8 a23e c351 513f
000000c0: 133a bcbe b9e4 413e f0e5 253f 0f82 893e
000000d0: 7665 60be 6239 cb3d 2d9c 953e 9b2a 2abf
000000e0: f09f 23be c770 46be a592 103d 7a56 2d3e
000000f0: 2f8d 4cbe 6cd7 0dbd 7c8b d33e da44 8fbe
00000100: b133 183e d833 d03e 3453 853e 8761 c6be
00000110: f575 61be 0b88 63bd 2acb a5bc e323 643e
00000120: 1acd 17b9 9d70 04be 5b01 83be 78d4 f2bc
00000130: 1ad6 95bd ed06 5a3f 71e2 0e3e d0ff 45be
00000140: 3484 2d3e 811c 59bf c8fd 0b3f 7d57 f1be
00000150: b30f e53e 7975 eabe f96f 2c3e a533 4dbf
00000160: c217 42bd 186e 8a3e 6737 c0be 328b e1be
00000170: 2f3f 4fbe 3225 cc3d ce70 853c e8ae debe
00000180: ca37 1c3f b28b 11bf c9c3 cdbe 367f bc3d
00000190: 9d32 e9bd aad9 453f 85f8 15bf 659b 7fbd
000001a0: 501e 463e 0acb 0e3f fbe0 73be a5d2 3bbe
000001b0: bcd2 79bc 0999 c63e bcf1 17be 0bcb ff3b
000001c0: a485 c43e a62d 24be fef3 0c3f cce6 a4bd
000001d0: 91a0 f3be 502d 89be aab4 27bf 699a 6c3f
000001e0: 489b 1b3e 2404 98be 227a 6e3d 595b a63c
000001f0: d2c2 8bbe 6fe9 053f b65c 18bf 8934 f0bd
00000200: 0ade 27bf 5410 ecbc 002b 0abf 17df 83bf
00000210: 988b d4be fa8e 86be 764a 943e 6636 f5bd
00000220: 0da5 96be d21a 073e ab0b b8be 8684 4a3e
00000230: d74b 993d 2620 93be 608d 21be bbf3 94be
00000240: 33e5 ba3e 48b9 413f 4860 4b3f 0b90 603e
00000250: ee8a 073f 566c 873e 2c4b 963f 31c6 cfbe
00000260: bc7e 373f aa49 70be 7f98 dabe cf51 803f
00000270: 62aa 6abe 57ce 8abd f56a c2be 6083 1d3d
00000280: f44f b3be 6ca6 cc3e e474 823e 0344 30be
00000290: 7b3c c63e 80fe f9be 8bcf ecbe fae7 f43d
000002a0: fbb0 103e acbe d93e 4e8b b8bd 4840 d9be
000002b0: f377 f63c c737 b6be 0a39 e4be 9ce4 1f3f
000002c0: edf6 0abf 3730 76be 3235 763f 643b 03be
000002d0: c7ed 123e 94fd c6be e2ec 42be b2f4 a83d
000002e0: 4329 99be 72e0 e73d 6827 e53c e3e1 b23d
000002f0: 3984 753e 7736 003e 5c6e c43b ec19 903d
00000300: 916e b63e 5ddd 0c3f 4165 b13e 327e 79bc
00000310: 59f4 38be 3104 bdbe 5e97 14be eb36 c73e
00000320: 7e03 02bf 0d3f 1d3f de8f 7ebe d390 1ebf
00000330: 032f 43bf d6be d53e a95e 79be 1563 5dbc
00000340: 9d4f 3fbf d2c0 9f3d e38d 0a3d dbc6 c3be
00000350: cb98 db3d f7dc dabe 4029 b5be e3c4 063d
00000360: 5c14 4ebe b21f e1be d2b1 3ebe 9c73 a53c
00000370: f7d2 70bf d3bb debe ada1 ef3d d002 aa3e
00000380: b90c 243f cce7 f83e b27b b73e e745 8abe
00000390: a8ea cdbe 7b18 973e 8845 67be f59d dd3e
000003a0: 59e3 ed3e 0142 14bf 13a1 013f 5be1 d33e
000003b0: 1296 2bbe 3208 893e b55d 4fbd b2a3 c33d
000003c0: 12d8 3a3f 2b99 e03d 4758 edbe 9b35 133f
000003d0: 812a 0cbe b18c 1cbf e2ab 9cbc 7425 483e
000003e0: df5a 89bf 38bb ad3e bf76 8e3e 3239 f1be
000003f0: c7ad 9d3e 5fda 8e3e 905d 2d3d 1434 dbbe
0.26461855 -0.17687364 0.34238496 0.08344601 0.73670053 -0.59198153 -0.09434309 0.19597748
0.050582718 -0.5423106 0.3283226 -0.2800693 -0.10393722 0.5079053 -0.2351837 0.55968064
0.67768073 0.25249296 -0.67570347 0.06909777 -1.1203973 0.46709222 -0.3134329 -0.11003806
-0.18180366 -0.011336981 0.41138667 0.05411476 0.7010524 -0.013864065 -0.32064235 0.0077257133
0.6315302 -0.25216076 -0.55423236 -0.20052898 -0.14616312 -0.20353319 -0.2465964 -0.23718375
0.2719629 -0.048631385 -0.05137241 -0.38015488 -0.21794118 -0.22871165 0.31781244 0.81765383
-0.36763057 0.18934907 0.6480398 0.2685704 -0.21913704 0.09923054 0.29220715 -0.6647126
-0.1597898 -0.19378959 0.0352961 0.1692752 -0.19975732 -0.03462927 0.41317356 -0.27982217
0.14863469 0.40664554 0.2604004 -0.38746282 -0.22017653 -0.055549663 -0.020238478 0.22279315
-0.00014476888 -0.12933584 -0.25586972 -0.029642329 -0.07316227 0.8516682 0.13953568 -0.19335866
0.16944963 -0.8480912 0.54684114 -0.4713706 0.4473854 -0.4579275 0.16839589 -0.8015693
-0.04738594 0.2703712 -0.3754227 -0.4405151 -0.20238946 0.09968032 0.016289141 -0.43492818
0.6102263 -0.56853783 -0.40188435 0.09203951 -0.11386607 0.77285254 -0.58582336 -0.062404055
0.19347501 0.55778563 -0.23816292 -0.18342073 -0.015247997 0.38788632 -0.14838308 0.007806187
0.3838321 -0.16033038 0.550598 -0.080518335 -0.4758344 -0.26792383 -0.65510046 0.9242311
0.15195954 -0.2969066 0.058221944 0.02030723 -0.27297074 0.52309316 -0.59516466 -0.1172877
-0.6557318 -0.02881638 -0.5397186 -1.0302457 -0.41512752 -0.26280957 0.2896306 -0.11973266
-0.294228 0.13193825 -0.35946402 0.19777116 0.074851684 -0.28735465 -0.15776587 -0.29092202
0.3650299 0.7567334 0.7944379 0.21929948 0.52946365 0.2644984 1.1741691 -0.40580896
0.71677756 -0.234656 -0.4269447 1.0024966 -0.22916558 -0.067776375 -0.37972227 0.038455367
-0.35021937 0.3997072 0.25479805 -0.17213444 0.38718018 -0.4882698 -0.46252093 0.119583085
0.14130013 0.42528284 -0.09010945 -0.42431855 0.030086493 -0.3558943 -0.44574767 0.62458205
-0.5428303 -0.2404183 0.9617492 -0.12815624 0.14348517 -0.3886534 -0.19035676 0.08249797
-0.29914293 0.113221064 0.027972892 0.08734491 0.2397622 0.12520777 0.005994601 0.07036194
0.3563123 0.55025274 0.34647563 -0.015227841 -0.18061961 -0.3691726 -0.14510867 0.38909087
-0.5078658 0.6142433 -0.24859568 -0.61939734 -0.7624361 0.4174716 -0.24352516 -0.0135123925
-0.74730855 0.078004494 0.03382672 -0.38237652 0.10722502 -0.42746708 -0.35383034 0.03290261
-0.20124954 -0.43969494 -0.1862252 0.020196728 -0.94071907 -0.43502674 0.11700759 0.3320527
0.64081913 0.48614347 0.3583656 -0.27006456 -0.4021809 0.29510865 -0.22585118 0.43284574
0.46462515 -0.57913214 0.50636405 0.4138287 -0.16756466 0.26764065 -0.050626475 0.09552707
0.7298595 0.109667145 -0.46356413 0.5750367 -0.13688089 -0.6115218 -0.019124929 0.19545537
-1.0730857 0.339319 0.2782497 -0.4711395 0.30796644 0.2790098 0.042325556 -0.4281317

network_body.linear_encoder.seq_layers.2.bias f4 [128]
00000000: ca25 a2b9 192f 3a39 54a4 b03a 0393 13ba
00000010: bcc6 e8ba bab6 c1bb c968 9bbb c2b1 fdba
00000020: 733a 63ba f77e b63a 7e4f 6fb8 b2b3 bfba
00000030: 8d54 f8b9 3925 b638 4c95 19b9 153e aaba
00000040: 61a1 dc39 5a02 b73b ce7c feba 9ccc 69ba
00000050: de98 39ba 4190 f1bb 1ed6 f83b 20ce bcba
00000060: f095 763a 933d 8bba 8b6f 383c 7d6c 3cba
00000070: f272 86ba d601 d039 7e1f 70ba 6da6 d4ba
00000080: b2e5 5dba f32c ce3b 08a0 32ba 6f1b 22b8
00000090: e663 b7b9 5f43 c6bb 0474 69b9 6922 763a
000000a0: e603 a9bb d6be 90b9 bcfb 78ba d24d 2e3a
000000b0: ea2f 743b a855 bbbb 5c3f 0d3c 5d63 a53b
000000c0: f244 e5ba f63a 5a3a ee4c 7139 35dc 58ba
000000d0: 1df1 68ba 7273 46b9 1629 c2ba 377b 9b3a
000000e0: b0cd 273a 1d8d 5bb9 6a74 30ba ae17 c3b9
000000f0: 681c 783a 653d d4ba 0078 133a b2bb 4fba
00000100: 309a ac35 47cf d4ba 73e5 163c b411 17ba
00000110: adfe 2fbb ae9c a5ba 28fc 2abb 14c2 9aba
00000120: 6573 8bba 07d1 a8ba 5e49 36ba 4dd0 43bb
00000130: 5051 3dbb 8020 0637 9760 d039 0274 203c
00000140: 35b3 4a3a 3aa2 37ba 7343 083a 4ced b7ba
00000150: 3543 2fbb cedb 13bb 63f2 adba 403d 98bb
00000160: 49e5 3e3b 7c86 46ba db12 8bb9 316d fa3b
00000170: 5177 fdb9 ca64 79b9 ff54 4739 0665 533c
00000180: 6e3d 72ba 60d8 823b 9bfa b2b9 ddcb e73b
00000190: 09c9 9ab8 fcd5 a6ba 274e 50ba ebfa 10b8
000001a0: 54a2 95bb 9f43 02bc 9c71 acbb 8705 b6b9
000001b0: 3598 17bb dd7f 773a 8b32 5a39 223a a7bb
000001c0: e392 b8bb 4afb cc39 ebe6 24ba 8b9e cd3b
000001d0: 767e b1b9 82a2 95ba f482 3eba fe66 72ba
000001e0: 63cf 33ba 6476 5a3c cb83 11bb 18cb 453c
000001f0: e496 75ba e978 3fba 1e40 d0ba a43b 63ba
-0.00030927203 0.00017755888 0.0013476708 -0.00056295114 -0.0017759423 -0.0059116753 -0.004742716 -0.0019355344
-0.00086680724 0.0013923337 -5.7056073e-05 -0.0014625697 -0.0004736524 8.6853695e-05 -0.00014646834 -0.0012988473
0.00042081907 0.005584997 -0.0019415857 -0.0008918734 -0.0007079969 -0.0073719327 0.007593884 -0.0014404692
0.00094064977 -0.0010623209 0.011257063 -0.0007187797 -0.0010257645 0.0003967422 -0.0009159966 -0.0016223915
-0.0008464708 0.0062919795 -0.00068140076 -3.864936e-05 -0.0003497891 -0.0060505117 -0.00022263831 0.0009389283
-0.0051579354 -0.00027608004 -0.00094979606 0.00066491694 0.0037260004 -0.005716998 0.008621063 0.0050472454
-0.0017491861 0.0008324826 0.0002301221 -0.00082725595 -0.00088860263 -0.00018925758 -0.001481327 0.0011862282
0.0006401194 -0.00020938036 -0.0006731214 -0.0003721094 0.0009464682 -0.0016192613 0.00056254864 -0.0007924392
1.2859873e-06 -0.001623609 0.009209978 -0.0005762831 -0.002685468 -0.0012635195 -0.0026090238 -0.0011807107
-0.0010639249 -0.0012879678 -0.00069536816 -0.0029878796 -0.0028887577 7.994589e-06 0.00039744817 0.009793283
0.00077323924 -0.00070050696 0.0005198039 -0.0014032512 -0.002674294 -0.0022561434 -0.0013271089 -0.0046459734
0.0029128364 -0.00075731403 -0.00026526194 0.007642411 -0.00048344818 -0.00023784037 0.00019009782 0.012902504
-0.0009240721 0.003993079 -0.0003413752 0.007073863 -7.380738e-05 -0.0012728567 -0.0007946216 -3.456596e-05
-0.00456647 -0.007950692 -0.0052625667 -0.00034717863 -0.0023131494 0.00094413554 0.00020808929 -0.0051033655
-0.0056327446 0.00039097137 -0.0006290513 0.0062750033 -0.00033854292 -0.0011416229 -0.00072674383 -0.00092469144
-0.0006859211 0.013333891 -0.00222038 0.012072347 -0.0009368493 -0.0007304089 -0.0015888249 -0.000866825

network_body.linear_encoder.seq_layers.2.weight f4 [128, 128]
00000000: e02e 96bd ab40 cdbd dcb4 433c 6d91 a33c
00000010: cb51 f1bb 855c 53bd ff8d 653d 704c 8dbd
00000020: 4fc2 383a 2897 773d e642 303e 08d4 a23d
00000030: de22 813d 50cf e3bc 81fa 8fbc c1c6 1abe
00000040: a258 c4bd bdcd d03c 08db bc3d 199a 6bbd
00000050: 41c8 1c3c 9248 b23b 6383 5b3c e79d d43d
00000060: 8e1c 813c 1faa 33be b020 e0bd e7fb 703d
00000070: b804 21be 9c05 87bd 08e1 d5bd 21c4 a3bc
00000080: 0d34 d33c d1e7 223d 4677 2abd 91cf 83bc
00000090: b6cc 03bd 79cc b3bd b046 77bc ee20 75bd
000000a0: caa1 ccbd daab 4d3d 3afd 43be 2d6a 793d
000000b0: 34be 993d 87d3 1abd c332 c53a f7b9 9c3d
000000c0: 802b 4b3d 3b1f 8f3d fcdd f8bd 0e1e 96bd
000000d0: 303a 2dbd aa83 d9bc a141 abbd c6e4 8c3d
000000e0: ce17 14bd a75a 9fbd 9194 9dbd 53e6 9abd
000000f0: ef74 abbc 338f 453d 2974 2c3e 7325 84bd
00000100: 4071 0d3d 113e 06bc 0c1f 593d 3fcb cfbc
00000110: 59b3 033d 9fd7 723c b272 9abd 4fe4 01bd
00000120: 2882 453d 9b7b 36bd 444a 583d 363a 393c
00000130: 47fb 19be e053 efbd 36e4 09be 33bc c5bc
00000140: cb02 2c3c 31fd 61bc 7951 853d ef7e f83c
00000150: 0900 42bc d3f5 89bd cd54 b23c c5fd 163d
00000160: 7e4e 37bc 220f 43bc e824 7a3d e4f2 4f3d
00000170: 8902 653d ea96 143c bda4 1f3d 21ff 2f3e
00000180: 7fed 1abd 7a10 293d 348e 25be d6a1 eb3c
00000190: fa60 313c 062c 10be 76b8 18bd ff03 c23c
000001a0: 7192 7cbd 2f39 193d 932f 8ebc e44e fa3b
000001b0: 58cd 9abc 18d1 913d 6172 203c 6a8f 5b3d
000001c0: ed2f d5bd e26b 6b3d 0744 a9bd 4c29 073e
000001d0: fe2e c03c afd3 a53a 5cc0 0ebc 8999 983d
000001e0: 5af7 043d 536c 3a3d d02c 26bc 13a9 9e3c
000001f0: a86a 9bbd f62b 593e eda5 d23c d87d 10be
00000200: 9cd3 b53c 7da7 3ebd 428d d33c cf3d 433d
00000210: 2593 5c3d 33c6 273c ed08 c6bb 3604 9a3d
00000220: 4e81 e93c 7718 4f3d 7c35 803d 5964 8a3c
00000230: 2208 d9bc d155 103e d088 02bd c84a 53bc
00000240: ee14 203d e31e 1abd 6bba 8b3d df6b 25bd
00000250: 6df5 073e bbd5 57bd 170e 0f3e 7890 9b3c
00000260: ed99 203e f1b4 05bc 6f53 debd 508e 1d3d
00000270: fd33 5d3c f082 8b3d 955a acbc 3bd3 68bd
00000280: 51fe 80bd b209 33bd 544a b5bd b4ff bfbd
00000290: 3b7a 7e3d e92d e03c 6195 4bbc a695 793d
000002a0: 4230 8c3d 0465 893a fd13 e83c df49 a43c
000002b0: 22a3 853d 6811 0a3d 98f2 dabd 34da af3c
000002c0: 1e03 87bc ab92 16be 4fdd 49bd 7ab1 bf3d
000002d0: 0054 553d c066 15bd 0f6e a03d e6c1 43be
000002e0: 2d5c 7a3d 52f4 c93c af3e f13d 4304 4dbd
000002f0: d5da f6bc a0bc 683c 6d6e 86bd b67f 083d
00000300: 2527 1c3d f337 2a3d 8fbb 7b3c 447b 033d
00000310: 7d0e e5bc 2719 70bd ef74 ebbd 32df 0c3d
00000320: ddff bd3d dcaa 3abd 10c5 c1bd 76a3 dd3d
00000330: cae5 a8bc fe24 783c 96bc 6fbe 52cc 0bbd
00000340: b782 3fbd 7a77 5dbc c97b 8f3d dfa0 77be
00000350: e839 0f3e b8a7 76bd 8b4f debc 2ade 1fbd
00000360: bb80 3bbc 9447 2f3d 97e2 133d 44ff 833d
00000370: 19ae 42bd 6fc2 0fbc 3346 863d 37f2 d1bd
00000380: 453c 8d3d 881c e33d 74cf a6bd aa6a 863d
00000390: d1b0 683c 86f2 f7bd 6cac 073e ae89 85bd
000003a0: 19f2 0b3e 00c5 043d 492c efbd 5be7 043e
000003b0: ebc3 653e 2f7d c23d c591 073d d15e 143c
000003c0: 8600 bbbc 437b 48bd 444e 37be e027 c53d
000003d0: cd61 f13d f930 6b3d f918 5f3d cff2 19bc
000003e0: 802d 893c fa49 07be 0cf9 3e3b 7b5f 333e
000003f0: 4cb8 a5bd ebed 903d 1a32 b63d 1a3d 5fbd
-0.073331594 -0.100221 0.011944976 0.019966805 -0.007364487 -0.051601905 0.05604362 -0.06899345
0.0007047997 0.06044689 0.1721302 0.07950598 0.063054785 -0.027808815 -0.017575504 -0.15114881
-0.09587218 0.025488729 0.092214644 -0.057520006 0.009569229 0.00544078 0.013398024 0.1038168
0.015760686 -0.17545365 -0.10943735 0.058833983 -0.15724456 -0.06592867 -0.10443312 -0.019990982
0.025781656 0.03977186 -0.041617654 -0.016090186 -0.03217765 -0.087792344 -0.015092537 -0.059845857
-0.09991796 0.05021272 -0.19139567 0.060892273 0.075069815 -0.037799384 0.0015045035 0.076526575
0.04960203 0.069883786 -0.12151715 -0.07329951 -0.04229182 -0.02655204 -0.08362127 0.068795726
-0.036155514 -0.077809624 -0.076943524 -0.07563462 -0.020929782 0.04823227 0.16841187 -0.06452455
0.03453183 -0.008193509 0.053008124 -0.02536547 0.03215346 0.014821916 -0.07541408 -0.031711873
0.04821983 -0.044551473 0.0528052 0.0113053825 -0.15037261 -0.1168592 -0.13465962 -0.024137592
0.010498713 -0.013793276 0.0650968 0.030333964 -0.011840829 -0.067363404 0.021768952 0.036863107
-0.011188148 -0.011905463 0.061070353 0.050768748 0.05591062 0.009069184 0.038975466 0.17187168
-0.03782415 0.04127548 -0.16167527 0.028763693 0.010826344 -0.14079294 -0.03728529 0.023683546
-0.061663095 0.03740805 -0.01735667 0.007638799 -0.018896744 0.071199596 0.009792895 0.053603567
-0.10409532 0.057475932 -0.08264928 0.13199347 0.023459908 0.0012651588 -0.008712854 0.074511595
0.032462455 0.045513462 -0.01014252 0.01936773 -0.075887024 0.21208176 0.025713885 -0.14110506
0.02219563 -0.046546448 0.025824193 0.047666367 0.053851265 0.0102401255 -0.0060435445 0.075203344
0.02850404 0.05056044 0.06260201 0.016893553 -0.026493136 0.14095236 -0.031868756 -0.012896247
0.03908246 -0.037627112 0.06822666 -0.040386077 0.13277216 -0.052694064 0.13970219 0.018989787
0.15683718 -0.008160816 -0.108557574 0.038465798 0.0135011645 0.06812084 -0.021039287 -0.05684207
-0.06298507 -0.043710418 -0.088520676 -0.093749434 0.062128287 0.027365642 -0.012425751 0.06093373
0.06845142 0.0010482376 0.028329844 0.020054756 0.06525256 0.033708006 -0.10690802 0.021466352
-0.016480979 -0.14704387 -0.049283322 0.09360023 0.05208206 -0.036474943 0.07833492 -0.19116935
0.061123062 0.024652634 0.11779534 -0.050052892 -0.030133644 0.014205128 -0.06564031 0.03332492
0.03812327 0.041557264 0.015364542 0.032099977 -0.02796101 -0.058617737 -0.11496913 0.034392543
0.09277318 -0.0455731 -0.09461415 0.10822193 -0.020617384 0.015145538 -0.23411784 -0.034130402
-0.04675552 -0.013517255 0.07006032 -0.24182461 0.13986933 -0.060218543 -0.027137538 -0.03903023
-0.011444266 0.04279287 0.036104765 0.064451724 -0.047529314 -0.008774384 0.06556358 -0.10251277
0.06896261 0.11089426 -0.08145037 0.06563313 0.014202313 -0.121068045 0.13249367 -0.06520401
0.13666572 0.032414436 -0.116783686 0.1297888 0.22438018 0.09496533 0.033098 0.009055809
-0.022827398 -0.048945677 -0.1790095 0.09626746 0.11786232 0.05741975 0.054467175 -0.009396269
0.016745329 -0.13211814 0.0029140143 0.17516892 -0.080917925 0.07076629 0.08896275 -0.05450163
