results/test2/HitTheBall/checkpoint.pt (torch, 150559 bytes, 13 tensors)

network_body.linear_encoder.seq_layers.0.weight f4 [128, 6]
0	0xbeaade42	-0.33372694
1	0x3e583973	0.21115665
2	0x3e8752f7	0.26430485
3	0x3e72e471	0.23719956
4	0xbdd031b0	-0.10165727
5	0xbe5ba8ac	-0.21451062
6	0xbe8fbec2	-0.28075224
7	0x3e540a9f	0.20707177
8	0x3ebeb004	0.37243664
9	0x3dae7c41	0.08519793
10	0x3e351c2c	0.17686528
11	0x3ea9dc5a	0.33175927
12	0x3f046f90	0.5173273
13	0xbef71d30	-0.48264456
14	0xbe7431db	-0.23847143
15	0xbf121fe9	-0.5707994
16	0x3eac573b	0.33660302
17	0xbec72b0b	-0.38900027
18	0xbe5973c2	-0.21235564
19	0xbd8dc594	-0.06922451
20	0x3d619fbb	0.05508397
21	0xbeee9511	-0.46598104
22	0x3f2942bb	0.6611745
23	0x3e8e6d41	0.2781773
24	0xbf63b02b	-0.88940686
25	0x3d1387a0	0.036018014
26	0xbc998ee7	-0.018744899
27	0x3e4def4d	0.20110817
28	0x3ec242b6	0.3794152
29	0xbf411655	-0.754247
30	0x3e0d6965	0.13809736
31	0x3e60d4ac	0.21956128
32	0xbe51acdb	-0.20476095
33	0xbf4df1f6	-0.8044733
34	0xbec139be	-0.37739366
35	0x3e2c3ef0	0.16820884
36	0x3dbb268d	0.09138212
37	0xbd987eec	-0.074460834
38	0x3deaf52d	0.11472545
39	0x3e57ca25	0.21073206
40	0xbed4efc5	-0.4158918
41	0xbf862756	-1.0480754
42	0xbf49fbab	-0.7889964
43	0x3da872ea	0.08225043
44	0x3f4ab117	0.7917647
45	0xbc80c238	-0.01571761
46	0x3f02ea20	0.51138496
47	0xbeb93afc	-0.36177814
48	0x3dbd90a1	0.092561014
49	0xbe99b4f6	-0.30020875
50	0xbd0d5cec	-0.034512445
51	0x3e90e174	0.28297007
52	0xbe9a73d1	-0.30166486
53	0x3d28434c	0.041079804
54	0x3d90bd3f	0.07067346
55	0x3eeba68c	0.46025503
56	0x3eaee9f7	0.34162876
57	0xbf144f82	-0.5793382
58	0x3d25540d	0.04036336
59	0xbd5e254d	-0.05423479
60	0xbf0c181d	-0.54724294
61	0x3e8c12c6	0.27358073
62	0x3f9265cc	1.1437316
63	0xbd0b550e	-0.03401666
64	0xbeebccac	-0.4605459
65	0x3f09e8e9	0.5387102
66	0x3edfabcc	0.43685758
67	0x3e9c3aac	0.30513513
68	0xbbbc5f5d	-0.005748673
69	0x3f38791e	0.7205981
70	0xbf063fcf	-0.52441114
71	0x3eed62db	0.46364483
72	0x3d701c62	0.058620818
73	0x3d6f69e7	0.058450606
74	0xbf08dd47	-0.5346264
75	0xbcf1df11	-0.029525312
76	0x3e5f5b54	0.21812183
77	0x3ec2e67a	0.38066465
78	0x3f29673e	0.6617316
79	0xbe989dce	-0.29807895
80	0x3d5fb1cd	0.054612923
81	0xbeeb9558	-0.46012378
82	0xbeb51456	-0.35367078
83	0x3e78799a	0.24265137
84	0xbe4db1bd	-0.20087333
85	0xbef1299d	-0.4710206
86	0x3d25673f	0.040381666
87	0x3e0b8b37	0.13627325
88	0x3d488a61	0.048960093
89	0xbe56fcc7	-0.20994864
90	0xbe6fe417	-0.23426853
91	0xbe86bebf	-0.26317403
92	0xbed0848d	-0.40726128
93	0xbd73444f	-0.059391316
94	0xbe68b4bc	-0.22725195
95	0x3e9bb37c	0.30410373
96	0xbe10e520	-0.14149904
97	0x3e6949cf	0.22782062
98	0x3f0445e4	0.51669145
99	0xbe1aafcc	-0.15106124
100	0xbf130fae	-0.574458
101	0x3da3f72e	0.0800613
102	0x3ed689e8	0.4190209
103	0x3f1a41ce	0.6025666
104	0xbe8ea46a	-0.27859813
105	0xbe36b768	-0.17843401
106	0xbed3cbd5	-0.4136645
107	0x3df441db	0.119266234
108	0x3e8d227b	0.2756537
109	0x3d596a72	0.05308003
110	0x3e935d5d	0.28782168
111	0xbf8f0d9d	-1.117603
112	0x3f5922a9	0.8481851
113	0x3f096b68	0.53679514
114	0x3a0e7462	0.00054342125
115	0xbed3dd44	-0.4137975
116	0x3f8b3278	1.0874777
117	0x3e0e4a14	0.13895446
118	0x3e297e63	0.16552119
119	0xbe23ad3f	-0.15984057
120	0x3f47e612	0.78085434
121	0xbd7d02e4	-0.061770335
122	0x3e3f47d1	0.1867974
123	0x3b8e7ace	0.0043481356
124	0x3f4e8aee	0.8068074
125	0x3f3ea0c0	0.74464035
126	0x3f06ae24	0.5260947
127	0x3e240ee7	0.1602131
128	0x3e40c98b	0.18826883
129	0xbe2045fa	-0.15651694
130	0x3e8d4cee	0.27597755
131	0x3e069cd6	0.13145766
132	0xbe3316be	-0.17489144
133	0xbf1160c2	-0.56788266
134	0xbbbf72ba	-0.005842534
135	0x3f3987a3	0.7247259
136	0x3d55d6ac	0.05220668
137	0xbca52ff1	-0.020164462
138	0x3ded9d5e	0.11602281
139	0xbc2d8b25	-0.010592257
140	0xbe32e107	-0.17468654
141	0x3edb0f0f	0.42784926
142	0x3e299e45	0.16564281
143	0x3e1a9dec	0.15099305
144	0x3d95ecad	0.07320533
145	0xbf351510	-0.70735264
146	0xbe5d54ca	-0.21614376
147	0x3e89cdc7	0.26914808
148	0xbc89aa90	-0.016804963
149	0xbddc0362	-0.10742833
150	0x3df70d09	0.12063033
151	0xbf0bc481	-0.54596716
152	0xbefda27a	-0.49538022
153	0xbef98d2d	-0.4874052
154	0x3d93fc92	0.07225908
155	0xbeb7e170	-0.35914183
156	0x3de6cc68	0.11269456
157	0xbf1398b4	-0.5765488
158	0x3f26e045	0.6518596
159	0xbf0c780b	-0.5487067
160	0x3ee29bc7	0.44259474
161	0xbf0dedc5	-0.5544093
162	0xbf397cf0	-0.72456264
163	0x3ee8331c	0.45351493
164	0x3b887736	0.0041646017
165	0xbe44e115	-0.19226487
166	0x3ef39370	0.47573423
167	0xbf4298d6	-0.7601446
168	0x3ec5b135	0.3861176
169	0xbf53bd5b	-0.8271081
170	0x3f0b5255	0.54422504
171	0x3f0db674	0.55356526
172	0xbe9dcfbe	-0.30822557
173	0x3f22cc7c	0.6359327
174	0x3d7afb4e	0.06127482
175	0x3d21ceaa	0.03950373
176	0x3f2749e2	0.6534711
177	0xbebc602b	-0.3679212
178	0xbdf73c1a	-0.1207201
179	0x3e543a73	0.20725422
180	0x3d8e4bff	0.06948089
181	0xbf8e65fd	-1.1124874
182	0xbe24db8c	-0.16099375
183	0xbeb846c0	-0.35991478
184	0x3ef057b5	0.46941915
185	0x3d5d3f94	0.05401571
186	0x3e407921	0.18796207
187	0x3d7b8404	0.061405197
188	0x3f3372fd	0.70097333
189	0x3cd64fe1	0.026161136
190	0xbeb64225	-0.3559734
191	0xbf57d022	-0.8430196
192	0xbf29285d	-0.66077214
193	0xbd463990	-0.04839474
194	0x3f0bb192	0.54567826
195	0x3eca481a	0.39508134
196	0xbd644e55	-0.055738766
197	0x3ed783d3	0.4209276
198	0x3e81d69f	0.25359055
199	0x3c1664e6	0.0091793295
200	0xbf4e1107	-0.8049473
201	0x3ecde326	0.40212363
202	0x3e9c5698	0.30534816
203	0xbb641fb2	-0.003480893
204	0xbe64e41c	-0.22352642
205	0xbe6739d3	-0.22580652
206	0x3e8ae942	0.27131087
207	0xbeac6609	-0.33671597
208	0xbec2062a	-0.37895328
209	0xbe344215	-0.17603333
210	0x3e39590c	0.18100375
211	0x3cf2c43c	0.029634587
212	0x3ea0acde	0.31381887
213	0x3e0cd359	0.13752498
214	0x3dd864ac	0.10566077
215	0x3d8fca52	0.070210114
216	0x3f223284	0.6335833
217	0x3f24c580	0.6436386
218	0xbebcf78c	-0.36907613
219	0x3e101819	0.14071693
220	0xbea36b53	-0.3191782
221	0x3f7fd2ee	0.9993123
222	0xbe1de635	-0.15419848
223	0xbeee97ab	-0.46600088
224	0x3eabf75c	0.33587158
225	0xbe79eb7b	-0.24406235
226	0xbe2cc2a5	-0.16871126
227	0xbf1acd90	-0.60469913
228	0x3e2428bc	0.16031164
229	0xbef3e7a5	-0.47637668
230	0xbd49d1f1	-0.04927248
231	0xbde5e9d7	-0.11226242
232	0x3e4542d7	0.19263779
233	0xbf1a0c8f	-0.6017541
234	0x3e17b919	0.14816703
235	0xbc0e13be	-0.008671699
236	0xbf0e761c	-0.5564897
237	0xbc78219e	-0.015144734
238	0x3de84a28	0.11342269
239	0xbe303695	-0.17208321
240	0xbe1e5ce2	-0.1546512
241	0x3ee4c34c	0.4468025
242	0xbfb0ac87	-1.3802651
243	0x3e94e93b	0.2908419
244	0x3f1780d9	0.5918098
245	0xbf3a68d9	-0.72816235
246	0x3f29db34	0.663501
247	0x3f53f386	0.8279346
248	0xbed19fa6	-0.40942115
249	0x3ea6273b	0.32451805
250	0x3e7643e1	0.24049331
251	0xbd3b34ec	-0.045704767
252	0xbee857d7	-0.45379516
253	0x3e9fc640	0.3120594
254	0x3f0ff49d	0.56232625
255	0x3e00e7f5	0.12588485

network_body.linear_encoder.seq_layers.0.bias f4 [128]
0	0x00000000	0.0
1	0x00000000	0.0
2	0x00000000	0.0
3	0x00000000	0.0
4	0x00000000	0.0
5	0x00000000	0.0
6	0x00000000	0.0
7	0x00000000	0.0
8	0x00000000	0.0
9	0x00000000	0.0
10	0x00000000	0.0
11	0x00000000	0.0
12	0x00000000	0.0
13	0x00000000	0.0
14	0x00000000	0.0
15	0x00000000	0.0
16	0x00000000	0.0
17	0x00000000	0.0
18	0x00000000	0.0
19	0x00000000	0.0
20	0x00000000	0.0
21	0x00000000	0.0
22	0x00000000	0.0
23	0x00000000	0.0
24	0x00000000	0.0
25	0x00000000	0.0
26	0x00000000	0.0
27	0x00000000	0.0
28	0x00000000	0.0
29	0x00000000	0.0
30	0x00000000	0.0
31	0x00000000	0.0
32	0x00000000	0.0
33	0x00000000	0.0
34	0x00000000	0.0
35	0x00000000	0.0
36	0x00000000	0.0
37	0x00000000	0.0
38	0x00000000	0.0
39	0x00000000	0.0
40	0x00000000	0.0
41	0x00000000	0.0
42	0x00000000	0.0
43	0x00000000	0.0
44	0x00000000	0.0
45	0x00000000	0.0
46	0x00000000	0.0
47	0x00000000	0.0
48	0x00000000	0.0
49	0x00000000	0.0
50	0x00000000	0.0
51	0x00000000	0.0
52	0x00000000	0.0
53	0x00000000	0.0
54	0x00000000	0.0
55	0x00000000	0.0
56	0x00000000	0.0
57	0x00000000	0.0
58	0x00000000	0.0
59	0x00000000	0.0
60	0x00000000	0.0
61	0x00000000	0.0
62	0x00000000	0.0
63	0x00000000	0.0
64	0x00000000	0.0
65	0x00000000	0.0
66	0x00000000	0.0
67	0x00000000	0.0
68	0x00000000	0.0
69	0x00000000	0.0
70	0x00000000	0.0
71	0x00000000	0.0
72	0x00000000	0.0
73	0x00000000	0.0
74	0x00000000	0.0
75	0x00000000	0.0
76	0x00000000	0.0
77	0x00000000	0.0
78	0x00000000	0.0
79	0x00000000	0.0
80	0x00000000	0.0
81	0x00000000	0.0
82	0x00000000	0.0
83	0x00000000	0.0
84	0x00000000	0.0
85	0x00000000	0.0
86	0x00000000	0.0
87	0x00000000	0.0
88	0x00000000	0.0
89	0x00000000	0.0
90	0x00000000	0.0
91	0x00000000	0.0
92	0x00000000	0.0
93	0x00000000	0.0
94	0x00000000	0.0
95	0x00000000	0.0
96	0x00000000	0.0
97	0x00000000	0.0
98	0x00000000	0.0
99	0x00000000	0.0
100	0x00000000	0.0
101	0x00000000	0.0
102	0x00000000	0.0
103	0x00000000	0.0
104	0x00000000	0.0
105	0x00000000	0.0
106	0x00000000	0.0
107	0x00000000	0.0
108	0x00000000	0.0
109	0x00000000	0.0
110	0x00000000	0.0
111	0x00000000	0.0
112	0x00000000	0.0
113	0x00000000	0.0
114	0x00000000	0.0
115	0x00000000	0.0
116	0x00000000	0.0
117	0x00000000	0.0
118	0x00000000	0.0
119	0x00000000	0.0
120	0x00000000	0.0
121	0x00000000	0.0
122	0x00000000	0.0
123	0x00000000	0.0
124	0x00000000	0.0
125	0x00000000	0.0
126	0x00000000	0.0
127	0x00000000	0.0

network_body.linear_encoder.seq_layers.2.weight f4 [128, 128]
0	0xbc643493	-0.01392855
1	0xbc8d7f69	-0.017272668
2	0x3d9eeaf3	0.07759657
3	0xbd2d5e73	-0.042326402
4	0xbd94e099	-0.07269401
5	0xbc67dfb9	-0.014152461
6	0xbd703a8d	-0.05864959
7	0xbc01e631	-0.007928417
8	0x3e3302fa	0.17481604
9	0xbda6178a	-0.081099585
10	0xbc540b21	-0.012942106
11	0xbd3be92a	-0.04587666
12	0x3e28ec9f	0.16496514
13	0x3cc0a841	0.02351773
14	0xbdecc52c	-0.11561045
15	0xbd292383	-0.041293632
16	0x3e1acfc0	0.15118313
17	0xbe5699ad	-0.2095706
18	0xbd073ffc	-0.033020005
19	0xbdadc9fa	-0.084857896
20	0x3b2c6fbf	0.0026311723
21	0x3cee00ae	0.029053058
22	0x3c06bc2e	0.0082235765
23	0xbc764689	-0.015031465
24	0x3b3b0b23	0.0028540574
25	0x3d8119bf	0.06303739
26	0x3d81e55a	0.063425735
27	0xbd2933cc	-0.041309163
28	0x3d8f517f	0.06997966
29	0x3c1bfc58	0.009520613
30	0xbcbffb34	-0.023435213
31	0x3e29482d	0.16531439
32	0x3dde36b8	0.108502805
33	0xbc02ff0f	-0.007995381
34	0xbc8b3bd7	-0.016996307
35	0xbd96c325	-0.073614396
36	0x3d24c446	0.040226243
37	0x3dab7b10	0.08373082
38	0x3d850532	0.064951316
39	0x3e6b2d6f	0.2296655
40	0xbab4665f	-0.0013763419
41	0xbe32fc85	-0.17479141
42	0x3dae5a55	0.08513323
43	0x3c31a80c	0.010843288
44	0xbd2b1e9d	-0.041777242
45	0xbc6e597f	-0.014547705
46	0x3e46d45b	0.19416945
47	0x3b6c7d92	0.0036085588
48	0xbd8180d3	-0.063233994
49	0x3d1e3cec	0.03863232
50	0x3dfc63a8	0.123236954
51	0xbb3dbb34	-0.0028950693
52	0xbcde2be7	-0.027120544
53	0x3d363081	0.04447985
54	0xbd1743bc	-0.03692983
55	0xbd9bae85	-0.07601646
56	0x3d54c759	0.051947925
57	0xbe0f6ebc	-0.14007086
58	0xbd996dfc	-0.07491681
59	0xbe33a5ff	-0.17543791
60	0x3dc228ea	0.0948046
61	0xbe328363	-0.17432933
62	0xbdd8b1d3	-0.10580792
63	0x3dd28ff1	0.10281361
64	0x3d666692	0.056250162
65	0x3d27ba45	0.040949125
66	0xbcf808f0	-0.0302777
67	0x3da12728	0.078687966
68	0x3d9e0568	0.07715875
69	0xbd304d9a	-0.043042757
70	0xbc9c7277	-0.01909755
71	0x3bc949c5	0.006142827
72	0xbd8e1e55	-0.06939379
73	0xbdad55e1	-0.08463646
74	0x3bfea5e0	0.0077712387
75	0x3cf0e1eb	0.029404601
76	0x3d1f5815	0.03890236
77	0x3c144672	0.009049999
78	0xbd7d40e1	-0.06182945
79	0xbdd064f4	-0.10175505
80	0x3d82e410	0.06391156
81	0x3c5e9a58	0.013586603
82	0xbd28dbc9	-0.04122523
83	0x3c9fcc0f	0.019506482
84	0xbd40f190	-0.047105372
85	0x3b571ef9	0.0032824858
86	0x3da86f34	0.08224335
87	0x3a874612	0.0010320565
88	0x3c0d8ea1	0.008639962
89	0x3d23cc94	0.039990023
90	0x3df46b7b	0.11934563
91	0xbd537b34	-0.051631168
92	0x3dba7679	0.09104628
93	0x3cd76060	0.026291072
94	0xbdcb25a6	-0.0991929
95	0x3e278318	0.16358602
96	0x3d3678df	0.044548865
97	0x3d29e309	0.041476283
98	0xbc8b326d	-0.016991818
99	0xbd0bca88	-0.034128696
100	0x3dd5c246	0.10437445
101	0x3cdca2e3	0.02693314
102	0xbe1df295	-0.15424569
103	0xbcf514fa	-0.029917229
104	0x3e51b86e	0.2048051
105	0xbca727d1	-0.020404728
106	0xbd964975	-0.073382296
107	0x3d139251	0.03602821
108	0xbd8e1dc0	-0.06939268
109	0xbd9bc950	-0.07606757
110	0xbc97bd4d	-0.018522883
111	0x3e01feb1	0.12694813
112	0x3dc49abe	0.09599827
113	0xbd16d1a8	-0.036821038
114	0x3d3790cb	0.04481582
115	0xbd88d82d	-0.06681857
116	0xbc19039e	-0.009339241
117	0x3db275ac	0.087138504
118	0xbd7f6a14	-0.062357023
119	0xbcf75f61	-0.030196847
120	0x3ccaf259	0.024773763
121	0x3c1632ba	0.009167368
122	0x3d09ceee	0.03364461
123	0x3c20a895	0.009805818
124	0xbcf1919a	-0.029488374
125	0xbdf8c31a	-0.12146588
126	0xbd62fda4	-0.05541767
127	0x3dcb310d	0.09921465
128	0x3ce7dae2	0.028302614
129	0xbd99a3fc	-0.07501981
130	0x3d9dd4c8	0.077066004
131	0xbd80403e	-0.06262253
132	0x3cce7101	0.025200369
133	0x3d7ff904	0.06249334
134	0xbda06031	-0.07830847
135	0xbcfa5a7c	-0.030560724
136	0x3d1776d4	0.036978558
137	0x3dc6f20d	0.09714136
138	0xbe0c68bf	-0.13711832
139	0xbe0348a8	-0.12820685
140	0xbd91aa96	-0.07112615
141	0x3c7cdf33	0.015434074
142	0x3dc3b1b0	0.095553756
143	0xbc0104ee	-0.0078747105
144	0xbb383f97	-0.0028114074
145	0x3db5c602	0.088756576
146	0x3c8a0f5c	0.016853027
147	0x3c37914b	0.011204074
148	0xbd5b894d	-0.053597737
149	0x37915681	1.7325629e-05
150	0x3d331c16	0.043727957
151	0x3e53ce5e	0.20684192
152	0x3d59db83	0.05318786
153	0x3d099150	0.033585846
154	0x3d8a1736	0.067427084
155	0xbe0d4a80	-0.1379795
156	0xbd49f6ee	-0.049307756
157	0x3d621ffb	0.05520628
158	0xbd71b099	-0.059006307
159	0xbd5b9d61	-0.053616885
160	0x3d87f8a5	0.06639222
161	0x3db78495	0.08960835
162	0x3df9f127	0.12204199
163	0x3d0421c6	0.03225877
164	0x3d176b68	0.036967665
165	0x3e0ed1e9	0.13947262
166	0xbc91a235	-0.017777542
167	0x3d64eff5	0.055892903
168	0x3dc72740	0.09724283
169	0x3d0b4ef0	0.034010828
170	0x3de0a791	0.10969461
171	0x3e3e8f67	0.18609391
172	0xbdf699cd	-0.12041054
173	0xbc7efe24	-0.0155635215
174	0xbcd89d43	-0.026442176
175	0x3e06ecc0	0.1317625
176	0x3da582ff	0.08081626
177	0x3d995110	0.074861646
178	0x3ce49594	0.027903356
179	0xbe4c5908	-0.19955838
180	0xbdc695da	-0.09696551
181	0xbd2196da	-0.039450504
182	0x3c86f90e	0.01647618
183	0x3d5a8374	0.05334802
184	0x3c286070	0.010276899
185	0x3dc52240	0.09625673
186	0xbdacee11	-0.08443845
187	0x3da1ed66	0.07906608
188	0x3d9aedbe	0.07564877
189	0x3c599744	0.013280693
190	0xbe2d883f	-0.16946505
191	0x3bcd1926	0.0062591014
192	0xbddfbc91	-0.10924638
193	0x3c878d3b	0.016546836
194	0x3d6f4294	0.058413103
195	0xbda61e45	-0.08111242
196	0x3e070299	0.13184585
197	0x3e001920	0.12509584
198	0xbc81357d	-0.015772576
199	0x3d9c63b0	0.076362014
200	0xbc167db8	-0.009185247
201	0xbbcb1364	-0.00619738
202	0x3bf9c640	0.00762251
203	0xba321020	-0.0006792564
204	0xbd541bf5	-0.051784474
205	0xbd805963	-0.06267049
206	0xbd6c4f1b	-0.05769263
207	0x3d17c3b0	0.037051857
208	0xbdebb700	-0.11509514
209	0xbdbe6746	-0.092970416
210	0x3c6a0365	0.014283036
211	0x3e10c1df	0.14136456
212	0xbe03b8e1	-0.12863494
213	0x3daeb015	0.08529679
214	0xbdb401c5	-0.087894
215	0xbdefec99	-0.11715049
216	0x3e268a64	0.1626373
217	0x3ddb6bca	0.107139185
218	0x3dbd0d33	0.09231033
219	0xbe189eeb	-0.14904372
220	0xbd11067c	-0.035406575
221	0x3d057538	0.03258249
222	0xbd05a8ba	-0.032631613
223	0xbdd30954	-0.103045136
224	0xbd89b535	-0.067240156
225	0x3dfc0b4d	0.12306843
226	0xbc702733	-0.014657783
227	0x3d27cbe6	0.040965937
228	0x3cf7bcc7	0.030241383
229	0xbdfa0eb1	-0.122098334
230	0xbd95082e	-0.07276951
231	0x3b3c3669	0.0028718954
232	0x3e27130f	0.16315864
233	0x3e528149	0.20557131
234	0xbdc8899a	-0.097918704
235	0xbde358fb	-0.11100956
236	0xbd4c561e	-0.049886815
237	0x3c6d37fb	0.014478679
238	0x3e39fca7	0.18162785
239	0x3cb00ea9	0.021491366
240	0x3ca1db31	0.019757839
241	0x3c6dc259	0.014511668
242	0x3d326cce	0.043560795
243	0x3db2d2a9	0.087315865
244	0x3c11ef8f	0.008907213
245	0x3d4c9a5b	0.049951892
246	0x3db4a567	0.088206105
247	0x3d0381e6	0.032106303
248	0x3d15f2cd	0.036608506
249	0x3e167c7a	0.14695922
250	0x3dedb913	0.11607566
251	0xbd05dd85	-0.03268196
252	0xbdb5660e	-0.08857356
253	0xbcdbd2f4	-0.026833989
254	0xbd724e80	-0.059156895
255	0xbe7ec5df	-0.2488017

network_body.linear_encoder.seq_layers.2.bias f4 [128]
0	0x00000000	0.0
1	0x00000000	0.0
2	0x00000000	0.0
3	0x00000000	0.0
4	0x00000000	0.0
5	0x00000000	0.0
6	0x00000000	0.0
7	0x00000000	0.0
8	0x00000000	0.0
9	0x00000000	0.0
10	0x00000000	0.0
11	0x00000000	0.0
12	0x00000000	0.0
13	0x00000000	0.0
14	0x00000000	0.0
15	0x00000000	0.0
16	0x00000000	0.0
17	0x00000000	0.0
18	0x00000000	0.0
19	0x00000000	0.0
20	0x00000000	0.0
21	0x00000000	0.0
22	0x00000000	0.0
23	0x00000000	0.0
24	0x00000000	0.0
25	0x00000000	0.0
26	0x00000000	0.0
27	0x00000000	0.0
28	0x00000000	0.0
29	0x00000000	0.0
30	0x00000000	0.0
31	0x00000000	0.0
32	0x00000000	0.0
33	0x00000000	0.0
34	0x00000000	0.0
35	0x00000000	0.0
36	0x00000000	0.0
37	0x00000000	0.0
38	0x00000000	0.0
39	0x00000000	0.0
40	0x00000000	0.0
41	0x00000000	0.0
42	0x00000000	0.0
43	0x00000000	0.0
44	0x00000000	0.0
45	0x00000000	0.0
46	0x00000000	0.0
47	0x00000000	0.0
48	0x00000000	0.0
49	0x00000000	0.0
50	0x00000000	0.0
51	0x00000000	0.0
52	0x00000000	0.0
53	0x00000000	0.0
54	0x00000000	0.0
55	0x00000000	0.0
56	0x00000000	0.0
57	0x00000000	0.0
58	0x00000000	0.0
59	0x00000000	0.0
60	0x00000000	0.0
61	0x00000000	0.0
62	0x00000000	0.0
63	0x00000000	0.0
64	0x00000000	0.0
65	0x00000000	0.0
66	0x00000000	0.0
67	0x00000000	0.0
68	0x00000000	0.0
69	0x00000000	0.0
70	0x00000000	0.0
71	0x00000000	0.0
72	0x00000000	0.0
73	0x00000000	0.0
74	0x00000000	0.0
75	0x00000000	0.0
76	0x00000000	0.0
77	0x00000000	0.0
78	0x00000000	0.0
79	0x00000000	0.0
80	0x00000000	0.0
81	0x00000000	0.0
82	0x00000000	0.0
83	0x00000000	0.0
84	0x00000000	0.0
85	0x00000000	0.0
86	0x00000000	0.0
87	0x00000000	0.0
88	0x00000000	0.0
89	0x00000000	0.0
90	0x00000000	0.0
91	0x00000000	0.0
92	0x00000000	0.0
93	0x00000000	0.0
94	0x00000000	0.0
95	0x00000000	0.0
96	0x00000000	0.0
97	0x00000000	0.0
98	0x00000000	0.0
99	0x00000000	0.0
100	0x00000000	0.0
101	0x00000000	0.0
102	0x00000000	0.0
103	0x00000000	0.0
104	0x00000000	0.0
105	0x00000000	0.0
106	0x00000000	0.0
107	0x00000000	0.0
108	0x00000000	0.0
109	0x00000000	0.0
110	0x00000000	0.0
111	0x00000000	0.0
112	0x00000000	0.0
113	0x00000000	0.0
114	0x00000000	0.0
115	0x00000000	0.0
116	0x00000000	0.0
117	0x00000000	0.0
118	0x00000000	0.0
119	0x00000000	0.0
120	0x00000000	0.0
121	0x00000000	0.0
122	0x00000000	0.0
123	0x00000000	0.0
124	0x00000000	0.0
125	0x00000000	0.0
126	0x00000000	0.0
127	0x00000000	0.0

action_model._continuous_distribution.log_sigma f4 [1, 2]
0	0x00000000	0.0
1	0x00000000	0.0

action_model._continuous_distribution.mu.weight f4 [2, 128]
0	0xbc948e64	-0.018134303
1	0x3a9834dd	0.0011612434
2	0xba7ee820	-0.00097239204
3	0xbb0cc63d	-0.0021480464
4	0xbd032388	-0.032016307
5	0x3c8d855f	0.01727551
6	0xbafc1d9d	-0.00192349
7	0xbb00b023	-0.0019636236
8	0xbb21bc0f	-0.0024678742
9	0x3a39c102	0.00070859503
10	0x3c4c0c07	0.012454039
11	0xbc6e1730	-0.0145318955
12	0xbba64687	-0.0050743255
13	0x3b8e77a5	0.004347759
14	0x3a5cf73f	0.00084291765
15	0x3c8ebab6	0.017423015
16	0xbcd3ad1a	-0.025839377
17	0xbcf5215a	-0.02992313
18	0xbc3deec5	-0.011592572
19	0xbc55a7d0	-0.013040498
20	0x3d15d82d	0.036583114
21	0xbcb0aa4c	-0.021565579
22	0xbcc22dbf	-0.023703454
23	0xbc4ecb25	-0.012621676
24	0xbc6ca7bb	-0.014444287
25	0x3cafe2f7	0.02147053
26	0x3ca8bc5d	0.020597631
27	0xbca7a57c	-0.020464651
28	0x3c8d3479	0.017236935
29	0x3cb90567	0.022585584
30	0xbb21a494	-0.0024664747
31	0xbb8c8b00	-0.004289031
32	0x3c0e050e	0.008668197
33	0x3c2ab01f	0.010417967
34	0xbaa037ff	-0.0012223719
35	0xbbbaceef	-0.005700938
36	0xbce5d387	-0.028054966
37	0x3cc49ce7	0.024000598
38	0xbc8c0502	-0.017092232
39	0x3c3beef1	0.011470542
40	0x3d08eb73	0.033427667
41	0x3b025add	0.0019890585
42	0xbbd50558	-0.006500881
43	0x3ce48c2f	0.027898876
44	0x3b96e049	0.0046043736
45	0xbaecc76d	-0.0018064805
46	0xbca86ddd	-0.0205602
47	0xbcf14a72	-0.029454444
48	0x3c1cdae0	0.009573668
49	0x3c1154d3	0.008870321
50	0x3b1c190e	0.0023818645
51	0xbc4b48fe	-0.012407539
52	0x3ce03e8a	0.027373571
53	0xbbbcf722	-0.005766765
54	0x3d286527	0.04111209
55	0x3ce538dd	0.027981216
56	0xbc6d6105	-0.014488463
57	0xbad39ca2	-0.0016144703
58	0xbce10fbb	-0.027473321
59	0xbcf3e0c0	-0.029770255
60	0xbb37e979	-0.0028062745
61	0x3caa2b7d	0.02077269
62	0x37ed4325	2.8283868e-05
63	0xbc16198f	-0.009161367
64	0x3c6a063b	0.014283712
65	0xbbe7fc3f	-0.0070796306
66	0xbb29efbb	-0.0025930244
67	0xbc6e5e97	-0.014548919
68	0xb91295e2	-0.0001397948
69	0x3b2c355a	0.0026276917
70	0x3d0749ff	0.033029553
71	0x3abdbe57	0.0014476281
72	0x3ccdea17	0.025136037
73	0xbb8e9856	-0.004351656
74	0xbb9995d2	-0.0046870494
75	0xbbadc5b6	-0.00530311
76	0x3bcf91aa	0.006334503
77	0xbc41100b	-0.01178361
78	0x3d409fe0	0.04702747
79	0x3c0df1f2	0.008663641
80	0xbc12a84e	-0.00895126
81	0x3bb98afb	0.0056623197
82	0xbcc23dc1	-0.023711087
83	0x3cc15c83	0.023603683
84	0xbc8f7aa4	-0.017514534
85	0xbc0794e9	-0.008275249
86	0xbc253b85	-0.010084991
87	0x3bd80622	0.006592528
88	0x3c7b775a	0.01534828
89	0x3ce1bfea	0.027557332
90	0x3b18a893	0.0023293837
91	0xbc8ec1db	-0.017426422
92	0x3c14218b	0.0090412
93	0xbcc6aecc	-0.024253272
94	0xbcde9453	-0.027170336
95	0xbcd4e05f	-0.025985895
96	0xbc750c4f	-0.014956548
97	0x3c8f17a3	0.017467326
98	0xbc40171a	-0.011724258
99	0x3ace0ff5	0.0015721308
100	0x3b57e6ba	0.003294392
101	0xba3e1739	-0.0007251385
102	0xbd18e30e	-0.03732591
103	0x3c1555b8	0.009114675
104	0xbc186983	-0.0093025
105	0xbbfa8eda	-0.0076464238
106	0x3a8f5046	0.0010933958
107	0x3ae9309f	0.001779098
108	0x3c58bff8	0.013229363
109	0x3ce4f063	0.027946657
110	0x3d2795e6	0.04091444
111	0xbd22a48a	-0.039707698
112	0x3cb2582f	0.021770565
113	0xbcfaa93d	-0.030598277
114	0x3cae1898	0.021251962
115	0xbc5492c3	-0.012974444
116	0xbc2fce1a	-0.010730291
117	0x3b9ed902	0.0048476467
118	0xbb9ae164	-0.0047265757
119	0xbc99c4e9	-0.018770652
120	0xbd05d7d3	-0.03267653
121	0x3bf1d95f	0.007380649
122	0x3c224f3c	0.009906586
123	0x3c4dd0c0	0.012561977
124	0xbaf7a4db	-0.0018893735
125	0x3b091ad2	0.0020920527
126	0x3cbb472b	0.022861084
127	0x3c47410a	0.012161503
128	0x3c4b0c2a	0.012393037
129	0x3d189fbd	0.037261713
130	0xbca1af5b	-0.019736936
131	0xbd007e9d	-0.031370748
132	0xbc3c0ad9	-0.011477196
133	0xbb7ab95f	-0.0038257462
134	0x3b976cf9	0.004621145
135	0xbc8254a3	-0.015909499
136	0xbbedcfc3	-0.007257433
137	0x3c97327e	0.018456694
138	0x3b8b904a	0.004259144
139	0x3aa4a089	0.001256005
140	0x3c2449ed	0.010027391
141	0xbbdf4ddb	-0.006814701
142	0xbd1af737	-0.03783342
143	0xbc56f0ca	-0.013118932
144	0x3bb6886c	0.005570462
145	0x3c0b3293	0.008495945
146	0xbaba8d98	-0.0014232872
147	0x3c89b6b7	0.016810758
148	0x3cb4e224	0.022080489
149	0x3c7f805a	0.015594566
150	0xbcb3d007	-0.021949781
151	0x3c26d90f	0.010183587
152	0x3c20c1d3	0.009811836
153	0x3d17586d	0.036949564
154	0x3c99ca27	0.018773152
155	0xbbc08793	-0.0058755367
156	0xbc206ca4	-0.009791527
157	0xbbd8990b	-0.006610041
158	0xbcb525b5	-0.022112707
159	0xbd1a3f15	-0.037657816
160	0xbac93dda	-0.0015353516
161	0x3b762d70	0.0037563704
162	0x3ce510ff	0.027962206
163	0x3d0922d6	0.033480488
164	0x3c96026c	0.018311702
165	0x3c5cc498	0.013474606
166	0x3c7751c8	0.015095182
167	0x3baa702f	0.0052013616
168	0x3cb0911b	0.021553567
169	0x3c4fe795	0.012689491
170	0xbc80e627	-0.015734745
171	0xbb8ec2f8	-0.004356738
172	0x3d3029e2	0.043008693
173	0xbc96985e	-0.018383201
174	0xbc3df129	-0.011593142
175	0xbaf4886a	-0.0018656377
176	0x3c36ca59	0.011156642
177	0x3c9a678f	0.018848209
178	0xbc520d1b	-0.012820507
179	0x3b76901f	0.0037622524
180	0xbc968d36	-0.018377881
181	0x3c9e8953	0.01935259
182	0x3cbe8f09	0.023261564
183	0x3a821c13	0.000992658
184	0x3c967ab1	0.01836905
185	0xbc489237	-0.012241892
186	0xbc2bd6b4	-0.010488201
187	0x3c45ddca	0.012076804
188	0xbc17f64f	-0.009275033
189	0x3afb97c2	0.0019195008
190	0x3c2ff749	0.01074011
191	0x3cdb784f	0.026790766
192	0x3c692fab	0.014232556
193	0x3c93bd51	0.018034609
194	0x3c9c6d43	0.019095069
195	0x3c6e4717	0.014543316
196	0x3c28c48a	0.010300765
197	0xbc58dd2f	-0.013236328
198	0x3d2d6ff3	0.04234309
199	0xbc0f4863	-0.008745286
200	0xbbb6661b	-0.005566371
201	0x3c86dfa2	0.016464058
202	0x3c987def	0.018614737
203	0xbb8deaeb	-0.004330983
204	0x3c24736f	0.010037287
205	0x3cc72ac8	0.024312392
206	0x3c884d66	0.016638469
207	0xbc14f08b	-0.009090553
208	0x3c89be66	0.016814422
209	0xbc2ef58b	-0.010678659
210	0x3b9f6d23	0.004865305
211	0x3c9d33f7	0.019189818
212	0xbb9cb0f0	-0.004781835
213	0x3bc88e80	0.006120503
214	0x3b32a41d	0.0027258464
215	0xbd06e11b	-0.03292952
216	0x3c3563fc	0.011071201
217	0xbc09f27f	-0.008419632
218	0x3cac1f6e	0.02101108
219	0xbb9ec924	-0.004845755
220	0x3b9875e6	0.0046527265
221	0xb9bda185	-0.0003616923
222	0x3d052fbb	0.032516222
223	0xbc6917ef	-0.014226898
224	0xbc877366	-0.016534518
225	0x3d0c075b	0.034186702
226	0xbd00aabe	-0.031412832
227	0x3b32d5ce	0.0027288082
228	0xbd071d79	-0.03298709
229	0x3c626820	0.013818771
230	0x3c857856	0.016292732
231	0x3cbb291a	0.022846747
232	0x3cec6828	0.02885826
233	0xbc0ead9f	-0.008708387
234	0xbbcf2b40	-0.0063222945
235	0xbc8d3f87	-0.017242206
236	0x3a7631df	0.00093915866
237	0x3b0aba96	0.0021168343
238	0x3bbb8a71	0.0057232906
239	0x3cc47977	0.0239837
240	0x3bf8b8a0	0.0075903684
241	0xbc5a7fd0	-0.013336137
242	0xbd15071c	-0.036383733
243	0xbc6b694f	-0.014368369
244	0x3ce401cf	0.027832894
245	0xba9c9f3b	-0.001194931
246	0x3c6d1412	0.014470117
247	0x3be8a0fb	0.0070992685
248	0xba8a10d7	-0.0010533583
249	0x3c65ab90	0.0140179545
250	0xbc935110	-0.01798299
251	0x39966c0b	0.00028690728
252	0x3c584c1f	0.013201742
253	0x3c90d7b2	0.017680977
254	0x3c3a8769	0.011384823
255	0x3ac83041	0.001527317

action_model._continuous_distribution.mu.bias f4 [2]
0	0x00000000	0.0
1	0x00000000	0.0

action_model._discrete_distribution.branches.0.weight f4 [1, 128]
0	0xbaf1cf38	-0.0018448597
1	0x3aa2923b	0.0012403199
2	0xbc0f4ff6	-0.0087470915
3	0xbc5827e0	-0.013193101
4	0x3be9d9dd	0.007136567
5	0xbcac94bf	-0.021067021
6	0x3c2e6bce	0.01064582
7	0x3bc9ee1f	0.0061624194
8	0xbb20cc61	-0.0024535882
9	0x3a3a38c3	0.0007103795
10	0xbc113e76	-0.0088649895
11	0x3cc6a20e	0.024247196
12	0xbd0921dc	-0.033479556
13	0xbb85f77e	-0.0040883413
14	0xbc157e7d	-0.009124395
15	0xbb94938f	-0.004534192
16	0x3b2a4bab	0.0025985043
17	0xbc13084c	-0.008974146
18	0x3c18a38a	0.0093163345
19	0x3bc7127d	0.006075202
20	0x3c03e907	0.0080511635
21	0x3b65b162	0.0035048355
22	0xbb806983	-0.003918828
23	0x3c946e2f	0.018118946
24	0x3c24388f	0.01002325
25	0x3c6abad8	0.014326774
26	0xb9c73579	-0.00037996078
27	0xbbb23747	-0.0054387185
28	0xbcbc954b	-0.023020407
29	0xbb266599	-0.0025390147
30	0xbc1bb596	-0.009503743
31	0x3b403211	0.0029326717
32	0x3c84e787	0.016223682
33	0x3bec2e75	0.0072076865
34	0x3bb25081	0.0054417257
35	0x3c5f5d83	0.013633135
36	0xbb1135b9	-0.0022157265
37	0x3b4fb20a	0.0031691813
38	0x39800496	0.0002441748
39	0x3cbf8b55	0.023381868
40	0x3bdf2050	0.006809272
41	0x3c4f0d6f	0.01263748
42	0x3ba9662f	0.005169652
43	0x3c77beab	0.015121142
44	0x3b5ab77a	0.003337352
45	0xbc01535b	-0.007893409
46	0x3b3f4572	0.002918568
47	0x3bed8b0a	0.0072492408
48	0xbcac0553	-0.020998633
49	0xbc0ea363	-0.008705947
50	0xbadc052b	-0.0016786208
51	0xbc37074f	-0.011171176
52	0x3c361f1f	0.011115818
53	0xbc113950	-0.008863762
54	0xbb921863	-0.0044584735
55	0x3b1d9f4b	0.0024051245
56	0x3c33a3da	0.010964358
57	0xbb3ebf8a	-0.0029105865
58	0x3a66b5e5	0.0008800908
59	0x3b0c6e63	0.00214281
60	0x3c30a1ab	0.010780732
61	0xbbcb726d	-0.006208709
62	0x3bfac703	0.0076531186
63	0x3bbff47b	0.0058580018
64	0xbbe206ab	-0.0068977675
65	0x3b9afc6e	0.004729799
66	0xbb86dd4f	-0.0041157375
67	0x3c18ce63	0.00932655
68	0xbb84908e	-0.0040455526
69	0xbc028587	-0.007966406
70	0xbb87ad05	-0.0041404986
71	0x3b54c0eb	0.003246362
72	0x3c27c81d	0.010240582
73	0x3b40789f	0.002936877
74	0xbc8065c8	-0.015673533
75	0x3b846118	0.004039895
76	0x3b14cce6	0.0022705137
77	0xbb896257	-0.004192631
78	0x3b14b797	0.0022692436
79	0x3c0fabb8	0.008768968
80	0x3bd5f07f	0.0065289135
81	0x3afa1a3b	0.0019081304
82	0xbb278659	-0.0025562255
83	0x3c442f88	0.011974223
84	0xbbd139d3	-0.006385067
85	0xbc565c47	-0.013083524
86	0xbcb7d07d	-0.022438282
87	0xbb78ebdb	-0.0037982378
88	0xbbb9869b	-0.005661798
89	0x3c16a414	0.009194393
90	0x3c86b627	0.016444279
91	0x3c80a007	0.015701307
92	0x3c0db537	0.008649162
93	0x3a2fe224	0.0006709418
94	0x3bdba93b	0.0067035235
95	0xbc086f14	-0.008327264
96	0xbb38fd2a	-0.002822707
97	0x3be28a7b	0.006913481
98	0x3a55d6c3	0.0008157307
99	0xba1e1e91	-0.00060317764
100	0xbc48f983	-0.0122665195
101	0x3c626490	0.013817921
102	0xbc243977	-0.010023466
103	0x3a40b050	0.00073504914
104	0xbb01ea93	-0.0019823655
105	0x3ab8921e	0.0014081632
106	0x3a170beb	0.0005761969
107	0xbc83d511	-0.016092809
108	0x3b8a05c5	0.0042121136
109	0x3b05f78c	0.002044174
110	0x3bbee193	0.0058252304
111	0x3b905e70	0.004405789
112	0xbb1d6f63	-0.002402269
113	0xbaac2db1	-0.0013136176
114	0xbb09ca9e	-0.002102531
115	0x3c0fed9b	0.008784677
116	0x3b5da472	0.003381994
117	0x398a19c3	0.00026340605
118	0xbc2e5441	-0.010640205
119	0xbc278653	-0.0102248965
120	0xbc6155b2	-0.0137533415
121	0x3ba4e620	0.005032316
122	0x3b0e3639	0.00216998
123	0xbbd7d630	-0.0065868124
124	0x3c51a21a	0.012794996
125	0x3bbe92c1	0.0058158343
126	0xbc1069b5	-0.008814265
127	0xbbe60558	-0.00701968

critic.network_body.linear_encoder.seq_layers.0.weight f4 [128, 6]
0	0xbe874fe2	-0.26428133
1	0xbeb5746e	-0.3544039
2	0x3f2008dc	0.6251352
3	0xbef3cf77	-0.4761922
4	0xbedd9bb4	-0.43282855
5	0x3f9732d7	1.181239
6	0xbd816adb	-0.06319209
7	0xbef2cd4a	-0.47422248
8	0xbcd76c75	-0.026296834
9	0xbe1fe4a7	-0.15614568
10	0xbebee59c	-0.37284553
11	0xbefab71c	-0.48967826
12	0xbea5cff3	-0.32385215
13	0xbddf8dfc	-0.10915753
14	0x3eaa8366	0.33303374
15	0xbf356a4a	-0.7086531
16	0x3dd61fd3	0.10455289
17	0xbe7649c1	-0.24051572
18	0xbf424a3c	-0.7589452
19	0xbeb2c2d4	-0.34914267
20	0x3e84d78d	0.25945702
21	0xbdd9cf79	-0.106352754
22	0xbc324fe9	-0.01088331
23	0xbda0527a	-0.07828231
24	0x3f5a0a27	0.8517174
25	0x3f0e1ba4	0.55510926
26	0x3bfe029b	0.0077517754
27	0x3d9f52a7	0.077794366
28	0x3e0343d9	0.1281885
29	0x3f1976b4	0.5994675
30	0xbe75b672	-0.23995379
31	0x3ead1267	0.33803102
32	0xbbee12e9	-0.007265438
33	0xbec1d4d3	-0.37857684
34	0xbe1a60d2	-0.15075997
35	0xbd6582d4	-0.05603297
36	0x3e0db312	0.13837841
37	0xbdf796f1	-0.12089337
38	0x3d9c652c	0.076364845
39	0xbf0a357d	-0.53987867
40	0xbd901c04	-0.070365936
41	0xbe815b18	-0.25264812
42	0xbe989b88	-0.2980616
43	0x3eeaa214	0.4582678
44	0xbe3f7c0b	-0.18699662
45	0x3c0212f0	0.007939085
46	0xbc942699	-0.018084811
47	0xbf0dedf7	-0.5544123
48	0x3e7773c3	0.24165253
49	0xbe2dc3f4	-0.16969281
50	0x3d5791b6	0.052629195
51	0xbf066087	-0.5249104
52	0xbed5e672	-0.41777378
53	0xbd47e6e4	-0.04880418
54	0x3f0fa165	0.56105644
55	0x3e983f58	0.29735827
56	0x3ee9c21a	0.456559
57	0x3d47f2a1	0.048815373
58	0xbe7d784b	-0.2475292
59	0xbe9660db	-0.2937077
60	0xbe608878	-0.21927059
61	0xbd8d1853	-0.06889405
62	0xbeea5e09	-0.45774868
63	0xbf5ff7eb	-0.8748767
64	0xbea42927	-0.32062647
65	0xbd62bb8f	-0.05535465
66	0x3d46e67e	0.04855966
67	0x3e97c4a6	0.29642218
68	0xbe3a875e	-0.18215701
69	0x3e5ae0f4	0.21374875
70	0x3d79baa7	0.06096902
71	0x3ee9d5ff	0.4567108
72	0xbd395010	-0.04524237
73	0xbee1c46a	-0.44095165
74	0xbef9e9e1	-0.48811248
75	0x3e6d2869	0.23159947
76	0xbea5ad36	-0.32358712
77	0xbe943848	-0.2894919
78	0xbe215908	-0.15756619
79	0x3e5874da	0.21138325
80	0xbe68a2e1	-0.22718383
81	0x3e3127a2	0.17300275
82	0x3e74aecb	0.23894803
83	0x3eb5b728	0.354913
84	0xbedfe4e3	-0.43729314
85	0x3f3281d7	0.6972937
86	0x3d3c37d6	0.045951687
87	0x3f104d44	0.563679
88	0x3f1d21e3	0.6137983
89	0x3e1599de	0.14609477
90	0xbe999077	-0.2999303
91	0xbe9f9a00	-0.3117218
92	0x3eaa9e6a	0.33323985
93	0x3e2715b3	0.16316871
94	0xbf1a7e6a	-0.6034914
95	0x3ea2b476	0.31778306
96	0xbd7a22be	-0.06106829
97	0x3c9162da	0.017747331
98	0x3edec4f9	0.43509653
99	0x3f5355f5	0.82553035
100	0x3e58d99e	0.21176764
101	0x3f0151bb	0.50515336
102	0x3eb9b076	0.36267442
103	0xbdaa9900	-0.08329964
104	0x3f1220c3	0.5708124
105	0xbed1de7e	-0.4099006
106	0x3f03a0a4	0.51416993
107	0x3df28df3	0.11843481
108	0xbf1a3c7a	-0.6024853
109	0xbe95c122	-0.2924891
110	0xbe0e1dbe	-0.13878533
111	0xbc3c1db9	-0.011481696
112	0x3ee5bd06	0.44870776
113	0x3f7f628b	0.9975974
114	0xbed3c1e4	-0.41358864
115	0x3d240e66	0.040052794
116	0xbe5937b3	-0.21212654
117	0xbf446a34	-0.76724553
118	0xbeaf783e	-0.34271425
119	0x3f1294d8	0.5725837
120	0xbe0315e1	-0.12801315
121	0x3d9c2a7b	0.0762529
122	0xbe6145e5	-0.21999319
123	0xbdd446b9	-0.10365052
124	0xbe263cfe	-0.16234204
125	0xbe5e3015	-0.2169803
126	0xbe98dcb9	-0.29855898
127	0xbf215f72	-0.63036263
128	0x3e4d0633	0.20021896
129	0xbe17fda8	-0.14842856
130	0xbefd08ab	-0.49420676
131	0x3f19d5ba	0.60091746
132	0x3e1a9c1b	0.15098612
133	0xbe236138	-0.15955055
134	0x3e7fb09a	0.24969712
135	0xbe9eb83b	-0.30999932
136	0x3ed29629	0.41130188
137	0x3ce25c5a	0.027631927
138	0x3ed69217	0.41908333
139	0x3edba0a9	0.4289601
140	0x3c8b9b4a	0.017041821
141	0x3df440b0	0.11926401
142	0x3f2d5f8f	0.67723936
143	0x3c7c5a94	0.015402455
144	0x3ee9e164	0.45679772
145	0x3e772be6	0.2413784
146	0xbea4ab56	-0.3216197
147	0x3ed77c16	0.42086858
148	0xbda90470	-0.082527995
149	0x3f26f3dd	0.65215856
150	0x3ef8e153	0.4860941
151	0xbf8b1494	-1.0865655
152	0x3ef19186	0.47181338
153	0xbe351313	-0.17683057
154	0x3e41499b	0.18875735
155	0xbbfce397	-0.0077175605
156	0x3d2f2c9e	0.04276716
157	0xbcd90507	-0.026491655
158	0xbe454f3f	-0.19268511
159	0x3f2fc6d0	0.6866274
160	0x3eaf5111	0.34241536
161	0xbec9f14d	-0.3944191
162	0xbe300cde	-0.17192408
163	0x3df08563	0.117441915
164	0x3f0d5236	0.5520357
165	0xbde8c716	-0.11366098
166	0x3e274b45	0.16337307
167	0x3e28e0d6	0.16492018
168	0x3daf3f65	0.085570134
169	0x3f41b2c3	0.75663394
170	0x3eb0b402	0.34512335
171	0x3cc53d72	0.024077151
172	0xbefb5d75	-0.4909474
173	0x3efb5d4c	0.49094617
174	0x3c1dac8f	0.009623661
175	0x3f1213ff	0.5706176
176	0xbbd5500f	-0.006509788
177	0x3e4cc2d8	0.19996202
178	0x3dda52e7	0.106603436
179	0xbe60f55b	-0.21968596
180	0xbe94a8f9	-0.29035166
181	0xbe90c72e	-0.28276962
182	0xbe491a5f	-0.19638966
183	0xbe63241a	-0.2218174
184	0x3e1552ee	0.14582416
185	0xbe32d0ed	-0.17462511
186	0xbe78ec5c	-0.24308914
187	0xbea5c20e	-0.32374614
188	0xbebae0b5	-0.36499563
189	0xbf0f805c	-0.56055236
190	0x3ddbd205	0.107334174
191	0xbec5decb	-0.3864654
192	0xbf090719	-0.53526455
193	0xbe997608	-0.29972863
194	0xbe70934b	-0.23493688
195	0x3f236885	0.6383136
196	0x3e3cb1fc	0.1842727
197	0xbf51bc0a	-0.8192755
198	0xbe010383	-0.12598996
199	0x3ee836d9	0.45354345
200	0xbf334a80	-0.7003555
201	0xbd8a947e	-0.06766604
202	0xbe3b6d3e	-0.18303391
203	0x3f0d67de	0.55236614
204	0xbf290d2a	-0.6603571
205	0x3eb33356	0.35000104
206	0xbf30f71c	-0.6912706
207	0x3dd2cf4b	0.10293444
208	0x3ed2be77	0.41160938
209	0x3e44be25	0.1921316
210	0xbe2f06a0	-0.17092371
211	0x3f03af92	0.51439774
212	0x3ea4355c	0.3207196
213	0x3e52d241	0.20588018
214	0x3df0697b	0.11738869
215	0x3e4911b4	0.1963566
216	0x3c8e5ab1	0.01737723
217	0x3d94dfe7	0.072692685
218	0xbd9f41db	-0.07776233
219	0x3deff6cd	0.117169954
220	0xbe59dcaa	-0.21275583
221	0x3f1cd515	0.6126264
222	0xbf060dfe	-0.523651
223	0xbe9d3425	-0.30703846
224	0x3ec03380	0.3753929
225	0x3e0c5d76	0.13707528
226	0x3f0a0bb7	0.53924125
227	0xbd0fd3fa	-0.035114266
228	0x3f14a592	0.5806514
229	0x3effeded	0.4998621
230	0x3e9582f7	0.2920148
231	0xbf6fb957	-0.9364218
232	0xbf1e583e	-0.61853397
233	0x3e5e6a6c	0.21720284
234	0x3f0759a6	0.5287117
235	0xbec1ebf9	-0.37875345
236	0xbeb7a73d	-0.3586978
237	0x3e930b78	0.28719687
238	0xbee868f4	-0.45392573
239	0xbea4dc3f	-0.32199284
240	0x3e7b78c0	0.24557781
241	0x3d9e24a3	0.07721832
242	0x3f1da8ca	0.61585677
243	0xbe0b38df	-0.13595913
244	0xbd9075e6	-0.07053737
245	0xbf1676c0	-0.5877495
246	0xbf13a033	-0.5766632
247	0xbe906193	-0.28199443
248	0x3eb21bb2	0.34786755
249	0xbd68f3ba	-0.05687306
250	0x3ea5e5ec	0.3240198
251	0x3e910835	0.28326574
252	0x39d9bf88	0.00041532167
253	0x3f02e5d1	0.5113192
254	0xbdb2ec72	-0.087365046
255	0x3f0d6c46	0.5524334

critic.network_body.linear_encoder.seq_layers.0.bias f4 [128]
0	0x00000000	0.0
1	0x00000000	0.0
2	0x00000000	0.0
3	0x00000000	0.0
4	0x00000000	0.0
5	0x00000000	0.0
6	0x00000000	0.0
7	0x00000000	0.0
8	0x00000000	0.0
9	0x00000000	0.0
10	0x00000000	0.0
11	0x00000000	0.0
12	0x00000000	0.0
13	0x00000000	0.0
14	0x00000000	0.0
15	0x00000000	0.0
16	0x00000000	0.0
17	0x00000000	0.0
18	0x00000000	0.0
19	0x00000000	0.0
20	0x00000000	0.0
21	0x00000000	0.0
22	0x00000000	0.0
23	0x00000000	0.0
24	0x00000000	0.0
25	0x00000000	0.0
26	0x00000000	0.0
27	0x00000000	0.0
28	0x00000000	0.0
29	0x00000000	0.0
30	0x00000000	0.0
31	0x00000000	0.0
32	0x00000000	0.0
33	0x00000000	0.0
34	0x00000000	0.0
35	0x00000000	0.0
36	0x00000000	0.0
37	0x00000000	0.0
38	0x00000000	0.0
39	0x00000000	0.0
40	0x00000000	0.0
41	0x00000000	0.0
42	0x00000000	0.0
43	0x00000000	0.0
44	0x00000000	0.0
45	0x00000000	0.0
46	0x00000000	0.0
47	0x00000000	0.0
48	0x00000000	0.0
49	0x00000000	0.0
50	0x00000000	0.0
51	0x00000000	0.0
52	0x00000000	0.0
53	0x00000000	0.0
54	0x00000000	0.0
55	0x00000000	0.0
56	0x00000000	0.0
57	0x00000000	0.0
58	0x00000000	0.0
59	0x00000000	0.0
60	0x00000000	0.0
61	0x00000000	0.0
62	0x00000000	0.0
63	0x00000000	0.0
64	0x00000000	0.0
65	0x00000000	0.0
66	0x00000000	0.0
67	0x00000000	0.0
68	0x00000000	0.0
69	0x00000000	0.0
70	0x00000000	0.0
71	0x00000000	0.0
72	0x00000000	0.0
73	0x00000000	0.0
74	0x00000000	0.0
75	0x00000000	0.0
76	0x00000000	0.0
77	0x00000000	0.0
78	0x00000000	0.0
79	0x00000000	0.0
80	0x00000000	0.0
81	0x00000000	0.0
82	0x00000000	0.0
83	0x00000000	0.0
84	0x00000000	0.0
85	0x00000000	0.0
86	0x00000000	0.0
87	0x00000000	0.0
88	0x00000000	0.0
89	0x00000000	0.0
90	0x00000000	0.0
91	0x00000000	0.0
92	0x00000000	0.0
93	0x00000000	0.0
94	0x00000000	0.0
95	0x00000000	0.0
96	0x00000000	0.0
97	0x00000000	0.0
98	0x00000000	0.0
99	0x00000000	0.0
100	0x00000000	0.0
101	0x00000000	0.0
102	0x00000000	0.0
103	0x00000000	0.0
104	0x00000000	0.0
105	0x00000000	0.0
106	0x00000000	0.0
107	0x00000000	0.0
108	0x00000000	0.0
109	0x00000000	0.0
110	0x00000000	0.0
111	0x00000000	0.0
112	0x00000000	0.0
113	0x00000000	0.0
114	0x00000000	0.0
115	0x00000000	0.0
116	0x00000000	0.0
117	0x00000000	0.0
118	0x00000000	0.0
119	0x00000000	0.0
120	0x00000000	0.0
121	0x00000000	0.0
122	0x00000000	0.0
123	0x00000000	0.0
124	0x00000000	0.0
125	0x00000000	0.0
126	0x00000000	0.0
127	0x00000000	0.0

critic.network_body.linear_encoder.seq_layers.2.weight f4 [128, 128]
0	0x3caef32e	0.021356191
1	0xbd8df90e	-0.06932269
2	0xbd989172	-0.074496165
3	0x3d8b35c3	0.067973636
4	0xbc81a113	-0.015823876
5	0x3d1518a5	0.036400456
6	0x3d4e9a81	0.050440315
7	0xbd93c2b1	-0.07214869
8	0x3d5d5d3a	0.054043986
9	0xbc44c5fe	-0.012010096
10	0xbdcec0f0	-0.10095394
11	0x3dc26378	0.094916284
12	0xbdb7af5a	-0.089689925
13	0x3da96de5	0.08272914
14	0x3d9744d0	0.07386172
15	0xbd02dfcb	-0.031951707
16	0x3daf8fae	0.085723266
17	0x3d46b511	0.048512522
18	0xbe40c87d	-0.1882648
19	0x3bdfe11c	0.006832255
20	0x3d86c5a7	0.06580668
21	0x3da2303b	0.079193555
22	0xbd6c00cb	-0.057617944
23	0xbe107709	-0.14107908
24	0x3e465a3d	0.1937036
25	0x3da4beb7	0.080441885
26	0xbc0390e7	-0.008030153
27	0x3d9c3b4a	0.07628496
28	0x3d52bc6a	0.051449217
29	0xbc78c5d8	-0.015183888
30	0xbc18694e	-0.00930245
31	0x3d9a7af2	0.07542981
32	0x3dd55434	0.10416451
33	0xbc642fad	-0.013927382
34	0xbd86c10f	-0.06579792
35	0xbd4ad3b6	-0.04951831
36	0x3c26fdf7	0.010192386
37	0xbe000dfd	-0.12505336
38	0xbc54921a	-0.012974286
39	0xbe4c5bf8	-0.19956958
40	0xbdd7ddf2	-0.105403796
41	0xbd6d3bf1	-0.057918493
42	0xbc894a91	-0.016759189
43	0x3d5b30a5	0.053513188
44	0xbdb9d04e	-0.09072934
45	0x3e2d0616	0.16896853
46	0xbde58582	-0.11207105
47	0x3cdc3fd4	0.026885904
48	0xbe0cec84	-0.13762099
49	0x3db61f6b	0.08892711
50	0xbc1310c0	-0.0089761615
51	0xbd79b4fe	-0.060963623
52	0xbd50ac6a	-0.050945677
53	0x3d50183a	0.050804354
54	0x3cdade7d	0.026717419
55	0x3ddf68bb	0.109086476
56	0x3d5d1d21	0.053982858
57	0xbd53ac01	-0.051677708
58	0xbdf84fd4	-0.12124601
59	0x3b7d32df	0.0038635058
60	0xbe089a29	-0.13340057
61	0x3cb56fd1	0.022148045
62	0x3d90f8b5	0.07078687
63	0x3d59c242	0.053163774
64	0x3e511a6d	0.20420237
65	0xbe310023	-0.17285208
66	0xbca9d130	-0.020729631
67	0x3dd93539	0.106058545
68	0xbdb20e00	-0.086940765
69	0x3e0fbc07	0.1403657
70	0x3d464c76	0.048412763
71	0x3cb5c878	0.022190318
72	0x3dceac63	0.10091474
73	0xbd85fe6b	-0.06542667
74	0x3d5afdfd	0.05346488
75	0x3d6c3905	0.057671566
76	0x3e0f6cef	0.14006399
77	0x3d3205e5	0.043462653
78	0xbd84408c	-0.06457624
79	0x3d114b82	0.0354724
80	0x3dd1071a	0.10206433
81	0x3e42d35b	0.19025938
82	0xbcac960f	-0.021067647
83	0xbdf026c9	-0.11726148
84	0xbd70d2d9	-0.05879483
85	0x3e1309d0	0.14359212
86	0x3e019886	0.1265584
87	0x3d3aaa49	0.045572553
88	0x3cab8201	0.020936014
89	0xbd08565f	-0.033285495
90	0xbe00f114	-0.12591964
91	0x3ca2b9dc	0.019864015
92	0x3e43365d	0.19063707
93	0xbe0203b2	-0.12696722
94	0x3cd6ae28	0.026206091
95	0x3c65d0dd	0.014026848
96	0x3c2a5166	0.010395383
97	0x3c83f306	0.016107094
98	0xbc99e74f	-0.018787054
99	0xbe086e87	-0.13323413
100	0xbe332934	-0.17496186
101	0x3d57dba2	0.052699693
102	0xb903d83e	-0.0001257369
103	0x3e1406bb	0.14455692
104	0xbd6cb895	-0.05779322
105	0x3e167dc3	0.14696412
106	0xbdd38593	-0.10328212
107	0xbdaa89cf	-0.08327066
108	0x3db5f9a7	0.08885508
109	0x3dac3a6c	0.084095806
110	0x3d4e3c0e	0.05035024
111	0xbcc8c33a	-0.024507154
112	0xbd864517	-0.065561466
113	0x3d4fce87	0.05073407
114	0x3c842f32	0.016135786
115	0xbe02901f	-0.1275029
116	0x3ddb29ad	0.107013084
117	0x3dae9adc	0.08525631
118	0xbde6d539	-0.11271138
119	0xbcb541ad	-0.022126043
120	0x3dd487db	0.10377475
121	0x3d7ffe76	0.062498532
122	0x3dbda5b8	0.09260124
123	0x3daf2cb0	0.08553445
124	0x3d8d6195	0.06903378
125	0x3e45d0c0	0.19317913
126	0x3d62d5c6	0.05537965
127	0x3d26df9b	0.04074059
128	0xbcf5afc4	-0.029991038
129	0x3ce2abd7	0.02766983
130	0x3d72a946	0.059243463
131	0xbe045442	-0.12922767
132	0x3c20530a	0.009785423
133	0xbb86594e	-0.0041000014
134	0x3e4ff587	0.20308505
135	0xbdf5604d	-0.119812585
136	0xbd752841	-0.059852842
137	0x3da05aff	0.07829856
138	0xbdf5365d	-0.119732596
139	0x3da89444	0.082314044
140	0x3d922b96	0.071372196
141	0x3c31e168	0.010856964
142	0xbdd81233	-0.10550346
143	0xbdcdb78a	-0.10044773
144	0x3cb519ee	0.02210709
145	0xbdd47a93	-0.10374942
146	0xbe9f8e37	-0.3116319
147	0x3da52a59	0.08064718
148	0xbb97166b	-0.0046108267
149	0x3dd2bfe7	0.10290509
150	0xbd8c6366	-0.06854896
151	0x3d03ce4e	0.03217917
152	0x3d15ca69	0.036569986
153	0xbd715fbc	-0.05892919
154	0x3d8146b9	0.063123174
155	0x3df12de8	0.11776334
156	0x3e0579b5	0.13034709
157	0xbdf54dff	-0.11977767
158	0x3c94045e	0.018068489
159	0x3e25ddc6	0.16197881
160	0xbe5dd59f	-0.21663521
161	0x3c946a93	0.018117225
162	0xbdd1ae88	-0.10238367
163	0x3df28442	0.118416324
164	0xbda042cd	-0.07825241
165	0x3dfd3aa9	0.12364704
166	0x3e2f014f	0.17090343
167	0x3db2ce4d	0.08730755
168	0xbde51674	-0.11185923
169	0xbd4226af	-0.047400173
170	0xbcddab8d	-0.02705934
171	0x3d634e16	0.05549439
172	0xbe383f01	-0.17992784
173	0xbe130662	-0.14357904
174	0xbdf1339a	-0.1177742
175	0x3e032a51	0.12809111
176	0x3d212721	0.039343957
177	0xbd7e956a	-0.06215421
178	0xbcce0215	-0.025147477
179	0xbdbef6ed	-0.09324441
180	0x3e22bbba	0.15891925
181	0xbd989080	-0.07449436
182	0x3c828abc	0.015935294
183	0x3d4ee3a5	0.050510067
184	0xbbbbcd46	-0.0057312576
185	0x3d2ddea3	0.04244865
186	0x3b980512	0.0046392763
187	0x3db860b7	0.09002822
188	0xbc8bdbc7	-0.017072571
189	0xbd22106b	-0.03956644
190	0xbd29b01d	-0.04142772
191	0xbde42332	-0.111395255
192	0xbd451824	-0.048118725
193	0xbdfb246a	-0.12262805
194	0xbdb66533	-0.08906021
195	0xbdb9e0c8	-0.09076077
196	0x3de464d9	0.11152048
197	0x3ca70ca9	0.020391779
198	0x3d31e679	0.043432686
199	0x3da375fb	0.07981487
200	0xbd56c7c0	-0.05243659
201	0xbbb991d5	-0.0056631365
202	0x3de9aabb	0.114095174
203	0x3deb6b54	0.114950806
204	0x3d44a940	0.048012972
205	0x3c58b267	0.013226128
206	0x3ca1cd1c	0.019751124
207	0xbdb227b7	-0.08698981
208	0x3a1ff8f0	0.0006102463
209	0xbd8b4abb	-0.06801363
210	0xbd6adfae	-0.057342224
211	0x3e57fb8d	0.21092053
212	0xbda64a04	-0.08119586
213	0xbe30041e	-0.1718907
214	0x3d91e9d9	0.07124681
215	0x3d9b3208	0.07577902
216	0xbcf36bfa	-0.029714573
217	0xbca78b3e	-0.020452138
218	0xbc96e301	-0.01841879
219	0xbda80b00	-0.08205223
220	0x3e1844af	0.1486995
221	0xbb5e808d	-0.0033951134
222	0xbe4dfb76	-0.20115456
223	0xbc9736b8	-0.01845871
224	0xbc1f1794	-0.009710211
225	0xbc340f15	-0.010989924
226	0xbdb5c2f6	-0.088750765
227	0xbe4df1bd	-0.20111747
228	0xbd2a66e7	-0.04160204
229	0x3b41ee26	0.002959141
230	0xbdc93ca1	-0.09826017
231	0x3d5252c8	0.051348478
232	0xbe1810aa	-0.14850107
233	0x3db80fb3	0.089873694
234	0xbcfb5056	-0.030677956
235	0x3dd41434	0.10355416
236	0xbdcbf944	-0.09959653
237	0x3da9842e	0.082771644
238	0x3d5cc452	0.053898163
239	0x3d4dd5fa	0.050252892
240	0x3ca1d3c6	0.019754302
241	0xbd5ccafd	-0.053904522
242	0x3c03114e	0.007999731
243	0x3c7a8b19	0.0152919525
244	0xbc99098a	-0.018681306
245	0xbd5d2809	-0.05399326
246	0xbca6bdab	-0.020354113
247	0xbb03986a	-0.002007986
248	0xbd7bc408	-0.061466247
249	0xbdcc7805	-0.099838294
250	0x3d9f8ed1	0.07790912
251	0xbc9b601d	-0.018966729
252	0x3debe91e	0.11519073
253	0xbdd81192	-0.10550226
254	0x3db75840	0.08952379
255	0x3dc139a5	0.09434823

critic.network_body.linear_encoder.seq_layers.2.bias f4 [128]
0	0x00000000	0.0
1	0x00000000	0.0
2	0x00000000	0.0
3	0x00000000	0.0
4	0x00000000	0.0
5	0x00000000	0.0
6	0x00000000	0.0
7	0x00000000	0.0
8	0x00000000	0.0
9	0x00000000	0.0
10	0x00000000	0.0
11	0x00000000	0.0
12	0x00000000	0.0
13	0x00000000	0.0
14	0x00000000	0.0
15	0x00000000	0.0
16	0x00000000	0.0
17	0x00000000	0.0
18	0x00000000	0.0
19	0x00000000	0.0
20	0x00000000	0.0
21	0x00000000	0.0
22	0x00000000	0.0
23	0x00000000	0.0
24	0x00000000	0.0
25	0x00000000	0.0
26	0x00000000	0.0
27	0x00000000	0.0
28	0x00000000	0.0
29	0x00000000	0.0
30	0x00000000	0.0
31	0x00000000	0.0
32	0x00000000	0.0
33	0x00000000	0.0
34	0x00000000	0.0
35	0x00000000	0.0
36	0x00000000	0.0
37	0x00000000	0.0
38	0x00000000	0.0
39	0x00000000	0.0
40	0x00000000	0.0
41	0x00000000	0.0
42	0x00000000	0.0
43	0x00000000	0.0
44	0x00000000	0.0
45	0x00000000	0.0
46	0x00000000	0.0
47	0x00000000	0.0
48	0x00000000	0.0
49	0x00000000	0.0
50	0x00000000	0.0
51	0x00000000	0.0
52	0x00000000	0.0
53	0x00000000	0.0
54	0x00000000	0.0
55	0x00000000	0.0
56	0x00000000	0.0
57	0x00000000	0.0
58	0x00000000	0.0
59	0x00000000	0.0
60	0x00000000	0.0
61	0x00000000	0.0
62	0x00000000	0.0
63	0x00000000	0.0
64	0x00000000	0.0
65	0x00000000	0.0
66	0x00000000	0.0
67	0x00000000	0.0
68	0x00000000	0.0
69	0x00000000	0.0
70	0x00000000	0.0
71	0x00000000	0.0
72	0x00000000	0.0
73	0x00000000	0.0
74	0x00000000	0.0
75	0x00000000	0.0
76	0x00000000	0.0
77	0x00000000	0.0
78	0x00000000	0.0
79	0x00000000	0.0
80	0x00000000	0.0
81	0x00000000	0.0
82	0x00000000	0.0
83	0x00000000	0.0
84	0x00000000	0.0
85	0x00000000	0.0
86	0x00000000	0.0
87	0x00000000	0.0
88	0x00000000	0.0
89	0x00000000	0.0
90	0x00000000	0.0
91	0x00000000	0.0
92	0x00000000	0.0
93	0x00000000	0.0
94	0x00000000	0.0
95	0x00000000	0.0
96	0x00000000	0.0
97	0x00000000	0.0
98	0x00000000	0.0
99	0x00000000	0.0
100	0x00000000	0.0
101	0x00000000	0.0
102	0x00000000	0.0
103	0x00000000	0.0
104	0x00000000	0.0
105	0x00000000	0.0
106	0x00000000	0.0
107	0x00000000	0.0
108	0x00000000	0.0
109	0x00000000	0.0
110	0x00000000	0.0
111	0x00000000	0.0
112	0x00000000	0.0
113	0x00000000	0.0
114	0x00000000	0.0
115	0x00000000	0.0
116	0x00000000	0.0
117	0x00000000	0.0
118	0x00000000	0.0
119	0x00000000	0.0
120	0x00000000	0.0
121	0x00000000	0.0
122	0x00000000	0.0
123	0x00000000	0.0
124	0x00000000	0.0
125	0x00000000	0.0
126	0x00000000	0.0
127	0x00000000	0.0

critic.value_heads.value_heads.extrinsic.weight f4 [1, 128]
0	0xbe0aea86	-0.13566026
1	0xbe4a2834	-0.19741899
2	0xbd1ddbd8	-0.038539737
3	0xbe327f66	-0.17431411
4	0xbe2de443	-0.16981606
5	0xbd2ac89c	-0.041695222
6	0x3d48ac48	0.048992425
7	0xbe427899	-0.18991317
8	0x3e2b43de	0.16725108
9	0xbdb94c20	-0.09047723
10	0xbd7c60fc	-0.06161593
11	0xbe083669	-0.13302006
12	0x3cc2b5c0	0.023768306
13	0x3dd59020	0.1042788
14	0xbd8a7e30	-0.067623496
15	0x3df20c8c	0.118187994
16	0x3d44cf60	0.04804933
17	0x3e0d0f0e	0.13775274
18	0x3dd79260	0.10525966
19	0xbe50aa8f	-0.20377563
20	0x3d58e578	0.052953213
21	0x3dc6c578	0.09705633
22	0xbd6aa7c8	-0.057288915
23	0x3d466c70	0.048443258
24	0x3cc01768	0.023448661
25	0x3dbc841c	0.09204885
26	0x3cfcdce0	0.03086704
27	0x3db032fc	0.086034745
28	0x3d921ac0	0.071340084
29	0x3e10fa30	0.14157939
30	0xbe133279	-0.14374723
31	0xbe30aecd	-0.17254181
32	0xbbe14840	-0.006875068
33	0xbe1a35dc	-0.15059608
34	0x3d0f8ac0	0.03504443
35	0xbd94be00	-0.07262802
36	0x3d252bf8	0.040325135
37	0xbde95cc9	-0.113946505
38	0x3e17ad7a	0.1481227
39	0xbda065d8	-0.07831925
40	0x3e4323f8	0.1905669
41	0xbd84469a	-0.06458779
42	0xbdc7308e	-0.09726058
43	0x3d9aaca4	0.0755246
44	0xbda1f194	-0.079074055
45	0x3e57b588	0.21065342
46	0xbdb33aca	-0.087514475
47	0x3e179d0a	0.14806
48	0xbd9ed500	-0.0775547
49	0x3a532300	0.00080542266
50	0xbd850452	-0.06494965
51	0x3c5e05e0	0.013551205
52	0xbe418b01	-0.18900682
53	0xbd8ba70e	-0.068189725
54	0xbd179d2c	-0.037015125
55	0xbd5a6bf0	-0.053325593
56	0xbd9e2936	-0.07722704
57	0x3e4c3a2c	0.19944066
58	0xbe195f6c	-0.14977807
59	0xba4cca00	-0.0007812083
60	0xbe197d9c	-0.14989322
61	0xbd8d0b7e	-0.068869576
62	0xbe2d123c	-0.16901487
63	0x3dbf98fc	0.09355351
64	0xbddeb051	-0.108734734
65	0x3db9efc0	0.09078932
66	0xbd21d658	-0.039511055
67	0x3dc787d8	0.09742707
68	0xbdc567e2	-0.09638955
69	0xbe530291	-0.20606448
70	0xbd807292	-0.062718526
71	0x3e08e752	0.13369492
72	0xbde70bf3	-0.11281576
73	0x3da6ff78	0.081541955
74	0x3da891d4	0.082309395
75	0xbdad7cd0	-0.08471072
76	0x3e58021a	0.21094552
77	0xbd9a35b6	-0.07529776
78	0x3c93d988	0.018048063
79	0xbe4daf75	-0.20086463
80	0x3c1393e0	0.009007424
81	0x3e24520e	0.16046926
82	0xbe0f4bf6	-0.1399382
83	0xbd7068c8	-0.058693677
84	0xbe1133fe	-0.1417999
85	0xbe0dd5f2	-0.13851145
86	0x3e4a9afc	0.19785684
87	0xbe555e46	-0.20836744
88	0x3d9417dc	0.07231113
89	0xbe08dcd2	-0.13365486
90	0xbc247560	-0.01003775
91	0x3df05b80	0.11736202
92	0x3cf1d1e0	0.029519022
93	0x3d77cd38	0.060498446
94	0xbe2aa7ab	-0.16665523
95	0xbd7e7b68	-0.062129408
96	0xbe56aac7	-0.20963584
97	0xbd931288	-0.07181269
98	0xbe3c9e79	-0.18419828
99	0xbe388571	-0.18019654
100	0xbe02ee37	-0.12786184
101	0xbd401144	-0.046891466
102	0x3daa4468	0.08313829
103	0xbe4f54b7	-0.2024716
104	0x3e550912	0.20804241
105	0xbe27ca24	-0.16385704
106	0x3e041df4	0.12902051
107	0xbe51d04d	-0.20489617
108	0xbcd3a238	-0.025834188
109	0x3d37f9c8	0.044915944
110	0xbe029086	-0.12750444
111	0xbb0501c0	-0.0020295233
112	0x3e45eaaa	0.19327798
113	0x3e457a84	0.19285017
114	0x3dcbd12c	0.09952006
115	0xbd31af28	-0.043379933
116	0xbd0b7a18	-0.034051985
117	0xbdb13990	-0.08653557
118	0xbe09b45c	-0.13447708
119	0x3e1b0556	0.15138754
120	0xbe37618d	-0.17908306
121	0x3dc52058	0.0962531
122	0xbe0b3a2c	-0.1359641
123	0xbccf3468	-0.025293544
124	0x3e2fcbf8	0.17167652
125	0x3c54b3c0	0.012982309
126	0xbd9e6714	-0.07734504
127	0xbc591cd0	-0.013251498
