results/scoreGoal8/HitTheBall/HitTheBall-11330.onnx (onnx, 74062 bytes, 8 tensors)

action_model._continuous_distribution.log_sigma f4 [1, 2]
00000000: 52f3 cfba f4ee 103b
-0.0015865362 0.0022115083

action_model._continuous_distribution.mu.bias f4 [2]
00000000: 741c 8eba f5ec 103b
-0.001084222 0.0022113894

action_model._continuous_distribution.mu.weight f4 [2, 128]
00000000: 80ba 61bb 5492 c4bc 86c2 0d3c 4b76 e53b
00000010: fde6 30bc db74 833a 3153 c23b f9ea ee3c
00000020: 104a b9bb d7f7 f43a 4b33 443c 705b bb3c
00000030: 08cb 203d e2f0 973c 3254 c4b9 5de7 8c3c
00000040: 16c6 a9bc e1e3 b0bc 516e 9cbc f7e1 72bb
00000050: f167 8abc 958d 233c ad2a 82bc eec3 41bd
00000060: 492b dbbb 48dd 05bd 7f7c d0bc e908 c4bc
00000070: e742 8fbc 9dcf d43a 875f 193c cfdc 19bc
00000080: 9bdf 4d3b 635e cfbc 598f 593c 91d3 093b
00000090: 9a05 f5bc 8b60 81bb 0b6e 33bb 44fb 2bba
000000a0: 9422 01bd 9673 cf3b 157d 9d3a 5088 ec3c
000000b0: a637 c43c bbf7 16bc 5575 81bb b119 e2bc
000000c0: 96d4 81bb a66f 7bbc 1301 ad3c bf39 1f3d
000000d0: cc5e 89bc 6b84 dcbb f9ff 20bc f217 9a3a
000000e0: 8f94 6d3a c8b1 98bc 3ebe 6c3c 95d9 da3b
000000f0: 49b3 05bc 6d65 423a d325 34bc 353a 343c
00000100: 7d30 ab3c de00 8f3c 2d76 413c 588a 6b3c
00000110: 0d7c da3c 5302 12ba 84a1 abbb e8b2 3cbc
00000120: 0db5 89bc 35ae 9b3c fbd7 693c 5660 d7bc
00000130: 9aab 3dbb a4ec b2bc 013b febb 16b2 91bc
00000140: 39c3 8bbb 563f 773c 9618 20bc 1b73 0c3c
00000150: 8d06 c63c ee57 aabc 9544 f7ba 440e 193c
00000160: a990 f93a 6b21 7a3c c777 523c 5a95 5abc
00000170: da17 fa3b ffe3 0c3b 7d37 313c d51c 5b3b
00000180: 95bb a53c fae0 4ebc c857 a13c 3481 25bc
00000190: 5ed1 95bc 30dc 2d3d 397c 133b eda9 203c
000001a0: 36bd 03bc c437 4c3c f0fc 22bb 5071 923c
000001b0: 843e 423d e1ff 77bc 0592 12bc 49c6 fabc
000001c0: fcc0 153d 91bb b13c 06fa 573c a9e4 4c3b
000001d0: a528 91bc 32fe 593c e693 28bc a389 83bc
000001e0: 2860 05bb de20 d83c f520 4bbc 6772 43bd
000001f0: adb4 7cbc b67f 563c 3017 14bc 087e 9c3b
00000200: 2c02 fa3b c744 8c3c acb3 d8bb a5e0 b0bc
00000210: 440e 52bc c4cf d4bc b0ff 9a3b 62dd a93c
00000220: 5114 9fbb 679c 383c 6ec7 4c3b 29b1 1b3d
00000230: 16bd 28bc 1f2e bc3c 6a56 f93b 1ad4 79bb
00000240: 59b0 e8bc 2ce4 593c bd9b ae3c 8b88 343b
00000250: 3553 e53b 355c 99bb ace3 c5bb fa4a 37bb
00000260: a600 46bc bda1 00bd d35f 32bc 95b0 ba3b
00000270: be37 cc3c 00d4 3d3c 5a64 2dbb a5c9 da3b
00000280: 541b 6d3c e191 2b3c 785b 09bc 6b7d 6cbc
00000290: 29b1 b7b9 708a 693c ee55 76bb fe7a 79bc
000002a0: 44db 01bd 5f7d ddbc 83e1 3f3c 0b65 9aba
000002b0: 70a0 103b 7de1 b03c ee5c 81bc b50e cf3c
000002c0: fbc3 8b3b 664d 42bb 3a3e af3b 46bc 0fbd
000002d0: 5c0a ad3c a302 46bc c2f6 653c fe6c 0bbc
000002e0: 605e 253b 46a6 0c3d e429 b23c e48b 09bc
000002f0: f260 e9bc 65d3 a63a cc93 223d 9ba6 99bc
00000300: 8c5b 9d3b 4f4b 6fbc 6acd 8bbc 6225 41bb
00000310: a854 2abc f13c a3bb 18d1 9abc 033d 1abc
00000320: 7063 b3bc 4231 81bc 6151 95bb 2f38 ebbb
00000330: c00d 633c 863a d5bc 63af 823c 123c 38bb
00000340: 4883 01bd acd9 6cbc 9d62 8d3a 136a 493c
00000350: d3b8 8abb 6c87 7f3c 4788 0abc ae4c 8f3b
00000360: 1d79 743c ae24 0dbb 8c80 b83a 769a e8bc
00000370: c276 083d f3fa 43bc ae8b b03c aacd 883b
00000380: 3539 bbbc e8e3 93bc 9a04 1539 bae3 f9bb
00000390: 9aba ad3c edab 10bb ddd7 093c 5639 1abc
000003a0: 514a aabb 6fe7 6dbb 4735 f7bb 0dab 5aba
000003b0: 28cc 64ba dcb6 f9bc c992 853c 9207 173c
000003c0: f83f 7dbc c795 5fbc c14d 203d 84d1 f03a
000003d0: 2052 0dbb 5e29 28bb b71f 35bc 94a3 edba
000003e0: 9067 8dbb 933d 443c a584 a03c bc00 74bb
000003f0: 2a29 02bd 7b73 023d f78d 35bc 7e8a 27bb
-0.0034443438 -0.023995556 0.008652335 0.007002627 -0.010797259 0.0010029332 0.0059303273 0.029164778
-0.005654581 0.0018689585 0.01197512 0.02287075 0.039256126 0.018547479 -0.00037446764 0.017200166
-0.020724338 -0.021593036 -0.019095572 -0.0037060955 -0.016895266 0.009982486 -0.01588949 -0.047305994
-0.0066885096 -0.032681733 -0.02544999 -0.02393003 -0.017487956 0.001623619 0.009361154 -0.009391024
0.0031413797 -0.025313562 0.013278806 0.0021030644 -0.029909898 -0.0039482764 -0.0027378823 -0.0006560574
-0.031527117 0.0063309176 0.0012015427 0.028873593 0.023952316 -0.009214337 -0.0039507546 -0.027600141
-0.00396211 -0.015346443 0.021118676 0.03887343 -0.016768835 -0.0067296526 -0.009826654 0.0011756404
0.00090629695 -0.01863946 0.014449654 0.00667877 -0.008160421 0.00074156263 -0.010995346 0.011000206
0.020897144 0.017456468 0.01180796 0.014376245 0.02667048 -0.00055698043 -0.00523776 -0.011517264
-0.016809965 0.019003967 0.014272685 -0.026291054 -0.0028941394 -0.021841355 -0.0077584987 -0.017785113
-0.0042652157 0.015090784 -0.009771487 0.008572365 0.024173046 -0.020793881 -0.0018865044 0.00934178
0.0019040304 0.0152667565 0.01284594 -0.013341272 0.007632238 0.00214982 0.010816452 0.0033433933
0.020231048 -0.012626881 0.019695178 -0.010101605 -0.01828831 0.042446315 0.0022504462 0.009806138
-0.008040717 0.012464467 -0.002487 0.017876297 0.0474229 -0.01513669 -0.008945947 -0.030612128
0.036560997 0.021695884 0.013182169 0.0031264222 -0.017719576 0.013305234 -0.010289168 -0.016056841
-0.0020351503 0.02638286 -0.012397994 -0.047716524 -0.015423936 0.013091972 -0.009038731 0.0047757663
0.0076296534 0.01712264 -0.0066132154 -0.021591494 -0.012820784 -0.025977977 0.0047301874 0.020735446
-0.004854717 0.011267758 0.00312468 0.03801075 -0.010298988 0.022971211 0.0076091783 -0.0038120807
-0.028404402 0.013299029 0.021314496 0.0027547206 0.0069984444 -0.0046801814 -0.0060391035 -0.0027968273
-0.012085116 -0.031404246 -0.010887104 0.0056973197 0.024928924 0.011586189 -0.002645752 0.00667687
0.014471848 0.010471792 -0.008383624 -0.014434199 -0.00035036475 0.0142541975 -0.003758784 -0.0152270775
-0.03170325 -0.02703732 0.011711481 -0.0011779381 0.0022068284 0.021591896 -0.015791383 0.025275568
0.004265306 -0.0029648184 0.005347994 -0.03509166 0.021123104 -0.01208559 0.014035882 -0.0085098725
0.0025233254 0.03433826 0.02174849 -0.008395169 -0.02848861 0.0012727795 0.03969173 -0.018756201
0.004802173 -0.014605357 -0.017065722 -0.0029471745 -0.01039616 -0.00498163 -0.018898532 -0.00941396
-0.021898001 -0.015770558 -0.0045568203 -0.0071783285 0.013858259 -0.026028883 0.015952772 -0.0028111977
-0.03161934 -0.014456194 0.0010786835 0.0122933565 -0.0042334585 0.015596252 -0.008455343 0.0043731546
0.014921454 -0.0021536755 0.0014076396 -0.028393965 0.03331638 -0.011961686 0.02155098 0.0041749077
-0.022854427 -0.01805301 0.00014211462 -0.007626024 0.021207143 -0.0022075132 0.008413282 -0.009413084
-0.0051968475 -0.0036301275 -0.007544193 -0.00083415286 -0.00087279314 -0.030482702 0.016305344 0.0092181135
-0.015457146 -0.01364655 0.039136652 0.0018372987 -0.0021563843 -0.0025659422 -0.011054925 -0.0018130415
-0.004315324 0.011977571 0.0195945 -0.0037231883 -0.03177754 0.031848412 -0.01108121 -0.0025564726

action_model._discrete_distribution.branches.0.weight f4 [1, 128]
00000000: 2022 28bc 5fad 79bc eb61 b73b 7ac0 2e3b
00000010: 7d35 24bc d3cb 8a3c c7b4 e83b df3a 6a3c
00000020: e561 b1bb 849b 083a 63ce 333c fa65 9a3b
00000030: 6b86 1cbb d51d f5bb 5dcc e93b 052d f0bb
00000040: 9911 ad3b f7a4 8c3b c9f6 1a3b f898 82bb
00000050: 63ec 793b ac70 12bb 6f46 993b 7b35 77ba
00000060: a0ad fabb c112 8b3b 9649 a3bb 8323 233c
00000070: dbda c4bb 8273 b93b d8a7 abbb 0f79 7c3c
00000080: 1bcd cd3b bfd2 96bb f012 20bc 736c ab3b
00000090: 10bc a7ba 2349 aebc 2ff2 bfbb 62d5 dcbb
000000a0: e0ea f63b d179 b7ba cafa 63bb 086c 5bbc
000000b0: 6210 853b 7732 103b 268b 9cbc 8071 ae3b
000000c0: 6ad0 8a3c 1a79 7ebb ed72 793c 9cfe 83bb
000000d0: 0b52 a63b 6de7 9339 1a97 fdbb e1a4 32bc
000000e0: d747 83bc cd60 693b 4fc8 1b3d 9fce 083c
000000f0: a286 a6bb 9334 b73b 9bef 023c ea7f c7bb
00000100: 92da d53c 7277 303c 3acc 06bc dfb9 823b
00000110: 7ca6 953b 405a 1fbc a587 2abc 3045 69bb
00000120: 18ff f5bb ee07 0c3c 3139 1abc b3f9 693c
00000130: cd43 98bc 4f4c b33b b532 533c 80bf 21bb
00000140: fc57 10b9 0550 5c3b 0802 edba 2bdd 2d3b
00000150: 47b7 e8bb 33c5 e3b9 067f 1c3b 1001 14bc
00000160: 22c3 81bb 57cb 52bc df72 26bc d9ac 27bb
00000170: 4c02 05bb 36e7 a13b 5486 a3bb 9c04 333c
00000180: 4d80 203c 7574 ecbb 1207 c0bb bfd8 d93b
00000190: 09c2 45bc 7bda f73b 51fe 38bb 6971 a5bb
000001a0: c0c2 f73b 4deb debb 28c0 2a3b 97f0 213c
000001b0: ec34 413c 409e 093b c22f 60bc 4e53 8c3c
000001c0: cae2 923b 62ef a2bb 9d0d 50bc a218 b43c
000001d0: d765 3a3c 80a2 4c3b 9210 7abc 8bf9 1bbc
000001e0: 8ff3 fb3a 14c0 833b d8cb 68bc f75d 3fbb
000001f0: 9bb2 53bb 719d b1bb 6dd8 863c eb9d 7cbc
-0.010262042 -0.015239089 0.0055963895 0.0026665018 -0.010022518 0.016942894 0.0071016285 0.0142962625
-0.0054132813 0.0005211162 0.010974499 0.0047118636 -0.002388383 -0.007480363 0.0071349577 -0.0073295855
0.005281639 0.0042921263 0.002364563 -0.0039855205 0.0038135282 -0.002234499 0.004677586 -0.00094302715
-0.0076500922 0.004244179 -0.0049831374 0.009957197 -0.006007535 0.0056595216 -0.0052385144 0.015409722
0.006280554 -0.0046027596 -0.00977014 0.005231434 -0.0012797136 -0.021275109 -0.005857728 -0.0067393044
0.0075353235 -0.0013998096 -0.0034786933 -0.013392456 0.004060791 0.0022002736 -0.01910932 0.005323589
0.016945083 -0.0038829506 0.015225154 -0.0040281545 0.0050756983 0.0002821045 -0.00773896 -0.010903568
-0.016025467 0.0035610676 0.038032826 0.008350044 -0.0050819675 0.005590984 0.007991697 -0.0060882466
0.026105199 0.0107706655 -0.008227402 0.0039894427 0.0045669656 -0.009726107 -0.010408317 -0.0035594217
-0.007507216 0.008546812 -0.00941305 0.014280724 -0.018587017 0.005471743 0.0128905075 -0.0024680793
-0.00013765687 0.0033617031 -0.001808227 0.0026529531 -0.0071019265 -0.0004344374 0.0023879423 -0.009033456
-0.003960029 -0.012865863 -0.010159223 -0.0025585203 -0.0020295558 0.0049408926 -0.0049903784 0.010926392
0.009796214 -0.007216031 -0.005860218 0.0066481526 -0.012070187 0.0075638867 -0.0028227756 -0.00504892
0.007561058 -0.0068029524 0.0026054475 0.009884021 0.011792403 0.0020998865 -0.013683261 0.017129567
0.004482602 -0.0049723843 -0.012698558 0.021984402 0.01137682 0.0031224787 -0.01526274 -0.009519945
0.0019222366 0.0040207 -0.014208756 -0.0029200295 -0.0032302502 -0.00542038 0.016460622 -0.01541851

network_body.linear_encoder.seq_layers.0.bias f4 [128]
00000000: ee33 8f3a 548c 52bb ac02 aa3a 0592 af3a
00000010: 4cf7 e8ba fa40 14bb 6da3 01bb a09d 38bb
00000020: 4003 4fbb 81da 4bbb 56f7 f43a 07a8 6dbb
00000030: d7a5 15bb ee35 5ebb 4e2b 1bbb df9d 3abb
00000040: 5daa f73a c5f5 cdba 0bd9 d13a f48a 1dbb
00000050: a634 2cbb 78a1 523b f7f6 b9b8 4802 ff3a
00000060: bc87 4cba 5e49 bf39 d625 c439 1252 203b
00000070: caae 86ba 1c97 033b 675a 78bb 3c2e 223b
00000080: 0cd4 f4ba 301d 19b9 f8da 1ebb faa1 6ebb
00000090: e049 7439 cc9f 0e3b 75c4 913b f1eb 2c3b
000000a0: 9804 ad3b 9544 28bb 5008 29bb d830 1f3b
000000b0: fef7 7b3b c598 a03a a221 03bb c694 75bb
000000c0: 74e4 493a 7024 7ebb cc67 04bb 4d22 00ba
000000d0: 3a8b 943a e361 95b8 bc35 d9ba 5294 4a3a
000000e0: 707a 0c3b 13c5 d1ba d699 3a3b a042 9f3b
000000f0: fbc9 af3a 2550 183b b2dc f93a 76a6 7e3b
00000100: c88f b13a 70d5 afba de8e a239 1406 713a
00000110: 4400 543b fcaf 463b 670b c63a a5e2 933a
00000120: b7e4 1e3a e6f4 633b 7ab8 f4ba a9e8 473b
00000130: f907 523b 18d8 f0b8 5ddb 53bb dbe1 69bb
00000140: 94be 31b9 f92a 003a 9197 e5b9 94fa 5d3b
00000150: 1def 5dbb b2fd c7ba ca40 8fb7 9458 2fbb
00000160: bc13 4c37 2e8c b03a 8881 2f3b 9e97 d6bb
00000170: 6ea9 90ba e9e8 81b9 319d 38b9 b9a1 6dba
00000180: 4d66 2dbb 72ba 083a 03b6 423b 2af5 95bb
00000190: 9cf2 413b a8e7 8cbb 0d73 feba 35b4 a3bb
000001a0: 6eaf 3abb 475e 2abb fbd1 013b 7734 a1ba
000001b0: 3df5 553b 7ea5 183b a6ea b0ba 7412 beb8
000001c0: 8f2c ad3b b592 4cbb 8e1c 1c3b cca6 c1ba
000001d0: 3927 3c3b e501 383b c69c a4bb 6cab 4cba
000001e0: 6d18 1fbb b287 13ba b8cc a5ba 5649 84ba
000001f0: 3d7c e839 f33a bbb9 1d09 1ebb b606 673a
0.001092551 -0.00321271 0.0012970767 0.0013394958 -0.0017773896 -0.0022621737 -0.0019781247 -0.0028170124
-0.003158763 -0.003110558 0.0018689435 -0.0036263482 -0.0022834444 -0.0033906656 -0.0023676935 -0.0028475446
0.0018895377 -0.0015713504 0.0016010118 -0.0024039121 -0.0026276498 0.00321397 -8.867488e-05 0.0019455636
-0.00078022084 0.00036485022 0.00037412223 0.002446298 -0.001027548 0.0020079082 -0.003789568 0.0024746796
-0.0018678918 -0.0001460209 -0.0024239402 -0.0036412464 0.00023297174 0.0021762727 0.0044484683 0.002638575
0.0052800886 -0.0025675644 -0.0025792308 0.0024290588 0.0038447375 0.001225256 -0.002000906 -0.003747271
0.00077015837 -0.0038779043 -0.002020347 -0.0004887924 0.0011332997 -7.1231065e-05 -0.00165718 0.000772779
0.0021435283 -0.0016004167 0.002847304 0.0048602372 0.0013411635 0.002324113 0.0019062965 0.0038856543
0.0013546878 -0.001341505 0.00031005492 0.0009194326 0.003234879 0.0030317297 0.0015109599 0.0011282755
0.0006061303 0.0034783422 -0.0018670701 0.0030503666 0.003204821 -0.000114843424 -0.0032326796 -0.00356876
-0.00016951031 0.0004889216 -0.0004379121 0.003387128 -0.0033864446 -0.0015258102 -1.7077098e-05 -0.0026755678
1.2163942e-05 0.0013469511 0.0026780088 -0.006548836 -0.0011036822 -0.0002477833 -0.00017606166 -0.0009064931
-0.002645868 0.0005215771 0.0029710538 -0.004576345 0.002959407 -0.0043000765 -0.001941295 -0.0049958476
-0.0028485912 -0.0025996135 0.0019808996 -0.0012298961 0.0032647394 0.0023292 -0.0013497665 -9.063343e-05
0.005284853 -0.0031215374 0.002382073 -0.0014774441 0.0028709902 0.00280773 -0.0050235717 -0.0007807526
-0.0024276034 -0.0005627825 -0.0012649512 -0.0010092657 0.00044343053 -0.0003571134 -0.0024114319 0.00088129507

network_body.linear_encoder.seq_layers.0.weight f4 [128, 6]
00000000: 9398 ccbe 395b 0ebf 0cf9 303f 58c2 bfbe
00000010: a870 a23e fb01 313e 2367 60be 6370 63be
00000020: fe95 f33e 3bc7 edbe 13f6 aabe 9ac9 da3e
00000030: 5e61 1cbf 21c6 9d3e ff98 3dbe 85ac 043f
00000040: 8cb2 623e 53d6 4fbd 5ccf e8be a98d 14be
00000050: a7d3 963d 55de febe 19a5 f0be c42a 4dbc
00000060: a360 0ebe 6fba 213f bfcf 08bf 24cf be3e
00000070: 0475 203f 0dfc 1a3f 606b 0c3f 9cac f6bd
00000080: 8ba4 81be 0d17 22bf 0802 b2be 83e6 96be
00000090: 14ea 05bc 227b e8bd 2eda a2bd 40f9 efbe
000000a0: a3c6 2e3e 0790 9cbd 2fd5 aabe 9bc4 933d
000000b0: 27e2 c4be 6746 9bbe aefc 20be 7ae3 693e
000000c0: df2e 9d3e df0f 1dbe 4dc8 223f bcbc 2fbf
000000d0: ba8c febe 606d 103e 3ff1 dcbe 150f 2f3e
000000e0: 0c69 b33e 5380 4abe 33f8 b53e d19d ae3d
000000f0: 6163 32bf 579b 293e bef6 463f 2aa3 9dbd
00000100: 0923 4cbe f64e f83d 0076 3fbe e5a0 4dbe
00000110: b010 1e3d ae1b 463f a13b e43c 4533 5abd
00000120: a074 2ebf bbf4 b63e 4cd5 e33e a4ce 70be
00000130: 46a4 48be defd 0dbf 4510 d5be c843 12bf
00000140: 843b f3be e522 6bbf c884 7cbe 5f22 eabd
00000150: 8020 43be 6419 e73d 30a4 08be ae1d 6fbf
00000160: 4fa6 7bbe 184b 1c3f f582 ff3e f948 c13e
00000170: 4f65 ddbe b1b6 81be 35d4 a43f 05f2 6a3e
00000180: 71d7 0b3e 5bf1 8ebe 069f 25be edaf 5a3e
00000190: 7511 043e a53d 483e 5903 663d e19e b4be
000001a0: 2399 e5bd 776c 47bf f980 4dbe d1d9 063f
000001b0: 8674 f33d 6a91 31ba c286 07bf f6da 65be
000001c0: 4378 c63e a9e9 5ebe 2487 1e3e c838 ed3d
000001d0: 82c9 f7be 92cf 363e 439b 6d3b 0279 eebe
000001e0: 0d84 bdbe 26fd 19bf c46e 48bf 3bca 13bf
000001f0: 5716 333f 7d8c e43e f783 473e 1183 a4bf
00000200: 55ac 83bc ff74 06bf 0cc6 21be ab4c 40bf
00000210: a1da 0cbf 9495 ec3d c857 4cbd 5c8b 47bf
00000220: 63a8 04bf c9ec 8cbe 253c 6abe a488 91bc
00000230: 6d4c 383e 84d7 cc3e f3eb 19bf 1ca5 cabe
00000240: 3a6d 38be 0317 a23e fbae e43e bf5f e83e
00000250: 6535 4ebf af84 fc3d c094 3e3e 8db6 5bbe
00000260: 93c8 523f c54b 39bf c4e3 6d3e e8ab 883e
00000270: 4475 6f3e e491 dbbe 2014 85be f5bc 0c3f
00000280: 1f11 a93e 9952 2ebe 8c4c f1bd 2bc7 343e
00000290: a19b d13d 9401 0cbe 259e 20be 28c7 dcbe
000002a0: f751 a0bd 661d 5ebe 1854 1c3f 3fa1 eebd
000002b0: e48f 0c3f 93bc 6dbe b6f8 79be 5cb4 8d3d
000002c0: fcf1 333d 0862 52bc b92d 0d3d 48f2 9fbf
000002d0: ff30 293e 4bbe 6bbe 2d6e 51bf f84d 5a3e
000002e0: 79c5 ae3e 6cbc 09bd c5db e2bd 890d 253f
000002f0: f0e7 6f3f 94a3 033e 24cf 95be 3a0c 2ebe
00000300: 5059 63bf c3df 163e cfba 4dbe e35a b5be
00000310: d200 a03d 2554 153f 8f93 973e 0849 62bd
00000320: 37e7 a9be 3280 ea3d d926 9c3e 1711 93bd
00000330: db6b 1cbe b003 953e a98c b23e b559 893d
00000340: 8f2f 063d 60df e23d 9be8 1c3f a69a 0fbe
00000350: e193 babe 61e6 3f3e 980c 933e eb85 11bf
00000360: 4962 403e 70ec 363d 13fd 0fbf 9b15 eebd
00000370: 98a8 a4be f118 dbbe 86f3 823e 484b ddbe
00000380: 5d9f 223f 1f4d bf3e 746d 933e e70d 183f
00000390: 4a0b b0bd fc24 0f3f 4184 173f 68de 1e3d
000003a0: 3832 343c 508b b8be 6c39 fb3d c8ba c5bd
000003b0: e442 5e3d 1e9f e4be c163 45be ce58 713e
000003c0: e1bd cdbd 8164 053f b150 19bd d79c 2b3d
000003d0: 086a c83e 07b6 39bf a16b 973e c261 a0be
000003e0: 4311 a53d 4e42 6cbf 7c10 a03d 0773 5cbe
000003f0: 1447 3d3f 78f6 21bf fce5 a63c 8331 143d
-0.39960155 -0.55607945 0.69130015 -0.3745296 0.31726575 0.17285912 -0.21914344 -0.22210841
0.47575372 -0.46441063 -0.33390865 0.42731935 -0.6108607 0.30815223 -0.18515395 0.51825744
0.22138423 -0.050741505 -0.45470703 -0.14507164 0.07364588 -0.49779 -0.4700096 -0.012522403
-0.13904051 0.631751 -0.53441995 0.3726741 0.6267855 0.6054085 0.5485134 -0.120446414
-0.2532085 -0.6331642 -0.34767175 -0.2947274 -0.008173484 -0.11351611 -0.07951771 -0.4686985
0.17067961 -0.076446585 -0.3336577 0.07215234 -0.3845379 -0.3032715 -0.1572139 0.22840682
0.30699822 -0.15338086 0.63586885 -0.6864736 -0.4971674 0.14104223 -0.43152806 0.17095597
0.35041082 -0.19775514 0.35540923 0.08526195 -0.6968289 0.16563164 0.7772025 -0.07697137
-0.1993524 0.121244356 -0.18697357 -0.20080908 0.038590133 0.77385986 0.027860465 -0.05327155
-0.68146706 0.3573359 0.4449867 -0.23516327 -0.19593915 -0.55465496 -0.41613975 -0.57134676
-0.47506344 -0.9185012 -0.24660027 -0.11432337 -0.19055367 0.1128414 -0.13343883 -0.9340466
-0.2457516 0.61052084 0.499046 0.37750986 -0.43241355 -0.25334695 1.287726 0.22943886
0.13656403 -0.27918515 -0.16173944 0.21356173 0.12897284 0.19554766 0.056155536 -0.35277465
-0.11210849 -0.7789988 -0.2006873 0.5267611 0.118874595 -0.00067736825 -0.5294 -0.22446808
0.38763627 -0.21768822 0.1548124 0.11583096 -0.48395926 0.1785262 0.0036255873 -0.46576697
-0.3701481 -0.601519 -0.78294015 -0.57730454 0.6995596 0.44638434 0.19483934 -1.2852498
-0.016073385 -0.5252227 -0.15798205 -0.75116986 -0.550211 0.11551967 -0.049888402 -0.7794702
-0.5181944 -0.27524403 -0.22874506 -0.01776535 0.17997904 0.40008175 -0.60125655 -0.39579093
-0.18010417 0.31658182 0.4466475 0.45385548 -0.80550224 0.12329995 0.18611431 -0.21456356
0.823373 -0.7238124 0.23231417 0.26693654 0.23384577 -0.42884743 -0.25991917 0.54975826
0.33020875 -0.17023696 -0.11782178 0.17654102 0.10234762 -0.13672477 -0.15685327 -0.43120694
-0.078281336 -0.21690902 0.61065817 -0.11651849 0.5490706 -0.23216467 -0.24411282 0.069191664
0.043931946 -0.012840755 0.034467433 -1.2495813 0.16522597 -0.2302181 -0.8180874 0.21318805
0.34135035 -0.03362696 -0.11077074 0.6447378 0.93713284 0.12855369 -0.29259598 -0.16996852
-0.88808155 0.14733796 -0.20090793 -0.35420904 0.078126565 0.5833152 0.29604766 -0.05524543
-0.33184215 0.114502326 0.30498388 -0.07180994 -0.15275519 0.29104376 0.3487294 0.067065634
0.0327602 0.11077762 0.6129243 -0.14023837 -0.36440948 0.18740226 0.28720546 -0.5684497
0.18787493 0.044659078 -0.56245536 -0.11625215 -0.32159877 -0.42792466 0.2557642 -0.43221498
0.6352442 0.37363526 0.28794444 0.59396213 -0.08595903 0.5591581 0.5918618 0.038786322
0.010998301 -0.36043787 0.12266812 -0.09654766 0.05426301 -0.44652647 -0.19276334 0.23569033
-0.10045982 0.5210648 -0.03743047 0.04189762 0.39143395 -0.72543377 0.29574302 -0.31324583
0.08059933 -0.9228867 0.07815644 -0.21528254 0.7393658 -0.63266706 0.020373337 0.03618003

network_body.linear_encoder.seq_layers.2.bias f4 [128]
00000000: 834a 113b 1fb0 273b c1bb 4f3b 0e6f a03b
00000010: 4c21 16bb ad5f 4bba dfeb 88bb f712 823a
00000020: e9c7 81ba e1ad e23a c70a a338 e02f 123b
00000030: 6ac6 22bb 4967 693b 58bb f73a 6a7e 31bb
00000040: 9e44 efba 4803 113b 96f2 fa3a 4cba 1837
00000050: 3e39 3c3a f4b2 62bb d2fd c9ba 0910 3eba
00000060: e87d 0dbb 9e46 41bb c041 45ba 281d 103b
00000070: 40d2 323b 020b 98ba 70a4 50bb be55 e43a
00000080: 9c8b 553b bfd7 d539 f421 66bb 06bd c1b9
00000090: f9aa dc3a ce8f ba3a 5c26 3ebb 2439 7abb
000000a0: da4a d039 5744 b6ba a5c9 743a 70ab 4cba
000000b0: 897e 60ba 1775 f63a a695 5abb 4143 a93a
000000c0: acfd 8ebb 8eee 58ba 55d0 f73a 342a 1a3b
000000d0: f055 a4ba eeac 9dba 07f8 1b3b eec8 15bb
000000e0: dfaa 893a ab39 15bb d950 093b a00c 9c3a
000000f0: 5577 13bb cfc1 373b 6697 833a 42ef caba
00000100: 3d54 2039 f2c7 56bb f9b1 fdba 39c9 0bbb
00000110: d2a2 4bbb fc14 08bb 1ed0 11bb fa0f 63ba
00000120: fcba e3ba 2f2d 04bb df14 57bb ec2a 6fba
00000130: cce7 173b 9931 b53b 9b81 603b b2fa 6dbb
00000140: 916c 09bb 991b 61bb 647e 93bb 526f b43a
00000150: a655 0abb 3463 4e3b abce 7a3a d218 a7bb
00000160: 4e07 f43a 75b6 2dbb 3d7b 04bb c9a8 343b
00000170: 9fb7 8b3a 7c6d 0dbb 88f2 fd3a d300 25bb
00000180: 11b8 28bb e49e 30ba 0b6a c3ba 243a 01bb
00000190: 198a 3e3b c057 d73a c50c 1f39 ff30 57ba
000001a0: 9cad b8ba 1496 6fbb 8d9d aeba be01 45bb
000001b0: c6d1 3bbb 4e1a a5ba 3aac 363b 6d2c d53a
000001c0: ced8 e9ba 4c57 db3a 66f4 033b ded2 9039
000001d0: e6cd 043b 5652 2abb 17ba 983b 03a1 eeb9
000001e0: 5a1e 38bb 4cf8 853a 3bcc 3a3b 6191 1b3a
000001f0: 861b 1abb fd58 033b e158 20bb fdeb d7ba
0.0022169657 0.0025587154 0.0031697603 0.0048960513 -0.002290803 -0.0007758092 -0.0041785087 0.0009923865
-0.0009901497 0.0017294252 7.774453e-05 0.0022306368 -0.0024837502 0.0035614541 0.0018900437 -0.0027083405
-0.0018254702 0.00221272 0.0019145783 9.103282e-06 0.00071801606 -0.0034591528 -0.0015410727 -0.0007250314
-0.0021589939 -0.0029491554 -0.0007524751 0.0021990035 0.0027285963 -0.001159996 -0.0031836294 0.0017420573
0.0032584434 0.0004078727 -0.0035115452 -0.00036952662 0.0016835622 0.0014233531 -0.0029014563 -0.003818103
0.0003972862 -0.0013905865 0.00093379087 -0.00078075286 -0.0008563777 0.0018803206 -0.0033353358 0.001291372
-0.004363736 -0.00082752935 0.0018906692 0.002352369 -0.0012537818 -0.0012029686 0.002379896 -0.002285536
0.0010503194 -0.0022769968 0.002095273 0.0011905618 -0.0022501547 0.0028039103 0.0010039627 -0.0015482681
0.0001529017 -0.0032772985 -0.0019355408 -0.0021329655 -0.003107239 -0.002076446 -0.0022249292 -0.00086617435
-0.0017374451 -0.0020168533 -0.0032818837 -0.00091235223 0.0023178933 0.005529594 0.0034256938 -0.0036312756
-0.0020969252 -0.0034348725 -0.004501151 0.0013766086 -0.002110818 0.0031492235 0.0009567539 -0.0050993944
0.00186179 -0.0026506458 -0.0020215057 0.0027566424 0.0010659582 -0.002158015 0.0019374648 -0.0025177493
-0.0025744478 -0.0006737544 -0.0014908923 -0.0019718492 0.0029074012 0.001642935 0.00015168179 -0.00082089
-0.0014089826 -0.003655796 -0.00133221 -0.0030060853 -0.002865897 -0.001259634 0.002787365 0.001626385
-0.0017841102 0.001673439 0.0020134686 0.0002762293 0.0020264327 -0.0025989017 0.0046608555 -0.0004551486
-0.0028094263 0.0010221093 0.0028503079 0.0005934444 -0.002351494 0.0020042055 -0.0024467038 -0.0016473528

network_body.linear_encoder.seq_layers.2.weight f4 [128, 128]
00000000: c82d 17bd b67c 9f3d 0456 dc3c dc76 fbbd
00000010: 838a 19be ae8c fe3d 1f7e 9abc cf5d 203e
00000020: 843b 9ebb 5d81 013e 40a6 913d 9b83 f4bd
00000030: 9ead b33d c1d8 e73c 284a 093e 752c a7bd
00000040: 8f71 cb3d 699e 86bc ebf3 31bd 9491 443d
00000050: d37b 4a3e 1d81 633c 0bfb a5bd 8181 46bd
00000060: ea80 0c3d ec33 233d 3dae 40ba c761 a23d
00000070: 1e9d 303c 9f4c a3bc c1b2 f0bc 73a1 a63d
00000080: 288a 20be 2989 b2bb 25f4 c63d 2c06 debd
00000090: 0abe b7bd ea41 b43d 9655 da3d 6485 2d3e
000000a0: cbe4 f33d 3fd0 6f3d a5d3 e1bd 8df6 a43c
000000b0: d024 10bd f27f c73c c2e6 9fbd b276 453d
000000c0: e874 fa3d cae5 163d bed6 81bd 2b73 d2bc
000000d0: 790e 2dbd 30a0 5cbd 7ae1 09be b159 2c3e
000000e0: a2a0 a5bd ca3b bd3d 3ecf 35bd ed26 9f3d
000000f0: 290c e0ba 97b5 bebc 9e75 a6bd 5e63 a23b
00000100: d0f8 0ebd 2410 003d d9cf aa3d dd1f b33d
00000110: 27c8 273e fab1 25be b9bd 193e d8da 5bbb
00000120: ed3f b73d b906 4a3d 4f43 1f3b 7bdc 78bd
00000130: 3bdd e7bc cc2a 383d 71b5 913d a849 01be
00000140: 9ca3 51ba 20e7 23be 8fd2 4f3e 5e3c ab3d
00000150: 7455 c0bd b9a4 28bc d343 ec3c 3a2c a9bc
00000160: d124 87bd c8a4 b1bd aef7 a43d 1796 a33c
00000170: 2652 4e3d fda1 1bbd c39c e2bd a40d 043e
00000180: b5da 53be 580e 703c 63ca 91bd 04a3 f7bd
00000190: b375 953d 30a5 5abd 7b4f 68bc 6fda bbbd
000001a0: 5801 e3bd a3ec d2bc ebac 3a3e 2b05 c3bd
000001b0: 20ff ce3d ee97 ce3d ab43 e1bd 5220 0a3d
000001c0: a5b2 c73b 45f2 a3bc c290 823d ffc6 27be
000001d0: 0ec9 e03b 31cb 01bc 8a3c cdbd bc6c c0bd
000001e0: 79c7 c3bd 8db6 a63c b109 063e 0d67 8a3e
000001f0: 81cd 063e 1c09 da3d 6764 00bd 2ec2 1b3d
00000200: 6589 f23a 0e86 c33d c701 c7bc 9ae2 f43c
00000210: f2ed abbc 6b59 4dbb 5a0d f83d 3702 4fbd
00000220: 54af 6ebd 6528 63bc a716 d63d d977 b9bd
00000230: dd80 02be ee2a 35bd 67b3 fd3d 8849 3f3d
00000240: aecc 813c 453a a93d 9f86 373d a499 e3bc
00000250: 3e35 9cbd 7514 05bd baab d23d 6026 99bd
00000260: d269 59be e939 21bd 1462 0fbe 793a efbc
00000270: f15c bd3c f0b5 dfbc 7130 7dbd 15f4 703a
00000280: 8fc0 8abd f324 24be e5ff a4bd 9b14 05be
00000290: 2cf5 d43d f5b5 e33d 8c35 7e3d 3a8e 073e
000002a0: f9b4 603a 2466 8bbc 2594 78bd fe62 3b3e
000002b0: 4cae 953d 2dde 02bd 1d5f 63bd b8f8 26bd
000002c0: 8601 b63d 41de 963d b007 9c3d d531 653e
000002d0: 99f2 3abd ac49 b1bc 65c7 df3d 5391 483e
000002e0: 905a 46bc 6111 4b3d c355 1dbd 9680 e73c
000002f0: 579e 2f3d b286 143e 505c 393d 73d8 a73c
00000300: 5e26 a1bd d819 58bc 475f 9d3d 4742 57bc
00000310: 2db9 813d 306f 313d e86e 20bd 1874 6cbd
00000320: 89e7 f9bd 22d7 dfbd 7031 973d dce1 4b3e
00000330: 2dbb 3d3c b2f7 963d 613e 213e 3d4f 8d3d
00000340: 7448 de3d 812b 193e bfc5 d53d 019f 743e
00000350: 5def 953d 0d04 dfbd 78dd 60bd 3f8e 55be
00000360: e239 c43d 637d eb3d 6004 acba 7f7b 90bc
00000370: 9f25 19bd da10 d63b f6e0 cd3d b220 463b
00000380: 0a86 4d3d a054 053d a6ff 7abd 60fc b7bd
00000390: 3645 85bc dc39 3ebd cc26 0b3d b82e b1bc
000003a0: 9e91 a23d 0b21 e43b 2ae1 613d 3566 7abd
000003b0: 9c39 8fba dd25 313e ef98 87bd 6303 d53d
000003c0: 2f1d 963a e9c8 19be 268a 8cbd 0cf5 d9bc
000003d0: 5e1d 25bd ea3e e7bc a231 413c 1c87 983d
000003e0: 8051 9bbc 2db6 993d af1f 013c 7a95 afbd
000003f0: 63e1 58be 5968 0dbe be3a f6bd 8fe0 e43d
-0.036908895 0.077874586 0.026896484 -0.1227853 -0.14994244 0.12429176 -0.018858967 0.15660785
-0.004828872 0.12647004 0.07111788 -0.11939164 0.08773349 0.028301599 0.13407195 -0.081627764
0.09933769 -0.016432958 -0.04344551 0.047990397 0.19773798 0.0138857635 -0.08104523 -0.04846335
0.03430263 0.03984444 -0.0007350182 0.07928806 0.010779647 -0.019933997 -0.029382112 0.08136263
-0.15677702 -0.0054484797 0.097145356 -0.10841021 -0.08971794 0.088016346 0.106608555 0.16945416
0.11908873 0.05854821 -0.11026696 0.020137096 -0.035191357 0.024353001 -0.078076854 0.0482089
0.12229329 0.036840238 -0.06339787 -0.025689682 -0.04225013 -0.053863704 -0.13464919 0.1683109
-0.08087279 0.092399195 -0.044387095 0.077710964 -0.0017093468 -0.023279948 -0.081279024 0.004955693
-0.034905255 0.031265393 0.08340425 0.08746312 0.16384946 -0.16181174 0.1501378 -0.003354719
0.0894774 0.049322817 0.0024301594 -0.06075714 -0.028303733 0.04496269 0.07114685 -0.12625754
-0.0007997097 -0.16006136 0.20295165 0.083611235 -0.09391299 -0.010293179 0.028840935 -0.020650972
-0.06598819 -0.08674008 0.08055054 0.01996903 0.05037131 -0.03799628 -0.11065056 0.12895828
-0.20688899 0.014651857 -0.0711868 -0.1209164 0.0729784 -0.05338019 -0.014179106 -0.09172522
-0.11084241 -0.025747603 0.18230025 -0.0952247 0.10107255 0.10087572 -0.10999235 0.03372223
0.006094294 -0.020012984 0.063752666 -0.16384505 0.006859905 -0.00792198 -0.100213125 -0.093957394
-0.09559531 0.020350719 0.13089634 0.27031747 0.13164331 0.10646269 -0.03134575 0.03802698
0.0018504082 0.09547053 -0.02429284 0.029893208 -0.020987485 -0.0031333815 0.121119216 -0.05053922
-0.058272675 -0.013864611 0.10453539 -0.09056062 -0.1274447 -0.044230394 0.12387734 0.046700984
0.01584467 0.08263067 0.04480612 -0.027783222 -0.07627343 -0.032490212 0.102866605 -0.074780226
-0.21231773 -0.039361868 -0.14002258 -0.029202687 0.023115607 -0.027308434 -0.061813775 0.00091916445
-0.06775009 -0.1602972 -0.080566205 -0.12996142 0.10398325 0.1111869 0.062062785 0.13237849
0.0008571889 -0.017016478 -0.060688157 0.18299481 0.07308635 -0.031950165 -0.05551063 -0.04076454
0.08887009 0.0736661 0.07618654 0.2238229 -0.045641515 -0.021641575 0.10926703 0.19586687
-0.012106553 0.04957712 -0.038411867 0.028259557 0.042875614 0.14504507 0.04525405 0.020488953
-0.07868646 -0.013189755 0.07684188 -0.01313836 0.063341476 0.043318927 -0.03916827 -0.057727903
-0.12202365 -0.10929705 0.07382476 0.19910377 0.011580271 0.07371463 0.15746452 0.06899879
0.10853663 0.14958002 0.10438108 0.2388878 0.073210455 -0.108894445 -0.05489871 -0.20855044
0.09581353 0.11498525 -0.0013123862 -0.017637013 -0.037389394 0.0065327706 0.100526735 0.003023189
0.050176658 0.032551408 -0.06127896 -0.089836836 -0.016268354 -0.046441898 0.033972546 -0.021628723
0.079379305 0.006961947 0.055146374 -0.06113263 -0.0010927203 0.172996 -0.06620967 0.104010366
0.0011452789 -0.15018047 -0.06862287 -0.026606105 -0.04031121 -0.028228242 0.011791619 0.07447645
-0.01895976 0.075054504 0.007881089 -0.08573432 -0.21179728 -0.13809337 -0.12022923 0.11175644
