results/test4/HitTheBall/HitTheBall-896.onnx (onnx, 74062 bytes, 8 tensors)

action_model._continuous_distribution.log_sigma f4 [1, 2]
00000000: 0000 0000 0000 0000
0.0 0.0

action_model._continuous_distribution.mu.bias f4 [2]
00000000: 0000 0000 0000 0000
0.0 0.0

action_model._continuous_distribution.mu.weight f4 [2, 128]
00000000: 8430 4cbc a023 d3bc a52e 763c 67bc b83b
00000010: b852 983b c800 0c3b d53f c83b 57ad 4d3b
00000020: afef 313b a754 afbc e2b2 a83c 8b63 67bb
00000030: 5d0c 64bb d05d a83c e63a 823c 879a 753a
00000040: f082 4f3a 23fd d4bb 3468 c2bc ebef 643c
00000050: 98d8 dcbc bf78 f83b 3f94 c73c e493 c53c
00000060: 2532 09bd f7dc 553c 06c7 093c 4111 9f3b
00000070: 1500 973c 1640 90bb 0b4b a13c 017b 2dbc
00000080: 8b84 bc3b f383 5dbb e295 0abc e2dd 99bc
00000090: da21 393b bb63 45bc e305 e1bb e59f b5bc
000000a0: c716 483c 4763 bb3c 9829 7a3b 08ab 913b
000000b0: ca1b 79bc d0cf 52bb 9abf 63bc 6706 b439
000000c0: 0f6b b03b b5b9 963c 42dd 7e3c eb69 923c
000000d0: 3634 4cbd 8b79 9c3c af26 593c c3bd cfbc
000000e0: 6df2 3d3c e337 6e3c 0752 50bc 9cae c63c
000000f0: 995f aebc 94dc 023d dbcc 4c3c 6a98 b93a
00000100: 9f35 55bc b4b5 1dbc 1a8c 8cba a843 e63b
00000110: 1594 a03b 1777 a63c aba0 06bd 5cd0 00bc
00000120: 3fac 6bba a8b0 bc3b cb57 ccbc 4b6c f0bb
00000130: f383 783c 1f17 07bb c1ed 113d c73f fcbc
00000140: d000 f3bc 4581 50b9 1556 edbb 0f85 403b
00000150: 827f d63c d5fc 44bb 6365 81bc 576b 913c
00000160: 87f7 75bb 2bc2 963c 7fc6 b0bc 65a3 f4bb
00000170: eeb7 08bc 7665 35bc c3fb e8bc d8b0 953b
00000180: 8990 003c c753 86bc 1475 a6bb b607 9ebc
00000190: 520c d5bc dfdb 84bc 9011 d0bb f3f4 4fbc
000001a0: 75c4 c83b a033 663a 6f2b da3b 07c8 153c
000001b0: 1bde 9a3c d806 333a d8ab d2bc 8b8b 2dbc
000001c0: fdc9 d23c a809 e3ba cc8b a2bc fa64 4d3c
000001d0: 0728 07bb 0873 223a 56d4 343d 5759 39bc
000001e0: 6e09 093a 0b62 7ebb abb0 afbc 4be1 d9bc
000001f0: e755 8fbc 196e 28bc a665 95bc cec4 323c
00000200: fbcd 0a3d c90f 803a 8ff9 34bc b583 5bbc
00000210: 8fff a53b a93c b63c 2519 b8bb 4af0 e63c
00000220: 722d febb 1f53 13bd 7d27 b6bc 08d7 d23c
00000230: 7c80 bb3c c1db c93b 2fc0 f8bc c345 0e3c
00000240: ef41 54bc 87e9 1d3c 7111 9c3c 635a 81bc
00000250: 8b35 96bc 33ab 40bc 8a23 883c 36d8 21bd
00000260: 82ff 60bc e943 83bc 2208 94bb 3f36 c63c
00000270: eb1a 8f3a bab1 64bb 27c0 64bc 1272 9abb
00000280: e07f 45bc 325e 833b f43a b2bc 9df6 0abd
00000290: 2aee 04bd f048 75b9 c064 dcbb d5fb 53bc
000002a0: 27e7 61bc 4e65 8ebc df3f 3fbd 400b dc3c
000002b0: 64d1 b73c fd80 efbb 8a09 4dbc 164c 953c
000002c0: d873 cbba fda5 57ba 0566 983b d2a4 ea3c
000002d0: 936c 753c 6073 993b bca1 c33b 6273 32bc
000002e0: db8f f23c cb01 bb3c 226f f4bb 471a c6bc
000002f0: 80e2 1e3c 9467 c33b 2375 c23a 1799 e13b
00000300: ed0a 893b 5570 eabb d369 2fbc 33d7 c23c
00000310: d4e5 c8bc 639c c2bb d85d 603c f7dc 0dbd
00000320: 3f1a a4bc 13c5 27bd 3b03 bebb 839c 013d
00000330: 1b3c 613c b7dd 5b3b b7d2 2ebc bf31 6d3c
00000340: 1f40 0a3c 56b6 95bc cda8 823c 27fa a33c
00000350: 48a7 81ba 58cb f33a c741 ae3c 373d 413b
00000360: 6b91 173c a91c 163c 3530 673c 40e8 7fbc
00000370: 279b 43bd cf75 933b 488c d1b9 2a4b df3c
00000380: 75f3 17bc 0b76 27bc 1b3c d2ba ddee e53c
00000390: c12a 3abc d32e 003c 7326 f3bb 631f 83bc
000003a0: 6c57 44bb 90ca adbc d7d2 aabc d34c d6bb
000003b0: 296d 993c 58f1 5ebc 49b9 9538 1cdb 353b
000003c0: d900 bcbb cf68 b23c 95f5 d8ba 5b23 a73b
000003d0: 3e68 1a3c 7f60 4fbc 8bd8 55bc d898 83bc
000003e0: 1fa0 543d c8b7 4dbc 9829 323c adf9 cb3c
000003f0: f30e 0cbc 4299 2fbc dd7e d7bc 868d 91bb
-0.012462739 -0.025773823 0.015025769 0.0056376937 0.0046485327 0.002136277 0.006111125 0.0031383836
0.002715092 -0.02140267 0.02059311 -0.0035307135 -0.0034797408 0.020552546 0.015897226 0.00093690347
0.00079159345 -0.006499903 -0.023731329 0.0139732165 -0.026958749 0.0075827534 0.024362681 0.024118371
-0.033495087 0.01305317 0.008409267 0.0048543517 0.018432656 -0.004402171 0.019689104 -0.010588408
0.005753105 -0.0033800572 -0.008458586 -0.01878256 0.0028248937 -0.012047703 -0.006867157 -0.02217097
0.012212462 0.022874488 0.0038171764 0.0044454373 -0.015204379 -0.0032167323 -0.013900662 0.00034337046
0.005383856 0.018399099 0.015555682 0.017872771 -0.04985448 0.019100925 0.013253852 -0.02535904
0.011593443 0.014539692 -0.012714869 0.024253182 -0.021285819 0.03194864 0.012500013 0.0014159803
-0.013013273 -0.009625841 -0.0010722906 0.007027108 0.0049004653 0.020320458 -0.03286807 -0.007862177
-0.0008990205 0.0057583638 -0.024944207 -0.0073371283 0.015168178 -0.0020613146 0.03562713 -0.03079213
-0.029663473 -0.00019884582 -0.007242928 0.0029376184 0.026183847 -0.0030057926 -0.015795415 0.017751379
-0.003753157 0.018403133 -0.021579025 -0.007465767 -0.0083446335 -0.011071553 -0.028440362 0.0045682006
0.00784696 -0.01639737 -0.005079875 -0.019290786 -0.026006851 -0.016218124 -0.00634975 -0.012692678
0.006126935 0.00087814964 0.0066580097 0.0091419285 0.018904736 0.0006829328 -0.025716707 -0.010592352
0.025731081 -0.0017321603 -0.019842051 0.012536282 -0.0020623223 0.00061969506 0.04414781 -0.011312804
0.00052275404 -0.0038815762 -0.021446547 -0.026596686 -0.017497016 -0.010280156 -0.018236946 0.01091118
0.033887845 0.0009770329 -0.0110458275 -0.013398101 0.0050658653 0.022245722 -0.005618232 0.02819075
-0.0077568823 -0.035967942 -0.022235626 0.0257373 0.022888415 0.00616023 -0.030365078 0.008683625
-0.012955173 0.009638197 0.019051285 -0.01579017 -0.018336078 -0.011759567 0.016618509 -0.039512835
-0.013732793 -0.016023593 -0.004517571 0.024195788 0.0010918056 -0.0034895972 -0.013961828 -0.0047133053
-0.012054414 0.0040090317 -0.021756627 -0.033926595 -0.032453693 -0.00023392192 -0.0067258775 -0.012938459
-0.013788021 -0.01738229 -0.04669177 0.026860833 0.022438712 -0.007309078 -0.012514481 0.018224757
-0.0015522195 -0.00082263333 0.0046508336 0.028643046 0.014979499 0.004682943 0.005970208 -0.010891767
0.029609611 0.022828003 -0.007459537 -0.024182452 0.0096975565 0.005963275 0.0014835935 0.006884705
0.0041822107 -0.0071545043 -0.010706383 0.023784256 -0.024523653 -0.005939053 0.013694249 -0.034634557
-0.020032046 -0.04095943 -0.005798725 0.0316434 0.01374724 0.00335489 -0.0106703555 0.014477192
0.008438139 -0.018275421 0.015949631 0.020016743 -0.0009891773 0.001860003 0.0212716 0.002948595
0.009250979 0.009162107 0.014110615 -0.015619338 -0.047755387 0.004500128 -0.00039968104 0.02725752
-0.009274353 -0.010221015 -0.0016039641 0.028068 -0.011362732 0.007823664 -0.007420355 -0.016006177
-0.0029959334 -0.021214753 -0.02085249 -0.00653992 0.01872881 -0.0136073455 7.139386e-05 0.0027749008
-0.0057374057 0.021778492 -0.0016552681 0.0051006502 0.009424267 -0.012657284 -0.013052116 -0.016064093
0.051910516 -0.012556024 0.010874175 0.024899328 -0.008548486 -0.010717692 -0.02630561 -0.0044419197

action_model._discrete_distribution.branches.0.weight f4 [1, 128]
00000000: ae34 053a 6a2c 19bc 5e81 93bc d82e ddbb
00000010: fafb 43bc 30df 053c bd17 f7bb c409 843b
00000020: 17b5 0a3c fb4b 86bb 2f0d 64bc 1f73 23bb
00000030: c84a 34bb fb3d 683c 4193 42bb 82c3 aebb
00000040: 2b1b fdbb f8a3 a13a 95db 65bc aca0 943b
00000050: f0aa 733c 53d1 7a3b 9792 9cbb 36dd 263c
00000060: bd9a ad3a 00b8 41bb 876a e5bb 6003 fb3a
00000070: 5267 c2bb cfd2 61bc baa6 f9bb 132d 74bc
00000080: fb8f 39bc b7cd 82bc f399 29bb 7425 903c
00000090: 7742 a03b 522a 13bb e53f feba 99e5 02bc
000000a0: 18fa afbc bb37 c73a 4b25 fbba 9020 dfbb
000000b0: db00 16bc eb2b 2a3c 3b6a 0ebc 5659 823b
000000c0: 3498 05bb c897 eb39 7ff6 a3bb 83f1 a43b
000000d0: dbd5 463c 581a 96ba 0342 23bc 83ca 2f3c
000000e0: 80e3 5fbc daa1 313c 7892 ffbb a3b0 093c
000000f0: e69e 863b 48a4 0d3b bc69 af3b 2e98 0e3c
00000100: 5b3d 003c 9396 e83a 202c bdb9 a24a 493c
00000110: 6953 46bb e0d8 db3b 4701 a03a 4c0f 443c
00000120: 005a fd3b 915d 1b3c 4473 a8bb db60 fbba
00000130: 08f0 edbb 523f 78bc 6362 1cbc e108 9ebc
00000140: 487d d3bb 685a 88bb 3887 1c39 eb6a a039
00000150: cbf5 143c 84fa 383c 7bfa 213b 5f3c b1ba
00000160: 3328 4fbb cacf cd3b 2bd9 8ebb 7f74 babb
00000170: 9a0e 5f3a f468 b83b cbe6 10bb 4bd0 4abb
00000180: f06e ed39 83ed a6bb 8233 02b9 cc22 0f3b
00000190: ede1 e73b fbcc c8b9 ca05 68bc 1da1 4cbc
000001a0: eab6 6039 99a6 8b3b 828d 673c f78e e6ba
000001b0: ed41 43bc e203 69bc c9ff 94bc 633b b4ba
000001c0: 97ff 32b9 1fce a4bb 5b09 2e3c 6ae8 6ebc
000001d0: 4ca5 843c 3df7 ccbb 336c 513c 225d b5bb
000001e0: 235a e83b 089c f93a 4557 e9bb 5bd9 07bb
000001f0: 88b4 543a d3db 3b3c 473f cfba 1e80 443b
0.0005081397 -0.009348968 -0.018006023 -0.006749969 -0.011961931 0.008170888 -0.0075406716 0.0040294845
0.008466027 -0.004098413 -0.013919159 -0.0024940444 -0.0027510393 0.014174934 -0.002968982 -0.005333365
-0.007724186 0.0012332192 -0.014029403 0.004535755 0.014872298 0.003827174 -0.004778217 0.010184577
0.0013244968 -0.0029559135 -0.0070012244 0.0019150786 -0.005932727 -0.013783171 -0.0076187523 -0.014903325
-0.0113258315 -0.015967233 -0.0025879114 0.017595984 0.0048907357 -0.0022455645 -0.0019397704 -0.007989311
-0.021481559 0.0015199104 -0.0019160894 -0.0068093017 -0.009155477 0.010386447 -0.0086923195 0.003977935
-0.002038491 0.0004493578 -0.00500375 0.0050336733 0.012135948 -0.0011451943 -0.009964469 0.010729435
-0.01366508 0.010841811 -0.007799443 0.00840393 0.0041082976 0.0021612812 0.0053531807 0.008703275
0.007827128 0.001774507 -0.00036081765 0.01228586 -0.0030262119 0.006709203 0.0012207412 0.011966538
0.007731676 0.009482757 -0.005140694 -0.0019178645 -0.00726128 -0.0151518155 -0.009544942 -0.019291343
-0.0064541437 -0.004161168 0.00014927692 0.00030597238 0.009091805 0.011290196 0.0024715948 -0.001352202
-0.0031609654 0.006280874 -0.0043593845 -0.005690157 0.00085089507 0.0056277458 -0.002211022 -0.0030946906
0.00045286817 -0.0050942316 -0.00012416954 0.002184081 0.007076493 -0.00038299695 -0.0141615365 -0.012489584
0.00021430445 0.0042618033 0.014132859 -0.0017590214 -0.011917573 -0.014222117 -0.018188374 -0.0013750609
-0.00017070617 -0.0050294544 0.010622348 -0.014581779 0.016192101 -0.006255059 0.012782144 -0.005534784
0.0070908233 0.0019043693 -0.007120999 -0.002072892 0.00081140595 0.011465984 -0.0015811705 0.002998359

network_body.linear_encoder.seq_layers.0.bias f4 [128]
00000000: 0000 0000 0000 0000 0000 0000 0000 0000
00000010: 0000 0000 0000 0000 0000 0000 0000 0000
00000020: 0000 0000 0000 0000 0000 0000 0000 0000
00000030: 0000 0000 0000 0000 0000 0000 0000 0000
00000040: 0000 0000 0000 0000 0000 0000 0000 0000
00000050: 0000 0000 0000 0000 0000 0000 0000 0000
00000060: 0000 0000 0000 0000 0000 0000 0000 0000
00000070: 0000 0000 0000 0000 0000 0000 0000 0000
00000080: 0000 0000 0000 0000 0000 0000 0000 0000
00000090: 0000 0000 0000 0000 0000 0000 0000 0000
000000a0: 0000 0000 0000 0000 0000 0000 0000 0000
000000b0: 0000 0000 0000 0000 0000 0000 0000 0000
000000c0: 0000 0000 0000 0000 0000 0000 0000 0000
000000d0: 0000 0000 0000 0000 0000 0000 0000 0000
000000e0: 0000 0000 0000 0000 0000 0000 0000 0000
000000f0: 0000 0000 0000 0000 0000 0000 0000 0000
00000100: 0000 0000 0000 0000 0000 0000 0000 0000
00000110: 0000 0000 0000 0000 0000 0000 0000 0000
00000120: 0000 0000 0000 0000 0000 0000 0000 0000
00000130: 0000 0000 0000 0000 0000 0000 0000 0000
00000140: 0000 0000 0000 0000 0000 0000 0000 0000
00000150: 0000 0000 0000 0000 0000 0000 0000 0000
00000160: 0000 0000 0000 0000 0000 0000 0000 0000
00000170: 0000 0000 0000 0000 0000 0000 0000 0000
00000180: 0000 0000 0000 0000 0000 0000 0000 0000
00000190: 0000 0000 0000 0000 0000 0000 0000 0000
000001a0: 0000 0000 0000 0000 0000 0000 0000 0000
000001b0: 0000 0000 0000 0000 0000 0000 0000 0000
000001c0: 0000 0000 0000 0000 0000 0000 0000 0000
000001d0: 0000 0000 0000 0000 0000 0000 0000 0000
000001e0: 0000 0000 0000 0000 0000 0000 0000 0000
000001f0: 0000 0000 0000 0000 0000 0000 0000 0000
0.0 0.0 0.0 0.0 0.0 0.0 0.0 0.0
0.0 0.0 0.0 0.0 0.0 0.0 0.0 0.0
0.0 0.0 0.0 0.0 0.0 0.0 0.0 0.0
0.0 0.0 0.0 0.0 0.0 0.0 0.0 0.0
0.0 0.0 0.0 0.0 0.0 0.0 0.0 0.0
0.0 0.0 0.0 0.0 0.0 0.0 0.0 0.0
0.0 0.0 0.0 0.0 0.0 0.0 0.0 0.0
0.0 0.0 0.0 0.0 0.0 0.0 0.0 0.0
0.0 0.0 0.0 0.0 0.0 0.0 0.0 0.0
0.0 0.0 0.0 0.0 0.0 0.0 0.0 0.0
0.0 0.0 0.0 0.0 0.0 0.0 0.0 0.0
0.0 0.0 0.0 0.0 0.0 0.0 0.0 0.0
0.0 0.0 0.0 0.0 0.0 0.0 0.0 0.0
0.0 0.0 0.0 0.0 0.0 0.0 0.0 0.0
0.0 0.0 0.0 0.0 0.0 0.0 0.0 0.0
0.0 0.0 0.0 0.0 0.0 0.0 0.0 0.0

network_body.linear_encoder.seq_layers.0.weight f4 [128, 6]
00000000: a61b 0dbe 5759 80bf 6f76 813e 88f0 e53e
00000010: e0a9 e53d 16fd 233f 25c0 093f fd32 6a3e
00000020: 0825 8dbb 114a cc3d 636e 4c3e 43b9 6bbe
00000030: 1cdc cdbe bfc3 80be 9168 87bd f486 3abe
00000040: 8c93 17bf 29b9 923e e460 473e bb73 573f
00000050: 535f a23e 6dc2 9e3e 5a4f 143e f2bb dbbe
00000060: 9c5a c9be 12c0 f53e 9f68 bdbb d9cf 09bf
00000070: 1a5c 1dbe 3508 fc3e 6b6b 673e 5294 fcbe
00000080: e217 f1bc 5c81 ab3e 15b5 3abe b9b3 0ebd
00000090: b8d1 313f f293 593e e2c9 e3be c32f 5fbf
000000a0: 6adb b53d 3218 a23a 28ff 0d3c e2e1 38bf
000000b0: 9adb bd3e 816e c3bd f7b3 cb3e e753 54be
000000c0: cc5b 3bbf fded 163f 335f babe 8aa2 163e
000000d0: 818f 8c3d 437d 353e 884d 78bd 1d80 543e
000000e0: 0f75 1ebd aa8c d7be a0aa 1cbe 96e5 fabd
000000f0: fdba a13e 550a 133e b2e7 b5be b5c8 283e
00000100: d819 20bf 16af 11bf fdfb 22be 754c ad3d
00000110: ac07 b2be a56d cb3d e007 d53e 02e6 f93e
00000120: f406 04bf 2e4d 7cbf cdb5 563e b3b0 1eba
00000130: 6f31 4e3e f231 0dbf eff6 06be 656d 503e
00000140: 6282 63bd fc11 88be 64f4 0abe 68a5 30bf
00000150: 15c5 8e3e 4a72 703e 6cd1 3c3f e565 453e
00000160: 076f 3e3e 28bf cb3e 1049 133f 0cd9 26bf
00000170: 0abc 8a3e 2005 0dbe 9f5f 45be 7b2e a8be
00000180: f43c f03e 6f96 f2bd daa5 9c3e f032 033f
00000190: faa2 9abe 4b52 0e3f 82d3 e3be abc5 d7be
000001a0: e122 2cbe 22e8 77bd f10b 14be 43f5 17bd
000001b0: bca0 433f fa7e b3be b54b 04bf 8baa 88bd
000001c0: 1c9a 23bf e613 f7be 5e19 fe3d dfaf 03bd
000001d0: 7393 5dbf 49e1 193f b81a 38bf 9271 953e
000001e0: 9eb9 02be 8d10 6a3e acb3 aabe 1966 55be
000001f0: b799 063e 7f96 0c3f 018b 093d 621c 343f
00000200: 5cab b43e 14e9 27bf 29fd 1bbf b9f1 27bf
00000210: 10de f33e 7bee adbe 5b81 063e 36c7 3e3e
00000220: dd16 64be 887a d73d 0e65 c6be 1875 24be
00000230: 27e0 bc3e fe6f f93e a833 bebe 113c 16bf
00000240: 5baa 3bbd cffa e9be 917a 5a3e 3ed1 3c3f
00000250: ea64 bcbe 19e6 db3d 81a9 e9bd 1248 153f
00000260: 0edd 9fbe ffa2 ea3c 2220 14bf d61e b23e
00000270: dd0d 8c3e dd05 d1be 09b5 203f 82aa 20bc
00000280: 6920 c3be 66da 883e 58fb 0bbe 62af 8bbe
00000290: 2b44 a93e cae3 07be d708 ccba c0f3 f0bd
000002a0: 4499 123e 4fd5 353d 5461 f73d 9a70 f8bd
000002b0: 4fa2 1abe 6c0e 133f e38b 2ebf 58b9 f6be
000002c0: 4183 473f 2e9f a2bd 91bf c4bc 30cf a8be
000002d0: 06f9 f4be 8e76 023f 4a14 aa3d c817 863e
000002e0: 0ffd 2c3d 6904 73be 7300 ef3d 1bfb 983d
000002f0: f00d a63e fb44 593e 0ef9 483e 0bfa 5c3d
00000300: 3fa9 023f 4513 873e 727c ae3e 151e 9d3e
00000310: d5db 183d 36c8 b8be 497f 013f cbb2 ddbe
00000320: 9f61 aebe 786c de3d b1c5 11bf cd70 1ebb
00000330: a34b dd3e 8613 953d defe 9c3d 181b a73d
00000340: 6f6a 81be f4ca 2c3f dd57 033f d519 363f
00000350: 98a5 483f ede3 963e 1abf de3d 81e2 d1bd
00000360: 7aaf 0cbf 086c 03be fc12 9a3f 1b96 4ebf
00000370: f194 f83d defd 413f 26d3 52be c773 03bf
00000380: 6f99 11bf 010f ce3e 00e2 413e a3ec aa3e
00000390: 4416 513b 5f0b ea3e af0d bebd a77a ac3e
000003a0: f5af 273e 54c9 e73d 6f06 283e 60a0 9b3e
000003b0: 8648 ba3e 1c7a 143f 02d4 03be e040 6dbe
000003c0: df8e 2fbf 6394 66bd 806a 8abe 3bea fc3e
000003d0: d11d 813d 3605 06bf 8265 eabe 37e5 c5be
000003e0: 0be0 aabe e79b 06bf e275 a63e 6280 be3e
000003f0: e886 8fbe 50c2 03bf 3be0 56bf 0e1c 96bc
-0.13780078 -1.0027264 0.2528567 0.44910073 0.11214042 0.64058053 0.53808814 0.22871013
-0.004307393 0.099750645 0.19963984 -0.2301989 -0.40206993 -0.25149342 -0.06611741 -0.18215543
-0.59209514 0.2865689 0.19470555 0.84160966 0.31713352 0.3100771 0.14483395 -0.42916828
-0.39326942 0.479981 -0.005780294 -0.53832775 -0.15367165 0.4922501 0.2259957 -0.4933191
-0.029430334 0.3349713 -0.1823314 -0.034839366 0.6946063 0.21247843 -0.44489962 -0.87182254
0.088797405 0.001236683 0.008666791 -0.7221967 0.37081605 -0.09542561 0.3978574 -0.20735131
-0.73186946 0.5895689 -0.36400756 0.14710441 0.06863309 0.17723565 -0.060620815 0.20751996
-0.038685855 -0.42099506 -0.15299463 -0.12250821 0.31587973 0.1435941 -0.35528332 0.16482814
-0.62539434 -0.56907785 -0.15916438 0.08461849 -0.34771478 0.099330224 0.4160757 0.48808295
-0.5157311 -0.98555267 0.20967789 -0.0006053552 0.20136045 -0.55154335 -0.13180135 0.2035423
-0.055544265 -0.2657622 -0.1356979 -0.6900239 0.27884737 0.23481098 0.7375705 0.19277151
0.18597041 0.39794278 0.5753336 -0.6517494 0.27096587 -0.13771486 -0.19274758 -0.32847962
0.46921504 -0.11845099 0.30595285 0.512496 -0.30202466 0.5559432 -0.44497305 -0.42142996
-0.1681018 -0.060524113 -0.1445768 -0.037099134 0.76417136 -0.35057813 -0.5167802 -0.066731535
-0.6390703 -0.4825737 0.12407182 -0.032150146 -0.86553115 0.6010938 -0.7191577 0.2918821
-0.1276612 0.22857876 -0.33340204 -0.20839728 0.13144575 0.5491714 0.03357983 0.7035581
0.35286987 -0.65590024 -0.60933167 -0.65603215 0.47630358 -0.3397101 0.13135283 0.1863068
-0.22274347 0.10521418 -0.38748974 -0.16060293 0.36889765 0.48718256 -0.37148786 -0.58685404
-0.04581676 -0.45699164 0.21335818 0.7375678 -0.3679574 0.10737247 -0.114092834 0.58313096
-0.3122334 0.028642176 -0.5786153 0.3478915 0.27354327 -0.40824786 0.6277624 -0.009806277
-0.38110664 0.26729125 -0.13670099 -0.27282244 0.3305982 -0.13270488 -0.0015566599 -0.117652416
0.14316279 0.04439288 0.12079111 -0.12130852 -0.15100978 0.5744388 -0.681822 -0.4818828
0.7793465 -0.07940517 -0.024017127 -0.32970572 -0.4784624 0.5096215 0.08304651 0.2619002
0.042233523 -0.23732151 0.116700076 0.074697696 0.32432508 0.2121772 0.19626257 0.053949397
0.510395 0.2638189 0.3407932 0.30687013 0.037319023 -0.3609025 0.50584847 -0.4330047
-0.34058854 0.108605325 -0.5694228 -0.0024176121 0.4322177 0.072791144 0.076657996 0.081594646
-0.25276515 0.6749718 0.51305944 0.71133167 0.78377676 0.2947077 0.108762935 -0.1024828
-0.54955256 -0.1283418 1.2037044 -0.8069779 0.12137783 0.75777996 -0.20588359 -0.5134854
-0.56874746 0.40245822 0.18933868 0.33383664 0.003190414 0.457118 -0.09279954 0.33687326
0.16375716 0.11317697 0.16408704 0.30395794 0.36383456 0.57998824 -0.12873843 -0.23169279
-0.6857738 -0.056293856 -0.27034378 0.49397454 0.06304515 -0.523517 -0.4578057 -0.3865144
-0.33374056 -0.5258164 0.32511812 0.37207323 -0.28032613 -0.5146837 -0.839359 -0.018323924

network_body.linear_encoder.seq_layers.2.bias f4 [128]
00000000: 0000 0000 0000 0000 0000 0000 0000 0000
00000010: 0000 0000 0000 0000 0000 0000 0000 0000
00000020: 0000 0000 0000 0000 0000 0000 0000 0000
00000030: 0000 0000 0000 0000 0000 0000 0000 0000
00000040: 0000 0000 0000 0000 0000 0000 0000 0000
00000050: 0000 0000 0000 0000 0000 0000 0000 0000
00000060: 0000 0000 0000 0000 0000 0000 0000 0000
00000070: 0000 0000 0000 0000 0000 0000 0000 0000
00000080: 0000 0000 0000 0000 0000 0000 0000 0000
00000090: 0000 0000 0000 0000 0000 0000 0000 0000
000000a0: 0000 0000 0000 0000 0000 0000 0000 0000
000000b0: 0000 0000 0000 0000 0000 0000 0000 0000
000000c0: 0000 0000 0000 0000 0000 0000 0000 0000
000000d0: 0000 0000 0000 0000 0000 0000 0000 0000
000000e0: 0000 0000 0000 0000 0000 0000 0000 0000
000000f0: 0000 0000 0000 0000 0000 0000 0000 0000
00000100: 0000 0000 0000 0000 0000 0000 0000 0000
00000110: 0000 0000 0000 0000 0000 0000 0000 0000
00000120: 0000 0000 0000 0000 0000 0000 0000 0000
00000130: 0000 0000 0000 0000 0000 0000 0000 0000
00000140: 0000 0000 0000 0000 0000 0000 0000 0000
00000150: 0000 0000 0000 0000 0000 0000 0000 0000
00000160: 0000 0000 0000 0000 0000 0000 0000 0000
00000170: 0000 0000 0000 0000 0000 0000 0000 0000
00000180: 0000 0000 0000 0000 0000 0000 0000 0000
00000190: 0000 0000 0000 0000 0000 0000 0000 0000
000001a0: 0000 0000 0000 0000 0000 0000 0000 0000
000001b0: 0000 0000 0000 0000 0000 0000 0000 0000
000001c0: 0000 0000 0000 0000 0000 0000 0000 0000
000001d0: 0000 0000 0000 0000 0000 0000 0000 0000
000001e0: 0000 0000 0000 0000 0000 0000 0000 0000
000001f0: 0000 0000 0000 0000 0000 0000 0000 0000
0.0 0.0 0.0 0.0 0.0 0.0 0.0 0.0
0.0 0.0 0.0 0.0 0.0 0.0 0.0 0.0
0.0 0.0 0.0 0.0 0.0 0.0 0.0 0.0
0.0 0.0 0.0 0.0 0.0 0.0 0.0 0.0
0.0 0.0 0.0 0.0 0.0 0.0 0.0 0.0
0.0 0.0 0.0 0.0 0.0 0.0 0.0 0.0
0.0 0.0 0.0 0.0 0.0 0.0 0.0 0.0
0.0 0.0 0.0 0.0 0.0 0.0 0.0 0.0
0.0 0.0 0.0 0.0 0.0 0.0 0.0 0.0
0.0 0.0 0.0 0.0 0.0 0.0 0.0 0.0
0.0 0.0 0.0 0.0 0.0 0.0 0.0 0.0
0.0 0.0 0.0 0.0 0.0 0.0 0.0 0.0
0.0 0.0 0.0 0.0 0.0 0.0 0.0 0.0
0.0 0.0 0.0 0.0 0.0 0.0 0.0 0.0
0.0 0.0 0.0 0.0 0.0 0.0 0.0 0.0
0.0 0.0 0.0 0.0 0.0 0.0 0.0 0.0

network_body.linear_encoder.seq_layers.2.weight f4 [128, 128]
00000000: a11a 57bd 3d26 5c3c 5cb8 2b3e de94 4b3c
00000010: 5752 1cbe 45c1 813d 2868 343d 308b 2ebd
00000020: db6d 32bb 1eae e8bb 4622 a23d 57ed 9ebb
00000030: b6d2 5abb 18c2 acba cec6 dc39 bab1 39be
00000040: 769b 13be 0940 703d 3d09 733d 49fd af3d
00000050: 94fa bb3d 1812 00be 7c16 5b3c a4a7 013e
00000060: b29c 72be 8dc9 d6bd 93b1 38bc 7e28 e13d
00000070: e3af eb3c 23ae 02be 2e0e 18be 615b 173e
00000080: 4ed3 b6bd e22c b53d 39b3 193e 6aea 9bbc
00000090: ac04 0ebd 979c 053e 496e aebc 844b a63d
000000a0: 89de c83c 0e74 54be e6ee 22bd 0bd1 1bbd
000000b0: d2dd 59bd 8630 b73d f01d 813d c53a 313d
000000c0: 3de0 e43c db33 9d3c 9330 373e 37a8 0bbc
000000d0: 5c74 a9bc ae5c 0e3e 356f 0e3d fd7e b73d
000000e0: fb97 10be 2bfc 7b3c 83dc 833d 00ff 76bd
000000f0: a8e7 4f3d 9883 b93d de68 243d b6e5 be3d
00000100: f54e cb3c 472e 1d3e 8a04 063e b321 73bd
00000110: 2c79 62bc 1720 c93d 4f90 42bd c43d 57bd
00000120: bbe1 853d 2082 be3d ed02 47bd 3f60 54bd
00000130: cee6 5bbc dd68 0d3d 31f0 093e 59ad 6c3d
00000140: c3dc 833d 45a2 b53c 2617 093c 514e 5d3d
00000150: 0e43 ad3d e6d0 023d cc3e 433e 6228 773d
00000160: aa26 593e 9d60 103d baa8 8ebd 67b6 1b3e
00000170: 75e8 56be 883d 8ebc cc81 5ebe 1c3f 8a3d
00000180: c82d 7d3b 2ff4 443e da8f 43be 47e1 c73c
00000190: fdd7 64bd d165 efbd b179 d3bd ad43 983d
000001a0: ed38 8bbc 4ac3 b4bd a279 87bd a34e 1dbe
000001b0: 5245 00bc ba00 0fbe 879f d03d 44f4 acbd
000001c0: aba8 4f3d d495 ccbb 77d5 d5bc 9f00 7f3e
000001d0: 14d8 f5bd fa03 1dbe 7bba 1bbd 096e b03c
000001e0: e31f 8dbc 89da 623d 2023 ebbc d3b1 aebd
000001f0: 3c33 c0bd 02d8 b3bd 057a a03c be44 debc
00000200: cc69 603e d005 543d 4e48 343e ddc8 4bbd
00000210: 850a ff3a 8234 353e 4366 783d 6054 fabd
00000220: acfa 58bd 492d 13be 4c07 5c3d 1177 8f3d
00000230: bc4d acbd afeb 10bd 84fa dfbc 3c4f f23c
00000240: 1b9d 0d3d c8cd 8ebd 6797 87bd 3911 29bd
00000250: 77d7 ae3d 477b acbd 0086 d5bd 88c1 4b3d
00000260: d554 f9bc 96a8 19bc 091c 05bd a0f3 7e3d
00000270: 6130 8bbd 6cfe a73d c965 72bd 4132 283d
00000280: 9938 66ba 8b8b 24be df2b b33d 5970 163d
00000290: 394e df3d bf0c b3bc e5f5 17be 4fb0 833d
000002a0: 2f3b 823d 1342 b0bc e536 0ebd f935 213d
000002b0: 3ca9 9a3d 824c aabd 5e69 b03d 164f 6fbc
000002c0: 2e33 c0bd e23c c73d f02a 93bd 79d2 33bd
000002d0: 7c8a 273d 1c35 c6bb 5f2c 95bd 1c2c 18bd
000002e0: 8d0c 3abe de23 9dbd 5a56 123d d879 3fbe
000002f0: 2679 373d d40c 68bc 6144 d03d 4375 47bd
00000300: 7c99 21bc 648a ccbd da58 aebc f0ba 17bb
00000310: 5b52 ae3d c1cd 253c 5f48 9fbd 48c3 8d3d
00000320: 673e 663d 21f2 4b3d 0b79 cabb 1436 063c
00000330: 675f ec3d 1b32 cb3c 3ee4 54bd b132 67be
00000340: cda1 94bd 2998 4ebd 1516 74bd d2dd e03d
00000350: e1ed 563d d702 ab3c f595 a4bd 125f 29be
00000360: 88b4 a8bd 98f6 e63d 4511 d239 fd40 fbbc
00000370: 2be2 0ebe a1fd 83be 26c5 243e a595 b4bc
00000380: 7956 323d 8f06 84bd 0cfe 0f3d 3649 203d
00000390: 8911 f5bd c333 11be e533 1d3e eee2 a5bd
000003a0: c3a1 9f3d 1475 edbb 11a4 30bd da63 9ebc
000003b0: b8d0 163e 5863 d3bc 524d bf3b 2a76 f5bd
000003c0: b5f1 673d 1997 533d fd08 3e3d a665 9fbc
000003d0: 72b2 0ebd 8612 803b 34f2 9a3d 33e8 d7ba
000003e0: 3bf1 073e 63a7 ac3c 1768 a5bc bee9 b4bd
000003f0: 9e4d c2bb 7a2a 71be 08d7 a4bc d860 c73b
-0.05251563 0.013436851 0.16769546 0.012425629 -0.15265785 0.06335691 0.044044644 -0.04261321
-0.0027226123 -0.0071008345 0.079166934 -0.0048500705 -0.0033389754 -0.0013180403 0.0004210979 -0.18134204
-0.14414772 0.05865482 0.059334982 0.08593232 0.09178653 -0.12506902 0.01337206 0.12661606
-0.23692587 -0.104876615 -0.011272806 0.109940514 0.028770393 -0.1276174 -0.14849159 0.14780952
-0.08927022 0.08846451 0.15009774 -0.019032676 -0.034672424 0.13048016 -0.021292822 0.08119872
0.024520176 -0.20747396 -0.039778613 -0.038041156 -0.05319006 0.08944802 0.06304538 0.043268938
0.027938956 0.019189766 0.17889623 -0.008523992 -0.020685367 0.13902542 0.034774024 0.08959768
-0.14120476 0.015379946 0.06438544 -0.06030178 0.050758034 0.09058303 0.04013907 0.09321158
0.024817923 0.15349685 0.13087669 -0.05935831 -0.013822835 0.09820574 -0.047500905 -0.05254914
0.06537195 0.09302163 -0.048586775 -0.0518496 -0.013421727 0.034523834 0.13470532 0.057782505
0.06438591 0.022172103 0.008367335 0.054029766 0.08460055 0.031937502 0.19066924 0.060341246
0.21206155 0.035248388 -0.06965776 0.152063 -0.20987113 -0.017363325 -0.21729201 0.067503184
0.0038632024 0.19233774 -0.19097844 0.024399413 -0.055870045 -0.11689342 -0.10325945 0.07434783
-0.016994918 -0.08826311 -0.066149965 -0.15362029 -0.007829027 -0.13965121 0.101866774 -0.084450275
0.050697964 -0.006243447 -0.026102765 0.2490258 -0.12004104 -0.15333548 -0.03801964 0.021536844
-0.017227119 0.055384193 -0.028703272 -0.08530011 -0.09384772 -0.087814346 0.019589433 -0.027132388
0.21915358 0.051763356 0.17605707 -0.049752105 0.0019458091 0.17695811 0.0606444 -0.122231245
-0.052973434 -0.14372744 0.053717896 0.07005132 -0.08413264 -0.035381015 -0.027341135 0.029578798
0.034573656 -0.069728434 -0.066206746 -0.04127619 0.085371904 -0.08421951 -0.10425949 0.049745113
-0.030435959 -0.009378573 -0.03249744 0.062244058 -0.06796337 0.08202824 -0.0591791 0.04106355
-0.00087822374 -0.16068856 0.08748602 0.036728237 0.10903592 -0.021856664 -0.14839895 0.064301126
0.063589446 -0.021515882 -0.03472032 0.039358113 0.0755181 -0.08315374 0.08613847 -0.014606258
-0.09384762 0.09728409 -0.07185924 -0.043901894 0.040903553 -0.0060488116 -0.07283854 -0.03715144
-0.1816885 -0.07672857 0.035726883 -0.18698823 0.04479327 -0.014163215 0.10169292 -0.048695814
-0.009863254 -0.099873334 -0.021282602 -0.0023152195 0.08511802 0.010119856 -0.077774756 0.069220126
0.056211855 0.04979146 -0.00617898 0.008191604 0.11541634 0.024804166 -0.05197548 -0.22577931
-0.072574235 -0.05043808 -0.05959137 0.10979809 0.052472953 0.020875378 -0.080364145 -0.16540173
-0.082375586 0.11277503 0.00040067188 -0.030670637 -0.13953464 -0.2577944 0.16090831 -0.022044012
0.043539498 -0.064465635 0.035154387 0.03913232 -0.11966235 -0.14179902 0.15351827 -0.08099924
0.077945255 -0.007246623 -0.043125216 -0.019334722 0.14728057 -0.025804207 0.0058380747 -0.11985429
0.056626994 0.05165777 0.04639529 -0.01945765 -0.034838147 0.003908458 0.07565728 -0.0016472399
0.13275616 0.02107591 -0.020191235 -0.08833645 -0.005929663 -0.2355136 -0.020122066 0.0060845427
