results/testBall3/HitTheBall/HitTheBall-582.pt (torch, 150559 bytes, 13 tensors)

network_body.linear_encoder.seq_layers.0.weight f4 [128, 6]
00000000: 7738 763e 8063 bf3e b9c1 38bf e49a 4c3d
00000010: b317 90bf edd0 5cbe 923b 823d 4d15 83bb
00000020: 8149 92be e5a3 86be 8d0e 933e b130 81be
00000030: 9969 aabd 97d4 463e 8d27 04bf 447c 0abf
00000040: 086e 133e 8c99 a93d 4967 693e 530e d0bc
00000050: 3139 8abd e741 1fbf c8ef 973d fd30 053e
00000060: 0c3b 2dbf 2546 f1be cc8e 523f 188f 8abc
00000070: edde dc3e c0fb 4f3d 48d9 553f 0381 a0be
00000080: 82cd a6bd dbff 163e 5be0 ea3e 1fc5 c7be
00000090: e883 4fbf ac3d cfbd f029 c93e 7b75 db3e
000000a0: 98a7 963e 553e 60be bf22 f6be 7738 e4be
000000b0: 50a0 133f de57 9ebd bb49 3b3e 3145 c3be
000000c0: 6a00 be3e b6a2 a4be 4d98 f7bd 0de9 033f
000000d0: 821c c33e b677 fd3d d6a4 043f 58c4 82be
000000e0: d536 c43e ee8a 7ebe 2bc2 393f 2b97 00bf
000000f0: 7069 a6be ef10 51be 00c6 fb3e 73eb 9cbe
00000100: 933d 1e3f 512a ebbe b252 cbbe 3e06 9abe
00000110: 3887 853e 90f6 2ebc ffad 4b3e a6cd 373d
00000120: 893f 2b3e 3b3b de3e b7fd fbbe 769e afbe
00000130: c00d 793e e1d8 11bf d514 1b3f 8f6d a43e
00000140: 04bf 52be 2b57 c4be c8ff 36be d2e7 233f
00000150: 632e 6fbe ecaa c43e 1fad 83bd e323 34bf
00000160: f7fb debd c22d ac3c 0fc2 363d 02b4 7a3e
00000170: 2179 8f3e 63e9 1dbf 3f90 e43e 791f d0be
00000180: 3d08 9b3f 3884 b8bc b4dc a83b 5238 efbe
00000190: d7ff 783e 622c d9be 9e4f 903d e582 04bd
000001a0: a3b9 c3be 695a 24bf a30c e43e 2494 69be
000001b0: 5bcc c83d 5415 a43e fd26 f43c 19b7 293f
000001c0: 1e42 30bf 8322 e1be 801d e73d 00b3 943e
000001d0: 5180 753e 6b3a 2fbe db65 553f 5169 c3be
000001e0: c5ec 63bf 2adb b63d a877 ff3e 169d 963e
000001f0: f2f8 abbe 70bb 173f 8b92 c6be f74f 27bf
00000200: f42d 49be 7654 47bf 4ae2 f53e 158a ec3e
00000210: d75a aa3e c2cc 02bf eda6 073c 6f97 5ebe
00000220: eacc 75be 32f0 3bbe 8415 673c f724 17be
00000230: a91b 223d a173 a7bd bcd9 5a3e b05b a93e
00000240: ac10 203e a5bc b1bd bf51 72bf 6161 673c
00000250: 352d 59be 0b59 2f3f 0d15 87be 769c 063f
00000260: fe16 203e 05ae 373e d5db 093e ac7c dfbe
00000270: 5eec 8cbe 3a8e e83e f0b8 6f3e ca47 31be
00000280: 04f0 03be 9219 90be 493c 053e 5bd9 fdbe
00000290: f26f b7bd cb39 013d 121b 93bd 1e1f ad3e
000002a0: f61a 863e 6a92 efbd ea7c 063d 6b54 9fbd
000002b0: 7cb0 aa3d 2e1d 2ebe 09d0 08bd 2cff a63d
000002c0: f1d9 72be bce1 963e 6f8e 8dbc adbd 34bf
000002d0: 1a7b a6be c93f dcbd ba67 35bf d1e1 70be
000002e0: 2da3 0abf 4e02 303e e33f 7f3f ade4 81be
000002f0: 436b 093f 560c 9b3c 6bdf 89bd c5b9 cd3d
00000300: 7b5b 96be 6180 8bbe 3d6b dc3e 7704 e93d
00000310: 60e5 12be 7190 c4be 7fc9 78be e858 61be
00000320: 1699 eb3e b54b debd 617d 3cbe f80d bb3e
00000330: c4a9 a73d 4390 0b3f 9472 df3d d547 bd3d
00000340: 6ff8 6abe 1c6e c8be fa41 643f a1c8 b73e
00000350: 08dd 573e 0811 89bd 90eb 4f3e 7f64 c43d
00000360: 5959 013e 688f 16be 1480 16bd 25a0 36bd
00000370: 6f5f 04bf ecb6 7fbe ecb1 013f 9753 d6be
00000380: d4ac a4be f140 12bf 303e e23e f6b7 f83e
00000390: 8cb0 0abe 3391 bfbe 0456 483f 8c28 51bf
000003a0: 9fb5 98bd b82b 243f 1b3f 6b3e 104c 2abf
000003b0: a90f 723e c484 51bf 14f3 e23e 6eb2 32be
000003c0: 1f64 6cbd 7a42 343e 7827 9a3e d74e f3bd
000003d0: d0a8 0abd fd19 19bf febc ad3d 3622 47bd
000003e0: 1459 f83c 1cc5 a5be 06de 47bf bdf7 a5bf
000003f0: 9353 11bf f0e0 40bf 268d c53e cb20 a13e
0.24044977 0.373806 -0.721706 0.049952403 -1.1257232 -0.21564074 0.063590184 -0.004000342
-0.28571704 -0.26296917 0.2872204 -0.2523246 -0.083209224 0.19417034 -0.5162285 -0.54095864
0.14397442 0.0828124 0.22793306 -0.025397455 -0.0674919 -0.62209934 0.074187815 0.13006969
-0.67668223 -0.4712383 0.8224914 -0.016913936 0.4313883 0.050777197 0.8353467 -0.31348428
-0.08144666 0.14746039 0.45874295 -0.3901758 -0.8106065 -0.10119185 0.39289808 0.42863068
0.2942474 -0.21898778 -0.48073384 -0.4457433 0.5766649 -0.07731603 0.18289845 -0.38138726
0.3710969 -0.3215539 -0.12089596 0.5152748 0.38107687 0.12376349 0.5181402 -0.25540423
0.38323084 -0.24857685 0.725619 -0.50230664 -0.32502317 -0.20416616 0.491745 -0.30648383
0.61812705 -0.45930722 -0.3971153 -0.30082887 0.26079726 -0.010678902 0.19890593 0.044873856
0.16723455 0.43404564 -0.49217007 -0.34300584 0.24321651 -0.56971556 0.6057866 0.32114837
-0.20580679 -0.38347754 -0.1787101 0.64025605 -0.23357539 0.38411653 -0.064295046 -0.7036726
-0.10887902 0.021017913 0.044618662 0.2448273 0.28022102 -0.61684245 0.446413 -0.40649012
1.2111889 -0.022523984 0.005153263 -0.46722656 0.24316345 -0.42416674 0.07046436 -0.032351393
-0.38227567 -0.64200455 0.4454089 -0.22810417 0.09804603 0.32047522 0.029803747 0.6629501
-0.68850887 -0.43971643 0.112849236 0.29042816 0.2397473 -0.17112128 0.83358544 -0.38166288
-0.89033157 0.08928521 0.49895978 0.29416722 -0.33588368 0.5927038 -0.38783678 -0.6535639
-0.19646436 -0.7786325 0.48024207 0.46199098 0.3327243 -0.51093686 0.008279544 -0.21737455
-0.2400395 -0.18353346 0.014104251 -0.14760195 0.03957716 -0.08176351 0.21372122 0.33077765
0.1563136 -0.08678559 -0.94655985 0.014122338 -0.21208651 0.68495244 -0.26383248 0.5258249
0.15633771 0.17937477 0.13462766 -0.43649805 -0.27524084 0.4542101 0.23410392 -0.17312542
-0.12884527 -0.2814451 0.13011278 -0.49579892 -0.08956899 0.031549256 -0.071828976 0.33812803
0.26192445 -0.11697848 0.03283397 -0.07779773 0.08334443 -0.17003319 -0.033401523 0.08154139
-0.2371595 0.29469097 -0.017279832 -0.7060192 -0.32515794 -0.107543536 -0.708614 -0.23523642
-0.54155236 0.17188379 0.9970686 -0.25369778 0.53679293 0.01892678 -0.06732067 0.10045198
-0.2936667 -0.27246383 0.43050566 0.11377805 -0.14345312 -0.3839145 -0.24295615 -0.22006571
0.46015233 -0.10854284 -0.18407203 0.36534095 0.08186677 0.54517 0.10910526 0.092422165
-0.22946332 -0.39146507 0.8916317 0.35895255 0.2108041 -0.066927016 0.20304704 0.095894806
0.1263174 -0.14703143 -0.03674324 -0.04458632 -0.5170812 -0.24972123 0.5066211 -0.4186065
-0.32163107 -0.5713034 0.4418807 0.4857785 -0.1354391 -0.37415466 0.7825625 -0.81702495
-0.074565165 0.6412921 0.22973292 -0.6652231 0.23638786 -0.8184321 0.4432608 -0.17450878
-0.05771267 0.17603484 0.30108237 -0.11880272 -0.0338524 -0.5980528 0.08483313 -0.04861661
0.030315913 -0.32376945 -0.78073156 -1.2966229 -0.5676815 -0.7534323 0.3858425 0.31470332

network_body.linear_encoder.seq_layers.0.bias f4 [128]
00000000: 0000 0000 0000 0000 0000 0000 0000 0000
00000010: 0000 0000 0000 0000 0000 0000 0000 0000
00000020: 0000 0000 0000 0000 0000 0000 0000 0000
00000030: 0000 0000 0000 0000 0000 0000 0000 0000
00000040: 0000 0000 0000 0000 0000 0000 0000 0000
00000050: 0000 0000 0000 0000 0000 0000 0000 0000
00000060: 0000 0000 0000 0000 0000 0000 0000 0000
00000070: 0000 0000 0000 0000 0000 0000 0000 0000
00000080: 0000 0000 0000 0000 0000 0000 0000 0000
00000090: 0000 0000 0000 0000 0000 0000 0000 0000
000000a0: 0000 0000 0000 0000 0000 0000 0000 0000
000000b0: 0000 0000 0000 0000 0000 0000 0000 0000
000000c0: 0000 0000 0000 0000 0000 0000 0000 0000
000000d0: 0000 0000 0000 0000 0000 0000 0000 0000
000000e0: 0000 0000 0000 0000 0000 0000 0000 0000
000000f0: 0000 0000 0000 0000 0000 0000 0000 0000
00000100: 0000 0000 0000 0000 0000 0000 0000 0000
00000110: 0000 0000 0000 0000 0000 0000 0000 0000
00000120: 0000 0000 0000 0000 0000 0000 0000 0000
00000130: 0000 0000 0000 0000 0000 0000 0000 0000
00000140: 0000 0000 0000 0000 0000 0000 0000 0000
00000150: 0000 0000 0000 0000 0000 0000 0000 0000
00000160: 0000 0000 0000 0000 0000 0000 0000 0000
00000170: 0000 0000 0000 0000 0000 0000 0000 0000
00000180: 0000 0000 0000 0000 0000 0000 0000 0000
00000190: 0000 0000 0000 0000 0000 0000 0000 0000
000001a0: 0000 0000 0000 0000 0000 0000 0000 0000
000001b0: 0000 0000 0000 0000 0000 0000 0000 0000
000001c0: 0000 0000 0000 0000 0000 0000 0000 0000
000001d0: 0000 0000 0000 0000 0000 0000 0000 0000
000001e0: 0000 0000 0000 0000 0000 0000 0000 0000
000001f0: 0000 0000 0000 0000 0000 0000 0000 0000
0.0 0.0 0.0 0.0 0.0 0.0 0.0 0.0
0.0 0.0 0.0 0.0 0.0 0.0 0.0 0.0
0.0 0.0 0.0 0.0 0.0 0.0 0.0 0.0
0.0 0.0 0.0 0.0 0.0 0.0 0.0 0.0
0.0 0.0 0.0 0.0 0.0 0.0 0.0 0.0
0.0 0.0 0.0 0.0 0.0 0.0 0.0 0.0
0.0 0.0 0.0 0.0 0.0 0.0 0.0 0.0
0.0 0.0 0.0 0.0 0.0 0.0 0.0 0.0
0.0 0.0 0.0 0.0 0.0 0.0 0.0 0.0
0.0 0.0 0.0 0.0 0.0 0.0 0.0 0.0
0.0 0.0 0.0 0.0 0.0 0.0 0.0 0.0
0.0 0.0 0.0 0.0 0.0 0.0 0.0 0.0
0.0 0.0 0.0 0.0 0.0 0.0 0.0 0.0
0.0 0.0 0.0 0.0 0.0 0.0 0.0 0.0
0.0 0.0 0.0 0.0 0.0 0.0 0.0 0.0
0.0 0.0 0.0 0.0 0.0 0.0 0.0 0.0

network_body.linear_encoder.seq_layers.2.weight f4 [128, 128]
00000000: 49ea 9fbd 225e efbc 5c6b 3bbe 4da1 2a3e
00000010: 1c0d 813d 8985 a43d 1e42 bb3d 3858 62bd
00000020: 6b6c b23c 1d28 853d ccbd c5bd f45e e1bd
00000030: a71d 013d cef5 94bd 9d32 a13a ef7e b9bc
00000040: 47f4 98bc 5d09 65bd 428a 053e eeb9 13be
00000050: ca17 36bd b2eb b4bd 98af 83bc b281 23be
00000060: c8f7 913d c341 bf3d 474c 123d 692f a7bc
00000070: 0be2 98bd 2555 8ebd 60c5 403d f334 f7bd
00000080: d19d aebd ece1 e1bd 312a 68bd b385 00bc
00000090: 7c53 f83d 86b0 8e3d 23af 15be 6dd5 e2bd
000000a0: e16f 733d e3d8 a53c 55c0 6c3c 566a c43d
000000b0: f894 cebd 282e 73bd 912f 913d 285b 613c
000000c0: 4462 953d 2715 0b3d 86e4 e0bd 249f ebbd
000000d0: e941 debd 83c9 83bd 56d8 39bd 31c2 10bd
000000e0: 99b8 f53c 262d cbbd 34c7 3f3a 3e87 bd3c
000000f0: 840d ea3d abfc 263e 308e 073e 162b 143c
00000100: 41eb 893c 547d 8e3d a5d2 4cbd 7782 f33c
00000110: aa99 0bbe bac2 123d f973 ae3c a420 2abe
00000120: 9d86 033e fcb2 7f3d 79ac 70bd fb5b e33d
00000130: 4ca7 33bd 460d a9bd 3c17 883c a5dc c3bd
00000140: fd13 cb3c 4d1a 25be 0e44 fa3d aefc 3a3e
00000150: 4da4 df3d c7b6 bcbd 474f c7bb 4dcf 89bd
00000160: 782b 1cbd 3a36 61bc 6594 55bd 2edb cc3c
00000170: 2adc 6fbd 6039 26bd e856 123e e8d3 853c
00000180: 5755 813d d81f 333d 2290 01bd 65be 393c
00000190: e016 5abd bf9f 90bd fcb8 273d a192 263d
000001a0: e776 363e e668 0e3c 29c5 87bd fa4f 10bc
000001b0: b021 2d3d 2dcb 81bd d462 a13d 2d9d 5c3d
000001c0: 5644 28bd 1b7f 243d 7747 713d eaf0 3b3d
000001d0: 639c e3bd 9e4c 7aba d435 1bbc 4ae5 9a3d
000001e0: f15c dd3d 4c0d 333d bbf2 03be c8bb c63d
000001f0: c19c 30bd 0d3f 513d 8fbf da3c 2b82 a73d
00000200: 807a 0d3e 3648 be3d 1688 b3bd c3bc c53c
00000210: 3e24 db3d 2742 b23d dba9 f9bc a770 a1bd
00000220: b5af 1a3d 24bd fc3d 8d6c 8a3c 41e9 c43d
00000230: d2f4 1e3d cb0e b83c f9ee 82bc a8e7 74bd
00000240: 4462 48bd 710f 5fbc 35e3 803d f91b 31bd
00000250: f995 b73c 8e8c a23a a000 3fbd cd0e b93d
00000260: 50e2 903d 68aa 1dbd 8adc a3bd 327a e0bd
00000270: ec1f 32be 5c61 1fbb fa95 03bb bf01 18bc
00000280: 1f13 183d 27d8 cbbc 66b8 acbd 5477 c23d
00000290: 906f 9f3d a1b9 903c c7a0 f3bc 9ae7 10be
000002a0: a7a3 8dbc eb03 55bd 215c f33d 00a2 d53d
000002b0: bcb2 d9bc a294 6f3d 7f83 c33d 80b4 5f3d
000002c0: 29de 533c 4431 cd3c 3f7c 9fbc 5bb8 b53d
000002d0: d0d4 50be 9794 84bd 43a7 8abb 341b 933d
000002e0: 02e4 f33c 415b fc3d d3d4 7a3e 775d b5bd
000002f0: 3958 07bd 88e5 bebb b512 53bc da4a 193d
00000300: 4901 023d 50e4 f43d 712a d83d b1a7 e63b
00000310: d64c 10be 7cc4 c6bd da9d 5f3d b006 5abd
00000320: eba7 ffbd c750 fdbd 0668 e93d d217 133d
00000330: 8f69 a03d d4be 9fbc 6d2a 473b 595b e7bd
00000340: c311 0c3d efe2 b13d 388e 433d c045 8dba
00000350: 7b06 95bd 3105 403d ab4d a3bb 7e9e 483d
00000360: d101 aebc d767 03be dd78 90bd 75a9 b1bd
00000370: 3a75 20bd d1e7 e7bd 1609 e1bd a9a1 2abd
00000380: 6fbc b53c 70de 8d3d 6333 dcbd 0b6b 19be
00000390: bdac 29be d3eb 2fbc 2a3d 2c3d 203c 4c3e
000003a0: f439 2b3e 82c6 2a3d dc91 2dbd d253 91bd
000003b0: 9afd 5c3d 303f 3a3c 8cb2 a9bd c82a 52bd
000003c0: acad bdbb d60a 48be fdbf ee3b dd13 0d3e
000003d0: 6e65 c13c 0fa1 21be c7c5 09bd 0ecd f23d
000003e0: 73f9 63b9 8e3c dabc bc22 d63b 7785 d33d
000003f0: a5e1 b0bd 3a76 91bd 3cb3 9dbd d875 cf3c
-0.07808358 -0.02921969 -0.18302673 0.16663094 0.063013285 0.08033282 0.0914347 -0.055259913
0.021780213 0.065017916 -0.096553415 -0.11004439 0.03152242 -0.07273446 0.0012298409 -0.022643534
-0.018671168 -0.055917133 0.13041022 -0.14426395 -0.04445628 -0.08834018 -0.01607494 -0.15967444
0.07127339 0.09338715 0.035717275 -0.02040835 -0.07464989 -0.06949834 0.04706323 -0.12070646
-0.08526195 -0.11029419 -0.05668086 -0.007844376 0.121252984 0.06967263 -0.1461759 -0.11075864
0.059432868 0.020245021 0.014450152 0.095905945 -0.10087007 -0.05937019 0.07089151 0.0137546435
0.07294133 0.03395572 -0.109810874 -0.11504963 -0.10852415 -0.0643492 -0.04537233 -0.035341445
0.02999525 -0.09920721 0.00073157554 0.023135778 0.11428359 0.16307323 0.13237834 0.009043476
0.01683581 0.06957498 -0.050005574 0.029725296 -0.13632837 0.035830237 0.021295534 -0.16614014
0.1284432 0.062426552 -0.058758233 0.11101528 -0.04386072 -0.08254485 0.016612642 -0.09563569
0.024789805 -0.16123314 0.12220012 0.18260452 0.1092001 -0.092145495 -0.0060824486 -0.067289926
-0.038127393 -0.013745839 -0.052143473 0.025006857 -0.058559574 -0.04058206 0.14290965 0.016336396
0.063151054 0.04373154 -0.031631596 0.0113368975 -0.05324447 -0.07061719 0.0409479 0.04066718
0.17818795 0.008692002 -0.06629402 -0.00880813 0.042268455 -0.06337581 0.07880178 0.053860832
-0.041080795 0.04016028 0.058906045 0.04588405 -0.11113813 -0.000954816 -0.009473283 0.07563265
0.10808743 0.043713853 -0.12885563 0.09703785 -0.043118242 0.05108552 0.02670267 0.081791244
0.13816261 0.09291117 -0.08766191 0.02413786 0.10700272 0.08704024 -0.030476501 -0.07882815
0.037765224 0.12340763 0.016897464 0.09614802 0.038807698 0.022467991 -0.015983092 -0.059791237
-0.04892184 -0.013614521 0.06293336 -0.043239567 0.02241038 0.0012401508 -0.046631455 0.09036026
0.07074416 -0.03849259 -0.08001049 -0.10960807 -0.1739499 -0.0024319505 -0.0020078407 -0.00927776
0.03712761 -0.024883343 -0.08433609 0.09495416 0.07784951 0.01766664 -0.02973975 -0.14150849
-0.01728995 -0.05200569 0.118828066 0.1043129 -0.026574485 0.058491357 0.09546565 0.054615498
0.012931385 0.025047906 -0.019468425 0.08873054 -0.20393682 -0.06473654 -0.004231365 0.07182923
0.029771809 0.12322093 0.24495248 -0.08855718 -0.03304312 -0.005825702 -0.012882878 0.0374249
0.031739507 0.1195761 0.1055497 0.0070390333 -0.1409181 -0.09705445 0.0545939 -0.053229034
-0.124832 -0.12368923 0.11396794 0.03591139 0.07832634 -0.019500174 0.0030390278 -0.1129672
0.034196626 0.08685862 0.047743052 -0.0010778233 -0.07276627 0.04687995 -0.004983624 0.048979275
-0.0212411 -0.1283258 -0.07054303 -0.086748995 -0.039174296 -0.11323512 -0.10988061 -0.041658077
0.022184579 0.06927192 -0.10751989 -0.1498224 -0.165698 -0.010737377 0.042050518 0.19944811
0.16721326 0.041693218 -0.04237543 -0.070960656 0.05395279 0.011367604 -0.08286008 -0.05131033
-0.0057885256 -0.19535384 0.0072860704 0.13777108 0.023607936 -0.15784095 -0.03363588 0.11855517
-0.00021741334 -0.026640203 0.0065349024 0.10328191 -0.08636788 -0.07102628 -0.07700202 0.025324747

network_body.linear_encoder.seq_layers.2.bias f4 [128]
00000000: 0000 0000 0000 0000 0000 0000 0000 0000
00000010: 0000 0000 0000 0000 0000 0000 0000 0000
00000020: 0000 0000 0000 0000 0000 0000 0000 0000
00000030: 0000 0000 0000 0000 0000 0000 0000 0000
00000040: 0000 0000 0000 0000 0000 0000 0000 0000
00000050: 0000 0000 0000 0000 0000 0000 0000 0000
00000060: 0000 0000 0000 0000 0000 0000 0000 0000
00000070: 0000 0000 0000 0000 0000 0000 0000 0000
00000080: 0000 0000 0000 0000 0000 0000 0000 0000
00000090: 0000 0000 0000 0000 0000 0000 0000 0000
000000a0: 0000 0000 0000 0000 0000 0000 0000 0000
000000b0: 0000 0000 0000 0000 0000 0000 0000 0000
000000c0: 0000 0000 0000 0000 0000 0000 0000 0000
000000d0: 0000 0000 0000 0000 0000 0000 0000 0000
000000e0: 0000 0000 0000 0000 0000 0000 0000 0000
000000f0: 0000 0000 0000 0000 0000 0000 0000 0000
00000100: 0000 0000 0000 0000 0000 0000 0000 0000
00000110: 0000 0000 0000 0000 0000 0000 0000 0000
00000120: 0000 0000 0000 0000 0000 0000 0000 0000
00000130: 0000 0000 0000 0000 0000 0000 0000 0000
00000140: 0000 0000 0000 0000 0000 0000 0000 0000
00000150: 0000 0000 0000 0000 0000 0000 0000 0000
00000160: 0000 0000 0000 0000 0000 0000 0000 0000
00000170: 0000 0000 0000 0000 0000 0000 0000 0000
00000180: 0000 0000 0000 0000 0000 0000 0000 0000
00000190: 0000 0000 0000 0000 0000 0000 0000 0000
000001a0: 0000 0000 0000 0000 0000 0000 0000 0000
000001b0: 0000 0000 0000 0000 0000 0000 0000 0000
000001c0: 0000 0000 0000 0000 0000 0000 0000 0000
000001d0: 0000 0000 0000 0000 0000 0000 0000 0000
000001e0: 0000 0000 0000 0000 0000 0000 0000 0000
000001f0: 0000 0000 0000 0000 0000 0000 0000 0000
0.0 0.0 0.0 0.0 0.0 0.0 0.0 0.0
0.0 0.0 0.0 0.0 0.0 0.0 0.0 0.0
0.0 0.0 0.0 0.0 0.0 0.0 0.0 0.0
0.0 0.0 0.0 0.0 0.0 0.0 0.0 0.0
0.0 0.0 0.0 0.0 0.0 0.0 0.0 0.0
0.0 0.0 0.0 0.0 0.0 0.0 0.0 0.0
0.0 0.0 0.0 0.0 0.0 0.0 0.0 0.0
0.0 0.0 0.0 0.0 0.0 0.0 0.0 0.0
0.0 0.0 0.0 0.0 0.0 0.0 0.0 0.0
0.0 0.0 0.0 0.0 0.0 0.0 0.0 0.0
0.0 0.0 0.0 0.0 0.0 0.0 0.0 0.0
0.0 0.0 0.0 0.0 0.0 0.0 0.0 0.0
0.0 0.0 0.0 0.0 0.0 0.0 0.0 0.0
0.0 0.0 0.0 0.0 0.0 0.0 0.0 0.0
0.0 0.0 0.0 0.0 0.0 0.0 0.0 0.0
0.0 0.0 0.0 0.0 0.0 0.0 0.0 0.0

action_model._continuous_distribution.log_sigma f4 [1, 2]
00000000: 0000 0000 0000 0000
0.0 0.0

action_model._continuous_distribution.mu.weight f4 [2, 128]
00000000: 98cf 453b e249 933c 2e42 923b c38d 25bc
00000010: 5f93 42bc e102 a8bc 793b 36bd 1576 da3b
00000020: 1c4e 2f3d 83b3 043c 4285 883c 2ff5 d73c
00000030: 7235 f6bb a333 bd3c 12b6 d8bb 3899 cfbc
00000040: 7df7 ebba 669b 31bc 0705 c03c b8e1 723c
00000050: efc7 033c 36aa 193b e07c f73a 73ce eb3c
00000060: 4a70 2c3c 0c88 49bc bff8 6abb 90b5 aebb
00000070: 77b9 433c 5c64 1cbc 0ff4 6f3b 4b22 24bc
00000080: 10a6 d4ba 102f 2e3c dad4 eebc 5b43 a0ba
00000090: dd3a fd3b 2b54 3c3c 60be 15bc dffd f73b
000000a0: dafc cf3c 8bd5 843c 5245 5bbc 7719 593c
000000b0: ef07 693c 577f 153c 352d 6b3d 9fa1 49bc
000000c0: a50c 78bc cbad 95ba c779 e43c 20e4 77ba
000000d0: 3307 66bc 6071 f73b 0226 c6bb bf65 7b3b
000000e0: ebb4 05bc 0e40 223c 8fc7 53bc 58fe 55bc
000000f0: f762 b6bb fb24 bfbb 9c42 43ba 0595 c93c
00000100: 67d2 153d 84da 223c 8089 abbc afb9 1ebc
00000110: 13ad 593c 1b4d b9bb 18e8 5d3c dc8e 033c
00000120: f5d1 893c db69 82bb b583 323c b2c1 1bbd
00000130: 0f33 05bc f75f b73c 492a a43b 48be 76bc
00000140: 1031 1cbc 2f57 92bb e3fb e2bc 827d 0cbc
00000150: 7b97 b2bb 2662 483c fac7 2fbb 3460 07bd
00000160: 9b00 b9bc 47cc 0fbd c942 1d3c 4bcb 9039
00000170: a34f f739 21f0 443c 6b35 163a ea85 f1bc
00000180: c90c 9f3c 5297 8a3c 8864 8dbc e04a a73c
00000190: 77d7 0d3c 353c ef3c 7330 bfba 7f5a 8a3c
000001a0: ab14 8bbc db31 87bb d63c 25bd cffd f03c
000001b0: 8566 5a3c e38f 723b 778c 4dbb 954e f2bc
000001c0: b4fb 433c 13b7 adba 50e4 7b3c eb35 ffbb
000001d0: 20de de3b 5623 a93c 5a25 5b3b acb0 073d
000001e0: 51c8 a83c 75c1 cfbb 402d fe3b 853e c7bc
000001f0: ab77 04ba 2a8b d33c 6d48 8e3c 7d03 1f3d
00000200: 8adf 023c 4be9 21bc bf70 5c3b a38f c73b
00000210: 22e9 2cbd 8766 1cbb cee6 a73c 85e1 edbb
00000220: 0725 6d3b b767 0ebc e002 463c 428b b83b
00000230: b371 4f3c 385c cbba 13b2 d83b f82a 413b
00000240: 233a 4dbb d984 043c 7239 f0bb ffdd 99bc
00000250: b103 833c ecb2 86bc 6ac9 e03c 4d4e 75bc
00000260: 6e82 38bc 5147 30bc a46b 9abc 3db1 fbba
00000270: a574 be3c 8f59 98bc 440d c5bb d6ce 233d
00000280: b37e 63bc cdaa 4e3d 6e89 8bbc 87ec 5abc
00000290: d338 adbc 2d6e 0d3d 10d1 84bb 614b 32bd
000002a0: 3b75 dabc a83d 79bb 833b 09bd e81e d03b
000002b0: 8f30 7bbb ca75 68bb addd 4f3c b795 caba
000002c0: 36fd 97bc d74b 943b d779 9d3c 820c 6ebc
000002d0: 5d27 5dbd 7b68 a73b fdf6 1a3c 55d6 0bbc
000002e0: 7ff4 17bc 75f4 70bb 7ff2 3abc e8aa 95bc
000002f0: 3064 26bb 8b43 083c 126e 79bc f099 283c
00000300: 5ffc c0bc a212 883c 182d 03bc 2b1a 803c
00000310: 2144 313c 377f 363c 6155 babc 096a 8e3b
00000320: 8561 4a3c e0ae f9bb 5880 84bc 9bbf 163d
00000330: fa63 c63b 11b8 b13c 3cde 1cbc a9fe 84bc
00000340: d75a 963c 1840 4dbc 3dec 99bc 8046 99bc
00000350: a56d b63b e810 1c3c ab21 8e3b 8bb1 aa3b
00000360: 8be3 d4bc 3a69 c5bc a68c a73b df7a 1f3d
00000370: b58e de3c 50fa 1ebb a0eb 143c 62ad d83b
00000380: 78fc eeba 4758 a7bc 5cc8 923c 7da4 9abb
00000390: b371 87ba 9de6 deba 5085 68bc 41a7 a5bc
000003a0: 8833 10bc e51f 683b a7ff 36bc 72d6 063c
000003b0: d629 193c 72a5 7d3c 37ca 6fbc 8475 84bc
000003c0: 81b1 8f3c 6496 233c 3bce b23c 455d 2fbc
000003d0: 6e0a 0a3b 1d6d a8bb 80fc 42bb fec1 90bc
000003e0: 2369 73bb 05c4 da3b 7247 d8ba 0782 87bb
000003f0: 47a7 a3bb 86fd 0cbc ad97 f23b 4cd0 a73c
0.003018355 0.017979566 0.0044634556 -0.010104599 -0.011875956 -0.020509185 -0.04449031 0.0066669085
0.0427991 0.00809944 0.016665105 0.02636203 -0.0075136954 0.023095911 -0.0066135013 -0.025341615
-0.0018002834 -0.0108402725 0.023439897 0.014824323 0.008043273 0.00234474 0.001888182 0.028784966
0.010524819 -0.0123005025 -0.003585383 -0.0053317025 0.011946074 -0.009545412 0.0036613976 -0.010017942
-0.0016223807 0.010631338 -0.02915423 -0.0012227105 0.0077279643 0.011494677 -0.009139627 0.0075681056
0.025389124 0.016215106 -0.0133832265 0.0132507 0.014223083 0.0091245985 0.05741616 -0.0123066
-0.015139733 -0.0011419592 0.0278901 -0.00094562955 -0.014039802 0.007551357 -0.0060470114 0.0038360206
-0.00816081 0.009902967 -0.012925996 -0.013061129 -0.0055659967 -0.005833266 -0.0007448585 0.02460719
0.03657761 0.0099397935 -0.020939589 -0.009687825 0.013285893 -0.0056549436 0.013544105 0.008029666
0.016823748 -0.003979904 0.010895659 -0.03802652 -0.008129849 0.022384627 0.0050099236 -0.015060015
-0.009533182 -0.0044659595 -0.027708 -0.008574845 -0.005450187 0.012230432 -0.0026822076 -0.03305073
-0.022583297 -0.035106923 0.009598442 0.00027617285 0.00047170845 0.012020142 0.0005730006 -0.0294828
0.019415276 0.016917858 -0.017259851 0.020421445 0.008657328 0.029203514 -0.0014586583 0.016888855
-0.016977629 -0.0041258163 -0.04034122 0.0294179 0.013330107 0.0037012033 -0.003136424 -0.029578486
0.011961866 -0.0013253413 0.015374258 -0.00778841 0.0068013817 0.020646732 0.0033439011 0.03312747
0.02060333 -0.0063402005 0.007756859 -0.024321804 -0.00050532323 0.025823195 0.01736852 0.038821686
0.007987866 -0.009882282 0.0033636538 0.006090121 -0.04221452 -0.0023864822 0.020495798 -0.00725955
0.00361854 -0.00869172 0.012085646 0.005631835 0.012661385 -0.0015515154 0.006613025 0.0029475074
-0.003131517 0.008088314 -0.0073310668 -0.018782614 0.015992971 -0.016442738 0.027439792 -0.014972282
-0.011261566 -0.010759191 -0.018850155 -0.0019202601 0.02324898 -0.018597392 -0.0060135443 0.039992176
-0.013885188 0.050455857 -0.017033305 -0.013362057 -0.02114526 0.0345289 -0.0040532425 -0.04352892
-0.026667228 -0.0038031135 -0.03350402 0.0063513406 -0.0038328504 -0.0035470598 0.012687129 -0.0015455995
-0.018553358 0.0045256424 0.019223137 -0.014529349 -0.053992618 0.0051088906 0.009458301 -0.008534987
-0.009274601 -0.0036766801 -0.011410355 -0.018269971 -0.0025389306 0.008316885 -0.015223997 0.010290608
-0.02355784 0.016610447 -0.008006357 0.015637478 0.010819466 0.011138729 -0.02274579 0.0043461365
0.012352352 -0.0076197237 -0.01617448 0.036803823 0.0060543986 0.021694215 -0.009574469 -0.016234713
0.018353863 -0.012527488 -0.018789405 -0.018710375 0.00556727 0.009525515 0.0043375096 0.005209153
-0.025987407 -0.024098027 0.005113202 0.03893554 0.027167657 -0.0024258085 0.0090893805 0.0066124657
-0.00182332 -0.020427836 0.017917804 -0.0047193156 -0.0010333568 -0.0017005984 -0.01419194 -0.020221354
-0.0088013485 0.0035419401 -0.011169351 0.008229839 0.009348353 0.01548134 -0.014635614 -0.016169317
0.017540695 0.009984586 0.021826854 -0.0107033895 0.0021063345 -0.0051399604 -0.0029752553 -0.017670628
-0.0037141524 0.0066761994 -0.0016500785 -0.0041353735 -0.0049943062 -0.008605367 0.007403335 0.020485066

action_model._continuous_distribution.mu.bias f4 [2]
00000000: 0000 0000 0000 0000
0.0 0.0

action_model._discrete_distribution.branches.0.weight f4 [1, 128]
00000000: 07e6 eeba 7180 a4bb 83b3 96ba 791f 973b
00000010: 0ac1 823c e19d 053c 5f9e c83b 41cc 9d3b
00000020: a743 073b 4c55 473c e829 a33b a043 73bc
00000030: 7018 16bc 9b22 763c d047 f9ba dec9 953a
00000040: a538 d83b 40bc fbbb 6bcd 42bc dd95 a63b
00000050: b045 563b 6854 96bb 7001 c13b bea7 b23b
00000060: 1ac7 003a cd3b 5aba 5f44 2ebc c8bc 4c3c
00000070: 3d1a e33b 63ba dfba 4b66 6e3b 5b7b 87bc
00000080: 5846 863b f50c 163c 62cf a63b fce0 34bb
00000090: 8d20 703c 2f3e 4fbb 2393 96bb 785e d3b9
000000a0: e65c a3ba 3672 b13c 5fcc a43b 0231 d6bb
000000b0: c7f1 96bc 5d05 603c d436 b73b 19e7 933b
000000c0: 409d c13b dbad f13b 2df2 203b e0be 56bc
000000d0: 509d e7b9 ed93 cbbb 09d7 83ba 3e04 0e3c
000000e0: 4b44 4a3c 573b adbc 20a6 34bb 7f92 eeb9
000000f0: 950e 49ba a917 8ebc e412 85bb 2f56 4eb9
00000100: eb46 ce3b 10d2 113c 7bf4 093b dc73 873c
00000110: 78ff f0bb 5f5a 0f3c ef16 2cbc 9cae 4b35
00000120: 0321 a5bb c15b b83a 2096 b939 5aad 743a
00000130: 4783 d6ba 8fdf a83a 1822 9d3b 03e5 cebb
00000140: 4b6f 31bc 4f8c 603a 8864 453c 9d62 f93b
00000150: a02c fdbb 6335 073c 0219 8dbb 2d58 9fbb
00000160: 9a33 1cbb b5d1 e1b9 d54b 01bc c5d4 7bbb
00000170: 4896 173b ab36 7f3b c805 d63b c376 9aba
00000180: 7ed4 223b 5ff4 e83b e11e c63b e695 9fbb
00000190: 8b7c 35bb 754c 623c f752 ca3b 53ff e9ba
000001a0: d8c4 63bc a3ce 8d3c 0be8 073c 8ddc 763c
000001b0: 11c1 b73b 0f0d 98bb 0880 b83c 8c55 893a
000001c0: 1bf2 df3b 5f5b 39bc 6f71 5439 dddc 42bc
000001d0: f3e2 8fba 814a 8abc b6fa 053b 02d2 2a3c
000001e0: 12f1 92bb 0ba5 99bb 637d c4bb a941 0fbb
000001f0: ab2f 643c e16d 10bc 640b c9ba ad17 7e3c
-0.0018226512 -0.005020194 -0.001149759 0.004611906 0.015961189 0.008155317 0.006122395 0.0048156087
0.002063969 0.012166332 0.004979361 -0.014847666 -0.0091611 0.015022899 -0.0019018594 0.0011427959
0.0065985494 -0.0076823533 -0.011889796 0.005083783 0.0032695346 -0.0045876987 0.005890064 0.0054521253
0.0004912481 -0.0008324951 -0.010636418 0.012496181 0.006930618 -0.0017069097 0.003637689 -0.016538313
0.004097741 0.009158363 0.00509064 -0.0027599921 0.014656198 -0.0031622758 -0.004595177 -0.0004031544
-0.0012463599 0.021660905 0.0050292457 -0.006536604 -0.018425835 0.013673154 0.005591253 0.004513633
0.0059086382 0.0073754615 0.002455841 -0.013107032 -0.0004417696 -0.0062127025 -0.0010058592 0.008668004
0.012345384 -0.02114646 -0.0027564839 -0.00045504046 -0.00076697144 -0.017345266 -0.00406109 -0.00019677797
0.006295075 0.00890018 0.0021050263 0.016534738 -0.007354673 0.0087495735 -0.010503515 7.5877483e-07
-0.0050393357 0.0014065431 0.00035397802 0.0009333693 -0.0016366028 0.0012884008 0.004795324 -0.0063139214
-0.010829757 0.00085658295 0.012047894 0.0076106326 -0.007726267 0.0082524745 -0.0043059597 -0.0048628063
-0.0023834468 -0.00043071588 -0.007891615 -0.003842638 0.0023130346 0.0038942497 0.006531451 -0.0011784661
0.0024845893 0.0071092094 0.0060461615 -0.004870164 -0.0027692642 0.013812174 0.006174441 -0.0017852582
-0.013901912 0.017310446 0.008295069 0.015067232 0.005607732 -0.0046402286 0.022521988 0.0010477765
0.006834281 -0.0113132885 0.00020260153 -0.011893478 -0.001097767 -0.01688123 0.0020443625 0.010426046
-0.004484304 -0.004688864 -0.0059963926 -0.0021859205 0.013927381 -0.00881526 -0.0015338478 0.015508574

critic.network_body.linear_encoder.seq_layers.0.weight f4 [128, 6]
00000000: c621 863b 51ac f93e fce7 123e a897 833e
00000010: b140 e7be 3dec c63e c003 503e 620d 36bf
00000020: 2803 003e 6785 483e 3744 2ebf c4e6 a13d
00000030: eb81 fd3e 1e2e 8c3c 626e c1bc f0c7 9fbe
00000040: 6c22 33be e018 d5be 98a1 c13e 86e6 0b3e
00000050: 5d17 04be a73f c03e 6210 1c3f c906 d3be
00000060: cabf 1b3e 66eb dbbe 36a0 9ebe 441e 00be
00000070: c51f 84be a1c3 26bc 2fac 4d3e 3444 0bbf
00000080: c3c6 92be fd22 1abf 6864 7cbe d806 f93d
00000090: 9f17 d9bd a29d 31be 3d6a eabe 1515 0bbe
000000a0: 8e1d d4be 2081 69be 9017 37bf 5e6c 5cbe
000000b0: 3377 083f 2fdd 1abe 7220 073f 297e 60be
000000c0: 3c73 ebbd 31cc 9fbc 6f4d 2dbf 3d90 44bc
000000d0: 6181 6a3d dfe1 d3bd 964a 1e3f 686c 2f3e
000000e0: b0c6 693e e400 25bf fca0 abbe 324d 12bf
000000f0: ac56 91be 19c9 f1be f469 1ebf af14 453e
00000100: 2ae8 afbd 00bc 36bf e81e a83e 11ce bebe
00000110: ab36 13be b793 9d3e 4798 abbf 781c c73e
00000120: 405a f13d 300d 803d 4b10 563e b3dc 3e3e
00000130: b366 1bbe 8154 a4be e657 c13e 0335 a6be
00000140: 6288 3ebf 491d e0bd 1195 26be faec b8be
00000150: 6fb9 943e 12e1 9b3e d876 19bf 2017 b23e
00000160: 4b5a a2be 6a27 9e3e ed4c 0dbe 8088 103e
00000170: c350 f43d 8160 10bf 63cb 043d 5e29 44be
00000180: 541c 253f 74ca 14bf baac c1be a47b a3be
00000190: e9da 81be 6bb1 653a d9ea 98bf 2a0f 153f
000001a0: 16f2 6abd cfcd 303f 1b18 d2bd e206 99bc
000001b0: 31e8 2c3e b004 933d ee1c 96bd bba4 143f
000001c0: c381 9c3e 9b6a 2abf cdf8 acbe f4d2 9fbe
000001d0: c384 7c3e 5392 38be 7566 033f e4ac 91bf
000001e0: f61f 46bf 3099 2b3f 27e1 b63e 849d 423e
000001f0: d4c7 67be 8ab6 303f e584 203d 7383 b33e
00000200: 9715 873e fbc1 f4be 6826 ab3d 4630 5abe
00000210: 976a 74bf 6e7d 8d3e 7486 e6bc bad2 0a3f
00000220: 39d2 0fbf 2c59 113e be35 543d ed3c 6b3f
00000230: 9597 64bd 7cb7 953e f59a ca3d bcac 063e
00000240: 4359 39be 2d31 c23c 4d57 f93c 6bf6 403e
00000250: cc58 d73e cfe6 3a3e 6528 f53e de37 f4be
00000260: 9bf7 873f 0e42 8f3e 870e babe 4cf6 bf3e
00000270: d673 7c3e 4df8 b53d b514 b2bd aa91 10bf
00000280: b774 ef3d 533b ed3d 2b49 203f daa3 86bd
00000290: c599 d2bc b13a c4be 9116 183e ef84 babe
000002a0: d28f 53bf 5843 a73d c0c9 423f 9e8a cabd
000002b0: 7743 183f c06a 97bc 9c30 5c3e 48e6 12bd
000002c0: d9a9 483e ec5f 2d3f 9b9e 8fbd 1efd 4a3f
000002d0: 29c6 523e f988 cebd 9810 7ebe 00af 063e
000002e0: d2ce c3be 2000 7cbe ee15 62bd 2262 153f
000002f0: b2ac 2a3e 4019 a13d 26a4 b9bd 740c 92be
00000300: 20cb f53e c274 e73e 24fb b2be 2e37 d53e
00000310: 3b8c 00bf 422c 0bbf 6cd7 cd3e b3ed d1be
00000320: 1e08 6e3d 2bab 853d 278a 57be d8d8 07bf
00000330: a5dc 153f b836 b0bd d8c3 d7be c554 51bf
00000340: 5f37 8bbe dee6 5e3e 5d1a 2e3e d304 103d
00000350: ec2f a83d 837f e3be d612 b1bd 61ba 033f
00000360: 836f 84be b96e 013f 6bdd 56bc 848c 1ebe
00000370: c6f3 b6be c47d fb3d e2aa a0be bee5 973e
00000380: 03fe 14be 5e76 99be 3b5d 883e 1a3d 89be
00000390: f8cd 85be c1e2 893e cc18 933e 94e6 ef3c
000003a0: e91e 973d 7b8a 123f ff4f 5ebd a304 073f
000003b0: 0995 ccbe a0b7 be3e c3af 7cbd 0785 78be
000003c0: e36e 7ebe bd7d 52be 04c6 e33d 0f76 0fbf
000003d0: c9f8 41bf e0ba ffbe 8a36 debc 76fc 42bf
000003e0: d31a 39be 08e5 c33e 48b3 5f3d e393 17be
000003f0: b487 e23e 5996 833e 825a 9a3c 1735 333e
0.0040933816 0.4876428 0.14346308 0.25701642 -0.45166543 0.3885211 0.2031393 -0.7111417
0.12501204 0.19582139 -0.6807284 0.07905343 0.49513182 0.017111834 -0.023612205 -0.31207228
-0.174936 -0.4162054 0.378186 0.13662156 -0.12899537 0.37548563 0.609625 -0.41216114
0.1520988 -0.42953032 -0.30981606 -0.12511545 -0.25805488 -0.0101784775 0.20085214 -0.54400945
-0.28667268 -0.6020964 -0.24647677 0.121595085 -0.106002085 -0.17345288 -0.45784178 -0.13582261
-0.41428798 -0.22803164 -0.7152033 -0.21525714 0.53306884 -0.15123437 0.5278388 -0.21923126
-0.114965886 -0.019506546 -0.6769628 -0.01199728 0.05725229 -0.10345816 0.6183256 0.17131197
0.228297 -0.64454484 -0.3352126 -0.5714904 -0.28386438 -0.47223738 -0.6188042 0.19246171
-0.08589204 -0.71380615 0.3283608 -0.3726659 -0.14376323 0.3077676 -1.3405846 0.38888907
0.11784792 0.06252515 0.20904653 0.18638878 -0.15175895 -0.3209572 0.37762374 -0.3246232
-0.74426854 -0.10943086 -0.16267802 -0.361183 0.29047725 0.30445153 -0.59946966 0.34783268
-0.31709513 0.30889446 -0.13798876 0.1411457 0.119294666 -0.56397253 0.032420527 -0.19156405
0.6449635 -0.5812142 -0.37827092 -0.31930268 -0.25362328 0.0008762094 -1.194667 0.58226264
-0.057359777 0.6906404 -0.10258504 -0.01868004 0.16885449 0.071786284 -0.07329737 0.5806386
0.3056775 -0.6656892 -0.3378357 -0.31215632 0.2466002 -0.18024568 0.5132821 -1.1380887
-0.7739252 0.6703062 0.35718653 0.190054 -0.22634822 0.6902853 0.039189238 0.35061225
0.2638366 -0.47804245 0.08356935 -0.21307477 -0.95475143 0.27634758 -0.028140284 0.54227793
-0.5618015 0.14194173 0.051809065 0.9188984 -0.055808622 0.2924155 0.09892837 0.1315183
-0.18100457 0.02370509 0.030437136 0.18844001 0.42059934 0.18252109 0.4788238 -0.47698873
1.0622438 0.27980083 -0.36339208 0.37492597 0.24653563 0.0888525 -0.08695356 -0.56472266
0.116921835 0.11583581 0.62611645 -0.06574221 -0.025708089 -0.38326028 0.14852358 -0.36429545
-0.8264133 0.08167142 0.76089096 -0.098897204 0.59477943 -0.01848352 0.21502918 -0.035864145
0.19596042 0.6772449 -0.070126735 0.79292476 0.20583405 -0.10084719 -0.24811018 0.13152695
-0.3824373 -0.24609423 -0.055196695 0.58352864 0.1666744 0.07866144 -0.09064512 -0.28525126
0.48006535 0.45206267 -0.3495723 0.4164366 -0.50213975 -0.5436441 0.40203416 -0.41001663
0.05811321 0.06526788 -0.21048795 -0.5306525 0.585398 -0.08604187 -0.42141604 -0.81769973
-0.27190682 0.21767756 0.17002244 0.03516085 0.08212265 -0.4443322 -0.08646171 0.51456267
-0.25866327 0.50559574 -0.013114314 -0.1548329 -0.3573286 0.12279847 -0.31380373 0.29667467
-0.14550023 -0.2997312 0.2663363 -0.2680443 -0.26133704 0.26930812 0.28729856 0.029284753
0.073789425 0.57242554 -0.05427551 0.5274145 -0.39957455 0.3724947 -0.061691057 -0.24269496
-0.24846987 -0.20555778 0.11121753 -0.5603952 -0.7577024 -0.49947262 -0.027125616 -0.76166475
-0.18076639 0.38260674 0.054614335 -0.14802508 0.44244158 0.25700644 0.018841986 0.17500721

critic.network_body.linear_encoder.seq_layers.0.bias f4 [128]
00000000: 0000 0000 0000 0000 0000 0000 0000 0000
00000010: 0000 0000 0000 0000 0000 0000 0000 0000
00000020: 0000 0000 0000 0000 0000 0000 0000 0000
00000030: 0000 0000 0000 0000 0000 0000 0000 0000
00000040: 0000 0000 0000 0000 0000 0000 0000 0000
00000050: 0000 0000 0000 0000 0000 0000 0000 0000
00000060: 0000 0000 0000 0000 0000 0000 0000 0000
00000070: 0000 0000 0000 0000 0000 0000 0000 0000
00000080: 0000 0000 0000 0000 0000 0000 0000 0000
00000090: 0000 0000 0000 0000 0000 0000 0000 0000
000000a0: 0000 0000 0000 0000 0000 0000 0000 0000
000000b0: 0000 0000 0000 0000 0000 0000 0000 0000
000000c0: 0000 0000 0000 0000 0000 0000 0000 0000
000000d0: 0000 0000 0000 0000 0000 0000 0000 0000
000000e0: 0000 0000 0000 0000 0000 0000 0000 0000
000000f0: 0000 0000 0000 0000 0000 0000 0000 0000
00000100: 0000 0000 0000 0000 0000 0000 0000 0000
00000110: 0000 0000 0000 0000 0000 0000 0000 0000
00000120: 0000 0000 0000 0000 0000 0000 0000 0000
00000130: 0000 0000 0000 0000 0000 0000 0000 0000
00000140: 0000 0000 0000 0000 0000 0000 0000 0000
00000150: 0000 0000 0000 0000 0000 0000 0000 0000
00000160: 0000 0000 0000 0000 0000 0000 0000 0000
00000170: 0000 0000 0000 0000 0000 0000 0000 0000
00000180: 0000 0000 0000 0000 0000 0000 0000 0000
00000190: 0000 0000 0000 0000 0000 0000 0000 0000
000001a0: 0000 0000 0000 0000 0000 0000 0000 0000
000001b0: 0000 0000 0000 0000 0000 0000 0000 0000
000001c0: 0000 0000 0000 0000 0000 0000 0000 0000
000001d0: 0000 0000 0000 0000 0000 0000 0000 0000
000001e0: 0000 0000 0000 0000 0000 0000 0000 0000
000001f0: 0000 0000 0000 0000 0000 0000 0000 0000
0.0 0.0 0.0 0.0 0.0 0.0 0.0 0.0
0.0 0.0 0.0 0.0 0.0 0.0 0.0 0.0
0.0 0.0 0.0 0.0 0.0 0.0 0.0 0.0
0.0 0.0 0.0 0.0 0.0 0.0 0.0 0.0
0.0 0.0 0.0 0.0 0.0 0.0 0.0 0.0
0.0 0.0 0.0 0.0 0.0 0.0 0.0 0.0
0.0 0.0 0.0 0.0 0.0 0.0 0.0 0.0
0.0 0.0 0.0 0.0 0.0 0.0 0.0 0.0
0.0 0.0 0.0 0.0 0.0 0.0 0.0 0.0
0.0 0.0 0.0 0.0 0.0 0.0 0.0 0.0
0.0 0.0 0.0 0.0 0.0 0.0 0.0 0.0
0.0 0.0 0.0 0.0 0.0 0.0 0.0 0.0
0.0 0.0 0.0 0.0 0.0 0.0 0.0 0.0
0.0 0.0 0.0 0.0 0.0 0.0 0.0 0.0
0.0 0.0 0.0 0.0 0.0 0.0 0.0 0.0
0.0 0.0 0.0 0.0 0.0 0.0 0.0 0.0

critic.network_body.linear_encoder.seq_layers.2.weight f4 [128, 128]
00000000: 66fd 4b3d 2eee 1f3c eb1c f33d a972 823e
00000010: d4a2 383d c0c9 5fbc 36a1 ad3d fc2d 0b3e
00000020: 8116 733d 3d33 48bd d620 33bd 838c 08bc
00000030: bde5 15be f4a5 823d 8826 1abd dc6e 18be
00000040: 7517 18bd c66d cdbd c23e 423e 57e9 3a3d
00000050: 9fc9 b13c 15fc debc 512f ea3d d73c b63d
00000060: a2d1 143e 6a3f 41bd 2f45 fa3b 1d54 1fbd
00000070: 07cb c8bd 26a0 cabd af94 29bb bec2 a7bd
00000080: d136 b7bc 2163 f7bc d00a ca3d 8dd9 0a3d
00000090: 6417 313d b665 c3bd 7a1a d63b 690e 0bbd
000000a0: f4b1 c53d 4bb9 403d e437 a13c 2005 753c
000000b0: 6257 0d3e ec2d b8bd 5080 32bd c901 f5bd
000000c0: 28b2 05bd 5d26 443e 1c39 ccbc da30 7a3d
000000d0: 96ba 8dbe a8f1 00be bed5 af3d 3b73 353d
000000e0: cae4 4c3c 844f 1bbc 3990 b23c c29f 0d3d
000000f0: df85 20bd 3ce2 0e3d 24b0 2ebc dc6d d5bd
00000100: 3954 383d 5e81 113e 09a6 09be 85e2 fc3d
00000110: 1b42 123d 71b0 69bd 493d 553d 72b4 5fbd
00000120: bfd1 01bc e92d d83c 6c0e cbbc 1f43 02be
00000130: fc5c 143c 0cbc 50be 8a7e 80bb be3e 463d
00000140: 096a a5bc dcd6 563d 91a7 383c d6ec 173b
00000150: e9aa 4fbd 4680 5bbc 7e2b 2fbe 57a6 cb3d
00000160: 623e e8bd 0775 fd3c 7ad2 e7bd 6b4f 8cbd
00000170: ddf7 d0bd 48a9 083e 7678 41be 285b ccbd
00000180: deaa 523d e4ad 42bc 83e2 6fbc 853a 87bc
00000190: 3d65 ddbb 9446 483d cf7b e83d c490 4cbc
000001a0: 740e 303c c95c ca3d 7662 503d 8d5e 94bc
000001b0: 8cff 48bb 4c53 013b 6939 b1bd df3a 2abb
000001c0: 8510 9bbc 8bc6 1d3d 9a3f 73bd 8823 a5bd
000001d0: b4c3 313d 42e2 e63d 0607 2bbd e6a9 a73d
000001e0: 5479 debc b630 0f3e 56f2 cf3c 7e81 9e3c
000001f0: 8c86 243d 95af 06be ef02 df3b f407 2bbd
00000200: 0b81 d33d 49f5 c43c ddd9 09bc b35e aabd
00000210: 68f9 a7bd 705f 96bc 9522 a53a 239a 36be
00000220: fbdc fcbd a56a 963d d542 b6bd b4f9 82bd
00000230: 5354 e2bd 380d 99bd 155e 8bbd e524 febd
00000240: aab1 f13d 416d 8dbd 2fea 263c 5c23 b53d
00000250: 2d00 873d 729f 2cbd 93b9 5a39 79e4 1b3d
00000260: 66df d5bd bfdd fd3d cae9 f8bd 79f6 fbbb
00000270: 3757 a33b b8e4 a83d 0495 933b c9a0 3abe
00000280: a73d 3bbe 5c95 803d f8a0 59bd 9245 db3c
00000290: 24b3 d93d be47 af3d 0390 aebb afa3 0d3e
000002a0: e538 bebc 3954 45bc 1f8d fd3d 1e54 8ebd
000002b0: b234 30bd 753d 6f3c 4f85 28bd 254d 11bd
000002c0: df76 0f3e 2efc 013e 8b1b 6dbd 59f2 d93c
000002d0: 6cf1 aa3d 91e4 a2b9 85e5 d53d 32de 8c3c
000002e0: d46c b23b c231 aa3d e621 4f3d 0412 39bc
000002f0: 7a52 ce3d b2cf 84bc e067 4dbd 8388 ca3d
00000300: 2b68 1d3d a857 7fbd 5fe3 45be 789a ff3d
00000310: b216 433d 6029 a9bd 0d5c c63c d1af 783b
00000320: 3a99 5cbd ce22 b0bd 6c96 76bd 1284 63bd
00000330: 3a5b 48be 100d 7bbd c2c1 0fbd 9a67 29bd
00000340: f05a 973c 3010 f9ba e8aa fc3a 5bfe ae3c
00000350: d332 e63b eadc 0ebd 4ced fb3d 3e93 983d
00000360: 10e7 da3d 0886 42be 8aa0 40be 7e22 5f3d
00000370: 736d fb3c f69f 833d c4f8 2c3e 754f 4f3e
00000380: fe22 86bc 308f a3bd d494 febd 3ffa 7a3c
00000390: 35ef 12bd bcaf 183e 4c0d 723e 8472 13bb
000003a0: db68 25bd 6697 23be 0be0 e8bc 5283 acbd
000003b0: ce94 71bc 3ce6 efbd ee3c 9abd 2f12 de3c
000003c0: a0cb 28bd 4947 053e 75bc 833d 7017 0c3e
000003d0: 6d49 41be 0351 f03d b4fc 503d fe1e 85bd
000003e0: cad6 dfbc 4abb 0f3e 91dd 943d 6a30 dfbd
000003f0: a522 993d ba26 cbbd 8c8a 8ebc 6889 173e
0.049802206 0.009761376 0.1187075 0.25478104 0.04507716 -0.013658941 0.08478014 0.1359176
0.059347633 -0.04887699 -0.043732487 -0.008334282 -0.1463842 0.06379309 -0.037634403 -0.1488604
-0.037131745 -0.10030703 0.18969253 0.045632686 0.021702586 -0.027219811 0.11434806 0.08898323
0.14533094 -0.047179617 0.007637642 -0.038898576 -0.098043494 -0.09893827 -0.0025875976 -0.08191441
-0.022365006 -0.030198636 0.098653436 0.03389888 0.043235198 -0.09540884 0.006533918 -0.03394929
0.096530825 0.04705171 0.019679971 0.014954835 0.13802865 -0.08993134 -0.0435794 -0.11963231
-0.032640606 0.1915526 -0.024929576 0.061081745 -0.27681416 -0.12592185 0.0858569 0.044299345
0.012505719 -0.009479407 0.021797286 0.034576185 -0.03919017 0.034883723 -0.010662112 -0.10421345
0.045002196 0.14209506 -0.13442244 0.12347893 0.035707574 -0.057053033 0.0520604 -0.054615445
-0.0079235425 0.02638908 -0.02478715 -0.12720917 0.009055372 -0.20384234 -0.0039213346 0.04839968
-0.020192163 0.052451 0.01127042 0.0023181937 -0.050700102 -0.013397282 -0.17106435 0.09943836
-0.113400236 0.030939592 -0.11319442 -0.06851085 -0.10203526 0.13345826 -0.18893608 -0.09978324
0.051432483 -0.011882279 -0.014641407 -0.016507396 -0.0067564533 0.048895434 0.113517396 -0.012485687
0.010745633 0.098809786 0.05087515 -0.018111492 -0.0030669896 0.0019733487 -0.08653528 -0.0025975031
-0.018928776 0.038519423 -0.059386827 -0.08063418 0.043399528 0.11273624 -0.041754745 0.081867024
-0.027157463 0.13983425 0.02538411 0.019348856 0.040167376 -0.13152917 0.0068057696 -0.04175563
0.10327347 0.024042742 -0.008413759 -0.08318844 -0.08201867 -0.018356055 0.0012598807 -0.17832236
-0.12346836 0.073445596 -0.08899466 -0.06395283 -0.1105124 -0.074732244 -0.06805054 -0.12409381
0.11801465 -0.06905604 0.01018767 0.08844635 0.065918304 -0.042144246 0.00020859232 0.038059685
-0.104430005 0.1239581 -0.12153967 -0.007689294 0.004984762 0.0824675 0.004503848 -0.18225397
-0.18285237 0.06278488 -0.053132027 0.026766572 0.106298715 0.085586056 -0.005327226 0.13831972
-0.023220489 -0.012044006 0.12380432 -0.06949638 -0.043019004 0.014602055 -0.041142758 -0.03547396
0.1401019 0.12693855 -0.057887595 0.026604818 0.08346829 -0.00031069343 0.10444168 0.017195795
0.005445102 0.08310272 0.050569437 -0.011295799 0.10074325 -0.016212318 -0.05014789 0.09889319
0.03842942 -0.062339455 -0.19325016 0.124806345 0.047629066 -0.08259845 0.024213815 0.0037946592
-0.053857066 -0.086003885 -0.060202047 -0.055545874 -0.1956605 -0.061291754 -0.03509689 -0.041358568
0.01847598 -0.0019002017 0.0019277008 0.02136152 0.0070251017 -0.03487865 0.1230112 0.07449959
0.10688603 -0.18996441 -0.18811241 0.054476254 0.030691838 0.064269945 0.16891772 0.20245154
-0.016374107 -0.07986295 -0.124307305 0.015318452 -0.035872657 0.14910787 0.23637885 -0.0022498677
-0.0403832 -0.15975723 -0.028427145 -0.08423485 -0.01474495 -0.117138356 -0.07531153 0.02710828
-0.041209817 0.13015474 0.0643243 0.13680816 -0.18875666 0.11734202 0.051022246 -0.06500052
-0.0273241 0.14036289 0.07268823 -0.10897906 0.07477311 -0.09919496 -0.017400049 0.1479851

critic.network_body.linear_encoder.seq_layers.2.bias f4 [128]
00000000: 0000 0000 0000 0000 0000 0000 0000 0000
00000010: 0000 0000 0000 0000 0000 0000 0000 0000
00000020: 0000 0000 0000 0000 0000 0000 0000 0000
00000030: 0000 0000 0000 0000 0000 0000 0000 0000
00000040: 0000 0000 0000 0000 0000 0000 0000 0000
00000050: 0000 0000 0000 0000 0000 0000 0000 0000
00000060: 0000 0000 0000 0000 0000 0000 0000 0000
00000070: 0000 0000 0000 0000 0000 0000 0000 0000
00000080: 0000 0000 0000 0000 0000 0000 0000 0000
00000090: 0000 0000 0000 0000 0000 0000 0000 0000
000000a0: 0000 0000 0000 0000 0000 0000 0000 0000
000000b0: 0000 0000 0000 0000 0000 0000 0000 0000
000000c0: 0000 0000 0000 0000 0000 0000 0000 0000
000000d0: 0000 0000 0000 0000 0000 0000 0000 0000
000000e0: 0000 0000 0000 0000 0000 0000 0000 0000
000000f0: 0000 0000 0000 0000 0000 0000 0000 0000
00000100: 0000 0000 0000 0000 0000 0000 0000 0000
00000110: 0000 0000 0000 0000 0000 0000 0000 0000
00000120: 0000 0000 0000 0000 0000 0000 0000 0000
00000130: 0000 0000 0000 0000 0000 0000 0000 0000
00000140: 0000 0000 0000 0000 0000 0000 0000 0000
00000150: 0000 0000 0000 0000 0000 0000 0000 0000
00000160: 0000 0000 0000 0000 0000 0000 0000 0000
00000170: 0000 0000 0000 0000 0000 0000 0000 0000
00000180: 0000 0000 0000 0000 0000 0000 0000 0000
00000190: 0000 0000 0000 0000 0000 0000 0000 0000
000001a0: 0000 0000 0000 0000 0000 0000 0000 0000
000001b0: 0000 0000 0000 0000 0000 0000 0000 0000
000001c0: 0000 0000 0000 0000 0000 0000 0000 0000
000001d0: 0000 0000 0000 0000 0000 0000 0000 0000
000001e0: 0000 0000 0000 0000 0000 0000 0000 0000
000001f0: 0000 0000 0000 0000 0000 0000 0000 0000
0.0 0.0 0.0 0.0 0.0 0.0 0.0 0.0
0.0 0.0 0.0 0.0 0.0 0.0 0.0 0.0
0.0 0.0 0.0 0.0 0.0 0.0 0.0 0.0
0.0 0.0 0.0 0.0 0.0 0.0 0.0 0.0
0.0 0.0 0.0 0.0 0.0 0.0 0.0 0.0
0.0 0.0 0.0 0.0 0.0 0.0 0.0 0.0
0.0 0.0 0.0 0.0 0.0 0.0 0.0 0.0
0.0 0.0 0.0 0.0 0.0 0.0 0.0 0.0
0.0 0.0 0.0 0.0 0.0 0.0 0.0 0.0
0.0 0.0 0.0 0.0 0.0 0.0 0.0 0.0
0.0 0.0 0.0 0.0 0.0 0.0 0.0 0.0
0.0 0.0 0.0 0.0 0.0 0.0 0.0 0.0
0.0 0.0 0.0 0.0 0.0 0.0 0.0 0.0
0.0 0.0 0.0 0.0 0.0 0.0 0.0 0.0
0.0 0.0 0.0 0.0 0.0 0.0 0.0 0.0
0.0 0.0 0.0 0.0 0.0 0.0 0.0 0.0

critic.value_heads.value_heads.extrinsic.weight f4 [1, 128]
00000000: 3393 00be 020d 3d3e d8a4 343d 40f4 123c
00000010: e02c 5a3e 00e6 873d f0d4 853c 2804 fe3d
00000020: 0c14 a93d bc53 01bd 0000 c336 ac4e 063e
00000030: ead4 09be b7bf 18be c818 07be 0a68 1d3e
00000040: c76c 1bbe 78c5 023d 1818 2b3e a2f9 c5bd
00000050: 0e90 583e 88c9 ab3d f8e7 cc3d 2048 c63b
00000060: cc9a 1dbd 6c2e 21bd 9035 403e 12df bcbd
00000070: 2055 6abc d9d4 49be 4966 3cbe c326 09be
00000080: 40fe f3bc 56fa 563e 604e 0e3d dc9f c23d
00000090: a70c 33be 5988 1ebe 443d 3fbd f4e6 a03d
000000a0: 3084 373d 7aeb 4abe 9004 04be 8ea2 4abe
000000b0: 0ce0 213e 4ed2 033e 743c 463e ef2a cabd
000000c0: 60bc d73d 486a 0ebd c46f 523e 7236 28be
000000d0: d244 013e 00a5 2b3b 22d0 483e e431 35bd
000000e0: 981d 51be 9cb4 263e 1d7a f7bd 1005 05bc
000000f0: caad 223e 5820 dc3c f542 d1bd ec91 033d
00000100: 08a9 c23d d899 01be 502a d03c 1c8f 0bbe
00000110: ea22 11be da9f 1e3e 5431 d73d 6851 133d
00000120: 32ce f7bd 44eb d5bd 168e 00be 154c 0bbe
00000130: c088 e2bd c818 393d fce9 2ebe 6696 2c3e
00000140: 04b0 11be e55d 5bbe 50b2 953d c852 f93d
00000150: 1090 973c f08c 2ebc 10d5 b5bd 18d2 52bd
00000160: 4e04 34be 2e95 00be 6c1c ffbd bce3 0c3e
00000170: 08b2 3a3e 509a df3c 8c7f e4bd ccec b5bd
00000180: 2288 e7bd 58ee 5bbd f004 e73d 8621 0fbe
00000190: 40f4 80bc 0c5c 0a3d b8df d03d d0ac e3bd
000001a0: 9698 b2bd 1430 66bd dca0 aabd e335 4fbe
000001b0: cf3b cdbd 0f15 15be 5aaf 0e3e 0c8e 813d
000001c0: ac05 e43d 60bd 153d f02d 0e3d f95c 2ebe
000001d0: ee59 263e 9c1e 61bd 405b 573e 88a9 1c3d
000001e0: 00aa e1b9 14ef 373e 8fea 3fbe 2a34 0cbe
000001f0: 90e5 9dbd 50b5 b7bd ecdc 4ebd 28fd e23d
-0.12556152 0.18461993 0.04410252 0.008969367 0.21306181 0.06635666 0.016336888 0.124031365
0.08255777 -0.031573996 5.811453e-06 0.13115948 -0.13460127 -0.14916883 -0.13193047 0.15371719
-0.15178214 0.031926602 0.1670841 -0.09666754 0.21148703 0.083880484 0.10005182 0.0060510784
-0.038477704 -0.039350912 0.18770432 -0.09222235 -0.014302522 -0.19710101 -0.18398394 -0.13393693
-0.029784322 0.20993933 0.034742713 0.09503147 -0.17485295 -0.154817 -0.046689287 0.07856551
0.0448038 -0.1981639 -0.12892365 -0.19788572 0.15808123 0.12873194 0.19358999 -0.0987147
0.105339766 -0.034769326 0.20550448 -0.16427019 0.12623909 0.0026190877 0.19610646 -0.044237033
-0.20421445 0.16279835 -0.12083838 -0.008118883 0.15886608 0.026870891 -0.10217849 0.032121584
0.095048964 -0.12656343 0.025410801 -0.1362881 -0.14173475 0.15490666 0.105074555 0.035966307
-0.120998755 -0.10445264 -0.12554201 -0.13603242 -0.11061239 0.04518965 -0.17081445 0.16854247
-0.14227301 -0.21422537 0.07309401 0.121739924 0.018501312 -0.010653719 -0.08878529 -0.051469892
-0.17579767 -0.12556908 -0.12456593 0.13758749 0.18231976 0.027295262 -0.1115714 -0.08883056
-0.11305262 -0.0536941 0.11280239 -0.13977632 -0.015741467 0.03377919 0.10198921 -0.11116946
-0.0872051 -0.056198195 -0.08331463 -0.202354 -0.10021173 -0.14558814 0.13934079 0.063259214
0.11133894 0.036557555 0.03471178 -0.17027654 0.16245243 -0.054960832 0.21030903 0.038247615
-0.00043042004 0.17962295 -0.18741821 -0.13691774 -0.07709801 -0.089701295 -0.050503656 0.11083442
