results/dajGoal4/HitTheBall/HitTheBall-3285.pt (torch, 150559 bytes, 13 tensors)

network_body.linear_encoder.seq_layers.0.weight f4 [128, 6]
0	0x3f4f3fc4	0.80956674
1	0x3f89bb3f	1.0760268
2	0x3f01165c	0.5042474
3	0xbc51906a	-0.012790779
4	0xbed56e55	-0.4168574
5	0xbe81b72b	-0.2533506
6	0xbeab0041	-0.3339863
7	0x3d61e39b	0.055148702
8	0xbe980a0e	-0.2969517
9	0x3d94e70b	0.072706304
10	0x3e86789b	0.2626389
11	0xbe8d1785	-0.27557006
12	0xbe972a54	-0.2952448
13	0xbddfc94e	-0.10927068
14	0xbebcd46e	-0.3688082
15	0xbe4e4e58	-0.20147073
16	0x3e3cc6ba	0.18435183
17	0xbe6a313c	-0.22870344
18	0x3ec327f6	0.38116425
19	0xbd629c02	-0.055324562
20	0x3f1364ec	0.5757587
21	0x3e36568c	0.17806453
22	0x3ebdc835	0.37066808
23	0xbee7d578	-0.4528005
24	0xbf02bc96	-0.5106901
25	0xbe93df8c	-0.2888149
26	0xbefc9713	-0.4933401
27	0x3e0a2670	0.13491225
28	0xbf8ec95e	-1.1155202
29	0x3f023176	0.5085672
30	0xbddbc728	-0.107313454
31	0x3e4d5ddd	0.20055337
32	0x3d18771e	0.037222974
33	0x3e70e08c	0.23523158
34	0xbf580aab	-0.8439128
35	0xbea483ab	-0.32131705
36	0x3e8fb672	0.28068882
37	0x3cb677b4	0.022273876
38	0xbce13c1b	-0.02749448
39	0xbe9169a2	-0.28400904
40	0xbebdc2dc	-0.37062728
41	0x3ca79e5a	0.02046125
42	0xbf1da840	-0.61584854
43	0xbe8db1c7	-0.27674696
44	0x3d987f94	0.074462086
45	0xbe0beb3e	-0.13663957
46	0xbf20b3f2	-0.62774575
47	0xbcb8b16c	-0.022545539
48	0xbf459481	-0.77179724
49	0x3e76097e	0.24027058
50	0xbf0f81fe	-0.5605773
51	0xbe641a31	-0.22275616
52	0x3ea17076	0.31531113
53	0x3e8e8637	0.27836773
54	0xbe671442	-0.22566321
55	0x3ec6a678	0.3879888
56	0x3e9c1141	0.30481914
57	0xbe970fa9	-0.29504135
58	0xbe917b68	-0.28414464
59	0xbe926c8b	-0.28598437
60	0x3f1e47dc	0.618284
61	0xbd173293	-0.036913466
62	0xbebdccd9	-0.3707035
63	0xbf2ad24e	-0.6672715
64	0x3ea1835c	0.31545532
65	0x3e9ecf32	0.31017452
66	0xbeb886a6	-0.3604023
67	0xbe0bf526	-0.13667735
68	0x3f2e7c32	0.68158257
69	0xbdb7e293	-0.089787625
70	0x3ed2631a	0.41091233
71	0xbf33999f	-0.7015628
72	0x3b9781d5	0.0046236315
73	0x3eb8c264	0.36085808
74	0x3f844adb	1.0335344
75	0xbeb772e4	-0.35829842
76	0xbf106037	-0.5639681
77	0xbf21c13a	-0.63185465
78	0x3ec9e1c0	0.39430046
79	0x3e64bde6	0.22338066
80	0xbd3d90a6	-0.046280526
81	0xbf09e01f	-0.53857607
82	0x3e23c92e	0.15994713
83	0x3e82d92a	0.25556308
84	0x3f02f75d	0.51158696
85	0x3eb75318	0.35805583
86	0xbca58e88	-0.020209566
87	0x3e0be524	0.13661629
88	0x3d11e624	0.03561987
89	0x3f0711fc	0.52761817
90	0xbe58ead9	-0.21183337
91	0x3d8ebc6a	0.06969531
92	0x3e01b143	0.12665276
93	0xbea25e63	-0.31712636
94	0xbd094ba3	-0.0335194
95	0x3e209a39	0.15683831
96	0xbeee8475	-0.46585432
97	0x3ed01e11	0.4064794
98	0x3ecd092a	0.40046054
99	0x3eceec34	0.40414584
100	0xbe0feb4f	-0.14054607
101	0xbec398ac	-0.38202417
102	0x3f028548	0.5098462
103	0xbe4d1ffe	-0.20031735
104	0x3f5c040f	0.8594369
105	0x3d783572	0.060597844
106	0x3f88ff61	1.0702935
107	0x3f535962	0.8255826
108	0xbef4c110	-0.47803545
109	0x3e8dd77a	0.27703458
110	0x3e017036	0.12640461
111	0xbf39abe3	-0.72527903
112	0x3e5e638a	0.21717659
113	0xbf090a19	-0.5353103
114	0x3eddc9c5	0.43318
115	0xbf450691	-0.76963145
116	0x3f4ff2ce	0.81229866
117	0x3da8043e	0.08203934
118	0xbee53bce	-0.4477219
119	0x3c945fcc	0.018112086
120	0xbf05e8eb	-0.5230853
121	0x3ea54a8f	0.32283446
122	0x3f035d9c	0.5131471
123	0xbee4d26a	-0.44691783
124	0x3f3e611b	0.7436692
125	0xbebd87a5	-0.3701755
126	0xbef72555	-0.4827067
127	0xbf306aa2	-0.6891271
128	0xbe982b09	-0.29720333
129	0xbd750996	-0.059823595
130	0x3d7a03ce	0.061038785
131	0x3eae68e1	0.3406439
132	0xbd5c23b1	-0.053744975
133	0xbd2e4561	-0.042546634
134	0x3e40a958	0.188146
135	0x3e6e5273	0.2327364
136	0xbda2b960	-0.07945514
137	0xbf5cb96b	-0.86220425
138	0xbd815dcc	-0.063167185
139	0xbbd11500	-0.006380677
140	0xbe9a82bd	-0.3017787
141	0x3e2be35b	0.16785948
142	0x3f1d4baf	0.6144361
143	0xbf71cef5	-0.94456416
144	0xbeea0b17	-0.45711586
145	0xbee8956f	-0.4542651
146	0x3f3c6868	0.7359681
147	0x3d534451	0.051578823
148	0x39b7f299	0.0003508523
149	0x39eda92d	0.00045330208
150	0xbf0a6368	-0.5405793
151	0x3e0c647f	0.13710211
152	0xbe706f3f	-0.23479937
153	0x3f03e3e3	0.515196
154	0x3d2f9e9f	0.042875882
155	0x3edfe05e	0.43725866
156	0xbedac4b7	-0.42728207
157	0xbd3370e9	-0.04380885
158	0xbcd829f3	-0.02638719
159	0xbe28a47b	-0.16468994
160	0xbdb1d896	-0.086838886
161	0x3bbc7908	0.0057517327
162	0xbeb6487a	-0.3560217
163	0x3ee2ae7d	0.4427375
164	0x3e224131	0.15845181
165	0x3f472438	0.7778964
166	0x3e5ad281	0.21369363
167	0x3dabb05a	0.08383246
168	0xbdd94aff	-0.106100075
169	0xbd998ad2	-0.07497181
170	0xbe5ed21b	-0.21759836
171	0xbd10afef	-0.035324033
172	0x3e822f0a	0.25426513
173	0xbe6bc1cc	-0.23023146
174	0xbf4eeb31	-0.80827624
175	0x3e06b9b2	0.13156775
176	0x3f9057df	1.1276816
177	0xbec9d3c3	-0.39419374
178	0x3ee10a7f	0.4395332
179	0xbe016a6e	-0.12638256
180	0x3d9faa2a	0.07796128
181	0x3c86cd2e	0.01645526
182	0xbaa77131	-0.0012774823
183	0xbcd6a96d	-0.026203835
184	0x3e306d80	0.17229271
185	0xbe3392e9	-0.1753651
186	0x3ef244eb	0.47318205
187	0x3f38e994	0.7223141
188	0x3d4f6224	0.050630704
189	0xbe5ffa07	-0.21872722
190	0x3eeee1cf	0.46656653
191	0x3e06f5ec	0.13179749
192	0xbdeaca90	-0.11464417
193	0xbe3cb241	-0.18427373
194	0xbf91afb5	-1.1381747
195	0xbe65e740	-0.22451496
196	0xbf0b5eca	-0.5444151
197	0xbeeacf20	-0.4586115
198	0x3e16a95c	0.14713043
199	0xbcb4f360	-0.022088706
200	0x3e50e771	0.20400788
201	0x3da5ad40	0.080896854
202	0xbdadbbc9	-0.08483083
203	0x3e03d521	0.12874271
204	0xbece9da4	-0.40354645
205	0x3e52d5cb	0.20589368
206	0x3f03849e	0.5137423
207	0x3e962f2e	0.2933287
208	0xbd43c5ca	-0.04779605
209	0x3f13a519	0.57673794
210	0x3ec2f40f	0.38076827
211	0x3d219af9	0.039454434
212	0xbe44fc16	-0.19236788
213	0xbea78da6	-0.32725257
214	0x3e94593c	0.2897433
215	0x3effb098	0.49939418
216	0x3edc9167	0.43079683
217	0x3f0a779a	0.5408875
218	0x3e18debf	0.14928721
219	0xbc8ad6f6	-0.016948204
220	0x3e7170ec	0.23578233
221	0xbea5827b	-0.3232611
222	0xbe908cfe	-0.28232569
223	0xbf2e38e1	-0.6805554
224	0xbdcd9fd4	-0.100402504
225	0xbe0566af	-0.13027452
226	0x3e9bbacc	0.30415952
227	0xbe3d4942	-0.18484977
228	0x3e8725c8	0.26396012
229	0x3f3db01e	0.7409686
230	0xbe58a02d	-0.21154852
231	0x3d2ef6a0	0.04271567
232	0x3e1e291f	0.15445374
233	0xbdd71e6b	-0.10503849
234	0x3e4ee9a5	0.20206316
235	0x3eaee824	0.34161484
236	0xbf100cb9	-0.56269413
237	0xbe94dbfe	-0.2907409
238	0xbed212c1	-0.41029933
239	0x3dba7a28	0.09105331
240	0xbf77cdc6	-0.9679836
241	0x3ea7701e	0.32702726
242	0xbdd50dec	-0.10403046
243	0x3dc9e882	0.098588005
244	0xbe1f9f69	-0.15588154
245	0xbe7649a3	-0.24051528
246	0xbf065fd5	-0.5248998
247	0xbf02b55a	-0.5105797
248	0x3d7cfd98	0.061765283
249	0x3f72ba98	0.9481597
250	0xbe2a3eb1	-0.16625477
251	0xbf2472a9	-0.6423746
252	0xbe17c2dc	-0.14820427
253	0x3f766e00	0.96261597
254	0x3f568453	0.8379566
255	0xbe7e2f35	-0.24822696

network_body.linear_encoder.seq_layers.0.bias f4 [128]
0	0x00000000	0.0
1	0x00000000	0.0
2	0x00000000	0.0
3	0x00000000	0.0
4	0x00000000	0.0
5	0x00000000	0.0
6	0x00000000	0.0
7	0x00000000	0.0
8	0x00000000	0.0
9	0x00000000	0.0
10	0x00000000	0.0
11	0x00000000	0.0
12	0x00000000	0.0
13	0x00000000	0.0
14	0x00000000	0.0
15	0x00000000	0.0
16	0x00000000	0.0
17	0x00000000	0.0
18	0x00000000	0.0
19	0x00000000	0.0
20	0x00000000	0.0
21	0x00000000	0.0
22	0x00000000	0.0
23	0x00000000	0.0
24	0x00000000	0.0
25	0x00000000	0.0
26	0x00000000	0.0
27	0x00000000	0.0
28	0x00000000	0.0
29	0x00000000	0.0
30	0x00000000	0.0
31	0x00000000	0.0
32	0x00000000	0.0
33	0x00000000	0.0
34	0x00000000	0.0
35	0x00000000	0.0
36	0x00000000	0.0
37	0x00000000	0.0
38	0x00000000	0.0
39	0x00000000	0.0
40	0x00000000	0.0
41	0x00000000	0.0
42	0x00000000	0.0
43	0x00000000	0.0
44	0x00000000	0.0
45	0x00000000	0.0
46	0x00000000	0.0
47	0x00000000	0.0
48	0x00000000	0.0
49	0x00000000	0.0
50	0x00000000	0.0
51	0x00000000	0.0
52	0x00000000	0.0
53	0x00000000	0.0
54	0x00000000	0.0
55	0x00000000	0.0
56	0x00000000	0.0
57	0x00000000	0.0
58	0x00000000	0.0
59	0x00000000	0.0
60	0x00000000	0.0
61	0x00000000	0.0
62	0x00000000	0.0
63	0x00000000	0.0
64	0x00000000	0.0
65	0x00000000	0.0
66	0x00000000	0.0
67	0x00000000	0.0
68	0x00000000	0.0
69	0x00000000	0.0
70	0x00000000	0.0
71	0x00000000	0.0
72	0x00000000	0.0
73	0x00000000	0.0
74	0x00000000	0.0
75	0x00000000	0.0
76	0x00000000	0.0
77	0x00000000	0.0
78	0x00000000	0.0
79	0x00000000	0.0
80	0x00000000	0.0
81	0x00000000	0.0
82	0x00000000	0.0
83	0x00000000	0.0
84	0x00000000	0.0
85	0x00000000	0.0
86	0x00000000	0.0
87	0x00000000	0.0
88	0x00000000	0.0
89	0x00000000	0.0
90	0x00000000	0.0
91	0x00000000	0.0
92	0x00000000	0.0
93	0x00000000	0.0
94	0x00000000	0.0
95	0x00000000	0.0
96	0x00000000	0.0
97	0x00000000	0.0
98	0x00000000	0.0
99	0x00000000	0.0
100	0x00000000	0.0
101	0x00000000	0.0
102	0x00000000	0.0
103	0x00000000	0.0
104	0x00000000	0.0
105	0x00000000	0.0
106	0x00000000	0.0
107	0x00000000	0.0
108	0x00000000	0.0
109	0x00000000	0.0
110	0x00000000	0.0
111	0x00000000	0.0
112	0x00000000	0.0
113	0x00000000	0.0
114	0x00000000	0.0
115	0x00000000	0.0
116	0x00000000	0.0
117	0x00000000	0.0
118	0x00000000	0.0
119	0x00000000	0.0
120	0x00000000	0.0
121	0x00000000	0.0
122	0x00000000	0.0
123	0x00000000	0.0
124	0x00000000	0.0
125	0x00000000	0.0
126	0x00000000	0.0
127	0x00000000	0.0

network_body.linear_encoder.seq_layers.2.weight f4 [128, 128]
0	0xbdbef3ff	-0.09323882
1	0xbbf88853	-0.0075846105
2	0x3db8f203	0.09030535
3	0xbdc6a608	-0.09699637
4	0xbddfc12f	-0.10925519
5	0x3e003b0f	0.12522529
6	0x3e127489	0.14302267
7	0x3d5c97a5	0.053855557
8	0x3bb1c1a9	0.0054246974
9	0x3d89ceb1	0.067288764
10	0xbbcd5a36	-0.0062668575
11	0xbd5317aa	-0.05153624
12	0xbe7a4c33	-0.2444313
13	0xbc435cf4	-0.011924017
14	0x3e29c2c6	0.16578206
15	0xbd97cf2e	-0.07412563
16	0xbc9c12c1	-0.019051911
17	0xbdda5ed8	-0.10662621
18	0xbdc86860	-0.09785533
19	0x3d930cc0	0.07180166
20	0x3e774e49	0.24150957
21	0xbcfc7cf3	-0.0308213
22	0xbe06d8c3	-0.13168626
23	0xbbc70d40	-0.0060745776
24	0x3cc9c2f3	0.024629092
25	0x3d6066ec	0.054785654
26	0x3e0ce9ca	0.13761058
27	0x3bd81ad4	0.006594995
28	0xbda464c9	-0.08027036
29	0xbde3280c	-0.11091623
30	0xbd4f927c	-0.050676808
31	0x3d7e43be	0.062076323
32	0xbe4245bf	-0.18971919
33	0xbd6adbb3	-0.057338428
34	0x3e17c756	0.14822134
35	0x3e83c956	0.25739545
36	0x3d03dba0	0.032191873
37	0xbe31d9d0	-0.17368245
38	0xbe0370bb	-0.12835972
39	0xbe01333f	-0.12617205
40	0x3d52c90f	0.051461276
41	0xbdde504d	-0.1085516
42	0xbd88e20a	-0.066837385
43	0x3bdecdf7	0.0067994553
44	0xbd57be1e	-0.052671544
45	0xbd0341fc	-0.03204535
46	0x3db6fbe8	0.08934766
47	0x3a9ce9fb	0.0011971587
48	0x3e274c9f	0.16337822
49	0x3caee4c8	0.021349326
50	0xbd1dd386	-0.038531803
51	0x3da0734c	0.07834491
52	0xbb5cbc4d	-0.0033681572
53	0x3cfb2b17	0.030660195
54	0x3db6b77d	0.08921716
55	0xbde14c83	-0.110009216
56	0xbbee7d5e	-0.0072781285
57	0xbdd83bce	-0.10558282
58	0xbe2874ff	-0.1645088
59	0x3d9408c1	0.07228232
60	0xbd969a38	-0.07353634
61	0xbda2ed1b	-0.079553805
62	0xbc25a8be	-0.010111032
63	0x3e02adc8	0.12761605
64	0xbbb99cfc	-0.005664466
65	0xbdedfa94	-0.116200596
66	0xbd86d2a0	-0.06583142
67	0xbcd7abb5	-0.026326993
68	0xbd2ae801	-0.041725162
69	0x3c9063a9	0.017625647
70	0x3d92dbbd	0.07170818
71	0xbdb291c9	-0.087192126
72	0xbdd3f0ae	-0.103486404
73	0xbac10644	-0.0014726599
74	0x3c9a8395	0.018861571
75	0x3bf2b877	0.007407244
76	0x3cae84ba	0.021303523
77	0x3d27624b	0.040865224
78	0x3db2672c	0.08711085
79	0x3c833c10	0.016019851
80	0xbd800c7f	-0.062523834
81	0x3cf000e6	0.029297303
82	0x3cfb4d22	0.030676428
83	0xbcf2b785	-0.029628525
84	0x3d16e27a	0.03683708
85	0x3e094b0b	0.13407533
86	0xbc9943ee	-0.01870915
87	0x3d5eded2	0.054411717
88	0x3dab7e2d	0.083736755
89	0x3ca722ff	0.02040243
90	0xbdce9ba4	-0.1008828
91	0x3ceb69a3	0.028736895
92	0xbd9eddbb	-0.077571355
93	0xbdfd57cd	-0.12370262
94	0x3c81ba25	0.015835831
95	0xbc1880d7	-0.009308062
96	0x3d1ffebd	0.039061297
97	0x3daf5db1	0.08562792
98	0x3d9f6536	0.07782976
99	0xbe701e51	-0.23449065
100	0x3d909882	0.070603386
101	0x3d14c988	0.036325008
102	0x3db4daf1	0.08830822
103	0xbd4c759f	-0.04991686
104	0x3cc0c218	0.023530051
105	0xbd2ef3a0	-0.042712808
106	0x3d553d55	0.052060444
107	0x3d9bb152	0.076021805
108	0x3d876ffe	0.06613158
109	0xbe34a261	-0.17640068
110	0x3d3b1f9c	0.045684442
111	0x3cce6c26	0.025198054
112	0x3e125eb0	0.14293933
113	0x3d9585fb	0.07300945
114	0xbcec90c7	-0.028877629
115	0x3d9c348b	0.07627209
116	0xbe1996ff	-0.14999007
117	0x3dec4e25	0.115383424
118	0xbdca8547	-0.09888702
119	0xbd73bd80	-0.059506893
120	0x3beb6f0a	0.0071848677
121	0xbd744e94	-0.05964525
122	0x3dc0e1ef	0.094180934
123	0x3d45b744	0.04827048
124	0xbdacac04	-0.08431247
125	0xbdbb499b	-0.091448985
126	0xbd8b4739	-0.06800694
127	0x3db27ea2	0.087155595
128	0xbc12bda1	-0.008956344
129	0x3dc68fab	0.09695371
130	0x3b2e2a82	0.002657563
131	0xbc30f426	-0.010800397
132	0xbc832aff	-0.016011713
133	0xbce04cb0	-0.027380317
134	0xbd32e887	-0.043678787
135	0x3d8d08f8	0.06886476
136	0x3d38cbf5	0.045116384
137	0xbc690752	-0.014222937
138	0xbb234621	-0.0024913626
139	0xbd1a2e42	-0.03764177
140	0xbd65a1b5	-0.05606242
141	0x3cdc53e4	0.02689547
142	0xbd1fd584	-0.039021984
143	0xbd8a96bf	-0.06767034
144	0xbe3ffcfa	-0.18748847
145	0x3e2a6aa8	0.16642249
146	0x3e18ebd2	0.14933708
147	0x3c687d0b	0.014189969
148	0xbab81185	-0.0014043307
149	0xbb5a6a8e	-0.0033327672
150	0x3da3b3e6	0.07993297
151	0xbdb7e651	-0.08979476
152	0xbd1a435a	-0.037661888
153	0x3bc69abf	0.0060609276
154	0x3e043c0d	0.12913533
155	0xbccddd38	-0.0251299
156	0xbdf387d9	-0.11891145
157	0x3e14fb08	0.14548886
158	0x3c414509	0.011796244
159	0xbe594cbc	-0.21220678
160	0x3d651d0c	0.055935904
161	0x3dd23458	0.1026389
162	0x3d8881f0	0.066654086
163	0xbda22cdb	-0.07918712
164	0x3bd99f50	0.006641306
165	0x3dd8f5d3	0.10593762
166	0x3d0e80e7	0.0347909
167	0xbdf684cf	-0.1203705
168	0xbc9e19f1	-0.01929948
169	0xbe193e63	-0.14965205
170	0xbc57c96b	-0.01317058
171	0xbb4a7460	-0.0030892119
172	0x3acb672c	0.0015518419
173	0xbd2ef90e	-0.042717986
174	0x3d0d3d81	0.034482483
175	0xbd346988	-0.044045955
176	0xbd7ce4c9	-0.061741624
177	0xbe031a4f	-0.12803005
178	0xbd442373	-0.04788537
179	0xbde3d5e1	-0.111247785
180	0x3d62b984	0.055352703
181	0x3e086250	0.13318753
182	0xbd0234dc	-0.031788692
183	0x3de59b32	0.11211242
184	0xbe6db4b8	-0.2321347
185	0xbdf8f65e	-0.12156366
186	0x3dc6db16	0.09709756
187	0xbe031f15	-0.12804826
188	0x3da60eca	0.081082895
189	0x3db5198f	0.088427655
190	0x3e3718fb	0.17880623
191	0xbd862f81	-0.065520294
192	0xbcbc30e0	-0.022972524
193	0xbdc58ddd	-0.09646199
194	0x3c5ce3d9	0.0134820575
195	0xbe0e5863	-0.13900904
196	0x3c7a249e	0.015267519
197	0xbe3b1908	-0.18271267
198	0xbd60f1a6	-0.054917954
199	0x3dee4f69	0.1163624
200	0x3d40a909	0.047036204
201	0xbd452b48	-0.04813698
202	0x3d2c7424	0.042102948
203	0x3dbe1c98	0.092827976
204	0xbd9c871d	-0.07642958
205	0xbe445829	-0.19174255
206	0xbe1c2378	-0.15247905
207	0x3bc2a258	0.005939763
208	0x3cad5e71	0.021163197
209	0x3e3a61bc	0.18201345
210	0x3bb3c5e5	0.0054862374
211	0x3d916b9a	0.071006015
212	0x3d723f12	0.05914218
213	0xbcec24fd	-0.028826231
214	0xbd00ef98	-0.031478494
215	0x3d59a0e6	0.05313196
216	0x3dd1cc7e	0.10244082
217	0x3e1e08d0	0.15433049
218	0xbdb74f1d	-0.089506365
219	0xbc921507	-0.017832292
220	0xbd811ed2	-0.06304707
221	0xbddb974f	-0.10722219
222	0xbdc381ec	-0.09546265
223	0xbe756a19	-0.23966254
224	0x3d7687c8	0.060188085
225	0x3d3e8f37	0.0465233
226	0x3c0b4ec4	0.008502666
227	0xbda3dcb0	-0.08001077
228	0xbe82e6f6	-0.25566834
229	0x3d1cd250	0.038286507
230	0xbdcd73cb	-0.100318514
231	0xbda4fd59	-0.08056135
232	0x3d9cc3cd	0.076545335
233	0xbd808837	-0.06275981
234	0x3c208ad5	0.009798725
235	0xbc96a410	-0.018388778
236	0xbd459826	-0.048240803
237	0x3d9929ae	0.07478653
238	0x3d176f8c	0.036971614
239	0x3db16427	0.08661681
240	0x3e205892	0.15658787
241	0xbc371b54	-0.011175949
242	0xbc769bd1	-0.015051798
243	0xbcae8015	-0.021301309
244	0xbd434c13	-0.047679972
245	0x3d0d109b	0.034439664
246	0xbd918a20	-0.071064234
247	0xbdb0acbc	-0.086266965
248	0xbd8ad22e	-0.0677837
249	0xbcdba201	-0.026810648
250	0x3d165873	0.036705445
251	0x3ba96ccd	0.0051704408
252	0xbc4aa715	-0.012368937
253	0xbd2691f7	-0.040666547
254	0xbdb5103c	-0.08840987
255	0xbbaf692c	-0.0053531136

network_body.linear_encoder.seq_layers.2.bias f4 [128]
0	0x00000000	0.0
1	0x00000000	0.0
2	0x00000000	0.0
3	0x00000000	0.0
4	0x00000000	0.0
5	0x00000000	0.0
6	0x00000000	0.0
7	0x00000000	0.0
8	0x00000000	0.0
9	0x00000000	0.0
10	0x00000000	0.0
11	0x00000000	0.0
12	0x00000000	0.0
13	0x00000000	0.0
14	0x00000000	0.0
15	0x00000000	0.0
16	0x00000000	0.0
17	0x00000000	0.0
18	0x00000000	0.0
19	0x00000000	0.0
20	0x00000000	0.0
21	0x00000000	0.0
22	0x00000000	0.0
23	0x00000000	0.0
24	0x00000000	0.0
25	0x00000000	0.0
26	0x00000000	0.0
27	0x00000000	0.0
28	0x00000000	0.0
29	0x00000000	0.0
30	0x00000000	0.0
31	0x00000000	0.0
32	0x00000000	0.0
33	0x00000000	0.0
34	0x00000000	0.0
35	0x00000000	0.0
36	0x00000000	0.0
37	0x00000000	0.0
38	0x00000000	0.0
39	0x00000000	0.0
40	0x00000000	0.0
41	0x00000000	0.0
42	0x00000000	0.0
43	0x00000000	0.0
44	0x00000000	0.0
45	0x00000000	0.0
46	0x00000000	0.0
47	0x00000000	0.0
48	0x00000000	0.0
49	0x00000000	0.0
50	0x00000000	0.0
51	0x00000000	0.0
52	0x00000000	0.0
53	0x00000000	0.0
54	0x00000000	0.0
55	0x00000000	0.0
56	0x00000000	0.0
57	0x00000000	0.0
58	0x00000000	0.0
59	0x00000000	0.0
60	0x00000000	0.0
61	0x00000000	0.0
62	0x00000000	0.0
63	0x00000000	0.0
64	0x00000000	0.0
65	0x00000000	0.0
66	0x00000000	0.0
67	0x00000000	0.0
68	0x00000000	0.0
69	0x00000000	0.0
70	0x00000000	0.0
71	0x00000000	0.0
72	0x00000000	0.0
73	0x00000000	0.0
74	0x00000000	0.0
75	0x00000000	0.0
76	0x00000000	0.0
77	0x00000000	0.0
78	0x00000000	0.0
79	0x00000000	0.0
80	0x00000000	0.0
81	0x00000000	0.0
82	0x00000000	0.0
83	0x00000000	0.0
84	0x00000000	0.0
85	0x00000000	0.0
86	0x00000000	0.0
87	0x00000000	0.0
88	0x00000000	0.0
89	0x00000000	0.0
90	0x00000000	0.0
91	0x00000000	0.0
92	0x00000000	0.0
93	0x00000000	0.0
94	0x00000000	0.0
95	0x00000000	0.0
96	0x00000000	0.0
97	0x00000000	0.0
98	0x00000000	0.0
99	0x00000000	0.0
100	0x00000000	0.0
101	0x00000000	0.0
102	0x00000000	0.0
103	0x00000000	0.0
104	0x00000000	0.0
105	0x00000000	0.0
106	0x00000000	0.0
107	0x00000000	0.0
108	0x00000000	0.0
109	0x00000000	0.0
110	0x00000000	0.0
111	0x00000000	0.0
112	0x00000000	0.0
113	0x00000000	0.0
114	0x00000000	0.0
115	0x00000000	0.0
116	0x00000000	0.0
117	0x00000000	0.0
118	0x00000000	0.0
119	0x00000000	0.0
120	0x00000000	0.0
121	0x00000000	0.0
122	0x00000000	0.0
123	0x00000000	0.0
124	0x00000000	0.0
125	0x00000000	0.0
126	0x00000000	0.0
127	0x00000000	0.0

action_model._continuous_distribution.log_sigma f4 [1, 2]
0	0x00000000	0.0
1	0x00000000	0.0

action_model._continuous_distribution.mu.weight f4 [2, 128]
0	0xbb82fc3d	-0.0039973543
1	0xba5cc50f	-0.0008421698
2	0xbb83e937	-0.004025604
3	0x3d71fc12	0.059078284
4	0x3c1f9ca7	0.009741939
5	0xbc8554d1	-0.016275795
6	0xbc6de975	-0.0145209925
7	0xbcadbda6	-0.021208595
8	0x3c768c72	0.015048133
9	0xb990de09	-0.0002763125
10	0x3a0ff122	0.00054909487
11	0x3c147e1b	0.009063269
12	0x3c3745c7	0.01118607
13	0xbc2cd56a	-0.010548929
14	0x3bf124ff	0.0073591466
15	0x3bc9f70a	0.0061634826
16	0x3c36c3a0	0.011155039
17	0xbb10d38f	-0.0022098755
18	0x3c814381	0.015779259
19	0x3c25ed3a	0.01012736
20	0xbadb4c6f	-0.0016731153
21	0xbcc63f87	-0.024200214
22	0x3c95ab08	0.01827003
23	0xbd05f98f	-0.0327087
24	0xbc1222e8	-0.008919455
25	0x3b6f4275	0.0036508117
26	0xbbfc005f	-0.007690474
27	0xbbfde7fa	-0.007748601
28	0x3c1c2167	0.009529448
29	0x3d120898	0.035652727
30	0xbc6a7828	-0.014310874
31	0xbb1e3e1d	-0.002414591
32	0x3ba03f03	0.004890324
33	0x3d09e91d	0.03366958
34	0xbb9f272b	-0.004856964
35	0x3bc92449	0.0061383587
36	0x3ad71683	0.0016409907
37	0xbbd9fa0d	-0.006652123
38	0xbccdbecb	-0.025115391
39	0x3ce5074f	0.027957587
40	0x3cedab93	0.029012477
41	0xbc49b429	-0.01231102
42	0xbc697a2b	-0.0142503185
43	0x3ca662d3	0.020310795
44	0xbcdc7cd3	-0.02691499
45	0xbc67d805	-0.014150624
46	0xbc6add1a	-0.014334941
47	0x3c21961a	0.009862447
48	0x3c5b9527	0.01340226
49	0x3c7c8c63	0.01541433
50	0x3c847bad	0.016172254
51	0x3b82b668	0.0039890297
52	0x3b8346ec	0.0040062573
53	0x3b697c65	0.0035627123
54	0xbd02b44f	-0.031910237
55	0xbc8d7644	-0.017268308
56	0x3bf94c7b	0.007607994
57	0x3bea024d	0.0071413876
58	0xbbc00b8f	-0.005860753
59	0x3ba0bdd3	0.0049054413
60	0x3c833f93	0.016021525
61	0x3b5595f7	0.0032590607
62	0xbb428ffb	-0.002968787
63	0xbcb496e0	-0.022044599
64	0xbc1f76af	-0.009732886
65	0x3b6381d3	0.0034714832
66	0x3c324aa2	0.010882052
67	0x3b5d96e3	0.003381186
68	0x3c43f56b	0.011960368
69	0xbc5da84d	-0.013528896
70	0xbbf3665b	-0.007427973
71	0xbcb77847	-0.02239622
72	0xbcb53708	-0.022120968
73	0x3cbb8f33	0.022895431
74	0x3c33e388	0.010979541
75	0x3c1ec378	0.009690158
76	0x3b889b39	0.0041688946
77	0xbd45aa43	-0.048258077
78	0xbc39ede3	-0.0113482205
79	0xbbfe7c9b	-0.007766319
80	0xbc28c660	-0.010301203
81	0xbbc757df	-0.006083473
82	0xbc1e5e5e	-0.009666054
83	0x3ce2907d	0.027656788
84	0xbc599bab	-0.013281743
85	0x3ca68363	0.020326322
86	0xbc6a0375	-0.014283051
87	0xbc513d0a	-0.0127709005
88	0xbc00e22c	-0.007866424
89	0xbca23fcc	-0.019805811
90	0x3c0f79fa	0.008757109
91	0x3a2049bb	0.00061145023
92	0xbbfa8db5	-0.0076462873
93	0x3bf49d7a	0.0074650617
94	0xbc273337	-0.010205082
95	0x3c33955f	0.010960906
96	0xbcb1feac	-0.021727882
97	0x3d0b73ef	0.03404611
98	0xbc748c65	-0.014926051
99	0xbb8047db	-0.003914816
100	0x3b06698f	0.0020509695
101	0x3bc99266	0.0061514853
102	0xbc8f3447	-0.017480982
103	0x3bc3f2fc	0.0059798937
104	0x3c56e4dd	0.013116089
105	0x3c34b03f	0.0110283485
106	0xbca2a873	-0.019855713
107	0x3bce812f	0.006302021
108	0xbbaabc02	-0.0052104006
109	0xbafdf6b3	-0.001937589
110	0xbcab0544	-0.020876534
111	0x3c504707	0.012712247
112	0xbc3eb4c3	-0.011639777
113	0x3b775ef0	0.0037745796
114	0xbc383682	-0.011243464
115	0xbcbb88c0	-0.022892356
116	0xbb67cf18	-0.003537124
117	0xbcc88313	-0.024476564
118	0x3baf32e7	0.005346644
119	0x3bf8a6e2	0.0075882534
120	0xbc9d67b4	-0.019214489
121	0xbcb9eb87	-0.022695316
122	0xbcf22ecd	-0.029563332
123	0x3ca2e1bb	0.019883027
124	0xbc1ce517	-0.009576104
125	0x3cb306a6	0.021853756
126	0xbbba34e0	-0.0056825727
127	0x3b3faa3e	0.002924576
128	0xbc1be22d	-0.009514374
129	0x3c26cbcc	0.010180425
130	0xb9efec1d	-0.0004576155
131	0x3ce09a57	0.027417345
132	0xbc71ffd7	-0.01477047
133	0x3c9b3936	0.018948179
134	0x3aadec02	0.0013269188
135	0x3c3745a7	0.01118604
136	0x3c2b4faf	0.01045601
137	0x3b242a22	0.0025049527
138	0x3d392b72	0.04520745
139	0xbc784a82	-0.015154483
140	0x3c420524	0.011842046
141	0xbb82d99f	-0.0039932276
142	0xbbce6767	-0.0062989476
143	0xba37967a	-0.0007003319
144	0xbc90da94	-0.017682351
145	0xbc810343	-0.015748626
146	0xbb42266e	-0.0029624957
147	0x3cdcae97	0.02693872
148	0x3bd9f910	0.006652005
149	0x39e79052	0.0004416728
150	0x3a59f533	0.00083144306
151	0xbc74beb3	-0.014938044
152	0xbd0832d6	-0.033251606
153	0xbc2c0723	-0.010499748
154	0xbc95e31b	-0.018296769
155	0x3c57f7fb	0.013181682
156	0x3b5c15cd	0.003358233
157	0xbc882f90	-0.016624242
158	0x3b410c8d	0.0029456944
159	0x3bda217d	0.006656824
160	0xbd53166b	-0.05153505
161	0x3cb2bb0e	0.02181771
162	0xbba5b748	-0.005057249
163	0xba48570c	-0.00076423655
164	0xbab66001	-0.001391411
165	0xbbba50af	-0.0056858878
166	0x3bd0d5d7	0.006373148
167	0xbbe6abf8	-0.0070395432
168	0xbcaeadef	-0.021323172
169	0xba62973a	-0.00086437503
170	0xbc1af4d0	-0.009457782
171	0x3d2adae0	0.04171264
172	0x3be9108d	0.0071125687
173	0x3c755b53	0.014975387
174	0xbbf502cd	-0.0074771405
175	0x3ca506d8	0.020144865
176	0xba9c6888	-0.0011933008
177	0xbcddf31b	-0.02709346
178	0xbb5e4ab7	-0.0033919045
179	0x3cac028c	0.020997308
180	0x3c1e417f	0.00965917
181	0x3a9dc2d7	0.0012036216
182	0xbc68f958	-0.014219604
183	0x3cd2d975	0.025738457
184	0xbaed9d08	-0.0018128464
185	0xbc0ce42a	-0.00859932
186	0x38e24052	0.000107885004
187	0x3c222955	0.00989755
188	0xbd28983d	-0.04116081
189	0xbc5023f3	-0.012703883
190	0x3c8a49e3	0.016880935
191	0xbb5aadaf	-0.0033367684
192	0x3c947109	0.018120306
193	0x3c310a73	0.010805714
194	0x3caed6c4	0.021342643
195	0xbc9a6033	-0.0188447
196	0x3c1f6b70	0.009730205
197	0xbbb48bbb	-0.005509821
198	0xbcaad0c2	-0.020851497
199	0xbb4bbc9e	-0.0031087766
200	0x3b348f44	0.0027551213
201	0x3c347557	0.011014304
202	0x3cf58622	0.029971186
203	0xbad1eefb	-0.0016016656
204	0x3c9775d2	0.018488798
205	0x3c8787e2	0.016544286
206	0xba626e08	-0.0008637612
207	0x3bd68950	0.0065471306
208	0x3b47429f	0.00304047
209	0x3c87f757	0.016597433
210	0x3c31e7e0	0.010858506
211	0xbc7c0d95	-0.015384098
212	0xbc2b885b	-0.010469521
213	0x3cba3c4b	0.022733828
214	0xbc969953	-0.018383658
215	0x3c8341c6	0.016022574
216	0xbc9d576a	-0.019206721
217	0x3be7255b	0.0070540137
218	0xbb84721e	-0.004041924
219	0xb914f459	-0.00014205406
220	0xbc8223ce	-0.015886214
221	0xbb31edb7	-0.0027149746
222	0xbc6ac402	-0.0143289585
223	0xbb0f47a5	-0.0021862772
224	0xbcde44d8	-0.027132437
225	0x3c42c52a	0.011887828
226	0x3c3aea22	0.011408361
227	0x3c1b0deb	0.0094637675
228	0x3c037721	0.008024008
229	0xbcc80f78	-0.024421439
230	0xbc8bca86	-0.017064344
231	0x3c768f22	0.015048774
232	0x3b2b8983	0.0026174493
233	0xbc894647	-0.016757144
234	0x3c3a41cf	0.011368229
235	0xbc0851e0	-0.008320302
236	0xbccaf2e5	-0.024774024
237	0xbb303f49	-0.002689319
238	0x3c274c9d	0.010211137
239	0xbb406ed1	-0.0029362927
240	0xbcb600c0	-0.022217155
241	0x3c11f845	0.00890929
242	0x3d1548ae	0.036446266
243	0xbbc5272b	-0.006016632
244	0x3b34052f	0.002746891
245	0xbc3144c5	-0.010819619
246	0x3c30bcfa	0.010787243
247	0xbc9e456f	-0.019320218
248	0x3b1db31d	0.0024063059
249	0xbabe030b	-0.0014496756
250	0x3ba0db65	0.0049089664
251	0x3b5548d8	0.003254464
252	0x3c990e91	0.018683704
253	0xbbcd6a72	-0.006268793
254	0x3c0c5f9e	0.008567719
255	0x3ab9a537	0.0014163618

action_model._continuous_distribution.mu.bias f4 [2]
0	0x00000000	0.0
1	0x00000000	0.0

action_model._discrete_distribution.branches.0.weight f4 [1, 128]
0	0xb9d8cb00	-0.00041349977
1	0x3b9ed628	0.0048473068
2	0x3c530048	0.012878485
3	0x3c535688	0.012899049
4	0xbc79fb6f	-0.0152577
5	0xbbb116d4	-0.0054043327
6	0xbb8187a7	-0.0039529386
7	0x3b2e4cf3	0.0026596158
8	0x3c87478c	0.016513608
9	0x3bae638b	0.005321925
10	0x3bf5c41b	0.0075001842
11	0xbbf01692	-0.0073269093
12	0x3b06008a	0.0020447099
13	0xbb8c3a99	-0.0042794463
14	0x3bf1a0f8	0.0073739253
15	0xbbb4e7ff	-0.00552082
16	0xbb1bf7e0	-0.0023798868
17	0xbbe65e30	-0.007030271
18	0xbbcf49ed	-0.0063259513
19	0xbbfa57d8	-0.0076398663
20	0x3bea8d40	0.0071579516
21	0x3c0d5291	0.008625642
22	0xbc5044ef	-0.012711748
23	0x3b1740aa	0.0023079314
24	0x3bd2718d	0.0064222277
25	0xbba2e8be	-0.0049715927
26	0xbc8fb56f	-0.017542569
27	0xbc22236e	-0.009896142
28	0x3c10def3	0.008842218
29	0x3cb7b085	0.022423038
30	0x3bf6ef43	0.0075358464
31	0x3c8a3537	0.016871078
32	0xbc104623	-0.008805784
33	0x3bc8b4df	0.006125077
34	0xbba0d59a	-0.004908276
35	0x3c3fa994	0.011698145
36	0xbb64fbe0	-0.0034940168
37	0xba818e30	-0.0009884294
38	0x3ab11d0c	0.0013512685
39	0xbbf4faab	-0.007476171
40	0xbb604a03	-0.0034223802
41	0x3c225cb7	0.0099098
42	0xbc14700a	-0.009059915
43	0xbb7af6b2	-0.0038294015
44	0x3b0aef7e	0.0021199877
45	0x3b514faf	0.0031938364
46	0x3ac4762f	0.0014988835
47	0xb90fc81e	-0.00013712092
48	0xbc379aef	-0.011206373
49	0x39f9637a	0.00047567097
50	0x38960343	7.153165e-05
51	0x3bcb63dc	0.0062069725
52	0xbc20b459	-0.009808623
53	0x3ba02a26	0.004887837
54	0xb816a394	-3.591513e-05
55	0x3baa9e5f	0.0052068676
56	0xba8146da	-0.0009863034
57	0xbb9a10c9	-0.004701708
58	0xbbabbb57	-0.0052408385
59	0x3a868b51	0.0010264908
60	0xbc2525c0	-0.010079801
61	0x3b517595	0.0031960953
62	0xbbd98b95	-0.006638954
63	0xbbe4dffa	-0.006984708
64	0x3a2e601f	0.00066518964
65	0x3c075d42	0.0082619805
66	0xba085350	-0.0005200403
67	0xbc30260f	-0.010751261
68	0x3b59a1e2	0.0033208062
69	0x3c20461a	0.0097823385
70	0x3c826b9c	0.015920453
71	0xbbaa219d	-0.0051919953
72	0xbabdaac5	-0.0014470449
73	0xbbf87377	-0.007582124
74	0x3c113aac	0.008864086
75	0xbc8b35a9	-0.01699336
76	0x3ba90362	0.005157874
77	0xbc6791e5	-0.014133905
78	0xbc30df83	-0.010795477
79	0xbb08f92e	-0.0020900476
80	0xbb9279cd	-0.004470086
81	0x39df5178	0.00042594573
82	0xbba1e01e	-0.004940047
83	0xbba4343c	-0.0050111096
84	0xbb2abf2d	-0.002605389
85	0x3c327857	0.010892949
86	0xbb98677b	-0.0046510077
87	0x3bd5eca8	0.0065284558
88	0x3c77e270	0.0151296705
89	0x3b53a640	0.0032295138
90	0xbd022195	-0.031770308
91	0x3b9d5935	0.004801894
92	0xbbe51cd3	-0.0069919615
93	0xb98bb3a2	-0.00026645983
94	0xbac46f2e	-0.0014986747
95	0x3c286fad	0.010280532
96	0x3b38b1ff	0.0028182266
97	0x3cb8c0cb	0.022552868
98	0x3a0049c8	0.0004893807
99	0xbb91e2b7	-0.0044520753
100	0xba33b933	-0.0006855905
101	0xbc537c9a	-0.012908125
102	0xba863baf	-0.0010241176
103	0x3bb34893	0.005471298
104	0xbbef17dd	-0.007296546
105	0xbb872fe8	-0.004125584
106	0xbb9508ea	-0.004548182
107	0x3b258853	0.0025258258
108	0xbb35651e	-0.0027678679
109	0xbb2639c7	-0.0025364028
110	0xba37bf2c	-0.0007009383
111	0xbbcf1c5f	-0.006320521
112	0xbbb3789b	-0.005477024
113	0x3a03339f	0.00050049456
114	0xbc162e5a	-0.0091663245
115	0x3b066976	0.0020509637
116	0xbbb360d3	-0.005474189
117	0xbb3baf2f	-0.0028638353
118	0xbc070be7	-0.008242584
119	0xbb249a50	-0.0025116391
120	0xba0dc26e	-0.00054076954
121	0x3bbdde8f	0.0057943533
122	0x3c1d69a5	0.009607707
123	0xbc002b33	-0.0078227995
124	0xb9f473f7	-0.00046625707
125	0x3ac2897b	0.0014841998
126	0xbab95643	-0.0014140088
127	0x3a1c3e92	0.00059602514

critic.network_body.linear_encoder.seq_layers.0.weight f4 [128, 6]
0	0x3d775d5a	0.06039176
1	0xbdc7e938	-0.0976128
2	0xbe0b742a	-0.13618532
3	0x3e3b6839	0.18301477
4	0xbf281a7c	-0.6566541
5	0x3c99407e	0.01870751
6	0x3d8027c6	0.06257586
7	0x3f7d0349	0.9883314
8	0x3ef42338	0.4768312
9	0xbe93d563	-0.2887374
10	0xbe0a3344	-0.13496119
11	0xbe33a7bd	-0.17544456
12	0xbea758ac	-0.3268484
13	0x3db2478e	0.08705054
14	0xbdae3d06	-0.08507733
15	0x3ed596f3	0.41716728
16	0x3d3b3075	0.04570051
17	0xbd72b820	-0.059257627
18	0x3e9429fa	0.28938276
19	0xbcaa4e68	-0.02078934
20	0x3da0ac17	0.078453235
21	0x3e8e1a67	0.27754518
22	0x3f1f0400	0.6211548
23	0x3ea4a1b1	0.3215461
24	0xbd81fa52	-0.06346573
25	0xbd8161ac	-0.063174576
26	0x3eaaee18	0.33384776
27	0x3e20cd71	0.1570337
28	0x3bb90de0	0.005647406
29	0xbf020f72	-0.5080482
30	0x3f217e10	0.6308298
31	0x3e88d121	0.26722053
32	0xbe923eb6	-0.2856347
33	0x3e0c17af	0.1368091
34	0x3ef8bd5d	0.48581973
35	0x3dc1bae5	0.094594754
36	0x3e913974	0.28364146
37	0xbe1a8058	-0.15088022
38	0x3eb147dd	0.3462514
39	0xbda36c11	-0.079795964
40	0x3df5afe5	0.1199644
41	0x3d8d5617	0.06901186
42	0xbe0804c9	-0.13283075
43	0x3e5c7736	0.2152985
44	0x3e64ddc5	0.22350223
45	0xbe7c5eb8	-0.24645507
46	0xbe64415c	-0.22290558
47	0xbec95ff1	-0.3933101
48	0xbbd9b1c9	-0.006643508
49	0x3f218513	0.6309368
50	0xbe5fdf1f	-0.21862458
51	0xbd180d35	-0.03712197
52	0x3db2e9cc	0.087359995
53	0xbe300f77	-0.171934
54	0xbceb6fe6	-0.02873988
55	0x3d98359a	0.07432099
56	0xbeaab3e7	-0.3334038
57	0xbd281df7	-0.0410442
58	0x3ec21fa8	0.37914777
59	0xbea60782	-0.32427603
60	0x3e90e376	0.2829854
61	0x3f568389	0.83794457
62	0xbe50cdb8	-0.20390975
63	0xbed4af2a	-0.4153989
64	0x3dc8c482	0.09803106
65	0x3e5b281b	0.21402018
66	0xbeba8a19	-0.36433485
67	0xbd8573e7	-0.06516247
68	0x3f25e877	0.6480784
69	0x3e8dcbd7	0.2769458
70	0x3dabdf92	0.08392252
71	0xbdc142e8	-0.094365895
72	0x3e8ec60a	0.27885467
73	0xbf0f7513	-0.56038016
74	0x3e0b6e30	0.13616252
75	0x3cc0f4e6	0.023554277
76	0xbf8b91db	-1.0903887
77	0xbf4ea10c	-0.8071449
78	0x3f321b7f	0.69573206
79	0x3e57e2dd	0.21082635
80	0xbec3313e	-0.38123506
81	0x3e0a4eba	0.13506594
82	0x3eafa3d1	0.3430467
83	0xbe1d468e	-0.15358946
84	0xbeed8fae	-0.4639868
85	0xbe1e0cab	-0.1543452
86	0xbf056d6b	-0.52120084
87	0x3eb9cda8	0.36289716
88	0xbe5fa5f8	-0.21840656
89	0xbe4107d4	-0.18850642
90	0xbe93f464	-0.28897393
91	0xbdfee02d	-0.12445102
92	0xbe8f1115	-0.2794272
93	0x3df4254a	0.11921175
94	0xbf08105d	-0.5314997
95	0xbdb43c45	-0.08800558
96	0x3cca0a31	0.024663063
97	0xbefa4af8	-0.48885322
98	0xbf71b48b	-0.9441611
99	0xbe24cb8c	-0.16093272
100	0x3e13f70b	0.14449708
101	0xbece9d47	-0.40354368
102	0xbf5e22b0	-0.8677168
103	0xbe0759e1	-0.1321788
104	0xbe6e5e09	-0.23278059
105	0xbe38df9f	-0.18054055
106	0xbdb14745	-0.08656172
107	0x3e1a95d7	0.15096222
108	0xbe61d3c8	-0.22053444
109	0x3e483298	0.1955055
110	0xbcbc1ed4	-0.022963919
111	0xbe53fd4a	-0.20702091
112	0x3f59d241	0.85086447
113	0xbedb4fa2	-0.42834193
114	0x3f328a0e	0.69741905
115	0x3e201d6a	0.1563622
116	0x3df60846	0.12013297
117	0x3e26fa15	0.16306336
118	0xbe24b20f	-0.16083549
119	0xbe24f046	-0.16107282
120	0x3efe5c08	0.4967959
121	0xbd481477	-0.04884764
122	0xbe726cc7	-0.23674308
123	0xbe3ecb0d	-0.18632145
124	0x3ed3cf53	0.41369113
125	0x3e7da43d	0.24769683
126	0xbf8aa0c0	-1.0830307
127	0xbe954d20	-0.29160404
128	0x3b155ffe	0.0022792812
129	0x3f336828	0.70080805
130	0x3e2e3c80	0.17015266
131	0x3e7301d2	0.23731163
132	0xbea21335	-0.3165528
133	0xbf6c4206	-0.92288244
134	0x3f3b5d56	0.73189294
135	0x3e18cf3c	0.14922804
136	0xbe8f3142	-0.27967268
137	0x3e44dbb0	0.19224429
138	0xbe878ae3	-0.2647315
139	0xbf09cfe2	-0.5383283
140	0xbe64c6e0	-0.2234149
141	0x3c8801f1	0.016602488
142	0x3ea92d79	0.33042505
143	0x3ea5f977	0.3241689
144	0xbe102d6a	-0.14079824
145	0x3d7f5f47	0.062346723
146	0xbeebeeb3	-0.4608055
147	0xbe33cbc7	-0.17558204
148	0x3c3062c0	0.010765731
149	0xbd4c2262	-0.049837478
150	0x3f06e488	0.5269246
151	0x3d5b8453	0.05359299
152	0x3f301c83	0.68793505
153	0xbf2a7540	-0.6658516
154	0xbd4b1c70	-0.049587667
155	0xbf50443e	-0.8135413
156	0x3f2c0e18	0.67209005
157	0xbdf4650e	-0.11933337
158	0x3e147422	0.14497426
159	0x3e0978c3	0.13424973
160	0x3d93979a	0.0720665
161	0x3e595779	0.21224774
162	0xbb5cbbbf	-0.0033681241
163	0xbf1f8424	-0.62311006
164	0x3f74d96b	0.95644253
165	0x3c7675c6	0.015042728
166	0x3d627ae7	0.05529299
167	0xbdcdf2dc	-0.100560874
168	0x3e05db6e	0.13071987
169	0x3e85a8f0	0.26105452
170	0x3eb09f0c	0.34496343
171	0xbf066253	-0.5249378
172	0xbf586fd8	-0.8454566
173	0x3d95a336	0.07306521
174	0xbe821c16	-0.25412053
175	0x3bf4a9f1	0.0074665477
176	0x3d4b1cf3	0.049588155
177	0x3ed37868	0.413028
178	0xbe75e409	-0.2401277
179	0x3e802d4a	0.25034553
180	0xbebdde30	-0.37083578
181	0xbbb42861	-0.0054979776
182	0x3e102051	0.14074828
183	0x3eb70a47	0.35750028
184	0xbe991658	-0.2989986
185	0xbe93fe58	-0.28904986
186	0x3f133d90	0.5751581
187	0x3d988a90	0.07448304
188	0xbec3baf6	-0.38228577
189	0x3ea2c5a5	0.31791416
190	0x3efb56ab	0.4908956
191	0x3e1ef913	0.15524702
192	0x3e8c2116	0.27368993
193	0x3ec03335	0.37539068
194	0xbf6b56c6	-0.9192928
195	0xbe23877e	-0.15969655
196	0xbc3448a7	-0.01100365
197	0x3d41a557	0.04727682
198	0x3f1b2894	0.6060879
199	0x3ee24c35	0.44198766
200	0xbf5da6a8	-0.8658242
201	0x3ea1b83a	0.31585866
202	0xbce8c6af	-0.028415052
203	0x3ea8652f	0.32889697
204	0xbf60e225	-0.8784507
205	0x3f2d1a23	0.67618006
206	0x3f654c7e	0.8956984
207	0x3ec66d14	0.38755095
208	0xbf0410b1	-0.5158797
209	0x3d9a3fd2	0.07531704
210	0xbde7bb0a	-0.11314972
211	0x3f37d157	0.718038
212	0xbe2566f6	-0.16152558
213	0x3f0778af	0.52918524
214	0xbd141228	-0.036150128
215	0xbe87685f	-0.26446816
216	0x3e162cb0	0.14665484
217	0x3e865978	0.26240134
218	0xbe299b81	-0.16563226
219	0xbf33c4cb	-0.7022216
220	0xbf30dbf5	-0.6908563
221	0x3e6470e1	0.22308685
222	0xbf1908b1	-0.5977889
223	0x3d722c9d	0.059124578
224	0x3e169a9e	0.1470742
225	0x3d6feab6	0.058573447
226	0xbf389c6d	-0.72113687
227	0x3ea1a43d	0.31570616
228	0xbc8ff49b	-0.017572692
229	0xbe084b88	-0.13310063
230	0xbef700b0	-0.48242712
231	0xbe219679	-0.15780057
232	0xbde4a3bc	-0.11164042
233	0xbb56a3ce	-0.0032751444
234	0x3f0e4c83	0.555855
235	0x3d2dcc68	0.042431265
236	0xbf94e362	-1.1631892
237	0x3ea4e5c5	0.3220655
238	0x3d25edf1	0.04051012
239	0xbe3cbcac	-0.18431348
240	0x3f23ae68	0.63938
241	0xbe40a6e9	-0.18813671
242	0xbe2bc2d4	-0.1677354
243	0xbcde363e	-0.027125474
244	0xbe201750	-0.15633893
245	0x3e5aac80	0.21354866
246	0xbcdd5965	-0.027020166
247	0x3b1c9a2e	0.002389561
248	0x3d1e6d3d	0.038678396
249	0xbf606182	-0.87648785
250	0xbe8ecd82	-0.27891165
251	0xbee7f1f6	-0.4530179
252	0x3e0a1491	0.13484408
253	0xbf7dfe0d	-0.99215776
254	0x3e7c0537	0.24611364
255	0xbedc1f2d	-0.42992535

critic.network_body.linear_encoder.seq_layers.0.bias f4 [128]
0	0x00000000	0.0
1	0x00000000	0.0
2	0x00000000	0.0
3	0x00000000	0.0
4	0x00000000	0.0
5	0x00000000	0.0
6	0x00000000	0.0
7	0x00000000	0.0
8	0x00000000	0.0
9	0x00000000	0.0
10	0x00000000	0.0
11	0x00000000	0.0
12	0x00000000	0.0
13	0x00000000	0.0
14	0x00000000	0.0
15	0x00000000	0.0
16	0x00000000	0.0
17	0x00000000	0.0
18	0x00000000	0.0
19	0x00000000	0.0
20	0x00000000	0.0
21	0x00000000	0.0
22	0x00000000	0.0
23	0x00000000	0.0
24	0x00000000	0.0
25	0x00000000	0.0
26	0x00000000	0.0
27	0x00000000	0.0
28	0x00000000	0.0
29	0x00000000	0.0
30	0x00000000	0.0
31	0x00000000	0.0
32	0x00000000	0.0
33	0x00000000	0.0
34	0x00000000	0.0
35	0x00000000	0.0
36	0x00000000	0.0
37	0x00000000	0.0
38	0x00000000	0.0
39	0x00000000	0.0
40	0x00000000	0.0
41	0x00000000	0.0
42	0x00000000	0.0
43	0x00000000	0.0
44	0x00000000	0.0
45	0x00000000	0.0
46	0x00000000	0.0
47	0x00000000	0.0
48	0x00000000	0.0
49	0x00000000	0.0
50	0x00000000	0.0
51	0x00000000	0.0
52	0x00000000	0.0
53	0x00000000	0.0
54	0x00000000	0.0
55	0x00000000	0.0
56	0x00000000	0.0
57	0x00000000	0.0
58	0x00000000	0.0
59	0x00000000	0.0
60	0x00000000	0.0
61	0x00000000	0.0
62	0x00000000	0.0
63	0x00000000	0.0
64	0x00000000	0.0
65	0x00000000	0.0
66	0x00000000	0.0
67	0x00000000	0.0
68	0x00000000	0.0
69	0x00000000	0.0
70	0x00000000	0.0
71	0x00000000	0.0
72	0x00000000	0.0
73	0x00000000	0.0
74	0x00000000	0.0
75	0x00000000	0.0
76	0x00000000	0.0
77	0x00000000	0.0
78	0x00000000	0.0
79	0x00000000	0.0
80	0x00000000	0.0
81	0x00000000	0.0
82	0x00000000	0.0
83	0x00000000	0.0
84	0x00000000	0.0
85	0x00000000	0.0
86	0x00000000	0.0
87	0x00000000	0.0
88	0x00000000	0.0
89	0x00000000	0.0
90	0x00000000	0.0
91	0x00000000	0.0
92	0x00000000	0.0
93	0x00000000	0.0
94	0x00000000	0.0
95	0x00000000	0.0
96	0x00000000	0.0
97	0x00000000	0.0
98	0x00000000	0.0
99	0x00000000	0.0
100	0x00000000	0.0
101	0x00000000	0.0
102	0x00000000	0.0
103	0x00000000	0.0
104	0x00000000	0.0
105	0x00000000	0.0
106	0x00000000	0.0
107	0x00000000	0.0
108	0x00000000	0.0
109	0x00000000	0.0
110	0x00000000	0.0
111	0x00000000	0.0
112	0x00000000	0.0
113	0x00000000	0.0
114	0x00000000	0.0
115	0x00000000	0.0
116	0x00000000	0.0
117	0x00000000	0.0
118	0x00000000	0.0
119	0x00000000	0.0
120	0x00000000	0.0
121	0x00000000	0.0
122	0x00000000	0.0
123	0x00000000	0.0
124	0x00000000	0.0
125	0x00000000	0.0
126	0x00000000	0.0
127	0x00000000	0.0

critic.network_body.linear_encoder.seq_layers.2.weight f4 [128, 128]
0	0x3dcc80ed	0.09985528
1	0x3d3dadd7	0.046308365
2	0x3d1f728d	0.038927604
3	0x3d8a95f8	0.067668855
4	0x3da272d9	0.07932062
5	0xbd180d22	-0.0371219
6	0xbccdbe98	-0.025115296
7	0xbd0f0b07	-0.034922626
8	0x3e29f826	0.16598567
9	0xbcad0f8f	-0.021125583
10	0xbab10df2	-0.0013508184
11	0x3d52b7d5	0.051444847
12	0xbdbdafe9	-0.09262068
13	0xbd2c6074	-0.042084172
14	0xbdb30add	-0.087423064
15	0xbc800e06	-0.015631687
16	0x3ad4688f	0.0016205477
17	0xbd5790c0	-0.05262828
18	0x3d63093d	0.055428732
19	0xbc82a632	-0.015948389
20	0x3dc68c40	0.09694719
21	0xbd4484c3	-0.047978174
22	0x3db5efba	0.08883615
23	0x3e05344d	0.13008232
24	0xbd87891e	-0.0661795
25	0xbd8b5f95	-0.0680534
26	0x3e0bde3f	0.13658999
27	0x3da3184a	0.07963617
28	0xbdd6f5a7	-0.10496073
29	0x3c55164b	0.013005803
30	0xbd4bcd37	-0.049756255
31	0x3d54d335	0.051959235
32	0x3da84f38	0.08218235
33	0x3d0a4aa9	0.033762608
34	0xbdb3580b	-0.08757027
35	0x3d17d5c5	0.0370691
36	0xbde4dc52	-0.11174835
37	0xbccc2768	-0.024921134
38	0xbc142320	-0.009041578
39	0xbc3e2c54	-0.011607248
40	0x3e2a7754	0.16647083
41	0x3dc4a22e	0.09601246
42	0xbd85bbed	-0.065299846
43	0x3da30008	0.0795899
44	0xbde71a82	-0.11284353
45	0xbd0e9e7a	-0.034819104
46	0x3d0703d0	0.03296262
47	0xbd9ed6a4	-0.07755783
48	0xbd5578da	-0.052117206
49	0xbdb05428	-0.086098015
50	0x3d37f6e3	0.044913184
51	0x3ca930d0	0.020653158
52	0xbdb5ce4f	-0.08877241
53	0x3c40434e	0.011734797
54	0xbd0f2374	-0.03494592
55	0x3d484309	0.048892055
56	0xbd28ffdc	-0.04125963
57	0xbd82a32f	-0.06378781
58	0xbd1dd288	-0.038530856
59	0x3d21a4af	0.039463695
60	0xbdd867f0	-0.105666995
61	0xbdc0dcc3	-0.09417107
62	0x3d4a96df	0.049460288
63	0xbe48f0ef	-0.19623159
64	0x3e11866d	0.14211436
65	0x3d217067	0.039413836
66	0x3da0f567	0.07859307
67	0xbdac73fd	-0.084205605
68	0x3ced6a5b	0.028981378
69	0x3dd91b78	0.106009424
70	0xbd0a37d9	-0.033744667
71	0x3e305a2a	0.17221895
72	0xbcddbcc1	-0.027067544
73	0x3e5d1323	0.21589331
74	0x3d15e390	0.036593974
75	0x3c8396ef	0.016063182
76	0x3da2c170	0.079470515
77	0x3df09d3c	0.1174874
78	0x3dbe2029	0.09283478
79	0x3dd5b377	0.10434621
80	0xbd3d1f1c	-0.046172246
81	0x3d37bb98	0.044856638
82	0xbdd67724	-0.10471943
83	0x3d409d6f	0.04702514
84	0x3e529d32	0.20567778
85	0xbd7f0040	-0.062256098
86	0x3dcb35ef	0.099223964
87	0xbc1683e8	-0.009186722
88	0xbe0901a9	-0.1337954
89	0xbc8529b5	-0.016255239
90	0x3dc05c61	0.0939262
91	0xbe3b4cbf	-0.18290995
92	0x3c4683b2	0.01211636
93	0xbdee1e18	-0.11626834
94	0x3db6e082	0.0892954
95	0xbc57c4e3	-0.0131695
96	0xbdeac5d4	-0.11463514
97	0xbdc147cd	-0.09437523
98	0xbd533a28	-0.051569134
99	0xbe1334d5	-0.14375623
100	0xbc33357f	-0.010938047
101	0x3bb79759	0.005602759
102	0xbd34d3c6	-0.044147275
103	0xbbebb04b	-0.0071926466
104	0xbe010031	-0.1259773
105	0xbd8ddc55	-0.069267906
106	0xbdd164f7	-0.10224336
107	0xbe04f882	-0.12985423
108	0xbdb2d0d2	-0.087312356
109	0xbd609d6b	-0.054837625
110	0xbe69c204	-0.22827917
111	0xbb14cb4b	-0.002270418
112	0x3d93894a	0.0720392
113	0xba9c0166	-0.0011902272
114	0xbe077df9	-0.13231649
115	0x3d57380c	0.052543685
116	0xbabcc503	-0.0014401976
117	0x3e2110ad	0.15729018
118	0x3e0a7f49	0.13525118
119	0xbe11dba8	-0.14243948
120	0x3e3a830e	0.18214056
121	0xbd43d51e	-0.047810666
122	0x3db91d9b	0.0903885
123	0x3d2ac634	0.041692927
124	0x3df068f6	0.1173877
125	0xbe1cb296	-0.153025
126	0xbe23f668	-0.16011965
127	0x3cd4aceb	0.02596136
128	0xbd8cea42	-0.06880619
129	0xbe8bbe0a	-0.27293426
130	0x3d3f59d9	0.046716545
131	0xbdcd0fc3	-0.10012772
132	0xbd942052	-0.07232727
133	0xbd983872	-0.07432641
134	0xbdad569e	-0.084637865
135	0xbe3cab66	-0.18424758
136	0xbc7b31b6	-0.015331676
137	0x3c8878ee	0.016659226
138	0x3d324001	0.04351807
139	0xbdce73d5	-0.10080687
140	0xbdb2d9e9	-0.08732969
141	0x3d2c4854	0.042061165
142	0xbdacc185	-0.084353484
143	0x3e0d5170	0.13800597
144	0xbc3aa226	-0.011391198
145	0x3e08efff	0.13372801
146	0x39e92d49	0.00044474963
147	0x3d451fd6	0.048126064
148	0x3dc72a04	0.09724811
149	0x3cd7c63b	0.02633964
150	0x3db781a9	0.089602776
151	0x3d1755d2	0.03694708
152	0xbd94cb22	-0.07265307
153	0x3de7105b	0.112824164
154	0xbe48a5f7	-0.1959456
155	0x3d8c8f28	0.068632424
156	0x3dd3576f	0.10319411
157	0xbe622fcc	-0.22088546
158	0xbd492fc5	-0.049117822
159	0xbe04c882	-0.12967113
160	0xbdde02de	-0.108403906
161	0x377b33e1	1.4972845e-05
162	0x3e0282e1	0.12745239
163	0x3e06024c	0.13086814
164	0xbd1a25d5	-0.037633736
165	0xbdc70046	-0.09716849
166	0x3e0c42a3	0.13697295
167	0xbca7cfbc	-0.020484798
168	0x3da1b160	0.0789516
169	0xbd01638c	-0.031589076
170	0x3d8fa0d8	0.070131004
171	0xbde089aa	-0.10963757
172	0xbca6e544	-0.020372994
173	0x3d868fe8	0.06570417
174	0x3db9408f	0.09045517
175	0x3e284826	0.16433772
176	0xbca26e42	-0.019827966
177	0xbb81eded	-0.0039651305
178	0x3e1251c8	0.1428901
179	0x3d1eedea	0.03880111
180	0x3bcf7a23	0.0063316985
181	0x3d47ebcd	0.04880886
182	0x3d801e64	0.062557966
183	0xbdc53ba8	-0.09630519
184	0x3dcd6d75	0.10030643
185	0xbd41f915	-0.047356684
186	0x3e352ca4	0.1769281
187	0xbc32f72f	-0.010923191
188	0x3e8e3aa2	0.27779108
189	0xbe074a9a	-0.13212052
190	0x3e1a8113	0.150883
191	0x3e192c48	0.14958298
192	0x3dce2354	0.10065332
193	0xbe0858ac	-0.13315076
194	0xbca2f12e	-0.019890394
195	0xbe2449bf	-0.16043757
196	0xbba77a9e	-0.0051110527
197	0xbe1740b5	-0.14770778
198	0xbd9edb1d	-0.07756636
199	0xbe29995a	-0.16562405
200	0x3d9a0f81	0.075224884
201	0xbda8f553	-0.08249917
202	0xbda2068a	-0.079114035
203	0x3e6a5051	0.22882201
204	0x3b1d4925	0.0023999896
205	0xbbc644a3	-0.0060506626
206	0x3d892bbc	0.06697795
207	0xbdb844cb	-0.08997496
208	0x3d4b997f	0.049706932
209	0xbe29cb71	-0.16581513
210	0x3d5af9c6	0.05346086
211	0xbcaf18ff	-0.021374224
212	0xbdc31052	-0.09524597
213	0xbc5ce3f8	-0.013482086
214	0x3d32c920	0.04364884
215	0x3e2e9b9c	0.17051548
216	0x3de8df63	0.11370733
217	0x3dc3ef2c	0.09567103
218	0xbcd81bad	-0.026380384
219	0xbe188208	-0.14893353
220	0xbd72093f	-0.05909085
221	0x3d04634f	0.03232127
222	0xbc9d3810	-0.019191772
223	0xbd2af1c1	-0.04173446
224	0xbd1e97e9	-0.03871909
225	0xbd203ecd	-0.03912239
226	0xbe4cb20e	-0.19989797
227	0xbb5655c9	-0.003270494
228	0x3e18a87b	0.1490802
229	0x3c94680a	0.018116016
230	0x3e063f4b	0.13110082
231	0xbd9993ba	-0.0749888
232	0x3dd7d8df	0.10539412
233	0x3d952dfa	0.0728416
234	0x3cc82ebd	0.024436349
235	0xbda8f690	-0.08250153
236	0x3daadf9b	0.083434306
237	0xbe612225	-0.21985681
238	0x3bef4e54	0.0073030386
239	0xbaed6127	-0.0018110619
240	0xbcabf801	-0.02099228
241	0xbd48cc6a	-0.04902307
242	0xbd9bd971	-0.07609833
243	0x3db9fd06	0.090814635
244	0x3db0a021	0.08624292
245	0xbcb50ead	-0.022101725
246	0xbda9d848	-0.082932055
247	0xbdabceed	-0.08389077
248	0xbd11b37b	-0.035571557
249	0x3c88affe	0.016685482
250	0x3e12932e	0.14313957
251	0xbd4f08bc	-0.05054544
252	0x3ca75276	0.020425063
253	0x3df2e78e	0.11860572
254	0xbda6cfc5	-0.08145098
255	0xbd085ec2	-0.033293493

critic.network_body.linear_encoder.seq_layers.2.bias f4 [128]
0	0x00000000	0.0
1	0x00000000	0.0
2	0x00000000	0.0
3	0x00000000	0.0
4	0x00000000	0.0
5	0x00000000	0.0
6	0x00000000	0.0
7	0x00000000	0.0
8	0x00000000	0.0
9	0x00000000	0.0
10	0x00000000	0.0
11	0x00000000	0.0
12	0x00000000	0.0
13	0x00000000	0.0
14	0x00000000	0.0
15	0x00000000	0.0
16	0x00000000	0.0
17	0x00000000	0.0
18	0x00000000	0.0
19	0x00000000	0.0
20	0x00000000	0.0
21	0x00000000	0.0
22	0x00000000	0.0
23	0x00000000	0.0
24	0x00000000	0.0
25	0x00000000	0.0
26	0x00000000	0.0
27	0x00000000	0.0
28	0x00000000	0.0
29	0x00000000	0.0
30	0x00000000	0.0
31	0x00000000	0.0
32	0x00000000	0.0
33	0x00000000	0.0
34	0x00000000	0.0
35	0x00000000	0.0
36	0x00000000	0.0
37	0x00000000	0.0
38	0x00000000	0.0
39	0x00000000	0.0
40	0x00000000	0.0
41	0x00000000	0.0
42	0x00000000	0.0
43	0x00000000	0.0
44	0x00000000	0.0
45	0x00000000	0.0
46	0x00000000	0.0
47	0x00000000	0.0
48	0x00000000	0.0
49	0x00000000	0.0
50	0x00000000	0.0
51	0x00000000	0.0
52	0x00000000	0.0
53	0x00000000	0.0
54	0x00000000	0.0
55	0x00000000	0.0
56	0x00000000	0.0
57	0x00000000	0.0
58	0x00000000	0.0
59	0x00000000	0.0
60	0x00000000	0.0
61	0x00000000	0.0
62	0x00000000	0.0
63	0x00000000	0.0
64	0x00000000	0.0
65	0x00000000	0.0
66	0x00000000	0.0
67	0x00000000	0.0
68	0x00000000	0.0
69	0x00000000	0.0
70	0x00000000	0.0
71	0x00000000	0.0
72	0x00000000	0.0
73	0x00000000	0.0
74	0x00000000	0.0
75	0x00000000	0.0
76	0x00000000	0.0
77	0x00000000	0.0
78	0x00000000	0.0
79	0x00000000	0.0
80	0x00000000	0.0
81	0x00000000	0.0
82	0x00000000	0.0
83	0x00000000	0.0
84	0x00000000	0.0
85	0x00000000	0.0
86	0x00000000	0.0
87	0x00000000	0.0
88	0x00000000	0.0
89	0x00000000	0.0
90	0x00000000	0.0
91	0x00000000	0.0
92	0x00000000	0.0
93	0x00000000	0.0
94	0x00000000	0.0
95	0x00000000	0.0
96	0x00000000	0.0
97	0x00000000	0.0
98	0x00000000	0.0
99	0x00000000	0.0
100	0x00000000	0.0
101	0x00000000	0.0
102	0x00000000	0.0
103	0x00000000	0.0
104	0x00000000	0.0
105	0x00000000	0.0
106	0x00000000	0.0
107	0x00000000	0.0
108	0x00000000	0.0
109	0x00000000	0.0
110	0x00000000	0.0
111	0x00000000	0.0
112	0x00000000	0.0
113	0x00000000	0.0
114	0x00000000	0.0
115	0x00000000	0.0
116	0x00000000	0.0
117	0x00000000	0.0
118	0x00000000	0.0
119	0x00000000	0.0
120	0x00000000	0.0
121	0x00000000	0.0
122	0x00000000	0.0
123	0x00000000	0.0
124	0x00000000	0.0
125	0x00000000	0.0
126	0x00000000	0.0
127	0x00000000	0.0
