results/scoreGoal7/HitTheBall/HitTheBall-2387.onnx (onnx, 74062 bytes, 8 tensors)

action_model._continuous_distribution.log_sigma f4 [1, 2]
000000 00 00 00 00 00 00 00 00
       0.0 0.0

action_model._continuous_distribution.mu.bias f4 [2]
000000 00 00 00 00 00 00 00 00
       0.0 0.0

action_model._continuous_distribution.mu.weight f4 [2, 128]
000000 4c 66 43 bc 1b a8 bb 3c 90 b9 f7 bb 9b 04 c3 bb
       -0.011926245 0.022907307 -0.0075599626 -0.0059514767
000010 aa 74 f9 bb 0e 5b 84 bc 1e 06 91 bb 22 9e 09 bd
       -0.0076127844 -0.0161567 -0.004425778 -0.033598073
000020 3d 5c c4 3c 3d 5b 35 b9 59 00 91 3c 93 82 de 3c
       0.023969764 -0.00017295494 0.017700361 0.027161872
000030 30 7a f2 3c 1b 47 53 bb 33 dd 98 bc 3f 5a ac b9
       0.02959928 -0.0032238427 -0.018660164 -0.00032873635
000040 86 93 33 bc fd b4 a7 bb e3 cf 9d 3b 0f b3 96 3b
       -0.010960465 -0.005118011 0.004816042 0.004598982
000050 45 6c 14 bc b3 a9 0d 3c 85 99 f5 3c df 54 10 3c
       -0.009059017 0.0086464165 0.02998043 0.008809297
000060 f0 82 0a 3c d2 fc d7 3c 86 c6 c9 3c 33 3a 04 3c
       0.0084540695 0.026365671 0.024630796 0.008070516
000070 74 c0 b5 bc af 27 a2 3b 7a df 20 bb 7f 70 1a 3c
       -0.022186495 0.0049485783 -0.0024547265 0.009426235
000080 6a 67 c8 3b f3 62 5c bc 66 94 4b 3c e4 bf 8e 3c
       0.0061158435 -0.013451326 0.012425518 0.017425485
000090 94 fb b5 3b 3b e2 b1 bb aa 0e f3 bb 18 90 5f bc
       0.005553672 -0.00542858 -0.0074175196 -0.0136451945
0000a0 93 02 eb 3c 37 57 85 bb 4a c2 f4 3c ad 3d 4e 3c
       0.02868775 -0.0040692347 0.0298778 0.012587947
0000b0 df fe c1 bc ae af 17 3c a5 9e d3 bb 07 37 b6 bc
       -0.023681102 0.009258194 -0.006458121 -0.022243036
0000c0 af 87 c7 3c 1a 0d 60 3c af 6e 0b bd 13 12 98 bc
       0.024356691 0.013674999 -0.034041103 -0.018563306
0000d0 af c9 1c bd 0b 8f 28 3c 04 fb b9 bb 1e c0 26 bc
       -0.038278278 0.01028801 -0.0056756753 -0.01017764
0000e0 4f 35 fe 3a 0b 96 19 3c 4e 09 10 3d 11 1a c6 bc
       0.0019394549 0.009374152 0.035165124 -0.024182351
0000f0 9f a9 68 bb f3 4c 9a bb 22 15 3b 3c 0f 07 aa bb
       -0.0035501493 -0.00470888 0.011418613 -0.0051888297
000100 64 ba 97 bc e4 cc ab 3c 84 1c 0f 3d fb 70 5b 3a
       -0.018521495 0.020971723 0.034939304 0.00083710224
000110 90 1c 5d 3c 7f 15 39 3c f5 4b 5a bc 32 76 e6 b8
       0.013495579 0.011296629 -0.013323774 -0.0001098927
000120 33 cd a1 bb 8b 19 11 bc 68 27 50 bc d3 26 43 bc
       -0.0049377917 -0.008856188 -0.012704708 -0.011911112
000130 2b ff 49 3c a8 ce e1 bc 85 34 40 bc 25 c7 f0 bc
       0.012328903 -0.027564362 -0.011731272 -0.029391835
000140 e3 be 32 bc 1f 81 b5 3a c3 18 da 3c 9f 36 91 bc
       -0.010909769 0.0013847685 0.026623135 -0.01772624
000150 1f 57 c9 3b 38 b1 52 3c 7b f3 28 bc e7 f6 63 bc
       0.006144419 0.012859635 -0.0103119565 -0.013913847
000160 68 a4 4e 3c 82 32 f6 bb 10 ee 86 3a a5 11 6a 3b
       0.01261244 -0.007513345 0.0010294337 0.0035716083
000170 10 e1 76 bc 75 d7 d5 ba 6a 52 c0 3b 34 8e b0 3b
       -0.0150683075 -0.0016314822 0.0058691995 0.0053880457
000180 b7 a4 00 3d 46 9a 85 3c c1 e8 09 bd cb 92 43 3a
       0.031407084 0.016308915 -0.033669237 0.00074605335
000190 b7 a7 a3 3b 02 fc ed 3c 7b 52 0d 3c 1b dd 5d 3c
       0.0049943584 0.02905083 0.008625622 0.013541485
0001a0 d2 62 85 3a 43 0e 71 3c 37 fa f4 bb 20 f0 c4 bc
       0.0010176545 0.014712873 -0.007476117 -0.024040282
0001b0 6f 5d b0 bc 68 f6 49 bc 53 d7 18 3c c4 7a 8f 3c
       -0.021528928 -0.012326814 0.009328681 0.017514594
0001c0 5b fb 58 3b 86 41 bb 3c b2 48 41 bb 5b d3 21 bc
       0.0033108804 0.022858392 -0.0029492793 -0.009877051
0001d0 b2 01 2e bc cf e1 87 3c 35 06 7b bc ab 4f 5d 3a
       -0.010620521 0.016587166 -0.015321304 0.00084423524
0001e0 a7 df 8b 3c 33 d9 95 bc e2 02 e9 bb 69 31 19 3c
       0.01707442 -0.018292045 -0.0071109394 0.009350159
0001f0 0f 0f 7e 3b ba 31 e2 3c 61 e7 09 3d d3 7a bb 3c
       0.00387663 0.027611602 0.033667926 0.022885716
000200 c3 dd 98 bc ab fd 99 3a 5b 48 af bc ea 8f 76 bb
       -0.018660432 0.0011748573 -0.021396806 -0.00376224
000210 16 ea 01 bb 10 5b 56 bc 1a 1a 4a bc 75 06 d6 ba
       -0.0019823364 -0.013083234 -0.012335325 -0.0016328829
000220 f0 9d f4 3c f0 24 d0 3c d3 f1 4d 3b 2e 5b 07 3d
       0.029860467 0.025408238 0.0031424656 0.03304594
000230 2a dd e9 bc bc 5b 82 3b 13 c6 aa bc fb ac 34 bc
       -0.028547842 0.0039782207 -0.020846402 -0.01102757
000240 70 49 fc bb b5 f2 62 bc fd c1 18 bd 1f 31 ec 3b
       -0.007699184 -0.013851811 -0.037294377 0.007208004
000250 20 6d b5 3c 7d 8f ee 3a 12 c4 b3 3c 3f 8e 38 bc
       0.022146761 0.0018200722 0.02194408 -0.011264383
000260 4e 35 93 3b 57 0b 04 bd ca df db ba 7f 08 45 3c
       0.0044924384 -0.032237377 -0.0016775068 0.012025951
000270 17 fd 45 bc e9 36 92 3c b3 e9 70 ba e4 b6 05 3c
       -0.012084267 0.017848449 -0.00091900973 0.00816128
000280 9d 94 37 3c 15 b0 ce 3c 87 6e 7b 3c 20 60 ce ba
       0.011204866 0.025230447 0.015346176 -0.00157452
000290 a3 c5 60 3b 6b 42 f0 ba db 7d 8d bb ef 0d 87 bc
       0.0034297488 -0.0018330341 -0.0043179817 -0.016486136
0002a0 05 cd ab bb 02 b6 24 bd fd 93 e0 3c 27 c1 b8 3c
       -0.005242946 -0.04021264 0.027414316 0.02255304
0002b0 eb 78 18 bd f0 bb 70 ba df 59 9f b9 42 40 c6 3c
       -0.03722469 -0.00091832783 -0.00030393802 0.024200562
0002c0 09 8b 20 3c f3 c4 06 3c 2b 39 19 bd a2 97 84 3c
       0.009798774 0.008225667 -0.037408035 0.016185585
0002d0 f9 c7 1c bc fd 40 a3 3b 4e db 01 3d a3 06 1c 3c
       -0.009569162 0.0049821124 0.031703286 0.009523067
0002e0 3d bf 33 3d ab b5 6c bb b0 66 7e bc 37 f1 85 3b
       0.04388355 -0.0036119025 -0.015527412 0.004087593
0002f0 6a f3 fa bb e7 14 78 3b b2 bb c7 bc 7b 2b ea 3c
       -0.0076584117 0.0037854256 -0.024381492 0.028585186
000300 f5 5a 1a bd 8e 31 47 3c 17 c8 e8 3a 32 71 de 3b
       -0.0376844 0.012157811 0.0017759827 0.0067883963
000310 f3 8b d1 bc 05 7e 15 bd ae 95 12 bc 4b a6 13 3c
       -0.025579428 -0.036497135 -0.008946819 0.009011815
000320 6d 96 39 bc 20 10 15 bc b3 45 02 3c ad 86 90 3b
       -0.011327368 -0.009098083 0.007951188 0.004410586
000330 cb 30 c8 3b c5 cf e8 3b f8 9d 95 bc 9a 07 9b bb
       0.006109332 0.007104846 -0.018263802 -0.004731131
000340 4f 79 ab bb 9f 6d db 3c 38 c8 06 3d cd 37 89 3b
       -0.005232967 0.02678567 0.032905787 0.00418756
000350 4a da 16 3d b3 b6 85 3c 2e 54 8f bc 0d a8 e5 bc
       0.03682927 0.01632247 -0.017496195 -0.028034234
000360 5c 35 00 3c 5d b2 a7 3c c0 2a 85 3b 6f bf a5 3c
       0.007825222 0.020470792 0.004063934 0.020232884
000370 2f 40 c3 3c 7d 39 20 bc 43 8e cf bb 46 3a 80 bc
       0.023834316 -0.009779331 -0.0063340976 -0.015652787
000380 3f 24 3f 3c 08 1e da bc 1e 47 09 bc 13 73 2c bc
       0.011666357 -0.026625648 -0.008378772 -0.010525483
000390 af 4c 46 3c 6f 52 83 ba d2 dd 86 bc fa 52 35 bc
       0.012103244 -0.0010019074 -0.016463194 -0.011067146
0003a0 92 d8 91 3d 2e 75 13 3b 93 82 10 3c 83 ac bc 3b
       0.07121386 0.0022500264 0.008820194 0.0057578697
0003b0 fd 2c f1 3c 49 eb 88 bb 0b ad a7 3b 86 84 3e ba
       0.029440397 -0.004178439 0.005117064 -0.00072676723
0003c0 60 38 ed bb 9d c1 82 bb 98 db 49 3c d5 0e f7 3b
       -0.0072393864 -0.0039903657 0.012320422 0.00753961
0003d0 df 05 35 b9 03 69 36 3c bb 56 80 bb f7 cf bf bb
       -0.00017263692 0.011133435 -0.003916589 -0.0058536488
0003e0 e3 9c ee 3c 91 c7 3b 3c 2b 68 52 bc a2 e8 da b8
       0.029127544 0.011461155 -0.012842218 -0.00010438381
0003f0 91 31 c6 bb 8e 54 90 3c 13 29 18 3c 92 52 7c bc
       -0.0060483892 0.017618444 0.009287137 -0.015400546

action_model._discrete_distribution.branches.0.weight f4 [1, 128]
000000 cf 56 51 ba 5d 0d 5f 3b d9 69 48 bb f6 ce 81 bb
       -0.0007985653 0.0034035065 -0.0030580668 -0.0039614392
000010 17 1a 6f 3b ef f2 44 bc 37 fc ff bb f7 56 f4 ba
       0.0036484057 -0.0120208105 -0.007812049 -0.001864164
000020 c0 bb 39 3b 45 1e db bb 6e 7c 24 bc 07 83 0b bb
       0.0028340667 -0.006686958 -0.010039432 -0.0021287815
000030 d4 e2 09 3b 11 98 b0 bb f7 56 84 bc 08 fb 53 3c
       0.002103974 -0.0053892215 -0.01615475 0.0129382685
000040 9f ee 90 bc 45 0b fa 3b 77 be ad bb 92 b2 a7 3b
       -0.017691908 0.007630738 -0.005302246 0.005117723
000050 96 2c 18 bc 58 c7 92 ba 53 d2 56 bb 85 7a 89 3b
       -0.009287974 -0.0011198325 -0.0032779172 0.0041955137
000060 7b d8 02 bb 00 a4 73 3b a8 e3 86 bb 05 51 2e bc
       -0.0019965458 0.003717661 -0.004116494 -0.010639434
000070 f2 b6 0c bc f6 51 00 3c ce 6c 0c 3c 57 92 e2 3b
       -0.008588539 0.007832041 0.008570863 0.0069144177
000080 f0 45 71 3c cc f0 b8 3b 65 e9 03 bc ab 2a e4 3a
       0.014726147 0.0056439396 -0.008051251 0.0017407736
000090 ed 01 4a 3c 21 a9 28 3c d2 13 50 3b a7 bd c4 bb
       0.012329561 0.01029423 0.0031750095 -0.0060040536
0000a0 4a fa 88 3c 9f 77 20 bb 7f 59 1e 3c ea 9d 2d bc
       0.01672091 -0.0024485362 0.009664892 -0.010596732
0000b0 53 63 78 bc b8 9d 9b 3b e5 e2 ec 3b 9e 94 be bc
       -0.0151603995 0.004749026 0.0072291964 -0.023264226
0000c0 d0 48 ba 3b a7 18 86 3c 2f 85 93 bb e0 87 16 3a
       0.0056849495 0.016369177 -0.0045019607 0.0005742293
0000d0 13 5b 8f bc 81 79 c4 3b 05 77 61 bb 0a 82 6e 3c
       -0.017499482 0.0059959297 -0.0034403217 0.014557371
0000e0 45 c1 26 3c da 73 0f 3c 4b e0 46 bc af bd 1a bc
       0.010177915 0.0087556485 -0.012138437 -0.009444638
0000f0 52 fe 7e 3b 25 fa 78 3c b4 06 0b 3c 25 b3 5f ba
       0.003890891 0.015196358 0.008485485 -0.00085334695
000100 87 c1 95 3b b6 5a 95 ba e2 f2 e4 b9 eb b6 68 ba
       0.0045701894 -0.0011394832 -0.0004366851 -0.00088773546
000110 fc 60 ad 3b 9f 82 f8 39 87 f3 d0 bb ba ea 22 3a
       0.0052911025 0.00047399566 -0.006376687 0.00062147866
000120 f3 3b 13 3b 8c 13 0f 3c bc 89 82 3b 3d 81 a8 bb
       0.0022466152 0.008732688 0.0039837044 -0.0051423595
000130 ab 2e 23 bb 77 05 72 bc 5f 5d 22 bb 71 23 19 3b
       -0.0024899642 -0.014771811 -0.0024774892 0.0023367072
000140 e2 8c 0b bc db 95 00 bc 65 41 fd 3b 65 35 e9 bb
       -0.008517476 -0.007848228 0.007728743 -0.007116961
000150 8c ce 2f 3c 9a ed 69 bc 9f 3a 9c bb 7b 8a ed 3b
       0.010730397 -0.01427784 -0.0047677304 0.007249174
000160 d5 01 4f 3c 37 48 0c bc 65 33 bf 3b b8 a1 6e bc
       0.012634714 -0.008562139 0.005834984 -0.014564924
000170 1f c7 2c bc 38 82 86 3b c2 2a 78 bb 40 06 c9 3b
       -0.010545521 0.0041048788 -0.0037867283 0.0061347783
000180 cb 54 27 bb 53 e7 5e bb aa ba ba bb 1d 76 5a 39
       -0.0025532718 -0.0034012392 -0.0056985216 0.000208341
000190 4b c0 c7 bb 94 96 06 bb 4a f3 0e bb d6 50 9d 3b
       -0.006095921 -0.002053653 -0.0021812492 0.004800896
0001a0 fc b7 16 3b 2a 4b 0b 3c 02 66 e4 bb 83 bc df bb
       0.0022997847 0.008501807 -0.006970168 -0.0068278923
0001b0 88 eb 26 bc 1f 5b c5 bb 2a 7a b7 bc a5 55 33 3b
       -0.010187991 -0.0060228254 -0.02239712 0.002736428
0001c0 b6 ea 85 bc 23 6a 9e ba be aa b2 bb b0 c2 68 3b
       -0.01634727 -0.0012086075 -0.005452483 0.0035516433
0001d0 98 c4 51 bc e8 76 2e 3a 90 4b 2a bc b5 7b 00 3c
       -0.012803219 0.00066552917 -0.010393992 0.007841994
0001e0 f6 c1 b9 bb cd 30 64 bc 06 2e 40 3c 67 73 8e ba
       -0.005668874 -0.013927651 0.011729723 -0.0010868133
0001f0 b7 bd 16 3c 37 bb ae 39 3f 72 d9 3a e3 86 fa ba
       0.009200505 0.00033327352 0.0016589834 -0.0019113686

network_body.linear_encoder.seq_layers.0.bias f4 [128]
000000 00 00 00 00 00 00 00 00 00 00 00 00 00 00 00 00
       0.0 0.0 0.0 0.0
000010 00 00 00 00 00 00 00 00 00 00 00 00 00 00 00 00
       0.0 0.0 0.0 0.0
000020 00 00 00 00 00 00 00 00 00 00 00 00 00 00 00 00
       0.0 0.0 0.0 0.0
000030 00 00 00 00 00 00 00 00 00 00 00 00 00 00 00 00
       0.0 0.0 0.0 0.0
000040 00 00 00 00 00 00 00 00 00 00 00 00 00 00 00 00
       0.0 0.0 0.0 0.0
000050 00 00 00 00 00 00 00 00 00 00 00 00 00 00 00 00
       0.0 0.0 0.0 0.0
000060 00 00 00 00 00 00 00 00 00 00 00 00 00 00 00 00
       0.0 0.0 0.0 0.0
000070 00 00 00 00 00 00 00 00 00 00 00 00 00 00 00 00
       0.0 0.0 0.0 0.0
000080 00 00 00 00 00 00 00 00 00 00 00 00 00 00 00 00
       0.0 0.0 0.0 0.0
000090 00 00 00 00 00 00 00 00 00 00 00 00 00 00 00 00
       0.0 0.0 0.0 0.0
0000a0 00 00 00 00 00 00 00 00 00 00 00 00 00 00 00 00
       0.0 0.0 0.0 0.0
0000b0 00 00 00 00 00 00 00 00 00 00 00 00 00 00 00 00
       0.0 0.0 0.0 0.0
0000c0 00 00 00 00 00 00 00 00 00 00 00 00 00 00 00 00
       0.0 0.0 0.0 0.0
0000d0 00 00 00 00 00 00 00 00 00 00 00 00 00 00 00 00
       0.0 0.0 0.0 0.0
0000e0 00 00 00 00 00 00 00 00 00 00 00 00 00 00 00 00
       0.0 0.0 0.0 0.0
0000f0 00 00 00 00 00 00 00 00 00 00 00 00 00 00 00 00
       0.0 0.0 0.0 0.0
000100 00 00 00 00 00 00 00 00 00 00 00 00 00 00 00 00
       0.0 0.0 0.0 0.0
000110 00 00 00 00 00 00 00 00 00 00 00 00 00 00 00 00
       0.0 0.0 0.0 0.0
000120 00 00 00 00 00 00 00 00 00 00 00 00 00 00 00 00
       0.0 0.0 0.0 0.0
000130 00 00 00 00 00 00 00 00 00 00 00 00 00 00 00 00
       0.0 0.0 0.0 0.0
000140 00 00 00 00 00 00 00 00 00 00 00 00 00 00 00 00
       0.0 0.0 0.0 0.0
000150 00 00 00 00 00 00 00 00 00 00 00 00 00 00 00 00
       0.0 0.0 0.0 0.0
000160 00 00 00 00 00 00 00 00 00 00 00 00 00 00 00 00
       0.0 0.0 0.0 0.0
000170 00 00 00 00 00 00 00 00 00 00 00 00 00 00 00 00
       0.0 0.0 0.0 0.0
000180 00 00 00 00 00 00 00 00 00 00 00 00 00 00 00 00
       0.0 0.0 0.0 0.0
000190 00 00 00 00 00 00 00 00 00 00 00 00 00 00 00 00
       0.0 0.0 0.0 0.0
0001a0 00 00 00 00 00 00 00 00 00 00 00 00 00 00 00 00
       0.0 0.0 0.0 0.0
0001b0 00 00 00 00 00 00 00 00 00 00 00 00 00 00 00 00
       0.0 0.0 0.0 0.0
0001c0 00 00 00 00 00 00 00 00 00 00 00 00 00 00 00 00
       0.0 0.0 0.0 0.0
0001d0 00 00 00 00 00 00 00 00 00 00 00 00 00 00 00 00
       0.0 0.0 0.0 0.0
0001e0 00 00 00 00 00 00 00 00 00 00 00 00 00 00 00 00
       0.0 0.0 0.0 0.0
0001f0 00 00 00 00 00 00 00 00 00 00 00 00 00 00 00 00
       0.0 0.0 0.0 0.0

network_body.linear_encoder.seq_layers.0.weight f4 [128, 6]
000000 f0 2d 3f bd 1a e7 89 3d 60 46 3f be e7 1e 0b 3e
       -0.04667467 0.06733532 -0.1867919 0.13586007
000010 39 46 cb be 8c 0b 46 be 4d a6 01 3e 36 b5 a2 be
       -0.39702013 -0.19340342 0.12661095 -0.31778878
000020 b3 67 70 3f c1 fe a0 be 3b 42 2b bf c4 08 18 3e
       0.9390823 -0.31444362 -0.66897935 0.14847094
000030 9b f2 84 be 0d 83 f5 bd 3f 7d 1e 3e 4c 3f f0 be
       -0.25966343 -0.119878866 0.15477465 -0.46923292
000040 70 b7 e4 be 6e 87 54 3e 66 74 e8 bd 85 05 04 be
       -0.44671202 0.20754787 -0.11350326 -0.1289273
000050 3d dd b4 be f1 a5 e2 3e 60 5b 01 3f 87 7f 2d 3e
       -0.3532504 0.44267228 0.5053005 0.16943179
000060 97 db f3 3e 01 be 83 be dd c3 a5 3e f8 63 72 be
       0.4762847 -0.257309 0.32375994 -0.23670948
000070 af 72 fc be fe b4 99 3e d2 01 29 3e e6 ff 6a be
       -0.49306247 0.300209 0.165046 -0.2294918
000080 3d 8c bc be c7 50 d0 3d 66 6f cc be 57 ee 57 3e
       -0.36825743 0.10171657 -0.3992874 0.21087013
000090 c7 ea ae bd ba 07 c5 3e 87 7f f4 be 9c ee ab 3d
       -0.08540874 0.38482457 -0.47753546 0.083951205
0000a0 90 22 13 3d 2d 78 44 3e e8 c4 e1 3e c4 60 89 3d
       0.035921633 0.19186468 0.4409554 0.0670791
0000b0 98 f1 f2 be e4 71 fe bd 7d 0c e5 3e 53 47 2b 3e
       -0.47449946 -0.12424067 0.4473609 0.16726427
0000c0 e9 75 86 3f 89 c1 41 3e d3 ed 74 3e 4a 88 a9 bd
       1.0504733 0.18921484 0.23918848 -0.08277948
0000d0 51 0d 6e 3e 37 c7 0f bf 69 54 af 3e a2 41 a3 3d
       0.23247267 -0.5616335 0.34244087 0.07971503
0000e0 2d cb 11 bf 48 bc d3 3e b4 b9 5f 3e 8b f2 80 3f
       -0.56950647 0.41354585 0.21848184 1.0074018
0000f0 e5 3c ff be f3 da 00 3f 6a 8b da be 09 28 f3 3e
       -0.49851146 0.5033409 -0.4268449 0.47491482
000100 d2 8e fc 3d c3 69 f9 bd 4f 3b 99 bf 93 55 45 bb
       0.12331928 -0.121783756 -1.1971225 -0.003011082
000110 ed 10 4e 3e e4 74 18 bf ed 21 04 be 9a 5e be 3e
       0.20123644 -0.5955336 -0.12903567 0.3718155
000120 6f 0b 16 bf e0 3f 8f be 3c 11 c3 3e 6b 15 25 be
       -0.58611196 -0.2797842 0.38099086 -0.16121452
000130 ca a7 75 bd 30 9d f5 3e f2 44 c2 3b cc 54 82 be
       -0.05997447 0.47971487 0.005928629 -0.2545532
000140 4a ff c2 3e 3b c0 61 be 68 ac 00 be bb ca a7 3d
       0.38085395 -0.22045986 -0.12565768 0.08192965
000150 1b e1 35 3d 51 4a ee 3c 87 89 60 3f bc 67 17 3f
       0.04440413 0.029088171 0.8770985 0.5914266
000160 da 6f 4b bf 31 7f 2e bf 02 11 e8 bc b5 a6 8a 3e
       -0.79467547 -0.6816283 -0.028328422 0.27080312
000170 56 3f 42 be 0f 08 98 3c 26 b7 85 be 11 b1 10 bf
       -0.18969473 0.01855853 -0.26116294 -0.5652018
000180 38 b3 e9 3e 51 00 81 3d 76 7c 93 3f 7b 65 10 be
       0.45644546 0.062988885 1.1522357 -0.14101212
000190 18 d5 09 bf 1c 40 7a 3d aa ae 81 3e 1c 49 07 be
       -0.5384078 0.061096296 0.2532857 -0.13211483
0001a0 07 bf 19 3e 6d c4 17 3f da ef 1e 3f ec a4 80 3e
       0.15014277 0.59284097 0.62084734 0.25125825
0001b0 39 78 27 bf 70 2b 87 3e 38 8c 55 be 2e 77 03 3f
       -0.6541782 0.26400328 -0.2085427 0.5135373
0001c0 5d e1 dc 3e 15 e0 ab 3e 1b 23 03 bf 91 ed 81 3f
       0.4314069 0.335694 -0.5122544 1.0150625
0001d0 69 fb 14 3e 0b 50 06 be 92 b3 0b 3e 06 9b 98 be
       0.1454903 -0.13116471 0.1364272 -0.29805773
0001e0 e1 63 bb be 3b a6 af 3b de e3 92 be 51 de 14 be
       -0.3659964 0.0053603924 -0.28689474 -0.14537932
0001f0 5d 3f 88 3e f8 38 9e be 90 b3 50 bf 41 3b 9f 3d
       0.26610842 -0.3090284 -0.8152399 0.07774974
000200 5c d8 52 bf e6 97 44 bf 5d 51 df 3e 62 b9 17 be
       -0.8236139 -0.7679428 0.43616763 -0.14816812
000210 c8 4c c4 3e c5 43 05 bd 9b 38 06 3e 0d b7 76 be
       0.3833983 -0.032535333 0.13107531 -0.24093266
000220 b6 d9 32 bf 23 8e d6 3e d7 e0 a5 3e fd 21 93 bf
       -0.6986345 0.41905317 0.32398102 -1.1494747
000230 42 7e 29 be 4a 8c 64 3f 21 82 66 bd 9e 56 bf be
       -0.1655207 0.89276564 -0.056276444 -0.3737077
000240 44 fa 3b be ac 27 e8 3c 8c 41 28 bf 99 0c 7f be
       -0.18357188 0.02833923 -0.65725017 -0.2490715
000250 d4 57 3e 3d bc 2b 17 be 0f c4 6e be 50 fe e7 be
       0.04647048 -0.14762777 -0.23316978 -0.45311213
000260 b9 47 33 be b2 e5 9f bd 40 f4 84 3e b6 30 01 bf
       -0.17507829 -0.07807483 0.25967598 -0.5046495
000270 52 fb 7d 3d fe ce 0a 3f 6c 97 2e 3e 00 b5 59 bf
       0.062007256 0.54222095 0.1704995 -0.8504181
000280 d4 7a 94 bd c7 20 83 be 77 73 6d 3e 9e 7f ef be
       -0.0724999 -0.25610945 0.23188578 -0.46777052
000290 da fd aa 3e fa a7 33 be 16 81 17 3f f3 d5 19 be
       0.33396798 -0.17544547 0.59181345 -0.15023021
0002a0 01 ce 53 be fb d1 82 be 2d 1a 20 3c 03 5c 2d be
       -0.20684053 -0.25550827 0.009771866 -0.16929631
0002b0 0e aa f4 3e 0b f6 0e 3e d0 73 67 3f 98 97 25 bf
       0.4778599 0.13961045 0.9041109 -0.6468444
0002c0 3f 69 73 be 73 e2 b3 bf 82 39 0c be d5 97 11 be
       -0.23770617 -1.4053482 -0.13693812 -0.14218076
0002d0 37 2e ab 3e 25 01 65 3f 3b 3a 55 be fc 49 89 3e
       0.33433697 0.8945487 -0.20822994 0.26814258
0002e0 cb 31 e6 3e a3 80 9b 3e cd 68 dd 3e 13 1f 9e bd
       0.44959864 0.3037158 0.4324402 -0.07720771
0002f0 b9 2a c4 be 62 66 5c 3e 68 55 a3 be da 75 45 bf
       -0.38313845 0.21523431 -0.31901097 -0.7713295
000300 05 a2 51 be d2 f7 5b bd 77 f4 0f 3e 08 30 1f 3f
       -0.20471962 -0.053703137 0.140581 0.62182665
000310 f9 74 c3 3a 3b b6 10 ba 2a bb 2d be fb ed 0b 3f
       0.001491218 -0.00055203185 -0.16965929 0.54660004
000320 8f 5b 36 3b 2b 7e ef be 0d 6e 66 3e c2 fc 0a bf
       0.002782557 -0.46775946 0.22502919 -0.5429193
000330 a5 8f 11 bf fc b1 bf 3e cd 48 91 3e 2b 8b b5 3e
       -0.5685981 0.3744048 0.28375855 0.3545774
000340 07 42 2e bf 7b 5d 2a 3f c8 8e 10 be fe 48 d2 bd
       -0.680695 0.6654889 -0.14116967 -0.102678284
000350 42 0f 83 be 4d 06 0a bf 97 9a 88 bf c5 de 3e be
       -0.25597578 -0.53915864 -1.0672177 -0.18639667
000360 3b 0d 40 bf f8 a3 9f be ea 31 d2 be 1b 03 75 3e
       -0.7502019 -0.31179786 -0.41053706 0.23926966
000370 34 f0 bd 3c de a8 12 3c ed c8 d7 bd ea 80 a0 3e
       0.023185827 0.008951394 -0.105363704 0.31348354
000380 99 19 f4 be 52 cf 84 be c6 92 2b 3f 0f 20 9c be
       -0.4767578 -0.25939423 0.67020833 -0.3049321
000390 f8 66 e4 bb c2 af 16 3e 4d 1c 63 3e bb a4 e1 3e
       -0.0069702826 0.14715484 0.22178765 0.44070992
0003a0 9f 52 ad be e5 bb 9b 3e 8d ee c6 be 94 20 b7 3e
       -0.33852097 0.3041679 -0.38853875 0.35767043
0003b0 b5 b2 b4 3e a2 65 05 3e 2a a7 60 bf 66 88 84 3e
       0.35292593 0.13027051 -0.8775507 0.25885314
0003c0 8a 3a d8 3e 0d 2b 8d 3e 79 82 3c 3d 63 46 a7 3c
       0.42232162 0.27571908 0.046022866 0.020419305
0003d0 dc be 9f 3e c9 10 1e 3f ad 01 96 3e de b8 ef 3e
       0.31200302 0.6174436 0.29298154 0.4682073
0003e0 b2 ab cd 3e 82 19 3c 3e 1b 6e ae 3e d6 59 21 3d
       0.40170056 0.18369105 0.3406838 0.039392315
0003f0 f6 bc 17 be d1 fe ce be a0 e9 02 3f f6 b3 d0 bd
       -0.14818177 -0.40428784 0.51137733 -0.10190575

network_body.linear_encoder.seq_layers.2.bias f4 [128]
000000 00 00 00 00 00 00 00 00 00 00 00 00 00 00 00 00
       0.0 0.0 0.0 0.0
000010 00 00 00 00 00 00 00 00 00 00 00 00 00 00 00 00
       0.0 0.0 0.0 0.0
000020 00 00 00 00 00 00 00 00 00 00 00 00 00 00 00 00
       0.0 0.0 0.0 0.0
000030 00 00 00 00 00 00 00 00 00 00 00 00 00 00 00 00
       0.0 0.0 0.0 0.0
000040 00 00 00 00 00 00 00 00 00 00 00 00 00 00 00 00
       0.0 0.0 0.0 0.0
000050 00 00 00 00 00 00 00 00 00 00 00 00 00 00 00 00
       0.0 0.0 0.0 0.0
000060 00 00 00 00 00 00 00 00 00 00 00 00 00 00 00 00
       0.0 0.0 0.0 0.0
000070 00 00 00 00 00 00 00 00 00 00 00 00 00 00 00 00
       0.0 0.0 0.0 0.0
000080 00 00 00 00 00 00 00 00 00 00 00 00 00 00 00 00
       0.0 0.0 0.0 0.0
000090 00 00 00 00 00 00 00 00 00 00 00 00 00 00 00 00
       0.0 0.0 0.0 0.0
0000a0 00 00 00 00 00 00 00 00 00 00 00 00 00 00 00 00
       0.0 0.0 0.0 0.0
0000b0 00 00 00 00 00 00 00 00 00 00 00 00 00 00 00 00
       0.0 0.0 0.0 0.0
0000c0 00 00 00 00 00 00 00 00 00 00 00 00 00 00 00 00
       0.0 0.0 0.0 0.0
0000d0 00 00 00 00 00 00 00 00 00 00 00 00 00 00 00 00
       0.0 0.0 0.0 0.0
0000e0 00 00 00 00 00 00 00 00 00 00 00 00 00 00 00 00
       0.0 0.0 0.0 0.0
0000f0 00 00 00 00 00 00 00 00 00 00 00 00 00 00 00 00
       0.0 0.0 0.0 0.0
000100 00 00 00 00 00 00 00 00 00 00 00 00 00 00 00 00
       0.0 0.0 0.0 0.0
000110 00 00 00 00 00 00 00 00 00 00 00 00 00 00 00 00
       0.0 0.0 0.0 0.0
000120 00 00 00 00 00 00 00 00 00 00 00 00 00 00 00 00
       0.0 0.0 0.0 0.0
000130 00 00 00 00 00 00 00 00 00 00 00 00 00 00 00 00
       0.0 0.0 0.0 0.0
000140 00 00 00 00 00 00 00 00 00 00 00 00 00 00 00 00
       0.0 0.0 0.0 0.0
000150 00 00 00 00 00 00 00 00 00 00 00 00 00 00 00 00
       0.0 0.0 0.0 0.0
000160 00 00 00 00 00 00 00 00 00 00 00 00 00 00 00 00
       0.0 0.0 0.0 0.0
000170 00 00 00 00 00 00 00 00 00 00 00 00 00 00 00 00
       0.0 0.0 0.0 0.0
000180 00 00 00 00 00 00 00 00 00 00 00 00 00 00 00 00
       0.0 0.0 0.0 0.0
000190 00 00 00 00 00 00 00 00 00 00 00 00 00 00 00 00
       0.0 0.0 0.0 0.0
0001a0 00 00 00 00 00 00 00 00 00 00 00 00 00 00 00 00
       0.0 0.0 0.0 0.0
0001b0 00 00 00 00 00 00 00 00 00 00 00 00 00 00 00 00
       0.0 0.0 0.0 0.0
0001c0 00 00 00 00 00 00 00 00 00 00 00 00 00 00 00 00
       0.0 0.0 0.0 0.0
0001d0 00 00 00 00 00 00 00 00 00 00 00 00 00 00 00 00
       0.0 0.0 0.0 0.0
0001e0 00 00 00 00 00 00 00 00 00 00 00 00 00 00 00 00
       0.0 0.0 0.0 0.0
0001f0 00 00 00 00 00 00 00 00 00 00 00 00 00 00 00 00
       0.0 0.0 0.0 0.0

network_body.linear_encoder.seq_layers.2.weight f4 [128, 128]
000000 64 8f c2 3d a5 64 94 3d f4 3e 02 3e d2 8f de 3d
       0.09500006 0.07245759 0.12719327 0.10867275
000010 46 7c 12 bc 35 e3 d7 3c 93 e2 40 be 4c 5c 64 3c
       -0.008940762 0.026353458 -0.18836431 0.013938021
000020 79 03 54 3d e9 d3 df bd 21 5f 6a 3d 71 4e 1f be
       0.051761124 -0.109290905 0.05721963 -0.15557267
000030 db 84 13 bd 73 2a 7a bd 1b b3 8c bd bb 1c 17 3e
       -0.036015373 -0.06107564 -0.06870099 0.14757054
000040 05 a3 0e 3d 6c 79 45 3d c8 eb f7 3c f7 46 83 bd
       0.034823436 0.0482115 0.030263796 -0.0641002
000050 4d 8a 92 3c f3 53 01 3e cb f9 fd bd 59 4c 5a 3d
       0.017888213 0.1262968 -0.1240116 0.053295467
000060 9c c6 82 3d fd 50 11 3c da af 9c 3c d6 80 00 3e
       0.06385538 0.008869407 0.019126821 0.12549147
000070 ab 87 94 bd e8 f7 c7 3d e4 59 05 be 1c b9 8c 3d
       -0.07252439 0.09764081 -0.13022572 0.06871244
000080 23 fb 01 bd f9 b0 e5 bd 25 1c 1b 3d f5 10 8d 3b
       -0.031733643 -0.112153955 0.037868638 0.004305
000090 20 7b a5 3d 7d 8a ee bd 72 ca 15 3c eb e6 9d bc
       0.08080125 -0.11647508 0.009142505 -0.01927515
0000a0 10 90 fb 3d 57 ee 88 bd 46 95 1d be ca 17 e0 3b
       0.12283337 -0.06686085 -0.15388975 0.0068387734
0000b0 5b c0 46 3e 8f 9f a4 3d 33 16 c6 3d e3 c2 83 bd
       0.19409315 0.08038246 0.09672203 -0.06433656
0000c0 e2 15 64 3d 2d ab 52 3e 3a e3 07 be 9f 29 e5 3d
       0.05568493 0.20573111 -0.13270274 0.11189579
0000d0 06 6c 20 3d 88 16 d8 3c 7d 3a c5 bb c0 e6 9b bc
       0.03916552 0.026377931 -0.0060189352 -0.019030929
0000e0 d2 42 74 bc 03 32 b8 bd c0 5e 81 bd 58 1c 45 bd
       -0.014908509 -0.08993914 -0.063169 -0.048122734
0000f0 19 9d 83 bd a1 dd ab bd cc 81 60 3d db 99 91 bd
       -0.064264484 -0.08391882 0.054811284 -0.07109424
000100 92 83 4a bc 4f 68 08 3e d4 24 e5 bd 14 34 20 bc
       -0.01236047 0.1332104 -0.11188665 -0.009778041
000110 28 32 ac bc 6b 48 3b bd 96 2f 5e 3d 96 85 1a bd
       -0.02102001 -0.04572336 0.0542446 -0.037725054
000120 a4 83 47 bd a4 8c d4 3d 98 81 10 bd 67 95 dd 3d
       -0.048709527 0.103783876 -0.03527984 0.10819512
000130 6f 95 89 3d 36 ea ca bc 97 34 61 3e b4 f5 36 3d
       0.06717955 -0.024769884 0.21992718 0.044667915
000140 6e 77 f0 3c 3b 15 06 be 22 8e b5 bc 67 77 34 bd
       0.029353824 -0.13094036 -0.0221625 -0.044059183
000150 54 fc 94 bd 4d 78 85 bc d9 e3 cf bc d7 c8 34 3d
       -0.0727469 -0.016292715 -0.0253772 0.04413685
000160 5e a0 83 bc 2f 66 a0 bd ec 08 b1 bd f1 62 77 bd
       -0.01606768 -0.0783199 -0.0864428 -0.060397092
000170 3c 82 5c bd 13 cc 7a 3d 1d 88 85 bd 21 dc ea bd
       -0.05383514 0.061229777 -0.06520102 -0.114677675
000180 fd 40 3c bd d4 65 5d bd 6d 9b 8a bc 55 63 d9 3c
       -0.045960415 -0.05405219 -0.016919816 0.026536623
000190 41 17 fc bd e6 63 a0 3d ff 8a 29 3d d6 1f 39 bd
       -0.12309123 0.07831554 0.041392323 -0.045196377
0001a0 eb 60 9e bd 4c 5c 3d bd b2 6a 0d bd 4a 2b 0d be
       -0.077333294 -0.0462306 -0.03452558 -0.13786045
0001b0 b5 e3 01 bd 0e f3 84 3d 2c 8b 04 be e9 9e 30 bd
       -0.0317113 0.064916715 -0.12943715 -0.0431203
0001c0 80 36 d8 3d 24 69 9f bc b4 aa 0b be 58 c0 3a 3a
       0.1055727 -0.019459315 -0.13639337 0.00071239984
0001d0 fc 74 94 bd 7d e4 04 3d b5 5a 23 bb 0e 58 b5 3c
       -0.072488755 0.032444466 -0.0024925892 0.022136714
0001e0 f2 e8 5b bc f1 c8 25 bd 86 0e 45 3e 02 7b 93 bd
       -0.013422238 -0.040474836 0.19243822 -0.07201196
0001f0 93 fa 00 3d c8 35 8b 3d d2 11 23 bc e3 24 ea 3b
       0.031488966 0.06797367 -0.009952979 0.0071455105
000200 34 7e f5 bc 57 03 e6 bd bf a4 96 3d 27 da a0 3d
       -0.029967405 -0.11231106 0.073556416 0.07854109
000210 d1 0f 68 bd 3e d3 93 3a b6 de e5 3c b1 04 83 bd
       -0.05665571 0.0011278165 0.028060298 -0.06397379
000220 c9 ae 81 3d 53 9c 54 3d cd 00 f9 bc 65 b1 93 3d
       0.06332166 0.051906895 -0.03039589 0.0721157
000230 4b 5d 31 be 3c 0f 0c be 06 a9 7b 3c 12 c6 bf 3d
       -0.17320745 -0.13677686 0.015360123 0.09363951
000240 8f 9c 4f bb 47 7b 06 3e 26 5d 23 3c 09 5a 38 3c
       -0.003167901 0.13132964 0.009970939 0.011251935
000250 8e e3 b5 3d 34 5a 58 3e 37 c2 31 bd 11 70 55 be
       0.08881293 0.2112816 -0.04339811 -0.20843531
000260 89 fe 23 3e 70 8e 1a 3d f3 d0 31 3d f0 a6 6d 3d
       0.16015066 0.037733495 0.04341216 0.058020532
000270 5e 90 fe 3c 2c 22 81 3c 86 67 41 3d 74 6e a0 bd
       0.031074699 0.015763365 0.04721787 -0.07833567
000280 a7 38 e3 3c 41 25 ef bd 31 ae 02 be 8f ea 7c bd
       0.027736975 -0.116770275 -0.12761761 -0.06174713
000290 64 a6 ec bd 39 bc ca bd c0 1d 44 3d cf 6c af bc
       -0.11555174 -0.09899182 0.047879934 -0.021414189
0002a0 1a 31 6b 3d bb bf 37 3d 32 17 6a bb d0 45 63 3b
       0.057419874 0.044860583 -0.0035719392 0.0034679063
0002b0 0f c9 d1 bc 07 b9 2b 3d f0 4d 97 bb 49 ab 46 bd
       -0.025608568 0.041924503 -0.004617445 -0.048503194
0002c0 3e e9 39 3d 0b a0 f5 3c 71 d1 98 bd 85 8c cc bb
       0.045388453 0.029983541 -0.07461823 -0.006242337
0002d0 2e be e0 bd 2b 2f 1a be b8 8d 4a bd f9 37 78 bd
       -0.10973774 -0.15057056 -0.04945156 -0.060600255
0002e0 c9 7a 33 bc 87 bc dd bc 6e 8d 94 bd ae 4d 3c bd
       -0.010954567 -0.027067436 -0.07253538 -0.04597252
0002f0 8d e8 98 3b af c6 7d 3c 60 24 03 bd c5 84 bb bd
       0.004666394 0.015489264 -0.03201711 -0.09156183
000300 a6 b8 1d 3d 73 cc 39 bd 98 b0 a6 3d 8c c0 0e be
       0.038506173 -0.045360994 0.08139151 -0.13940638
000310 a9 7a ef 3c 5b 41 d3 3c 3e d0 ee bd a1 e3 b1 3c
       0.029233294 0.025788 -0.11660813 0.021714987
000320 9d e8 a7 bc 3a 6b 4a bb 69 c9 16 be fe 13 39 3c
       -0.02049666 -0.0030886666 -0.1472527 0.01129627
000330 ed 2a c2 3d d3 7b 2b 3e 77 c4 b0 3d 5d 3a f6 3c
       0.09480844 0.16746454 0.08631223 0.030057127
000340 90 a3 34 3e cc e7 86 bd 53 95 d7 3d 65 19 12 bd
       0.17640519 -0.065871805 0.10526528 -0.03566875
000350 8a a4 86 bd b7 f6 14 3d 60 cd 30 3d 37 ff 2d 3c
       -0.06574352 0.036368098 0.04316461 0.01061993
000360 3a f6 83 3d 8c fd 43 bd 09 12 fc 3b 32 f3 91 bb
       0.06443448 -0.047849223 0.0076925796 -0.00445404
000370 84 2a f0 bc e8 bb 20 3d 43 75 6b 3d 03 ed 0e bc
       -0.029317148 0.0392417 0.057484876 -0.0087235
000380 ad a3 59 bd bb b0 46 bc e3 4e 8a bb 29 c1 5d 3d
       -0.05313461 -0.012127097 -0.00422083 0.05413929
000390 05 8f ec 3d a0 fb e0 3d d3 7d b5 3d f0 2c 26 bc
       0.11550716 0.10985494 0.0886189 -0.01014255
0003a0 de 46 76 bb 5e a2 9a ba 8c 9e 1d bc a4 0f a4 bc
       -0.0037578861 -0.0011797657 -0.00962032 -0.02002699
0003b0 55 7a d9 bd 9b 13 9c 3c 48 70 9a 3d 32 6a a4 bd
       -0.10619036 0.019052317 0.07540947 -0.08028068
0003c0 ad d6 e7 3d 9f c9 07 be 7a 40 eb 3d 1b b4 ac 3c
       0.11320243 -0.13260506 0.11486907 0.021081975
0003d0 c8 3c fb bc bd 70 89 bd 38 78 73 bc 99 1a 41 3e
       -0.030668631 -0.06710956 -0.014860205 0.18857802
0003e0 7b a1 1b 3c c6 f9 85 bd c2 4a 2a 3d 04 ed 4e 3c
       0.009498949 -0.06541781 0.0415752 0.012629751
0003f0 43 eb b9 bc 23 b2 b5 3c e3 8f 9d 3c 3d 84 ef 3d
       -0.02269519 0.022179669 0.01923365 0.11695144
