results/scoreGoal10/HitTheBall/HitTheBall-19468.pt (torch, 442191 bytes, 39 tensors)

network_body.linear_encoder.seq_layers.0.weight f4 [128, 6]
0	0x3f1d65cf	0.6148347
1	0x3f1cdffa	0.6127926
2	0x3dfb09b9	0.12257714
3	0x3eef3512	0.46720177
4	0xbe647c6a	-0.22313085
5	0x3eceb0e4	0.40369332
6	0xbe909c47	-0.2824423
7	0xbf53a460	-0.8267269
8	0xbf5c3fd6	-0.86034906
9	0xbce2d290	-0.027688295
10	0x3f2a62f0	0.66557217
11	0x3ec1b631	0.37834314
12	0xbf2ce411	-0.675355
13	0x3f5495f7	0.8304133
14	0xbea266f8	-0.31719184
15	0x3e8f486d	0.27984944
16	0x3dcc3391	0.09970773
17	0x3ec64be0	0.38729763
18	0x3df2ecde	0.11861585
19	0x3dc8d9b9	0.09807152
20	0xbef63274	-0.48085368
21	0xbe7ac4e4	-0.2448917
22	0x3f578325	0.84184486
23	0x3c3cc8b4	0.011522461
24	0xbe21f791	-0.15817095
25	0xbdb5eeab	-0.08883413
26	0xbe543382	-0.20722774
27	0xbca1e3f5	-0.019762019
28	0xbdf11b93	-0.117728375
29	0xbece1166	-0.4024765
30	0x3e8459a9	0.25849655
31	0x3ee1834f	0.44045493
32	0xbe641f66	-0.22277603
33	0x3f0ea62e	0.5572232
34	0xbef9d6e4	-0.4879676
35	0xbe8b63b3	-0.27224502
36	0x3e90472e	0.28179306
37	0x3e9fb9a3	0.31196317
38	0x3d6fda60	0.058557868
39	0xbe44e1b6	-0.19226727
40	0x3f3e6445	0.7437175
41	0xbea4e186	-0.3220331
42	0xbd91bb2c	-0.07115778
43	0x3f4f06fd	0.8087004
44	0xbe5bb801	-0.2145691
45	0x3f8c4acb	1.0960325
46	0xbeaaf616	-0.33390874
47	0x3e52a1fd	0.20569606
48	0xbe874f48	-0.26427674
49	0xbd635a22	-0.05550588
50	0x3f29901d	0.66235524
51	0xbe2155a8	-0.15755332
52	0xbece1c56	-0.40255994
53	0x3ed6d0b5	0.41956106
54	0xbe88992e	-0.26679367
55	0xbeae428b	-0.34035143
56	0xbe0e0512	-0.13869122
57	0x3e86805a	0.262698
58	0x3f5aff88	0.8554616
59	0xbe817771	-0.2528644
60	0x3eb95826	0.36200064
61	0x3dc8ecbd	0.09810779
62	0xbefdf1ed	-0.49598637
63	0x3ef6a193	0.48170146
64	0xbe63505e	-0.22198626
65	0x3ddbe16d	0.10736356
66	0x3d76e927	0.060280945
67	0xbe9059c6	-0.28193492
68	0xbe585beb	-0.21128814
69	0x3eb85576	0.36002702
70	0xbeb9dad9	-0.3629978
71	0xbe5ff38e	-0.21870252
72	0xbf51f453	-0.82013434
73	0x3e277654	0.16353732
74	0xbe6cad42	-0.23112968
75	0xbf0b7816	-0.5448011
76	0x3f178f6c	0.5920322
77	0xbc9c0342	-0.019044522
78	0x3d98ffc6	0.0747066
79	0x3d4b3802	0.04961396
80	0xbdf33e6d	-0.11877141
81	0x3ec75393	0.3893095
82	0x3cda9860	0.026683986
83	0x3ee9b097	0.4564254
84	0xbe125618	-0.14290655
85	0xbdffd04f	-0.124909036
86	0xbf1fb750	-0.6238909
87	0x3e7721c4	0.24133974
88	0x3ed92726	0.4241268
89	0xbdf45c99	-0.11931724
90	0xbe73e51c	-0.23817867
91	0xbef61eea	-0.4807046
92	0xbe8a230f	-0.26979873
93	0x3e972227	0.29518244
94	0x3f014b56	0.5050558
95	0xbeb8d3e4	-0.3609916
96	0xbd83246b	-0.064034306
97	0x3dda0e9f	0.1064732
98	0x3ddc0270	0.107426524
99	0xbe86cb1e	-0.2632684
100	0x3f34ca3c	0.70621085
101	0x3d21f027	0.039535668
102	0xbdd34c8f	-0.10317337
103	0x3eda140e	0.42593426
104	0x3e86a4c9	0.26297596
105	0xbe515450	-0.20442319
106	0x3f422f0c	0.7585304
107	0xbbd35583	-0.006449403
108	0xbeecee4e	-0.46275562
109	0xbe640cc9	-0.22270502
110	0x3e2f9b99	0.171492
111	0x3ef476a9	0.4774678
112	0x3e2f6d94	0.17131644
113	0xbebcbd62	-0.36863238
114	0xbd3a5d1f	-0.045498963
115	0x3d1f4185	0.038880844
116	0x3e653af3	0.22385769
117	0xbe2ad591	-0.16683032
118	0xbf134103	-0.57521075
119	0xbf7e6619	-0.9937454
120	0x3eb4dd26	0.35324973
121	0xbebb2c07	-0.36557028
122	0x3d9f2511	0.07770742
123	0xbef569d8	-0.47932315
124	0x3ea04694	0.31303847
125	0x3ee188d5	0.44049707
126	0x3f333303	0.6999971
127	0xbe3b7356	-0.18305716
128	0x3e0c7e23	0.13719992
129	0x3cb2d141	0.021828296
130	0x3ea59958	0.32343554
131	0xbe5a1d25	-0.2130018
132	0xbd2c48d2	-0.042061634
133	0x3f1e14b6	0.6175035
134	0x3c428922	0.011873515
135	0xbe18b4c6	-0.1491271
136	0xbeea01bc	-0.45704448
137	0x3efc82f9	0.49318674
138	0x3e9c1197	0.3048217
139	0x3ef89e69	0.48558357
140	0xbecb1ca7	-0.39670298
141	0xbc9c3fb2	-0.019073341
142	0xbf07c300	-0.5303192
143	0x3f090ca4	0.53534913
144	0xbddaff94	-0.10693279
145	0x3e3741f9	0.1789626
146	0xbf2738dc	-0.65321136
147	0xbf075ccd	-0.5287598
148	0xbd3c5a65	-0.045984644
149	0x3f1d835c	0.61528563
150	0xbe5040a1	-0.20337154
151	0x3cde61a6	0.027146172
152	0xbdf28b1e	-0.11842941
153	0xbf36478e	-0.71202934
154	0x3ec72f30	0.3890319
155	0xbe86d8ee	-0.2633738
156	0x3d09bd6c	0.033627912
157	0xbc5b19aa	-0.013372818
158	0x3e3572e0	0.17719603
159	0xbebadc26	-0.36496085
160	0x3ec2e5ef	0.3806605
161	0xbb2ca174	-0.002634135
162	0x3e4140e1	0.18872406
163	0xbe0bda99	-0.13657607
164	0xbe73e1ac	-0.23816556
165	0x3ebadc6c	0.36496294
166	0x3e901fa9	0.28149155
167	0xbd443290	-0.047899783
168	0xbe89c87c	-0.2691077
169	0xbf05c688	-0.5225606
170	0x3e8f718c	0.28016317
171	0x3e0136a8	0.12618506
172	0xbe02d8ef	-0.12778066
173	0xbd6df6fc	-0.05809687
174	0x3e5c106d	0.21490641
175	0xbde67056	-0.11251895
176	0x3ed60b11	0.41805318
177	0xbf259797	-0.6468443
178	0xbec56518	-0.3855369
179	0xbe9a226c	-0.30104387
180	0xbdb2f4fd	-0.08738134
181	0x3f2125fd	0.6294859
182	0x3c690f49	0.014224836
183	0x3e9fead4	0.31233847
184	0x3ecd79ed	0.40132084
185	0x3ead8a38	0.33894515
186	0xbdb000e6	-0.08593921
187	0xbe72d2bb	-0.237132
188	0x3e8e1f05	0.2775804
189	0x3efbbf2d	0.49169293
190	0x3e2c6c6a	0.16838232
191	0xbf3725a1	-0.7154179
192	0xbe26bbaf	-0.16282533
193	0x3e86f3df	0.26357934
194	0x3f01433f	0.50493234
195	0xbe0f5472	-0.13997057
196	0x3e1a9d4b	0.15099065
197	0xbf468b4b	-0.77556294
198	0x3d04b6a9	0.03240076
199	0x3e653eba	0.2238721
200	0x3e0ad94b	0.13559453
201	0x3f6dcc0e	0.9288949
202	0x3e9ab108	0.3021319
203	0x3eab95ed	0.33512822
204	0x3e72d270	0.23713088
205	0x3e61bb8e	0.22044203
206	0x3df0aebf	0.1175208
207	0xbf01d1a6	-0.50710523
208	0xbe337f03	-0.1752892
209	0xbda0fbae	-0.07860504
210	0x3e76b1be	0.24091241
211	0x3ccab914	0.024746455
212	0xbe8acf1b	-0.27111134
213	0xbedd467b	-0.43217835
214	0x3f8a290d	1.0793778
215	0x3ec39f98	0.38207698
216	0xbf462af0	-0.7740927
217	0xbeaa2006	-0.33227557
218	0xbf62fd35	-0.88667613
219	0xbe91d369	-0.28481606
220	0x3e9d5142	0.30726057
221	0x3d174e61	0.036939982
222	0xbe4ba687	-0.19887744
223	0x3eecc4b6	0.4624383
224	0xbd0f33b1	-0.034961406
225	0x3d564225	0.052309174
226	0x3d013052	0.031540222
227	0xbda58a3d	-0.080830075
228	0xbe6eaca6	-0.23308048
229	0xbe73b9b8	-0.23801315
230	0x3f815afd	1.0105892
231	0xbebba169	-0.36646584
232	0x3dcf1ac2	0.101125255
233	0xbf2a4c94	-0.665231
234	0x3e94d541	0.2906895
235	0x3ef4031a	0.47658616
236	0x3e0b4b39	0.13602914
237	0xbe8b9405	-0.27261367
238	0xbe822705	-0.25420395
239	0x3f47a143	0.7798044
240	0xbf186682	-0.59531415
241	0xbf303714	-0.6883404
242	0x3ed0601b	0.40698323
243	0xbeee4496	-0.46536702
244	0x3efad72c	0.48992288
245	0x3e1a2694	0.15053779
246	0x3e6acb63	0.22929148
247	0x3cbee8c7	0.023304356
248	0x3f140466	0.5781921
249	0xbf4479ad	-0.7674816
250	0xbef882f9	-0.48537424
251	0x3e881827	0.26580927
252	0x3e7dde11	0.24791743
253	0xbea751d4	-0.32679617
254	0x3cd3a9dc	0.025837831
255	0x3e158fa3	0.14605574

network_body.linear_encoder.seq_layers.0.bias f4 [128]
0	0xbb704993	-0.0036664947
1	0x3af8be9f	0.0018977708
2	0x3b95e889	0.0045748395
3	0x3ae440b8	0.0017414307
4	0x3adbde16	0.0016774561
5	0x3bbb6770	0.005719118
6	0x397fef52	0.00024407849
7	0x398a9f10	0.00026439922
8	0xbb432968	-0.0029779319
9	0x3b6305b3	0.0034640848
10	0xbb80e6ab	-0.0039337478
11	0x3afa0094	0.0019073659
12	0xbae5c816	-0.0017530944
13	0xb9cdecbc	-0.00039277028
14	0x3b7a32e1	0.00381773
15	0x3b89f61b	0.0042102463
16	0x3a8d1cd0	0.0010766033
17	0x3ae99640	0.0017821267
18	0x3a28acc3	0.0006434435
19	0x3b662d14	0.0035122084
20	0xba54e1ae	-0.0008120787
21	0x3a449077	0.00074983336
22	0xba0bc0d9	-0.0005331166
23	0xbb618bd8	-0.0034415629
24	0xbb865281	-0.0040991907
25	0x393c6802	0.00017967823
26	0x3a361e5d	0.00069472735
27	0x3a829c25	0.0009964748
28	0x3b426205	0.0029660475
29	0x3a82db25	0.0009983523
30	0x386fb4aa	5.7150297e-05
31	0x39ca5f06	0.0003859924
32	0x3bf1f657	0.0073841023
33	0xbb0fc227	-0.0021935792
34	0x3aabee70	0.0013117325
35	0x3a346ad0	0.00068823714
36	0xbb081c05	-0.0020768654
37	0x3ab9eebf	0.0014185532
38	0xbbdbd96b	-0.006709268
39	0xbb830d66	-0.0039994
40	0x3b9dd0b7	0.0048161405
41	0x3b328eb1	0.0027245695
42	0xbb4d1f1d	-0.0031299063
43	0xba18facd	-0.0005835712
44	0xbb4288d0	-0.0029683597
45	0x3b53cf31	0.003231954
46	0xbb30af49	-0.0026959947
47	0x3bd256a5	0.0064190202
48	0x3ba4ef94	0.0050334428
49	0x39b1aa81	0.00033887106
50	0xbb8bd0a4	-0.0042668153
51	0xbb55e086	-0.0032635047
52	0x3b70b991	0.00367317
53	0x3a70e0a1	0.0009188746
54	0xb8d7a943	-0.00010283526
55	0x3a934bf8	0.001123785
56	0xb8e18906	-0.00010754359
57	0xba9c831f	-0.0011940933
58	0x3abc56e3	0.0014369156
59	0x3bd8db78	0.0066179596
60	0x3af2f889	0.0018537204
61	0xbb5000d7	-0.0031738782
62	0xbabc8cc7	-0.0014385217
63	0x3a7eb511	0.0009716312
64	0x3abf69a2	0.0014603625
65	0x3ae51553	0.0017477669
66	0xbb03af7e	-0.0020093615
67	0x3b71677f	0.003683537
68	0xba484a19	-0.0007640436
69	0x3a9544f0	0.0011388343
70	0x3b0d57b4	0.0021567168
71	0x3b945d03	0.0045276894
72	0xbbb97961	-0.0056602214
73	0xbb9bc3ec	-0.0047535803
74	0x3afa69f5	0.0019105064
75	0x3a9e3b30	0.0012072083
76	0xbbd7bd44	-0.0065838415
77	0x3beea057	0.0072822976
78	0xbae75dba	-0.0017651834
79	0x3b0066cd	0.0019592524
80	0xbb9027f5	-0.0043992945
81	0xbb16bc76	-0.0023000515
82	0xbbb9e9c9	-0.0056736213
83	0xba9f7f68	-0.0012168707
84	0x3b3085bf	0.0026935188
85	0x39cc3fed	0.0003895754
86	0x3a71582b	0.00092065585
87	0xbb633ac7	-0.0034672485
88	0xb76ee560	-1.4239311e-05
89	0x3a44bb39	0.0007504705
90	0xbba3bd54	-0.004996935
91	0x3b21e670	0.0024704002
92	0x38bcd64e	9.004456e-05
93	0xba987ab9	-0.0011633254
94	0xbba37010	-0.004987724
95	0xbbcab981	-0.0061866646
96	0x3ab1518c	0.0013528331
97	0xbb3a765b	-0.0028451893
98	0xbb6e21b7	-0.0036336014
99	0x39fde21a	0.0004842438
100	0xbab19458	-0.0013548238
101	0x3a35ff14	0.00069426117
102	0xba9abdc4	-0.0011805822
103	0x39e5da92	0.0004384113
104	0x3b0fa531	0.002191853
105	0xbb6e21a2	-0.0036335965
106	0xbbd9de71	-0.0066488315
107	0x3b87158d	0.004122442
108	0xbb4e56a2	-0.0031484743
109	0xbb25aa62	-0.0025278558
110	0xbaf3f67c	-0.0018612887
111	0xbaa5b9ae	-0.0012643838
112	0xba6e5b8b	-0.00090926205
113	0xba5c4656	-0.0008402815
114	0x3b803b18	0.0039132945
115	0x3a9a729a	0.0011783422
116	0x3b6beee0	0.0036000535
117	0x398f49c5	0.00027330048
118	0xbb706df8	-0.003668664
119	0x39ff0faf	0.00048649075
120	0x3bb46c60	0.0055060834
121	0x3bfd6b64	0.007733749
122	0xb7dc3898	-2.6252397e-05
123	0xbb199fc7	-0.0023441182
124	0x3ba8b128	0.005148072
125	0x3901b5c2	0.00012370109
126	0xbae4aee9	-0.0017447147
127	0x3b6998e6	0.0035644113

network_body.linear_encoder.seq_layers.2.weight f4 [128, 128]
0	0x3da7138f	0.081580274
1	0x3e1e8b22	0.15482762
2	0xbcf9ce3e	-0.030493852
3	0x3d375c4a	0.044765748
4	0x3ced7b0d	0.02898934
5	0xbdcf14a1	-0.101113565
6	0xbe095972	-0.13413027
7	0x3c3644f7	0.011124841
8	0x3deccd31	0.11562575
9	0x3dcf02ac	0.101079315
10	0xbde35ec9	-0.11102063
11	0xbe04e8d2	-0.12979439
12	0xbc9085f3	-0.017641997
13	0xbd4dc405	-0.050235767
14	0x3b682641	0.0035423192
15	0xbd214a11	-0.039377276
16	0x3d9299ad	0.071582176
17	0x3dce74f2	0.10080899
18	0xbc2bb47e	-0.010480044
19	0xbc0598d5	-0.008154114
20	0x3d863084	0.06552222
21	0xbe34e60e	-0.17665884
22	0x3c93c902	0.018040184
23	0xbcf7c695	-0.030246058
24	0x3e1c6e88	0.1527654
25	0xbcbafc51	-0.022825392
26	0x3d21d017	0.03950509
27	0x3dbf930e	0.0935422
28	0xbd2764ba	-0.040867545
29	0xbccc0dc5	-0.02490891
30	0x3ce92113	0.028458154
31	0x3ddecd9d	0.10879061
32	0x3dbdb46d	0.09262929
33	0xbd439e1d	-0.04775821
34	0x3db22ed4	0.08700338
35	0x3e1c17ef	0.15243505
36	0xbd3cdffa	-0.04611204
37	0x3bcf5ee9	0.006328453
38	0x3d65a6e1	0.05606735
39	0x3d93ac3b	0.07210585
40	0xbd29ddf0	-0.04147142
41	0x3d60e706	0.05490782
42	0xbd4e7323	-0.05040277
43	0x3dc1cf15	0.09463326
44	0x3db389cf	0.08766519
45	0xbbe40ca7	-0.006959516
46	0xbd54c80f	-0.051948603
47	0xbc6f6f10	-0.014613882
48	0x3acb988d	0.0015533135
49	0xbdd6b3ce	-0.10483514
50	0xbde7797a	-0.11302467
51	0xbd4af548	-0.049550325
52	0x3e19433f	0.14967059
53	0x3decf49c	0.11570093
54	0xbbc7473e	-0.006081491
55	0x3e2d9cc1	0.16954328
56	0x3e1e8ee0	0.1548419
57	0xbe2b66ed	-0.16738482
58	0x3d217f5f	0.03942811
59	0x3e1d3a6a	0.15354314
60	0xbd9b1b81	-0.07573605
61	0x3bb41966	0.005496192
62	0xbe084402	-0.13307193
63	0x3d5553fc	0.052082047
64	0x3e0e48cf	0.13894962
65	0xbce0d6f1	-0.027446242
66	0xbd140067	-0.036133196
67	0xbe0517a1	-0.12997295
68	0x3e4fce51	0.20293547
69	0x3d63d549	0.055623326
70	0xbe12c404	-0.14332587
71	0xbd8f5966	-0.06999473
72	0xbe0fa3d6	-0.14027342
73	0x3db4b637	0.08823817
74	0xbbd68927	-0.0065471116
75	0xbd402fa3	-0.04692043
76	0xbd4cbe1c	-0.04998599
77	0x3cc9bd94	0.02462653
78	0xbdbc6f4e	-0.09200917
79	0xbcf0a92b	-0.02937754
80	0x3b29baa9	0.0025898612
81	0x3ddc9c07	0.10771947
82	0xbbd7f744	-0.0065907557
83	0x3d4662f2	0.048434205
84	0x3e349d5b	0.17638151
85	0x3d88de2b	0.06683
86	0xbe050cfc	-0.12993234
87	0xbd59d4d0	-0.05318147
88	0xbde24436	-0.110481665
89	0xbbe78bac	-0.0070662107
90	0x3c9d1af7	0.019177897
91	0xbb6cfff4	-0.0036163302
92	0xbd591bfc	-0.053005204
93	0xbdde5d2d	-0.108576156
94	0x3dbc30f0	0.091890216
95	0x3e0f2ff4	0.13983136
96	0x3d3ea71e	0.046546094
97	0xbe06d620	-0.1316762
98	0xbd0679b7	-0.03283092
99	0x3d62dd63	0.055386912
100	0xbca36ea2	-0.019950215
101	0xbd8597ba	-0.0652308
102	0xbb800d0e	-0.0039078062
103	0x3b9ce1d1	0.0047876616
104	0xbd6bf31a	-0.057604887
105	0x3c721bd2	0.014777141
106	0x3d49ef06	0.049300216
107	0x3c98e927	0.018665863
108	0xbdd57cf2	-0.10424222
109	0x3e01d581	0.12679102
110	0xbcca9256	-0.024727982
111	0xbcf9092a	-0.030399878
112	0xbcfc82e0	-0.030824125
113	0xbb7a9dfb	-0.0038241136
114	0x3dcca6e7	0.099927716
115	0xbdccb5aa	-0.09995587
116	0x3cac9ef7	0.021071894
117	0xbd9f3d38	-0.077753484
118	0x3c7c484b	0.015398095
119	0x3d23b834	0.03997059
120	0xbb2bc69d	-0.0026210912
121	0x3c837c51	0.01605049
122	0xbc7be9a4	-0.0153755285
123	0xbdf35b06	-0.11882596
124	0x3cf8d204	0.03037358
125	0x3d9b6ce4	0.075891286
126	0xbcba67f5	-0.022754649
127	0xbd6a171a	-0.057150938
128	0x3c4df9f0	0.012571797
129	0x3df11ac3	0.117726825
130	0x3daefa1b	0.085437976
131	0x3c40c301	0.011765243
132	0xbdbba0eb	-0.09161552
133	0xbccfee05	-0.025382051
134	0x3da6bd73	0.08141603
135	0x3e00609c	0.12536854
136	0xbcb192e1	-0.021676483
137	0x3d911d91	0.070857175
138	0x3d035f45	0.032073278
139	0x3c1b8f7f	0.009494661
140	0x3be4a8ed	0.0069781453
141	0xbdce1258	-0.100620925
142	0x3e1098e4	0.14120823
143	0xbdbba6bf	-0.09162664
144	0xbd2f9b4c	-0.042872712
145	0x3dfe5357	0.124182396
146	0xbcc39e93	-0.023879325
147	0x3d45da81	0.048304085
148	0x3d87e545	0.066355266
149	0xbe062521	-0.13100101
150	0x3d1df7c1	0.038566355
151	0xbc1832be	-0.009289442
152	0xbd5ff269	-0.05467454
153	0xbce6f4a8	-0.028192833
154	0xbd1464f6	-0.036229096
155	0xbd6abfc1	-0.057311777
156	0x3e0c1c48	0.13682663
157	0xbc5aa2e3	-0.013344499
158	0x3dd803e9	0.10547621
159	0x3cb6f3b4	0.022333004
160	0xbd6b31df	-0.057420608
161	0xbd3c8516	-0.04602536
162	0x3cb01806	0.02149583
163	0xbd6a387d	-0.057182778
164	0x3d298728	0.04138866
165	0xbdb2eebb	-0.087369405
166	0xbdc07924	-0.09398106
167	0xbe532407	-0.20619212
168	0xbd607c6d	-0.05480616
169	0xbcc88ad6	-0.024480265
170	0xbcc3e309	-0.02391197
171	0x3e1aad26	0.15105113
172	0x3d2e8dec	0.042615816
173	0x3da144b0	0.07874429
174	0x3bb7e7c4	0.0056123454
175	0xbd113c17	-0.035457697
176	0xbd8e5dd5	-0.06951491
177	0x3d9326b2	0.07185115
178	0xbe58984a	-0.21151844
179	0xbd0f4d8c	-0.034986064
180	0x3e2b308e	0.16717741
181	0x3cebf19f	0.028801737
182	0xbdaaf661	-0.08347774
183	0xbd776810	-0.060401976
184	0xbe0da26e	-0.13831493
185	0x3db7fbaf	0.08983552
186	0xbdbfc219	-0.09363193
187	0xbd181061	-0.037124995
188	0xbe15157d	-0.14558978
189	0x3dc849dc	0.097797126
190	0xbccc2345	-0.024919162
191	0xbc39098b	-0.011293779
192	0x3d53708a	0.051620997
193	0x3d7c1134	0.061539844
194	0x3dd5a152	0.1043116
195	0xbd9a85e6	-0.0754507
196	0x3da049d9	0.07826585
197	0xbd6df2bf	-0.05809283
198	0xbd5ed545	-0.05440261
199	0x3e02e0b6	0.12781033
200	0xbdc81d25	-0.09771184
201	0x3cab9aa7	0.020947767
202	0xbe05e8c0	-0.13077068
203	0xbe43da3d	-0.1912622
204	0xbe057961	-0.13034584
205	0xbc33f974	-0.010984767
206	0xbd995d56	-0.074885055
207	0x3c9d5d71	0.019209595
208	0xbdba8934	-0.09108201
209	0x3da9f555	0.082987465
210	0xbd1effc9	-0.038818154
211	0x3d596601	0.053075794
212	0xbaec862c	-0.0018045357
213	0x3d614a4d	0.0550025
214	0x3d400d3f	0.046887632
215	0x3e0fb547	0.14033996
216	0xbdecb20e	-0.11557399
217	0xbd5fbd2f	-0.05462378
218	0x3d468320	0.048464894
219	0x3dd7bef0	0.10534465
220	0xbd892416	-0.06696336
221	0xbd35592e	-0.0442745
222	0x3e2103ed	0.15724154
223	0xbd4cea22	-0.050027974
224	0x3c7fa5ad	0.015603465
225	0xbdc295f4	-0.095012575
226	0x3c2a158f	0.0103811165
227	0xbe21e50a	-0.15810028
228	0xbd2e63b5	-0.042575557
229	0x3d326cb5	0.043560702
230	0x3cb007db	0.02148812
231	0x3dad51a6	0.08462839
232	0xbe192510	-0.14955544
233	0xbcab2689	-0.020892398
234	0x3e0cc6c0	0.13747692
235	0xbe2e86c4	-0.17043597
236	0xbda24e12	-0.07925047
237	0x3dc522b8	0.09625763
238	0x3dda4eef	0.10659587
239	0xbc9c5cb9	-0.019087182
240	0x3d7ec43e	0.06219887
241	0x3e226884	0.15860182
242	0xbcea2c5a	-0.028585602
243	0x3be2e878	0.006924685
244	0xbddffe74	-0.10937205
245	0x3e470e64	0.19439083
246	0xbd8a1ada	-0.06743403
247	0x3d4b65b0	0.049657524
248	0x3ddd589e	0.10807918
249	0xbda96798	-0.08271712
250	0x3c8d1f86	0.017226946
251	0xbcb6baaf	-0.022305815
252	0xbb401bb3	-0.0029313385
253	0x3e3eb0ac	0.18622082
254	0x3bccd996	0.006251524
255	0xbc6f6a1d	-0.014612702

network_body.linear_encoder.seq_layers.2.bias f4 [128]
0	0x3a5ff351	0.0008543032
1	0xbb5b7f63	-0.0033492676
2	0xbb347b47	-0.00275393
3	0x3be791b0	0.007066928
4	0x3ba9f796	0.0051869852
5	0xb9b0893f	-0.00033671592
6	0xba8fd0dc	-0.0010972279
7	0x3b003150	0.0019560643
8	0xba989d1c	-0.0011643502
9	0xbafcce53	-0.0019287564
10	0x3ba37e3f	0.004989415
11	0xb993466e	-0.000280905
12	0x3bd57d9f	0.0065152193
13	0x3ba8a080	0.005146086
14	0x3a8390bb	0.001003764
15	0x3a8234da	0.0009933964
16	0xb9bb4055	-0.0003571535
17	0xb971aa42	-0.00023046977
18	0xbb0ff5c0	-0.0021966547
19	0xbae3eabf	-0.0017388685
20	0x3ae2bfa3	0.0017299544
21	0xb8c22614	-9.2577335e-05
22	0xbbaa4db4	-0.005197251
23	0x3ae01b3b	0.0017097959
24	0x3a83ca42	0.0010054784
25	0xbb15e591	-0.0022872428
26	0xbb8321ba	-0.0040018233
27	0x3abf0521	0.0014573672
28	0x3962c286	0.00021625505
29	0xba43a763	-0.0007463602
30	0xbad23600	-0.0016037822
31	0x3bb37a64	0.0054772366
32	0x387abded	5.9781527e-05
33	0x3b9f7298	0.0048659556
34	0x3ab7835a	0.0014000938
35	0xbaa8eb22	-0.0012887458
36	0x3aaee641	0.0013343767
37	0xba9bbd73	-0.0011882022
38	0x3a3544c4	0.0006914849
39	0xba9615e6	-0.0011450618
40	0x39580aa9	0.00020603336
41	0xbaac4104	-0.0013141935
42	0xbaafc707	-0.0013410755
43	0x3aa0133c	0.0012212764
44	0x3a5abf02	0.00083445024
45	0x39f3c0e1	0.00046492278
46	0x39c952c2	0.00038399367
47	0xbb086e2e	-0.0020817625
48	0x3b3ff73f	0.0029291657
49	0x3bc1a6ef	0.0059097926
50	0x39d44e86	0.00040494296
51	0xb9c5d987	-0.0003773684
52	0x3a84507e	0.0010094789
53	0x3ba05a5d	0.0048935846
54	0xbb9e4b68	-0.0048307665
55	0xbbc5bc99	-0.0060344455
56	0x3a2ed40a	0.00066691695
57	0x3be0a251	0.006855287
58	0xbae0847b	-0.0017129326
59	0x3939f0dd	0.00017732703
60	0xba5d212c	-0.0008435424
61	0x3a4c3372	0.00077896484
62	0xbb5d9852	-0.0033812714
63	0xba651db2	-0.00087400817
64	0xbb072cf7	-0.0020626166
65	0xba60dae1	-0.00085775374
66	0x3abf6ebb	0.0014605144
67	0x393b452f	0.00017859483
68	0x3b37f738	0.0028070938
69	0x3a31d456	0.00067836547
70	0xba09fc0f	-0.0005263695
71	0xbae71183	-0.001762912
72	0xbb50d07d	-0.003186255
73	0x3a77f714	0.000945912
74	0xbb51fa59	-0.0032040088
75	0x3ac87d0a	0.0015296054
76	0x3b61f3c6	0.0034477576
77	0xbaafa97a	-0.0013401948
78	0x3aa0d591	0.0012270679
79	0x3ad45aca	0.0016201374
80	0xb8b08dea	-8.4187675e-05
81	0xba701b36	-0.0009159328
82	0x3a24db81	0.0006288812
83	0xbae484fe	-0.0017434654
84	0xbac4f394	-0.0015026205
85	0x3be57777	0.0070027667
86	0xb81b4cc0	-3.702636e-05
87	0xba3a7782	-0.0007113145
88	0x3a560e2f	0.00081655657
89	0xba965378	-0.0011468967
90	0x381ebd20	3.7846272e-05
91	0xba5c6c47	-0.00084084686
92	0x3a925fa0	0.0011167414
93	0xba20a821	-0.0006128569
94	0xbb0e3557	-0.0021699273
95	0x3b88d5dc	0.0041758846
96	0x3a8120a9	0.0009851652
97	0x3a4989d9	0.00076880824
98	0xba639bb5	-0.0008682565
99	0xb9f7e460	-0.00047281664
100	0xbbd70c94	-0.0065627787
101	0xba8abf53	-0.0010585584
102	0x39fc85d7	0.00048164904
103	0x3b2294bb	0.0024807889
104	0x3a2c878f	0.0006581479
105	0xbab121f4	-0.0013514147
106	0x3a8936dd	0.0010468621
107	0xbabd0c6a	-0.0014423255
108	0x3bc6e222	0.0060694376
109	0xbaa8de1e	-0.0012883579
110	0x3a0a85ce	0.00052842207
111	0xb652aca0	-3.139292e-06
112	0xbbb56169	-0.005535294
113	0xba6b450e	-0.00089748285
114	0x3b0a8b9c	0.0021140343
115	0x3abf259d	0.0014583353
116	0xba701425	-0.0009158275
117	0x3aa9c59a	0.0012952567
118	0xbb41c6a3	-0.002956786
119	0x3aa3d07f	0.001249805
120	0xba80c123	-0.0009823184
121	0xba8b5b7f	-0.0010632126
122	0xbbf1f1dc	-0.007383568
123	0x3bf4eed5	0.00747476
124	0xbbc5e2ad	-0.0060389847
125	0xba92af2f	-0.0011191125
126	0x3a94d68e	0.0011355446
127	0xb9fb8524	-0.00047973648

action_model._continuous_distribution.log_sigma f4 [1, 2]
0	0x3b828a10	0.0039837435
1	0xbba412d3	-0.005007127

action_model._continuous_distribution.mu.weight f4 [2, 128]
0	0xbcb70779	-0.02234243
1	0x3c89e0e9	0.016830878
2	0xbbeb2ef6	-0.007177229
3	0x3b44ebae	0.0030047703
4	0x3d0ea31d	0.034823526
5	0x3bea3dca	0.007148479
6	0xbb8b7930	-0.00425639
7	0x3c832a4e	0.016011383
8	0x3caf0682	0.021365408
9	0x3cca4fc9	0.024696248
10	0xbb0c586a	-0.0021415004
11	0x3c69ad15	0.014262457
12	0xbcb69d88	-0.022291914
13	0xbb8ac875	-0.004235322
14	0x3c898fea	0.016792256
15	0xbd1a9505	-0.037739772
16	0x3c6e4cc7	0.014544672
17	0xbc29336a	-0.0103271995
18	0x3c224480	0.009904027
19	0x3aa546b3	0.0012609571
20	0xbcbc1c06	-0.022962581
21	0xbc6e5ee5	-0.014548992
22	0xbb04cd86	-0.0020264103
23	0xbbd510ff	-0.0065022702
24	0xbc661bd3	-0.01404472
25	0xbb46c2b6	-0.003032846
26	0xbcb09e79	-0.02155994
27	0xbc16b7a4	-0.009199057
28	0x3bde5719	0.006785285
29	0x3cb1b715	0.021693746
30	0xbb93577c	-0.004496513
31	0xbd0e2ad8	-0.034708828
32	0xbbb00b56	-0.005372445
33	0x3b3afc10	0.0028531589
34	0x3cc6fbd2	0.02429
35	0xbc7133c4	-0.014721815
36	0x3cd379f1	0.025814982
37	0xbb66ef38	-0.00352378
38	0xbbed5662	-0.0072429636
39	0x3c9ca588	0.0191219
40	0x3c03b53b	0.008038814
41	0x3c9098ab	0.017650923
42	0x3b2d738e	0.002646658
43	0xbcce90f1	-0.025215598
44	0xbceade94	-0.028670587
45	0xbba1550c	-0.0049234685
46	0xbc10d7a1	-0.008840472
47	0x3cbea991	0.023274215
48	0xbce20a0e	-0.027592685
49	0xbca6f80e	-0.020381954
50	0xbb87d7b6	-0.004145588
51	0xbbc140ee	-0.005897633
52	0xbb33aa6d	-0.0027414814
53	0xbc65dbbf	-0.014029442
54	0x3c9048fc	0.017612927
55	0xbc98517b	-0.01859354
56	0xbc29a8cb	-0.010355185
57	0xbcc9adc4	-0.02461899
58	0xbafb9bde	-0.0019196232
59	0xbca9130d	-0.020638967
60	0x3c343987	0.011000044
61	0xbd00758b	-0.031362098
62	0x3d0ac23f	0.033876654
63	0x3ba348cc	0.0049830433
64	0xbbbe3c92	-0.0058055604
65	0x3ce030eb	0.027367076
66	0x3b02942a	0.0019924738
67	0xbb1ca6a5	-0.0023903039
68	0x3bac7c3a	0.0052638324
69	0xbc943447	-0.018091334
70	0xbcfccaaf	-0.030858366
71	0xbabcb8ef	-0.0014398376
72	0xbc1a4696	-0.009416243
73	0x3cb13ad6	0.0216345
74	0x3c940615	0.018069306
75	0x3cd9b88c	0.026577257
76	0xbc434517	-0.011918328
77	0xbbb4e15f	-0.0055200304
78	0x3c05f9b0	0.008177206
79	0xbc603e67	-0.013686753
80	0xbbf9a345	-0.00761834
81	0x3c3f8319	0.011688971
82	0x3b68bc80	0.0035512745
83	0x3c7929c9	0.015207716
84	0x3c70b17b	0.014690752
85	0xbc8696be	-0.016429301
86	0xbbde8c00	-0.0067915916
87	0x3c66ae52	0.014079647
88	0xba8c84d3	-0.0010720737
89	0x3c87ce8c	0.016577981
90	0xbc28d287	-0.0103041
91	0x3c0c4a47	0.008562631
92	0x3ceb9072	0.0287554
93	0x3c82b6b7	0.015956266
94	0x3ba0eccd	0.0049110414
95	0xbcc03680	-0.023463488
96	0xbc0f0b46	-0.008730715
97	0xbccc9158	-0.024971649
98	0x3d126c2d	0.035747696
99	0x3bb2be66	0.005454826
100	0x3663e740	3.396024e-06
101	0x3ab8182a	0.0014045287
102	0xbc62876c	-0.013826232
103	0x3b4de96b	0.0031419646
104	0x3bd9228a	0.006626432
105	0x3bcda6c8	0.0062759854
106	0xbc0573e9	-0.008145311
107	0xbb55ecd4	-0.0032642381
108	0x3ce9225d	0.028458769
109	0xbb33c830	-0.0027432553
110	0xbcb0d14e	-0.02158418
111	0x3ce2d290	0.027688295
112	0xbc6038cf	-0.013685419
113	0x3b93aff9	0.0045070616
114	0xbd2b0e4c	-0.04176168
115	0xbd412ea6	-0.047163628
116	0x3c143e49	0.009048053
117	0xbc3dfb75	-0.011595597
118	0x3ca1b731	0.019740673
119	0xbccf114d	-0.025276804
120	0x3d09575b	0.033530574
121	0x3cecafb4	0.028892376
122	0xbbb2b33a	-0.0054534944
123	0x3bab45d2	0.005226829
124	0xbabfb8c9	-0.0014627214
125	0xbc852ee0	-0.016257703
126	0x3c281348	0.010258503
127	0x3cc4f582	0.024042848
128	0xbd1e9e25	-0.038725037
129	0x3b4d0f8c	0.0031289784
130	0x3c2a1bf7	0.010382644
131	0x3c05c16b	0.00816379
132	0xbbc72659	-0.0060775694
133	0x3bbdb65f	0.0057895626
134	0x3ce8ba06	0.028409015
135	0xbc809b24	-0.015698977
136	0x3bb4e75b	0.005520744
137	0x3c627984	0.013822917
138	0x3cdfc83c	0.027317159
139	0xbc69781d	-0.014249829
140	0x3c63157c	0.013860103
141	0x3cd0f2d7	0.02550642
142	0x3cbe50ab	0.023231825
143	0x3acecd27	0.0015777693
144	0x3b9e6c5a	0.004834694
145	0xbcf74e05	-0.03018857
146	0x398fd716	0.00027435337
147	0x3b9570ce	0.0045605665
148	0x39c94232	0.00038387027
149	0xbd2a115e	-0.04152047
150	0xbbfa0eeb	-0.007631173
151	0xbc91115e	-0.017708477
152	0x3a87cf18	0.0010361401
153	0x3ce02e11	0.027365716
154	0x3c6ed5b0	0.014577314
155	0x3bf787e0	0.0075540394
156	0xbc06b360	-0.008221477
157	0x3c505bdd	0.012717214
158	0x3baa2de8	0.0051934607
159	0xbb3a946a	-0.002846981
160	0xbc6748e4	-0.0141165
161	0x3c6b22ee	0.01435159
162	0xbc8c23b9	-0.017106878
163	0x3cbb0c45	0.022832999
164	0xbcefd980	-0.029278517
165	0x3d06ef9f	0.032943364
166	0xba717735	-0.00092111836
167	0x3d129f0c	0.03579621
168	0x3af36933	0.001857078
169	0x3c5297f3	0.01285361
170	0x3c9e566f	0.019328324
171	0x3b8670e7	0.0041028145
172	0x3b16f7ce	0.0023035887
173	0xbbcf7930	-0.0063315853
174	0x3aef77b3	0.0018269926
175	0xbc39c723	-0.011338982
176	0x3c9dd1e5	0.019265125
177	0x3cbe4bac	0.023229443
178	0xbc2122ba	-0.00983494
179	0x3c6f1602	0.014592649
180	0x3cccf779	0.025020348
181	0x3d26850a	0.04065422
182	0xbad9da7d	-0.0016620901
183	0xbc8f70c6	-0.01750983
184	0x3b62b484	0.003459246
185	0x3c70444b	0.01466472
186	0x3c2226e6	0.009896969
187	0xbba4778b	-0.0050191334
188	0x3b54a775	0.0032448445
189	0xb98b68fc	-0.00026590365
190	0xbce1a9dc	-0.027546816
191	0xbce97bcc	-0.028501414
192	0xbd157980	-0.036492825
193	0x3b1cd455	0.002393027
194	0x3cd1ad22	0.025595251
195	0xbbc96fc7	-0.006147358
196	0xbc0d79bc	-0.008634981
197	0xbcff6bdd	-0.031179363
198	0xbb93c140	-0.004509121
199	0x3ccbafcb	0.024864098
200	0x3c1d3b3f	0.009596645
201	0x3b917c58	0.0044398718
202	0xbcfd42fb	-0.030915728
203	0xbd47aa1c	-0.048746213
204	0x3a79643b	0.00095135317
205	0x3cbb3c1d	0.022855813
206	0xbc10c314	-0.008835573
207	0x3c1bf1d9	0.00951811
208	0xbc237183	-0.009975794
209	0x3d1000c7	0.03515699
210	0xbcdefb57	-0.027219458
211	0xbc33b490	-0.010968342
212	0x3c379d99	0.011207008
213	0x3c927773	0.017879223
214	0x39f6ad8a	0.00047050073
215	0x3c2e34d8	0.010632716
216	0x3ca9bcb7	0.020719869
217	0x3bf6f119	0.0075360653
218	0x3b306f3d	0.0026921772
219	0x3c252998	0.0100807175
220	0xbc4f9770	-0.012670383
221	0xbbccdfce	-0.0062522655
222	0x3ccbefcc	0.024894617
223	0x3b7d0def	0.0038613041
224	0xbc3fa95b	-0.011698092
225	0xbcd49c7a	-0.02595352
226	0x3cb2efc1	0.02184284
227	0xbb00e322	-0.0019666632
228	0xbbc51639	-0.006014612
229	0x3ccd7d1d	0.025084073
230	0xbd00a103	-0.031403553
231	0x3cff3c04	0.031156547
232	0x3d14104c	0.036148354
233	0x3abd4f29	0.0014443147
234	0xbd157b1e	-0.036494367
235	0xbccfcaef	-0.025365321
236	0x3cbc6e1f	0.023001729
237	0x3c00acf9	0.00785374
238	0xbc336365	-0.0109489905
239	0xbd275c2a	-0.04085938
240	0x3b983f5a	0.004646224
241	0x3a943ece	0.0011310221
242	0x3c1638de	0.009168832
243	0x3b1ef13a	0.002425267
244	0x3c6fedbd	0.014644084
245	0x39e14d80	0.00042973086
246	0x3ba85142	0.00513664
247	0x3b8256d4	0.003977636
248	0x3b31920f	0.0027095114
249	0xbc45bd87	-0.012069113
250	0xbcee7d6e	-0.029112544
251	0x3cc0d149	0.023537295
252	0xbcbaa531	-0.022783848
253	0x3d2e943b	0.042621832
254	0xbd00a298	-0.03140506
255	0x3c917acc	0.01775875

action_model._continuous_distribution.mu.bias f4 [2]
0	0xba8a2b5e	-0.0010541489
1	0xba44125e	-0.00074795436

action_model._discrete_distribution.branches.0.weight f4 [1, 128]
0	0xbac2cd54	-0.0014862218
1	0x3aa4a8c4	0.0012562503
2	0xbc0dc604	-0.008653168
3	0x3af22f2d	0.0018477194
4	0xba22b1a4	-0.000620628
5	0x3b9f4dfb	0.004861591
6	0xbb9f9857	-0.0048704552
7	0xbc18337d	-0.0092896195
8	0xba03317f	-0.0005004629
9	0x3c1b1abf	0.009466826
10	0x3c3fe4fd	0.01171231
11	0x3c427de5	0.011870836
12	0x3be889bf	0.0070964987
13	0xbb9d4bf0	-0.004800312
14	0xbbe33d0a	-0.0069347667
15	0x3be21978	0.006900009
16	0x3c8de36a	0.017320354
17	0x3c854e15	0.016272584
18	0xbc15b86c	-0.009138208
19	0x3bfdf625	0.00775029
20	0x3ca0642b	0.019579014
21	0x3c9486a8	0.018130615
22	0xbb0ecea4	-0.0021790648
23	0x3acd2fba	0.0015654482
24	0x3bca4503	0.0061727776
25	0x3b706d05	0.0036686074
26	0x3c0d3b47	0.00862009
27	0xbc12b919	-0.0089552635
28	0xbc83614b	-0.016037604
29	0xba91f1e3	-0.001113471
30	0xbb58a548	-0.00330575
31	0x3cb7d426	0.022440027
32	0xbcb47753	-0.022029554
33	0x3b7d926a	0.0038692006
34	0x3aa72538	0.0012752181
35	0x3c247d3b	0.010039623
36	0xbc2b5f87	-0.010459787
37	0xbc8a473b	-0.016879668
38	0x3c3be052	0.011467056
39	0x3c1d6d49	0.009608575
40	0xbc2db797	-0.010602853
41	0x3b575177	0.0032854953
42	0x3c1386ab	0.009004275
43	0xba887448	-0.0010410631
44	0xbaa1ffe0	-0.0012359582
45	0x3ac73b6c	0.0015200204
46	0xba0f7f28	-0.0005473965
47	0x3aa66648	0.0012695277
48	0xb8abeb5f	-8.197757e-05
49	0x3a9c0bd3	0.0011905379
50	0x3a9b0348	0.0011826539
51	0xbbdbc50d	-0.00670684
52	0xbc748853	-0.01492508
53	0xba3099c8	-0.00067367824
54	0xbc536a50	-0.012903765
55	0xbc1a0a8e	-0.0094019305
56	0xbc77d192	-0.015125649
57	0x3b2d98fa	0.0026488886
58	0x3c2bb147	0.010479278
59	0xbc02774e	-0.007963015
60	0x3be70ce2	0.0070510963
61	0x3c1fdb16	0.009756824
62	0xb94c112f	-0.00019461357
63	0x3c26b363	0.010174605
64	0x39c57cbf	0.0003766771
65	0xbb703228	-0.003665099
66	0x3a74c663	0.0009337423
67	0x3c4bef3f	0.012447177
68	0xbabb296f	-0.0014279316
69	0x3aa9018b	0.0012894137
70	0xbb7432bd	-0.0037261688
71	0xbb99d4d0	-0.0046945587
72	0x3b964223	0.004585521
73	0x3a6f66df	0.00091324555
74	0x3a078307	0.0005169366
75	0xbc2589a9	-0.0101036215
76	0x39c26bcf	0.00037082887
77	0x3b16c403	0.0023005016
78	0xba7b46d0	-0.0009585442
79	0xbc93765b	-0.018000772
80	0xbc83d4d3	-0.016092693
81	0xbba42c05	-0.0050101303
82	0xbac07462	-0.0014683122
83	0x3c00db7a	0.007864827
84	0x3a30fd9b	0.00067516573
85	0x3b2d5bc6	0.0026452406
86	0x3bc9f124	0.0061627794
87	0x38dbd4e5	0.000104823885
88	0xbc8b2302	-0.016984466
89	0xbcbad41c	-0.02280622
90	0x3b96a23b	0.004596976
91	0x3c53d9c0	0.012930334
92	0xbbe867f3	-0.00709247
93	0x3b0cdc0f	0.002149347
94	0xb9c9810c	-0.00038433855
95	0xbc07a543	-0.008279148
96	0xbc5783ef	-0.013154014
97	0xbc6cd143	-0.014454189
98	0xbb8483a3	-0.0040440126
99	0x3a225d77	0.0006193737
100	0x3c62fac0	0.013853729
101	0xbba612e3	-0.0050681694
102	0x3bbace8b	0.0057008914
103	0xbb94f1fb	-0.004545448
104	0xbc0057ad	-0.007833404
105	0xbc9efdb0	-0.019408077
106	0x3bbdc923	0.0057917996
107	0xbaa26b13	-0.001239153
108	0xbbe080bf	-0.006851285
109	0xbc33697a	-0.010950441
110	0x3cc46753	0.02397505
111	0xbc55050a	-0.01300169
112	0x3c20351b	0.009778286
113	0x3c628c58	0.013827406
114	0xbc2bee57	-0.010493836
115	0x3c1f20e8	0.009712435
116	0x3c26bd21	0.010176928
117	0x3c519c6b	0.012793641
118	0xbb987232	-0.004652285
119	0xbc21cf84	-0.009876136
120	0xbbca1944	-0.0061675627
121	0x3b853c78	0.0040660463
122	0x3b3f33cb	0.0029175158
123	0x3bb83432	0.0056214565
124	0xbb5c0a6d	-0.003357555
125	0xbc0fb1d9	-0.0087704295
126	0x3aaa24b4	0.0012980909
127	0xbaf8a057	-0.0018968683

critic.network_body.linear_encoder.seq_layers.0.weight f4 [128, 6]
0	0x3f0a1309	0.53935295
1	0x3eea89b8	0.45808196
2	0x3eb928b0	0.36163855
3	0x3e8d0092	0.27539498
4	0xbeb5e151	-0.35523465
5	0xbef6b128	-0.48182034
6	0xbd129a47	-0.03579166
7	0xbe2d3034	-0.1691292
8	0xbe10b1e7	-0.14130364
9	0xbe8dea8e	-0.27718014
10	0x3eee09e1	0.46491912
11	0xbeab1ac4	-0.33418858
12	0x3f8fec73	1.1244034
13	0xbe629325	-0.22126444
14	0x3e05a5f1	0.13051583
15	0x3e530b9e	0.206099
16	0xbddfbdfe	-0.1092491
17	0x3f1ffb7b	0.62493104
18	0x3e2cc7a6	0.16873035
19	0xbe9f89b4	-0.31159747
20	0x3df2b7be	0.11851452
21	0xbf069939	-0.5257755
22	0xbc910e70	-0.01770708
23	0xbe6aea8b	-0.22941034
24	0x3d6a0678	0.057135075
25	0x3daabcaa	0.08336766
26	0xbe202782	-0.15640071
27	0xbe106e22	-0.14104512
28	0xbf274226	-0.6533531
29	0x3e915365	0.28383937
30	0xbe02b88f	-0.12765716
31	0x3ed29713	0.41130885
32	0xbeeed02b	-0.46643195
33	0x3ea07f66	0.31347197
34	0xbeba1b73	-0.36349067
35	0xbf7f0cb8	-0.9962878
36	0xbc333314	-0.010937471
37	0xbeca00ac	-0.39453638
38	0x3f28b167	0.65895694
39	0xbed5d617	-0.417649
40	0xbf54c517	-0.83113235
41	0xbe18c48b	-0.14918725
42	0xbdb49c79	-0.08818907
43	0x3e3293f6	0.17439255
44	0xbef01134	-0.46888125
45	0x3f07e1ff	0.5307922
46	0xbe29c3a4	-0.16578537
47	0xbe18b0ea	-0.14911237
48	0x3dd4fb80	0.10399532
49	0x3d6bec35	0.05759831
50	0xbe7e15fb	-0.24813072
51	0x3e2f4d20	0.17119265
52	0x3d34dd3d	0.0441563
53	0x3df3f293	0.11911502
54	0x3e661413	0.22468595
55	0x3f09822a	0.5371424
56	0x3f48e991	0.78481394
57	0x3f0c738d	0.54863816
58	0xbf4e80b6	-0.8066515
59	0xbec38142	-0.38184553
60	0x3e703953	0.23459367
61	0xbe348060	-0.17627096
62	0x3ecffe66	0.40623778
63	0xbe99f3af	-0.30068728
64	0xbecb6d5c	-0.39731872
65	0xbea55f84	-0.32299435
66	0x3dffeeaf	0.12496697
67	0xbf279a2a	-0.6546961
68	0x3ea5f28f	0.3241162
69	0xbec10e75	-0.37706342
70	0x3cef74bf	0.029230474
71	0xbe189038	-0.14898765
72	0xbdf5c4ce	-0.12000428
73	0xbd25d5ac	-0.040486977
74	0xbe9d95b6	-0.30778283
75	0xbcbd9204	-0.023140915
76	0xbaa83c7c	-0.0012835409
77	0x3d2d6538	0.042332858
78	0x3efe464c	0.49663007
79	0x3f24c6ed	0.64366037
80	0x3cdbe5ae	0.026842918
81	0xbd3a64cc	-0.045506284
82	0xbf5baddc	-0.85812163
83	0xbedbbeaf	-0.42918918
84	0x3e5fd67c	0.21859163
85	0x3eebdd97	0.46067497
86	0x3e5f286c	0.21792763
87	0x3dd60a13	0.1045114
88	0xbe48fd10	-0.19627786
89	0x3f1a71c3	0.60329837
90	0x3e46f3ab	0.1942889
91	0x3c623599	0.013806724
92	0xbe31aa5e	-0.17350146
93	0xbe9c027c	-0.30470645
94	0x3c200d71	0.00976883
95	0xbe3fd422	-0.18733266
96	0x3f064342	0.5244638
97	0xbf015b9e	-0.5053042
98	0xbd885fae	-0.066588745
99	0x3f2d3f5b	0.676748
100	0x3efa479c	0.4888276
101	0x3e92084b	0.28521952
102	0xbf27323b	-0.6531102
103	0x3e236e4d	0.15960045
104	0xbe0ab8ec	-0.13547105
105	0x3e3d5cd0	0.18492436
106	0x3f3c563f	0.735691
107	0x3e92136a	0.28530437
108	0x3cf382f6	0.029725533
109	0xbbe01559	-0.0068384823
110	0xbf1daef4	-0.6159508
111	0x3e80b707	0.2513964
112	0xbe6c8efe	-0.23101422
113	0xbf13bba4	-0.5770819
114	0xbe7f4b90	-0.24931169
115	0x3f338920	0.7013111
116	0x3f55363c	0.8328588
117	0x3f02701f	0.50952333
118	0x3d04f869	0.032463465
119	0x3e650964	0.22366863
120	0x3eacfe4d	0.33787766
121	0xbe3ffa3d	-0.18747802
122	0x3d186394	0.03720434
123	0xbedd5186	-0.4322626
124	0xbe8864c4	-0.26639378
125	0x3ecb0a96	0.39656514
126	0x3f0e387a	0.55554926
127	0x3ef5f971	0.4804187
128	0x3e3bda63	0.18345027
129	0xbd1518a2	-0.036400445
130	0xbf12c3ad	-0.5732983
131	0xbf3b8e73	-0.73264235
132	0xbd3c6d98	-0.046002954
133	0xbc44174c	-0.011968445
134	0x3d8aa405	0.067695655
135	0xbf3c9637	-0.7366671
136	0x3e24e58f	0.16103195
137	0xbeb9aea9	-0.36266068
138	0xbeedb9d3	-0.46430835
139	0xbde459b5	-0.11149923
140	0x3eccfea4	0.40038025
141	0x3e1ebe8b	0.15502374
142	0x3f406ba6	0.7516426
143	0x3f418302	0.7559053
144	0xbe88f67c	-0.26750553
145	0x3f1dad45	0.61592513
146	0xbe9724a3	-0.2952014
147	0xbedb8e2d	-0.4288191
148	0xbec99c63	-0.39377126
149	0xbd199046	-0.037491105
150	0x3dbfbe90	0.09362519
151	0x3ee4f49f	0.4471788
152	0xbefa6926	-0.48908347
153	0xbf4f73ab	-0.8103587
154	0x3e101c49	0.1407329
155	0xbf17a63a	-0.59238017
156	0x3e33fc08	0.17576611
157	0xbe526e7b	-0.20549957
158	0xbf69d52a	-0.9134089
159	0x3f1bdd2f	0.60884374
160	0x3f20dd04	0.62837243
161	0xbd7e2272	-0.06204457
162	0x3e506db0	0.20354342
163	0x3ebfd1d3	0.3746477
164	0xbee3da73	-0.445026
165	0x3e925a61	0.2858458
166	0xbe64adf6	-0.22331986
167	0x3c0a4d2f	0.008441254
168	0xbf3ced6d	-0.73799783
169	0x3f702911	0.9381266
170	0x3f00456a	0.5010592
171	0xbda0485e	-0.07826303
172	0xbed7489b	-0.4204758
173	0x3f946b2b	1.1595205
174	0xbeae9862	-0.34100634
175	0x3e5e893f	0.21732043
176	0x3e9cc9a8	0.30622602
177	0x3e8ae3be	0.27126878
178	0xbe15082f	-0.14553903
179	0xbe0e2c01	-0.13883974
180	0xbef48796	-0.47759694
181	0xbc9e4c99	-0.019323634
182	0xbdefaace	-0.117025
183	0xbe8147fa	-0.25250226
184	0x3e9211d7	0.28529236
185	0xbeb29dc7	-0.34886
186	0xbdaed7ee	-0.08537279
187	0x3e6c0959	0.23050441
188	0xbf9f7c87	-1.2459878
189	0xbea362e6	-0.3191139
190	0x3d8297ec	0.06376633
191	0xbf156f13	-0.5837261
192	0xbe3149e1	-0.17313339
193	0x3f3a3271	0.7273322
194	0xbebe59ba	-0.3717783
195	0x3e7ed64c	0.24886435
196	0x3e9623e4	0.29324257
197	0x3e9db37c	0.30800998
198	0xbcf4d62e	-0.029887285
199	0xbe723030	-0.23651195
200	0xbf6d3208	-0.92654467
201	0x3d9ed473	0.07755365
202	0xbf2952da	-0.66142046
203	0xbdcfb248	-0.10141426
204	0x3fa05638	1.2526312
205	0x3ef7510f	0.4830403
206	0x3ec6a1aa	0.38795215
207	0x3ea8a2ac	0.3293661
208	0x3ea15402	0.31509405
209	0xbcdb162e	-0.026743975
210	0xbf208be6	-0.6271347
211	0xbeccdb69	-0.40011147
212	0xbe864529	-0.2622464
213	0xbe156844	-0.14590555
214	0xbea30024	-0.31836045
215	0xbec20f6d	-0.37902394
216	0xbe83ea34	-0.2576462
217	0xbf07f907	-0.5311436
218	0x3eac9b3f	0.33712193
219	0x3eb1d2f4	0.34731257
220	0xbe2c9919	-0.16855277
221	0xbf105663	-0.56381816
222	0xbf59083d	-0.84778196
223	0xbe0c3a6d	-0.13694163
224	0xbe4b1e4a	-0.19835773
225	0xbe5843ac	-0.21119565
226	0x3e3af146	0.18256101
227	0xbe262ed3	-0.162288
228	0x3e96020a	0.2929843
229	0x3db03a7c	0.08604905
230	0xbe571450	-0.21003842
231	0x3d002082	0.031281002
232	0xbddea94a	-0.10872133
233	0x3e1dfa9e	0.15427634
234	0xbeb6fd16	-0.35739964
235	0x3e7ee33e	0.24891374
236	0x3e8a1c66	0.2697479
237	0xbe4a8c4b	-0.1978008
238	0xbe66dd89	-0.22545446
239	0xbe963113	-0.29334316
240	0x3e900fd9	0.2813709
241	0x3eacbbb9	0.3373697
242	0x3e2b824a	0.1674892
243	0xbe88778d	-0.2665371
244	0x3f174a88	0.590981
245	0x3f161773	0.5862953
246	0xbf549e16	-0.8305372
247	0x3e82c7b4	0.25542986
248	0xbe9cc198	-0.3061645
249	0xbed1b166	-0.40955657
250	0xbf3461de	-0.70461833
251	0xbdd03adf	-0.10167479
252	0xbeb0ebe7	-0.3455498
253	0x3f17d155	0.5930379
254	0xbe031106	-0.12799463
255	0x3d1d9356	0.03847059

critic.network_body.linear_encoder.seq_layers.0.bias f4 [128]
0	0xb94b4b7d	-0.0001938771
1	0xb9b503f6	-0.0003452596
2	0xb882b446	-6.2324616e-05
3	0xba6e7ad0	-0.000909728
4	0x386fc1ba	5.7162462e-05
5	0xb9b2b587	-0.00034086054
6	0xba514caf	-0.0007984144
7	0x3a93877c	0.0011255587
8	0x372d53c8	1.033111e-05
9	0xba525856	-0.00080240273
10	0xba09f45e	-0.0005262549
11	0xba29c3cf	-0.0006476016
12	0xb945fe04	-0.00018882012
13	0xb9863299	-0.0002559617
14	0x3a0319bc	0.0005001088
15	0x386e3de6	5.680127e-05
16	0xb934fff4	-0.00017261488
17	0xbae730f2	-0.0017638488
18	0x39bca4ff	0.00035981086
19	0x39aafbf6	0.00032612652
20	0xb9f77bbc	-0.000472037
21	0xb9dc5350	-0.00042023743
22	0x39ad9c90	0.0003311378
23	0x398f6bb9	0.00027355345
24	0x3a0c8bf2	0.00053614296
25	0x3980af78	0.00024544797
26	0x39d595d0	0.00040738145
27	0x3aa9e51d	0.0012961958
28	0x39b1128e	0.00033773895
29	0x39eb4d4b	0.0004488028
30	0xba43f5fe	-0.00074753154
31	0x398958a4	0.0002619672
32	0xb9d87176	-0.00041283265
33	0xb972d932	-0.0002315983
34	0xba12bd92	-0.0005597706
35	0xba69a87e	-0.0008913352
36	0xbace0bdc	-0.0015720087
37	0xba5835e0	-0.0008247774
38	0xb95845a1	-0.00020625304
39	0x37a0a554	1.9150473e-05
40	0x38349a3b	4.3058983e-05
41	0xb8295224	-4.036924e-05
42	0xb9f9bf29	-0.00047635406
43	0xb9ca1ecc	-0.00038551388
44	0xb7c949b7	-2.3995393e-05
45	0x38dbf5e8	0.000104885374
46	0x3a9f09e3	0.0012133684
47	0xb96e00d0	-0.00022697751
48	0x392aaf1c	0.00016277697
49	0xb9911e0a	-0.00027678936
50	0x382ca80e	4.116451e-05
51	0xb9b9d5e8	-0.00035445322
52	0xbb05da84	-0.0020424435
53	0xb954db6a	-0.00020299634
54	0x3a48fa4c	0.00076666917
55	0x394f541a	0.00019772389
56	0x3a20c3cb	0.0006132691
57	0x388595d0	6.369839e-05
58	0xb93aac97	-0.00017802637
59	0xb979db5e	-0.00023828211
60	0x38c975b0	9.606348e-05
61	0x399cb345	0.00029888205
62	0x398a099f	0.0002632858
63	0x3807403e	3.224634e-05
64	0xb99189ad	-0.00027759132
65	0xba34317e	-0.000687383
66	0xba487470	-0.0007646745
67	0xbb21da46	-0.0024696751
68	0x397fdf39	0.00024401852
69	0x3a3ba350	0.00071578193
70	0x3a7332b8	0.0009277272
71	0xbb36cddd	-0.00278937
72	0xba0b0cd9	-0.00053043436
73	0x3aba6d2a	0.0014223207
74	0x3adce241	0.0016852097
75	0x372fc3ba	1.0476384e-05
76	0xb95c7beb	-0.00021026998
77	0xb95b1282	-0.00020892362
78	0xba774c7c	-0.00094336993
79	0x379d1f90	1.8730556e-05
80	0x39f23c5c	0.00046202808
81	0x39a2d9de	0.00031061372
82	0x39ffac19	0.00048765613
83	0xb8ffffcb	-0.00012206993
84	0xbacf777b	-0.0015828455
85	0xbac77c71	-0.0015219582
86	0x3ab5934c	0.0013853102
87	0xb92843da	-0.00016047005
88	0x3a9b5693	0.0011851363
89	0x3ad69189	0.0016370277
90	0xb9e1aba1	-0.00043043218
91	0x3a23beba	0.0006246377
92	0xba2dc482	-0.0006628708
93	0xb9bd78f2	-0.00036139
94	0x3a0fb656	0.0005482187
95	0x39aeba49	0.0003332666
96	0xba26b85b	-0.00063598686
97	0xb97c0e34	-0.00024037884
98	0xb9022f9a	-0.00012415499
99	0xb9894c82	-0.0002618768
100	0x38919130	6.941182e-05
101	0xb992a824	-0.00027972565
102	0x39938814	0.0002813941
103	0xb9df003b	-0.00042534046
104	0xb9f02e2b	-0.00045810765
105	0x3958f5fe	0.00020691004
106	0xb9bce78e	-0.00036030676
107	0x39ec09e0	0.00045020785
108	0xba95a74f	-0.001141766
109	0xba091121	-0.00052286877
110	0xb98977c7	-0.00026219917
111	0xbafe1b0e	-0.0019386725
112	0x3aa8dc11	0.0012882968
113	0x38abe37d	8.1962884e-05
114	0x39d2164f	0.00040070942
115	0xb98aec18	-0.00026497315
116	0xb9c7b386	-0.00038089993
117	0x3989f460	0.0002631275
118	0xba790fc7	-0.0009500947
119	0xba867678	-0.0010258695
120	0xb9b0b275	-0.00033702297
121	0x39904c98	0.00027522887
122	0xba2a5227	-0.0006497227
123	0xba9e8e7a	-0.0012096905
124	0x3a522ef5	0.00080178614
125	0x390338fb	0.0001251436
126	0x393512ff	0.00017268582
127	0x38abc434	8.190461e-05

critic.network_body.linear_encoder.seq_layers.2.weight f4 [128, 128]
0	0xbd82c3be	-0.06384991
1	0xbcb5bbeb	-0.022184333
2	0xbd88bdcd	-0.066768266
3	0x3da98b9d	0.08278582
4	0xbbdefa6d	-0.0068047554
5	0x3d06cced	0.032910276
6	0x3c0da859	0.008646094
7	0xbca2a458	-0.019853756
8	0xbd93ec7e	-0.07222842
9	0x3ddcd391	0.107825406
10	0x3cf7b018	0.030235335
11	0xbd65a795	-0.05606802
12	0xbc93a3c5	-0.018022427
13	0xbc8a2c5e	-0.016866859
14	0x3dbbe789	0.09175021
15	0x3ca5a5e2	0.0202207
16	0x3c8708f5	0.016483763
17	0x3e143515	0.14473374
18	0x3a3db8e1	0.0007237327
19	0xbbd0ba5d	-0.0063698725
20	0xbc635fc2	-0.013877811
21	0x3de4dbe8	0.11174756
22	0x3cfa361a	0.030543376
23	0x3d9bcf12	0.07607855
24	0x3de288c3	0.110612415
25	0x3ddb425e	0.10706018
26	0x3d61ef8f	0.0551601
27	0x3e23efbe	0.16009423
28	0x3dc6b55f	0.097025625
29	0x3cc532fc	0.024072163
30	0xbb81d043	-0.0039615943
31	0xbcf43cb5	-0.029814104
32	0xbca47a45	-0.020077834
33	0x3ca87858	0.020565197
34	0xbcde5eed	-0.027144874
35	0xbcf10a77	-0.029423935
36	0xbd2af1f3	-0.041734647
37	0x3d922b70	0.07137191
38	0x3d3ff6aa	0.046866097
39	0x3e2859a3	0.16440444
40	0x3be6cf9a	0.007043791
41	0x3d0540b7	0.03253242
42	0x3b8843c6	0.00415847
43	0xbd3277ae	-0.043571167
44	0xbe07e137	-0.13269506
45	0xbe3cab59	-0.18424739
46	0xbd044e4a	-0.032301225
47	0x3d97c4af	0.07410561
48	0xbdf2983a	-0.11845441
49	0xbd1511c4	-0.036393896
50	0xbde90994	-0.1137878
51	0xbe334d6b	-0.17510001
52	0x3cb346e7	0.021884395
53	0x3d9e653e	0.07734154
54	0x3daaa222	0.08331706
55	0xbd82abbd	-0.06380413
56	0xbd051df0	-0.032499254
57	0x3d6c7520	0.057728887
58	0x3dd46b0e	0.103719816
59	0x3d859e59	0.06524343
60	0xbde25fe7	-0.11053448
61	0xbdafed21	-0.085901506
62	0x3ba19725	0.004931348
63	0x3cab2b77	0.02089475
64	0xbe0ef250	-0.13959622
65	0xbd442d2e	-0.04789465
66	0xbd144100	-0.0361948
67	0x3e1dc381	0.1540661
68	0xbe04a987	-0.12955295
69	0xbe041af6	-0.1290091
70	0xbd9888ee	-0.07447992
71	0x3db7ee4c	0.089809984
72	0xbde96724	-0.11396626
73	0xbd667d25	-0.05627169
74	0xbd9df303	-0.077123664
75	0x3d272a06	0.04081156
76	0x3cc06019	0.023483323
77	0x3c09b736	0.008405497
78	0xbccb9ce5	-0.024855087
79	0x3c906793	0.017627513
80	0xbd2c170d	-0.04201417
81	0xbd0c4147	-0.03424194
82	0x3d0d069f	0.034430142
83	0xbbfb6cee	-0.0076728975
84	0xbd1b0de1	-0.037855033
85	0x3d7f05fb	0.062261563
86	0x3dae184a	0.085007265
87	0x3e24d1c9	0.16095652
88	0xbaf8d62f	-0.001898473
89	0x3d5f9b98	0.054591745
90	0xbdd749b5	-0.105121054
91	0x3d6c4274	0.057680562
92	0xbc87e161	-0.016586961
93	0xbcab1be3	-0.02088732
94	0x3d0db120	0.034592748
95	0xbcacb174	-0.02108071
96	0xbe34cc14	-0.17655975
97	0x3d487c28	0.04894653
98	0x3d333b0e	0.04375749
99	0xbcfb8003	-0.03070069
100	0x3c22d384	0.009938125
101	0x3cebd87d	0.028789753
102	0x3e0a445d	0.13502641
103	0xbcdf5c1d	-0.027265603
104	0xbc9387ed	-0.01800915
105	0x3e038093	0.12842016
106	0x3d563957	0.052300777
107	0xbd17dac1	-0.037073854
108	0xbdd592d8	-0.10428399
109	0xbda7dc10	-0.081962705
110	0xbd9c5b40	-0.07634592
111	0xbb4a1ac3	-0.0030838705
112	0x3d53d517	0.05171689
113	0x3dbe5f92	0.09295572
114	0xbc025211	-0.0079541365
115	0xbbf98867	-0.0076151374
116	0xbc4681cf	-0.01211591
117	0x3dbb33f0	0.09140766
118	0xbcbaf03a	-0.022819627
119	0x3c2040c4	0.009781066
120	0xbd384ba7	-0.044994023
121	0xbc197092	-0.009365218
122	0x3cc4c1c6	0.02401818
123	0x3dd32b5d	0.10311005
124	0x3ca9e437	0.020738704
125	0x3e076d03	0.13225178
126	0x3e655b34	0.22398072
127	0x3e042234	0.12903672
128	0x3deba811	0.115066655
129	0x3df4b738	0.11949009
130	0x3bb2d145	0.005457076
131	0xbd2a8430	-0.04162997
132	0x3c82883c	0.015934102
133	0x3db8a2ab	0.090154015
134	0x3c99c673	0.018771386
135	0x3df1b84c	0.1180273
136	0x3c0e102d	0.008670849
137	0xb8dcddfc	-0.00010531765
138	0x3d7ed9e5	0.06221952
139	0xbd451cfd	-0.04812335
140	0x3dacfa35	0.08446161
141	0x3cc08901	0.023502829
142	0xbd5790c6	-0.0526283
143	0xbd8ebfdd	-0.06970189
144	0x3e06d6cf	0.1316788
145	0x3ca64b58	0.020299599
146	0x3d37b531	0.044850532
147	0xbc830441	-0.01599324
148	0xbe1c27cf	-0.15249561
149	0x3e182fdc	0.14862007
150	0x3adf0e9c	0.0017017904
151	0x3e874aa5	0.26424137
152	0xbc416ce0	-0.011805743
153	0xbdaaf846	-0.08348136
154	0x3d47a392	0.048739977
155	0x3bd3ca0d	0.0064632953
156	0xbc8fb0d5	-0.017540375
157	0xbd814910	-0.06312764
158	0xbd808a5c	-0.0627639
159	0x3d1ffce7	0.039059546
160	0x3d130a80	0.035898685
161	0x3d0f1735	0.03493424
162	0x3c841beb	0.016126594
163	0x3bb7fd02	0.0056148777
164	0xbd3f1c7f	-0.046658035
165	0xbd2c83ab	-0.042117756
166	0xbdf33819	-0.11875934
167	0x3e2e6d7b	0.17033951
168	0x3e04336e	0.12910244
169	0x3df2eaf0	0.11861217
170	0xbe4f2235	-0.20227893
171	0xbcd49dc7	-0.02595414
172	0xbe4c8efb	-0.19976418
173	0x3d0b4fa8	0.034011513
174	0x3d0803cf	0.033206757
175	0xbd8ccaa4	-0.06874588
176	0xbc28ea08	-0.010309704
177	0xbdd49b0a	-0.10381134
178	0xbdba811f	-0.09106659
179	0xbd04a6d5	-0.032385666
180	0xbd88a38a	-0.066718176
181	0x3cf255ac	0.029581867
182	0xbd779f93	-0.060454916
183	0xbd2185ad	-0.039434124
184	0xbd9d2826	-0.07673673
185	0xbc98c845	-0.018650183
186	0x3d12969e	0.03578817
187	0x3da592a9	0.08084614
188	0xbd91c9a4	-0.07118538
189	0x3cb4bb98	0.022062108
190	0x3e3fe4e3	0.18739657
191	0x3d4f4f3b	0.05061267
192	0x3a75a762	0.000937095
193	0xbd5ec3f5	-0.054386098
194	0xbdd07de2	-0.1018026
195	0x3e370894	0.17874366
196	0xb86f3869	-5.7034576e-05
197	0x3e3181b5	0.17334636
198	0x3e2bfec5	0.16796406
199	0xbd574db8	-0.052564353
200	0xbd50e55e	-0.05099999
201	0xbe2a7a84	-0.16648299
202	0xbcc4334f	-0.023950247
203	0x3d16e1f1	0.03683657
204	0xbe71f5cf	-0.23628925
205	0xbd46d977	-0.048547234
206	0xbe532f0a	-0.20623413
207	0x3d302080	0.042999744
208	0xbc46dcc4	-0.012137596
209	0xbd9d8fd0	-0.07693446
210	0x3d3d5457	0.04622301
211	0x3d94a25c	0.0725753
212	0x3dca95fd	0.09891889
213	0xbd876437	-0.06610911
214	0xbdad41f7	-0.084598474
215	0x3d550102	0.052002914
216	0x3bbe41c8	0.0058061816
217	0xbcdd76ec	-0.027034245
218	0xbdd93ad2	-0.10606922
219	0xbd07aef9	-0.03312585
220	0xbccec070	-0.025238246
221	0x3cdcd5af	0.026957361
222	0x3d275a95	0.04085787
223	0x3e018238	0.12647331
224	0xbc425cf5	-0.011862983
225	0xbc0a8990	-0.008455649
226	0xbc78f643	-0.015195432
227	0x3d206c18	0.039165586
228	0x3c9d94c1	0.01923597
229	0xbca0867b	-0.019595375
230	0x3d5930de	0.05302512
231	0x3cfd291e	0.030903395
232	0xbdc0caa8	-0.094136536
233	0x3d827d79	0.06371588
234	0x3da3827f	0.079838745
235	0x3eb1f323	0.3475581
236	0x3d92646d	0.07148061
237	0xbcfa92ea	-0.030587632
238	0x3be0557f	0.0068461294
239	0x3c1ff725	0.009763514
240	0x3da26441	0.07929278
241	0x3d2cd737	0.042197432
242	0x3da4a57a	0.08039375
243	0x3cc09bb4	0.023511745
244	0xbce1d536	-0.027567487
245	0xbc1f55e2	-0.009725066
246	0x3ce0b252	0.02742878
247	0xbcf28b81	-0.029607536
248	0xbdc82f2e	-0.09774624
249	0xbcb961a7	-0.022629572
250	0xbd69722d	-0.056993652
251	0xbdd3b6c1	-0.10337592
252	0xbe476d28	-0.19475234
253	0x3e394c85	0.18095596
254	0xbcc4b109	-0.024010198
255	0xbd3e1e16	-0.04641541
